results/ag22/PlatformRotate.onnx (onnx, 19151 bytes, 8 tensors)

network_body._body_endoder.seq_layers.0.weight f4 [32, 78]
-0.11804485 0.12214506 -0.04213355 -0.17332587 0.1033591 -0.14582555 -0.07392939 0.14976765
0.0020175595 -0.17085993 -0.14568336 0.10553791 -0.06297162 0.15353097 -0.11861503 0.06885447
-0.17152312 0.066796705 0.006077231 -0.08310714 0.019201446 0.23000367 0.045934297 0.034692615
0.16604178 -0.11414059 -0.051041454 0.024208289 -0.08074782 -0.191674 0.017963924 0.07550635
-0.045819383 -0.03593344 -0.049683318 0.053229924 -0.13548344 -0.21910456 -0.11099891 0.04225461
-0.003934626 0.21155988 -0.0028605442 0.02819726 0.0018342856 0.11279186 -0.049341783 -0.058167417
-0.06713539 0.008099719 0.12091478 0.15419218 -0.2033232 -0.084133364 -0.034612175 -0.04368954
-0.04829915 -0.016707543 -0.0218487 0.18531328 0.1127922 0.09077992 -0.12281458 -0.10906581
0.051336378 0.027587976 -0.029227095 -0.052070327 -0.011042599 0.005151876 -0.046004973 0.024862118
-0.27804703 -0.03187919 0.017348234 0.00059334293 -0.040962216 0.04214533 -0.21784417 0.047749072
0.106488034 0.044168584 0.01427847 -0.1999729 0.07194295 0.26889092 0.11884295 -0.011305211
0.074294016 0.12172961 0.09780105 -0.055220917 -0.07094528 -0.019243926 -0.1849295 0.03316909
-0.07031168 0.022272933 0.08224772 0.0001670974 -0.14095771 0.0011733004 -0.011657413 0.00521725
-0.01944397 -0.17732377 0.23606446 0.081298664 -0.046628673 0.0043145246 0.082163826 0.18702689
-0.24140404 -0.09179507 0.009106712 -0.079423144 0.011418231 0.0752084 0.03740235 0.17272091
-0.11041427 -0.18152988 0.021923386 -0.21594627 -0.07119226 0.064734116 -0.23188764 0.06286349
0.07522281 -0.024878355 -0.013189507 0.040616438 -0.16216259 0.027292954 0.038203105 -0.14622234
0.030237123 -0.05434519 0.11853694 -0.003156986 -0.023382897 0.064741 -0.035917666 0.033180967
-0.027718345 -0.070061445 0.069934554 -0.049297687 -0.028051957 0.01964164 -0.0985675 0.04154373
0.054685004 -0.029352924 0.08508437 0.08108639 -0.30986843 0.017049164 -0.10367036 -0.14591767
-0.10693065 0.06291772 -0.012923578 0.09360325 -0.17448913 0.24790269 0.051367372 -0.011459596
0.025256336 -0.03162837 -0.06447092 0.05262081 0.032559197 0.09832059 0.02754833 -0.19873384
0.11406083 0.012849973 -0.11110135 -0.2078854 0.15365876 -0.06654397 0.16371842 0.21781121
0.01062564 -0.07256819 0.15933768 -0.35319746 -0.03454036 0.06388271 0.054765575 0.0875018
0.1627533 0.043752316 0.099878214 0.114339024 0.20435768 0.007024268 0.01635192 -0.028031064
-0.16667356 -0.024660144 -0.03680892 0.011328874 0.13348226 -0.05866034 0.004271931 -0.08353985
0.08161868 -0.24912524 0.042957604 0.07930727 0.14201054 0.07026772 0.18227482 -0.122354575
0.06962538 -0.1434688 0.047094405 0.13780412 0.008432179 -0.014501154 0.067986876 0.008049433
-0.22742371 0.011239215 -0.020659527 -0.14329223 -0.16830415 0.014109438 -0.13045037 -0.069447055
0.017867586 0.054453693 -0.09299922 -0.047202297 0.18270789 -0.10421345 -0.069456965 0.038843066
0.013876687 -0.23926987 -0.14090243 -0.0818833 0.014066985 0.084307864 -0.007601472 0.2589259
0.17442074 0.06298441 0.041579984 -0.046134166 0.028365107 0.031132417 0.024899637 0.011207152
00000000: 80c1 f1bd 3027 fa3d 3b94 2cbd 567c 31be
00000010: f0ad d33d 4b53 15be 4b68 97bd b15c 193e
00000020: 0839 043b e8f5 2ebe 052e 15be 4224 d83d
00000030: 44f7 80bd 3937 1d3e 70ec f2bd 9303 8d3d
00000040: c2a3 2fbe b6cc 883d 8223 c73b 1434 aabd
00000050: 5a4c 9d3c 1586 6b3e 9a25 3c3d d819 0e3d
00000060: db06 2a3e 8bc2 e9bd d810 51bd 7650 c63c
00000070: 1d5f a5bd 3046 44be 1429 933c 13a3 9a3d
00000080: 1bad 3bbd f12e 13bd bc80 4bbd 9f07 5a3d
00000090: 2cbc 0abe f25c 60be 6653 e3bd 2c13 2d3d
000000a0: 09ee 80bb 27a3 583e f877 3bbb f1fd e63c
000000b0: 696c f03a 6bff e63d 9c1a 4abd f540 6ebd
000000c0: 487e 89bd afb4 043c 2ba2 f73d 8ee4 1d3e
000000d0: f533 50be 1d4e acbd 7fc5 0dbd cef3 32bd
000000e0: 54d5 45bd 42de 88bc 0bfc b2bc c4c2 3d3e
000000f0: 99ff e63d d3ea b93d 3686 fbbd e55d dfbd
00000100: 1846 523d 2e00 e23c a96d efbc b247 55bd
00000110: 04ec 34bc 11d1 a83b b66f 3cbd a4ab cb3c
00000120: 2e5c 8ebe c193 02bd e21d 8e3c 928a 1b3a
00000130: ffc7 27bd 95a0 2c3d 8b12 5fbe 8894 433d
00000140: 6616 da3d 1eea 343d 3ef0 693c b2c5 4cbe
00000150: d356 933d 12ac 893e ef63 f33d 7e39 39bc
00000160: 7627 983d 604d f93d eb4b c83d 542f 62bd
00000170: c24b 91bd 70a5 9dbc 295e 3dbe 50dc 073d
00000180: 92ff 8fbd ba75 b63c 7e71 a83d de36 2f39
00000190: 3857 10be 6ec9 993a bcfe 3ebc 77f5 aa3b
000001a0: f648 9fbc 5d94 35be e2ba 713e ea7f a63d
000001b0: b5fd 3ebd db60 8d3b 8245 a83d fa83 3f3e
000001c0: 9f32 77be 0eff bbbd 5234 153c 9aa8 a2bd
000001d0: 8813 3b3c dd06 9a3d 3533 193d c0dd 303e
000001e0: e020 e2bd f8e2 39be ac98 b33c 0521 5dbe
000001f0: 3fcd 91bd 5293 843d f473 6dbe 93be 803d
00000200: 6b0e 9a3d b1cd cbbc cd18 58bc 6c5d 263d
00000210: f30d 26be 7995 df3c dc7a 1c3d 4fbb 15be
00000220: d8b3 f73c 1099 5ebd 7fc3 f23d 70e5 4ebb
00000230: 7d8d bfbc ee96 843d 671e 13bd c4e8 073d
00000240: 9511 e3bc 607c 8fbd d939 8f3d 5fec 49bd
00000250: 38cd e5bc 81e7 a03c c2dd c9bd c229 2a3d
00000260: 62fd 5f3d 8b75 f0bc b740 ae3d 9f10 a63d
00000270: 13a7 9ebe b0aa 8b3c 2051 d4bd 716b 15be
00000280: 75fe dabd 01db 803d 6abd 53bc 10b3 bf3d
00000290: 47ad 32be 34da 7d3e 9866 523d 08c1 3bbc
000002a0: 60e6 ce3c c08c 01bd 5409 84bd eb88 573d
000002b0: cb5c 053d 4e5c c93d 09ad e13c e280 4bbe
000002c0: b998 e93d b188 523c 1b89 e3bd e9df 54be
000002d0: b958 1d3e 3448 88bd cda5 273e e709 5f3e
000002e0: 2a17 2e3c a29e 94bd 6b29 233e 4cd6 b4be
000002f0: 317a 0dbd f0d4 823d de51 603d 2534 b33d
00000300: cda8 263e a135 333d f38c cc3d 942a ea3d
00000310: 2443 513e d52b e63b 76f4 853c 67a1 e5bc
00000320: 79ac 2abe 1204 cabc f3c4 16bd be9c 393c
00000330: 93af 083e d345 70bd 8efb 8b3b f116 abbd
00000340: b227 a73d b01a 7fbe 50f4 2f3d da6b a23d
00000350: 366b 113e 86e8 8f3d 40a6 3a3e 0995 fabd
00000360: c097 8e3d 7ce9 12be 10e6 403d 861c 0d3e
00000370: 1f27 0a3c 4096 6dbc b43c 8b3d c5e1 033c
00000380: c3e1 68be af24 383c 2b3e a9bc 33bb 12be
00000390: ec57 2cbe 462b 673c c894 05be 423a 8ebd
000003a0: 0b5f 923c d60a 5f3d 6076 bebd 3257 41bd
000003b0: c717 3b3e dc6d d5bd 743f 8ebd e819 1f3d
000003c0: 0b5b 633c 2903 75be ba48 10be 6eb2 a7bd
000003d0: 3679 663c 9aa9 ac3d c515 f9bb f091 843e
000003e0: 5a9b 323e f8fd 803d c64f 2a3d 2ef7 3cbd
000003f0: f15d e83c 6909 ff3c 53fa cb3c 349e 373c

network_body._body_endoder.seq_layers.0.bias f4 [32]
-0.008943014 0.010622139 0.0033973474 -0.009236561 0.014120807 0.0061124326 0.003565365 -0.0033477058
0.005109652 -0.0057941857 0.006525376 0.013570396 0.0059191305 -0.004376366 0.0020900122 -0.027317831
-0.0041013164 0.015257935 -6.056497e-05 -0.009109679 -0.0022886426 -0.0032780007 0.013871893 -0.0008068771
0.0012791808 -0.00445227 -0.00796938 0.004746296 -0.005302265 -0.0011034036 0.0045814537 0.0020858499
00000000: b885 12bc 7b08 2e3c 08a6 5e3b f254 17bc
00000010: f55a 673c cd4a c83b e6a8 693b 2f65 5bbb
00000020: de6e a73b 27dd bdbb d2d2 d53b 5e56 5e3c
00000030: 44f5 c13b 9e67 8fbb 96f8 083b a5c9 dfbc
00000040: 5664 86bb 6bfc 793c 2407 7eb8 c340 15bc
00000050: 0dfd 15bb bad3 56bb f046 633c 9b84 53ba
00000060: 2faa a73a 59e4 91bb 0192 02bc d186 9b3b
00000070: 9fbe adbb 15a0 90ba 0520 963b c1b2 083b

network_body._body_endoder.seq_layers.2.weight f4 [32, 32]
0.17071407 -0.016344976 0.026675886 -0.1836973 -0.10885476 -0.029820248 -0.095373444 0.19004098
0.10318774 0.1652658 -0.17324154 0.076063864 0.26167676 -0.028005892 0.1685436 -0.06283846
-0.11903726 0.17146002 0.092962794 0.16695711 0.116801396 0.14761128 -0.3331493 -0.0071673505
-0.085943654 0.019524096 0.18095534 -0.08269105 -0.0061687864 -0.1955307 -0.009218802 -0.05417659
-0.30466893 -0.14942425 0.06546251 0.012850219 0.008414382 0.15526298 -0.12684284 0.04041086
0.37535888 -0.19573723 -0.1992982 0.18719788 -0.032427754 0.11023636 -0.11463445 0.08823703
-0.1227411 -0.3571483 -0.15437117 0.29506364 0.50647205 -0.12297567 -0.07771834 -0.06201749
-0.040303353 0.18496323 0.09229747 -0.0022863888 -0.010891309 0.26691064 -0.2255565 -0.10998774
-0.014896288 0.18592797 -0.04435334 -0.014687838 0.050244037 0.06407962 0.022575064 -0.12152497
-0.06694186 -0.08753004 -0.113474354 -0.35770085 -0.017633995 0.022310313 0.18816265 -0.036160458
-0.10468489 -0.1238429 -0.0516569 -0.1334925 0.15935984 0.43387434 0.057979837 -0.040399145
0.13993348 -0.09763878 -0.20942792 0.09310043 0.031164378 0.041203015 0.08223188 -0.09956999
0.285333 -0.070244074 0.040251732 0.17261337 -0.37152985 0.07585673 -0.1226833 -0.16703749
0.14331463 -0.18991889 -0.24658981 -0.09343482 -0.3612902 -0.13135388 0.037873972 -0.022314696
-0.16548131 -0.11245138 -0.20777921 -0.031268552 0.2216282 0.11975396 -0.085598566 -0.05870649
0.08271152 0.17338088 0.095587336 0.17247942 -0.14623517 0.26309705 -0.13185415 -0.051113855
-0.291058 -0.08760515 -0.126723 0.005669234 0.031845503 -0.090528265 -0.108020745 0.26524135
-0.19954473 0.091116875 -0.054736193 -0.2839687 -0.16275036 0.052587043 -0.1746905 -0.02884176
0.25344822 0.052092645 0.0256278 -0.07527248 0.13173378 -0.1891729 -0.10596784 -0.21869019
-0.083650775 0.096617565 0.19677567 0.020740326 0.18959916 -0.09934814 -0.016151806 0.07084801
-0.09393131 -0.045361258 -0.15715127 -0.14703257 0.069354855 0.23115109 -0.3503338 0.36584014
0.22390766 0.1500924 0.42806527 -0.08119297 0.3228309 -0.50451344 0.0058732517 0.009189923
-0.19261102 -0.30743733 -0.23494537 -0.36035138 -0.06937241 0.24053405 0.019369284 0.2464255
0.049178418 -0.11464729 0.21297966 0.25446707 -0.051378194 -0.07149576 -0.15301324 -0.06445698
-0.11383633 0.24456288 -0.24229711 0.020287946 0.45264968 0.18840559 -0.17761078 -0.055349216
-0.13728312 -0.0048906584 -0.16982286 0.05815332 0.261737 -0.16763577 0.063934036 -0.06261905
-0.059055313 -0.13992153 -0.005237562 0.27603778 0.11774065 -0.24991658 -0.060992245 -0.32990837
0.1472475 -0.01556281 -0.25129205 -0.06587514 0.17613669 0.37140864 -0.06465515 0.2271792
0.19562069 0.055586603 0.13099405 -0.18404436 -0.026648033 0.37506634 0.20028529 -0.29533994
-0.18624286 0.08474499 -0.063063644 -0.19294876 -0.080849774 -0.11542926 0.3116531 -0.12555844
0.17743371 0.27347445 0.027739884 -0.053525534 -0.11531474 -0.006793857 -0.17964104 0.023636399
-0.11676738 -0.29851124 0.002464534 -0.12811019 0.12598547 -0.124475926 -0.12182709 0.066818036
00000000: abcf 2e3e e6e5 85bc 6387 da3c 251b 3cbe
00000010: 3fef debd 9849 f4bc 2753 c3bd 1a9a 423e
00000020: 1854 d33d 703b 293e 3b66 31be 5fc7 9b3d
00000030: 7ffa 853e 9d6c e5bc b296 2c3e 73b1 80bd
00000040: cfc9 f3bd 3793 2f3e 4763 be3d cef6 2a3e
00000050: 9235 ef3d 6927 173e 8c92 aabe 18dc eabb
00000060: 3a03 b0bd fff0 9f3c 5b4c 393e ed59 a9bd
00000070: 8823 cabb 3339 48be 750a 17bc 46e8 5dbd
00000080: 91fd 9bbe ac02 19be 3511 863d ba89 523c
00000090: 7adc 093c 42fd 1e3e 17e3 01be dc85 253d
000000a0: 0a2f c03e 576f 48be d414 4cbe cdb0 3f3e
000000b0: f7d2 04bd 9ac3 e13d 77c5 eabd 9eb5 b43d
000000c0: b05f fbbd 24dc b6be 7a13 1ebe 9512 973e
000000d0: 27a8 013f abda fbbd cb2a 9fbd 0d06 7ebd
000000e0: 2115 25bd 0067 3d3e 7506 bd3d 3dd7 15bb
000000f0: 7671 32bc 83a8 883e 48f8 66be 4141 e1bd
00000100: 8f0f 74bc e763 3e3e d9ab 35bd 42a5 70bc
00000110: b1cc 4d3d 2d3c 833d 57ef b83c 15e2 f8bd
00000120: d018 89bd f342 b3bd 3e65 e8bd 9124 b7be
00000130: 2b75 90bc 1ec4 b63c b6ad 403e fd1c 14bd
00000140: 0865 d6bd 59a1 fdbd 3096 53bd 42b2 08be
00000150: 3a2f 233e c724 de3e 447c 6d3d 9379 25bd
00000160: b94a 0f3e d7f6 c7bd 4674 56be 70ab be3d
00000170: 704c ff3c 7ec4 283d 3069 a83d 5aeb cbbd
00000180: 2b17 923e 20dc 8fbd 00df 243d 8fc1 303e
00000190: 2939 bebe c65a 9b3d 6241 fbbd e00b 2bbe
000001a0: 12c1 123e 197a 42be 0a82 7cbe c15a bfbd
000001b0: 07fb b8be a281 06be bd21 1b3d 4fcd b6bc
000001c0: ef73 29be e94c e6bd 13c4 54be 7413 00bd
000001d0: 81f2 623e 9041 f53d 4d4e afbd 3776 70bd
000001e0: a864 a93d c28a 313e 4bc3 c33d 729e 303e
000001f0: acbe 15be a8b4 863e c604 07be c35c 51bd
00000200: 8e05 95be 546a b3bd adc3 01be fbc4 b93b
00000210: 6e70 023d e266 b9bd fb39 ddbd b7cd 873e
00000220: 7455 4cbe 7c9b ba3d 0f33 60bd 5864 91be
00000230: 08a8 26be 8365 573d 11e2 32be 8e45 ecbc
00000240: f7c3 813e 195f 553d 64f1 d13c 7528 9abd
00000250: 38e5 063e 8ab6 41be ab05 d9bd 52f0 5fbe
00000260: 1951 abbd 6edf c53d 907f 493e 9ee7 a93c
00000270: 4826 423e 0a77 cbbd cb50 84bc c318 913d
00000280: 0f5f c0bd bacc 39bd 43ec 20be b58f 16be
00000290: eb09 8e3d dfb2 6c3e f45e b3be 664f bb3e
000002a0: 0d48 653e d2b1 193e 5f2b db3e 8048 a6bd
000002b0: 174a a53e cb27 01bf 6874 c03b 5591 163c
000002c0: d33b 45be 6d68 9dbe 8595 70be fa7f b8be
000002d0: 1f13 8ebd 8f4e 763e 55ac 9e3c f756 7c3e
000002e0: 4f6f 493d 33cc eabd 5717 5a3e 8249 823e
000002f0: f171 52bd 5e6c 92bd 81af 1cbe 0502 84bd
00000300: 0623 e9bd b16e 7a3e bc1c 78be e832 a63c
00000310: b3c1 e73e 65ed 403e 9adf 35be dcb5 62bd
00000320: f293 0cbe d141 a0bb 0be6 2dbe 2d32 6e3d
00000330: 6402 863e b6a8 2bbe d9ef 823d 6b3e 80bd
00000340: fce3 71bd 9747 0fbe db9f abbb d354 8d3e
00000350: 0322 f13d 22ea 7fbe 01d3 79bd c0e9 a8be
00000360: 0cc8 163e 28fb 7ebc 5aa9 80be 8ce9 86bd
00000370: 2d5d 343e 4629 be3e eb69 84bd aaa1 683e
00000380: ca50 483e c7ae 633d 4e23 063e 2076 3cbe
00000390: fa4c dabc b208 c03e 9617 4d3e cc36 97be
000003a0: 73b6 3ebe c88e ad3d 8327 81bd 5c94 45be
000003b0: 9194 a5bd 2d66 ecbd ff90 9f3e 6492 00be
000003c0: 2fb1 353e d804 8c3e c13e e33c 973d 5bbd
000003d0: 222a ecbd 019f debb d2f3 37be 1fa1 c13c
000003e0: bc23 efbd 77d6 98be 0584 213b 512f 03be
000003f0: 5602 013e 3ced febd 7b80 f9bd e5d7 883d

network_body._body_endoder.seq_layers.2.bias f4 [32]
-0.013703227 -0.013827279 0.017577022 0.002181776 -0.009891464 0.009166109 0.0020303999 -0.01944347
0.0010616018 -0.007219139 -0.0011051517 -0.004658935 -0.0068045915 0.030235162 0.03560411 -0.0022509964
0.0065100268 0.0046208957 -0.0035967499 -0.0030294412 0.003968898 0.007322178 -0.0042125396 0.009267398
-0.0229017 -0.0023486183 -0.007988086 0.0029332733 0.014605427 0.011725585 -0.017108655 -0.0009285834
00000000: 8083 60bc d08b 62bc b0fd 8f3c 21fc 0e3b
00000010: cf0f 22bc 732d 163c 7510 053b e947 9fbc
00000020: 7225 8b3a 878e ecbb bdda 90ba fba9 98bb
00000030: 0df9 debb bbaf f73c 9ed5 113d 7485 13bb
00000040: 1052 d53b e26a 973b 73b7 6bbb 9789 46bb
00000050: 880d 823b e2ee ef3b 5809 8abb 49d6 173c
00000060: 599c bbbc 47eb 19bb 76e0 02bc 293c 403b
00000070: 9a4b 6f3c ab1c 403c 7327 8cbc 2d6c 73ba

action_model._continuous_distribution.log_sigma f4 [1, 2]
-0.021166075 -5.6000426e-05
00000000: 7a64 adbc 00e2 6ab8

action_model._continuous_distribution.mu.weight f4 [2, 32]
-0.03377553 0.0046866406 0.058689907 -0.014337791 0.01280428 -0.033573963 -0.07744457 0.025118742
0.09691044 -0.03396181 -0.0058349515 -0.019902278 -0.021036007 0.016377715 0.012054426 -0.036550388
-0.004683164 0.044407066 -0.0061699734 -0.093849264 -0.013238114 -0.012885933 0.0064298394 -0.034791388
0.008749376 -0.05687565 0.007473518 -0.026726518 -0.02935481 -0.01564409 -0.010181884 -0.04150989
-0.023086397 -0.028652536 0.06392477 0.0010354368 -0.00047973212 0.12993437 0.023101386 -0.04827468
-0.035342783 0.0017083779 -0.03966273 -0.0063886647 -0.05104306 0.039238796 0.039824057 -0.0654962
-0.02428642 0.042976838 -0.036455516 -0.04067983 0.011906307 0.023872636 -0.04603036 0.024949912
0.030479329 -0.022208465 -0.05335431 0.02054101 0.049296923 0.033384982 -0.03722781 -0.031844217
00000000: 3658 0abd 6492 993b d464 703d 0ee9 6abc
00000010: 0bc9 513c da84 09bd 429b 9ebd d2c5 cd3c
00000020: fb78 c63d 8a1b 0bbd 1f33 bfbb 1a0a a3bc
00000030: b453 acbc 8f2a 863c ed7f 453c dcb5 15bd
00000040: 3a75 99bb 2fe4 353d 7d2d cabb 0b34 c0bd
00000050: ade4 58bc 851f 53bc 67b1 d23b 6a81 0ebd
00000060: 8b59 0f3c 71f6 68bd 6ae4 f43b 92f1 dabc
00000070: 8079 f0bc 0928 80bc ebd1 26bc 4606 2abd
00000080: af1f bdbc b9b8 eabc fdea 823d 7eb7 873a
00000090: 8e84 fbb9 840d 053e 1e3f bd3c acbb 45bd
000000a0: 98c3 10bd a6eb df3a 6375 22bd 0158 d1bb
000000b0: 8712 51bd dcb8 203d 8d1e 233d df22 86bd
000000c0: 50f4 c6bc 7b08 303d 6152 15bd e59f 26bd
000000d0: ac12 433c 8c90 c33c 558a 3cbd c263 cc3c
000000e0: c9af f93c 87ee b5bc 0d8a 5abd 9f45 a83c
000000f0: 92eb 493d b1be 083d 307c 18bd 156f 02bd

action_model._continuous_distribution.mu.bias f4 [2]
2.3976256e-05 0.014380949
00000000: 9e20 c937 129e 6b3c

action_model._discrete_distribution.branches.0.weight f4 [1, 32]
0.024305915 -0.015637888 0.017679404 -0.042443268 -0.014485988 0.022081887 -0.0017229216 0.02056965
0.011260784 -0.0020951084 -0.018557979 0.0028926623 -0.02537922 -0.012822717 0.014315727 -0.0040233745
-0.019797442 -0.00030187765 -0.006187351 -0.011250327 0.010737735 0.020982027 0.02983369 0.0004317231
-0.015616478 0.0011660097 0.011132727 0.009077471 0.017417109 0.019719293 0.024646705 -0.003471555
00000000: 331d c73c 071b 80bc 66d4 903c fed8 2dbd
00000010: a356 6dbc 13e5 b43c a8d3 e1ba af81 a83c
00000020: 277f 383c 164e 09bb e706 98bc d292 3d3b
00000030: 15e8 cfbc 6016 52bc 838c 6a3c 83d6 83bb
00000040: 3f2e a2bc 5545 9eb9 43bf cabb 4b53 38bc
00000050: 53ed 2f3c 80e2 ab3c c865 f43c e558 e239
00000060: 42dc 7fbc cbd4 983a 0b66 363c acb9 143c
00000070: 53ae 8e3c 5b8a a13c e3e7 c93c 0783 63bb
