results/ag03/PlatformRotate.onnx (onnx, 106330 bytes, 8 tensors)

network_body._body_endoder.seq_layers.0.weight f4 [128, 66]
-0.049322236 0.25866628 -0.031194897 0.17810977 0.07637506 -0.07648623 -0.2257468 -0.1497073
-0.041362207 0.09200738 -0.09707288 0.03978422 -0.01060453 0.26455608 -0.057163775 0.07797726
0.06458491 -0.08088096 -0.043142498 0.16730829 -0.019768985 0.006721766 0.083058864 -0.024453165
0.006223488 0.12601398 -0.046428915 0.017130204 -0.06564854 0.2817679 -0.1478647 0.009714494
0.101461336 -0.09973032 0.03826164 0.18467982 0.20170546 0.0026732914 -0.16624309 -0.10478476
-0.15275277 0.08105756 -0.0867556 -0.092862144 -0.14358763 0.061480206 0.22518727 -0.10831709
-0.19502595 -0.11740775 -0.009126205 0.11908751 0.020425802 0.11807209 -0.16118062 -0.08237507
0.014953829 0.14278726 -0.16157787 -0.14808741 0.13633245 -0.004706053 -0.2751777 0.016005265
0.047313586 0.17940255 -0.029872863 0.26639986 0.121335685 0.07843216 0.035935264 -0.11164279
0.048706923 -0.04060551 -0.22999243 -0.029538512 0.07033456 -0.024571966 -0.12636484 0.18152724
0.15473153 0.10652005 -0.32533905 -0.024612773 -0.12086176 0.05311183 0.26256618 -0.12295016
0.046501786 -0.03911555 0.038940333 0.00024885416 0.058976058 -0.051383574 -0.1201344 -0.047502853
0.0918157 -0.18924691 -0.005795258 -0.015552428 -0.020648211 -0.20008002 0.111926965 -0.1922113
-0.027123755 0.02028384 -0.12486264 0.05497352 0.086282216 0.08873905 0.11825326 -0.04762721
0.07656794 0.026815128 0.105481766 -0.026203321 -0.008058592 0.006784185 0.049168196 -0.0030076476
-0.008999184 0.054002162 -0.031628106 -0.23455797 0.0756185 0.03219098 0.10858495 0.041183773
0.19899297 0.10037813 0.14999534 0.121081345 -0.067232296 -0.044361968 0.16516908 -0.10987793
-0.14426886 -0.010656224 0.042456537 0.024052646 -0.14936653 -0.027032213 -0.12458891 0.21787024
-0.16599502 0.08092519 0.031846132 -0.13394989 0.16860028 -0.010267478 0.04251629 -0.25170702
-0.18955727 0.11285596 -0.0058203526 -0.058668397 -0.040400207 -0.015863268 -0.009913661 -0.11872281
0.0012746004 -0.1543483 -0.015321381 0.10319587 0.13690548 0.011890363 0.005995532 -0.058017757
-0.039285596 0.067708045 0.06873065 -0.031853393 -0.22617638 0.008207807 0.0014054434 -0.10114479
0.0734318 -0.117587894 -0.20851333 -0.1973034 0.104093425 -0.09696509 0.0015984996 0.11028663
-0.013454612 0.30699322 -0.22708528 -0.054107662 0.124713026 0.050558284 -0.1277407 0.045454707
0.10996001 -0.10057131 0.14644383 0.007854054 0.09845202 -0.06373439 -0.087595075 -0.030552668
0.04554132 0.056347866 0.12909217 -0.119602546 -0.09218897 0.07819521 -0.059000153 0.23503259
0.11200129 0.109169155 -0.16240865 -0.15017368 0.2632224 0.35728157 -0.013102543 -0.05786292
-0.19459015 0.09437973 0.17675515 -0.05065872 -0.20393598 0.0865236 0.0039381264 0.102772206
0.10927411 0.07580202 0.100412354 0.012828595 -0.0030335058 0.10555629 0.24213997 -0.17652157
0.02827553 -0.16976997 -0.2677611 0.26525733 0.08290523 0.21172845 -0.079075254 0.102948464
-0.047396515 0.045902066 -0.13823037 -0.1425504 0.21021198 -0.011495257 -0.050217155 0.003217982
-0.14495784 -0.1708717 0.003870718 0.06289957 0.082649305 -0.008957964 -0.10250637 0.08342922
00000000: 1d06 4abd e86f 843e 718c ffbc 6862 363e
00000010: 876a 9c3d d0a4 9cbd 2b2a 67be df4c 19be
00000020: 6b6b 29bd 5e6e bc3d 25ce c6bd c7f4 223d
00000030: 9fbe 2dbc e573 873e 9024 6abd 8bb2 9f3d
00000040: 1845 843d eba4 a5bd 30b6 30bd dd52 2b3e
00000050: 91f2 a1bc 4342 dc3b c41a aa3d 0152 c8bc
00000060: 67ee cb3b cf09 013e 3f2c 3ebd a454 8c3c
00000070: be72 86bd e243 903e d869 17be 8b29 1f3c
00000080: f6ca cf3d 693f ccbd 3db8 1c3d b51c 3d3e
00000090: e08b 4e3e 6332 2f3b a13b 2abe 6499 d6bd
000000a0: 396b 1cbe 8201 a63d ecac b1bd 822e bebd
000000b0: a308 13be abd2 7b3d 7e97 663e 5ad5 ddbd
000000c0: e2b4 47be 7973 f0bd 1486 15bc 27e4 f33d
000000d0: 0354 a73c c8cf f13d 880c 25be 43b4 a8bd
000000e0: e800 753c d336 123e ab74 25be 3aa4 17be
000000f0: bc9a 0b3e 3c35 9abb 17e4 8cbe 791d 833c
00000100: e4cb 413d 4db5 373e efb7 f4bc 9065 883e
00000110: d87e f83d 0aa1 a03d db30 133d faa4 e4bd
00000120: e980 473d f751 26bd 2383 6bbe c0fa f1bc
00000130: 910b 903d 264b c9bc c965 01be 47e2 393e
00000140: f171 1e3e 2f27 da3d d792 a6be baa0 c9bc
00000150: 5f86 f7bd ca8b 593d 136f 863e 4bcd fbbd
00000160: a878 3e3d a137 20bd e67f 1f3d a478 8239
00000170: e190 713d 9577 52bd 0609 f6bd 5a92 42bd
00000180: df09 bc3d f1c9 41be 26e6 bdbb 9ccf 7ebc
00000190: 7026 a9bc c7e1 4cbe f739 e53d 0ad3 44be
000001a0: a332 debc 4c2a a63c fcb7 ffbd ea2b 613d
000001b0: bbb4 b03d d2bc b53d c42e f23d c014 43bd
000001c0: a7cf 9c3d 66ab db3c d306 d83d 59a8 d6bc
000001d0: 2f08 04bc de4d de3b 9764 493d f41b 45bb
000001e0: 5071 13bc 5f31 5d3d 798c 01bd f72f 70be
000001f0: dfdd 9a3d b0da 033d c961 de3d 51b0 283d
00000200: d0c4 4b3e 0d93 cd3d 6198 193e 7ff9 f73d
00000210: 16b1 89bd e5b4 35bd 1522 293e ae07 e1bd
00000220: 37bb 13be 7197 2ebc e8e6 2d3d 0e0a c53c
00000230: 8af3 18be a972 ddbc 7828 ffbd 6019 5f3e
00000240: 99fa 29be 1bbc a53d 1771 023d 292a 09be
00000250: 8da5 2c3e ed38 28bc 9025 2e3d bedf 80be
00000260: 4d1b 42be 0721 e73d a8b8 bebb 464e 70bd
00000270: b07a 25bd aff3 81bc e86c 22bc f224 f3bd
00000280: 7e10 a73a 7b0d 1ebe 8806 7bbc 5b58 d33d
00000290: f330 0c3e cccf 423c 2b76 c43b 07a4 6dbd
000002a0: efe9 20bd 84aa 8a3d a8c2 8c3d b478 02bd
000002b0: c89a 67be 0a7a 063c db36 b83a 0025 cfbd
000002c0: 6963 963d ecd1 f0bd 8584 55be e709 4abe
000002d0: ef2e d53d a295 c6bd bf84 d13a f5dd e13d
000002e0: bc70 5cbc 372e 9d3e 0b89 68be ff9f 5dbd
000002f0: 8b69 ff3d 3416 4f3d 75ce 02be b72e 3a3d
00000300: b732 e13d 55f8 cdbd 5ff5 153e 4aae 003c
00000310: 36a1 c93d 2d87 82bd 0c65 b3bd 9749 fabc
00000320: 8989 3a3d 05cd 663d bd30 043e 2ef2 f4bd
00000330: 92cd bcbd cf24 a03d 25aa 71bd 62ac 703e
00000340: ef60 e53d 1494 df3d 744e 26be 21c7 19be
00000350: 16c5 863e 9ced b63e 0cac 56bc ab01 6dbd
00000360: a442 47be 294a c13d 4dff 343e 857f 4fbd
00000370: 98d4 50be 4933 b13d 660b 813b 3c7a d23d
00000380: 1bcb df3d 173e 9b3d fea4 cd3d 072f 523c
00000390: c8cd 46bb e52d d83d 8af3 773e 12c2 34be
000003a0: 16a2 e73c 2ed8 2dbe fc17 89be cfcf 873e
000003b0: 38ca a93d 58cf 583e 35f2 a1bd a5d6 d23d
000003c0: d922 42bd ce03 3c3d 438c 0dbe bbf8 11be
000003d0: cf41 573e 9a56 3cbc 81b0 4dbd c7e4 523b
000003e0: d46f 14be fef8 2ebe dfab 7d3b 7dd1 803d
000003f0: 0a44 a93d 6dc4 12bc dcee d1bd f0dc aa3d

network_body._body_endoder.seq_layers.0.bias f4 [128]
-0.0036422738 -0.007749075 0.0018233844 0.0070927003 -0.00049834454 0.0029982475 0.0013145959 0.008148008
0.0044794027 0.004168553 0.0054765884 -0.0033520341 -0.0019962064 -0.006583699 0.003410015 -0.0049364767
-0.003849165 -0.0020950001 -0.0065931086 0.00052612036 0.002570968 0.0020651899 -0.0058572767 0.0020188089
0.003072027 0.006365473 0.0031254797 -0.0060363747 0.006574678 0.0065183816 0.0008768752 0.007314095
0.0078051696 0.0009924485 0.0033885578 -0.0025639366 0.005259441 -0.0054592416 -0.0074518975 0.00031458033
0.006057199 -0.0054245587 -0.0046354826 0.00019211712 -0.005587614 0.005593101 -0.002548299 -0.0027174621
0.0021278937 0.0020386977 0.00040863166 -0.0061461655 0.0059389086 -0.005484557 0.003726117 -0.0029137924
0.0022168898 -0.0047559026 -0.0042343196 -0.0055262395 -0.0029575762 0.0003931897 0.0063032857 -0.0006233574
0.0031967792 -0.0015097826 0.0050368304 0.003308087 -0.0058884844 0.005120716 0.0067549953 0.00072020397
-0.0016037348 -0.0010934816 0.005839985 0.004766195 0.0004730495 -0.0021039895 -0.0029431565 -0.00075160805
-0.005491256 0.0065142075 -0.0018782674 0.0018363905 -0.008112123 0.00096815283 0.0075619896 0.003993584
0.005866524 -0.0021125816 -0.0032634572 -0.0053795623 0.003334349 0.006520443 -0.00095524907 0.00019680787
0.0010900839 -0.0037320612 -0.0019836775 -0.005028907 -0.0038405189 -0.0016207608 -0.00028020135 -0.0020951205
-0.0040206877 -0.0050850078 0.0042682504 0.008393478 -0.005241365 0.007586394 -0.0062540467 -0.0058913566
-0.00157066 0.006795052 0.0017933539 -0.00019289642 0.0068339678 0.002834834 0.0045196703 -0.0031490892
0.0070096445 0.006678481 -0.0030593928 0.008695161 -0.0058839796 -0.002941016 0.0035284879 0.0030369794
00000000: 37b3 6ebb f4eb fdbb a1fe ee3a e269 e83b
00000010: 56a3 02ba 3f7e 443b 854e ac3a 397f 053c
00000020: f4c7 923b 5b98 883b f474 b33b cdad 5bbb
00000030: c9d2 02bb 12bc d7bb 8f7a 5f3b 2bc2 a1bb
00000040: 4642 7cbb 454c 09bb 010b d8bb 57eb 093a
00000050: af7d 283b 2358 073b 66ee bfbb fe4d 043b
00000060: 0f54 493b 7595 d03b d9d4 4c3b c8cc c5bb
00000070: 6570 d73b 2698 d53b 19de 653a 13ab ef3b
00000080: 82c2 ff3b 0c15 823a 9112 5e3b b807 28bb
00000090: 6457 ac3b 70e3 b2bb 0c2f f4bb 42ee a439
000000a0: 787b c63b 7fc0 b1bb 3fe5 97bb 0c73 4939
000000b0: 4e18 b7bb 5546 b73b 5d01 27bb 7317 32bb
000000c0: 2274 0b3b ac9b 053b 9d3d d639 c665 c9bb
000000d0: 2d9b c23b ccb7 b3bb df31 743b 53f5 3ebb
000000e0: 3d49 113b 67d7 9bbb 0cc0 8abb 7515 b5bb
000000f0: e5d3 41bb 0725 ce39 cb8b ce3b cf68 23ba
00000100: 0e81 513b e6e3 c5ba ff0b a53b 7dcc 583b
00000110: 30f4 c0bb aecb a73b 0259 dd3b 12cc 3c3a
00000120: 6934 d2ba 2753 8fba 585d bf3b be2d 9c3b
00000130: a103 f839 16e3 09bb f9e1 40bb 9007 45ba
00000140: feef b3bb 2275 d53b 3230 f6ba 0ab3 f03a
00000150: b6e8 04bc a3cb 7d3a 91ca f73b 9cdc 823b
00000160: f83b c03b 3d73 0abb badf 55bb 0a47 b0bb
00000170: 1885 5a3b 71a9 d53b ae69 7aba 365e 4e39
00000180: 25e1 8e3a 9995 74bb 9600 02bb 88c9 a4bb
00000190: 37b1 7bbb b56f d4ba fde7 92b9 4a4e 09bb
000001a0: f9bf 83bb 23a0 a6bb aedc 8b3b cc84 093c
000001b0: c2bf abbb 4997 f83b bfee ccbb 480c c1bb
000001c0: 9bde cdba 07a9 de3b f90e eb3a 3d44 4ab9
000001d0: 7aef df3b 9fc8 393b be19 943b f360 4ebb
000001e0: 29b1 e53b 29d7 da3b 1880 48bb 2676 0e3c
000001f0: 66ce c0bb 10be 40bb 343e 673b 0f08 473b

network_body._body_endoder.seq_layers.2.weight f4 [128, 128]
-0.015244593 -0.06993315 -0.0347024 0.028052578 -0.0028393744 0.15257339 -0.20059948 -0.0013773281
0.090451926 -0.067585275 -0.0905822 0.049030345 -0.11289888 -0.08958201 0.040795926 0.03585241
0.011330633 0.049056374 -0.05739358 0.034522206 0.16067062 -0.060760584 0.02184235 0.14141195
-0.087797344 0.02649898 0.102721035 0.17997643 -0.074210115 0.04466838 0.031192644 0.0028462033
-0.084229074 0.17704259 0.035752866 -0.027721204 0.046678446 -0.074141145 0.07874451 0.047011446
-0.052350946 0.11430319 0.039073456 -0.14044894 -0.21712238 0.04538632 -0.012056225 -0.08301956
-0.039724875 -0.08967207 -0.06719576 0.02352981 -0.0008855061 -0.047637135 0.17253943 -0.009870249
0.120709136 0.14246182 -0.045865353 0.100864775 -0.12028018 0.056811202 0.027905695 0.01939913
-0.05004192 -0.06964549 0.07015521 -0.117732786 0.09734067 0.09715543 -0.015671697 -0.091548264
-0.13728204 0.12328806 0.04645208 -0.12643002 0.08890959 -0.045563444 -0.018320858 -0.043103915
-0.19549882 0.014836062 0.096715465 -0.07489242 0.05839614 0.121223606 0.012908439 0.22968085
0.03237933 0.053870235 -0.13577133 0.054415636 -0.030874789 -0.051693857 0.11038086 -0.0902442
0.1104332 -0.009901069 -0.03126869 0.11166783 0.0793026 0.114605315 -0.074701354 -0.1399885
0.03684488 0.032866947 0.0070962138 0.05277452 0.08234992 -0.056934856 0.10448458 -0.054888107
0.031938314 -0.0046762754 0.18065497 -0.025823005 -0.13479431 -0.04463609 0.013643053 0.012764506
0.004876974 0.09711584 -0.12362701 0.014192185 -0.14249055 0.10033494 0.21339777 0.037286755
0.11427311 -0.0045770984 -0.075624265 0.09117275 0.05336529 -0.11972858 0.08140872 0.08184953
0.079346515 0.016301455 0.0643359 0.09933725 0.0025382598 0.059070125 -0.1837849 0.16681667
-0.11668327 -0.0073419297 0.13667406 0.027848337 0.026300296 -0.032079853 0.012929552 0.03596957
0.097222365 0.10138314 0.04749528 0.028995529 -0.06429981 -0.12392363 0.080750264 0.030477345
-0.006942535 -0.038068447 -0.057283703 0.04676948 -0.03534036 0.030408863 0.060692698 -0.02402995
0.20333704 -0.17349732 -0.015908308 -0.04073395 0.085787535 -0.015992096 -0.013694351 -0.23375489
0.122642815 0.09239742 -0.114292994 -0.05349673 -0.015318621 0.2508464 -0.01655985 0.094698995
0.09223765 0.083136946 -0.09846465 -0.06732665 0.009006248 0.056192692 -0.06377273 0.0871883
-0.092508085 -0.26399356 0.09132235 -0.10636977 -0.034217704 -0.036261473 -0.0133820735 -0.019561248
0.08859903 0.044948917 -0.05942976 0.10154312 0.13130958 -0.051986225 0.041793086 0.013097275
-0.070728876 0.05735335 0.08965611 0.14334653 0.06309902 -0.14214496 -0.22838403 0.03384022
-0.0989997 -0.056799643 0.20232557 -0.075776786 -0.03398832 -0.09817954 -0.1311399 -0.013038674
0.06590819 -0.12624387 0.02624977 -0.002814062 0.14162008 0.025483368 -0.028663374 -0.08143326
0.0011090022 -0.10847164 0.1170955 0.036509156 0.21700367 -0.11804623 -0.18687302 0.05198504
0.10154188 -0.048627187 0.011741273 -0.06783002 -0.07291184 -0.017076923 -0.04985849 -0.007282659
-0.011886198 -0.026133448 -0.041328892 0.105703436 -0.014736555 0.10823576 0.060567513 -0.21104659
00000000: 75c4 79bc 1d39 8fbd 1b24 0ebd 85ce e53c
00000010: cc14 3abb 333c 1c3e f369 4dbe 7687 b4ba
00000020: dc3e b93d 266a 8abd 2983 b9bd 0bd4 483d
00000030: 8737 e7bd c676 b7bd a119 273d fad9 123d
00000040: 1fa4 393c 56ef 483d 8815 6bbd 2867 0d3d
00000050: d786 243e 17e0 78bd baee b23c 4bce 103e
00000060: 18cf b3bd 6414 d93c 685f d23d be4b 383e
00000070: 79fb 97bd 31f6 363d b787 ff3c 5e87 3a3b
00000080: 4b80 acbd a74a 353e 9971 123d 9417 e3bc
00000090: e631 3f3d 50d7 97bd cd44 a13d 138f 403d
000000a0: f26d 56bd ca17 ea3d 7d0b 203d d9d1 0fbe
000000b0: 5455 5ebe 02e7 393d 7987 45bc 2906 aabd
000000c0: 8db6 22bd fea5 b7bd ee9d 89bd 97c1 c03c
000000d0: 4f21 68ba 281f 43bd 2dae 303e d3b6 21bc
000000e0: 5a36 f73d 83e1 113e 4fdd 3bbd 3192 ce3d
000000f0: 7455 f6bd ddb2 683d 7c9a e43c edea 9e3c
00000100: c2f8 4cbd 4ba2 8ebd 89ad 8f3d e31d f1bd
00000110: 8c5a c73d 6df9 c63d ee61 80bc a87d bbbd
00000120: aa93 0cbe 737e fc3d 8944 3e3d df76 01be
00000130: 3b16 b63d bca0 3abd a015 96bc bb8d 30bd
00000140: d830 48be f412 733c c212 c63d 3261 99bd
00000150: ca30 6f3d 1544 f83d eb7d 533c 7531 6b3e
00000160: 30a0 043d 09a7 5c3d a407 0bbe eee2 5e3d
00000170: 20ed fcbc f0bc 53bd 5c0f e23d f3d1 b8bd
00000180: cd2a e23d 1838 22bc 9913 00bd 1ab2 e43d
00000190: 6769 a23d 31b6 ea3d 06fd 98bd 2559 0fbe
000001a0: a8ea 163d 7e9f 063d 5b87 e83b 182a 583d
000001b0: 13a7 a83d 8634 69bd 03fc d53d 5ad2 60bd
000001c0: c0d1 023d 713b 99bb 9efd 383e c48a d3bc
000001d0: 8507 0abe 55d4 36bd 1d87 5f3c 3822 513c
000001e0: 06cf 9f3b abe4 c63d 2830 fdbd 5786 683c
000001f0: 0be9 11be 687c cd3d f284 5a3e ffb9 183d
00000200: 0508 ea3d 7cfb 95bb e5e0 9abd c7b8 ba3d
00000210: 9095 5a3d 4234 f5bd 9db9 a63d baa0 a73d
00000220: 6d80 a23d a18a 853c 8ac2 833d 5471 cb3d
00000230: ef58 263b 84f3 713d 1c32 3cbe fdd1 2a3e
00000240: a3f7 eebd 9294 f0bb 49f4 0b3e 3222 e43c
00000250: b873 d73c 2a66 03bd 79d6 533c d454 133d
00000260: 851c c73d f7a1 cf3d 698a 423d 0888 ed3c
00000270: 9eaf 83bd accb fdbd 6560 a53d a0ab f93c
00000280: 347e e3bb a9ed 1bbd 51a2 6abd 5b91 3f3d
00000290: 0ec1 10bd 021c f93c e898 783d 75da c4bc
000002a0: 9637 503e 48a9 31be 2452 82bc a4d8 26bd
000002b0: 60b1 af3d db01 83bc 455e 60bc 715d 6fbe
000002c0: 282c fb3d dc3a bd3d 7212 eabd 631f 5bbd
000002d0: f4fa 7abc f06e 803e 86a8 87bc 8cf1 c13d
000002e0: 18e7 bc3d b443 aa3d d6a7 c9bd 8ee2 89bd
000002f0: f18e 133c 4f2a 663d 479b 82bd c88f b23d
00000300: e174 bdbd 2a2a 87be 3607 bb3d 65d8 d9bd
00000310: dd27 0cbd e986 14bd 7c40 5bbc e93e a0bc
00000320: 6973 b53d 5b1c 383d 9f6c 73bd d7f5 cf3d
00000330: 0576 063e 82ef 54bd 3a2f 2b3d f495 563c
00000340: 4dda 90bd 59eb 6a3d 9f9d b73d 6fc9 123e
00000350: 0f3a 813d 738e 11be 81dd 69be 0b9c 0a3d
00000360: 5bc0 cabd bea6 68bd 6f2e 4f3e dc30 9bbd
00000370: 5637 0bbd 5b12 c9bd 8a49 06be 2aa0 55bc
00000380: e0fa 863d 1346 01be c209 d73c 206c 38bb
00000390: db04 113e 7fc2 d03c 74cf eabc 7bc6 a6bd
000003a0: f05b 913a 6126 debd c4cf ef3d a08a 153d
000003b0: 3636 5e3e 39c2 f1bd a45b 3fbe 44ee 543d
000003c0: 30f5 cf3d 4d2d 47bd 785e 403c 77ea 8abd
000003d0: ce52 95bd e7e4 8bbc 6a38 4cbd 5fa3 eebb
000003e0: 54be 42bc d015 d6bc 7c48 29bd 0b7b d83d
000003f0: 9771 71bc b6aa dd3d a415 783d 991c 58be

network_body._body_endoder.seq_layers.2.bias f4 [128]
0.0041303714 -0.003742527 -0.005682761 0.0009281678 0.0013820942 0.0008517283 0.0044524386 0.0054225693
-0.0040288456 0.0065021943 -0.005451097 -0.004208909 -0.006342535 0.006475654 0.0069705117 -0.0009395388
-0.005904067 0.0066954466 0.0059392685 0.0017736153 -0.006416125 0.0056669717 0.0065280385 -0.0038978574
-0.0060379864 -0.0052548475 -0.0045321817 0.006325526 -0.0034624918 0.006875743 -0.0065198666 0.0069359923
0.005689055 -0.0063879527 0.0051163808 0.0064491155 0.004427521 0.008264477 -0.0061791907 0.0066873934
0.0070182714 -0.0040085157 -0.0027872815 -0.0060516964 0.0023385128 -0.0057941927 0.003289825 0.00714946
0.005925335 0.001825342 0.00077079417 0.0012406548 -0.00072426535 -0.0060504884 -0.006297283 0.00629211
0.0068718977 -0.006645412 0.0014703119 -0.0051994175 -0.0038779664 0.0069690226 -0.0025731637 -0.0066735363
-0.00041739293 -2.0989799e-05 -0.001362544 0.0044882204 0.0016425273 -0.0022618412 -0.0017590299 -0.0053885076
-0.002944352 -0.004962302 0.0060385726 -0.0051571475 0.0026972697 -0.0064747175 -0.0007303175 0.002203876
-0.0017389406 -0.00015421369 -0.0063240617 -0.0060843187 -0.004021397 0.0023367587 -0.0034488807 -0.0024353592
0.004953653 0.0066288174 -0.006408627 0.0027805823 -0.005706386 -0.0059637055 -0.004508944 -0.0046240455
-0.0061367666 -0.003913857 0.0015345878 -0.00021288096 -0.0037322862 0.0013875312 0.005817548 0.0022692343
0.003992618 -0.004702913 0.0025824455 0.0055602393 -0.0040822546 0.005109495 0.005112384 0.0026283131
0.0067758313 -0.0044652354 -0.004776447 -0.0024019978 -0.005376107 0.00463471 -0.0070345243 -0.0025751456
-0.0061320793 -0.003285271 0.0028148321 0.0012840268 0.0013072222 0.006224196 -0.00018229574 -0.007190093
00000000: 1158 873b 2f45 75bb 7436 babb 4950 733a
00000010: 6327 b53a 8546 5f3a c3e5 913b cfaf b13b
00000020: 6804 84bb 5c10 d53b 1e9f b2bb e3ea 89bb
00000030: 0ad5 cfbb b931 d43b e468 e43b 624b 76ba
00000040: e776 c1bb 7a65 db3b 329e c23b a778 e83a
00000050: 5c3e d2bb 01b2 b93b 28e9 d53b 3273 7fbb
00000060: 4dda c5bb db30 acbb b282 94bb 5c46 cf3b
00000070: f9ea 62bb ea4d e13b 9ba4 d5bb 5247 e33b
00000080: 416b ba3b 0852 d1bb 50a7 a73b 1a53 d33b
00000090: bd14 913b bb67 073c cf7a cabb ec21 db3b
000000a0: 87f9 e53b de59 83bb d3aa 36bb 4f4d c6bb
000000b0: bc41 193b 36dd bdbb 1b9a 573b 0446 ea3b
000000c0: 5029 c23b 5040 ef3a 1f0f 4a3a 789d a23a
000000d0: a0dc 3dba 2d43 c6bb 7059 cebb 0b2e ce3b
000000e0: a82d e13b c2c1 d9bb 7bb7 c03a e05f aabb
000000f0: 7b25 7ebb 665c e43b 86a2 28bb aead dabb
00000100: 88d5 dab9 4013 b0b7 6497 b2ba ec11 933b
00000110: 124a d73a 663b 14bb 408f e6ba 1492 b0bb
00000120: 08f6 40bb ce9a a2bb 38df c53b 4afd a8bb
00000130: adc4 303b de29 d4bb c772 3fba e76e 103b
00000140: 2aed e3ba 6cb4 21b9 133a cfbb f75e c7bb
00000150: ecc5 83bb 4e24 193b 9e06 62bb 8c9a 1fbb
00000160: 4152 a23b 8d36 d93b 76ff d1bb 6e3a 363b
00000170: a3fc babb 306b c3bb c4bf 93bb 4e85 97bb
00000180: ee16 c9bb d03f 80bb 3924 c93a cc38 5fb9
00000190: 5f99 74bb d2dd b53a 21a1 be3b 6fb7 143b
000001a0: 82d4 823b e51a 9abb 3f3e 293b ab32 b63b
000001b0: 6fc4 85bb 8d6d a73b c985 a73b c73f 2c3b
000001c0: cb07 de3b 1c51 92bb be83 9cbb d66a 1dbb
000001d0: 0e2a b0bb c4de 973b de81 e6bb c6c3 28bb
000001e0: 9cef c8bb b44d 57bb 0c79 383b ca4c a83a
000001f0: 1957 ab3a 57f4 cb3b a426 3fb9 df9a ebbb

action_model._continuous_distribution.log_sigma f4 [1, 2]
0.0039053974 -0.004675701
00000000: b2f1 7f3b 9f36 99bb

action_model._continuous_distribution.mu.weight f4 [2, 128]
0.001974142 -0.0016388599 -0.011472222 -0.010662203 0.021387305 0.032622952 0.0041281204 0.0012269075
-0.0017529719 0.0055306335 -0.004651931 -0.010989534 -0.016100172 0.034741357 0.015767744 -0.021837007
-0.011591704 0.025298338 0.020228352 0.012502599 -0.023218311 0.009154256 0.014191954 -0.0006941967
-0.02707352 -0.009990281 -0.0025634258 0.007354351 -0.002378575 0.02806609 -0.018958393 0.015545297
0.02763341 -0.03223763 0.0010135056 0.017700773 0.029633565 0.0359412 -0.013083377 0.013972645
0.023963315 -0.023672068 0.010361247 -0.015566956 0.0071971584 -0.010763603 0.014022911 0.023198152
0.012529513 -0.0074903956 0.023517024 -0.0011376963 0.013765602 -0.012598785 -0.009065998 0.00078229903
0.0285937 -0.018257117 -0.0040164785 -0.030071832 -0.00085650646 0.0040761065 -0.020258341 -0.025335444
0.008646124 0.007855278 -0.008757736 0.016888956 0.017951896 0.009690511 0.0032316893 -0.0027482414
-0.0001602487 -0.0051489477 0.0067433156 -0.004404402 -0.0058278986 -0.0053214016 0.014082895 -0.004808752
-0.024370678 0.0050538797 -0.012927673 -0.017221501 -0.010146243 0.00059933215 -0.007937544 -0.0058950465
0.017380849 0.028773658 -0.020145003 0.012771055 -0.008834247 -0.008102188 -0.0042856997 -0.00937878
-0.013303234 0.00375433 0.014941795 -0.027030207 -0.0039670756 -0.009942779 0.0057253735 -0.009518848
-0.0004851994 0.0007068429 -0.0051838434 0.014842681 -0.0049779685 0.0014198595 0.006154983 0.0004661064
0.013040476 -0.002022329 -0.011885524 -0.017400865 -0.023744693 0.009135308 -0.0069829975 -0.0013154747
-0.037836958 0.0031973203 0.019500813 -0.007013038 0.032772765 0.009838747 -0.015822243 -0.02041766
0.01613337 -0.035897404 -0.027846955 0.029404573 -0.016569711 -0.033572786 0.02141745 0.009122744
-0.022424517 0.011172401 -0.006228084 0.005253207 -0.016964251 0.0057292404 0.015357934 0.022312056
-0.005472185 0.024971139 0.0061349836 -0.009479929 -0.012900024 0.0038055696 0.01115817 -0.016463153
-0.017055348 -0.028145306 -0.024913924 0.03333914 -0.017403025 0.023551209 -0.012489791 0.0050250953
0.0010496918 -0.013251152 0.0202269 0.03192465 -0.005686213 0.042317696 -0.011221519 0.007824706
0.006150503 0.011989831 -0.046944257 -0.02848676 -0.00543427 0.00039975162 -0.0057421443 0.03404566
0.0018324923 0.033238936 -0.024271904 0.010027491 -0.025953062 -0.04155734 -0.0062398897 0.0023553115
0.01846077 -0.020026905 0.028236631 -0.0014018393 -0.025772184 0.006355907 0.008652679 -0.027678588
-0.013805607 -0.02003723 0.0098347245 -0.00059247646 -0.017352996 -0.03743447 -0.0094329575 -0.026711892
-0.0040241578 0.0030372096 0.020808255 -0.013942791 0.0332123 -0.0065653613 -0.027812874 0.022617746
0.02394854 -0.002679994 -0.025004279 -0.009307411 0.002447753 0.0048512113 0.0061968886 0.006566349
-0.0018832766 0.01165018 -0.008405987 -0.0060199457 -0.019350387 -0.012747548 0.0024108503 0.0042314217
-0.009041693 -0.032714777 -0.023568226 0.032601606 -0.037282616 0.039738927 0.0009232524 0.033941973
0.012043739 -0.016537614 0.022093175 0.010167383 -0.036409568 0.02189552 -0.0019324123 0.0023235485
0.009721609 -0.009862441 0.005521615 0.010797514 0.0035165881 0.0020553016 -0.011759438 0.0003591636
-0.018712569 -0.0063154735 -0.0062553645 0.015405886 -0.03601396 0.0059562824 0.021414854 -0.009171075
00000000: 9b60 013b 03cf d6ba fdf5 3bbc 85b0 2ebc
00000010: 6e34 af3c a59f 053d 2f45 873b 2fd0 a03a
00000020: fac3 e5ba 513a b53b 3a6f 98bb 720d 34bc
00000030: 82e4 83bc f44c 0e3d 5b2b 813c 86e3 b2bc
00000040: 21eb 3dbc 763e cf3c eeb5 a53c b3d7 4c3c
00000050: 5434 bebc bcfb 153c 5f85 683c c0fa 35ba
00000060: 49c9 ddbc 47ae 23bc 26ff 27bb c5fc f03b
00000070: dee1 1bbb dbea e53c a24e 9bbc b4b1 7e3c
00000080: 765f e23c 9b0b 04bd 9bd7 843a 3601 913c
00000090: 17c2 f23c 1437 133d a95b 56bc 85ed 643c
000000a0: b74e c43c edeb c1bc 38c2 293c 8c0c 7fbc
000000b0: 24d6 eb3b d359 30bc 5ac0 653c 0d0a be3c
000000c0: 9648 4d3c fe71 f5bb c6a6 c03c c11e 95ba
000000d0: 1f89 613c 226b 4ebc 8d89 14bc 3313 4d3a
000000e0: 563d ea3c f38f 95bc aa9c 83bb 3459 f6bc
000000f0: 2d87 60ba dc90 853b d2f4 a5bc 478c cfbc
00000100: 79a8 0d3c 6db3 003c 9b7c 0fbc b55a 8a3c
00000110: db0f 933c f3c4 1e3c c0ca 533b d71b 34bb
00000120: 6f08 28b9 81b8 a8bb 08f7 dc3b cd52 90bb
00000130: f5f7 bebb 275f aebb f1bb 663c bc92 9dbb
00000140: 04a5 c7bc 049b a53b 97ce 53bc 1b14 8dbc
00000150: 6d3c 26bc 801c 1d3a 790c 02bc 3c2b c1bb
00000160: 4862 8e3c bcb6 eb3c 2207 a5bc b03d 513c
00000170: 84bd 10bc 0abf 04bc 0e6f 8cbb 74a9 19bc
00000180: cff5 59bc 350b 763b 6ece 743c 746e ddbc
00000190: 3efe 81bb 0ae7 22bc ea9b bb3b f1f4 1bbc
000001a0: 5c62 feb9 6d4b 393a 3bdd a9bb b72e 733c
000001b0: 3a1e a3bb 941a ba3a bdaf c93b be5f f439
000001c0: b8a7 553c 0d89 04bb 80bb 42bc 428c 8ebc
000001d0: 3b84 c2bc 42ac 153c a1d1 e4bb 026c acba
000001e0: edfa 1abd 228a 513b 2bc0 9f3c a0cd e5bb
000001f0: bc3c 063d b232 213c a69d 81bc f042 a7bc
00000200: 212a 843c 2809 13bd 4c1f e4bc dce1 f03c
00000210: 34bd 87bc 9e83 09bd a673 af3c 9077 153c
00000220: 9fb3 b7bc 720c 373c f514 ccbb 1823 ac3b
00000230: 9df8 8abc 5abc bb3b d89f 7b3c c6c7 b63c
00000240: 0450 b3bb 4690 cc3c f907 c93b b451 1bbc
00000250: 9f5a 53bc dd66 793b c2d0 363c bcdd 86bc
00000260: a8b7 8bbc fc90 e6bc 4918 ccbc 9f8e 083d
00000270: ca90 8ebc 77ee c03c fba1 4cbc 8ea9 a43b
00000280: d095 893a 5c1b 59bc e2b2 a53c 6cc3 023d
00000290: 6953 babb 5255 2d3d 76da 37bc 3233 003c
000002a0: 298a c93b ff70 443c 9f48 40bd 115d e9bc
000002b0: f611 b2bb c195 d139 9928 bcbb 7673 0b3d
000002c0: 3d30 f03a 8d25 083d dfd5 c6bc 584a 243c
000002d0: 849b d4bc 0838 2abd fd77 ccbb 925b 1a3b
000002e0: 0a3b 973c 770f a4bc 8250 e73c ecbd b7ba
000002f0: 3020 d3bc 3645 d03b f7c3 0d3c 35be e2bc
00000300: ea30 62bc 1e25 a4bc d321 213c 6c50 1bba
00000310: df27 8ebc e354 19bd b18c 1abc e6d2 dabc
00000320: 15dd 83bb ec0b 473b 1376 aa3c 4e70 64bc
00000330: 9f09 083d 3e22 d7bb d3d7 e3bc da48 b93c
00000340: bb2f c43c d7a2 2fbb c6d5 ccbc 1c7e 18bc
00000350: 7b6a 203b e9f6 9e3b 450f cb3b 872a d73b
00000360: 47d8 f6ba 66e0 3e3c 44b9 09bc f742 c5bb
00000370: b484 9ebc 17db 50bc 5bff 1d3b bda7 8a3b
00000380: 9c23 14bc eeff 05bd 2712 c1bc 4389 053d
00000390: a8b5 18bd 49c5 223d 6b06 723a bd06 0b3d
000003a0: 1a53 453c e479 87bc bffc b43c 1895 263c
000003b0: 3322 15bd 3c5e b33c ff48 fdba ad46 183b
000003c0: 6247 1f3c 1396 21bc aaee b43b 0ee8 303c
000003d0: 8f76 663b 3db2 063b a8aa 40bc 1f4e bc39
000003e0: 1a4b 99bc 08f2 cebb cdf9 ccbb f868 7c3c
000003f0: 6083 13bd eb2c c33b 346e af3c 4742 16bc

action_model._continuous_distribution.mu.bias f4 [2]
0.0056924755 0.0040141023
00000000: f287 ba3b bb88 833b

action_model._discrete_distribution.branches.0.weight f4 [1, 128]
0.0049043074 0.015420482 0.01996926 0.011209674 -0.0030233792 -0.02470882 0.0072899535 -0.0022709458
0.009591683 -0.0007769972 0.008181279 -0.002211416 0.009818458 0.009168083 -0.0027345812 -0.005462724
0.0020850636 -0.01944754 0.0020903226 0.0015198541 0.0020165606 -0.008319027 -0.0017725449 0.010781911
-0.004533353 0.006512826 0.0202015 -0.0059805126 0.0028536215 -0.004386101 -0.0032886378 0.01837035
-0.006014349 -0.008511941 0.00022909953 0.00035358404 0.025616815 0.007149881 -0.0037997866 0.0073639797
-0.003629292 -0.009128846 0.0023330005 -0.004990882 -0.009391897 -0.0073471228 -0.011795404 0.0065947
0.0027240817 -0.016149918 -0.0014774062 0.0024111231 0.0076309848 0.014306639 -0.00941028 0.0050804145
0.0030892247 0.013540305 0.007666278 -0.016260782 -0.001401359 -0.011244593 0.0026098667 0.0032109104
0.008371104 0.00034899625 0.0044190753 0.0094578415 0.013933142 -0.0047726985 0.0019097816 -0.010127372
0.0013642566 0.003983595 -2.373051e-05 0.005031202 -0.0135614425 -0.013839716 0.015894886 0.0048073432
0.015408902 0.008389791 0.006844111 -0.00078393175 0.009866003 0.0045162546 0.0075299093 -0.02937862
0.019944495 0.004465822 -0.0025750732 0.010723294 -0.0028338595 0.0035570709 -0.00025785711 -0.013908604
0.0038982746 -0.004015604 0.0132692605 -0.0061029443 -0.016928174 -0.0033358322 0.0076345974 0.0036817843
-0.008891026 -0.006999808 0.002614539 0.0065667294 0.0004878386 0.013308461 0.0019092982 0.0060957684
0.0014665624 -0.004258635 0.008520047 -0.0021018984 -0.006137799 0.0060573486 -0.01831281 0.0018107642
-0.0012048655 0.003566827 -0.03136534 0.010011217 0.0017932117 0.002880098 -0.0049662604 0.0063966857
00000000: 50b4 a03b 30a6 7c3c 9396 a33c c8a8 373c
00000010: e323 46bb 276a cabc 90e0 ee3b 26d4 14bb
00000020: 6f26 1d3c 66af 4bba c50a 063c 67ed 10bb
00000030: 99dd 203c ba35 163c a936 33bb a600 b3bb
00000040: 90a5 083b 7350 9fbc cbfd 083b d735 c73a
00000050: 4628 043b 874c 08bc bd54 e8ba 9da6 303c
00000060: 858c 94bb 8b69 d53b 9e7d a53c 2df8 c3bb
00000070: d303 3b3b 48b9 8fbb 3086 57bb 6b7d 963c
00000080: 0414 c5bb ab75 0bbc 703a 7039 3f61 b939
00000090: 5bda d13c 8d49 ea3b d705 79bb 8a4d f13b
000000a0: 6ad9 6dbb 2891 15bc 41e5 183b 8d8a a3bb
000000b0: 79e0 19bc 22c0 f0bb 8341 41bc 5a18 d83b
000000c0: 8286 323b d54c 84bc 87a5 c1ba ef03 1e3b
000000d0: 570d fa3b 6566 6a3c 932d 1abc 9b79 a63b
000000e0: 9774 4a3b 28d8 5d3c 6735 fb3b 5535 85bc
000000f0: cead b7ba 3e3b 38bc 4c0a 2b3b 236e 523b
00000100: f426 093c 7cf9 b639 e4cd 903b 10f5 1a3c
00000110: d547 643c 4c64 9cbb a351 fa3a 47ed 25bc
00000120: dbd0 b23a d188 823b e210 c7b7 c8dc a43b
00000130: d030 5ebc fabf 62bc fe35 823c eb86 9d3b
00000140: 9f75 7c3c 5575 093c 9044 e03b c580 4dba
00000150: 04a5 213c 17fd 933b 75bd f63b 6fab f0bc
00000160: a362 a33c 0856 923b 8fc2 28bb c1b0 2f3c
00000170: 46b8 39bb bf1d 693b ff30 87b9 eae0 63bc
00000180: 327a 7f3b 5495 83bb 5067 593c 35fb c7bb
00000190: f4ac 8abc fa9d 5abb a52b fa3b 174a 713b
000001a0: aaab 11bc a55e e5bb af58 2b3b b82d d73b
000001b0: 97c4 ff39 bb0b 5a3c 6b41 fa3a 03bf c73b
000001c0: ab39 c03a 058c 8bbb ab97 0b3c 01c0 09bb
000001d0: 971f c9bb b97c c63b bf04 96bc 2a57 ed3a
000001e0: 94ec 9dba 6dc1 693b f178 00bd 1606 243c
000001f0: 330a eb3a 07c0 3c3b 03bc a2bb 4a9b d13b
