results/ag02/PlatformRotate/PlatformRotate-299999.onnx (onnx, 106330 bytes, 8 tensors)

network_body._body_endoder.seq_layers.0.weight f4 [128, 66]
000000 73 2b 17 3d 0f 27 f2 3d 70 bf 05 be ab ba 01 bd
       0.03690667 0.11823856 -0.13061309 -0.03167216
000010 d5 88 d1 bc 95 1b e7 bd a3 0f c4 3d e9 69 95 bc
       -0.025577942 -0.11284558 0.09573295 -0.018238978
000020 92 e4 f5 3c 5e 4a af 3d 65 f2 47 3e 8a 9d 05 be
       0.030016217 0.08559106 0.1952606 -0.13048378
000030 74 60 aa bc 76 36 75 be 8d 02 e9 bd e1 b6 c6 bd
       -0.020797946 -0.23946556 -0.1137744 -0.0970285
000040 8e 60 6e bd 33 d7 3e be 85 9b 7e bb ab c1 03 3e
       -0.05819755 -0.1863678 -0.003885002 0.12866847
000050 c2 77 b7 3d 8a 1b 0a 3e f7 88 9a bc 71 15 9d 3d
       0.08958389 0.13487068 -0.018864138 0.07670105
000060 33 5f 09 3d 70 47 bd ba 51 06 92 bd 0d 34 8c 3d
       0.033538055 -0.0014440846 -0.07130111 0.068458654
000070 c0 4a 29 3e 89 06 b0 3d 04 9c ad bc 01 20 85 bc
       0.16532421 0.085949965 -0.021192558 -0.016250612
000080 ff 56 ce 3c 29 03 14 3b 4c 33 24 3d 6c bb 0b be
       0.025187967 0.0022584891 0.040087983 -0.13645715
000090 80 54 e3 3c 5d 21 c9 3e 35 63 03 bd ae be 9b 3c
       0.027750254 0.39283267 -0.032077033 0.019011822
0000a0 e8 d9 88 be e3 98 60 3e 7e 48 57 bd 11 a5 e3 3d
       -0.2672875 0.21933322 -0.05255937 0.11115468
0000b0 5c 34 f0 bd d1 05 f5 bd ab a0 d6 3d 36 b1 c3 3d
       -0.11728737 -0.11964 0.10479864 0.09555285
0000c0 9d 85 b1 3d bf 1a db bd 2e d7 2c bd e0 ef c8 3d
       0.08668063 -0.10698461 -0.0421974 0.098113775
0000d0 ad c0 7d bd f3 bd d7 3d 60 3c 88 3e d0 43 a2 3c
       -0.061951328 0.10534277 0.26608562 0.019807726
0000e0 41 96 15 bd 27 45 b9 bd 43 04 a7 bc f8 f3 54 3e
       -0.036520246 -0.09046393 -0.020387774 0.20796192
0000f0 22 9e c3 3c 58 bf 33 3e fa 99 a6 bc 4c 53 8d 3c
       0.023879115 0.1755346 -0.020337094 0.017251633
000100 fc 14 1a be bc 63 37 3d d5 22 60 bc bc 25 60 be
       -0.15047067 0.04477285 -0.01368018 -0.21889395
000110 65 e0 a3 bd c9 43 bf 3d c2 46 98 3e b0 ea 0e 3e
       -0.08001784 0.09339101 0.29741484 0.13956714
000120 03 46 26 be 04 31 e7 3d 9d 55 67 3e a0 fd 0b 3c
       -0.16237645 0.11288646 0.22591253 0.008544356
000130 6c 09 09 3e de 79 de bd ef 37 b1 3d 4e d3 0b 3e
       0.133825 -0.10863088 0.086532466 0.13654825
000140 61 77 4c bc c7 17 17 3e 52 e8 10 be 0f eb 5b 3e
       -0.012479634 0.14755164 -0.14151123 0.21476386
000150 99 43 bd be e7 79 56 be 8b 0e 07 3e 7b 60 9f bc
       -0.36965635 -0.2094494 0.13189141 -0.019455185
000160 55 1d 44 3d 30 8e 69 3d a7 ff 16 3c b2 d5 06 be
       0.047879536 0.057020366 0.009216226 -0.13167456
000170 5a b1 11 3e 91 64 8f be 2c 84 6c bc d5 46 1d 3d
       0.1422781 -0.28006414 -0.014435809 0.03839763
000180 8d 78 b7 bd da d8 26 bd 14 47 0c 3e c8 39 a7 3d
       -0.0895854 -0.04073415 0.13698989 0.08165318
000190 99 83 06 bd e6 9e 1b 3e 69 c0 43 bd cc 0d 6c be
       -0.032840345 0.15197334 -0.04779092 -0.23052138
0001a0 2c be 64 3d 9d 49 ad 3d f4 38 02 3d 11 80 e7 3d
       0.055845425 0.08461306 0.031792596 0.113037236
0001b0 66 fb 22 3d ce b6 f7 3d 08 d4 6f 3e 52 32 a9 3c
       0.039790533 0.12095414 0.23420727 0.020653877
0001c0 be da 8e be 4b b9 e5 3d 83 95 ee 3d fe 7d 16 3d
       -0.27901262 0.112169825 0.11649611 0.03674125
0001d0 3f 5e f1 3d 27 cf 05 be f7 cf 2a be 26 47 af bd
       0.11785554 -0.13067304 -0.16680895 -0.08558492
0001e0 d9 0a 15 be 80 3b b8 bd 8e 80 1f 3e 90 6b 5d 3d
       -0.1455492 -0.08995724 0.15576383 0.054057658
0001f0 e7 fc 30 be 86 81 86 bd 9c 76 d9 bd 5c 27 c8 bd
       -0.17283975 -0.065676734 -0.10618326 -0.09773132
000200 f6 71 cf bd ea 3f 49 3c f9 ef fd 3d f0 39 5f be
       -0.10129158 0.012283305 0.12399287 -0.21799445
000210 6b 02 a7 bc 16 98 28 3e 4e 58 fd bd a0 53 ce 3d
       -0.020386895 0.16464266 -0.123703584 0.10074544
000220 5c 1c 15 bd 71 3a 2d 3d c7 5a 0f be a4 92 67 ba
       -0.036404 0.042292062 -0.13999473 -0.0008833802
000230 2c 07 8e bd d9 ca 32 bd 1f 98 0e 3d 9e 15 a5 3d
       -0.06934962 -0.04365048 0.034813043 0.08060764
000240 c1 1d 34 3d 89 0e ff 3d 21 48 8c 3d 04 ad 46 be
       0.043973688 0.12453944 0.06849695 -0.19401938
000250 81 6f 3c be fe 5e 4c 3d fa b7 1c bd d2 9b 03 3e
       -0.1840191 0.04989528 -0.03826139 0.1285241
000260 bd 5f d8 bb 9e 4e 47 be b1 83 12 3e e5 4f f6 bd
       -0.00660321 -0.19463584 0.14308049 -0.120269574
000270 b4 ee 26 3e 60 4b 27 bd 81 92 d5 3c 9a 1e 2b 3e
       0.16301996 -0.040843368 0.026070835 0.16710892
000280 88 1a 87 bc ee a4 87 3d da 63 a4 3d d5 91 98 3d
       -0.016492143 0.06623255 0.08026858 0.0744969
000290 a2 cc 4d 3e c1 ac 19 be a6 41 97 bd 1e bf ee bc
       0.20097592 -0.15007307 -0.07385568 -0.029143866
0002a0 93 c3 c8 3d ea 65 e9 bd 8e cf 3b bd 9f 29 c1 bd
       0.09802928 -0.11396392 -0.045852236 -0.09431767
0002b0 96 90 4c bd 3d 78 04 3e 68 a4 e7 bd b6 2d 74 3d
       -0.049942575 0.12936492 -0.11310655 0.059613906
0002c0 81 e8 26 3e 90 d0 d1 3d c5 86 2e bc c3 fd 0d 3c
       0.1629963 0.10244858 -0.010652249 0.008666459
0002d0 7a 11 7e bc 0e 73 91 bd 04 cb f0 3d 6c 8b 18 bd
       -0.015507096 -0.07102023 0.11757472 -0.037242338
0002e0 b7 d8 d2 bd 5f 04 36 be d3 e7 51 3d fd 2d c0 3d
       -0.10295241 -0.17775105 0.051246475 0.093837716
0002f0 37 0d 5b 3d fc f2 3d 3e 54 97 8a be 64 6b ed 3d
       0.0534794 0.18549722 -0.2706858 0.11592749
000300 72 f1 33 3e 10 67 4b be dd b6 ef bc 12 02 25 3d
       0.17572573 -0.19863534 -0.029262 0.040285178
000310 99 9d 8a bd 69 3b 83 3d c2 43 40 3e 61 e3 a1 3d
       -0.067683406 0.06407816 0.18775848 0.07904697
000320 ee b0 c8 3d a1 a8 1b bd dd cb 73 3d 15 61 02 3d
       0.09799372 -0.038002614 0.05952059 0.031830866
000330 d5 26 8d bb bb 73 7e 3d d8 b7 b5 bb ee 3b cb bd
       -0.0043076077 0.062122088 -0.0055455975 -0.0992354
000340 ed a8 9c 3d 7e ea 09 3e 8f 8c 04 3e 10 c7 e7 bd
       0.076494075 0.13468358 0.12944244 -0.11317265
000350 07 f6 36 bd 63 0c 4f 3e 33 86 ce bd af 74 5a bd
       -0.044668224 0.20219569 -0.1008419 -0.053333934
000360 a8 74 d5 3b 7b cc 3b be 11 f9 cd bc 12 f4 77 3c
       0.0065141506 -0.18339722 -0.025143178 0.0151338745
000370 3b 69 41 3e 99 58 00 3d 97 ee f8 bd be 81 1b 3e
       0.18887798 0.031334493 -0.121548824 0.15186211
000380 c3 6d 6c 3d 20 71 a6 3c 33 55 86 3d c5 bd 77 bd
       0.057721864 0.020317614 0.06559219 -0.060483713
000390 08 ce e6 39 cb cb 64 bd a1 ed 5d be 77 b2 4c 3e
       0.00044022524 -0.055858415 -0.2167268 0.19989954
0003a0 ab 0e 2c bd 10 f1 2a 3e 5d 7c 99 bd 0f 80 cc 3b
       -0.042006176 0.1669352 -0.074944235 0.0062408517
0003b0 6a 4c 13 be 7c 57 87 be 07 e3 3b 3e 8e c1 33 be
       -0.14384618 -0.26433933 0.18348323 -0.17554304
0003c0 63 8c 4c bc 0d c5 2a be a4 30 ca 3d bb b9 2a be
       -0.012484643 -0.16676731 0.09872559 -0.16672413
0003d0 2a 72 1c be fe 02 d3 bd 90 a2 eb bc f7 86 ad 3c
       -0.15277925 -0.10303305 -0.02876404 0.02118252
0003e0 23 6c be bd 4f ee f7 bd 23 e8 bd 3d 1f d0 19 be
       -0.09297969 -0.12106001 0.09272792 -0.15020798
0003f0 28 fe 9d 3d 02 b7 9b be c5 fe e6 bd 05 88 03 3e
       0.07714492 -0.3041306 -0.11279062 0.12844856

network_body._body_endoder.seq_layers.0.bias f4 [128]
000000 26 5b df bb 02 48 61 3b 15 5c a1 39 26 fb 48 3a
       -0.0068162857 0.0034375195 0.0003077692 0.00076668186
000010 6e 45 98 3b e6 49 d0 3b e6 c1 68 3b 5d f2 12 3c
       0.0046469485 0.0063564656 0.0035515963 0.008968917
000020 c3 ea 83 ba 68 62 03 bc 66 ca 81 bb 7d 3a b0 3b
       -0.0010064471 -0.008019067 -0.0039608954 0.005378066
000030 5d c0 97 bb a0 4f 30 bc b6 ec ec ba cd 2d ac 3b
       -0.004631086 -0.010761172 -0.0018075916 0.0052544833
000040 fc d0 e0 39 3a 52 4e 3c 34 0d 83 b9 47 c6 d1 bb
       0.00042880315 0.0125928465 -0.00024996104 -0.0064018103
000050 b0 52 3f bc 59 4a 82 bc 1e cb d2 bb 12 c9 62 bb
       -0.011677429 -0.015904592 -0.006432905 -0.003460471
000060 04 4b a6 3a d7 0d a9 bc 83 bd 73 bb 0f 78 7f bc
       0.0012687151 -0.020636482 -0.0037191815 -0.015592589
000070 44 5a 2e 3c bb 56 13 3c 52 57 97 bb b5 0d ab 3b
       0.010641638 0.008992846 -0.0046185637 0.00522014
000080 7d e6 2c bc 8f c6 84 3b 2e ba 2a 3c 49 cd ff bb
       -0.010553 0.0040519903 0.010420365 -0.0078064543
000090 c8 52 cf bb 3d e7 a6 ba bc ed 0b bb e7 a8 bf ba
       -0.006327007 -0.0012733709 -0.0021351418 -0.001462248
0000a0 ca 13 0a ba bf 53 b3 3a a0 44 9e 3b 28 04 0e bb
       -0.0005267231 0.0013681574 0.004829958 -0.0021669958
0000b0 0b f9 e9 3b 67 be 86 3b 0f ae 00 3b 2b e0 a5 ba
       0.007140284 0.004112053 0.0019634997 -0.0012655308
0000c0 0e 43 3d 3c 60 b7 a3 3c a4 f4 d0 bb fa ab 27 3c
       0.011551632 0.019984901 -0.0063768197 0.0102338735
0000d0 81 1b 9e bb 66 ae bb 3b 7b 2d 5b bb 3a 0c ac b9
       -0.004825056 0.005727577 -0.0033443857 -0.00032815506
0000e0 50 c0 23 bc 0d 01 63 bc 97 4a f3 39 29 9e 9d 3b
       -0.009994581 -0.013855231 0.00046404146 0.004810114
0000f0 6c a8 95 3b 33 d8 2f bb f6 ad 41 3a 4a c3 02 bc
       0.0045671966 -0.0026831746 0.0007388288 -0.007981131
000100 fa 5b 25 bc 26 cc 4f bc 25 6a 96 3b b6 05 00 bb
       -0.01009273 -0.01268295 0.00459029 -0.0019534654
000110 ea 15 aa 3a 2a fd 76 3b 88 64 a8 3b 1f e3 6c bb
       0.0012976502 0.0037687519 0.0051389374 -0.0036146117
000120 ff 9e 3f 3c d6 7e a6 bb 72 a9 dc 39 50 fe 28 bc
       0.0116956225 -0.005081038 0.00042087917 -0.010314539
000130 fb 69 b0 bb 77 69 cb bc 24 1c 28 3b 25 ad 18 bc
       -0.0053837276 -0.024830563 0.0025651539 -0.009318625
000140 9d 37 50 3c fd a9 94 38 d8 56 af bb 12 ad a5 3b
       0.012708572 7.088853e-05 -0.0053509288 0.005056032
000150 54 c6 d1 ba 01 45 99 bc 0a ca a0 bb f0 62 20 3c
       -0.0016004541 -0.018709661 -0.0049068974 0.009789214
000160 70 28 86 3b 6e 06 47 bc 1e 77 d5 3b c8 c0 20 3b
       0.004094176 -0.012147529 0.006514444 0.002452897
000170 f5 bd ce 3b 7c 0e c3 bb b8 6d 2c bb 53 f5 25 bc
       0.0063092657 -0.0059526544 -0.0026310515 -0.010129291
000180 07 1a 9f bb 63 61 9f 3b f7 75 00 3c 58 12 22 bc
       -0.0048553976 0.0048639043 0.007840625 -0.009892069
000190 1f a7 3c 3b 25 7f 25 bb 50 2e 78 bc 94 2f 0f 3c
       0.0028786135 -0.0025252786 -0.0151477605 0.008739371
0001a0 5f 28 a2 bb b0 95 b4 bb a4 33 26 3b 25 94 00 3c
       -0.0049486603 -0.005511008 0.002536037 0.00784782
0001b0 46 cf 5d 39 92 79 13 3b 9b 22 be 3b 24 f6 cf 3b
       0.00021153418 0.0022502881 0.005802465 0.006346481
0001c0 e3 5c f5 3b 26 35 0f 3b 96 05 52 bb fc d8 2c 3c
       0.0074878796 0.0021851747 -0.0032046787 0.01054978
0001d0 55 68 20 bb 7d 76 74 3b 1e 0c 25 bb 71 05 1a bc
       -0.002447625 0.003730207 -0.0025184224 -0.009400711
0001e0 1b db 0e 3b 50 4c 20 3b 34 10 6f 3a 53 15 9f bb
       0.0021798078 0.0024459548 0.0009119541 -0.004854837
0001f0 96 6c e1 3b e3 23 d1 3b 33 40 69 bc 7f c4 c7 bb
       0.0068793995 0.006382452 -0.014236498 -0.006096422

network_body._body_endoder.seq_layers.2.weight f4 [128, 128]
000000 49 26 73 3d fa 9d 4c be 77 34 f9 3b 8a 9d ce bd
       0.059362683 -0.19982138 0.0076051312 -0.10088642
000010 e4 52 b4 bb 36 9d 3d bb 0e 10 85 bc cd 32 db 3d
       -0.0055030454 -0.0028932816 -0.016243007 0.10703049
000020 15 62 08 be 4d 5b 87 bd bd d0 00 3e 18 5e b1 bd
       -0.13318665 -0.06609211 0.12579627 -0.08660525
000030 d9 35 9a 3d cd 08 40 bd e3 62 0a be bb ba ed 3c
       0.07529802 -0.046883393 -0.13514285 0.029019704
000040 42 21 b6 bd 28 b6 ad bc e7 df 32 be 28 64 9e 3c
       -0.08893062 -0.021205023 -0.17468224 0.019334868
000050 0c 57 86 3d f3 b8 d2 bc b4 c5 85 3c 14 a7 b9 3c
       0.065595716 -0.025722956 0.016329624 0.022662677
000060 b6 35 7b bd 7a 6a ef 3b 77 4b c1 bd 68 48 20 3d
       -0.06133052 0.007306394 -0.09438222 0.039131552
000070 be 64 17 bd 08 82 f8 3c 94 7d 94 3d 42 a0 cc 3d
       -0.03696131 0.030335441 0.072505146 0.09991504
000080 43 ec 38 3d 8b f6 27 bc 13 3b a6 3d 97 d7 0f be
       0.04514719 -0.0102516515 0.08116736 -0.14047085
000090 fc cd 8a 3d e9 c2 89 3d 1c 5b 32 be 73 98 94 bd
       0.0677757 0.06726629 -0.17417568 -0.0725564
0000a0 0b af c2 3d 33 b9 39 bd 32 b1 06 3d d3 d6 1d 3d
       0.09506043 -0.045342635 0.03288383 0.03853495
0000b0 25 d2 1e bb 0f 8a 9e bd c7 53 2c ba 03 5e 7e 3c
       -0.0024234143 -0.07741176 -0.0006573763 0.015525344
0000c0 f0 2d d9 bb 94 ac 99 bd b3 01 e5 bb 9d 4e 14 3e
       -0.0066277906 -0.0750362 -0.006988728 0.14483114
0000d0 79 34 2a 3d 97 85 9f bb c8 7d 6b be 44 0e ae bd
       0.041553948 -0.00486822 -0.229972 -0.08498815
0000e0 95 77 e1 bd 95 27 e9 3d 42 26 3d be 69 92 c1 bc
       -0.110091366 0.11384503 -0.18471625 -0.023629384
0000f0 0b 67 d1 bd b6 f5 21 bd 00 3b e0 bd 3e 67 91 3d
       -0.10224732 -0.03954097 -0.10948753 0.0709977
000100 e8 19 88 bc 2d 79 69 3b 88 d7 d3 3d d6 23 ca bd
       -0.016613916 0.0035625205 0.10343844 -0.098701164
000110 4f c3 c9 bd 3f 83 d6 bb 59 b0 ba 3c f8 ae ba bc
       -0.09851705 -0.0065464075 0.022789167 -0.02278851
000120 b3 21 eb 3b 76 0f cf 3d b6 7d 47 be 5f d4 d9 bd
       0.007175648 0.10110371 -0.19481549 -0.1063621
000130 a2 b4 82 bd 37 5c 2f 3d 12 fe 81 3d 2e 24 d2 3d
       -0.06382109 0.042812552 0.06347288 0.10260807
000140 8c e4 c1 bd 18 73 8d 3d 73 85 94 3d 88 93 e5 bc
       -0.0946742 0.06906718 0.07252016 -0.02802445
000150 d0 16 76 3d e1 d0 68 bc aa 4c 1e bd ab 49 8b be
       0.06008035 -0.014209957 -0.03864733 -0.27204642
000160 ac a7 eb bd 58 b1 13 3d f2 1d 32 3e df 1a 0d bc
       -0.1150659 0.0360578 0.17394236 -0.008612364
000170 91 57 9b bd 1f 8d 95 bd c2 5e 8e bd b1 68 c5 3d
       -0.07585061 -0.07302307 -0.06951667 0.09639109
000180 d6 ac 58 bd c4 a2 c4 3d 20 11 36 bd 89 ab 10 3e
       -0.052899204 0.096013576 -0.044449925 0.14127935
000190 0a 71 45 3e cb 72 4a 3d 73 57 b8 bd 03 94 c4 3c
       0.19281402 0.04942588 -0.090010546 0.023996359
0001a0 55 03 dd bd 2a 9e 2a bc d7 8a 31 bc b9 9a 13 3e
       -0.10791651 -0.010413686 -0.010836325 0.14414491
0001b0 15 4c 8d 3c f1 13 6c 3c a9 a3 79 bd 1b 85 d5 bd
       0.017248193 0.014409051 -0.060947094 -0.104257785
0001c0 a0 06 88 3d 5f 00 b0 bb df 35 d1 bc b0 df c7 3d
       0.066418886 -0.005371138 -0.025538383 0.09759462
0001d0 d6 e1 ce bc 55 7f a6 bc 06 4a 2a 3e 1c fd 76 bd
       -0.025254171 -0.020324389 0.166298 -0.060299978
0001e0 7e b7 2c bd 3a 37 74 3d 1f 37 4f 3d 3d 5c 32 be
       -0.04216718 0.05962298 0.050589677 -0.17417999
0001f0 3e 73 a9 bc 39 6f b2 3d 86 8b 97 3c 77 61 dd 3d
       -0.020684835 0.0871262 0.018499147 0.108096056
000200 d5 8c b6 3c b1 9d 57 bd bf 3b 33 3e 29 82 1c bc
       0.02228395 -0.05264062 0.1750326 -0.009552517
000210 0b e8 a2 bc 64 59 a2 3d e4 5e 24 3c ce fd 1f 3e
       -0.019886037 0.07927206 0.010032389 0.15624163
000220 ba a7 2f bd 03 3d 78 bd 7a 6b 6e 3d d9 18 72 bd
       -0.042884566 -0.06060506 0.058207966 -0.059105728
000230 c6 3c 3d bb cf f9 8d bd 73 74 11 bd 10 44 12 3a
       -0.0028875335 -0.06932413 -0.035511445 0.00055796
000240 37 00 4a bc 9e 34 11 3e 77 7c 0f 3d 49 75 7a bc
       -0.012329153 0.14180228 0.03503081 -0.015286752
000250 45 8f 31 be 9a e6 02 3e ad b7 84 bd 67 cc 59 3d
       -0.17339809 0.1278328 -0.06480346 0.05317345
000260 d9 fe a5 3d ba f4 12 3d 8d 7e 4c bd 63 ad db 3d
       0.08105249 0.03587792 -0.049925376 0.1072643
000270 16 d0 54 bc 0a b2 87 3d ce 3d 33 ba db 35 0d 3e
       -0.012989065 0.06625755 -0.0006837518 0.13790075
000280 57 bf 96 3d f4 b4 11 be de 5e 06 be 40 e8 28 bd
       0.07360714 -0.14229184 -0.13122126 -0.041237116
000290 89 c0 4f bd f0 0d 42 3d c1 6e ca 3d 31 e5 75 3d
       -0.050720725 0.047376573 0.09884406 0.060033027
0002a0 50 50 22 3e 62 97 95 3c 73 3e 1a 3d bb 1e a1 bd
       0.1585095 0.018260662 0.037657212 -0.078671895
0002b0 35 d7 d9 bd a6 76 ae 3d 8e 5d 36 bd 3e 81 a9 bd
       -0.106367506 0.08518724 -0.044522814 -0.08276604
0002c0 be a3 23 bd ea 4a 54 bc 8f 9c 9d 3d a3 59 6d 3d
       -0.03995108 -0.012957314 0.07695877 0.057946812
0002d0 55 41 74 bd 51 b1 82 be 73 66 a7 bd 38 01 35 3d
       -0.059632618 -0.25525907 -0.081738375 0.044190615
0002e0 b1 ff 31 bc 3b 96 c3 3b b1 54 05 3e 0e 07 28 3d
       -0.010864184 0.0059688366 0.13020588 0.041022353
0002f0 33 34 a4 3d ac 6d c4 bc 62 ab 35 3b ab 03 7a bb
       0.08017769 -0.023978077 0.002772056 -0.003814916
000300 8e e3 e3 3d cb e3 7b 3e ec b8 93 bd b9 3e 76 3d
       0.11127387 0.24598615 -0.072130054 0.06011841
000310 77 2f 46 3e 31 ba 16 3e 79 c9 36 bd 70 7d ff 3c
       0.19354044 0.14719464 -0.044625733 0.031187743
000320 eb da 25 bc 73 d4 0d 3c 83 7d 0f 3e 5d d8 79 bc
       -0.010122995 0.008656609 0.14012723 -0.015249339
000330 e6 9a 2b bc c3 6d 16 3e e5 14 1a 3e 3f b4 e3 3c
       -0.010473942 0.14690308 0.15047033 0.027795909
000340 65 ae 6c bd a3 78 4c bd c7 1f f7 3d 52 d0 88 3c
       -0.057783503 -0.049919736 0.12066608 0.016700897
000350 c7 a2 1d 3d a2 2b 0e bd 66 a9 9d 3d 7d 19 74 3d
       0.038485315 -0.03470958 0.07698326 0.05959462
000360 9c e9 65 bd 32 86 1d be e3 dd 5f bd 7f 90 17 3d
       -0.05613099 -0.15383223 -0.054654967 0.037003037
000370 ef cb fc 3c 84 40 df 3d ef 72 b6 bb a9 2c 9c 3d
       0.030858962 0.10900977 -0.0055679004 0.07625706
000380 e6 c4 26 3c ed 70 98 3d 9d 81 87 bc aa f7 f1 bd
       0.01017878 0.07443414 -0.016541297 -0.11814816
000390 69 b3 5f 3d 8d a3 de 3d da 60 02 be 49 f8 e3 bd
       0.05461446 0.108710386 -0.12732258 -0.11131341
0003a0 aa 5b b7 3d a3 3b 2a 3d 34 01 bd 3d 6e 0e 55 3e
       0.089530304 0.04156078 0.09228745 0.20806286
0003b0 c8 c0 65 3e 3a fb 88 3d 56 70 f9 3d d2 67 16 be
       0.22436821 0.06688543 0.121796295 -0.14688042
0003c0 d4 63 a3 3c ce 6d 5f 3d 80 09 fb 3d 98 e0 c3 3d
       0.019945063 0.054548077 0.12257671 0.09564322
0003d0 51 c2 af bd 7e 64 1d 3d 27 62 29 3d b1 d3 e7 3d
       -0.08581985 0.038425915 0.04135337 0.11319674
0003e0 be 2e ea 3c 20 a0 67 bd d3 1b 74 3d 06 e2 23 3d
       0.028586742 -0.05654919 0.059596848 0.040010475
0003f0 e0 fc ad 3d f0 62 bc 3d 12 45 b2 ba 88 e2 bb 3c
       0.08495498 0.09198558 -0.0013600907 0.022935167

network_body._body_endoder.seq_layers.2.bias f4 [128]
000000 53 2e fb 3a b2 56 71 bb b1 7b a3 b8 7f 9b 8d 3b
       0.0019163586 -0.0036825356 -7.795485e-05 0.004321515
000010 3c b4 69 bb 83 c6 c6 bb 86 f6 1d 3c a2 a6 95 bb
       -0.0035660407 -0.006066145 0.009641295 -0.0045669833
000020 41 ec d8 bb 61 c1 b7 3b 3e df 1d bc 00 f9 cf b4
       -0.0066199605 0.0056077694 -0.009635745 -3.8737926e-07
000030 2e 38 c0 bb 40 96 be bb 29 be 9e ba 44 5a 08 bb
       -0.005866072 -0.005816251 -0.0012111116 -0.0020805756
000040 3a 9e 46 bb d6 21 9b bb df 27 27 bb 7a 7f bf ba
       -0.0030306713 -0.004734258 -0.0025505943 -0.0014610135
000050 6d b8 0f 3b da 36 3a bb b7 f0 74 3b 26 c8 87 bb
       0.0021929995 -0.0028414042 0.0037374923 -0.0041437326
000060 18 35 87 bb 94 f0 ca ba c9 c9 d5 3b 90 01 9c 39
       -0.0041262023 -0.0015483075 0.006524299 0.00029755803
000070 d6 15 ee bb 98 4f 20 bc c5 d5 2f ba 6d f0 f0 ba
       -0.0072657866 -0.009784602 -0.00067075744 -0.0018382199
000080 e8 91 44 bb dc f9 b6 bb 66 39 d6 ba 8e a8 42 3b
       -0.0029994193 -0.005583985 -0.001634401 0.0029702517
000090 6d 58 cd bb ad 5a 4c 3a de 7a 10 ba 34 5a 8b bb
       -0.0062666447 0.0007795494 -0.00055114727 -0.0042526964
0000a0 62 1d 09 bb d2 7b a1 3a 78 06 cf bb 7b e1 cf bb
       -0.0020922055 0.0012320227 -0.00631791 -0.006344018
0000b0 1e 87 b1 ba f4 61 bf ba d0 53 ed 3b ed 19 3d b9
       -0.0013544296 -0.0014601336 0.0072426572 -0.00018034103
0000c0 69 48 98 3b 1e 60 af 3b 70 9b a1 3b 05 76 2a 3c
       0.004647304 0.0053520342 0.0049318597 0.010404115
0000d0 4d 8d 10 bb ff a0 ec 3b 53 0f 8f bb f8 de 4e bb
       -0.0022056878 0.0072213407 -0.0043658405 -0.0031566005
0000e0 91 ee f3 3a e1 a4 1a 3b dd f5 ce 3b c4 97 19 bb
       0.0018610527 0.002359681 0.0063159303 -0.0023436407
0000f0 42 aa 4e bb 1b 3f a1 3b 57 30 c0 bb 8c 64 07 3b
       -0.0031534587 0.004920853 -0.0058651376 0.0020659296
000100 23 47 e1 ba 22 46 0e 39 b9 97 28 ba 9d 3f cd bb
       -0.0017187338 0.00013568302 -0.00064313 -0.006263687
000110 f2 0a b8 bb 0d ad cc bb ac 9f b5 bb b8 3c 38 bb
       -0.005616539 -0.006246215 -0.005542716 -0.0028112363
000120 60 59 3d b9 16 37 8a bb 52 39 4b ba a3 3a 21 bc
       -0.0001805774 -0.0042179925 -0.0007752377 -0.00984064
000130 8f 1e f7 3b 6c 6c 99 39 7f 9b b8 bb 66 bd 51 3a
       0.0075414847 0.00029263215 -0.005633771 0.000800094
000140 ec 55 5a ba fe 0c 90 3a 90 bb 5f 3a 0e 95 16 bc
       -0.00083288434 0.00109902 0.0008534724 -0.009190811
000150 b4 4e 84 ba ed 60 4b bb 09 6e 14 bb c4 38 b9 b9
       -0.0010094256 -0.0031033114 -0.0022648594 -0.00035328243
000160 38 6a 34 bb 29 df b0 ba 80 73 53 bb 1f d2 9d ba
       -0.0027529132 -0.0013494241 -0.0032264888 -0.001204077
000170 78 37 11 bb 82 dc 52 bb 68 29 33 bb 1b 0f 9e bb
       -0.0022158306 -0.003217489 -0.0027337912 -0.004823578
000180 06 4c 0d bc 9b c6 33 3b ef c4 92 bb 98 dc 1e bc
       -0.008624082 0.002743161 -0.0044790427 -0.009696148
000190 f8 d4 74 3b 88 10 50 3a 2d 4b f0 bb bb 81 5e ba
       0.0037358385 0.00079370337 -0.0073331804 -0.0008487959
0001a0 e0 cb 93 ba 73 7b cc 39 d5 cf 4a bb fc 2e c0 3a
       -0.001127597 0.0003900189 -0.0030946631 0.001466244
0001b0 1a 49 16 bb 92 88 1b 3c b9 9e 5b bb c4 16 e4 3a
       -0.0022931756 0.00949301 -0.0033511354 0.0017401804
0001c0 2d 43 a3 bb 66 d0 0b bb 93 da 98 3b 71 01 8a bb
       -0.004982373 -0.0021333932 0.004664728 -0.0042115976
0001d0 7a 48 6e 3b 6a b7 02 bb ab b7 34 bc aa 7c a1 bb
       0.0036359117 -0.001994575 -0.011030118 -0.004928191
0001e0 50 b2 80 ba 1e 22 a4 bb 6c 40 93 3b 07 e2 44 3b
       -0.0009818766 -0.00500895 0.0044937637 0.003004195
0001f0 de 51 9d ba 40 cf 5a 3b 4d 3b 86 bb 3e 50 71 b8
       -0.0012002548 0.003338769 -0.0040964247 -5.753361e-05

action_model._continuous_distribution.log_sigma f4 [1, 2]
000000 09 e7 32 3d 7a 82 42 3d
       0.043677364 0.047487713

action_model._continuous_distribution.mu.weight f4 [2, 128]
000000 24 02 d0 ba a8 0e 03 bd 10 07 13 3b d7 96 21 bc
       -0.0015869779 -0.0319964 0.002243463 -0.009862623
000010 9b 1c 03 3c 92 e9 63 bc fa df 10 bd ca 0f 36 3c
       0.008002426 -0.013910668 -0.03536985 0.011112163
000020 ef d7 d1 3b d7 0e b2 bc 36 36 12 bc e9 0e 6d bc
       0.006403915 -0.021735592 -0.008924058 -0.014468887
000030 f1 1b 71 bc 9c 0d a1 bc 6a bf 19 bd 67 49 2c bd
       -0.014716134 -0.01965981 -0.037536062 -0.04206219
000040 35 ae 18 3a ff 9d 9e bc 06 60 c0 3b f0 46 93 bc
       0.0005824299 -0.019362448 0.005870822 -0.017978162
000050 03 1d a8 bc c4 c1 4d 3d 0e 2f 00 bd 37 d7 95 3c
       -0.020521646 0.050233617 -0.031294875 0.018291099
000060 81 81 b0 bc e5 42 cf ba 8e 7a 85 bc 76 26 cb 3c
       -0.021546127 -0.0015812783 -0.01629379 0.024798613
000070 4c 61 ca 3c 14 e9 94 3c 7f f5 ab bb 5d 44 10 bd
       0.024704598 0.018177547 -0.0052477713 -0.035221446
000080 76 a5 08 3d af 9c d1 3b fa 93 d6 bc 76 fc 95 3c
       0.03336092 0.006396852 -0.026193608 0.01830886
000090 b7 c1 70 3b 27 55 b6 3b 7c c1 fc ba f9 47 8b bb
       0.0036736557 0.00556435 -0.0019283737 -0.004250523
0000a0 37 a6 06 3c 55 8c a4 3c 4a 37 5d bd e2 ba ff 3b
       0.00821834 0.020086447 -0.054007806 0.0078042606
0000b0 fc 15 af bc 63 98 4e ba 1e b6 ad bc 19 a3 a6 bc
       -0.021372788 -0.0007880984 -0.021205004 -0.020341443
0000c0 5d 94 df bc a0 1b ee bc 54 91 08 bd 5d b1 fe bc
       -0.027292425 -0.029065907 -0.03334172 -0.031090433
0000d0 e2 35 29 bd 20 ef a7 bc 24 ea a5 3c 43 70 5a bc
       -0.041311152 -0.020499766 0.020253249 -0.013332429
0000e0 b9 c5 96 bc 46 55 1b b9 b4 24 c3 bc 40 7a 2a 3c
       -0.018404828 -0.00014813719 -0.023821212 0.010405123
0000f0 a9 a8 e4 bc 99 52 93 3b a0 ae 7f bb 19 6d b4 bc
       -0.027912455 0.0044959304 -0.0039013997 -0.022024678
000100 2d 5f 3c bc 69 e8 90 37 cc e4 8d 3a b9 1d 49 bc
       -0.011497301 1.7274362e-05 0.0010825633 -0.012275153
000110 96 ea a1 3c 93 f0 99 3b ce bb 66 bc a2 f4 21 bd
       0.01976518 0.004697868 -0.014082862 -0.03953994
000120 a9 5a a3 3c 14 9c a2 bc b2 0d 15 bb 89 f9 59 bc
       0.019940691 -0.019849814 -0.0022743759 -0.013304123
000130 30 bb 57 bc a4 6d 2f ba 71 d3 e4 3b 3e 7a 0d 3d
       -0.013167188 -0.0006692058 0.0069832136 0.034540407
000140 76 d5 b7 bc 6d 60 6d bc be 4a 6b bc e0 73 1a bc
       -0.022440653 -0.014488322 -0.014361082 -0.009427041
000150 2d 6a 81 3c ad 88 1f 3c 61 16 fc bc fe 68 80 3c
       0.015797699 0.009737176 -0.03077239 0.015675064
000160 44 98 2b bc 3c 5f 05 bb da 23 2e bd 7f a5 a8 bc
       -0.010473315 -0.0020350954 -0.04251466 -0.020586727
000170 ba 8c 03 bd 3e c1 50 bc 56 15 8b 3c da 7e 37 bc
       -0.03211663 -0.012741385 0.016977947 -0.011199677
000180 1a c0 08 bb cb c8 36 bb 72 95 e2 3b 67 1b 9f bb
       -0.0020866455 -0.0027890678 0.006914788 -0.0048555615
000190 6a b7 04 3c cb d6 17 3b 62 18 6c ba b1 c5 7c bc
       0.00810037 0.0023168798 -0.0009006319 -0.015427993
0001a0 63 f9 f9 3c 98 48 ba bb 44 09 0d bc 23 73 70 bc
       0.030514425 -0.0056849234 -0.008608166 -0.014675888
0001b0 07 88 c1 3c 3c 3e f4 bc 9b 7d f3 3b 61 68 87 3b
       0.023624433 -0.029814832 0.007430745 0.004132316
0001c0 3c 81 f9 bb 4b d7 35 3c 73 56 56 bc 48 d9 f2 3b
       -0.007614283 0.011098693 -0.013082135 0.007411156
0001d0 4a 4b 0f bd 06 b2 85 bc 75 ae 01 bc 9c f5 01 bd
       -0.03498391 -0.01632024 -0.007915129 -0.031728372
0001e0 06 32 d3 bc 6b d2 1d bd 25 bf 0b bd 62 ee 7b bc
       -0.025780689 -0.03853075 -0.034117837 -0.015376659
0001f0 df 02 0a 3d 63 c3 32 bd e0 c6 d4 3b aa 49 e0 3b
       0.033694144 -0.043643367 0.0064934343 0.006844719
000200 3f 6b 92 b8 b2 1b 7b 3c 17 bf 55 3c e4 94 e7 bb
       -6.981799e-05 0.015326427 0.013046048 -0.0070673097
000210 ba 6d b1 3c 08 88 95 3c 73 9e 42 bd 49 c5 9d bb
       0.021658767 0.018253341 -0.04751439 -0.004814778
000220 d7 61 4e 3c e2 3a 4e bd bc 76 a6 bb 95 4a d9 3c
       0.012596569 -0.050349124 -0.005080072 0.026524821
000230 95 f5 31 3c 29 e3 90 3c b9 b6 cc 3c 39 e5 0c 3d
       0.010861774 0.017686443 0.024989473 0.03439829
000240 74 c8 d1 3c fc fd a3 3b 0c 61 37 3c ed ef 42 3d
       0.025608279 0.0050046425 0.011192571 0.047592092
000250 fd 83 94 bb 57 24 ae bb b0 5e 78 3c 3c 1b 37 bb
       -0.004532336 -0.0053143906 0.015159294 -0.0027939817
000260 b6 7f a8 3c 04 d4 88 bc 47 81 ad bc ae 13 b3 3c
       0.02056871 -0.01670266 -0.021179808 0.02185997
000270 3d 1d 30 bc 65 06 93 3c 83 34 e7 bb e3 ad 9d 3c
       -0.010749158 0.017947385 -0.0070558204 0.019247955
000280 6a b2 bb bb cd a8 e6 3b 2a 8a 0d bc 04 05 10 bd
       -0.0057280557 0.0070391656 -0.008638898 -0.035161033
000290 5e 16 8a 3c bf 08 ab 3c 0c 7b d3 bb 90 03 37 bb
       0.016856369 0.020878194 -0.0064538773 -0.0027925707
0002a0 29 c8 16 bc ec 0b fd bc 92 63 48 3c 70 37 f9 b7
       -0.009202995 -0.030889474 0.012230771 -2.9708928e-05
0002b0 3f e4 80 3c 39 a7 89 3c 32 34 4b bc 91 48 ee 3c
       0.015733836 0.01680337 -0.012402581 0.029087337
0002c0 7f 08 ca 3c 51 17 49 bc 51 9b e8 bc 16 9b 3c bc
       0.024662254 -0.0122736255 -0.028394373 -0.011511585
0002d0 b8 2d d4 ba ed 56 8a bc 7c 73 21 bc f7 bd 90 bc
       -0.0016187942 -0.016887153 -0.009854194 -0.017668707
0002e0 ab 72 c1 3b 68 a4 31 3c 3c 32 3b bc 05 10 35 3c
       0.005903562 0.01084242 -0.011425551 0.011051183
0002f0 71 37 d3 3c 3c 84 38 bc 9b 3d 87 3c 26 45 07 3d
       0.025783272 -0.011261996 0.016508868 0.03302493
000300 06 af a8 3c 4f 81 33 bc 74 3f 2e 3d fb 89 d8 ba
       0.02059127 -0.010956123 0.042540982 -0.0016520614
000310 0a 53 ef bc b1 21 c4 3b 44 dd e9 3b c5 40 8d 3c
       -0.0292144 0.0059854616 0.0071369726 0.017242799
000320 4b 5f af 3c 4a a2 7e 3c 18 73 66 bc f3 b6 e4 b9
       0.021407744 0.015541622 -0.014065526 -0.00043623857
000330 a9 da 5c bc f5 44 e2 3c b4 c3 26 3d 6d e7 a9 3c
       -0.013479867 0.027620772 0.04071398 0.020740235
000340 0f 4c 77 3c a9 da 95 bc f8 76 b6 3b ae 9e 3d 3b
       0.015093817 -0.018292742 0.0055683814 0.0028933692
000350 42 f6 88 3c c0 48 07 bc ac ce b8 3c f9 ed e3 3b
       0.016718987 -0.008257091 0.022559486 0.006955859
000360 2d 6e 6b 3c 1e 88 ce 3c 42 60 99 3c bb 93 01 3c
       0.01436953 0.02521139 0.018722657 0.007908757
000370 a0 43 06 3c 9a 10 18 3d de 17 9a bb c2 07 e3 bc
       0.008194834 0.037125207 -0.004702552 -0.02771366
000380 10 68 ea 3b de 06 ce bc 34 83 ad bc a8 7a 58 bc
       0.0071535185 -0.025149759 -0.021180727 -0.013212837
000390 c1 1c 5f 3c 23 30 c5 3c 51 8e 92 b9 97 94 9f 3c
       0.013617695 0.024070805 -0.00027953324 0.019480033
0003a0 40 48 11 3a 82 d7 31 3d f1 f3 89 3c 5e 7d 72 3c
       0.0005542077 0.043418415 0.016839953 0.014800398
0003b0 b1 0e 12 3c 6a e2 5d bc ff 17 d3 3c 00 b2 93 bc
       0.0089146355 -0.013542751 0.025768278 -0.018029213
0003c0 4d cb 8b 3c c3 00 52 3d d6 08 5e bc 24 68 e7 3c
       0.017064715 0.051270258 -0.013551911 0.0282479
0003d0 9a 33 5d bc 4d 5f d9 3c 38 e3 90 bb e6 eb 9b 3c
       -0.013501072 0.0265347 -0.004421618 0.019033384
0003e0 4d 80 95 3c d4 b2 3f bc 25 4a 87 3c dd 4e 4a 3d
       0.018249655 -0.011700351 0.016514847 0.049391616
0003f0 77 9f 85 3c 2c 57 cb bc 34 6a dd bb 1a 2c 04 3d
       0.01631139 -0.02482184 -0.006757045 0.03226862

action_model._continuous_distribution.mu.bias f4 [2]
000000 a1 7a d0 3a 47 61 87 39
       0.0015905687 0.00025821684

action_model._discrete_distribution.branches.0.weight f4 [1, 128]
000000 db 6d 0d bb 4f 0d 3b ba 42 87 6d 3c a9 ae 01 3c
       -0.0021580372 -0.0007135467 0.01449758 0.007915177
000010 e9 8c 0c bc 71 d4 26 3c 69 1a 01 bc fb f6 81 ba
       -0.0085785175 0.010182486 -0.007879832 -0.0009915525
000020 b9 79 4b 3c 9b d7 ec 3a 97 9f 02 3c 0e c4 ba bb
       0.012419158 0.0018069627 0.0079726195 -0.005699641
000030 4c 38 be bb 69 f3 07 3c 97 aa a4 bc f3 e6 88 39
       -0.005805051 0.00829778 -0.020100875 0.00026112012
000040 da e7 12 3c 4b bd 3d 3c d6 0f 8f bb 77 b7 bc 3c
       0.0089664105 0.0115807755 -0.0043659015 0.023036702
000050 13 55 1d bc 75 48 1a 3c 48 c8 8b 3c 12 5b 81 bc
       -0.009602803 0.009416689 0.017063275 -0.015790496
000060 c7 86 9c 3b 48 0f 51 bc 47 05 ea 3b 2f 8e ca 3b
       0.004776809 -0.012759991 0.0071417424 0.0061815004
000070 aa 6b d5 bb d3 32 99 bb 38 7f 76 ba ac 75 c3 3a
       -0.0065130787 -0.004675248 -0.00094031123 0.0014912388
000080 1a 9a cd bb a7 97 fe 3b 63 5d f1 3b 05 33 63 bb
       -0.006274474 0.007769543 0.007365869 -0.0034667861
000090 39 f0 88 3b 00 a4 21 bb f7 81 0a 3c 74 76 96 bb
       0.0041790274 -0.0024664402 0.008453838 -0.0045917574
0000a0 16 fb 11 3c 7c 58 80 3b 77 7c 98 bc 1d 31 ee bb
       0.008909961 0.003916798 -0.018614037 -0.0072690384
0000b0 b3 e1 95 3b 92 0e 65 3b 78 e5 72 bb fb 18 c8 bb
       0.0045740246 0.0034951312 -0.0037063044 -0.0061064935
0000c0 66 95 8d bc c3 19 5f bb db 49 9b bb 90 2c 3f 3c
       -0.017283153 -0.0034042455 -0.004739029 0.011668339
0000d0 b8 0c dc bc 07 6a 8f 3b 8a 7e f5 3a aa 65 d0 bc
       -0.026861534 0.004376653 0.0018729728 -0.025439102
0000e0 fb 80 17 3b 5b 8d c0 3b 2f 9e 92 3b bd 54 06 39
       0.002311765 0.005876226 0.0044744234 0.00012810803
0000f0 af 3f 24 3b 1b 57 0f bc 28 24 2f 3c 6e b4 0f bc
       0.0025062372 -0.008748795 0.010689773 -0.008771045
000100 8f fc 16 3b 67 bb 97 bb 9a 53 f8 3b 41 f9 1e 3c
       0.002303872 -0.0046304944 0.0075783255 0.009702981
000110 fe 81 89 bb bb 48 6a 3b db 0b 3b 3c c0 0a 90 3b
       -0.0041964045 0.0035748917 0.011416401 0.0043958127
000120 a7 07 04 3b 04 6e 2c bb 43 5d 28 bc fe f3 a4 bb
       0.0020146163 -0.0026310692 -0.010276142 -0.005033969
000130 ab 9a 2f bc 20 87 6a bb 1d e7 b2 bb 8f 78 01 bb
       -0.010718028 -0.0035786107 -0.0054596798 -0.0019755696
000140 5e cd 35 3b 1b 71 85 3a 83 96 c2 bb 70 b1 55 3c
       0.0027740817 0.0010180803 -0.0059383526 0.013042793
000150 53 fd 93 3b 3a 49 63 3b 43 16 b3 bb 92 7e d2 bc
       0.0045162826 0.0034681098 -0.0054653003 -0.025695119
000160 9a 08 5b bb 9c 21 9b 3c 57 33 e3 bb e5 3e 3f 3a
       -0.0033421875 0.018936925 -0.0069336104 0.0007295444
000170 45 8d df 3b dd 52 7c 3c fc e5 93 bb 05 e3 37 ba
       0.0068222606 0.0154006155 -0.0045135003 -0.00070147245
000180 e7 87 e8 ba 07 5d 9e bb 3f a4 d2 bb e4 4f 32 bb
       -0.0017740697 -0.004832867 -0.006428271 -0.0027208263
000190 77 b6 da ba 38 8f 96 bb 8f a2 50 bb e0 26 a9 ba
       -0.0016686459 -0.0045947097 -0.0031835174 -0.0012905262
0001a0 86 f8 94 bc 55 fa 32 bb 3b ea 7b 3b 55 bc e4 3b
       -0.018184911 -0.0027309854 0.0038439173 0.0069804587
0001b0 70 75 39 3c 87 da 5c bc 07 02 79 3b 65 33 ee bb
       0.011319503 -0.013479835 0.0037995593 -0.0072693103
0001c0 a1 36 86 3c 7c 0b c5 bb 1d fb 3c bb 9d 21 d9 bb
       0.016383471 -0.006013332 -0.0028836199 -0.0066263215
0001d0 f2 c6 4e 3c 96 b3 3d 3a f4 8e ac 3b 58 b6 20 bc
       0.012620674 0.0007236538 0.005266065 -0.009809099
0001e0 a3 6f d4 3b 4a 0d 74 3c 21 13 a5 3a 8c 39 34 3c
       0.0064830347 0.0148957465 0.0012594202 0.011000048
0001f0 37 c7 ce ba fb 31 2e 3b 9b cb 8f ba 60 75 b9 bb
       -0.0015775923 0.0026580084 -0.0010970713 -0.005659744
