results/ag12/PlatformRotate/PlatformRotate-2644319.pt (torch, 661833 bytes, 39 tensors)

network_body._body_endoder.seq_layers.0.weight f4 [128, 78]
-0.04767992 0.06527282 -0.009139483 0.00012469114 0.03541667 0.15012142 -0.11365722 -0.013864263
-0.012447915 0.18306258 0.013035152 0.016213201 0.108380914 0.16285895 -0.06456745 -0.14367099
-0.069757596 -0.17458183 0.07699943 -0.19413865 0.029909303 -0.026219128 -0.034371488 0.112582654
-0.16145119 -0.169281 0.063303195 -0.11187346 0.06756374 0.026386065 -0.07180026 -0.014680045
-0.019320121 0.094147444 0.13792966 -0.13565242 0.057558242 0.11370711 0.07603347 -0.096145585
-0.019839883 0.20362094 -0.016361786 -0.14826411 0.030719185 0.11196389 0.036882527 0.18727067
0.09251764 -0.04287566 -0.038010836 0.067089334 -0.08740955 -0.31606346 -0.06543796 -0.10331861
0.028074197 0.04392406 -0.028682522 -0.1716326 -0.09198028 -0.08256897 -0.060989548 -0.010009747
-0.07872023 -0.0259771 -0.06272491 -0.115049005 -0.0664511 -0.107528284 -0.049816057 0.095760435
-0.12683393 0.020233987 0.055553004 0.01773537 0.06972072 -0.07471473 -0.13477401 0.18579374
0.20925094 0.076228246 0.06783762 -0.011839111 0.13429305 -0.009002896 -0.13014778 0.10079389
0.06644026 -0.033967122 0.07184347 0.13251735 0.07355147 0.008818703 -0.12124896 -0.15144525
-0.15825175 0.06565633 0.3322657 0.03137856 -0.05323248 0.05155827 -0.03271275 -0.09103469
0.15550216 -0.12221027 0.022904627 -0.11187742 0.122944795 0.13373351 -0.057205714 -0.05290716
-0.21672426 0.31439745 0.14323606 -0.049125202 0.13126504 0.12254306 -0.0560232 -0.10198582
-0.0022177296 -0.08315745 0.03789787 0.16644962 0.088739306 -0.0577945 0.17063022 -0.09397702
-0.007655192 -0.03171342 -0.10308108 -0.056692902 -0.013152326 0.01351739 0.042108603 0.15368715
-0.27381027 -0.15464179 -0.11036582 0.11051042 -0.13498013 0.078290775 0.010533736 0.11683044
0.035745118 -0.06572089 0.086229 0.15941967 0.02093215 -0.07245402 0.03347254 0.1545877
-0.18261829 -0.13575345 0.049061693 0.035813224 0.07649579 -0.0573035 0.00073689624 0.08062227
0.037625577 -0.081258744 -0.11834229 -0.10368792 -0.05953581 0.0750642 0.15738702 -0.0917539
-0.3406312 0.043351587 0.10072848 -0.1333397 0.120540924 0.06719928 -0.14792109 0.0645176
0.013222312 -0.0005634983 -0.13095433 0.116074495 -0.1942119 -0.04884766 0.058558457 -0.13888726
0.083131075 0.18112862 0.06423227 0.22694811 0.15993819 0.109242074 -0.057337802 0.058959026
0.43895575 0.05054631 -0.029017244 -0.10821106 0.16094181 0.1547111 -0.022020955 0.02162662
-0.044571053 -0.23327076 -0.009096129 0.08787569 -0.15640694 -0.03992787 -0.007265442 -0.08742577
-0.23915905 0.01761598 -0.09789174 0.07150326 -0.0046844245 -0.24685211 -0.08345064 0.059340846
-0.016326291 0.09223344 0.04066168 0.14874525 0.018890288 0.16469558 -0.025042824 0.10749801
0.0016097566 -0.018449195 -0.034175523 -0.09541148 0.064739145 -0.008094664 0.1476901 0.09372593
-0.037997153 -0.17831768 -0.14499637 -0.02880499 0.052278847 0.086217046 0.12547871 -0.00292773
0.059461977 0.25582433 -0.17634843 -0.026596028 0.04302023 -0.10097194 -0.016137334 0.31687936
-0.18996923 0.035623617 -0.0021512 0.23430851 0.05931848 0.02085941 -0.0022809037 -0.051407844
00000000: 054c 43bd c2ad 853d c5bd 15bc 86bf 0239
00000010: 1211 113d 6eb9 193e 1ec5 e8bd ef26 63bc
00000020: 57f2 4bbc c274 3b3e 6491 553c 8cd1 843c
00000030: d0f6 dd3d 7fc4 263e f03b 84bd 7d1e 13be
00000040: 12dd 8ebd 94c5 32be e1b1 9d3d 48cc 46be
00000050: 5b04 f53c 7fc9 d6bc 1ec9 0cbd bc91 e63d
00000060: 7653 25be 0058 2dbe 1ba5 813d ea1d e5bd
00000070: dc5e 8a3d 9727 d83c 040c 93bd 9284 70bc
00000080: 3b45 9ebc 60d0 c03d 6f3d 0d3e 78e8 0abe
00000090: 31c2 6b3d 46df e83d 70b7 9b3d fae7 c4bd
000000a0: 4087 a2bc 0282 503e 2709 86bc 8cd2 17be
000000b0: cda6 fb3c 534d e53d 2212 173d e2c3 3f3e
000000c0: e379 bd3d 639e 2fbd 40b1 1bbd 2266 893d
000000d0: c703 b3bd 12d3 a1be 5604 86bd b598 d3bd
000000e0: dcfb e53c b7e9 333d 9cf7 eabc 75c0 2fbe
000000f0: 2860 bcbd ec19 a9bd 2dd0 79bd ecff 23bc
00000100: 1238 a1bd edcd d4bc eb75 80bd d09e ebbd
00000110: 8417 88bd ca37 dcbd ec0b 4cbd 0c1e c43d
00000120: c1e0 01be bfc1 a53c 8c8b 633d c449 913c
00000130: bdc9 8e3d 0904 99bd 3302 0abe b740 3e3e
00000140: e145 563e 8e1d 9c3d 73ee 8a3d d5f8 41bc
00000150: 1e84 093e e280 13bc 7645 05be 076d ce3d
00000160: d511 883d 1c21 0bbd ab22 933d a1b2 073e
00000170: 27a2 963d 527c 103c 6051 f8bd 7714 1bbe
00000180: bf0c 22be d376 863d bb1e aa3e ce86 003d
00000190: 4d0a 5abd c42e 533d cefd 05bd 6570 babd
000001a0: f53b 1f3e 6149 fabd 7ca2 bb3c fd1f e5bd
000001b0: 7bca fb3d 70f1 083e 8a50 6abd 2eb5 58bd
000001c0: f7ec 5dbe b4f8 a03e 79ac 123e 8237 49bd
000001d0: 586a 063e dbf7 fa3d 9578 65bd f1dd d0bd
000001e0: 5457 11bb 744e aabd cc3a 1b3d c571 2a3e
000001f0: f4bc b53d edb9 6cbd b0b9 2e3e 0677 c0bd
00000200: 68d8 fabb eee5 01bd 2c1c d3bd d136 68bd
00000210: db7c 57bc 0b78 5d3c 127a 2c3d 2a60 1d3e
00000220: dc30 8cbe 6b5a 1ebe 7a07 e2bd 4953 e23d
00000230: 3b38 0abe ea56 a03d b195 2c3c cc44 ef3d
00000240: 7969 123d ad98 86bd d498 b03d e93e 233e
00000250: e679 ab3c c662 94bd 811a 093d 3d4c 1e3e
00000260: 4a00 3bbe f402 0bbe eaf4 483d e3b0 123d
00000270: d3a9 9c3d 13b7 6abd 452c 413a 4a1d a53d
00000280: 471d 1a3d fc6a a6bd 715d f2bd 555a d4bd
00000290: d2db 73bd 42bb 993d 102a 213e 78e9 bbbd
000002a0: 3667 aebe 6f91 313d bc4a ce3d 348a 08be
000002b0: 29de f63d c79f 893d a078 17be ce21 843d
000002c0: 65a2 583c bbb7 13ba e418 06be 77b8 ed3d
000002d0: 7cdf 46be 7c14 48bd feda 6f3d 7638 0ebe
000002e0: a040 aa3d c879 393e 358c 833d 1665 683e
000002f0: d6c6 233e 4fba df3d 0bdb 6abd 057f 713d
00000300: cfbe e03e a609 4f3d 92b5 edbc c39d ddbd
00000310: eecd 243e 966c 1e3e 4a65 b4bc 4f2a b13c
00000320: 2390 36bd 88de 6ebe ee07 15bc 2bf8 b33d
00000330: 2429 20be 688b 23bd f212 eebb 480c b3bd
00000340: 1ce6 74be 634f 903c 777b c8bd 4d70 923d
00000350: cd7f 99bb cdc6 7cbe 2be8 aabd 630f 733d
00000360: b7be 85bc e3e4 bc3d dd8c 263d ad50 183e
00000370: cebf 9a3c f5a5 283e 9c26 cdbc eb27 dc3d
00000380: 78fe d23a c422 97bc a2fb 0bbd 1867 c3bd
00000390: f595 843d 7b9f 04bc 133c 173e 61f3 bf3d
000003a0: e7a2 1bbd e998 36be ee79 14be 71f8 ebbc
000003b0: 5822 563d 9092 b03d 7e7d 003e 29df 3fbb
000003c0: 678e 733d 68fb 823e af94 34be eadf d9bc
000003d0: fb35 303d 60ca cebd 7132 84bc 033e a23e
000003e0: 4b87 42be 12ea 113d 26fb 0cbb 92ee 6f3e
000003f0: eff7 723d 5ae1 aa3c 377b 15bb 0891 52bd

network_body._body_endoder.seq_layers.0.bias f4 [128]
7.403547e-05 0.017023908 0.0032589198 -0.009631228 0.0028603203 0.0114655495 -0.022253556 0.028930653
0.014064457 -0.008693512 0.010668881 0.03831239 -0.02454942 0.031461243 0.021867506 0.026862964
-0.0024114505 -0.006828857 -0.00442402 0.002333805 0.021245541 0.027830897 0.031480465 -0.012537879
0.033309262 0.02131645 0.02878079 0.023100419 0.035479665 -0.024892734 0.0011277322 0.013413064
-0.0007764542 -0.007973206 -0.0070351847 0.021255203 -0.018093403 0.017342694 0.018206323 -0.009119611
0.023496125 0.018220073 0.01038372 -0.002538102 0.02042343 0.030511638 0.009881711 0.027254952
0.026052048 0.018911794 0.01766089 0.056962855 0.0047321105 0.020250553 0.011215709 0.04051346
0.026994014 0.029472059 -0.020616133 -0.01043335 0.010592204 0.018004576 0.032628767 0.019561762
0.00043378497 0.022374548 0.03116122 0.019774983 0.023400066 0.010479798 0.033677958 0.0048264796
-0.031007076 -0.0041703526 -0.016325891 0.036332708 0.008882735 0.03288472 0.013659278 0.024150174
-0.019924525 0.030807648 0.027204499 -0.012711229 -0.010684827 0.03663365 0.0067047803 -0.01617319
0.017744252 -0.008512336 0.03215207 0.02958358 -0.032843772 -0.018024465 0.04944153 -0.013374229
0.02460272 0.016522178 0.008844665 0.04847679 0.021113478 0.027377384 0.0033986054 0.0028414868
0.039189763 -0.022722578 0.021816604 0.021575756 -0.012903349 -0.0063146143 -0.012196378 0.036061063
0.015205801 0.001068969 0.002195519 0.0064735 0.011395307 -0.07461207 0.03944119 0.023767991
0.010950198 -0.044663858 0.023382517 -0.019968068 0.017744068 -0.004031603 0.01416484 0.0060430733
00000000: 7e43 9b38 b975 8b3c 9a93 553b 4ccc 1dbc
00000010: 3674 3b3b 00da 3b3c 174d b6bc faff ec3c
00000020: 9c6e 663c 3b6f 0ebc 88cc 2e3c 74ed 1c3d
00000030: de1b c9bc 81dd 003d 7c23 b33c b80f dc3c
00000040: 6d09 1ebb 9bc4 dfbb 5ff7 90bb c0f2 183b
00000050: 210b ae3c 9ffd e33c a9f1 003d ad6b 4dbc
00000060: 4b6f 083d d69f ae3c b1c5 eb3c 173d bd3c
00000070: 2053 113d d9eb cbbc 6ad0 933a 78c2 5b3c
00000080: f68a 4bba 0da2 02bc 6887 e6bb 641f ae3c
00000090: 9e38 94bc 4412 8e3c 6d25 953c 6c6a 15bc
000000a0: f27a c03c 4342 953c 7a20 2a3c 4956 26bb
000000b0: 094f a73c 8bf3 f93c e6e6 213c c745 df3c
000000c0: 1b6b d53c e8ec 9a3c 92ad 903c e251 693d
000000d0: d20f 9b3b 7de4 a53c 18c2 373c 71f1 253d
000000e0: 8d22 dd3c 636f f13c 2ae3 a8bc a4f0 2abc
000000f0: ec8a 2d3c 557e 933c bea5 053d fd3f a03c
00000100: a26d e339 d44a b73c d145 ff3c 25ff a13c
00000110: 7fb1 bf3c 75b3 2b3c e6f1 093d 7227 9e3b
00000120: 8d02 febc 74a7 88bb e0bd 85bc 9bd1 143d
00000130: e488 113c 21b2 063d 2acb 5f3c 96d6 c53c
00000140: c238 a3bc 5260 fc3c f8db de3c c242 50bc
00000150: 6a0f 2fbc 2b0d 163d c6b3 db3b a37d 84bc
00000160: 655c 913c 5377 0bbc e4b1 033d 4459 f23c
00000170: 3187 06bd 0ba8 93bc 3483 4a3d 951f 5bbc
00000180: a58b c93c 8559 873c 37e9 103c 998f 463d
00000190: 2cf6 ac3c 8946 e03c 23bb 5e3b 3d38 3a3b
000001a0: 7285 203d b324 babc bcb8 b23c a4bf b03c
000001b0: 9168 53bc d3ea cebb 51d3 47bc c4b4 133d
000001c0: c121 793c a61c 8c3a b2e2 0f3b a71f d43b
000001d0: 62b3 3a3c 37ce 98bd 168d 213d 17b5 c23c
000001e0: 7668 333c 73f1 36bd b18c bf3c 1394 a3bc
000001f0: 025c 913c 8a1b 84bb a513 683c f904 c63b

network_body._body_endoder.seq_layers.2.weight f4 [128, 128]
-0.13739508 -0.1874676 0.061276987 -0.060475193 0.04471242 -0.0039930544 -0.06076775 0.068312615
0.06266231 -0.05748436 -0.000987713 -0.12187965 0.012244591 0.1647401 -0.07887135 -0.2547767
0.03913952 -0.019122796 0.17685153 -0.14289851 0.057630524 -0.04950719 -0.2750117 0.11956403
0.08842428 0.13206212 0.08820586 -0.098171584 -0.12363721 -0.10044366 -0.08702715 -0.041904304
0.019060798 -0.13346234 -0.18497479 0.31197912 0.014984881 0.11745152 -0.12531736 0.108870864
0.026791774 0.058675203 -0.036660496 -0.07938879 0.17023727 0.1456482 0.038783137 0.116609305
0.03371378 0.06875601 0.05030714 -0.29555267 0.16489662 0.2592834 0.16039224 0.21936859
-0.18271531 -0.16885534 0.026761668 -0.02646482 0.019634064 0.07184287 0.010040367 -0.024084788
0.014069462 0.026970465 0.05209544 -0.028287824 -0.04485256 -0.016887996 -0.13388745 -0.084788695
-0.13067333 0.046537615 -0.22382605 0.04124348 -0.0028908274 -0.03213403 -0.1378687 -0.05158942
-0.06311973 -0.06386373 0.25709847 -0.08958943 -0.04672381 -0.013871219 0.09576806 -0.031705998
-0.19294478 -0.055943698 -0.10535 0.012297959 -0.125623 -0.045149684 -0.005378336 0.02530045
0.027486091 0.10840761 -0.08585529 -0.039481614 0.13781257 0.3377769 -0.1708207 -0.112098426
-0.085993856 0.039064594 -0.05763006 0.16985193 -0.07363346 -0.13767096 -0.045269504 -0.01890474
-0.10902811 0.03430323 -0.053897813 -0.023045119 -0.086527444 -0.019507736 -0.1042385 0.12593761
-0.05507738 -0.0113552185 -0.105842195 -0.24532819 -0.028493628 -0.04407183 -0.1269641 0.07954616
-0.048119184 0.018843837 -0.04319075 0.08760957 -0.10061845 -0.063233696 0.04470879 -0.029401422
0.066337325 0.08157256 -0.32585576 0.19164616 -0.05470427 0.012345163 0.020709844 -0.052821316
0.039568886 -0.09628483 -0.07322445 0.0067940475 0.09241144 -0.05925823 0.02129769 -0.08567681
0.10446693 -0.09962357 0.07504863 -0.008460339 0.096055485 -0.018531185 -0.10122153 0.09659152
0.103437886 -0.15058954 -0.08837505 0.026462514 -0.14764069 -0.013744794 -0.07421233 0.045715343
0.04378719 0.002325411 -0.16028482 0.09317495 0.010970475 -0.034189496 0.04492618 0.016838618
-0.033024438 0.026835416 0.06787254 -0.04615667 0.13372305 0.035161555 0.033286583 -0.102125905
-0.015419619 -0.05718918 0.057705462 -0.041505873 0.059315197 -0.035880275 -0.028822592 -0.035433866
-0.032802463 -0.12279412 0.008251016 -0.11594079 0.027346581 -0.112011686 0.026418833 -0.13470034
0.047605768 -0.066474326 -0.0006599236 0.0706536 -0.07353453 -0.0024245598 -0.15961312 0.109779336
-0.05935326 0.09084519 -0.020718073 -0.014861576 -0.044190712 0.09442502 -0.04244255 0.09117535
0.08264754 -0.084520966 -0.090035595 -0.14516413 0.13036534 -0.124254316 -0.023021674 0.049300894
-0.003319158 0.12944292 0.019073654 0.015458999 0.014372719 0.012858234 0.07368707 -0.1743996
0.0813138 0.035295386 0.027920084 -0.084536366 0.13784681 0.022730924 0.09803102 -0.2345291
-0.0047355606 0.20172024 0.0086378055 0.045251254 0.19245978 -0.109106675 -0.13399024 0.05232371
0.09194947 -0.15762794 -0.029984122 0.10541197 0.06640743 -0.110810384 -0.012227571 0.121099845
00000000: 4cb1 0cbe 82f7 3fbe 94fd 7a3d d6b4 77bd
00000010: 5f24 373d 2bd8 82bb 9be7 78bd 7ce7 8b3d
00000020: 1955 803d b874 6bbd 2676 81ba 0a9c f9bd
00000030: 899d 483c a1b1 283e 4d87 a1bd 1772 82be
00000040: c350 203d 69a7 9cbc 9118 353e fd53 12be
00000050: fc0d 6c3d 0dc8 4abd 55ce 8cbe fcdd f43d
00000060: ca17 b53d 4b3b 073e 46a5 b43d 2f0e c9bd
00000070: 8135 fdbd 68b5 cdbd 4a3b b2bd d9a3 2bbd
00000080: 6425 9c3c 5aaa 08be 086a 3dbe babb 9f3e
00000090: 2583 753c 6c8a f03d 3253 00be b0f7 de3d
000000a0: 6c7a db3c 6955 703d 5129 16bd 9796 a2bd
000000b0: ae52 2e3e cd24 153e 11db 1e3d dcd0 ee3d
000000c0: 7617 0a3d f3cf 8c3d dc0e 4e3d ae52 97be
000000d0: a9da 283e cbc0 843e dd3d 243e 29a2 603e
000000e0: b919 3bbe 6ae8 2cbe 493b db3c c0cc d8bc
000000f0: 9ed7 a03c 5b22 933d 5a80 243c 764d c5bc
00000100: 9a83 663c 2af1 dc3c 0762 553d debb e7bc
00000110: 51b7 37bd b258 8abc cb19 09be b2a5 adbd
00000120: 3bcf 05be 3a9e 3e3d a832 65be ecee 283d
00000130: 0974 3dbb f99e 03bd 742d 0dbe 6d4f 53bd
00000140: eb44 81bd fdca 82bd 69a2 833e aa7a b7bd
00000150: 7761 3fbd 1c44 63bc 0b22 c43d 26de 01bd
00000160: 5193 45be 3825 65bd bec1 d7bd 617d 493c
00000170: 51a3 00be e0ee 38bd c13c b0bb e442 cf3c
00000180: 832a e13c cf04 de3d e6d4 afbd 79b7 21bd
00000190: bd1e 0d3e 18f1 ac3e 9feb 2ebe dc93 e5bd
000001a0: 8c1d b0bd 3202 203d 7f0d 6cbd aaed 2d3e
000001b0: 24cd 96bd 9ef9 0cbe 846c 39bd 1dde 9abc
000001c0: 214a dfbd 8b81 0c3d f4c3 5cbd 1ec9 bcbc
000001d0: 4d35 b1bd b0ce 9fbc ff7a d5bd caf5 003e
000001e0: d298 61bd 3d0b 3abc cbc3 d8bd 5037 7bbe
000001f0: 786b e9bc aa84 34bd e102 02be 19e9 a23d
00000200: 9f18 45bd 645e 9a3c c9e8 30bd a56c b33d
00000210: 0c11 cebd ab80 81bd 9020 373d 40db f0bc
00000220: dddb 873d 840f a73d 91d6 a6be e43e 443e
00000230: 9611 60bd 5e43 4a3c b1a7 a93c 2a5b 58bd
00000240: fc12 223d fb30 c5bd b3f6 95bd 9aa0 de3b
00000250: 3642 bd3d c2b8 72bd 7e78 ae3c 5377 afbd
00000260: c2f2 d53d 7107 ccbd 19b3 993d 3c9d 0abc
00000270: bdb8 c43d b6ce 97bc 3c4d cfbd c6d1 c53d
00000280: 3ed7 d33d 2534 1abe fafd b4bd eac7 d83c
00000290: 1f2f 17be d831 61bc a2fc 97bd 0340 3b3d
000002a0: 325a 333d ec65 183b b421 24be 82d2 be3d
000002b0: 82bd 333c 490a 0cbd 8404 383d 24f1 893c
000002c0: a244 07bd f2d5 db3c c200 8b3d c70e 3dbd
000002d0: b2ee 083e 9005 103d 8357 083d 6327 d1bd
000002e0: 92a2 7cbc 343f 6abd 905c 6c3d 1002 2abd
000002f0: 7ef4 723d 32f7 12bd 5b1d ecbc 1a23 11bd
00000300: e05b 06bd 7c7b fbbd 452f 073c 5d72 edbd
00000310: f005 e03c 6266 e5bd 4f6c d83c e3ee 09be
00000320: 44fe 423d b123 88bd b9fe 2cba d6b2 903d
00000330: 4699 96bd 5de5 1ebb 9f71 23be fdd3 e03d
00000340: 671c 73bd 0b0d ba3d f3b8 a9bc f87d 73bc
00000350: 5201 35bd e861 c13d 3dd8 2dbd 24ba ba3d
00000360: 1d43 a93d 5419 adbd 9564 b8bd e8a5 14be
00000370: 7e7e 053e 0c79 febd f397 bcbc bcef 493d
00000380: 3b86 59bb af8c 043e 5a40 9c3c be47 7d3c
00000390: 8e7b 6b3c 58ab 523c 3fe9 963d cf95 32be
000003a0: d987 a63d e591 103d a9b8 e43c 6721 adbd
000003b0: b727 0d3e 3436 ba3c 7dc4 c83d 6528 70be
000003c0: c32c 9bbb c08f 4e3e 9585 0d3c 6159 393d
000003d0: 2d14 453e 5273 dfbd bd34 09be 6351 563d
000003e0: 0150 bc3d 3869 21be 43a1 f5bc 3be2 d73d
000003f0: 9e00 883d 8ef0 e2bd 2656 48bc 3203 f83d

network_body._body_endoder.seq_layers.2.bias f4 [128]
0.04479257 0.008715136 -0.015902068 -0.0008753381 0.033685643 0.010542614 -0.015171436 0.0004994203
-0.0055574877 0.013801113 0.04097803 0.016066482 0.0016761981 0.0171988 0.02051597 0.00040562052
0.014437863 -0.0034956797 0.022521041 0.041882332 -0.0048708115 -0.0010335628 0.03244002 0.022091728
0.029746998 0.036736745 0.013971294 0.00054751814 0.018571604 0.013498419 0.028299224 0.05371701
0.0024508163 0.0358152 -0.027471412 0.024215998 0.016597679 0.021671059 0.004205772 -0.0033273785
0.023855057 -0.00409317 0.008527771 0.024339873 0.04649632 0.029003613 0.030853724 0.010643262
0.020897908 0.013876743 0.033145946 0.0110492725 0.00851109 -0.002089458 0.022778168 0.010579124
0.029248368 0.0034425526 -0.012585608 0.01732094 0.0068668 0.0023071321 -0.0076801013 0.044423148
-0.0019650245 0.01844946 0.014835424 0.03295648 0.025304466 0.007063568 -0.0014610763 0.0013167198
0.0011910415 -0.011846357 0.044300172 0.049317714 0.03580089 0.031694192 -0.019177612 0.016464148
0.038933262 0.02233426 0.025648013 0.05217194 0.039179824 -0.013118146 0.0033771098 0.017727435
0.028975207 0.02835848 0.006360044 0.0218125 0.031833358 0.0033428315 0.008337702 0.027633479
0.02833599 -0.008692221 0.012337309 -0.009140694 0.009053695 0.03232969 0.03219452 0.013666348
0.007672931 0.039174337 -0.001277781 0.03924648 -0.01857383 0.022977276 0.0097568575 0.0077796527
0.019570077 0.029058514 0.010254003 0.013593199 0.015043949 9.775873e-05 -0.0065863477 0.01538356
-0.018703433 0.011178602 -0.020179227 -0.0008541102 0.03073704 -0.01817899 0.017897835 0.028055685
00000000: 6a78 373d eec9 0e3c 0e45 82bc f276 65ba
00000010: f5f9 093d eeba 2c3c 9d91 78bc 87eb 023a
00000020: 961b b6bb 101e 623c 94d8 273d db9d 833c
00000030: e0b3 db3a 7fe4 8c3c 1c11 a83c 77a9 d439
00000040: c98c 6c3c c617 65bb 0c7e b83c cf8c 2b3d
00000050: 549b 9fbb 9d78 87ba d4df 043d b6f9 b43c
00000060: faaf f33c 4579 163d dbe7 643c 5287 0f3a
00000070: 7a23 983c 7928 5d3c c6d3 e73c 5e06 5c3d
00000080: e09d 203b f6b2 123d ba0b e1bc a160 c63c
00000090: dbf7 873c 8187 b13c 93d0 893b 2610 5abb
000000a0: ae6b c33c 0020 86bb 10b8 0b3c 6a64 c73c
000000b0: ed72 3e3d fc98 ed3c f3c0 fc3c 1461 2e3c
000000c0: 1732 ab3c 475b 633c 0bc4 073d 0208 353c
000000d0: 1972 0b3c 4aef 08bb 4899 ba3c 1054 2d3c
000000e0: 469a ef3c 739c 613b de33 4ebc a5e4 8d3c
000000f0: e502 e13b 4133 173b 5ca9 fbbb 0cf5 353d
00000100: a4c7 00bb 5223 973c 4710 733c 60fd 063d
00000110: 504b cf3c 8175 e73b 9681 bfba c995 ac3a
00000120: b91c 9c3a 3917 42bc 1974 353d 5f01 4a3d
00000130: f4a3 123d c5d1 013d 5e1a 9dbc d2df 863c
00000140: 7c78 1f3d 57f6 b63c c81b d23c 3fb2 553d
00000150: 067b 203d 7eed 56bc 8052 5d3b 2039 913c
00000160: 6a5d ed3c 0b50 e83c ea67 d03b 21b0 b23c
00000170: b263 023d 6813 5b3b db9a 083c 9b5f e23c
00000180: e120 e83c d169 0ebc 6d22 4a3c d9c2 15bc
00000190: f355 143c 236c 043d 67de 033d d1e8 5f3c
000001a0: 366d fb3b 4575 203d 377b a7ba ebc0 203d
000001b0: 2528 98bc d73a bc3c 3adb 1f3c 75ec fe3b
000001c0: 6d51 a03c 1f0c ee3c 6800 283c 02b6 5e3c
000001d0: e57a 763c d203 cd38 4ad2 d7bb 540b 7c3c
000001e0: f137 99bc 7526 373c e84e a5bc 5ee6 5fba
000001f0: 3fcc fb3c 1bec 94bc 7b9e 923c 09d5 e53c

action_model._continuous_distribution.log_sigma f4 [1, 2]
0.05886587 0.10824875
00000000: 571d 713d 85b1 dd3d

action_model._continuous_distribution.mu.weight f4 [2, 128]
0.09161701 0.011853958 0.0332932 0.0665628 -0.030084608 0.084648706 0.012281137 0.033929683
0.016214851 0.047920644 -0.022183025 0.040448744 0.00027382158 -0.0150218215 0.05492004 -0.0020015812
0.013432508 0.032856107 -0.023308882 -0.03429307 0.026231684 0.02447598 0.06494018 0.005964344
-0.054087073 0.00028258172 0.053241592 0.045153473 -0.030404007 -0.017149769 0.08404214 -0.057842817
0.014381074 -0.0465418 0.019045867 0.0064283554 -0.03282024 0.0057301894 0.026463345 0.055859916
-0.04934119 0.027355095 0.0043104133 -0.019198908 -0.067127176 0.073122665 -0.018266894 0.068351164
-0.033971407 0.045630295 -0.04463409 -0.008176617 0.0024319426 0.0048360247 0.016383544 0.019580219
-0.033032212 0.0470943 0.0140298335 0.07047139 0.027530065 -0.0015535791 0.019879727 -0.05207543
0.06449101 -0.017334944 -0.009400483 -0.0021587932 0.06533928 0.052728258 -0.016758677 0.049841907
0.0423247 0.0358831 -0.044075504 -0.030862192 -0.05559471 -0.039274402 0.036883824 0.053614743
0.014593826 -0.014094411 0.040271092 -0.076262064 -0.02682932 0.04854127 -0.010487919 -0.038495775
-0.034599546 0.024177333 -0.019640496 0.0011042665 -0.05386677 0.056691844 -0.0061055603 -0.024305092
-0.028110135 0.014717022 -0.005253744 0.00094119116 0.027940582 -0.04052429 -0.012160199 0.115391314
-0.00988045 -0.027444232 0.027942244 -0.034739625 0.035489034 -0.05672525 0.06438342 0.029656008
-0.051586565 -0.0137797445 0.077948704 0.011346837 0.0490455 0.0230323 0.02883997 -0.014705282
0.056900263 0.0860114 -0.0038822263 0.028698225 -0.021072725 0.035742078 -0.056613415 -0.0047662156
-0.012176503 0.022085492 -0.017371275 0.029942898 0.034701433 0.07154641 0.005620772 -0.067783915
0.0011991529 -0.039054163 0.05885226 -0.02836112 0.002294496 -0.0063182763 -0.09283422 -0.048079077
0.08432769 0.009346223 0.019292368 0.029286657 -0.07004155 -0.072408535 0.030457858 -0.091545425
0.011008103 -0.084540665 0.07318154 -0.029710328 -0.030402783 0.009401771 0.029325828 0.05537733
-0.049043924 0.035324924 -0.00045785413 -0.1724349 -0.021053435 0.04201548 0.03033546 -0.02447447
-0.0055862963 -0.040618975 0.0016358936 0.037766144 0.032896727 -0.0023726318 -0.05892822 -0.030325403
-0.017907029 -0.0436006 0.049846593 0.00023369641 -0.038233858 -0.027402306 0.103605896 -0.05702266
0.037210047 -0.04950936 0.0035490133 -0.059538204 0.035346437 -0.050950687 -0.046065096 -0.007585683
0.004587358 0.014171266 0.0017156992 0.026855472 0.035273828 0.016961003 -0.00017499573 -0.086720906
0.027611557 -0.014026845 0.05543153 0.06921503 0.015239239 -0.0013704228 -0.004363874 -0.015565699
-0.08795997 -0.0031873928 -0.1080378 -0.032264277 0.040755127 -0.024495041 0.0023636608 0.00029533973
-0.012625902 -0.119588204 -0.0024126756 0.048992798 0.06270577 0.01003995 -0.036519207 0.014454584
-0.014904689 -0.008005719 0.01120658 0.0100624 0.060769252 0.013302963 0.010808885 -0.00290337
-0.047344882 0.05037958 -0.03989101 0.019120019 -0.022674369 -0.03206525 0.05578849 -0.041457098
0.00071937515 -0.012348816 -0.06852332 -0.052169804 -0.020742394 0.016610187 -0.04633202 0.00797194
-0.0005352594 -0.023751423 -0.02644023 0.014088232 0.049131654 -0.00091875915 -0.02428377 0.0583239
00000000: b3a1 bb3d 1a37 423c 735e 083d 1452 883d
00000010: ff73 f6bc 4d5c ad3d d236 493c daf9 0a3d
00000020: 02d5 843c 7048 443d 2db9 b5bc 95ad 253d
00000030: b68f 8f39 161e 76bc d6f3 603d f62c 03bb
00000040: 0614 5c3c 2094 063d 45f2 bebc e476 0cbd
00000050: d4e3 d63c da81 c83c 5bff 843d 8b70 c33b
00000060: 688a 5dbd 7a27 9439 db13 5a3d d9f2 383d
00000070: d311 f9bc ac7d 8cbc 491e ac3d 97ec 6cbd
00000080: 999e 6b3c 9da2 3ebd 1406 9c3c f4a4 d23b
00000090: 846e 06bd 50c4 bb3b a8c9 d83c 5ecd 643d
000000a0: fd19 4abd cb17 e03c 5e3e 8d3b 0747 9dbc
000000b0: f979 89bd 56c1 953d 74a4 95bc b2fb 8b3d
000000c0: 9a25 0bbd d5e6 3a3d 3cd2 36bd 38f7 05bc
000000d0: 3a61 1f3b 8477 9e3b c836 863c b266 a03c
000000e0: c94c 07bd f4e5 403d 63dd 653c 4e53 903d
000000f0: bb86 e13c 77a1 cbba cfda a23c 0c4d 55bd
00000100: dd13 843d 0302 8ebc 7c04 1abc 8a7a 0dbb
00000110: 9ad0 853d 96f9 573d 7e49 89bc 0727 4c3d
00000120: aa5c 2d3d 28fa 123d 8488 34bd b5d2 fcbc
00000130: 47b7 63bd 32de 20bd 7e13 173d 229b 5b3d
00000140: f11a 6f3c 3fec 66bc 4df3 243d 492f 9cbd
00000150: 29c9 dbbc 36d3 463d 85d5 2bbc bfad 1dbd
00000160: 41b8 0dbd 8b0f c63c 1be5 a0bc 09bd 903a
00000170: 67a3 5cbd b535 683d 2711 c8bb 791b c7bc
00000180: 3a47 e6bc aa1f 713c 9927 acbb 45ba 763a
00000190: a6e3 e43c ccfc 25bd 923b 47bc 4852 ec3d
000001a0: 9ce1 21bc bad2 e0bc 22e7 e43c 234b 0ebd
000001b0: f35c 113d bc58 68bd 74db 833d 28f1 f23c
000001c0: 6f4c 53bd 70c4 61bc 92a3 9f3d 15e8 393c
000001d0: efe3 483d 3cae bc3c cd41 ec3c 6cee 70bc
000001e0: 4010 693d bf26 b03d f36c 7ebb 8a18 eb3c
000001f0: b5a0 acbc 4966 123d 78e3 67bd ea2d 9cbb
00000200: f57f 47bc a2ec b43c 344e 8ebc cf4a f53c
00000210: 1723 0e3d ed86 923d 742e b83b 4bd2 8abd
00000220: e52c 9d3a 42f7 1fbd 110f 713d 9455 e8bc
00000230: 415f 163b 8b09 cfbb de1f bebd 91ee 44bd
00000240: ffb3 ac3d e720 193c 070b 9e3c 92ea ef3c
00000250: f271 8fbd ed4a 94bd c282 f93c 2b7c bbbd
00000260: 555b 343c a823 adbd 34e0 953d 1363 f3bc
00000270: 420f f9bc e309 1a3c b83c f03c 57d3 623d
00000280: 48e2 48bd deb0 103d 240c f0b9 c692 30be
00000290: 4178 acbc 6d18 2c3d 1282 f83c af7e c8bc
000002a0: 400d b7bb 1560 26bd 7b6b d63a acb0 1a3d
000002b0: b8be 063d 287e 1bbb b85e 71bd fb6c f8bc
000002c0: c3b1 92bc 8b96 32bd f12b 4c3d 670c 7539
000002d0: 1b9b 1cbd cd7a e0bc 542f d43d 9890 69bd
000002e0: 9069 183d 54ca 4abd 9096 683b 55de 73bd
000002f0: 6dc7 103d abb1 50bd c1ae 3cbd 5291 f8bb
00000300: 8c51 963b 992e 683c 50e1 e03a 0200 dc3c
00000310: 4a7b 103d cdf1 8a3c 0f7f 37b9 bb9a b1bd
00000320: a231 e23c dad0 65bc 2c0c 633d 9cc0 8d3d
00000330: 00ae 793c c29f b3ba d4fe 8ebb 4607 7fbc
00000340: 5b24 b4bd 94e3 50bb ec42 ddbd 8c27 04bd
00000350: d9ee 263d d3a9 c8bc a6e7 1a3b d4d7 9a39
00000360: dfdc 4ebc a9ea f4bd fb1d 1ebb acac 483d
00000370: e26b 803d 9a7e 243c 2a95 15bd ebd2 6c3c
00000380: cc32 74bc 6b2a 03bc ce9b 373c c4dc 243c
00000390: 2ee9 783d acf4 593c c017 313c 7746 3ebb
000003a0: b5ec 41bd d25a 4e3d c164 23bd 96a1 9c3c
000003b0: 99bf b9bc da56 03bd 7982 643d ebce 29bd
000003c0: 7394 3c3a b052 4abc f455 8cbd 01b0 55bd
000003d0: f4eb a9bc 1612 883c a5c6 3dbd bd9c 023c
000003e0: a650 0cba 5892 c2bc 2e99 d8bc 54d2 663c
000003f0: 463e 493d e2d8 70ba c2ee c6bc 0be5 6e3d

action_model._continuous_distribution.mu.bias f4 [2]
-0.021699619 0.011445561
00000000: 66c3 b1bc 2a86 3b3c

action_model._discrete_distribution.branches.0.weight f4 [1, 128]
-0.014053354 0.0016001182 -0.008880135 0.0072831954 0.008764206 -0.0022576908 -0.003694004 0.001080389
-0.012238569 -0.0013834389 -0.0042148293 0.0058276267 0.01020934 -0.010597656 0.0014250489 0.0055034007
-0.0052149333 -0.000851172 0.0041089645 0.02208474 -0.0011097668 0.003434344 -0.00033874385 0.008947025
-0.007113701 0.00051503273 -0.008385675 0.0036054298 0.008101477 0.019637277 0.0010500663 0.0060502933
0.0014255242 -0.003291615 0.00089411635 -0.0041042794 -0.00844775 -0.007835838 0.00576046 -0.0013055296
0.007891987 0.004191853 0.005758576 0.0145398425 0.00959026 0.0012126899 0.0025267277 -0.009910367
-0.009213987 0.006515955 0.010163671 0.0048525664 -0.0008618839 0.0063140835 0.01006014 0.011001099
-0.002703767 -0.004631647 0.002126953 -0.0012069508 -0.0032307212 0.001998705 0.0035091133 0.0035090477
-0.0013242725 -3.0205527e-05 -0.012284217 0.0045614163 0.00213609 0.0076579875 0.0010669734 -0.008693796
-0.0024532198 0.008141188 -0.0010303584 -0.013051282 -0.0025212923 0.0040566963 0.008404787 -0.0029832064
-0.016026298 -0.0027376418 0.010660449 0.012878035 0.0132607 0.013552561 -0.0016684001 0.0035231472
-0.0029618419 0.015466577 -0.013949913 -0.00703113 0.0030369512 0.0023190852 0.0038214605 0.0027639973
-0.0125729935 0.010718774 -0.000118464035 0.0054401136 0.0071588266 -0.010552463 -0.0014688933 0.01951853
-0.0027452845 -0.0032908346 0.010911684 0.007372909 0.008350625 -0.0005139756 -0.0034674895 -0.01236472
-0.012033812 -0.013256636 0.0029623893 -0.009578072 0.005837457 0.012929832 -0.00027406088 0.0039379913
-0.0022001679 -0.0013582795 0.007266011 0.00796474 -0.0008063607 0.004198765 -0.0049489383 0.008780176
00000000: 0a40 66bc 0fbb d13a fc7d 11bc dfa7 ee3b
00000010: bf97 0f3c c4f5 13bb 1a17 72bb d79b 8d3a
00000020: 4784 48bc 8254 b5ba 8d1c 8abb adf5 be3b
00000030: 1345 273c caa1 2dbc b5c8 ba3a df55 b43b
00000040: 08e2 aabb 3021 5fba 7ea4 863b 0feb b43c
00000050: 9875 91ba bb12 613b 6e99 b1b9 8b96 123c
00000060: 0d1a e9bb 4303 073a 1264 09bc 1349 6c3b
00000070: 0fbc 043c 5bde a03c 61a2 893a 8a41 c63b
00000080: a8d8 ba3a 23b8 57bb 2263 6a3a 317d 86bb
00000090: 6e68 0abc e361 00bc 3ec2 bc3b 4e1e abba
000000a0: 654d 013c d05b 893b 70b2 bc3b 8538 6e3c
000000b0: 7720 1d3c 1ff3 9e3a 7597 253b 185f 22bc
000000c0: 43f6 16bc cb83 d53b 8785 263c 4702 9f3b
000000d0: 0df0 61ba 5fe6 ce3b 49d3 243c f43d 343c
000000e0: af31 31bb 12c5 97bb 5a64 0b3b 8c32 9eba
000000f0: 82ba 53bb b5fc 023b 27f9 653b 0df8 653b
00000100: 3693 adba e061 fdb7 be43 49bc ef77 953b
00000110: a5fd 0b3b dbef fa3b b0d9 8b3a 6c70 0ebc
00000120: 33c6 20bb 9e62 053c 170d 87ba 0bd5 55bc
00000130: 443c 25bb 09ee 843b 3bb4 093c e681 43bb
00000140: 9549 83bc 026a 33bb 2aa9 2e3c 65fe 523c
00000150: 6843 593c 900b 5e3c 38ae daba 9ae4 663b
00000160: 761b 42bb 8767 7d3c 2d8e 64bc 6565 e6bb
00000170: 9607 473b cbfb 173b 7871 7a3b 2e24 353b
00000180: f5fe 4dbc cc9d 2f3c e56f f8b8 fb42 b23b
00000190: 9794 ea3b 3de4 2cbc e187 c0ba 53e5 9f3c
000001a0: 3bea 33bb 0bab 57bb ebc6 323c 7298 f13b
000001b0: 0fd1 083c 52bc 06ba d23e 63bb 6595 4abc
000001c0: 7729 45bc 5d32 59bc a524 423b 58ed 1cbc
000001d0: 2348 bf3b a5d7 533c d4af 8fb9 440a 813b
000001e0: b130 10bb 4c08 b2ba b817 ee3b 8a7e 023c
000001f0: f361 53ba cb95 893b b42a a2bb bada 0f3c

exp_avg f4 [128, 78]
-1.3720974e-05 -1.3720974e-05 -1.3720974e-05 -0.00023938218 -2.058488e-05 0.0002512278 0.00026508607 4.7317564e-05
0.00022264547 -3.091907e-05 2.7387163e-05 -0.0001931039 0.0001099475 3.8433885e-05 4.1801453e-05 -0.00029107314
-6.7390533e-06 7.3963805e-05 0.0 -3.4302616e-07 0.0 -6.860475e-05 -3.4302616e-07 6.860475e-05
-6.860475e-05 -3.4302616e-07 -6.860475e-05 6.860475e-05 -3.4302616e-07 -6.860475e-05 6.860475e-05 -3.4302616e-07
6.860475e-05 -3.264737e-05 -3.7796257e-05 -4.8411614e-05 -5.0061135e-05 -3.603925e-05 -1.7749233e-05 -1.6669019e-05
-1.6669019e-05 -1.6669019e-05 -0.00023806992 -2.2451952e-05 0.00026063222 0.00025874286 3.8660346e-05 0.00023299541
2.7856327e-06 3.3470333e-05 -0.00014791681 0.000110278146 3.600626e-05 1.0470955e-05 -0.0002486883 -1.6444536e-05
0.00011537501 0.0 -4.1672473e-07 0.0 -8.334476e-05 -4.1672473e-07 8.334476e-05 -8.334476e-05
-4.1672473e-07 -8.334476e-05 8.334476e-05 -4.1672473e-07 -8.334476e-05 8.334476e-05 -4.1672473e-07 8.334476e-05
-3.1220432e-05 -3.526883e-05 -5.7032124e-05 -4.3525615e-05 -3.9979757e-05 -2.0565512e-05 -0.0002262728 -0.0002262728
-0.0002262728 0.0008386415 -1.352827e-05 -0.00074706005 -0.0011323942 4.181997e-05 0.000433637 -0.00078707776
-0.00010665401 0.0017012388 -0.0008963891 -0.00013970221 -0.00025233813 0.0004747638 -9.163772e-05 -0.00029994248
0.0 -5.656813e-06 0.0 -0.001131363 -5.656813e-06 0.001131363 -0.001131363 -5.656813e-06
-0.001131363 0.001131363 -5.656813e-06 -0.001131363 0.001131363 -5.656813e-06 0.001131363 -0.00022954172
-0.00013573543 -0.000102319864 -0.00014898267 -0.00018800775 -0.00025834524 -0.00021514829 -0.00021514829 -0.00021514829
0.0009604397 9.76833e-06 -0.0008844013 -0.0012731989 8.625139e-05 0.0005185799 -0.0005395811 -0.00010374593
0.0019867965 -0.00091196276 -0.00014156128 -0.00022570766 0.00064803835 -0.00010649858 1.1021211e-05 0.0
-5.3787016e-06 0.0 -0.0010757415 -5.3787016e-06 0.0010757415 -0.0010757415 -5.3787016e-06 -0.0010757415
0.0010757415 -5.3787016e-06 -0.0010757415 0.0010757415 -5.3787016e-06 0.0010757415 -0.00019816424 -9.168993e-05
-9.419748e-05 -0.000115861796 -0.00018523155 -0.00025952462 0.00024337825 0.00024337825 0.00024337825 0.00012525138
7.6372446e-05 -0.0002906873 -0.000477559 0.00023448007 -0.0011860926 0.0022269434 9.524972e-05 -0.0026352191
-0.00021228551 8.032723e-05 -9.959314e-05 0.00052379386 0.00010595013 0.0003829741 0.0 6.0844404e-06
0.0 0.0012168871 6.0844404e-06 -0.0012168871 0.0012168871 6.0844404e-06 0.0012168871 -0.0012168871
6.0844404e-06 0.0012168871 -0.0012168871 6.0844404e-06 -0.0012168871 0.00021545042 0.00019081194 0.00018016563
0.0001294448 0.00022572474 0.0002790798 0.00022156397 0.00022156397 0.00022156397 -4.1818064e-05 4.0090792e-05
-0.000103165 -0.0003257715 0.00026132536 -0.0011538569 0.0021532152 9.748399e-05 -0.0030732288 4.2317177e-05
9.184869e-05 -0.00036098284 0.00027038823 0.00011823032 -0.00017536426 0.0 5.5390906e-06 0.0
0.0011078181 5.5390906e-06 -0.0011078181 0.0011078181 5.5390906e-06 0.0011078181 -0.0011078181 5.5390906e-06
0.0011078181 -0.0011078181 5.5390906e-06 -0.0011078181 0.00016645867 0.00011625175 0.00017567047 7.051408e-05
0.00023594228 0.00028533294 4.7146263e-05 4.7146263e-05 4.7146263e-05 0.00022616904 -1.4583744e-05 -0.00015812143
-0.0003683381 0.00012114678 -0.00030874775 0.00059760234 5.5855035e-05 -0.00022363217 0.0002579182 -9.3829134e-05
-0.00039488808 0.0008662917 6.166568e-05 -0.0005980396 0.0 1.1786584e-06 0.0 0.00023573177
00000000: 2233 66b7 2233 66b7 2233 66b7 aa02 7bb9
00000010: b1ad acb7 39b7 8339 40fb 8a39 d976 4638
00000020: f075 6939 19af 01b8 7cbd e537 ef7b 4ab9
00000030: 9d93 e638 1234 2138 f853 2f38 2d9b 98b9
00000040: 0720 e2b6 041d 9b38 0000 0000 2829 b8b4
00000050: 0000 0000 e5df 8fb8 2829 b8b4 e5df 8f38
00000060: e5df 8fb8 2829 b8b4 e5df 8fb8 e5df 8f38
00000070: 2829 b8b4 e5df 8fb8 e5df 8f38 2829 b8b4
00000080: e5df 8f38 d9ee 08b8 6c87 1eb8 930d 4bb8
00000090: bcf8 51b8 da28 17b8 30e4 94b7 72d4 8bb7
000000a0: 72d4 8bb7 72d4 8bb7 68a2 79b9 3357 bcb7
000000b0: 77a5 8839 e1a7 8739 3b27 2238 3b50 7439
000000c0: cef0 3a36 7f62 0c38 1e1a 1bb9 2145 e738
000000d0: 6d05 1738 69ac 2f37 6162 82b9 5ff2 89b7
000000e0: 7df5 f138 0000 0000 36ba dfb4 0000 0000
000000f0: 61c9 aeb8 36ba dfb4 61c9 ae38 61c9 aeb8
00000100: 36ba dfb4 61c9 aeb8 61c9 ae38 36ba dfb4
00000110: 61c9 aeb8 61c9 ae38 36ba dfb4 61c9 ae38
00000120: aff2 02b8 9eed 13b8 c735 6fb8 468f 36b8
00000130: f0af 27b8 1a84 acb7 a443 6db9 a443 6db9
00000140: a443 6db9 47d8 5b3a 7af7 62b7 5ad6 43ba
00000150: d86c 94ba da67 2f38 c659 e339 e553 4eba
00000160: 70ab dfb8 1afc de3a a7fb 6aba 077d 12b9
00000170: 404c 84b9 b8e9 f839 a02d c0b8 9941 9db9
00000180: 0000 0000 a7cf bdb6 0000 0000 3e4a 94ba
00000190: a7cf bdb6 3e4a 943a 3e4a 94ba a7cf bdb6
000001a0: 3e4a 94ba 3e4a 943a a7cf bdb6 3e4a 94ba
000001b0: 3e4a 943a a7cf bdb6 3e4a 943a 23b1 70b9
000001c0: 3454 0eb9 8f94 d6b8 3b38 1cb9 f223 45b9
000001d0: 8372 87b9 6e99 61b9 6e99 61b9 6e99 61b9
000001e0: 04c6 7b3a a8e2 2337 2bd7 67ba 77e1 a6ba
000001f0: dde1 b438 4ff1 073a ad72 0dba 2c92 d9b8
00000200: ea34 023b c910 6fba 1170 14b9 f0ab 6cb9
00000210: 1ee1 293a fd57 dfb8 bee7 3837 0000 0000
00000220: b27a b4b6 0000 0000 e5ff 8cba b27a b4b6
00000230: e5ff 8c3a e5ff 8cba b27a b4b6 e5ff 8cba
00000240: e5ff 8c3a b27a b4b6 e5ff 8cba e5ff 8c3a
00000250: b27a b4b6 e5ff 8c3a 4fca 4fb9 a849 c0b8
00000260: e38b c5b8 d4fa f2b8 b73a 42b9 ce10 88b9
00000270: 5a33 7f39 5a33 7f39 5a33 7f39 e955 0339
00000280: 252a a038 6467 98b9 e260 fab9 c4de 7539
00000290: aa76 9bba e9f1 113b cec0 c738 a4b3 2cbb
000002a0: f598 5eb9 5a75 a838 a9dc d0b8 364f 093a
000002b0: 8b31 de38 eac9 c839 0000 0000 f228 cc36
000002c0: 0000 0000 f57f 9f3a f228 cc36 f57f 9fba
000002d0: f57f 9f3a f228 cc36 f57f 9f3a f57f 9fba
000002e0: f228 cc36 f57f 9f3a f57f 9fba f228 cc36
000002f0: f57f 9fba 88ea 6139 b114 4839 d8ea 3c39
00000300: 93bb 0739 86b0 6c39 7551 9239 a053 6839
00000310: a053 6839 a053 6839 ce65 2fb8 2927 2838
00000320: 4a5a d8b8 50cc aab9 7f02 8939 033d 97ba
00000330: f51c 0d3b 5270 cc38 3968 49bb b97d 3138
00000340: e49e c038 4c42 bdb9 e5c2 8d39 6bf2 f738
00000350: fce1 37b9 0000 0000 6ddc b936 0000 0000
00000360: 3534 913a 6ddc b936 3534 91ba 3534 913a
00000370: 6ddc b936 3534 913a 3534 91ba 6ddc b936
00000380: 3534 913a 3534 91ba 6ddc b936 3534 91ba
00000390: 698b 2e39 2fcc f338 2f34 3839 f5e0 9338
000003a0: 4667 7739 bd98 9539 eabe 4538 eabe 4538
000003b0: eabe 4538 ca27 6d39 b4ac 74b7 66cd 25b9
000003c0: 811d c1b9 2f10 fe38 6cdf a1b9 6aa8 1c3a
000003d0: e345 6a38 ce7e 6ab9 3239 8739 22c6 c4b8
000003e0: fb08 cfb9 da17 633a 8352 8138 c2c5 1cba
000003f0: 0000 0000 6532 9e35 0000 0000 c42e 7739

exp_avg_sq f4 [128, 78]
2.1497972e-07 2.1497972e-07 2.1497972e-07 4.6242044e-06 8.695571e-08 4.16501e-06 4.5254646e-06 1.2984655e-07
6.2906465e-06 1.1364351e-06 2.7574105e-08 3.6442193e-06 2.28098e-06 5.7535228e-08 1.2907387e-07 9.748942e-06
9.642566e-08 1.277059e-06 0.0 1.3436212e-10 0.0 4.091088e-06 1.3436212e-10 4.091088e-06
4.091088e-06 1.3436212e-10 4.091088e-06 4.091088e-06 1.3436212e-10 4.091088e-06 4.091088e-06 1.3436212e-10
4.091088e-06 1.4535782e-07 1.3004086e-07 1.1253234e-07 1.6043214e-07 4.3984926e-08 1.546386e-07 2.2493523e-07
2.2493523e-07 2.2493523e-07 5.7428065e-06 9.422635e-08 5.249849e-06 5.9701424e-06 1.6613451e-07 7.3735723e-06
1.1915735e-06 3.3116272e-08 4.471385e-06 3.0938727e-06 7.751803e-08 1.4932904e-07 1.0725865e-05 9.839683e-08
1.2407835e-06 0.0 1.405845e-10 0.0 4.338291e-06 1.405845e-10 4.338291e-06 4.338291e-06
1.405845e-10 4.338291e-06 4.338291e-06 1.405845e-10 4.338291e-06 4.338291e-06 1.405845e-10 4.338291e-06
1.4721542e-07 1.3119222e-07 1.1390685e-07 1.6376814e-07 4.4487628e-08 1.6353911e-07 2.2540898e-06 2.2540898e-06
2.2540898e-06 5.6149518e-05 7.3933774e-07 5.3753192e-05 5.836875e-05 3.643712e-07 4.827825e-05 3.542167e-06
2.1384044e-07 5.4291315e-05 4.843161e-05 3.6103725e-07 6.5625545e-06 8.998067e-05 9.779994e-07 1.686757e-05
0.0 1.4088044e-09 0.0 5.0223367e-05 1.4088044e-09 5.0223367e-05 5.0223367e-05 1.4088044e-09
5.0223367e-05 5.0223367e-05 1.4088044e-09 5.0223367e-05 5.0223367e-05 1.4088044e-09 5.0223367e-05 1.9592262e-06
1.5506669e-06 1.4549075e-06 1.5204032e-06 4.692439e-07 1.6666811e-06 2.3101334e-06 2.3101334e-06 2.3101334e-06
6.672089e-05 7.990833e-07 6.431517e-05 6.9005146e-05 4.0386004e-07 5.8575115e-05 3.5721378e-06 2.4877608e-07
6.0913862e-05 5.6679666e-05 4.4496963e-07 6.766328e-06 0.00010101506 9.98363e-07 1.7061117e-05 0.0
1.4438322e-09 0.0 5.1628936e-05 1.4438322e-09 5.1628936e-05 5.1628936e-05 1.4438322e-09 5.1628936e-05
5.1628936e-05 1.4438322e-09 5.1628936e-05 5.1628936e-05 1.4438322e-09 5.1628936e-05 1.989042e-06 1.569533e-06
1.4694901e-06 1.5317192e-06 4.751222e-07 1.7108168e-06 6.164579e-06 6.164579e-06 6.164579e-06 1.3840666e-05
4.9566376e-07 1.07551205e-05 2.8253142e-05 1.0205175e-06 4.0564308e-05 3.6468045e-05 1.0674596e-06 2.4335623e-05
1.0679179e-05 4.938226e-07 1.3133449e-05 0.00015262887 1.912043e-06 4.6765257e-05 0.0 3.8528603e-09
0.0 0.00012905436 3.8528603e-09 0.00012905436 0.00012905436 3.8528603e-09 0.00012905436 0.00012905436
3.8528603e-09 0.00012905436 0.00012905436 3.8528603e-09 0.00012905436 4.8463116e-06 3.6501121e-06 3.2569226e-06
4.2525207e-06 1.2082477e-06 4.5751876e-06 6.3886573e-06 6.3886573e-06 6.3886573e-06 1.8493332e-05 5.7016933e-07
1.5073702e-05 3.467956e-05 1.305267e-06 4.403947e-05 3.835354e-05 1.2654899e-06 3.0407133e-05 1.3897047e-05
6.7748573e-07 1.3161142e-05 0.0001634125 1.951939e-06 4.564977e-05 0.0 3.9929122e-09 0.0
0.00013467122 3.9929122e-09 0.00013467122 0.00013467122 3.9929122e-09 0.00013467122 0.00013467122 3.9929122e-09
0.00013467122 0.00013467122 3.9929122e-09 0.00013467122 4.973541e-06 3.7113668e-06 3.3165081e-06 4.35484e-06
1.2307979e-06 4.751156e-06 2.1278815e-06 2.1278815e-06 2.1278815e-06 1.6307957e-06 3.3457862e-08 1.1435554e-06
7.4862496e-06 9.127063e-08 3.873972e-06 9.759858e-06 2.3659132e-07 8.452648e-06 5.5546466e-06 1.0479587e-07
5.058356e-06 4.4570737e-05 6.847287e-07 2.3728502e-05 0.0 1.3299271e-09 0.0 5.1230098e-05
00000000: 2dd5 6634 2dd5 6634 2dd5 6634 9d29 9b36
00000010: 68bc ba33 2ac1 8b36 72d9 9736 f36b 0b34
00000020: 3e14 d336 9d87 9835 19dc ec32 368f 7436
00000030: f012 1936 a71c 7733 8e97 0a34 638f 2337
00000040: 9112 cf33 6a67 ab35 0000 0000 93bb 132f
00000050: 0000 0000 2e46 8936 93bb 132f 2e46 8936
00000060: 2e46 8936 93bb 132f 2e46 8936 2e46 8936
00000070: 93bb 132f 2e46 8936 2e46 8936 93bb 132f
00000080: 2e46 8936 a713 1c34 5ca1 0b34 4fa9 f133
00000090: 4043 2c34 f0e9 3c33 bc0a 2634 ba85 7134
000000a0: ba85 7134 ba85 7134 55b2 c036 7c59 ca33
000000b0: dc27 b036 2253 c836 b562 3234 816a f736
000000c0: 27ee 9f35 ba3b 0e33 e808 9636 54a0 4f36
000000d0: fd77 a633 4157 2034 3df3 3337 3b4e d333
000000e0: ff88 a635 0000 0000 0593 1a2f 0000 0000
000000f0: a391 9136 0593 1a2f a391 9136 a391 9136
00000100: 0593 1a2f a391 9136 a391 9136 0593 1a2f
00000110: a391 9136 a391 9136 0593 1a2f a391 9136
00000120: 4412 1e34 d8dd 0c34 f49c f433 3ed8 2f34
00000130: aa12 3f33 4a99 2f34 f844 1736 f844 1736
00000140: f844 1736 1682 6b38 e776 4635 0d75 6138
00000150: f8d0 7438 cc9e c334 607e 4a38 f7b5 6d36
00000160: 039c 6534 dbb6 6338 0c23 4b38 95d4 c134
00000170: ea33 dc36 01b4 bc38 ce43 8335 d57e 8d37
00000180: 0000 0000 e69f c130 0000 0000 eea6 5238
00000190: e69f c130 eea6 5238 eea6 5238 e69f c130
000001a0: eea6 5238 eea6 5238 e69f c130 eea6 5238
000001b0: eea6 5238 e69f c130 eea6 5238 407b 0336
000001c0: 8220 d035 3e46 c335 a810 cc35 64ec fb34
000001d0: bab2 df35 ca07 1b36 ca07 1b36 ca07 1b36
000001e0: 81ec 8b38 9680 5635 f2e0 8638 dbb6 9038
000001f0: 1ad2 d834 8dae 7538 dcb8 6f36 868f 8534
00000200: c37d 7f38 54bb 6d38 29e4 ee34 510a e336
00000210: 0cd8 d338 7eff 8535 781e 8f37 0000 0000
00000220: 5470 c630 0000 0000 268c 5838 5470 c630
00000230: 268c 5838 268c 5838 5470 c630 268c 5838
00000240: 268c 5838 5470 c630 268c 5838 268c 5838
00000250: 5470 c630 268c 5838 7b7b 0536 bea8 d235
00000260: 4c3b c535 7995 cd35 4c14 ff34 389f e535
00000270: 55d9 ce36 55d9 ce36 55d9 ce36 3535 6837
00000280: c10d 0535 e470 3437 2901 ed37 b7f8 8835
00000290: 9823 2a38 44f5 1838 a245 8f35 5a24 cc37
000002a0: b92a 3337 3b8f 0435 bc57 5c37 000b 2039
000002b0: a650 0036 d025 4438 0000 0000 1e62 8431
000002c0: 0000 0000 c452 0739 1e62 8431 c452 0739
000002d0: c452 0739 1e62 8431 c452 0739 c452 0739
000002e0: 1e62 8431 c452 0739 c452 0739 1e62 8431
000002f0: c452 0739 809d a236 73f4 7436 8191 5a36
00000300: e0b0 8e36 132b a235 9084 9936 265e d636
00000310: 265e d636 265e d636 2122 9b37 bd0d 1935
00000320: 0fe5 7c37 e574 1138 a230 af35 05b7 3838
00000330: cddd 2038 e7d9 a935 d212 ff37 5d27 6937
00000340: 77dc 3535 adce 5c37 b559 2b39 0ffe 0236
00000350: 1178 3f38 0000 0000 0732 8931 0000 0000
00000360: 8836 0d39 0732 8931 8836 0d39 8836 0d39
00000370: 0732 8931 8836 0d39 8836 0d39 0732 8931
00000380: 8836 0d39 8836 0d39 0732 8931 8836 0d39
00000390: 64e2 a636 cc10 7936 2d91 5e36 ca1f 9236
000003a0: e531 a535 1f6c 9f36 bacc 0e36 bacc 0e36
000003b0: bacc 0e36 b7e1 da35 4fb3 0f33 447c 9935
000003c0: 6532 fb36 8f00 c433 2bfd 8136 45be 2337
000003d0: ba09 7e34 d9cf 0d37 0d62 ba36 240c e133
000003e0: f2ba a936 77f1 3a38 33ce 3735 920c c737
000003f0: 0000 0000 a6c8 b630 0000 0000 e6df 5638

exp_avg f4 [128]
-1.6668975e-05 -0.00021514826 0.00022156365 3.6249527e-05 4.6606e-06 -1.3248347e-05 9.308729e-05 5.7836252e-05
-1.085e-05 8.115637e-05 -1.7112387e-05 5.5316286e-05 4.999843e-07 -0.00019452121 -0.00015360881 3.9365306e-05
-0.00012230748 2.2450837e-05 1.3548931e-06 -2.0352694e-05 1.950876e-05 -0.00010878044 -0.00010785528 3.341961e-05
7.04476e-05 8.379354e-05 -0.00018776303 0.00020711604 -3.010374e-06 -8.148336e-06 4.665111e-05 9.428154e-05
1.1760757e-05 1.2624592e-05 -6.930858e-05 0.0003667846 -1.9359088e-05 -0.00012957353 0.00012832507 -4.349375e-05
6.274313e-06 0.00010506747 0.0001555089 -1.8622061e-06 3.960998e-05 0.00021745998 0.0002619571 0.0002616428
-0.00021020634 -0.00015206369 3.8919206e-05 -0.00033732582 8.0837126e-05 6.2861945e-05 -0.00013788915 0.00025090235
6.0333332e-05 -0.00032303945 -7.522285e-06 4.617095e-06 6.751209e-05 -0.00010239548 -0.00033485077 -0.00032650973
0.00017530676 3.2039126e-05 -0.00022378632 -0.00019169129 -0.00010371341 -4.1951325e-06 -0.00022644173 -4.234603e-05
-3.378271e-05 2.4536737e-06 -0.00011876487 0.00019859178 -4.7587364e-05 3.1589367e-05 -0.00011863496 0.00024137505
1.6662951e-06 -0.00036690413 0.00024805788 -1.4887789e-05 4.4177876e-05 -0.00016558658 -5.1552914e-05 -1.3566481e-05
4.60075e-05 -6.636713e-06 -0.00017217614 0.00023519532 -3.0828032e-05 -6.9444964e-06 0.00025014541 -1.2270885e-06
0.00012452011 -3.049879e-06 -3.5173085e-05 -0.00018740812 -1.2886357e-05 0.00012225848 -0.00010490841 -0.00010448486
-0.00034311277 9.01213e-05 0.00013804807 0.00021646403 -5.9455113e-05 -8.784183e-06 4.878807e-05 -3.5657013e-05
-8.9412686e-05 0.00013264673 1.463624e-05 -0.00011475604 0.000117428026 -3.7072375e-06 6.113511e-05 0.00010017895
-8.6577056e-05 -5.491137e-06 -0.00012634102 6.6315397e-06 -0.00013510234 -6.4347514e-06 -0.000311425 -6.479842e-05
00000000: 5ad4 8bb7 6c99 61b9 8a53 6839 a20a 1838
00000010: 4062 9c36 3845 5eb7 dc37 c338 3495 7238
00000020: 6508 36b7 7f32 aa38 928c 8fb7 6903 6838
00000030: a936 0635 64f8 4bb9 0d12 21b9 2d1c 2538
00000040: aa3f 00b9 ce54 bc37 c6d9 b535 14bb aab7
00000050: bea6 a337 0e21 e4b8 5d30 e2b8 082c 0c38
00000060: 44bd 9338 50ba af38 41e2 44b9 4a2d 5939
00000070: d505 4ab6 d6b4 08b7 3fab 4338 04b9 c538
00000080: 1150 4537 36ce 5337 c359 91b8 ff4c c039
00000090: 5365 a2b7 21de 07b9 008f 0639 0f6d 36b8
000000a0: f087 d236 ab57 dc38 1a10 2339 eaf0 f9b5
000000b0: e422 2638 f805 6439 4957 8939 1a2d 8939
000000c0: d66a 5cb9 4973 1fb9 2e3d 2338 1bdb b0b9
000000d0: 1a87 a938 c0d4 8338 5696 10b9 8b8b 8339
000000e0: 6c0e 7d38 9f5d a9b9 f067 fcb6 8bec 9a36
000000f0: 4795 8d38 28bd d6b8 e98e afb9 652f abb9
00000100: 8dd2 3739 c061 0638 2fa8 6ab9 bd00 49b9
00000110: b780 d9b8 eac3 8cb6 fd70 6db9 b49c 31b8
00000120: e9b1 0db8 cba9 2436 6711 f9b8 133d 5039
00000130: 8b98 47b8 d37e 0438 a9cb f8b8 9f19 7d39
00000140: 77a5 df35 0a5d c0b9 c40d 8239 91c6 79b7
00000150: a24b 3938 4fa1 2db9 853a 58b8 989b 63b7
00000160: 2df8 4038 eeb0 deb6 2e8a 34b9 c39e 7639
00000170: 594d 01b8 c504 e9b6 f325 8339 71b2 a4b5
00000180: 9d91 0239 86ac 4cb6 d086 13b8 fc82 44b9
00000190: 7b32 58b7 8332 0039 4602 dcb8 e21e dbb8
000001a0: d1e3 b3b9 81ff bc38 ffc0 1039 9ffa 6239
000001b0: 715f 79b8 c75f 13b7 cba1 4c38 6d8e 15b8
000001c0: 1283 bbb8 1617 0b39 2c8e 7537 2ea9 f0b8
000001d0: b143 f638 dbc9 78b6 aa35 8038 2a17 d238
000001e0: b490 b5b8 8240 b8b6 697a 04b9 7e84 de36
000001f0: 42aa 0db9 18ea d7b6 c246 a3b9 63e4 87b8

exp_avg_sq f4 [128]
2.2493522e-07 2.3101331e-06 6.3886573e-06 2.1858211e-06 4.1344776e-08 1.1665044e-06 5.3801585e-07 4.6128978e-08
5.946148e-07 6.000729e-08 3.7597152e-07 1.0809692e-06 2.9289781e-08 6.6347e-06 1.3731391e-06 1.0349355e-07
7.1527876e-07 1.4273029e-06 4.732456e-09 1.1712663e-06 7.942639e-07 6.898336e-07 3.0631022e-06 5.4433755e-08
2.305261e-06 2.934803e-06 1.2237226e-06 1.0779323e-06 2.2224713e-06 8.0380164e-10 1.4744903e-06 2.152123e-06
2.780686e-07 2.687276e-07 1.8398606e-07 9.8111195e-06 5.2539015e-08 1.4826924e-06 4.878215e-07 1.969243e-07
3.0528135e-08 1.2166096e-06 2.385852e-06 1.4615151e-06 3.994332e-06 5.322693e-06 8.039966e-06 3.3044714e-06
5.3694714e-07 1.3891681e-06 2.8205142e-07 7.907583e-06 2.431142e-06 1.0077416e-06 3.2595426e-07 2.5609685e-05
9.291754e-07 4.6631053e-06 5.5423094e-08 1.5649007e-08 3.4650348e-06 2.5922608e-07 4.7482044e-06 5.9602985e-06
2.2690226e-06 1.6243043e-06 4.1928533e-06 1.6653166e-07 8.381313e-07 1.2062698e-07 2.7856174e-06 4.153734e-07
2.2753422e-08 2.0535225e-08 7.4604986e-07 6.7767132e-06 1.7983062e-06 3.0617953e-06 4.469287e-07 1.0310201e-05
1.596107e-08 7.9178635e-06 7.672151e-06 5.8755028e-08 2.094501e-06 5.580111e-07 2.1393444e-07 3.357518e-08
2.1547771e-07 5.4847852e-08 2.020257e-06 5.1715797e-06 6.735543e-08 4.5013575e-09 8.9270825e-06 2.8815296e-07
2.4097828e-06 1.7695955e-07 8.097121e-07 1.0600651e-06 2.951425e-06 7.883795e-06 2.0517174e-07 4.2496404e-07
3.5989203e-06 1.0596741e-06 1.9037613e-07 7.752774e-06 4.912259e-07 7.0913507e-07 3.31343e-08 8.508827e-07
9.969876e-07 7.555571e-07 4.4240593e-07 8.0865027e-07 1.9245667e-07 8.9640606e-10 1.2179164e-06 3.5488667e-06
1.7946768e-07 4.372969e-09 7.972604e-07 2.4646342e-08 1.3064378e-06 4.3602637e-09 2.0450616e-06 3.5670575e-07
00000000: b985 7134 c907 1b36 265e d636 1fb0 1236
00000010: 1093 3133 c990 9c35 2b6c 1035 591f 4633
00000020: 9e9d 1f35 5bdd 8033 22d9 c934 d215 9135
00000030: e998 fb32 a49f de36 b34c b835 2e40 de33
00000040: 9501 4035 c191 bf35 209b a231 6734 9d35
00000050: 6635 5535 012d 3935 b28f 4d36 8cca 6933
00000060: 15b4 1a36 88f3 4436 ca3e a435 79ad 9035
00000070: c425 1536 83f2 5c30 1ae7 c535 316d 1036
00000080: 7549 9534 a445 9034 b48d 4534 709a 2437
00000090: 42a7 6133 ec00 c735 d7f2 0235 2472 5334
000000a0: 0a1e 0333 634a a335 a01c 2036 4729 c435
000000b0: 0d07 8636 9699 b236 64e3 0637 63c2 5d36
000000c0: ba22 1035 7473 ba35 da6c 9734 cfaa 0437
000000d0: b426 2336 bd41 8735 d0fe ae34 61d4 d637
000000e0: 736c 7935 c577 9c36 560a 6e33 886c 8632
000000f0: d888 6836 c32b 8b34 c452 9f36 93fe c736
00000100: 8345 1836 ac02 da35 56b0 8c36 e0cf 3234
00000110: f2fb 6035 b185 0134 8bf0 3a36 7c00 df34
00000120: 4e73 c332 7065 b032 2844 4835 8663 e336
00000130: 555d f135 3e79 4d36 6af1 ef34 faf9 2c37
00000140: c41a 8932 f7d6 0437 a3b7 0037 d659 7c33
00000150: 418f 0c36 3bca 1535 dab5 6534 4d34 1033
00000160: 105e 6734 da91 6b33 c093 0736 8887 ad36
00000170: 0aa5 9033 5caa 9a31 87c5 1537 71b3 9a34
00000180: c1b7 2136 4502 3e34 fe5a 5935 8f47 8e35
00000190: 1811 4636 a444 0437 2e4d 5c34 9d26 e434
000001a0: fb84 7136 203a 8e35 316a 4c34 e911 0237
000001b0: c9dc 0335 645b 3e35 8c4f 0e33 3768 6435
000001c0: 3cd0 8535 7dd1 4a35 cf83 ed34 0612 5935
000001d0: 16a6 4e34 f866 7630 4a77 a335 1129 6e36
000001e0: b3b3 4034 0b41 9631 5103 5635 e1b5 d332
000001f0: dc58 af35 49d1 9531 e43d 0936 4481 bf34
