results/ag12/PlatformRotate/PlatformRotate-1999930.pt (torch, 661833 bytes, 39 tensors)

network_body._body_endoder.seq_layers.0.weight f4 [128, 78]
-0.047112077 0.065840565 -0.00857162 -0.011166558 0.04514256 0.16918881 -0.11788511 -0.0007007502
-0.009023896 0.18138607 0.016215881 0.0151792625 0.102145 0.16147304 -0.066203095 -0.1561299
-0.070805445 -0.16627198 0.07699943 -0.19357109 0.029909303 -0.02441556 -0.033804078 0.110778935
-0.15964767 -0.16871345 0.06510685 -0.11367718 0.06813114 0.028189635 -0.07360398 -0.014112688
-0.021123689 0.0925267 0.14147514 -0.14632632 0.05987757 0.121004365 0.08037129 -0.09556463
-0.019258766 0.2042022 -0.024638401 -0.14429037 0.04580122 0.10457732 0.054760464 0.1873148
0.0886134 -0.037547447 -0.03752179 0.05721214 -0.08445412 -0.32998326 -0.07544476 -0.1074883
0.041928217 0.04392406 -0.028101927 -0.1716326 -0.09060929 -0.08198828 -0.062360387 -0.008638866
-0.078139536 -0.024606256 -0.06409583 -0.114468314 -0.06508011 -0.10889927 -0.049235404 0.094389446
-0.12805907 0.02486548 0.046146125 0.020445704 0.0770702 -0.070325814 -0.1355828 0.18498495
0.20844215 0.06991377 0.072613746 0.0030432246 0.1303644 0.0020972409 -0.121233605 0.10662901
0.08280778 -0.016972871 0.07175019 0.14328657 0.07877133 -0.0025183992 -0.12285811 -0.15037404
-0.15825175 0.06484807 0.3322657 0.030760191 -0.054040622 0.05217661 -0.033331085 -0.09184294
0.15488368 -0.12159189 0.022096446 -0.1124958 0.12356318 0.13292517 -0.056587376 -0.052018233
-0.21504581 0.30491272 0.13954099 -0.043713387 0.12963037 0.12287633 -0.055690095 -0.101652555
-0.0060744225 -0.07681591 0.050284907 0.16183665 0.09911943 -0.04875315 0.18023175 -0.08165912
0.010840072 -0.033106882 -0.09149457 -0.05305852 -0.024138926 0.01330577 0.047786087 0.15368715
-0.27347592 -0.15464179 -0.10974854 0.11084351 -0.13559727 0.078908056 0.01086694 0.11744772
0.03512782 -0.0653878 0.08684628 0.15880252 0.021265341 -0.0730713 0.03578265 0.15914053
-0.18989003 -0.13766322 0.0594174 0.03576829 0.08130642 -0.052492786 0.005547538 0.090243645
0.026914768 -0.10063297 -0.10681604 -0.10961143 -0.062541746 0.071619354 0.15145506 -0.10147674
-0.33172545 0.040598657 0.08740044 -0.12216963 0.12586626 0.070033416 -0.14792109 0.06932746
0.013222312 0.005437727 -0.12614478 0.11007329 -0.18821062 -0.044037834 0.06455969 -0.14488854
0.08794093 0.1871299 0.058231052 0.23175767 0.15393691 0.11279873 -0.05411293 0.070789784
0.4441519 0.04943989 -0.023478307 -0.1053745 0.16377833 0.15754762 -0.021051873 0.011883253
-0.055014037 -0.2168997 -0.016069502 0.08731732 -0.15987588 -0.047017056 -0.022961583 -0.07137746
-0.24997494 0.003341083 -0.087202 0.0760017 -0.0065154713 -0.24685211 -0.08061453 0.059340846
-0.0131606385 0.09506955 0.03749614 0.15191096 0.021726381 0.16786128 -0.02820846 0.11033412
0.0047753807 -0.021614831 -0.03133945 -0.09857705 0.06523984 -0.00877866 0.15710935 0.09772483
-0.04463788 -0.17526704 -0.14993887 -0.033747513 0.047336254 0.11170894 0.11774395 0.0014256097
0.06886823 0.2606568 -0.13863494 -0.0051522036 0.04612343 -0.09613709 -0.005997151 0.32315975
-0.16439113 0.031301826 0.0028375809 0.23403703 0.05931848 0.015921656 -0.0022809037 -0.056774005
00000000: 98f8 40bd 6bd7 863d fb6f 0cbc f0f3 36bc
00000010: 68e7 383d d53f 2d3e c06d f1bd 8db2 37ba
00000020: f7d8 13bc 45bd 393e 2bd7 843c 71b2 783c
00000030: 6631 d13d 3059 253e 7d95 87bd 84e0 1fbe
00000040: 7202 91bd 3443 2abe e1b1 9d3d 8037 46be
00000050: 5b04 f53c 2403 c8bc 2576 0abd 11e0 e23d
00000060: ae7a 23be 38c3 2cbe bd56 853d 95cf e8bd
00000070: 5788 8b3d f3ed e63c afbd 96bd e738 67bc
00000080: 960b adbc a37e bd3d dcde 103e 91d6 15be
00000090: 2f42 753d 23d1 f73d b499 a43d 64b7 c3bd
000000a0: 8fc4 9dbc 621a 513e 79d6 c9bc dbc0 13be
000000b0: 0f9a 3b3d a22c d63d 824c 603d 73cf 3f3e
000000c0: f17a b53d 5acb 19bd 73b0 19bd 4757 6a3d
000000d0: 48f6 acbd 91f3 a8be c882 9abd d322 dcbd
000000e0: ecbc 2b3d b7e9 333d 0336 e6bc 75c0 2fbe
000000f0: 5d91 b9bd 79e9 a7bd 9b6d 7fbd 088a 0dbc
00000100: 9f07 a0bd 0f93 c9bc ad44 83bd 5d6e eabd
00000110: b948 85bd 9506 dfbd 10ab 49bd 414f c13d
00000120: eb21 03be b1b2 cb3c b803 3d3d c07d a73c
00000130: fbd6 9d3d fb06 90bd 38d6 0abe b26c 3d3e
00000140: dc71 553e f32e 8f3d 84b6 943d d670 473b
00000150: 3f7e 053e dd71 093b 5349 f8bd 4f60 da3d
00000160: 2097 a93d b10a 8bbc c3f1 923d b7b9 123e
00000170: dd52 a13d ba0b 25bb 089d fbbd a7fb 19be
00000180: bf0c 22be 11cf 843d bb1e aa3e ccfc fb3c
00000190: b359 5dbd 24b7 553d 2d86 08bd 2718 bcbd
000001a0: d499 1e3e 2b05 f9bd 9b03 b53c 3364 e6bd
000001b0: b10e fd3d 891d 083e 2ac8 67bd 1211 55bd
000001c0: f834 5cbe 851d 9c3e d5e3 0e3e cf0c 33bd
000001d0: d3bd 043e 96a6 fb3d 4c1b 64bd 372f d0bd
000001e0: f30b c7bb a951 9dbd 8cf7 4d3d 82b8 253e
000001f0: 21ff ca3d 62b1 47bd ac8e 383e e63c a7bd
00000200: 8f9a 313c 159b 07bd 8161 bbbd e453 59bd
00000210: ffbe c5bc 7200 5a3c 58bb 433d 2a60 1d3e
00000220: 0905 8cbe 6b5a 1ebe d8c3 e0bd ec01 e33d
00000230: 03da 0abe 8c9a a13d 400b 323c 6e88 f03d
00000240: 30e2 0f3d 0aea 85bd 76dc b13d 219d 223e
00000250: a734 ae3c 68a6 95bd d490 123d bcf5 223e
00000260: 8872 42be 96f7 0cbe a95f 733d c581 123d
00000270: fb83 a63d ad02 57bd 1fc8 b53b a9d1 b83d
00000280: 5c7c dc3c a918 cebd 5ec2 dabd f57b e0bd
00000290: e315 80bd 2bad 923d 0917 1b3e 09d3 cfbd
000002a0: ebd7 a9be c74a 263d 00ff b23d 1234 fabd
000002b0: 16e3 003e ae6d 8f3d a078 17be 8efb 8d3d
000002c0: 65a2 583c f62e b23b 192c 01be 1b6e e13d
000002d0: 49ba 40be 0461 34bd df37 843d a95d 14be
000002e0: 601a b43d fb9e 3f3e af83 6e3d e251 6d3e
000002f0: a3a1 1d3e 0503 e73d 85a5 5dbd 3cfa 903d
00000300: e167 e33e 7b81 4a3d 9455 c0bc 96ce d7bd
00000310: 82b5 273e 2a54 213e fa74 acbc fab1 423c
00000320: 6656 61bd f41a 5ebe 30a4 83bc 6cd3 b23d
00000330: 81b6 23be f594 40bd ee19 bcbc 592e 92bd
00000340: 6ef9 7fbe 12f6 5a3b f696 b2bd c7a6 9b3d
00000350: bc7f d5bb cdc6 7cbe 3b19 a5bd 630f 733d
00000360: b89f 57bc d3b3 c23d 8d95 193d 8c8e 1b3e
00000370: 86fb b13c d4e3 2b3e 6e15 e7bc dbf6 e13d
00000380: cc7a 9c3b 9611 b1bc cc5d 00bd c4e2 c9bd
00000390: 779c 853d 5ed4 0fbc 46e1 203e f523 c83d
000003a0: 36d6 36bd 3479 33be 9389 19be d53a 0abd
000003b0: a9e3 413d a8c7 e43d bd23 f13d 86db ba3a
000003c0: c90a 8d3d cf74 853e 51f6 0dbe d1d3 a8bb
000003d0: eceb 3c3d 86e3 c4bd c083 c4bb 3275 a53e
000003e0: 2656 28be 5836 003d b5f6 393b 67a7 6f3e
000003f0: eff7 723d 226e 823c 377b 15bb dc8b 68bd

network_body._body_endoder.seq_layers.0.bias f4 [128]
0.00065513904 0.017357122 0.006095541 -0.013569814 -5.446969e-05 0.011508507 -0.012866569 0.025812125
0.01268228 -0.0014661596 0.0084832385 0.040313136 -0.009547635 0.034984216 0.018458916 0.020584699
-0.0041382713 -0.005744859 -0.0014692585 0.00302916 0.02584065 0.026742583 0.029608341 -0.015605369
0.034228183 0.022124836 0.026596284 0.024492528 0.038075298 -0.021200111 -0.0012612761 0.013425628
0.002133387 -0.00029198447 -0.0049109217 0.022010477 -0.012998191 0.015159369 0.020145401 -0.011715361
0.02163297 0.019226799 0.010741908 -0.0010327611 0.017273784 0.03220991 0.01173338 0.027790409
0.030318579 0.01874317 0.022419287 0.052682284 0.004683681 0.015367762 0.010383138 0.037846807
0.028974567 0.028504377 -0.0039775334 -0.01579265 0.010817128 0.01325044 0.031409733 0.01592337
0.001371877 0.022102712 0.028923508 0.015574116 0.0204218 0.019653082 0.030364418 0.0017100893
-0.0349673 0.0024768459 -0.016232077 0.03584878 0.0036069949 0.03498618 0.012494343 0.022510733
-0.012801242 0.027531108 0.025969982 -0.0041646976 -0.0067989593 0.033563975 0.007961601 -0.007965255
0.018941194 -0.0036441274 0.030825602 0.026270805 -0.017382093 -0.019382222 0.049171913 -0.019315036
0.029513504 0.0059046326 0.010835776 0.042954363 0.020955965 0.027531883 0.005300788 0.0042249663
0.037769396 -0.020679181 0.017683564 0.022930922 -0.010143693 0.0031873204 -0.017933669 0.03206192
0.015539542 -0.00036891078 0.0008514336 0.0067615677 0.0058397967 -0.063444495 0.03945312 0.022718765
0.011057911 -0.023744637 0.02144244 -0.019151045 0.015635667 -0.019477148 0.01182238 0.010288174
00000000: a3bd 2b3a 8630 8e3c 1bbd c73b ed53 5ebc
00000010: 6276 64b8 2d8e 3c3c 4dce 52bc f373 d33c
00000020: 56c9 4f3c 272c c0ba 48fd 0a3c 631f 253d
00000030: af6d 1cbc 9c4b 0f3d 2737 973c 3ea1 a83c
00000040: 569a 87bb 5f3f bcbb 2294 c0ba df84 463b
00000050: c5af d33c 4313 db3c 318d f23c a9ad 7fbc
00000060: da32 0c3d 253f b53c 73e0 d93c 8ea4 c83c
00000070: d8f4 1b3d dbab adbc 6751 a5ba 2af7 5b3c
00000080: 4bd0 0b3b 7e15 99b9 cceb a0bb 514f b43c
00000090: 5df6 54bc 015f 783c f807 a53c c9f1 3fbc
000000a0: a037 b13c 8581 9d3c d4fe 2f3c b65d 87ba
000000b0: c081 8d3c 8aee 033d 5d3d 403c b6a8 e33c
000000c0: ab5e f83c 478b 993c a7a8 b73c 61c9 573d
000000d0: 9079 993b 11c9 7b3c 0a1e 2a3c 4105 1b3d
000000e0: 125c ed3c 0382 e93c f855 82bb 965f 81bc
000000f0: 533a 313c 6018 593c 7ea7 003d ba71 823c
00000100: 8ed0 b33a bf10 b53c fef0 ec3c 942a 7f3c
00000110: 9e4b a73c 80ff a03c cdbe f83c 1325 e03a
00000120: df39 0fbd 9452 223b 22f9 84bc 2cd6 123d
00000130: 5563 6c3b ab4d 0f3d 13b5 4c3c 6e68 b83c
00000140: 4dbc 51bc eb88 e13c 00bf d43c 0478 88bb
00000150: cec9 debb 617a 093d 6071 023c b380 02bc
00000160: 902a 9b3c 50d2 6ebb f985 fc3c df35 d73c
00000170: e464 8ebc 77c7 9ebc 7d68 493d 913a 9ebc
00000180: 4ec6 f13c a67b c13b 8a88 313c eaf0 2f3d
00000190: d8ab ab3c 8b8a e13c 3cb2 ad3b 9671 8a3b
000001a0: 15b4 1a3d 6367 a9bc 1fdd 903c a1d9 bb3c
000001b0: bb31 26bc 5de2 503b a1e9 92bc 5c53 033d
000001c0: 9099 7e3c 5e6a c1b9 be32 5f3a 2490 dd3b
000001d0: c45b bf3b 30ef 81bd 9899 213d b41c ba3c
000001e0: 3e2c 353c 1d84 c2bc 0ea8 af3c a7e2 9cbc
000001f0: 5f16 803c 8a8e 9fbc a8b2 413c bb8f 283c

network_body._body_endoder.seq_layers.2.weight f4 [128, 128]
-0.14213656 -0.2005708 0.060417656 -0.044412624 0.06457795 -0.01916551 -0.055626653 0.06635311
0.05656839 -0.06332319 -0.0016497453 -0.123545095 0.009786374 0.1715198 -0.072717234 -0.23718913
0.049781974 -0.02295332 0.15912445 -0.14421745 0.054092195 -0.04602509 -0.27738294 0.12574756
0.09339289 0.12937054 0.07751496 -0.09802098 -0.12812854 -0.096651874 -0.09072763 -0.046536706
0.020923655 -0.13718665 -0.16911978 0.29856932 0.028988753 0.11994171 -0.12928632 0.12290388
0.03267508 0.05162284 -0.04329377 -0.08728168 0.17293333 0.14332876 0.027082399 0.112854786
0.010386765 0.06708061 0.04123036 -0.30110824 0.16756275 0.25973263 0.15797412 0.21417485
-0.18512218 -0.16985916 0.026241098 -0.019764759 0.015034902 0.07130291 0.0036105723 -0.020100528
0.014799676 0.030124689 0.05088887 -0.010205658 -0.05624352 -0.013268149 -0.12238968 -0.10204553
-0.13245526 0.048428174 -0.21472721 0.030909156 -0.00779393 -0.03861917 -0.13192868 -0.0606439
-0.052684847 -0.06763353 0.24846707 -0.11227458 -0.039314106 -0.0047146864 0.0934967 -0.02305274
-0.18831384 -0.03492026 -0.11189584 0.017400954 -0.11992177 -0.03085514 -0.01412506 0.014899899
0.024779046 0.10183579 -0.09670292 -0.045142464 0.13812704 0.33255965 -0.18469742 -0.120591074
-0.08660261 0.03390856 -0.026816607 0.16273922 -0.07265805 -0.13285013 -0.053822506 -0.015142882
-0.1225525 0.02758214 -0.053556927 -0.0315218 -0.08408532 -0.020167597 -0.11531062 0.11565426
-0.049439125 -0.011757172 -0.10318198 -0.24412248 -0.017210228 -0.04190724 -0.13061613 0.07547798
-0.04803046 0.0187874 -0.039423168 0.08184528 -0.08309878 -0.06796548 0.028746018 -0.0072379946
0.075568885 0.074088305 -0.32489792 0.18677512 -0.05256069 0.009294024 0.023919236 -0.07311266
0.038341384 -0.10605902 -0.07993137 0.013323025 0.09012155 -0.04573008 0.04954678 -0.07943861
0.10909702 -0.09948619 0.081677 -0.0058340733 0.09322072 -0.013325033 -0.089931585 0.09443854
0.09612969 -0.15884194 -0.077761315 0.0189078 -0.14281707 -0.013939348 -0.06907744 0.057657886
0.039784074 -0.009860295 -0.14507237 0.09274187 0.016188491 -0.038335 0.027276007 0.00926119
-0.022909712 0.028343366 0.06805688 -0.039126918 0.13806719 0.024105636 0.041770343 -0.09889108
-0.009119892 -0.052736286 0.06309316 -0.042910196 0.055964805 -0.027172007 -0.02706831 -0.034832824
-0.036747787 -0.1377764 0.009077383 -0.11551769 0.02322229 -0.107624635 0.025262529 -0.12845485
0.0521683 -0.06941401 0.014324532 0.07456247 -0.09716325 -0.009190213 -0.15887706 0.11757336
-0.056665383 0.09315419 -0.020545045 -0.023855746 -0.046428 0.09587589 -0.04394625 0.06301982
0.06361534 -0.07823834 -0.08368685 -0.1423782 0.13722801 -0.108732566 -0.016835997 0.04626942
-0.0027877998 0.1158973 0.02785232 0.0148541685 0.008873054 0.011273897 0.0650811 -0.16969742
0.089818716 0.039052468 0.022300756 -0.08532801 0.13771138 0.015334875 0.082885414 -0.2246219
-0.0042541046 0.19727375 -0.006550911 0.051804207 0.18770237 -0.092659414 -0.127167 0.05482349
0.095001444 -0.15300584 -0.022896575 0.1161539 0.06950963 -0.11612848 -0.004393277 0.12920316
00000000: 3f8c 11be 6f62 4dbe 8178 773d 03ea 35bd
00000010: 7241 843d fd00 9dbc c6d8 63bd 24e4 873d
00000020: 42b4 673d 97af 81bd 443c d8ba 3605 fdbd
00000030: 0757 203c e3a2 2f3e c6ec 94bd b5e1 72be
00000040: 2fe8 4b3d 9a08 bcbc 85f1 223e bdad 13be
00000050: c78f 5d3d ce84 3cbd 2305 8ebe f8c3 003e
00000060: c644 bf3d b679 043e 2ac0 9e3d 39bf c8bd
00000070: 2134 03be 6bf1 c5bd 68cf b9bd 469d 3ebd
00000080: 1668 ab3c a87a 0cbe bc2d 2dbe 14de 983e
00000090: d279 ed3c 00a4 f53d a263 04be 08b5 fb3d
000000a0: 4ed6 053d 7972 533d cf54 31bd bdc0 b2bd
000000b0: 6f15 313e c6c4 123e e8db dd3c 6920 e73d
000000c0: 402d 2a3c 8f61 893d 2ae1 283d dc2a 9abe
000000d0: 9295 2b3e adfb 843e f8c3 213e a750 5b3e
000000e0: ab90 3dbe 8fef 2dbe 92f7 d63c b4e9 a1bc
000000f0: f354 763c 4307 923d 5a9f 6c3b dda9 a4bc
00000100: 577a 723c 0dc8 f63c d970 503d a235 27bc
00000110: 9b5f 66bd a762 59bc 71a7 fabd 3ffd d0bd
00000120: 5aa2 07be 9f5c 463d 73e1 5bbe 3335 fd3c
00000130: 3964 ffbb 232f 1ebd 5018 07be bd65 78bd
00000140: 11cc 57bd 7383 8abd 276e 7e3e 37f0 e5bd
00000150: d407 21bd a87d 9abb 337b bf3d 1ad9 bcbc
00000160: 58d5 40be 8c08 0fbd a529 e5bd 728c 8e3c
00000170: 8c99 f5bd ebc3 fcbc cc6c 67bc b51e 743c
00000180: 6dfd ca3c 488f d03d 2e0c c6bd 4ee7 38bd
00000190: 2d71 0d3e 4245 aa3e 5221 3dbe 74f8 f6bd
000001a0: b65c b1bd b4e3 0a3d 80ae dbbc 1ca5 263e
000001b0: becd 94bd dd09 08be fd74 5cbd da19 78bc
000001c0: cefc fabd f1f3 e13c 825e 5bbd 011d 01bd
000001d0: ed34 acbd 8436 a5bc f927 ecbd 24dc ec3d
000001e0: ae80 4abd 27a1 40bc 1351 d3bd 3efb 79be
000001f0: 77fc 8cbc eda6 2bbd 3cc0 05be 3394 9a3d
00000200: 96bb 44bd 09e8 993c 307a 21bd 809e a73d
00000210: b12f aabd 7c31 8bbd c57c eb3c b32c edbb
00000220: dcc3 9a3d 9cbb 973d 0559 a6be fa41 3f3e
00000230: e149 57bd f645 183c 46f2 c33c 17bc 95bd
00000240: db0b 1d3d 7935 d9bd 0fb3 a3bd d148 5a3c
00000250: a691 b83d 774f 3bbd 90f1 4a3d b6b0 a2bd
00000260: 426e df3d 6abf cbbd 4546 a73d c12b bfbb
00000270: 81ea be3d 3d51 5abc 0d2e b8bd fe68 c13d
00000280: a5df c43d 76a7 22be 5341 9fbd 88e4 9a3c
00000290: a33e 12be dd61 64bc 7978 8dbd ad2a 6c3d
000002a0: a0f4 223d 138d 21bc da8d 14be 73ef bd3d
000002b0: ba9d 843c 2905 1dbd ef71 df3c 3fbc 173c
000002c0: 26ad bbbc 5930 e83c 6861 8b3d 8c43 20bd
000002d0: 7c61 0d3e 2f79 c53c 6117 2b3d 6887 cabd
000002e0: 996b 15bc 0102 58bd fd36 813d 9ac2 2fbd
000002f0: 5a3b 653d d497 debc 5cbe ddbc ddac 0ebd
00000300: d984 16bd 4215 0dbe 4eb9 143c 8a94 ecbd
00000310: ac3c be3c 4e6a dcbd 5df3 ce3c ab89 03be
00000320: 6dae 553d ef28 8ebd 71b1 6a3c 35b4 983d
00000330: 87fd c6bd 8c92 16bc abb0 22be 4dca f03d
00000340: f619 68bd a0c7 be3d 154e a8bc 206d c3bc
00000350: 492b 3ebd 945a c43d fc00 34bd 8910 813d
00000360: c248 823d 6c3b a0bd 0364 abbd 97cb 11be
00000370: 8085 0c3e 2eaf debd a5eb 89bc 0185 3d3d
00000380: 85b3 36bb 905b ed3d 8c2a e43c e65e 733c
00000390: 4960 113c 27b6 383c 3d49 853d 29c5 2dbe
000003a0: e0f2 b73d 7bf5 1f3d 13b0 b63c 74c0 aebd
000003b0: 3604 0d3e 213f 7b3c d4bf a93d 4903 66be
000003c0: 0466 8bbb 2102 4a3e 06a9 d6bb a630 543d
000003d0: 0d35 403e 38c4 bdbd 1138 02be 998e 603d
000003e0: 1e90 c23d 90ad 1cbe 9991 bbbc 19e2 ed3d
000003f0: 115b 8e3d c5d4 edbd 7bf5 8fbb d54d 043e

network_body._body_endoder.seq_layers.2.bias f4 [128]
0.041336708 0.007840236 -0.0142709445 -0.0013320489 0.028925683 0.01144201 -0.017962424 -0.00218156
-0.0036771484 0.016118523 0.036306523 0.00826664 0.0024518613 0.015885336 0.021094624 0.0009526325
0.0092686415 -0.0039185057 0.02125024 0.03615161 -0.0019814053 0.0007036073 0.03140252 0.020131545
0.027502801 0.03481297 0.01235499 0.0012819612 0.023173146 0.01040663 0.028079009 0.047961116
-0.00012082355 0.031681202 -0.019624734 0.024017766 0.017331816 0.014716883 0.0064683394 -0.0033318496
0.023194842 -0.001731345 0.008053503 0.019056361 0.04115609 0.0270343 0.03235188 0.0108327875
0.020285249 0.010806205 0.02577901 0.010905039 0.01244247 0.0009731291 0.016098084 0.0050929477
0.026719047 0.00223921 -0.010343298 0.017108124 0.008129703 -0.0010094907 -0.005157227 0.04298
-0.0012450184 0.01806762 0.013715815 0.026377695 0.024750244 0.0080538895 -0.00030301782 -0.001835235
0.0033380846 -0.016608639 0.03900463 0.042276703 0.03258308 0.02813641 -0.014154804 0.014501747
0.039448615 0.020093884 0.028288353 0.04998807 0.036036372 -0.009394488 0.0024062963 0.018979156
0.030410795 0.024530228 0.0037769396 0.01933909 0.027842179 0.0028162897 0.0070259776 0.023229485
0.028906832 -0.0021216925 0.01327446 -0.008626949 0.005872216 0.025856955 0.025778377 0.0128547
0.0066607567 0.03512727 -0.002154967 0.03742672 -0.01575543 0.023813894 0.0074186753 0.009129651
0.015404356 0.029992899 0.010714009 0.009077525 0.012499314 -0.0008844468 -0.015232304 0.014464268
-0.013342139 0.01293397 -0.018398589 -0.0002102894 0.027359203 -0.0129502835 0.017195916 0.019657305
00000000: ae50 293d 5574 003c aed0 69bc 2598 aeba
00000010: 8ef5 ec3c 4577 3b3c ef25 93bc 81f8 0ebb
00000020: 50fc 70bb fe0a 843c 26b6 143d cd70 073c
00000030: 68af 203b f721 823c a2ce ac3c 16ba 793a
00000040: 80db 173c cf66 80bb fc14 ae3c b613 143d
00000050: 77da 01bb 4972 383a ee9f 003d e9ea a43c
00000060: 8e4d e13c 0b98 0e3d 956c 4a3c 7b07 a83a
00000070: 9cd5 bd3c 9280 2a3c f305 e63c e072 443d
00000080: a662 fdb8 26c4 013d 0dc4 a0bc e8c0 c43c
00000090: 74fb 8d3c 151f 713c 5df4 d33b 295b 5abb
000000a0: 1c03 be3c 4cee e2ba d7f2 033c 161c 9c3c
000000b0: 4a93 283d 0977 dd3c 6883 043d 017c 313c
000000c0: 402d a63c 820c 313c 812e d33c 0cab 323c
000000d0: 80db 4b3c 9719 7f3a 21e0 833c bee2 a63b
000000e0: e7e1 da3c b6bf 123b f076 29bc 5626 8c3c
000000f0: 7232 053c e350 84ba f5fd a8bb cc0b 303d
00000100: e32f a3ba 8c02 943c 4cb8 603c 0916 d83c
00000110: 06c1 ca3c 76f4 033c 5dde 9eb9 458c f0ba
00000120: c4c3 5a3b d70e 88bc 52c3 1f3d 562a 2d3d
00000130: d675 053d 547e e63c 8de9 67bc bc98 6d3c
00000140: df94 213d ee9b a43c fabc e73c 4ac0 4c3d
00000150: e09a 133d 57eb 19bc f4b2 1d3b 2d7a 9b3c
00000160: 0f20 f93c 9ef3 c83c 8886 773b 036d 9e3c
00000170: 4815 e43c 8091 383b 2c3a e63b c34b be3c
00000180: 05ce ec3c 180c 0bbb 1f7d 593c 0c58 0dbc
00000190: b86b c03b f7d1 d33c 2d2d d33c 859c 523c
000001a0: 7a42 da3b 9de1 0f3d 593a 0dbb c34c 193d
000001b0: 8811 81bc 5b15 c33c 5c18 f33b 8894 153c
000001c0: 8d62 7c3c abb3 f53c d089 2f3c e6b9 143c
000001d0: ecc9 4c3c 38da 67ba ea90 79bc 8afb 6c3c
000001e0: fd98 5abc 01e9 533c a3b8 96bc 2281 5cb9
000001f0: 6820 e03c 6d2d 54bc 73de 8c3c 5b08 a13c

action_model._continuous_distribution.log_sigma f4 [1, 2]
0.065453686 0.12021595
00000000: 950c 863d c833 f63d

action_model._continuous_distribution.mu.weight f4 [2, 128]
0.08821045 0.008912956 0.030454136 0.065691166 -0.02328927 0.08515547 0.00529749 0.029469652
0.020301979 0.051495504 -0.013989684 0.03883508 0.012873566 -0.015232567 0.05501218 -0.012125202
0.017305577 0.031521548 -0.019386606 -0.029763836 0.025636842 0.016478773 0.06353637 0.0007954748
-0.038104676 -0.00912367 0.054937355 0.046321653 -0.04026845 -0.012957775 0.08233347 -0.048513472
0.0070928964 -0.043336175 0.024118138 0.0035916753 -0.034330867 0.004991835 0.032589592 0.055135585
-0.052439544 0.029539183 -0.0047683693 -0.016907068 -0.05973473 0.068503164 -0.024606137 0.06518444
-0.02604615 0.04338486 -0.04373762 -0.013694381 -0.0007130334 0.0014191567 0.019983822 0.017583007
-0.028292572 0.04614076 0.017868772 0.065712415 0.033050045 -0.0072741252 0.014073948 -0.044363894
0.06571355 -0.018576296 0.0032173574 -0.00088321074 0.06760658 0.05376692 -0.019884294 0.045605738
0.050297026 0.02627284 -0.0372873 -0.02340841 -0.05300163 -0.04215357 0.040057313 0.05040121
0.010446662 -0.018035084 0.033096217 -0.08224817 -0.017391847 0.054275833 -0.013240975 -0.041266527
-0.038870547 0.017257756 -0.0132411625 0.0068493187 -0.047914304 0.051780052 -0.016289143 -0.025113108
-0.03405246 -0.005324681 0.0025919203 0.00017191097 0.029067341 -0.036970973 -0.008577548 0.11306359
-0.0149371205 -0.022426518 0.029555041 -0.03182985 0.034912143 -0.056181982 0.06027077 0.027836246
-0.037727866 -0.029099554 0.077421196 0.00021854571 0.057670847 0.025844397 0.027260037 -0.015719015
0.07228826 0.08195227 -0.0047809337 0.028746413 -0.00977551 0.035526607 -0.056722794 0.0026070736
-0.0067472546 0.017972207 -0.010886662 0.025893979 0.035166778 0.06752518 -0.0094430195 -0.06459826
0.006347706 -0.039913476 0.04725798 -0.019097606 0.007909068 -0.0064333915 -0.08278648 -0.04234362
0.07606075 0.013079711 0.017731413 0.025682166 -0.05951019 -0.05448421 0.024994588 -0.082318805
0.00970718 -0.074822664 0.06277169 -0.03431778 -0.026823152 0.007626989 0.032027416 0.048203122
-0.03626318 0.032086257 -0.000806596 -0.16207336 -0.02078527 0.024807781 0.021876214 -0.022812054
-0.005234524 -0.034764547 0.004389974 0.033399135 0.025994834 -0.0010324266 -0.054700658 -0.022750823
-0.006663938 -0.034681626 0.0461359 -0.00454564 -0.031130442 -0.023313478 0.094502546 -0.060557686
0.03423169 -0.041233405 -0.000333342 -0.04749274 0.03749728 -0.045824204 -0.040654205 -0.0041044215
0.0054560094 0.008802019 -0.0017506552 0.02100818 0.033125255 0.008743772 -0.0019733442 -0.069225654
0.021574583 -0.00429941 0.04779701 0.06578012 0.010257082 -0.005122749 -3.026845e-05 -0.024744377
-0.076212026 0.0013375364 -0.09988334 -0.034250554 0.03880737 -0.018834772 -0.0006398632 -0.002339897
-0.01584153 -0.10755717 -0.0010020942 0.04615613 0.060251854 0.012032236 -0.028918128 0.011685781
-0.007713333 -0.011417878 0.015514965 0.012878635 0.058078334 0.0076123397 0.008969697 -0.0014513966
-0.03715467 0.04689095 -0.038829654 0.015708033 -0.020038184 -0.031735845 0.05705219 -0.035947513
-0.0010448587 -0.0100538805 -0.06050568 -0.040109538 -0.017220948 0.012184983 -0.03474133 0.0076404517
-0.00729985 -0.015271036 -0.02246418 0.011706927 0.045033958 4.3606524e-05 -0.02458875 0.04478489
00000000: aea7 b43d a607 123c f47a f93c 1789 863d
00000010: 24c9 bebc fe65 ae3d 9196 ad3b 576a f13c
00000020: 5650 a63c f3ec 523d fd34 65bc 8811 1f3d
00000030: a6eb 523c 0492 79bc 7454 613d c9a8 46bc
00000040: 6dc4 8d3c bd1c 013d a9d0 9ebc 4ad3 f3bc
00000050: 5b04 d23c 7efe 863c 5b1f 823d 6987 503a
00000060: a613 1cbd 727b 15bc fe05 613d c6bb 3d3d
00000070: 88f0 24bd d94c 54bc 739e a83d 10b6 46bd
00000080: 876b e83b 4681 31bd 6793 c53c 5062 6b3b
00000090: 869e 0cbd 8c92 a33b aa7c 053d dad5 613d
000000a0: d9ca 56bd 28fc f13c fb3f 9cbb b180 8abc
000000b0: 67ac 74bd 634b 8c3d cf92 c9bc 6b7f 853d
000000c0: bc5e d5bc 53b4 313d 3826 33bd 665e 60bc
000000d0: ddea 3aba ff02 ba3a 1db5 a33c 3d0a 903c
000000e0: d3c5 e7bc 18fe 3c3d 8861 923c 3b94 863d
000000f0: 7c5f 073d c95b eebb 6b96 663c eab6 35bd
00000100: d394 863d 512d 98bc 4dda 523b 4587 67ba
00000110: 5275 8a3d b43a 5c3d 63e4 a2bc 15cd 3a3d
00000120: 4104 4e3d 243a d73c 91ba 18bd fec2 bfbc
00000130: 3d18 59bd 39a9 2cbd 2313 243d 8071 4e3d
00000140: 7a28 2b3c 50be 93bc e68f 073d bb71 a8bd
00000150: 5979 8ebc 5650 5e3d adf0 58bc 1707 29bd
00000160: b936 1fbd 2360 8d3c 76f1 58bc 4070 e03b
00000170: ca41 44bd 5217 543d cf70 85bc 01ba cdbc
00000180: 987a 0bbd a97a aebb 35dd 293b 0043 3439
00000190: a21e ee3c e06e 17bd d888 0cbc e28d e73d
000001a0: d3ba 74bc d1b7 b7bc 6a1d f23c 0460 02bd
000001b0: 0900 0f3d 141f 66bd 7cde 763d d708 e43c
000001c0: 8988 1abd 3062 eebc 018f 9e3d 6b29 6539
000001d0: 4438 6c3d a1b7 d33c 7150 df3c 2ac5 80bc
000001e0: de0b 943d 97d6 a73d 61a9 9cbb 997d eb3c
000001f0: 7629 20bc 5984 113d 2956 68bd 70db 2a3b
00000200: 1318 ddbb 733a 933c f85d 32bc 9c1f d43c
00000210: 0a0b 103d a44a 8a3d e5b6 1abc 184c 84bd
00000220: 6b00 d03b 507c 23bd 9591 413d 9572 9cbc
00000230: 0995 013c 33cf d2bb f58b a9bd 8170 2dbd
00000240: bdc5 9b3d 494c 563c 7841 913c 6863 d23c
00000250: f5c0 73bd d62a 5fbd 73c1 cc3c c396 a8bd
00000260: dd0a 1f3c a03c 99bd 728e 803d cd90 0cbd
00000270: 3abc dbbc d2eb f93b 2e2f 033d a370 453d
00000280: b388 14bd e16c 033d be71 53ba 8ff6 25be
00000290: df45 aabc b039 cb3c bf35 b33c 58e0 babc
000002a0: 5f86 abbb 4565 0ebd c5d9 8f3b 88cd 083d
000002b0: 1ef3 d43c 7d52 87ba cc0d 60bd ef5f babc
000002c0: 2a5d dabb 520e 0ebd fff8 3c3d 98f3 94bb
000002d0: 4505 ffbc e8fb bebc 8d8a c13d 560b 78bd
000002e0: 8736 0c3d 5ce4 28bd 68c4 aeb9 bf87 42bd
000002f0: bf96 193d 29b2 3bbd 0685 26bd 627e 86bb
00000300: 53c8 b23b 5836 103c 3e76 e5ba 5919 ac3c
00000310: 59ae 073d 0a42 0f3c 3953 01bb 2ec6 8dbd
00000320: 2ebd b03c 11e2 8cbb ccc6 433d bab7 863d
00000330: 520d 283c bcdc a7bb 00e9 fdb7 b8b4 cabc
00000340: 0d15 9cbd 4650 af3a a38f ccbd 4f4a 0cbd
00000350: 7af4 1e3d 614b 9abc 7ebc 27ba f558 19bb
00000360: 19c6 81bc ef46 dcbd b458 83ba 360e 3d3d
00000370: a6ca 763d db22 453c b6e5 ecbc b875 3f3c
00000380: 20c0 fcbb 0d12 3bbc 7b32 7e3c e900 533c
00000390: 8ce3 6d3d ef70 f93b a3f5 123c ca3c beba
000003a0: 7f2f 18bd ba10 403d d80b 1fbd 22ae 803c
000003b0: 1e27 a4bc 72fd 01bd 8faf 693d b33d 13bd
000003c0: a4f3 88ba 08b9 24bc ced4 77bd e649 24bd
000003d0: f212 8dbc 86a3 473c ed4c 0ebd c15c fa3b
000003e0: 9533 efbb 5e33 7abc cd06 b8bc 69ce 3f3c
000003f0: 8775 383d 26e6 3638 596e c9bc 5c70 373d

action_model._continuous_distribution.mu.bias f4 [2]
-0.019980237 0.009218019
00000000: 98ad a3bc 2d07 173c

action_model._discrete_distribution.branches.0.weight f4 [1, 128]
-0.014053354 0.0016001182 -0.008880135 0.0072831954 0.008764206 -0.0022576908 -0.003694004 0.001080389
-0.012238569 -0.0013834389 -0.0042148293 0.0058276267 0.01020934 -0.010597656 0.0014250489 0.0055034007
-0.0052149333 -0.000851172 0.0041089645 0.02208474 -0.0011097668 0.003434344 -0.00033874385 0.008947025
-0.007113701 0.00051503273 -0.008385675 0.0036054298 0.008101477 0.019637277 0.0010500663 0.0060502933
0.0014255242 -0.003291615 0.00089411635 -0.0041042794 -0.00844775 -0.007835838 0.00576046 -0.0013055296
0.007891987 0.004191853 0.005758576 0.0145398425 0.00959026 0.0012126899 0.0025267277 -0.009910367
-0.009213987 0.006515955 0.010163671 0.0048525664 -0.0008618839 0.0063140835 0.01006014 0.011001099
-0.002703767 -0.004631647 0.002126953 -0.0012069508 -0.0032307212 0.001998705 0.0035091133 0.0035090477
-0.0013242725 -3.0205527e-05 -0.012284217 0.0045614163 0.00213609 0.0076579875 0.0010669734 -0.008693796
-0.0024532198 0.008141188 -0.0010303584 -0.013051282 -0.0025212923 0.0040566963 0.008404787 -0.0029832064
-0.016026298 -0.0027376418 0.010660449 0.012878035 0.0132607 0.013552561 -0.0016684001 0.0035231472
-0.0029618419 0.015466577 -0.013949913 -0.00703113 0.0030369512 0.0023190852 0.0038214605 0.0027639973
-0.0125729935 0.010718774 -0.000118464035 0.0054401136 0.0071588266 -0.010552463 -0.0014688933 0.01951853
-0.0027452845 -0.0032908346 0.010911684 0.007372909 0.008350625 -0.0005139756 -0.0034674895 -0.01236472
-0.012033812 -0.013256636 0.0029623893 -0.009578072 0.005837457 0.012929832 -0.00027406088 0.0039379913
-0.0022001679 -0.0013582795 0.007266011 0.00796474 -0.0008063607 0.004198765 -0.0049489383 0.008780176
00000000: 0a40 66bc 0fbb d13a fc7d 11bc dfa7 ee3b
00000010: bf97 0f3c c4f5 13bb 1a17 72bb d79b 8d3a
00000020: 4784 48bc 8254 b5ba 8d1c 8abb adf5 be3b
00000030: 1345 273c caa1 2dbc b5c8 ba3a df55 b43b
00000040: 08e2 aabb 3021 5fba 7ea4 863b 0feb b43c
00000050: 9875 91ba bb12 613b 6e99 b1b9 8b96 123c
00000060: 0d1a e9bb 4303 073a 1264 09bc 1349 6c3b
00000070: 0fbc 043c 5bde a03c 61a2 893a 8a41 c63b
00000080: a8d8 ba3a 23b8 57bb 2263 6a3a 317d 86bb
00000090: 6e68 0abc e361 00bc 3ec2 bc3b 4e1e abba
000000a0: 654d 013c d05b 893b 70b2 bc3b 8538 6e3c
000000b0: 7720 1d3c 1ff3 9e3a 7597 253b 185f 22bc
000000c0: 43f6 16bc cb83 d53b 8785 263c 4702 9f3b
000000d0: 0df0 61ba 5fe6 ce3b 49d3 243c f43d 343c
000000e0: af31 31bb 12c5 97bb 5a64 0b3b 8c32 9eba
000000f0: 82ba 53bb b5fc 023b 27f9 653b 0df8 653b
00000100: 3693 adba e061 fdb7 be43 49bc ef77 953b
00000110: a5fd 0b3b dbef fa3b b0d9 8b3a 6c70 0ebc
00000120: 33c6 20bb 9e62 053c 170d 87ba 0bd5 55bc
00000130: 443c 25bb 09ee 843b 3bb4 093c e681 43bb
00000140: 9549 83bc 026a 33bb 2aa9 2e3c 65fe 523c
00000150: 6843 593c 900b 5e3c 38ae daba 9ae4 663b
00000160: 761b 42bb 8767 7d3c 2d8e 64bc 6565 e6bb
00000170: 9607 473b cbfb 173b 7871 7a3b 2e24 353b
00000180: f5fe 4dbc cc9d 2f3c e56f f8b8 fb42 b23b
00000190: 9794 ea3b 3de4 2cbc e187 c0ba 53e5 9f3c
000001a0: 3bea 33bb 0bab 57bb ebc6 323c 7298 f13b
000001b0: 0fd1 083c 52bc 06ba d23e 63bb 6595 4abc
000001c0: 7729 45bc 5d32 59bc a524 423b 58ed 1cbc
000001d0: 2348 bf3b a5d7 533c d4af 8fb9 440a 813b
000001e0: b130 10bb 4c08 b2ba b817 ee3b 8a7e 023c
000001f0: f361 53ba cb95 893b b42a a2bb bada 0f3c

exp_avg f4 [128, 78]
1.091265e-05 1.091265e-05 1.091265e-05 1.3208381e-05 2.8564998e-06 1.087477e-05 -3.4198034e-05 -1.8276602e-05
-1.6917214e-05 -2.9736695e-05 -7.4870106e-05 4.796696e-06 -1.9162906e-05 -4.6869412e-05 1.3224105e-05 9.54682e-06
-1.0843152e-05 -4.14353e-06 0.0 2.7281422e-07 0.0 5.456325e-06 2.7281422e-07 -5.456325e-06
5.456325e-06 2.7281422e-07 5.456325e-06 -5.456325e-06 2.7281422e-07 5.456325e-06 -5.456325e-06 2.7281422e-07
-5.456325e-06 -3.6635673e-05 1.7014967e-05 -2.5907317e-05 4.9049282e-05 -3.95449e-06 1.053974e-05 1.1737731e-05
1.1737731e-05 1.1737731e-05 1.1983391e-05 6.7174906e-06 1.1777989e-05 -3.333149e-05 -1.6315664e-05 -1.748468e-05
-2.9697934e-05 -7.430623e-05 4.778459e-06 -1.8202694e-05 -4.6710516e-05 1.38938585e-05 1.15517705e-05 -9.400141e-06
-3.1737202e-06 0.0 2.9344181e-07 0.0 5.8688656e-06 2.9344181e-07 -5.8688656e-06 5.8688656e-06
2.9344181e-07 5.8688656e-06 -5.8688656e-06 2.9344181e-07 5.8688656e-06 -5.8688656e-06 2.9344181e-07 -5.8688656e-06
-3.771481e-05 1.4927242e-05 -2.6165239e-05 4.7459507e-05 -9.02673e-07 1.1703022e-05 -7.745413e-05 -7.745413e-05
-7.745413e-05 1.3926651e-05 7.0545735e-07 5.2396546e-05 -1.0180773e-05 3.0031856e-06 -1.6592583e-05 -6.5742744e-05
-0.00010035728 -2.8591756e-05 2.207546e-05 -3.9814357e-05 3.1040243e-05 -1.1866235e-05 4.3597473e-05 -1.8476585e-05
0.0 -1.9363524e-06 0.0 -3.8727067e-05 -1.9363524e-06 3.8727067e-05 -3.8727067e-05 -1.9363524e-06
-3.8727067e-05 3.8727067e-05 -1.9363524e-06 -3.8727067e-05 3.8727067e-05 -1.9363524e-06 3.8727067e-05 -0.00015600843
-2.363304e-05 -0.00013971975 -3.4835775e-06 -3.7150276e-05 -4.0412746e-05 -7.8551675e-05 -7.8551675e-05 -7.8551675e-05
1.1715874e-05 3.157164e-06 5.3764215e-05 -8.5392685e-06 1.334077e-05 -1.892935e-05 -6.512731e-05 -9.756713e-05
-2.7703212e-05 2.4345249e-05 -3.528389e-05 3.200613e-05 -9.517511e-06 4.3530094e-05 -1.7333625e-05 0.0
-1.963791e-06 0.0 -3.9275837e-05 -1.963791e-06 3.9275837e-05 -3.9275837e-05 -1.963791e-06 -3.9275837e-05
3.9275837e-05 -1.963791e-06 -3.9275837e-05 3.9275837e-05 -1.963791e-06 3.9275837e-05 -0.0001604092 -2.8522141e-05
-0.00014060941 -6.421795e-06 -3.375201e-05 -4.152325e-05 0.00019355287 0.00019355287 0.00019355287 -1.0200095e-05
8.3264094e-05 -9.666802e-05 4.1182015e-05 4.2272626e-05 2.444784e-05 0.00015536875 0.0002497702 6.0479444e-05
4.6354767e-06 8.9879766e-05 -4.53368e-05 -8.034278e-06 -9.929983e-05 3.4676377e-05 0.0 4.838812e-06
0.0 9.6776435e-05 4.838812e-06 -9.6776435e-05 9.6776435e-05 4.838812e-06 9.6776435e-05 -9.6776435e-05
4.838812e-06 9.6776435e-05 -9.6776435e-05 4.838812e-06 -9.6776435e-05 0.00033025187 8.744217e-05 0.00030389213
9.129083e-05 0.00011456404 9.7955504e-05 0.0001970839 0.0001970839 0.0001970839 -8.233132e-06 7.982015e-05
-9.498837e-05 4.0490024e-05 3.2583728e-05 3.4846955e-05 0.00015510966 0.00024393997 5.6462217e-05 6.8456725e-06
8.908543e-05 -4.9681865e-05 -1.8125082e-05 -0.00010031114 3.1758747e-05 0.0 4.9270852e-06 0.0
9.854195e-05 4.9270852e-06 -9.854195e-05 9.854195e-05 4.9270852e-06 9.854195e-05 -9.854195e-05 4.9270852e-06
9.854195e-05 -9.854195e-05 4.9270852e-06 -9.854195e-05 0.0003394817 0.00010032542 0.00030293042 0.00010046668
0.00010889407 0.00010249778 5.891988e-05 5.891988e-05 5.891988e-05 1.5109152e-05 -9.326811e-06 -2.4019088e-05
-2.0172363e-05 -7.060198e-05 -2.8374785e-05 -1.2882214e-05 -5.713179e-05 -1.1434803e-05 -1.9843412e-05 -7.6888515e-05
-8.4227e-06 1.264347e-05 5.1174385e-07 -7.836909e-08 0.0 1.4729941e-06 0.0 2.945994e-05
00000000: 7a15 3737 7a15 3737 7a15 3737 9099 5d37
00000010: 4bb2 3f36 c872 3637 dc6f 0fb8 b450 99b7
00000020: 71e9 8db7 1173 f9b7 9503 9db8 4ef3 a036
00000030: 07c0 a0b7 a695 44b8 19dd 5d37 482b 2037
00000040: fcea 35b7 a708 8bb6 0000 0000 4d77 9234
00000050: 0000 0000 7a15 b736 4d77 9234 7a15 b7b6
00000060: 7a15 b736 4d77 9234 7a15 b736 7a15 b7b6
00000070: 4d77 9234 7a15 b736 7a15 b7b6 4d77 9234
00000080: 7a15 b7b6 41a9 19b8 5dbb 8e37 8a53 d9b7
00000090: 44ba 4d38 cfb0 84b6 d7d3 3037 2ced 4437
000000a0: 2ced 4437 2ced 4437 460c 4937 ce66 e136
000000b0: 149a 4537 6acd 0bb8 9fdd 88b7 10ac 92b7
000000c0: d41f f9b7 dad4 9bb8 a656 a036 fdb1 98b7
000000d0: 09eb 43b8 ab19 6937 7ace 4137 4cb5 1db7
000000e0: 19fc 54b6 0000 0000 568a 9d34 0000 0000
000000f0: 2ced c436 568a 9d34 2ced c4b6 2ced c436
00000100: 568a 9d34 2ced c436 2ced c4b6 568a 9d34
00000110: 2ced c436 2ced c4b6 568a 9d34 2ced c4b6
00000120: f82f 1eb8 0470 7a37 6c7d dbb7 420f 4738
00000130: 374f 72b5 1958 4437 df6e a2b8 df6e a2b8
00000140: df6e a2b8 83a6 6937 a95e 3d35 5dc4 5b38
00000150: 16ce 2ab7 568a 4936 4d30 8bb7 5edf 89b8
00000160: e876 d2b8 54d8 efb7 b02e b937 57fe 26b8
00000170: 3531 0238 1715 47b7 6edc 3638 2afe 9ab7
00000180: 0000 0000 48f2 01b6 0000 0000 df6e 22b8
00000190: 48f2 01b6 df6e 2238 df6e 22b8 48f2 01b6
000001a0: df6e 22b8 df6e 2238 48f2 01b6 df6e 22b8
000001b0: df6e 2238 48f2 01b6 df6e 2238 3296 23b9
000001c0: 913f c6b7 bc81 12b9 68c7 69b6 ced1 1bb8
000001d0: db80 29b8 1cbc a4b8 1cbc a4b8 1cbc a4b8
000001e0: 4c8f 4437 aadf 5336 e380 6138 e143 0fb7
000001f0: 2cd2 5f37 78ca 9eb7 f594 88b8 f49c ccb8
00000200: 3264 e8b7 0639 cc37 cafd 13b8 523e 0638
00000210: 66ad 1fb7 1594 3638 ad67 91b7 0000 0000
00000220: acc9 03b6 0000 0000 1cbc 24b8 acc9 03b6
00000230: 1cbc 2438 1cbc 24b8 acc9 03b6 1cbc 24b8
00000240: 1cbc 2438 acc9 03b6 1cbc 24b8 1cbc 2438
00000250: acc9 03b6 1cbc 2438 8433 28b9 d542 efb7
00000260: 8d70 13b9 cd7a d7b6 f290 0db8 4029 2eb8
00000270: 74f4 4a39 74f4 4a39 74f4 4a39 1321 2bb7
00000280: 129e ae38 40ba cab8 daba 2c38 e34d 3138
00000290: 5615 cd37 7bea 2239 97f3 8239 4fab 7d38
000002a0: 718a 9b36 d57d bc38 0528 3eb8 f6ca 06b7
000002b0: 313f d0b8 7a71 1138 0000 0000 145d a236
000002c0: 0000 0000 74f4 ca38 145d a236 74f4 cab8
000002d0: 74f4 ca38 145d a236 74f4 ca38 74f4 cab8
000002e0: 145d a236 74f4 ca38 74f4 cab8 145d a236
000002f0: 74f4 cab8 a825 ad39 2861 b738 b653 9f39
00000300: 6473 bf38 1a42 f038 766d cd38 4ea8 4e39
00000310: 4ea8 4e39 4ea8 4e39 0821 0ab7 1e65 a738
00000320: 7e34 c7b8 d5d3 2938 83aa 0838 a228 1238
00000330: efa4 2239 23ca 7f39 d8d1 6c38 e1b3 e536
00000340: 60d3 ba38 7f61 50b8 510b 98b7 225e d2b8
00000350: b234 0538 0000 0000 5753 a536 0000 0000
00000360: 4ea8 ce38 5753 a536 4ea8 ceb8 4ea8 ce38
00000370: 5753 a536 4ea8 ce38 4ea8 ceb8 5753 a536
00000380: 4ea8 ce38 4ea8 ceb8 5753 a536 4ea8 ceb8
00000390: 76fc b139 cd65 d238 a2d2 9e39 a3b1 d238
000003a0: 0f5e e438 14f4 d638 bd20 7738 bd20 7738
000003b0: bd20 7738 507d 7d37 597a 1cb7 997c c9b7
000003c0: d237 a9b7 2610 94b8 6306 eeb7 b020 58b7
000003d0: cba0 6fb8 1bd8 3fb7 6775 a6b7 353f a1b8
000003e0: 394f 0db7 4a1f 5437 c55e 0935 dd4b a8b3
000003f0: 0000 0000 b1b3 c535 0000 0000 bd20 f737

exp_avg_sq f4 [128, 78]
2.3079667e-07 2.3079667e-07 2.3079667e-07 8.118205e-08 1.3095385e-07 7.780433e-08 5.293209e-08 3.7943703e-08
5.5571434e-08 3.5096484e-08 4.580549e-08 6.3469436e-08 3.6496886e-08 2.4114767e-08 9.675979e-09 7.578831e-08
8.576665e-08 2.2597153e-08 0.0 1.4424803e-10 0.0 5.7699168e-08 1.4424803e-10 5.7699168e-08
5.7699168e-08 1.4424803e-10 5.7699168e-08 5.7699168e-08 1.4424803e-10 5.7699168e-08 5.7699168e-08 1.4424803e-10
5.7699168e-08 1.3045926e-07 1.152031e-07 1.0188801e-07 1.7832834e-07 1.1632365e-07 1.3649995e-07 2.3135088e-07
2.3135088e-07 2.3135088e-07 8.246511e-08 1.3033168e-07 7.926425e-08 5.5560232e-08 3.8060286e-08 5.7707513e-08
3.5265185e-08 4.5458105e-08 6.486462e-08 3.8114276e-08 2.4741192e-08 9.674352e-09 7.710622e-08 8.504131e-08
2.2816092e-08 0.0 1.4459435e-10 0.0 5.783772e-08 1.4459435e-10 5.783772e-08 5.783772e-08
1.4459435e-10 5.783772e-08 5.783772e-08 1.4459435e-10 5.783772e-08 5.783772e-08 1.4459435e-10 5.783772e-08
1.3088471e-07 1.1533995e-07 1.0210495e-07 1.7930913e-07 1.1648663e-07 1.3688539e-07 7.5206134e-07 7.5206134e-07
7.5206134e-07 1.4877499e-07 1.9339261e-07 1.4003545e-07 1.236003e-07 1.3163967e-07 1.5249552e-07 8.9724885e-08
1.744062e-07 1.6426984e-07 1.2091003e-07 8.5514586e-08 3.25012e-08 1.6418802e-07 2.1246332e-07 7.667357e-08
0.0 4.700384e-10 0.0 1.8801533e-07 4.700384e-10 1.8801533e-07 1.8801533e-07 4.700384e-10
1.8801533e-07 1.8801533e-07 4.700384e-10 1.8801533e-07 1.8801533e-07 4.700384e-10 1.8801533e-07 4.4840215e-07
3.6853297e-07 3.9469288e-07 6.097441e-07 3.933342e-07 4.527088e-07 7.5274016e-07 7.5274016e-07 7.5274016e-07
1.5131398e-07 1.9397842e-07 1.4415178e-07 1.303899e-07 1.3274756e-07 1.5642114e-07 8.869218e-08 1.7073637e-07
1.6738129e-07 1.236694e-07 8.565894e-08 3.237749e-08 1.6618871e-07 2.1095643e-07 7.678086e-08 0.0
4.70462e-10 0.0 1.8818504e-07 4.70462e-10 1.8818504e-07 1.8818504e-07 4.70462e-10 1.8818504e-07
1.8818504e-07 4.70462e-10 1.8818504e-07 1.8818504e-07 4.70462e-10 1.8818504e-07 4.50403e-07 3.6883947e-07
3.9521578e-07 6.107349e-07 3.9423526e-07 4.5304228e-07 3.4797981e-06 3.4797981e-06 3.4797981e-06 3.8467522e-07
5.35216e-07 3.200922e-07 3.1726364e-07 5.13904e-07 4.3208536e-07 4.1006973e-07 6.989326e-07 5.250706e-07
1.6329173e-07 1.574161e-07 1.120853e-07 6.555658e-07 8.9246186e-07 4.192242e-07 0.0 2.174873e-09
0.0 8.6994953e-07 2.174873e-09 8.6994953e-07 8.6994953e-07 2.174873e-09 8.6994953e-07 8.6994953e-07
2.174873e-09 8.6994953e-07 8.6994953e-07 2.174873e-09 8.6994953e-07 2.160877e-06 1.817581e-06 1.9074603e-06
2.9884748e-06 1.5543621e-06 2.028122e-06 3.480052e-06 3.480052e-06 3.480052e-06 3.7805688e-07 5.147466e-07
3.191936e-07 3.2126263e-07 5.000477e-07 4.3370736e-07 4.0343187e-07 6.8213836e-07 5.254967e-07 1.6344032e-07
1.538289e-07 1.1152527e-07 6.4986864e-07 8.637583e-07 4.2031584e-07 0.0 2.1750326e-09 0.0
8.70013e-07 2.1750326e-09 8.70013e-07 8.70013e-07 2.1750326e-09 8.70013e-07 8.70013e-07 2.1750326e-09
8.70013e-07 8.70013e-07 2.1750326e-09 8.70013e-07 2.1707795e-06 1.8173591e-06 1.9094673e-06 2.9917098e-06
1.5587352e-06 2.0274476e-06 1.588505e-07 1.588505e-07 1.588505e-07 1.546382e-08 2.6642693e-08 1.3603009e-08
2.3099044e-08 3.97494e-08 2.7347967e-08 1.543464e-08 2.6725829e-08 2.855237e-08 2.5199215e-08 4.7257927e-08
1.0355732e-08 2.726462e-08 2.929258e-08 1.5252276e-08 0.0 9.9281784e-11 0.0 3.9712624e-08
00000000: e8d0 7734 e8d0 7734 e8d0 7734 4e56 ae33
00000010: 529c 0c34 6215 a733 7357 6333 8bf7 2233
00000020: 70ad 6e33 febc 1633 abbb 4433 b14c 8833
00000030: c0c0 1c33 ef24 cf32 683b 2632 10c1 a233
00000040: b72e b833 aa1b c232 0000 0000 369a 1e2f
00000050: 0000 0000 e8d0 7733 369a 1e2f e8d0 7733
00000060: e8d0 7733 369a 1e2f e8d0 7733 e8d0 7733
00000070: 369a 1e2f e8d0 7733 e8d0 7733 369a 1e2f
00000080: e8d0 7733 5e14 0c34 9365 f733 87cd da33
00000090: 857a 3f34 9acd f933 d290 1234 3f69 7834
000000a0: 3f69 7834 3f69 7834 ac17 b133 4df1 0b34
000000b0: fb37 aa33 1fa1 6e33 ba77 2333 15da 7733
000000c0: 7b76 1733 b73d 4333 b44b 8b33 17b3 2333
000000d0: 7586 d432 4034 2632 9895 a533 f49f b633
000000e0: 1efd c332 0000 0000 b1fb 1e2f 0000 0000
000000f0: 3f69 7833 b1fb 1e2f 3f69 7833 3f69 7833
00000100: b1fb 1e2f 3f69 7833 3f69 7833 b1fb 1e2f
00000110: 3f69 7833 3f69 7833 b1fb 1e2f 3f69 7833
00000120: 5189 0c34 cfb0 f733 ca44 db33 1e88 4034
00000130: 3427 fa33 c5fa 1234 43e1 4935 43e1 4935
00000140: 43e1 4935 f5be 1f34 5ba7 4f34 a75c 1634
00000150: feb6 0434 d658 0d34 a6bd 2334 c7ae c033
00000160: 6944 3b34 2662 3034 7fd3 0134 24a4 b733
00000170: 7397 0b33 a94b 3034 7921 6434 bea7 a433
00000180: 0000 0000 0334 0130 0000 0000 43e1 4934
00000190: 0334 0130 43e1 4934 43e1 4934 0334 0130
000001a0: 43e1 4934 43e1 4934 0334 0130 43e1 4934
000001b0: 43e1 4934 0334 0130 43e1 4934 ecbb f034
000001c0: c9da c534 2de6 d334 4cad 2335 712b d334
000001d0: d30b f334 e90f 4a35 e90f 4a35 e90f 4a35
000001e0: df78 2234 6248 5034 24c8 1a34 4e01 0c34
000001f0: 5f89 0e34 b7f4 2734 0b77 be33 a853 3734
00000200: 6bb9 3334 fcc9 0434 80f3 b733 6d0f 0b33
00000210: 9b71 3234 4383 6234 b9e2 a433 0000 0000
00000220: d251 0130 0000 0000 e90f 4a34 d251 0130
00000230: e90f 4a34 e90f 4a34 d251 0130 e90f 4a34
00000240: e90f 4a34 d251 0130 e90f 4a34 e90f 4a34
00000250: d251 0130 e90f 4a34 ebce f134 e904 c634
00000260: 0b2e d434 62f1 2335 48a7 d334 a839 f334
00000270: 7a86 6936 7a86 6936 7a86 6936 5c85 ce34
00000280: c3ab 0f35 23d9 ab34 6254 aa34 37f3 0935
00000290: 5cf9 e734 8e27 dc34 489e 3b35 94f2 0c35
000002a0: 4a55 2f34 3506 2934 8cb3 f033 24fa 2f35
000002b0: 8391 6f35 bc11 e134 0000 0000 c574 1531
000002c0: 0000 0000 7a86 6935 c574 1531 7a86 6935
000002d0: 7a86 6935 c574 1531 7a86 6935 7a86 6935
000002e0: c574 1531 7a86 6935 7a86 6935 c574 1531
000002f0: 7a86 6935 9603 1136 9cf3 f335 eb01 0036
00000300: 9b8d 4836 7a9f d035 df1a 0836 d78a 6936
00000310: d78a 6936 d78a 6936 bef7 ca34 1e2d 0a35
00000320: a25d ab34 007a ac34 043b 0635 49d8 e834
00000330: 4197 d834 311c 3735 dc0f 0d35 227e 2f34
00000340: 2b2c 2534 aa7f ef33 a272 2e35 05dd 6735
00000350: c5a7 e134 0000 0000 9477 1531 0000 0000
00000360: d78a 6935 9477 1531 d78a 6935 d78a 6935
00000370: 9477 1531 d78a 6935 d78a 6935 9477 1531
00000380: d78a 6935 d78a 6935 9477 1531 d78a 6935
00000390: b5ad 1136 fceb f335 6624 0036 2fc5 4836
000003a0: bc35 d135 490f 0836 7e90 2a34 7e90 2a34
000003b0: 7e90 2a34 4dd5 8432 e7db e432 abb2 6932
000003c0: 566b c632 edb8 2a33 d1ea ea32 2295 8432
000003d0: b892 e532 5343 f532 a975 d832 a4f8 4a33
000003e0: fee8 3132 8933 ea32 119f fb32 1c04 8332
000003f0: 0000 0000 ad52 da2e 0000 0000 7e90 2a33

exp_avg f4 [128]
1.1737691e-05 -7.8551624e-05 0.00019708366 6.1521074e-05 2.3172837e-05 -0.0002630695 3.2293545e-05 -4.501433e-05
-0.0001775301 -4.5439043e-05 0.00015714826 -0.00013419488 5.6760196e-05 0.00041139187 0.00015432556 -3.858767e-05
-0.0001288665 6.6422945e-05 -8.5411347e-07 0.00010452562 0.0002053359 -0.00020896913 -0.00022466212 2.7114236e-05
0.00035352216 6.165153e-05 -0.00013990344 0.00017846451 -0.000285905 1.8652642e-06 -0.00030030537 0.00031431112
4.63075e-05 -0.00010476506 -8.745926e-05 0.00027349908 -9.4522904e-05 0.00027518737 -0.00014584142 9.9200806e-05
-1.8578612e-05 -0.00012006583 -0.0001236616 0.00029979367 0.00051840354 -0.00029144535 0.00021123851 -0.0002343644
-0.00010407656 0.00018750383 -6.4158296e-05 -0.00054535124 0.00022886561 0.00018882293 4.5353016e-05 -4.7708585e-05
7.415281e-05 0.000112334325 -1.9225663e-05 4.609254e-05 6.28274e-05 8.1683684e-05 -2.3682942e-06 0.00028877996
6.486946e-05 -9.857409e-05 0.0003827738 4.569089e-05 -0.000276485 7.25854e-05 -0.00019683626 2.5147422e-06
-8.279306e-06 3.0890355e-05 6.06955e-05 -0.00054683274 0.00015102245 -1.49722155e-05 -2.0125863e-05 -0.000345591
4.3683453e-05 1.9495688e-05 -0.00010415205 1.4191554e-05 0.00030449033 -2.0121835e-05 -3.4102409e-06 -2.5049556e-05
-0.00018009423 3.466955e-05 -0.0003216264 -0.00027707987 8.455647e-05 1.324652e-05 -0.00058206375 7.813067e-06
1.8678678e-05 -4.2729105e-05 3.249892e-05 2.4803583e-05 0.00048421434 0.00043562247 -8.782533e-05 -0.00013258647
-0.000117580836 0.00020482427 9.548405e-05 -0.00011222049 0.00014086408 -2.858727e-05 -2.2891578e-05 -0.0001228046
-6.952098e-05 1.9622694e-05 -0.00012262024 3.947407e-05 8.116839e-05 2.433513e-06 -0.00022325326 -0.0002661713
-6.589602e-05 -1.7815717e-05 2.7020022e-05 -6.362932e-05 0.00016295013 1.0376574e-05 5.0659783e-05 -0.00010042448
00000000: 00ed 4437 15bc a4b8 3ea8 4e39 e004 8138
00000010: 4a63 c237 97ec 89b9 ee72 0738 c5cd 3cb8
00000020: 6027 3ab9 cd95 3eb8 2ac8 2439 aab6 0cb9
00000030: cc11 6e38 15b0 d739 74d2 2139 32d9 21b8
00000040: 5620 07b9 8c4c 8b38 3b46 65b5 c434 db38
00000050: 704f 5739 b91e 5bb9 4793 6bb9 6173 e337
00000060: f158 b939 ea4a 8138 0bb3 12b9 3422 3b39
00000070: 85e5 95b9 fd59 fa35 4e72 9db9 20ca a439
00000080: 4d3a 4238 50b5 dbb8 556a b7b8 6d64 8f39
00000090: 993a c6b8 0647 9039 02ed 18b9 070a d038
000000a0: 44d9 9bb7 dacb fbb8 28ab 01b9 a02d 9d39
000000b0: 79e5 073a 22cd 98b9 e87f 5d39 b7bf 75b9
000000c0: ad43 dab8 ad9c 4439 b98c 86b8 e7f5 0eba
000000d0: a5fb 6f39 c5fe 4539 6e39 3e38 b41a 48b8
000000e0: 7d82 9b38 0895 eb38 cc46 a1b7 7d53 4138
000000f0: 34c2 8338 984d ab38 fcee 1eb6 6467 9739
00000100: 870a 8838 90b9 ceb8 08af c839 38a4 3f38
00000110: 30f5 90b9 fd38 9838 d565 4eb9 f1c2 2836
00000120: 59e7 0ab7 4490 0138 4c93 7e38 5359 0fba
00000130: c85b 1e39 2d31 7bb7 f6d3 a8b7 7030 b5b9
00000140: c038 3738 ac8a a337 356c dab8 4318 6e37
00000150: 00a4 9f39 50cb a8b7 7edb 64b6 8321 d2b7
00000160: add7 3cb9 256a 1138 f79f a8b9 0845 91b9
00000170: e953 b138 5f3d 5e37 a395 18ba de14 0337
00000180: 28b0 9c37 0738 33b8 734f 0838 4a11 d037
00000190: 26de fd39 4264 e439 dd2e b8b8 e906 0bb9
000001a0: bb95 f6b8 19c6 5639 9c3e c838 eb57 ebb8
000001b0: eab4 1339 b2ce efb7 4a07 c0b7 1cc5 00b9
000001c0: cbcb 91b8 6a9b a437 9f93 00b9 f690 2538
000001d0: f338 aa38 6f4f 2336 1719 6ab9 e88c 8bb9
000001e0: a831 8ab8 f672 95b7 0ea9 e237 bb70 85b8
000001f0: 98dd 2a39 0c17 2e37 877b 5438 fb9a d2b8

exp_avg_sq f4 [128]
2.3135091e-07 7.5274005e-07 3.480053e-06 1.5897876e-07 1.2065028e-07 5.9965714e-07 1.4631121e-07 3.468158e-08
3.3382207e-07 5.9334393e-08 2.8267962e-07 4.0762924e-07 1.5873235e-08 2.7112264e-06 1.1932232e-06 3.2609023e-08
1.6615827e-07 4.0878396e-07 6.8456525e-09 4.1872248e-08 2.6299554e-07 3.6208425e-07 4.02431e-07 3.216803e-08
1.2725286e-06 4.4596754e-07 5.414987e-07 3.5767417e-07 5.548329e-07 1.1014181e-09 6.4481384e-07 9.824166e-07
2.448509e-07 1.1824612e-07 5.1398544e-08 2.6137454e-06 1.0903242e-07 1.0075113e-06 2.188239e-07 1.1243571e-07
1.7792166e-08 3.0606003e-07 5.9624415e-07 5.537987e-07 2.2752176e-06 1.2339138e-06 1.4566622e-06 7.8180597e-07
2.4345266e-07 7.1473903e-07 6.6201196e-08 2.152011e-06 1.056676e-06 2.7967204e-07 1.3432405e-07 5.8376972e-06
3.2166835e-08 1.702482e-06 6.2166023e-09 1.3604598e-08 2.3955754e-06 9.7574414e-08 2.1150136e-06 3.0917108e-06
2.4991218e-07 4.1369867e-07 2.8034037e-06 9.76838e-08 4.9699645e-07 5.2653093e-08 7.5253115e-07 6.2022565e-08
7.79654e-09 6.7675696e-09 1.4931743e-07 2.2958998e-06 6.609141e-07 1.162099e-06 6.3143347e-07 2.9529044e-06
3.6114145e-08 2.6913197e-06 2.6819819e-06 1.7194594e-08 8.062917e-07 4.5690055e-07 6.643467e-08 1.5074095e-08
2.5818917e-07 2.0974561e-07 1.0001672e-06 1.1701974e-06 2.561865e-08 9.139307e-09 3.5163675e-06 1.6449885e-08
3.1141508e-07 7.7245545e-08 1.4130723e-07 2.622593e-07 2.1061874e-06 2.6160376e-06 1.5812438e-07 4.190154e-07
8.0910456e-07 5.5499044e-07 9.898317e-08 2.1386252e-06 1.2539694e-07 4.2506008e-07 6.1808274e-09 2.2134346e-07
7.6371015e-07 3.658957e-08 1.4908925e-07 3.130065e-07 6.71587e-08 4.1347153e-10 4.0033154e-07 1.0481587e-06
8.9672284e-08 4.6167346e-09 9.9098955e-08 5.7853583e-08 7.28567e-07 3.63635e-09 6.4074857e-07 1.2414861e-07
00000000: 4169 7834 e70f 4a35 db8a 6936 c0b3 2a34
00000010: 198c 0134 20f8 2035 b819 1d34 cdf4 1433
00000020: 2838 b334 dbd6 7e33 31c3 9734 23d8 da34
00000030: 9d59 8832 84f2 3536 d626 a035 000e 0c33
00000040: 3d69 3234 d776 db34 ff36 eb31 06d7 3333
00000050: d531 8d34 7b64 c234 b20d d834 1f29 0a33
00000060: c0cb aa35 506d ef34 825b 1135 5d06 c034
00000070: d4ef 1435 b460 9730 4517 2d35 94db 8335
00000080: 0d74 8334 7eee fd33 4cc1 5c33 ce67 2f36
00000090: 3525 ea33 d339 8735 dbf5 6a34 2f74 f133
000000a0: 63d5 9832 9250 a434 960d 2035 c2a8 1435
000000b0: f1af 1836 f59c a535 8882 c335 4cdd 5135
000000c0: e1b3 8234 7edc 3f35 7e2a 8e33 446b 1036
000000d0: 1cd3 8d35 d525 9634 b73a 1034 70e1 c336
000000e0: cf27 0a33 d680 e435 d099 d531 a8b9 6932
000000f0: acc3 2036 1a8a d133 a8ef 0d36 307b 4f36
00000100: ab2b 8634 501a de34 1c22 3c36 3dc6 d133
00000110: 5669 0535 b024 6233 8c01 4a35 4431 8533
00000120: 8cf1 0532 2c88 e831 1054 2034 4213 1a36
00000130: ac69 3135 6bf9 9b35 c77f 2935 832a 4636
00000140: ec1b 1b33 859c 3436 19fc 3336 50b3 9332
00000150: f26f 5835 ef4b f534 d9aa 8e33 497c 8132
00000160: 409d 8a34 6f36 6134 7c3d 8635 ad0f 9d35
00000170: 0210 dc32 1903 1d32 bcfa 6b36 ae4d 8d32
00000180: 9030 a734 30e2 a533 3cba 1734 a5cc 8c34
00000190: 0658 0d36 2f8f 2f36 e6c8 2934 0af5 e034
000001a0: 3e31 5935 a7fa 1435 9390 d433 4d85 0f36
000001b0: d9a4 0634 d033 e434 225f d431 6daa 6d34
000001c0: c301 4d35 a826 1d33 5715 2034 490b a834
000001d0: e338 9033 f24e e32f 26ed d634 75ae 8c35
000001e0: dc91 c033 3aa1 9e31 3ad0 d433 b07a 7833
000001f0: be92 4335 59e3 7931 e8ff 2b35 b64d 0534
