results/ag12/PlatformRotate/PlatformRotate-1548663.onnx (onnx, 112474 bytes, 8 tensors)

network_body._body_endoder.seq_layers.0.weight f4 [128, 78]
00000000: 3aa7 2abd 1000 923d 29aa 4cbb ec5c b5bc
00000010: 02d3 293d b4e9 3a3e 0bb5 e9bd 7cb2 49bc
00000020: 7f7c 1bbc e7c0 343e c035 8a3c 63b3 e43c
00000030: 38fc dc3d a563 1d3e e1a5 8abd 1655 25be
00000040: 7605 8dbd 8796 1ebe e1b1 9d3d 44a4 40be
00000050: 5b04 f53c aa60 9bbc e551 e8bc 7cb7 d73d
00000060: 64e6 1dbe fc2f 27be 527f 903d 2af8 f3bd
00000070: f7ae 963d 37c8 093d 44e6 a1bd 3d04 0ebc
00000080: 10ae d9bc 9913 bc3d f0ea 2b3e 8446 11be
00000090: fe6a 973d 52fb 043e 2b92 9c3d 89ea b7bd
000000a0: 5722 5dbc d900 573e 7710 15bd 9c86 17be
000000b0: 4802 743d e7df dd3d 201e 373d 2fd3 3f3e
000000c0: 2e80 aa3d 5f94 15bd 8c53 cbbc e274 813d
000000d0: 1d7b bcbd 3d71 aabe 3765 a6bd 1004 d9bd
000000e0: 0577 5d3d b7e9 333d 7c0b b7bc 75c0 2fbe
000000f0: 95c4 adbd dd1e 9cbd 9983 8bbd ca8e 3cbb
00000100: 033d 94bd e45f 9abc 7511 8fbd c1a3 debd
00000110: e6f7 72bd 5dd3 eabd bd15 32bd 7982 b53d
00000120: d020 03be 8bd4 503d 150e 4f3d 139a 0f3d
00000130: c948 b13d d65f 96bd b7cd 0abe 3375 3d3e
00000140: 5d7a 553e ea58 4f3d eaf1 763d 8939 a93c
00000150: 1266 0a3e bae2 03bc aec6 febd 9530 b63d
00000160: d6d1 a63d a561 63bc 980a 973d dd78 0e3e
00000170: c1d3 9c3d 0727 47bc 855f 04be 7d70 1abe
00000180: bf0c 22be 15e0 843d bb1e aa3e d840 fc3c
00000190: c137 5dbd 1a95 553d 2064 08bd 2307 bcbd
000001a0: 52a2 1e3e 1416 f9bd 8d47 b53c 4a53 e6bd
000001b0: c8fd fc3d 2526 083e 34ea 67bd de6e 68bd
000001c0: b47c 47be 96a7 9e3e 94ab 113e ffcc 1ebd
000001d0: 5090 f33d f92e fc3d 840a 63bd dda6 cfbd
000001e0: 3a72 d2bc 9b94 b8bd 6c9c 8a3d c3a4 283e
000001f0: 438a b33d 6fb6 58bd e8c8 253e be17 a9bd
00000200: 9ead 733c 8db1 03bd bd19 c9bd 6305 6cbd
00000210: 0e6b 06bd efc7 bf3b 5711 463d 2a60 1d3e
00000220: f2e2 8bbe 6b5a 1ebe 793b e0bd 4a8a e33d
00000230: 481e 0bbe eb22 a23d fa4d 363c cd10 f13d
00000240: 76d1 0e3d ac61 85bd d564 b23d dc58 223e
00000250: 0d56 b03c c72e 96bd 08ff 023d 832f 373e
00000260: f080 3dbe 1729 09be c4ae 853d 791f d43c
00000270: 137b ab3d 6d14 4dbd e79c 023c c7c2 e73d
00000280: d251 3e3d 7738 fdbd 2dc0 e8bd 450a c7bd
00000290: c3a9 61bd 32af af3d ef71 1b3e 80b1 d9bd
000002a0: db23 a9be 7d9d 313d 36c0 b23d e13d e1bd
000002b0: c013 0c3e d757 963d a078 17be 64f2 923d
000002c0: 65a2 583c 41d0 003c 5761 fdbd 0577 dc3d
000002d0: b93e 3ebe 4773 2abd f52e 893d 39d9 16be
000002e0: 3611 b93d 8b1a 423e 7695 643d 4fcd 6f3e
000002f0: 1326 1b3e 1c1e ee3d dc44 93bd 19bc 8b3d
00000300: 6a9d e33e 100c 3d3d ea4f 32bc 2a31 d3bd
00000310: 4804 2a3e f0a2 233e 9df2 6e3b f492 043d
00000320: 6e7f a1bd 4f57 65be ca94 6fbb 756d c03d
00000330: 7696 14be d98c 42bd e566 e1bc 6c72 93bd
00000340: c93e 7dbe 4c3c c53b 4db6 98bd 283d b23d
00000350: 6a24 84bb cdc6 7cbe 077c a0bd 630f 733d
00000360: 5cb4 32bc 0751 c73d a75a 103d 4cdd 1d3e
00000370: 3b70 c43c 9432 2e3e 0c8b f9bc 0f94 e63d
00000380: 7051 e63b 3287 c3bc cf46 eebc 2280 cebd
00000390: 91f1 8a3d c4c8 d6bc c27c 1e3e e5c2 c63d
000003a0: 704f 48bd 5a58 27be 564e 1fbe d74d 21bd
000003b0: a7d0 2a3d 09d5 cb3d fc39 d33d 0875 763c
000003c0: 266d 933d 1dd3 6f3e d08b 05be c371 7439
000003d0: 87e9 3f3d dbfb a4bd b5c8 2bbb 467d 9e3e
000003e0: de77 28be c662 bc3c 371a e13b 53b2 853e
000003f0: eff7 723d 2da9 283c 377b 15bb be9e 7fbd
-0.041663386 0.07128918 -0.0031229353 -0.022139035 0.041461 0.18253213 -0.11411484 -0.01231062
-0.009490131 0.17651711 0.016871333 0.02791757 0.107902944 0.15370043 -0.0676992 -0.16145739
-0.06885807 -0.15487109 0.07699943 -0.18812662 0.029909303 -0.018966991 -0.028359363 0.10533044
-0.15419918 -0.16326898 0.070555344 -0.11912568 0.07357591 0.033638205 -0.07905248 -0.008668003
-0.026572257 0.091834255 0.1678884 -0.14187056 0.07393454 0.12986496 0.07645067 -0.08980281
-0.013496957 0.20996417 -0.036392655 -0.14797443 0.059572488 0.108337216 0.044706464 0.18732904
0.083252296 -0.03651845 -0.024820112 0.06321122 -0.092031695 -0.3328952 -0.08124774 -0.10596478
0.054068584 0.04392406 -0.022344343 -0.1716326 -0.08484761 -0.07623074 -0.0681221 -0.0028771632
-0.072381996 -0.018844552 -0.069857515 -0.10871077 -0.059318446 -0.114660956 -0.043477762 0.08862776
-0.12805486 0.050983947 0.05055054 0.035059046 0.08656461 -0.07342498 -0.13555036 0.18501739
0.20847459 0.050621904 0.0602893 0.020657318 0.13515499 -0.008049661 -0.12440239 0.08895985
0.08145492 -0.013878261 0.073750675 0.13913293 0.07657576 -0.012155301 -0.12927063 -0.15081973
-0.15825175 0.06488053 0.3322657 0.030792639 -0.05400825 0.052144147 -0.03329861 -0.09181049
0.15491608 -0.12162414 0.022128845 -0.11246355 0.123530924 0.13295801 -0.056619838 -0.056746356
-0.19481164 0.30987233 0.14225608 -0.03876972 0.1189276 0.12313647 -0.05542995 -0.101392485
-0.025689233 -0.09012719 0.06768116 0.16469102 0.08766606 -0.052908357 0.16189921 -0.082564816
0.0148729365 -0.032151747 -0.09819362 -0.057622325 -0.03281694 0.0058526914 0.04835638 0.15368715
-0.27321583 -0.15464179 -0.109488435 0.11110361 -0.1358577 0.07916816 0.0111269895 0.117707826
0.034867726 -0.0651277 0.087106384 0.1585421 0.021525407 -0.07333141 0.031981498 0.17889218
-0.18506217 -0.13394581 0.065274745 0.025893914 0.08373084 -0.050068308 0.007971979 0.11316448
0.04646475 -0.123642854 -0.113647796 -0.09718756 -0.055093538 0.08578338 0.15180181 -0.106295586
-0.33035168 0.043363083 0.087280676 -0.109981306 0.13679409 0.07340973 -0.14792109 0.071751386
0.013222312 0.007862152 -0.12372082 0.10764889 -0.18578614 -0.041613843 0.066984095 -0.14731301
0.09036486 0.18955438 0.0558066 0.23418163 0.15151243 0.11626837 -0.07190868 0.06822986
0.44456035 0.04615408 -0.010883311 -0.10312112 0.16603196 0.15980124 0.0036460527 0.032366708
-0.078856334 -0.22396587 -0.003655719 0.09395877 -0.14510521 -0.047497604 -0.027514884 -0.071995586
-0.24730982 0.006019151 -0.07456646 0.08703071 -0.004032661 -0.24685211 -0.07836156 0.059340846
-0.010907259 0.097322516 0.035242703 0.1541645 0.023979297 0.17011482 -0.03046181 0.11258709
0.007028751 -0.023868177 -0.029086499 -0.10083033 0.067843564 -0.02621878 0.15477279 0.09705142
-0.048903883 -0.16342297 -0.15557227 -0.039380874 0.041702893 0.099527426 0.10313794 0.015042551
0.07198553 0.23420377 -0.13041615 0.00023312033 0.04685357 -0.0805585 -0.002621216 0.3095495
-0.16451976 0.022996318 0.00686958 0.26112613 0.05931848 0.010294241 -0.0022809037 -0.062407248

network_body._body_endoder.seq_layers.0.bias f4 [128]
00000000: 5045 d23b 3652 903c ffc9 083c 1c6e 9abc
00000010: f2c2 e43b 64f7 583c 3dc6 34bc 6335 e03c
00000020: bc76 773c ece9 92bb 43f6 0c3c 9731 393d
00000030: 8e98 68bc 86bf 0d3d 05f6 a13c 2f54 9f3c
00000040: 6e47 bfbb cf93 22bb bd59 f3ba 7177 9bbb
00000050: 91ce d93c 1db4 c03c c78d cc3c fc61 a9bc
00000060: 4e88 113d b130 b33c be88 c33c bce5 ca3c
00000070: f398 173d fed4 3dbc 63f3 44bb 123b 283c
00000080: 618c c93b aae2 05bb b83d efbb 416f ad3c
00000090: dc67 ffbb 5f5b 9c3c 4df6 903c 20bc 47bc
000000a0: c96f 903c 9568 a13c de3b 653c 888c c0ba
000000b0: 793c a63c e61a f13c c121 9f3b d0af cd3c
000000c0: 548c 003d f517 903c db4e c23c 1894 433d
000000d0: 4d00 db3b bb17 443c 7a5e 663c ce21 0a3d
000000e0: 9d86 a13c 91eb f63c f4e0 3bbc f775 82bc
000000f0: 95ce 5b3c 1504 943c f733 fe3c 2aa2 853c
00000100: 67dc 583b a868 af3c 4565 f83c bfb2 4e3c
00000110: addb 963c df33 ba3c 3004 f93c 3d9f 9f3a
00000120: 0dac 0cbd 644c 0bbb 50de cbbc 4365 fd3c
00000130: a9f0 8b3b e0f2 1b3d 838b 713c 88c1 be3c
00000140: e797 5bbc 4b76 d43c e799 df3c 5bdc 68bb
00000150: 58f5 e6bb 98a0 083d 01c4 9eba df6a b0bb
00000160: bd88 983c b5f8 52bb 322e f73c ed59 b03c
00000170: b268 c7bc c654 50bc 78d9 3d3d 0a08 cebc
00000180: 918a e43c e56c b93b d1cb 593c 3817 263d
00000190: 880f 983c 03db cb3c 0650 f03b b76f c33b
000001a0: c00a 173d abc8 7bbc e519 d0bb 3693 d43c
000001b0: 2635 f9bb ab45 0d3b 9008 b7bc 580c f13c
000001c0: 362d 933c 5215 62bb b47a 8db8 09c5 183c
000001d0: b84a 713b 5d9b 43bd 8b24 203d 0ca3 b93c
000001e0: 8ea4 763c 1d61 acbc b833 a63c ff5a a9bc
000001f0: 7eab 963c b8f4 65bc 6950 413c 58c0 4b3c
0.006416954 0.017617326 0.008348941 -0.018851332 0.006981247 0.013242576 -0.011033592 0.027369207
0.015103992 -0.004483452 0.008603635 0.04521331 -0.014196528 0.03460648 0.019770632 0.019449322
-0.0058373725 -0.002480734 -0.0018566173 -0.004744463 0.026587756 0.023523385 0.024969948 -0.020676605
0.03553038 0.021873804 0.023868915 0.024767749 0.037011098 -0.011586426 -0.0030052296 0.01026799
0.0061507677 -0.0020429292 -0.0073010586 0.021171214 -0.0077943634 0.019086538 0.01769557 -0.012190849
0.017631428 0.019703189 0.013991324 -0.0014690319 0.020292507 0.029431771 0.0048563187 0.025108248
0.031383827 0.017589549 0.023719242 0.047748655 0.0066833855 0.011968548 0.014060611 0.033723645
0.019717509 0.030141624 -0.011467207 -0.01592539 0.013415952 0.018068353 0.031030638 0.016312677
0.0033090354 0.021412209 0.030321727 0.012615859 0.018415296 0.022729812 0.030397505 0.0012178194
-0.034343768 -0.002125525 -0.02488628 0.030932074 0.0042706323 0.03807342 0.014742735 0.023285642
-0.013402916 0.025935313 0.027295066 -0.0035531733 -0.00704829 0.03335628 -0.0012112857 -0.005383834
0.01861989 -0.0032191698 0.030173395 0.021527255 -0.024341915 -0.012715524 0.046349972 -0.025150318
0.027898105 0.005658733 0.0132932225 0.040549487 0.018562093 0.024884706 0.0073337583 0.005964245
0.036875486 -0.015367667 -0.006350743 0.025949102 -0.0076052127 0.0021556418 -0.02234295 0.029424831
0.017965894 -0.0034497571 -6.746259e-05 0.009324321 0.0036818217 -0.047755588 0.03909735 0.022660755
0.015053881 -0.021042401 0.020288333 -0.020673273 0.01839232 -0.014035396 0.011798956 0.012435995

network_body._body_endoder.seq_layers.2.weight f4 [128, 128]
00000000: b3f1 25be e9fe 4fbe 9677 863d fde2 18bd
00000010: 10a1 d23d 982e c9bc b8a5 74bd d09f 7e3d
00000020: 9572 433d 7236 6cbd 8bd7 a7bb b023 0fbe
00000030: ad13 e33b 08f0 273e 3718 8ebd c504 77be
00000040: 0cfa 6b3d 4ca5 9cbc 5da0 1a3e 6b93 11be
00000050: 3442 683d f937 1ebd dc82 85be 809b f43d
00000060: 8818 c23d e928 fe3d 40a2 ae3d 4475 d9bd
00000070: 6d53 f5bd 6533 c5bd 99da b3bd 0578 65bd
00000080: 912e c93c edec 08be 1f58 0fbe 8469 953e
00000090: 9416 4e3d df2b d03d 38e2 0bbe 51d9 053e
000000a0: 3965 c63c 2404 573d 3442 edbc b55f a8bd
000000b0: 0752 373e e397 093e 7e4b 54bb 3d3e ef3d
000000c0: b3fc 253c eeda 863d 0d24 223d 64ed 91be
000000d0: d1da 273e 67f4 793e cd31 203e aef2 533e
000000e0: e1e9 3abe 8def 3cbe 7f9a df3c f0b7 23bc
000000f0: ff68 b83c f738 a93d fa9d f8b8 9ddf 9abc
00000100: e093 953c bc93 ed3c e1a9 433d 5a8a 0dbc
00000110: bfb3 33bd a0db 71bc f2ff 01be c34e e5bd
00000120: eb2d 0dbe 22a7 483d 6b60 49be 6564 273d
00000130: 645d 05bc 5781 dfbc 4431 13be 4b74 7fbd
00000140: f00b 1dbd 015e 82bd adb4 843e a090 eebd
00000150: f916 50bd 722d 40bb 405e b33d 066d c9bc
00000160: fb6e 54be 0d0c 17bd 6b26 f9bd 4e44 ed3c
00000170: 64f5 f8bd e768 a0bc 94bd 61bc dad6 c4ba
00000180: 7089 683c 3119 c93d 4fe4 a9bd 3a1a 2dbd
00000190: 7a01 0d3e b0b7 a13e 6b64 4dbe 43e7 07be
000001a0: 45dc b8bd ddd1 b03c 0cb4 d7bc 897f 2d3e
000001b0: 9d33 acbd da27 03be 921d 50bd 4fa7 8bba
000001c0: 5d4f 0fbe 03c0 d13c 47b1 0dbd 78ee 0dbd
000001d0: 6a02 b4bd ce08 a7bc 4e50 e1bd 55d2 ee3d
000001e0: f2c8 76bd 9334 45bc 01d0 d3bd 7c4a 76be
000001f0: 4a82 94bc be41 25bd 27af 02be a667 8d3d
00000200: 849e 29bd e442 ef3b d5c3 10bd 5c8d 813d
00000210: 7c1b 70bd 3773 a7bd 066f c83c 047e fbbb
00000220: 97bf 8c3d 7a09 b23d 24c9 a8be 9f50 343e
00000230: 998b 3fbd ca41 6d3c d6e5 a43c df22 93bd
00000240: 67ab 1b3d 6e67 debd d105 92bd 1f41 063c
00000250: db24 a63d 18fe 30bd 50fa 2d3d 3f14 9ebd
00000260: 97cf dc3d d9c2 cbbd fa52 a63d dd6d 053c
00000270: a090 a83d 0a99 18bc bbd3 a2bd 8262 b63d
00000280: c38c c03d 3f12 22be 0350 87bd aee1 7f3c
00000290: 2de2 1abe df74 04bc 0ed2 6bbd 9ae9 943d
000002a0: 0697 1c3d 2465 2fbc 64ef 1dbe 0447 ac3d
000002b0: ebad 773c 545d 22bd 5573 bc3c b655 773c
000002c0: c364 06bd 9466 af3c 7a8a 7e3d ca1b 1fbd
000002d0: cda4 0b3e 6c03 de3c 3dff 3b3d 8119 c1bd
000002e0: 21e7 c9bb 1e70 82bd 8fa8 8a3d 9998 1fbd
000002f0: b87c 5e3d 0a48 ebbc e866 f3bc 8662 1bbd
00000300: 96c2 a9bb 470c 05be ab8b bb3b aef7 edbd
00000310: 2530 863c d5e5 debd 140e de3c 6bb8 1dbe
00000320: d4d2 533d 4b49 93bd 31b0 963b 75a0 9a3d
00000330: 7241 d2bd b1ce 54bc 452f 28be 2ffc dc3d
00000340: fc94 6dbd 5171 b83d 36fc d9bc 5a8e cabc
00000350: 6044 37bd eb68 b63d ddad 26bd c5e8 743d
00000360: 9a79 7e3d 1c5b bdbd 0f29 9cbd f4d9 0bbe
00000370: dd9f 143e 26d1 c8bd 1afd 62bc 8ddf e03c
00000380: 8469 5dbb a649 e93d 2181 063d 2ca7 943b
00000390: 57bf 7c3b 29aa 833b 48ec 883d 2606 32be
000003a0: 6e6b bb3d d265 583d cd6e a63c d8d9 c1bd
000003b0: aa80 163e 5ca6 003d e84b b13d e47f 65be
000003c0: bd5a aabc c7e5 503e b30f cabc a2dd 5b3d
000003d0: a613 463e b665 b5bd 9a8a 03be cb45 3f3d
000003e0: 591c b23d 684e 17be 7292 dabc f4d1 e53d
000003f0: b8ac 983d 43b8 e0bd 8b9d a1bb ab5a 0a3e
-0.16205482 -0.20312084 0.06565778 -0.037325848 0.102846265 -0.02455835 -0.059728354 0.062164128
0.047716696 -0.05766911 -0.0051221303 -0.13978457 0.006929836 0.16400158 -0.06938212 -0.24122913
0.05761151 -0.019121788 0.15100236 -0.14216392 0.05670376 -0.0386276 -0.260764 0.11943722
0.09477335 0.12410147 0.085270405 -0.1061807 -0.11978803 -0.09628943 -0.087819286 -0.056022663
0.024558337 -0.1337163 -0.1399846 0.29182065 0.0503145 0.10164618 -0.13660514 0.13071181
0.024218189 0.052494183 -0.028962232 -0.0822138 0.17902385 0.13436846 -0.003239363 0.11681793
0.010131049 0.06584726 0.039585162 -0.28501427 0.16392066 0.24409638 0.15643997 0.20698044
-0.1825328 -0.18450756 0.02729535 -0.009992585 0.022511004 0.08262818 -0.00011854987 -0.018905455
0.018258989 0.02900111 0.04776943 -0.008638943 -0.04387259 -0.014761835 -0.12695292 -0.11196663
-0.13787048 0.048987515 -0.19665687 0.040867228 -0.008139942 -0.027283354 -0.14374262 -0.062366765
-0.038341463 -0.06365586 0.25919095 -0.11648679 -0.05080316 -0.0029323963 0.08758211 -0.02458812
-0.2074546 -0.036876727 -0.12165531 0.028963234 -0.121561795 -0.019581271 -0.013778109 -0.0015017644
0.014192924 0.09819258 -0.082954995 -0.04226134 0.13770095 0.31585455 -0.20057838 -0.13271813
-0.09026388 0.021584446 -0.02633097 0.16943182 -0.08408282 -0.12808171 -0.05080945 -0.001065472
-0.13995118 0.025604254 -0.034592893 -0.03465125 -0.08789523 -0.02038994 -0.11001645 0.116612114
-0.06025023 -0.01203646 -0.10342408 -0.24051851 -0.018128533 -0.0403459 -0.12762128 0.06904535
-0.041410938 0.007301675 -0.03534301 0.0632579 -0.05861996 -0.08176272 0.024467003 -0.0076749343
0.0687248 0.08693214 -0.32965958 0.1760888 -0.04676399 0.014481017 0.020129126 -0.071843855
0.03800526 -0.108595714 -0.07130016 0.008194237 0.081124984 -0.043211073 0.042475045 -0.077187054
0.10781782 -0.099492736 0.08121295 0.008143869 0.0823071 -0.009313831 -0.07950541 0.089055076
0.09401848 -0.15827273 -0.06607058 0.015617771 -0.15125342 -0.008084505 -0.05757337 0.072711185
0.038229965 -0.010705266 -0.15423352 0.08411983 0.015117149 -0.039639786 0.023004213 0.015096119
-0.032810938 0.021411218 0.06214378 -0.03884486 0.13637085 0.027101241 0.04589771 -0.094286926
-0.006161586 -0.06369041 0.06770431 -0.038963888 0.05431816 -0.028720874 -0.029712155 -0.037935756
-0.005180667 -0.12992965 0.005723437 -0.11619507 0.016380379 -0.10883681 0.027106322 -0.15402381
0.051714733 -0.07191714 0.0045986404 0.07550136 -0.10266389 -0.012988732 -0.16424282 0.10790288
-0.05800341 0.090059884 -0.026609521 -0.024726082 -0.04474294 0.0890673 -0.040693153 0.0597923
0.062127687 -0.09245893 -0.07625019 -0.13657361 0.14514108 -0.09805517 -0.013854289 0.027450347
-0.0033784816 0.113910004 0.03283799 0.00453653 0.0038566196 0.0040180874 0.06685692 -0.17385158
0.0915135 0.05283148 0.020316506 -0.094653785 0.14697519 0.031408653 0.08657056 -0.22412068
-0.02079522 0.20400153 -0.02466569 0.053678162 0.19343433 -0.088572904 -0.12845841 0.04669742
0.08696813 -0.14776003 -0.026681159 0.11221686 0.074548185 -0.10972645 -0.0049321107 0.1351115

network_body._body_endoder.seq_layers.2.bias f4 [128]
00000000: 27ce 2a3d ec7b 873b 0768 52bc d851 64ba
00000010: 50ce ea3c 09e3 523c 212d 6ebc d8ac 223a
00000020: 4c1d 2fbb 441f 803c dcb2 093d b13f 143c
00000030: 988a 6dba af30 683c dc9a ae3c 1a50 29bb
00000040: f101 f53b 685a aeba 0757 a73c 38c1 063d
00000050: 1598 0eb9 b4aa a9bb 603b 013d 3675 9b3c
00000060: 96a9 aa3c 7085 ff3c 1242 3b3c 9769 373b
00000070: 7a9b c23c f161 2e3c 1344 e23c 6960 2e3d
00000080: 10de 4bba 8e95 ef3c e28e 93bc 832b c33c
00000090: 01c2 873c af15 123c cd2d 233c 60c3 c3bb
000000a0: 92c5 a83c 84f0 2cbb d4da c63b 5aa2 a43c
000000b0: 9c0b 243d d14f 9f3c d9ab f93c 37bc 223c
000000c0: 9057 b73c 5924 363c 08ea d33c 50a3 083c
000000d0: 631a 413c 5ce6 143b 1064 543c b0fb c33b
000000e0: 16e7 df3c e72e c43b 4063 4fbc 5f2f 8e3c
000000f0: dbd6 0d3c 8c86 8838 49c4 f8ba a76c 323d
00000100: ac49 ee39 4e0d 823c f0b2 5c3c 2ff3 d83c
00000110: 5c82 d33c 9a52 e13b 9d53 08bb 8b88 73bb
00000120: 8a97 9e3a 978e 83bc 5380 193d bbf3 2d3d
00000130: 24ea fb3c 6681 e13c d355 39bc 870e 5a3c
00000140: e089 183d 083a 983c 70d3 e73c f4ae 433d
00000150: e667 133d 3985 ccbb 4a42 0e3b 206c 963c
00000160: e710 dd3c 0512 bb3c 874f 773b 86f8 a93c
00000170: 3c6d e33c b1cd fc3a 82e8 b53b c422 b73c
00000180: bed0 d33c 663b 19bb c075 8c3c c224 12bc
00000190: 59cf d93b d52c a83c f20c b03c fdf7 483c
000001a0: 92bf c93b 2afe 0c3d 7bd9 9bba 7c5f 0d3d
000001b0: 7fc8 89bc 80d7 b83c 3eea 1e3c 7dfd eb3b
000001c0: 3d81 323c 21f6 f43c 40a8 2b3c caee 0b3c
000001d0: 92c2 5c3c 7a7e 89bb ff55 9cbc 8d65 443c
000001e0: 8a1f eebb ff2f 433c 7303 88bc bc73 283b
000001f0: ba97 df3c 7326 cebc 16aa 6d3c c91e 9a3c
0.04170051 0.0041346457 -0.012842185 -0.00087097054 0.02866283 0.012871512 -0.014537127 0.00062055653
-0.0026720343 0.015639909 0.03361784 0.009048388 -0.00090614846 0.014171763 0.021314077 -0.0025835098
0.007477038 -0.001330209 0.02042724 0.03289911 -0.0001359883 -0.00517782 0.031550765 0.018976789
0.020832818 0.031191558 0.011429327 0.002798652 0.023755778 0.010643468 0.027620351 0.042572413
-0.00077769253 0.029246118 -0.018012468 0.023824459 0.016572 0.008916303 0.00995965 -0.0059742182
0.020602021 -0.0026388476 0.006068567 0.020096947 0.040050134 0.01944724 0.030477451 0.009932569
0.02238062 0.011117064 0.02586843 0.008339718 0.011786076 0.0022720313 0.01296331 0.005980931
0.02733187 0.0059870365 -0.01265794 0.017356573 0.008657183 6.510047e-05 -0.0018979396 0.04356065
0.00045449787 0.015875485 0.013470396 0.026483146 0.025818996 0.006876302 -0.002080179 -0.0037160243
0.0012099606 -0.016059203 0.037475895 0.042468768 0.030751295 0.027527522 -0.011311966 0.013309128
0.037240863 0.018582359 0.028299063 0.04777427 0.035987757 -0.0062414673 0.0021706992 0.018362105
0.026985599 0.02283574 0.003773661 0.020748388 0.027762048 0.0019287375 0.0055513987 0.022355445
0.025856372 -0.0023381351 0.017145991 -0.008919897 0.006647032 0.02052919 0.021490548 0.012266156
0.00615687 0.034422077 -0.0011890376 0.03451489 -0.016819237 0.022563696 0.009699402 0.007201849
0.010895071 0.02990252 0.010477126 0.0085408185 0.013474124 -0.0041959854 -0.019083975 0.011987102
-0.0072669433 0.011913299 -0.016603207 0.0025703749 0.027294029 -0.025164818 0.014505884 0.018813508

action_model._continuous_distribution.log_sigma f4 [1, 2]
00000000: 1228 823d 1d20 f63d
0.06355299 0.12017844

action_model._continuous_distribution.mu.weight f4 [2, 128]
00000000: eaba ad3d 0c21 6cbb 6506 f23c 5510 6d3d
00000010: 5257 b3bc 9d9f a63d 8b22 f83b 0126 163d
00000020: 469a 863c 6a36 4c3d 11a7 a1bc 3db9 243d
00000030: 138b 933b 4320 94bc a4b1 893d eb3a 90bc
00000040: 09d9 5b3c c983 0e3d 023c 8cbc d995 eabc
00000050: 0895 1b3d fa76 c93c dbec 7a3d d933 ea3b
00000060: c281 d6bc 7943 95ba 1ca8 283d 0233 4f3d
00000070: ea19 26bd eb27 75bc 31ce a03d 4ef6 33bd
00000080: c598 1f3c c9a9 2bbd f582 9d3c f5f8 483c
00000090: 6501 02bd 7a94 10bb c481 0a3d ce61 5c3d
000000a0: 22bc 43bd 3ba5 013d 73a0 ceba d57c 9cbc
000000b0: 02b4 61bd bc08 403d 9249 ccbc 6b92 763d
000000c0: ae04 eebc 5d12 4c3d 23b9 3ebd 6483 54bc
000000d0: 4ef9 e93a 8255 883c 86e8 6f3c e435 603c
000000e0: 49b1 fbbc a461 793d 9586 793c 978d 923d
000000f0: f236 f33c fb22 3b3b 9f6e bb3c 344c 27bd
00000100: 6cc5 8a3d a573 93bc 2263 4abb 376a 97bb
00000110: 8155 863d cd69 0a3d 6097 82bc e402 413d
00000120: a247 2a3d 5bca dd3c 9a88 19bd c378 bfbc
00000130: 260a 54bd 3d7a 2abd e557 2e3d e13f 413d
00000140: 9470 753c 2c7f 8ebc b836 183d ce05 9cbd
00000150: dc1a 9abc 96e9 5b3d 1bc8 2dbc 0ad5 1dbd
00000160: 7aa3 04bd c308 ae3c 0639 32bc 5d2c 233b
00000170: 55a3 54bd f7a7 3c3d 2e4c 70bc 0e16 c3bc
00000180: 482f f8bc d70e 743a 77c9 0abb 7692 b3b8
00000190: 95d0 e03c 9fe6 05bd 1f7e 13bc fb14 e13d
000001a0: 75ad 88bc 01f1 e5bc 90b5 203d 048b fabc
000001b0: 30e7 d23c cba3 54bd 3a6f 6e3d f5e4 e93c
000001c0: c7d4 b8bc f74e fbbc c518 a93d 58ca 333c
000001d0: ec0f 613d cf93 893c b35c b53c c734 35bc
000001e0: ab87 a53d 9ba8 953d b166 7e3a f70f 013d
000001f0: 3e71 09bc fa19 fd3c 1289 50bd feb0 a3bb
00000200: 0d69 e93a 0607 163c 40f5 cbbb 754c ed3c
00000210: 4841 113d 562d 913d 0f52 69bc 708e 7cbd
00000220: 1b6d 813c e3e7 1dbd f5ad 093d add0 84bc
00000230: 8e12 493c d3db 1fbb 08dd 92bd 4919 06bd
00000240: e4f3 8b3d 6544 813c dc12 943c 63f7 b23c
00000250: b700 6abd 465c dcbc 98a0 db3c 1fec a6bd
00000260: 2910 7ebb 01de 86bd c4fc 813d 821f ebbc
00000270: 72fa 02bd 436b d73b 4b01 0f3d 990b 0e3d
00000280: e5f9 18bd 28ad dd3c ec46 043a 06d2 26be
00000290: 978c 9ebc 50d4 9e3b 0503 ce3c 794c 6ebc
000002a0: fc65 e7bb 8c72 b6bc f3d9 6d3a f7d8 113d
000002b0: af1a ad3c 4193 99ba aceb 51bd 518a 51bc
000002c0: b069 a9bc 21d4 c5bc 5891 3b3d abae 0abc
000002d0: dc5d fdbc e422 6bbc b041 af3d 5ecf 7fbd
000002e0: 270d 123d e022 1dbd 8a93 733a f7c3 1abd
000002f0: 2cb8 243d 3311 32bd a048 31bd 3566 74bc
00000300: 3358 4c3c 7d56 ab3b fac5 d83b d818 bb3c
00000310: bf55 173d c3d5 d43c 203a efbb 0e0b 5ebd
00000320: 4d2e 8a3c ccb7 4cbb d7f1 273d 8ada 823d
00000330: 008c 263c ffa2 32bc 0012 8f3b f8ab 09b9
00000340: 4777 99bd 6280 8e3b 2b52 c2bd f926 20bd
00000350: 6a52 103d d5d1 a1bc 62f7 b5bb e49a 0cbc
00000360: fb39 89bc c8b0 d5bd ad47 4c3b 3f83 463d
00000370: 3977 6e3d c1ef 553c bbe4 cdbc 0681 023c
00000380: 8d7d 37bc 81b2 74bc 4b3c a03c 8112 0d3c
00000390: 1e0c 663d 673e 943b 4e3f c13b b6f1 5e3a
000003a0: 254c 2fbd 153a 353d 8895 cdbc a8a4 5a3c
000003b0: 0c62 f3bb 7b7b 00bd 2d6f 813d b206 cabc
000003c0: 7459 ec3b ee91 5cbc aef6 64bd cf50 0bbd
000003d0: 725c 183c 1e51 123c d3fc 08bd 4c32 0b3c
000003e0: 70a2 6fba c103 82bb 00a8 68bc 82e7 9b3c
000003f0: a981 383d f4ca e339 7f65 b8bc be53 283d
0.08482917 -0.003603044 0.029544065 0.057876904 -0.021892224 0.081359126 0.007572477 0.036657337
0.016430985 0.04985658 -0.019732984 0.04021572 0.004502663 -0.01808179 0.067233354 -0.01760622
0.013418444 0.03479365 -0.017118458 -0.028635906 0.037983924 0.024592865 0.06126104 0.007147294
-0.02618492 -0.0011387906 0.041175947 0.050585754 -0.040552057 -0.0149631305 0.07851828 -0.043936066
0.009741013 -0.041909967 0.019227484 0.012266387 -0.03173961 -0.0022061155 0.03381516 0.05380421
-0.04778684 0.031651717 -0.001576437 -0.019102493 -0.05510331 0.04688333 -0.024937425 0.06019823
-0.029054966 0.0498222 -0.04656328 -0.012970779 0.0017850788 0.016642336 0.01464284 0.0136847235
-0.030724185 0.060884133 0.015229841 0.07155912 0.029689286 0.0028554786 0.022879897 -0.040844157
0.067759365 -0.01799948 -0.0030881842 -0.004620816 0.06559277 0.033792306 -0.015941322 0.047121897
0.04157222 0.02707403 -0.03748379 -0.023373013 -0.05176749 -0.04162048 0.04256429 0.04718006
0.014980454 -0.017394625 0.03716156 -0.07618295 -0.018811636 0.05368956 -0.010606791 -0.038533248
-0.032382466 0.021244412 -0.010877853 0.0024898269 -0.051913578 0.04605862 -0.0146666 -0.023814227
-0.030295983 0.00093100726 -0.0021177211 -8.5626656e-05 0.02744321 -0.03269064 -0.009002238 0.1099033
-0.016684273 -0.028069021 0.03923565 -0.030583866 0.025745004 -0.051914018 0.058211543 0.028551558
-0.022562398 -0.030677302 0.082566775 0.0109735355 0.054946825 0.016794113 0.022138929 -0.011059946
0.08082517 0.073075496 0.0009704633 0.031509366 -0.008388815 0.030896176 -0.05091197 -0.0049954643
0.0017807797 0.009156948 -0.0062243044 0.028967122 0.035462648 0.07088725 -0.014240756 -0.061659276
0.015799096 -0.038551223 0.033613164 -0.016212786 0.01227249 -0.00243925 -0.071710646 -0.032738958
0.06833628 0.015779683 0.0180754 0.021846479 -0.057129588 -0.026899468 0.026809976 -0.08150505
-0.0038766956 -0.06585313 0.06347039 -0.028701548 -0.031977125 0.006574066 0.034913342 0.03467903
-0.037347693 0.027060106 0.00050459686 -0.16291055 -0.019354148 0.004847087 0.025147924 -0.0145446
-0.007061718 -0.022271417 0.00090733095 0.035607304 0.021130888 -0.0011716859 -0.051250145 -0.012789325
-0.020680279 -0.024149003 0.045792907 -0.008464496 -0.030928545 -0.01435158 0.08557451 -0.06245362
0.035657074 -0.038363338 0.00092916994 -0.037784543 0.040214702 -0.043473434 -0.04328215 -0.014916946
0.0124722 0.005228816 0.0066153975 0.022838995 0.03694701 0.025980836 -0.00730063 -0.05420976
0.016867781 -0.003123748 0.04100212 0.06389339 0.010165215 -0.010903119 0.0043661594 -0.00013129401
-0.074934535 0.0043488005 -0.094883285 -0.039099667 0.035234846 -0.019753376 -0.005553172 -0.008581851
-0.01675128 -0.10434109 0.0031170652 0.04846501 0.05821917 0.01305765 -0.025133481 0.007965332
-0.011199367 -0.014935137 0.01956 0.008610369 0.0561639 0.0045240405 0.005897439 0.00085046457
-0.042797226 0.044244844 -0.025095716 0.013344921 -0.0074274596 -0.03136776 0.06320033 -0.024661396
0.007212812 -0.013462527 -0.055899315 -0.034012612 0.009299384 0.008930473 -0.033444237 0.008495878
-0.00091413315 -0.0039677327 -0.014200211 0.01903129 0.04504553 0.00043448026 -0.022509335 0.041095488

action_model._continuous_distribution.mu.bias f4 [2]
00000000: de92 95bc edb0 0c3c
-0.018258508 0.008587104

action_model._discrete_distribution.branches.0.weight f4 [1, 128]
00000000: 0a40 66bc 0fbb d13a fc7d 11bc dfa7 ee3b
00000010: bf97 0f3c c4f5 13bb 1a17 72bb d79b 8d3a
00000020: 4784 48bc 8254 b5ba 8d1c 8abb adf5 be3b
00000030: 1345 273c caa1 2dbc b5c8 ba3a df55 b43b
00000040: 08e2 aabb 3021 5fba 7ea4 863b 0feb b43c
00000050: 9875 91ba bb12 613b 6e99 b1b9 8b96 123c
00000060: 0d1a e9bb 4303 073a 1264 09bc 1349 6c3b
00000070: 0fbc 043c 5bde a03c 61a2 893a 8a41 c63b
00000080: a8d8 ba3a 23b8 57bb 2263 6a3a 317d 86bb
00000090: 6e68 0abc e361 00bc 3ec2 bc3b 4e1e abba
000000a0: 654d 013c d05b 893b 70b2 bc3b 8538 6e3c
000000b0: 7720 1d3c 1ff3 9e3a 7597 253b 185f 22bc
000000c0: 43f6 16bc cb83 d53b 8785 263c 4702 9f3b
000000d0: 0df0 61ba 5fe6 ce3b 49d3 243c f43d 343c
000000e0: af31 31bb 12c5 97bb 5a64 0b3b 8c32 9eba
000000f0: 82ba 53bb b5fc 023b 27f9 653b 0df8 653b
00000100: 3693 adba e061 fdb7 be43 49bc ef77 953b
00000110: a5fd 0b3b dbef fa3b b0d9 8b3a 6c70 0ebc
00000120: 33c6 20bb 9e62 053c 170d 87ba 0bd5 55bc
00000130: 443c 25bb 09ee 843b 3bb4 093c e681 43bb
00000140: 9549 83bc 026a 33bb 2aa9 2e3c 65fe 523c
00000150: 6843 593c 900b 5e3c 38ae daba 9ae4 663b
00000160: 761b 42bb 8767 7d3c 2d8e 64bc 6565 e6bb
00000170: 9607 473b cbfb 173b 7871 7a3b 2e24 353b
00000180: f5fe 4dbc cc9d 2f3c e56f f8b8 fb42 b23b
00000190: 9794 ea3b 3de4 2cbc e187 c0ba 53e5 9f3c
000001a0: 3bea 33bb 0bab 57bb ebc6 323c 7298 f13b
000001b0: 0fd1 083c 52bc 06ba d23e 63bb 6595 4abc
000001c0: 7729 45bc 5d32 59bc a524 423b 58ed 1cbc
000001d0: 2348 bf3b a5d7 533c d4af 8fb9 440a 813b
000001e0: b130 10bb 4c08 b2ba b817 ee3b 8a7e 023c
000001f0: f361 53ba cb95 893b b42a a2bb bada 0f3c
-0.014053354 0.0016001182 -0.008880135 0.0072831954 0.008764206 -0.0022576908 -0.003694004 0.001080389
-0.012238569 -0.0013834389 -0.0042148293 0.0058276267 0.01020934 -0.010597656 0.0014250489 0.0055034007
-0.0052149333 -0.000851172 0.0041089645 0.02208474 -0.0011097668 0.003434344 -0.00033874385 0.008947025
-0.007113701 0.00051503273 -0.008385675 0.0036054298 0.008101477 0.019637277 0.0010500663 0.0060502933
0.0014255242 -0.003291615 0.00089411635 -0.0041042794 -0.00844775 -0.007835838 0.00576046 -0.0013055296
0.007891987 0.004191853 0.005758576 0.0145398425 0.00959026 0.0012126899 0.0025267277 -0.009910367
-0.009213987 0.006515955 0.010163671 0.0048525664 -0.0008618839 0.0063140835 0.01006014 0.011001099
-0.002703767 -0.004631647 0.002126953 -0.0012069508 -0.0032307212 0.001998705 0.0035091133 0.0035090477
-0.0013242725 -3.0205527e-05 -0.012284217 0.0045614163 0.00213609 0.0076579875 0.0010669734 -0.008693796
-0.0024532198 0.008141188 -0.0010303584 -0.013051282 -0.0025212923 0.0040566963 0.008404787 -0.0029832064
-0.016026298 -0.0027376418 0.010660449 0.012878035 0.0132607 0.013552561 -0.0016684001 0.0035231472
-0.0029618419 0.015466577 -0.013949913 -0.00703113 0.0030369512 0.0023190852 0.0038214605 0.0027639973
-0.0125729935 0.010718774 -0.000118464035 0.0054401136 0.0071588266 -0.010552463 -0.0014688933 0.01951853
-0.0027452845 -0.0032908346 0.010911684 0.007372909 0.008350625 -0.0005139756 -0.0034674895 -0.01236472
-0.012033812 -0.013256636 0.0029623893 -0.009578072 0.005837457 0.012929832 -0.00027406088 0.0039379913
-0.0022001679 -0.0013582795 0.007266011 0.00796474 -0.0008063607 0.004198765 -0.0049489383 0.008780176
