results/ag11/PlatformRotate/PlatformRotate-10736.pt (torch, 661833 bytes, 39 tensors)

network_body._body_endoder.seq_layers.0.weight f4 [128, 78]
000000 86 04 84 3d 7f 6e 37 be 7d 8d 21 be 72 d1 9e bd
       0.06446175 -0.17913245 -0.1577663 -0.07754792
000010 ee 37 8c bd 04 a3 04 be c3 e5 b8 3b 96 f3 7d 3e
       -0.06846605 -0.1295281 0.005642624 0.24799952
000020 76 8f d8 3d 2e 30 71 be 59 46 01 3e 41 05 b0 bd
       0.10574238 -0.23553535 0.12624492 -0.08594752
000030 bb fd 3a 3c 61 da af 3b 06 fb 70 3d c3 8b ef 3c
       0.011413033 0.005366609 0.058833145 0.029241448
000040 72 61 59 bc 46 52 8e bc 90 91 06 3e f0 1d 1b bc
       -0.013267862 -0.017373215 0.13141465 -0.009467587
000050 d9 02 bc 3d bf b9 d0 3d 0d c0 e0 bc fe 00 64 3b
       0.09180231 0.10191678 -0.027435327 0.003479063
000060 c8 f5 16 be b1 6c 1d 3d f2 5d ac 3d 06 c7 2f 3e
       -0.14742196 0.038433734 0.08416356 0.17165765
000070 ba 6e a0 bc 24 97 ec 3d d6 b0 35 3e a8 32 24 bd
       -0.019584049 0.11552265 0.17743239 -0.040087372
000080 03 8d 00 3c 11 c2 ff bd bb e7 b2 3d c4 8d be 3d
       0.00784612 -0.12488187 0.08735605 0.093043834
000090 25 da 93 bd 9f 88 f7 3c d9 82 15 bd f0 2e 07 3e
       -0.07219342 0.030216513 -0.03650174 0.13201499
0000a0 f8 01 b0 3d 48 13 d4 3d ad 72 51 bb 2b b8 02 bd
       0.085941255 0.1035524 -0.0031959221 -0.031913918
0000b0 0a cf 31 3e d2 f2 a1 bd c5 3e 80 bd a7 47 15 be
       0.17364135 -0.079076424 -0.06261972 -0.14578114
0000c0 a9 64 c2 bd 96 ec 61 bd d2 3a 56 be 5a ee db 3d
       -0.09491856 -0.055157267 -0.20920876 0.10738821
0000d0 d7 5e 36 bd 74 64 a2 bc 5b 06 7c 3d 61 4f 54 3d
       -0.04452404 -0.01982329 0.0615295 0.051833514
0000e0 58 19 df bc 0e 86 48 bd 4e e4 27 3b b4 8e 63 3e
       -0.027233765 -0.04895597 0.0025618258 0.22222406
0000f0 85 c2 94 3d a6 26 d8 3d f9 29 0d be 42 61 20 be
       0.07263664 0.105542466 -0.13785543 -0.15662101
000100 ed e0 a1 3d 63 44 99 3d b1 d7 cd 3d a9 73 81 3d
       0.07904229 0.07483747 0.100509055 0.063208885
000110 ee 99 dc bd 51 2f 6b 3e ee 76 9a be bb 67 c6 3d
       -0.10771547 0.22967269 -0.3016886 0.09687754
000120 33 cf a4 3d 00 a4 53 38 41 c0 fd ba 4a bb b2 bd
       0.080473326 5.0459057e-05 -0.0019359664 -0.08727129
000130 ec 1b 46 bd e8 6f c2 3d 13 0f c2 3c ec ab 36 bc
       -0.048366472 0.09494001 0.023688829 -0.011149388
000140 ac fe 79 bd 4a c0 cc 3d 18 a6 15 be 42 51 84 3b
       -0.06103389 0.09997614 -0.14614141 0.004038007
000150 89 6b 24 bc 73 4a 88 bc fa 4c c9 bd ee 98 26 bd
       -0.010035404 -0.016637063 -0.09829135 -0.04067319
000160 bf b4 15 be f5 9b 58 be 23 d4 bf be 89 16 85 bd
       -0.1461973 -0.21153243 -0.37466535 -0.06498439
000170 65 07 5c 3e a9 59 dd 3b 1d cc 95 bd 01 79 67 3d
       0.21487196 0.006755073 -0.07314322 0.056511883
000180 39 6a d6 bd a8 0a d4 bd 20 b1 12 3e 43 a1 07 be
       -0.10469479 -0.10353595 0.1432538 -0.1324511
000190 b1 de 8d 3c 37 92 8f 3d e8 6d c3 3d cb 04 21 be
       0.017318102 0.0701031 0.09542447 -0.15724485
0001a0 ca 24 16 be 6d 40 18 be 9d 75 1e 3e 03 30 f8 bd
       -0.14662471 -0.14868326 0.15474553 -0.121185325
0001b0 c3 25 c3 bd f3 70 26 3c a5 13 4c 3d 6a d4 f3 3c
       -0.09528687 0.010158765 0.049823422 0.029764373
0001c0 42 d4 c9 bd 17 55 89 3e 1c 44 44 3d 7f b0 09 be
       -0.09854938 0.2682273 0.047916517 -0.13446234
0001d0 1c 69 2b be 0f 5d 5f be 58 30 d7 bc c8 e0 34 bd
       -0.16739315 -0.21812843 -0.02626817 -0.04415968
0001e0 9f 01 b1 bd 76 0c 3e 3d 50 5b a9 bd f9 52 93 3d
       -0.08642887 0.046398602 -0.082693696 0.0719356
0001f0 3b c8 28 be 32 ab 19 be 10 b3 a3 bc 89 68 45 be
       -0.16482632 -0.15006712 -0.019982845 -0.19278158
000200 ca ff 7f bd 7c b2 2c be 11 60 76 3c 4c 9e b5 bd
       -0.0624998 -0.16864961 0.015037552 -0.08868083
000210 44 30 a0 3c 0b 5c 37 bd e4 58 04 3e 1d 76 ed bd
       0.019554265 -0.044765513 0.12924534 -0.11594794
000220 22 b0 b6 bd bb 33 e2 3d 2b e1 a3 3d 54 e6 c5 bc
       -0.089203134 0.11045023 0.08001932 -0.02415768
000230 83 a2 11 be a5 c1 45 3e d6 c4 2b 3d 1e 46 dd bc
       -0.1422215 0.19312151 0.041935764 -0.027010974
000240 61 a2 c0 3c db 48 25 be 51 13 c7 bc dd 07 0a be
       0.023514928 -0.16141073 -0.024301203 -0.13479562
000250 d1 cf 52 bd 86 bf 32 bd 44 6b 52 3d ae 03 0f 3e
       -0.05146772 -0.043639682 0.051371828 0.13966247
000260 4b 15 07 be 07 b4 df bd 43 9f 99 3d af f8 8c 3d
       -0.13191716 -0.10923009 0.0750108 0.0688337
000270 fc b0 ae bd ef 19 ae 3d f3 b7 9d bd d6 91 b6 3d
       -0.08529851 0.0850104 -0.07701101 0.08914535
000280 b5 ab e3 bd 00 19 af 3d d7 4d f7 bc 99 93 66 3d
       -0.11116735 0.0854969 -0.030188484 0.056293104
000290 f1 18 df ba 94 b4 e6 3a dd 76 d7 bd f7 6e 8e 3c
       -0.0017020983 0.0017601424 -0.10520718 0.017386897
0002a0 3c 06 9f 3c e3 49 9f bd fb 3c 08 be 2e 3c 43 bd
       0.019412152 -0.07777765 -0.13304512 -0.047664814
0002b0 74 ab b3 3d 97 29 17 3e a1 5b ca bc 7a 5c 88 3c
       0.087729365 0.14761959 -0.024701895 0.016645659
0002c0 38 17 2b 3d 9d 0d f9 bd 7f 67 77 bd 47 27 8a bc
       0.04177019 -0.121608 -0.060401436 -0.016864432
0002d0 2d 70 c9 3d a8 a5 11 be 50 52 b5 bd ce 87 9c bd
       0.09835849 -0.14223349 -0.088535905 -0.0764309
0002e0 ee e0 07 be 63 c9 58 bc 4f fb 41 be f4 70 23 3e
       -0.13269398 -0.013231608 -0.18943523 0.15961057
0002f0 85 29 74 bd 92 20 4d bd 4b 1e 8f 3e 77 26 35 be
       -0.05960991 -0.05007989 0.279528 -0.17690454
000300 42 5c d2 ba db 39 83 bc f9 32 81 bd df 5c 6f 3e
       -0.0016049223 -0.016018799 -0.063085504 0.23375271
000310 b7 0c 4c 3b 55 d2 2a be 89 86 8f 3c d4 27 49 bd
       0.0031135508 -0.16681798 0.017520206 -0.04911025
000320 f7 4d 2c 3d 9e 0d 72 be 7a 8f 4f bd cf 11 9f 3d
       0.04206654 -0.23638007 -0.05067394 0.077670686
000330 16 77 3f bd 5a 88 af bc b3 96 73 bd 03 46 9a bd
       -0.04674443 -0.021427322 -0.05946989 -0.07532885
000340 14 77 fd 3d 10 87 5e be ef 8d 38 bd 4f d2 1d 3e
       0.12376228 -0.2173121 -0.045057233 0.15412258
000350 80 5f 10 3e 5a bb dd 3d 75 56 74 3d 79 37 58 3d
       0.1409893 0.1082675 0.059652764 0.052787278
000360 c6 18 11 be 09 4e 04 3e 0e b9 91 3e 65 1d 64 3e
       -0.14169607 0.12920393 0.28461498 0.22276838
000370 f9 3a 5d be 27 a6 87 bc e9 07 aa 3d 02 df 4e 3e
       -0.21604528 -0.01655872 0.0830229 0.20202258
000380 a8 42 86 bd 5e c6 f9 3d 53 89 e0 bc 6f 32 16 bd
       -0.065556824 0.12196039 -0.027409231 -0.03666919
000390 10 f2 26 be a9 29 4d be c0 15 8c 3c e7 ce 2e 3e
       -0.16303277 -0.20035423 0.017100215 0.17071114
0003a0 bf a6 4c 3b 41 57 64 bd 11 0f 5b 3c 3f 4b cd bd
       0.0031227318 -0.055747274 0.013370291 -0.10024118
0003b0 72 99 d9 3c f7 ca 5c 3e d0 ac 00 bd 19 64 93 bc
       0.026562426 0.215618 -0.031414807 -0.017992066
0003c0 2d 88 cf 3d 7d eb e2 3d 89 82 76 3d 72 7b 98 bc
       0.10133395 0.11080072 0.06018308 -0.01861355
0003d0 56 92 ae 3c 95 31 80 3d 67 62 4d bd 09 26 b8 bd
       0.021310013 0.06259457 -0.050142672 -0.0899163
0003e0 94 32 f3 3d 32 84 8e 3d ce f3 9a bd 5a 78 86 bd
       0.118748814 0.06958808 -0.07566033 -0.06565924
0003f0 74 ce 4f 3e 5a b4 f8 bd 28 55 07 be 3a 92 07 bd
       0.202936 -0.12143774 -0.13216078 -0.033098437

network_body._body_endoder.seq_layers.0.bias f4 [128]
000000 30 23 a4 3a 31 aa 2a bb 16 6b 75 bb d5 9d 84 3b
       0.0012522694 -0.0026041383 -0.0037447861 0.0040471354
000010 e8 e2 91 ba 34 34 98 bb 50 a9 fa 3a 3b b6 2d bb
       -0.0011130245 -0.004644895 0.0019123945 -0.0026506323
000020 b2 db 5c b9 9b c0 74 3b e1 31 2d 3b 25 26 73 3b
       -0.00021062678 0.0037346247 0.0026427435 0.0037101593
000030 d1 09 53 bb fc a8 81 bb bb e7 84 ba 1a 1f 2e bb
       -0.0032201896 -0.003956912 -0.0010139862 -0.002656883
000040 d0 ab 29 bb e3 dc 4a bb c4 d8 32 3b b8 ec 80 ba
       -0.0025889762 -0.0030954413 0.0027289847 -0.0009836173
000050 75 b2 20 bb d7 98 48 3b 21 e9 fa ba 50 f3 32 3b
       -0.0024520431 0.0030608678 -0.0019142964 0.002730567
000060 32 39 a2 3b 33 56 d1 ba c1 77 ac 3a 34 6d 33 bb
       0.004950666 -0.0015971124 0.0013158248 -0.0027378323
000070 32 6f 3c bb 09 42 23 3a f4 37 a4 3b 7c 94 11 ba
       -0.00287528 0.00062277965 0.005011553 -0.0005553437
000080 4f be 52 bb 7b a3 c0 3a 3b e4 89 3a ce c1 4c bb
       -0.003215689 0.0014697158 0.0010520288 -0.0031243446
000090 c8 80 59 38 d4 02 d6 ba ae 9a 5a 3b 65 b9 f3 ba
       5.185677e-05 -0.0016327747 0.0033356356 -0.0018594681
0000a0 71 97 b7 ba d7 51 2a bb 7a c4 ab ba 77 dd b5 b9
       -0.0014006925 -0.0025988722 -0.0013104819 -0.00034688014
0000b0 88 1a 4f bb 83 ee 1e bb d7 ca 80 bb ce 58 25 bb
       -0.0031601507 -0.002425105 -0.0039304304 -0.0025229934
0000c0 18 d1 cd 3a e8 9e 19 bb 7b eb 1a bb c9 53 25 bb
       0.0015702574 -0.0023440663 -0.0023638892 -0.0025226942
0000d0 69 ce 37 3b fb ed 6c 3b e0 89 c8 3a 91 29 1d b9
       0.0028046614 0.003615259 0.0015299879 -0.00014988171
0000e0 ad 90 dc 3a 7a 99 64 bb 68 ee a6 3b af 6d 28 39
       0.0016827785 -0.0034881518 0.005094338 0.00016062589
0000f0 e1 55 41 39 17 a6 f2 b8 37 d7 38 bb 37 b1 32 3b
       0.00018437907 -0.00011570396 -0.002820445 0.0027266273
000100 db 8c 03 bb fe 21 7e 3a 44 12 0d bb 68 77 e8 b9
       -0.002007297 0.0009694396 -0.002152578 -0.00044339453
000110 e8 a4 69 b9 41 6f 7d 3b 65 1a 27 bb 76 2f 4e 3b
       -0.00022282044 0.0038671049 -0.002549791 0.0031461394
000120 02 ff 41 3b ca fc 1b ba 41 ef ab ba 6a 42 4e b9
       0.002960146 -0.0005950449 -0.0013117568 -0.00019670432
000130 7b 1a 19 3b c3 97 c4 ba 5f df 2c bb 69 24 da 39
       0.002336173 -0.0014998842 -0.0026378257 0.00041607328
000140 82 af 24 3b 9f 09 ca ba 6a 08 13 bb 62 4a 3d bb
       0.0025129025 -0.0015414244 -0.0022435435 -0.0028883447
000150 21 5e 1d 3b 48 9e 78 bb e9 21 8a bb 84 ec 1c 3b
       0.0024012404 -0.003793614 -0.004215468 0.0023944685
000160 b1 21 f3 ba 5b d9 54 bb 04 05 8d 3b 5e 8b 2f bb
       -0.001854947 -0.0032478187 0.0043035764 -0.002678595
000170 79 b0 fe ba c8 1c b7 b9 dc 85 8f b9 24 1b 14 ba
       -0.0019431255 -0.00034925924 -0.00027374818 -0.0005649796
000180 ce 2a 3b 3a e4 ba 2f 3b a5 cd 48 bb 46 ba 1c 3b
       0.0007139862 0.0026814276 -0.0030640152 0.0023914739
000190 66 0c d5 38 61 a3 ec 39 8e e2 0c 38 52 e5 94 bb
       0.00010158941 0.00045135155 3.3589597e-05 -0.0045439387
0001a0 57 8c 0e 3b 3e 45 31 bb ca 12 26 bb df 49 c3 3a
       0.002175113 -0.0027049328 -0.002534079 0.0014899335
0001b0 6e ac c4 3a 25 12 87 ba 92 cd 94 bb b3 48 5e 39
       0.0015005001 -0.001030509 -0.0045411075 0.00021198652
0001c0 c8 c4 29 ba 15 a9 b8 ba 4b f6 13 3b 0c 0c 66 3b
       -0.0006476161 -0.0014088476 0.0022577222 0.0035102395
0001d0 14 aa 98 3b 4f ad ff b9 ab 27 6f b9 3f 9f d2 3a
       0.004658947 -0.00048766515 -0.00022807594 0.0016069188
0001e0 94 0c 49 b9 9b f5 8e ba 0b 6c 98 3b 3e c0 80 3b
       -0.0001917354 -0.0010906936 0.0046515516 0.003929167
0001f0 c2 94 e8 3a e1 ba 42 3b be 56 a4 38 af e8 cb 3a
       0.0017744529 0.002971344 7.8362864e-05 0.0015557016

network_body._body_endoder.seq_layers.2.weight f4 [128, 128]
000000 f9 62 dd 3d 9b 35 de bd 56 e4 8f bc c9 3e 9a 3d
       0.10809893 -0.10850068 -0.017564934 0.075315066
000010 7b 43 e7 bc 6a 38 af 3d cd 54 a0 bd ba 57 32 3e
       -0.02823042 0.08555682 -0.078286745 0.17416278
000020 7c 9a 92 bc 7d fd 82 3d 51 06 01 3c a6 6b 79 bd
       -0.01789593 0.06396005 0.007875041 -0.060893677
000030 2a 80 b3 3c cc f1 e7 3d 88 e9 be 3c e1 00 a4 3d
       0.0219117 0.11325416 0.023304716 0.0800798
000040 6e f3 85 3d 9f 11 34 bd a5 d4 b5 bd 1b 33 d5 3c
       0.06540571 -0.043962117 -0.08878449 0.026025346
000050 e7 d6 18 3e 07 3e 52 3d d7 0e 81 3b 80 c7 02 3e
       0.14925729 0.051328685 0.0039385366 0.12771416
000060 b2 1b ba bd bf 75 90 bc 63 02 82 bd 77 09 a0 bd
       -0.09087314 -0.01763427 -0.063481115 -0.07814305
000070 32 ee 99 3c d8 1a 26 3d 2e db 0b 3e 91 43 ad bd
       0.018790338 0.040552944 0.13657829 -0.08460153
000080 ec 79 b5 bd 80 c2 74 bd d0 a9 85 bb f8 0c f6 bb
       -0.088611454 -0.059755802 -0.004079081 -0.00750887
000090 03 1f 96 3d 8d 4a 23 3c 48 2f 1c 3e fa 5b 6c 3d
       0.07330134 0.009966505 0.15252411 0.057704903
0000a0 32 87 8d bd 52 77 41 be fa f7 bb bd 9a 04 94 bb
       -0.06910552 -0.18893173 -0.09178157 -0.00451715
0000b0 24 4a 18 bd 15 09 bd 3d 3e 61 90 3d ef 27 45 bc
       -0.03718008 0.09230248 0.070497975 -0.012033447
0000c0 8e 90 21 bd 89 6d d2 3d fc 08 9b bd d0 91 9d bd
       -0.0394445 0.102747984 -0.07570073 -0.07693827
0000d0 8f 43 da bd ff 26 ed 3d 22 ea 20 3e ad 70 9c 3c
       -0.10657417 0.115797035 0.15714315 0.019096697
0000e0 ea 7f 56 bd cb 1d 24 bd 44 95 1b 3d e8 80 da bd
       -0.052368082 -0.040067475 0.037984148 -0.10669118
0000f0 bc b4 e4 bd f1 8c b3 bd 4a 54 07 3d 63 7f 07 be
       -0.11167285 -0.08767117 0.03303937 -0.13232188
000100 fb bd 02 3d 14 b6 00 be ca d9 2e bd e3 11 77 3c
       0.03191946 -0.12569457 -0.04268817 0.015079948
000110 0f e2 96 3d 58 92 19 be c5 4f c0 3d 4c b0 20 3d
       0.07367336 -0.14997232 0.09390215 0.03923063
000120 75 bf 0c 3e 5b 3a 08 be b1 11 c8 3d 60 83 a8 bd
       0.1374491 -0.13303511 0.09768999 -0.08228183
000130 53 0d 2f bc 99 81 4b 3d 84 bd c5 3d d4 b6 33 3c
       -0.010684329 0.04968414 0.09655288 0.010968883
000140 91 7e 85 3d 58 89 1f be 2f 62 60 bd 31 29 16 be
       0.06518281 -0.15579736 -0.054781135 -0.14664151
000150 30 06 8d 3d 19 6d 84 3d 2f d6 f7 bc 1a b0 d7 3d
       0.06885946 0.06466121 -0.030253498 0.105316356
000160 41 03 2e be 74 be 7f 3d 79 bc 5a 3e 87 30 7d 3d
       -0.16993429 0.06243749 0.21360959 0.061813857
000170 5d eb 58 3d 31 ec d2 bc 89 27 2e 3b d7 1c 8e b9
       0.052958835 -0.02574739 0.0026573858 -0.00027105838
000180 e9 19 8d 3d d1 2f d0 3d f8 d6 1b bd 8a f2 1a 3c
       0.068897076 0.1016537 -0.038046807 0.00945724
000190 6d ca 51 bd 80 73 78 bd 0b 34 26 3d 19 7e 47 bd
       -0.05121844 -0.060657024 0.040576976 -0.04870424
0001a0 06 dd c4 3d 6e 29 74 bd 73 49 0f bd cd 16 25 be
       0.096124694 -0.059609823 -0.034982156 -0.16121979
0001b0 11 44 c3 3c 0e a9 43 be 20 3b 8c bd ab 83 8e bc
       0.023836168 -0.19107458 -0.06847215 -0.017396769
0001c0 b6 ac 12 be 89 f8 7a be 50 ad 31 be 80 fc d9 3d
       -0.14323696 -0.24508871 -0.1735127 0.10643864
0001d0 3d fc 02 3e 79 e0 0c be 64 06 69 bd 53 4d ae 3d
       0.12791534 -0.13757505 -0.05689086 0.08510842
0001e0 66 61 4d bd e8 eb 1b be 2e 8b 23 bd e7 62 0c 3e
       -0.050141715 -0.1522671 -0.039927654 0.13709603
0001f0 5d 98 f2 bc c9 ed c3 bd 0c 57 80 bd cc 75 b9 3c
       -0.029613668 -0.09566838 -0.06266603 0.022639178
000200 a6 ec 9a 3d 3c 77 a7 bd 80 80 04 3e 89 db 2a 3c
       0.07564668 -0.08177039 0.12939644 0.010428318
000210 92 a5 18 3d e3 8a a2 bc 97 f2 64 3d 03 86 01 bd
       0.037267275 -0.019841617 0.055895414 -0.031621944
000220 f5 ce 12 3e 63 d5 83 bd 4c 08 80 bd c9 d8 27 bd
       0.1433676 -0.06437185 -0.062515825 -0.040978227
000230 87 c2 7c 3b 59 82 92 3c f8 42 41 3e a9 f9 62 3d
       0.0038568096 0.01788442 0.18873203 0.055413876
000240 96 da aa bc 7b 56 a1 3d a2 25 36 be 50 34 8c ba
       -0.020856183 0.07877823 -0.17787793 -0.0010696743
000250 69 4a 31 3d 1e ad 3a 3d 6b 5f 7d 3d e7 7c a9 3b
       0.043283854 0.045575254 0.061858576 0.00517236
000260 84 13 53 3d 1d 8b ad 3c b2 3d e7 3d 11 f5 0a be
       0.051532283 0.021184498 0.11291064 -0.13570048
000270 4c d8 1a 3e 69 90 ba 3d 99 23 cc bd ad e6 d0 bd
       0.15121573 0.09109575 -0.09967727 -0.10200248
000280 5d 72 0d bc 5a cb ac 3b f2 c2 0c bd bc e8 f3 bd
       -0.008633223 0.005273265 -0.0343656 -0.11909625
000290 86 cd 15 3e f0 ed 97 bd 9b 0d de bd 69 37 c0 3d
       0.14629182 -0.0741843 -0.10842439 0.09385569
0002a0 3c 79 aa 3c 92 8b a0 bd 2e 85 37 be 55 6d 3d bc
       0.020809762 -0.07839121 -0.17921898 -0.011561711
0002b0 81 69 e3 3d d9 b0 0f bd 63 22 bc 3c 2a 9a 9d bc
       0.11104108 -0.035080764 0.022965616 -0.01923855
0002c0 31 e7 58 bd 78 4a 9e bd 5a 58 f1 3d d7 11 e9 3d
       -0.052954856 -0.077290475 0.1178443 0.11380356
0002d0 93 96 60 bd ab 8a 49 3d 7b 9f 4f bd 79 19 b1 bd
       -0.0548311 0.04920451 -0.0506892 -0.08647437
0002e0 bb f0 af bd f5 a1 00 3d 50 51 81 bc 07 2f a8 3d
       -0.085908376 0.031404454 -0.015785843 0.08212095
0002f0 b6 ee 03 3d ed f3 ea 3c 74 91 e7 3d 0a 89 87 3d
       0.032210074 0.028680766 0.1130704 0.06617935
000300 a4 83 d2 bd d2 1f ce bd 7a 79 69 bc e1 45 47 3d
       -0.10279015 -0.10064663 -0.014250154 0.048650626
000310 f6 64 3f bd b8 b5 af 3d b6 94 6a 3d 10 27 fa 3d
       -0.046727143 0.08579582 0.057270728 0.12214482
000320 0b c4 07 3d d8 34 ec 3c 1a 3c c3 bd 5f c8 1c bd
       0.033145946 0.028833792 -0.09532948 -0.038277026
000330 a7 05 3d 3d ea 76 8a 3d 9c d9 93 3d ec ac a2 bc
       0.04614797 0.06760962 0.0721924 -0.019857846
000340 9f 21 01 3d 0d 7d e2 3c dd 0a 2e 3d 41 98 3c bc
       0.031526204 0.02764752 0.04249083 -0.01151091
000350 fa fb 92 bd bd ab 12 3d e6 14 1e be f1 9a d4 3c
       -0.07176967 0.035808314 -0.1543766 0.025952788
000360 2b 0e 0b 3e e2 14 bc bd 0e 18 39 be ad 7a 79 be
       0.13579623 -0.091836706 -0.18075582 -0.24363203
000370 76 7b 5d 3d 0b b0 17 be d5 eb a7 bd e5 c0 86 bd
       0.05407282 -0.14813249 -0.08199278 -0.065797605
000380 cd b4 0b 3d 99 b3 18 bc 6b 2e 69 3c 31 f2 c4 3d
       0.034107972 -0.009320163 0.014232258 0.09616507
000390 86 77 96 3c 25 b4 fd bd 79 e4 9f 3d ea 7d 86 bb
       0.01836754 -0.123878755 0.078072496 -0.0041043656
0003a0 25 fa e9 bd 4a 55 93 3d 8a e8 64 bd 05 88 b6 bd
       -0.114246644 0.07194002 -0.05588583 -0.089126624
0003b0 af da 5b bd 20 37 9e bd 87 cb 55 bd cb 7f 36 3e
       -0.05367535 -0.07725358 -0.052196052 0.17822187
0003c0 7b 5c 78 3b e9 7f f4 bd 5f 13 33 3d 0e 52 07 3c
       0.003789692 -0.119384594 0.043719646 0.008259309
0003d0 27 a7 88 3d 76 db a8 bd bc 69 3f 3e f6 a3 b2 bb
       0.06672507 -0.08244984 0.18692678 -0.0054516746
0003e0 bb 9a 27 3e 74 83 1a be 69 df 54 bd 0a d2 18 3d
       0.16367619 -0.15089208 -0.051970873 0.037309684
0003f0 b4 c3 b4 3d 4e 47 27 3c 6d 03 8e bd 56 ba 24 be
       0.0882639 0.010209871 -0.06934247 -0.16086707

network_body._body_endoder.seq_layers.2.bias f4 [128]
000000 92 64 fc ba 87 81 55 3b ac f8 b2 39 2f b3 98 3b
       -0.0019256047 0.0032578425 0.0003413608 0.004660032
000010 0a 90 4e 3b ca 92 c4 3a e3 19 2b bb 78 e9 46 3b
       0.003151896 0.001499736 -0.002610796 0.003035156
000020 8f 1d 84 3b 44 d4 57 3b 00 5f 05 bb 37 b0 d3 ba
       0.004031844 0.0032932917 -0.0020350814 -0.0016150539
000030 7a dd 44 3b b1 96 86 3b 80 c7 c1 3a d0 7c f5 3a
       0.0030039237 0.0041073193 0.0014784187 0.0018729214
000040 39 e7 0d 3b 2b 3a 5f b9 d2 6e 75 3b b6 47 2f bb
       0.0021652712 -0.00021288607 0.0037450087 -0.0026745624
000050 5f d5 3b bb d6 93 70 3b b9 5a 5b 3b dd 5c 80 3b
       -0.0028661115 0.003670921 0.0033470823 0.00391732
000060 de 0b da b9 33 ba f5 38 21 2d 3f 3b 42 11 b9 39
       -0.00041589042 0.00011717193 0.0029171186 0.00035298808
000070 a6 a7 53 3b 4a ff ce 3a bc 86 b6 3b f6 83 13 3b
       0.0032295971 0.0015792635 0.005570261 0.0022509075
000080 e2 2f 48 bb 11 6f 3d bb 47 6a 20 3b 7d 2c 32 3b
       -0.0030546119 -0.0028905312 0.0024477409 0.0027187162
000090 34 e1 6e bb b9 92 31 bb 2a f3 8a bb d7 d1 9c 3a
       -0.003645015 -0.002709551 -0.004240413 0.0011964393
0000a0 99 05 5b bb 33 78 81 3b a4 d1 3e 3a 48 c1 68 bb
       -0.0033420085 0.0039510964 0.00072791637 -0.0035515595
0000b0 35 80 17 bb 04 d0 8e b8 5a bd fb ba a5 c3 6e bb
       -0.0023117189 -6.8098336e-05 -0.0019206211 -0.0036432531
0000c0 a4 b2 1f bb 09 7d 7c bb af 06 7e 3b 45 ba e6 ba
       -0.0024367953 -0.0038526675 0.0038761308 -0.001760312
0000d0 2e 39 65 3b b7 a1 84 ba 6f de be 3a c0 e5 46 bb
       0.0034976709 -0.0010118996 0.001456214 -0.0030349344
0000e0 ee eb 0a bb 6f d9 3a bb 84 92 47 ba 9a 22 f8 b8
       -0.0021197754 -0.0028510948 -0.000761308 -0.000118320066
0000f0 2c 04 6f 3b 42 41 32 3b 4b 45 6f ba c4 30 51 bb
       0.0036470992 0.0027199541 -0.0009127452 -0.0031919936
000100 15 e6 59 bb 99 29 f1 3a 9d a9 30 bb 47 df 94 ba
       -0.0033248712 0.0018399238 -0.0026956566 -0.0011358046
000110 eb ba 08 bb ec 90 39 b9 a4 0f 76 3b 94 55 5d 3b
       -0.0020863365 -0.00017696962 0.0037545944 0.0033772932
000120 41 00 3a ba 05 de 34 bb bb 96 40 3b 05 7d 1f 3b
       -0.0007095375 -0.0027598154 0.0029386717 0.0024335992
000130 eb 51 43 3b 6f c1 48 bb 42 d0 39 3b 9e a0 15 bb
       0.0029803466 -0.0030632874 0.002835289 -0.002283133
000140 b9 a9 43 bb 0b 03 ba 3a b0 5c 50 bb 06 ae d2 ba
       -0.0029855801 0.0014191581 -0.0031793527 -0.0016073592
000150 88 08 93 3b e0 e0 26 3b 5c 75 18 bb 93 04 7a 3b
       0.004487101 0.0025463626 -0.002326331 0.00381497
000160 e4 29 36 bb 04 6c d9 3a a0 71 1d bb 01 99 63 3b
       -0.0027795965 0.0016587977 -0.0024024025 0.0034728649
000170 33 c0 3b bb 45 fd 3e bb d5 73 20 bb 52 1a 02 bb
       -0.0028648495 -0.002914266 -0.0024483104 -0.0019852114
000180 9c 16 2a 3b 7a ed 23 3b 87 a7 b0 b8 bb 89 3e 3b
       0.0025953418 0.0025013373 -8.4235384e-05 0.0029073793
000190 74 95 ef 3a 5b 85 df ba b3 97 10 bb 2e a1 c0 3a
       0.0018278793 -0.0017053293 -0.0022063076 0.0014696473
0001a0 62 65 7e ba 7d a3 4a bb 48 1e 89 bb 80 51 06 3b
       -0.0009704438 -0.00309202 -0.004184518 0.0020495355
0001b0 18 0e a9 bb 20 e3 a1 b8 ef 2d 20 bb 5f c4 48 bb
       -0.005159151 -7.7193836e-05 -0.002444144 -0.0030634624
0001c0 3c 13 d6 b9 53 bb 8e bb 1a 66 41 3b 52 17 89 bb
       -0.00040831591 -0.004355827 0.002951032 -0.004183688
0001d0 ff e8 26 bb 8a 59 32 3b f8 12 48 bb e6 50 66 3b
       -0.0025468466 0.0027214014 -0.0030528884 0.0035143434
0001e0 6e b2 3a 3b 84 92 67 b9 a0 49 7a 3b db 3a 06 3b
       0.00284877 -0.00022084458 0.0038190857 0.0020481858
0001f0 74 ac 25 3a a5 9c 0b bb 8e e4 65 3b 82 ec 33 3b
       0.0006319948 -0.0021303084 0.0035078856 0.0027454202

action_model._continuous_distribution.log_sigma f4 [1, 2]
000000 5e 29 c8 ba 5f 84 00 39
       -0.0015271117 0.00012256343

action_model._continuous_distribution.mu.weight f4 [2, 128]
000000 c9 7b eb 38 75 ef 28 bc d3 02 8b bc f8 83 3e bc
       0.0001122873 -0.010310997 -0.01696912 -0.0116281435
000010 6c 84 0f bd fd 9b 55 bc 5b b4 24 3c ab 04 22 bc
       -0.035038397 -0.013037679 0.010052766 -0.009888808
000020 78 77 8b bc bc 8b 48 bc fb 78 ca 3c 42 df a1 ba
       -0.01702474 -0.0122403465 0.024715891 -0.0012349861
000030 b9 3d 02 bc b5 49 21 bc ff f4 03 bc 16 ef 04 bd
       -0.007949286 -0.009844233 -0.008054017 -0.032454573
000040 fa b0 96 bb 49 a8 ef ba 76 47 14 bc c5 2a b6 3c
       -0.004598734 -0.0018284406 -0.009050241 0.022237191
000050 b4 db bd 3b ee fd cf bc d9 0d b8 bc be be 3b bd
       0.005794013 -0.025389638 -0.02246754 -0.045836203
000060 45 9e 51 bb 21 bb 01 bb 66 1a df bc e7 0a cd bb
       -0.0031985205 -0.0019795375 -0.027234267 -0.006257403
000070 ef b1 8b bc d6 4f 42 bb 1f 7f 42 bc bf f4 d7 bc
       -0.017052619 -0.0029649637 -0.011871128 -0.026361821
000080 8a fd 86 3c 64 39 4a 3c 96 6e 59 bc ca b6 95 bb
       0.016478319 0.012342785 -0.013270995 -0.0045689093
000090 0f d1 7f 3c 18 3a 95 3c 07 bd 0d 3c 83 f4 8d ba
       0.015613808 0.018216178 0.008651025 -0.0010830316
0000a0 5e b3 02 3c c8 36 c1 bc dd 69 e5 ba 01 33 63 3c
       0.007977335 -0.023585692 -0.0017502863 0.013867141
0000b0 2e ae d8 3b f0 e9 e7 3b 0b 74 b3 3c 3b d7 67 3b
       0.0066125607 0.007077448 0.02190592 0.003537609
0000c0 2e a2 71 3c 22 a3 ca 3b 56 7f 88 bb 73 c3 7d 3c
       0.014748139 0.0061839977 -0.0041655703 0.015488493
0000d0 6d fa 66 bc db 64 b3 3b 6b 85 c2 bb 09 b7 79 3c
       -0.014097792 0.0054746694 -0.005936315 0.015241393
0000e0 7d 98 6b 3c b5 b2 b5 3c 74 c7 25 3c f7 34 f9 bb
       0.014379618 0.02217994 0.010118354 -0.007605191
0000f0 d7 f9 fb ba a9 0f b7 bb e9 15 14 3c a5 15 8b 3c
       -0.0019224238 -0.0055865836 0.009038427 0.016978094
000100 91 b2 be 3b 20 cc 3b bc 95 82 61 3c da 72 83 3b
       0.0058196266 -0.011462241 0.013764043 0.004011494
000110 ca 6c c0 3c 73 a8 b7 ba b3 10 a3 bc b0 f5 1d bd
       0.023489375 -0.0014011994 -0.019905424 -0.038564384
000120 b2 51 55 3b 46 40 dc 3b ea 26 e5 bc be a4 b6 bc
       0.0032549915 0.006721529 -0.027972657 -0.022295352
000130 e2 ae 26 bd 93 83 f6 3b aa d0 92 bc 6b e2 9f 3c
       -0.040694125 0.007523009 -0.017921764 0.019517144
000140 51 dc 80 3c 04 cf 92 bc e6 fe ba 3c 96 e3 23 3c
       0.015730055 -0.017920978 0.022826623 0.010002991
000150 29 17 f2 bc c1 d1 f2 bb 08 45 ea 3b a7 42 42 bd
       -0.02955206 -0.0074102585 0.0071493424 -0.047426846
000160 91 41 e9 3b bc 8a 46 bc 3e 2b 78 3c b1 ea 58 bd
       0.007118412 -0.012118038 0.0151470285 -0.052958194
000170 8e f2 14 3c 03 f2 a6 3c 2d 51 9c 3b c2 73 b5 3b
       0.009091033 0.020379072 0.004770419 0.005537481
000180 1e f2 c8 ba c8 62 d5 bc ce 26 63 bb 81 e9 dd bb
       -0.0015330946 -0.02604808 -0.003466058 -0.0067722206
000190 e8 6e af bc 71 b5 60 3c 01 37 71 3c 2a 9d 2e bb
       -0.021415189 0.013715134 0.014722587 -0.002664397
0001a0 4f c3 6c 3b 40 cc d5 3c c1 3a c2 3c 3e 03 84 bb
       0.0036127155 0.02609837 0.023709657 -0.004028707
0001b0 f3 3a a2 3b 53 79 b8 3b 8a ed 18 3c fc 02 af 3c
       0.004950875 0.0056296973 0.0093339775 0.021363728
0001c0 40 52 aa 3b b5 68 a8 3c 7d f4 b6 bc 8a ae 38 3b
       0.0051977932 0.02055774 -0.022333378 0.0028180205
0001d0 04 58 6d 3c 75 9c 0f bc 16 7e aa 3c 4c d0 f6 bb
       0.014486317 -0.00876533 0.020812076 -0.007532155
0001e0 11 4a bd bc e5 de a4 3b ca b9 69 bc 52 15 5f bc
       -0.023106607 0.005031454 -0.014265487 -0.013615923
0001f0 02 e9 fe b9 3c 12 6a 3d 95 2e 9f bb 4f c0 b1 bc
       -0.0004862026 0.057146296 -0.004857848 -0.021698145
000200 aa f4 85 3c 35 64 84 3c cb aa 4c bd f9 cc 13 bc
       0.016352016 0.016161064 -0.04996757 -0.009021037
000210 64 d4 df bc 32 61 f4 bc e7 b4 cd 3b 14 49 44 3c
       -0.027322955 -0.029831503 0.0062776688 0.011980314
000220 c2 24 ad 3c cc 99 12 3c d6 0a 0d 3d 92 62 2b 3b
       0.021135692 0.008947801 0.034434162 0.0026151282
000230 84 df 2d bc 70 6c 49 bb 08 0d 72 3c 0f 7c 7f bc
       -0.010612372 -0.00307348 0.014773615 -0.015593543
000240 91 b6 93 3b 26 2b 31 3c aa a0 9a bc fe 7d 71 bc
       0.0045078476 0.01081351 -0.018875439 -0.014739512
000250 0b f4 58 bc e8 69 83 bc 42 81 a5 bc c3 89 dd 3a
       -0.013241778 -0.016041711 -0.020203236 0.0016902018
000260 65 0a f0 bc af 85 83 bc e2 b9 ed 3b 18 8e 0e 3d
       -0.029301831 -0.016054956 0.007254825 0.03480348
000270 7c 2a 91 3b f0 7b 90 3b 32 41 c8 bb ab 33 91 3c
       0.0044301134 0.0044093058 -0.0061112875 0.017724833
000280 af 94 09 bd 39 63 3c 3b 80 30 84 3c 4d 2d a0 3b
       -0.03358906 0.0028745665 0.016136408 0.004888213
000290 ad 21 4d bc d2 e0 ac 3c 24 4e 05 3b 2a 2a 06 3c
       -0.012520236 0.021103296 0.0020340765 0.008188764
0002a0 16 a4 9a bb ad 2b 30 3c c6 9c 8a 3c 3d 77 86 bc
       -0.0047192676 0.010752601 0.016920459 -0.01641428
0002b0 be 82 9b bc 80 3a d6 3c 52 10 a3 bb 42 9a 93 b9
       -0.018983241 0.026150942 -0.004976311 -0.00028152956
0002c0 67 05 d7 bc 91 06 ce bb de a7 32 bb ea 15 1f 3d
       -0.026247693 -0.006287404 -0.0027260701 0.03883926
0002d0 e4 91 ce 3a 32 58 0a bd 3c e9 c2 bc 7f a7 d0 bc
       0.0015760032 -0.033775516 -0.023792855 -0.025470493
0002e0 e2 88 23 3c 39 6f 5b bc 6c e6 00 3d 94 39 cb 3c
       0.009981366 -0.013393217 0.031469747 0.024807729
0002f0 5c 6c 5b 3b 82 d1 cb bc 67 01 25 3c 38 94 e6 bc
       0.0033481335 -0.024880175 0.010071135 -0.028146848
000300 c5 5f 23 bc b8 1f e3 3c 3d 7e 25 3b fd 5d 96 3c
       -0.009971564 0.027725086 0.0025252246 0.018355364
000310 fa b4 d8 bc 08 79 a1 3c 78 2d 1e 3c 63 7b 88 3c
       -0.026453484 0.019711033 0.009654395 0.016660398
000320 6c 7a be ba d1 1e 1e bc df 6a a7 3c c9 a9 c8 bc
       -0.0014532334 -0.009650902 0.020436702 -0.024495022
000330 3f 96 32 3c 51 47 9c bc 50 a8 e5 bb 4e 92 86 3c
       0.010900079 -0.019076975 -0.00700859 0.016427185
000340 17 52 60 bc 54 5d 06 bd 44 14 11 3c 85 b5 9b 3b
       -0.013691447 -0.03280385 0.008854929 0.0047518634
000350 50 24 37 bc 03 91 a7 3c bb 14 98 bc ca ca a2 38
       -0.011178091 0.02045489 -0.018564573 7.7625344e-05
000360 f7 b5 3e 3c d5 15 29 bd cf 3f db bc ba 95 a2 3c
       0.0116400635 -0.041280586 -0.026763825 0.019846786
000370 57 f7 a7 bb d1 2b 0d bc 1b 55 0b 3c 11 7f aa bb
       -0.0051259208 -0.008616404 0.008504177 -0.005203136
000380 f9 74 b4 bb d5 57 c7 bc 62 6a bf 3c 11 3f 4c bc
       -0.0055071083 -0.024333874 0.023366157 -0.012466208
000390 68 cb 10 bc 91 d1 ee 3c 04 80 13 3c bf e0 c1 bb
       -0.008837558 0.029152663 0.009002689 -0.0059166844
0003a0 fe 7a 69 3c 0f 02 8a bc e5 f4 3b bc f1 50 1f 3c
       0.014250515 -0.016846685 -0.011471962 0.009723888
0003b0 dd 58 d3 39 3c 91 7f 3c df 24 db bb 72 f8 74 3c
       0.00040311264 0.015598591 -0.006687745 0.014951812
0003c0 9d 61 15 3c ba 47 a4 3c d2 11 97 bb ef 6a 0c 3a
       0.009117511 0.020053733 -0.0046102786 0.00053565105
0003d0 36 c3 b9 bc 52 82 c7 3b b7 95 cf 3c a7 60 11 b8
       -0.022676092 0.0060885334 0.025339944 -3.466071e-05
0003e0 50 35 9a bc 3b 66 c1 3c d9 e7 48 bc 0a e5 a9 bc
       -0.01882425 0.023608318 -0.012262308 -0.020739097
0003f0 c3 5b aa 3c 87 25 54 3c 70 c6 d6 ba 12 8d f6 bc
       0.020795709 0.0129484 -0.0016386043 -0.030096564

action_model._continuous_distribution.mu.bias f4 [2]
000000 c0 9d 65 bb d1 0e 8c 39
       -0.0035036653 0.0002671392

action_model._discrete_distribution.branches.0.weight f4 [1, 128]
000000 00 5b d7 3b bb 73 e4 39 5b a5 77 bc bd 41 e4 3b
       0.0065721273 0.00043573775 -0.015115107 0.0069658444
000010 97 a6 62 3c 55 f9 dc bb 83 3d 13 bc c3 28 5a 3c
       0.013833663 -0.00674359 -0.0089868335 0.013315382
000020 fa 38 5f 3c 41 c1 43 3b f8 d8 4f bb 8b fb cb bb
       0.013624424 0.0029869827 -0.0031715017 -0.0062250546
000030 a8 65 7e bb af f2 ec bb 8b dd 6f bb 66 d9 bf bb
       -0.0038817916 -0.0072310786 -0.0036600556 -0.0058547733
000040 cd d1 48 bc 9b 67 d0 bb 6f 57 a4 bc 07 62 17 bc
       -0.012257052 -0.006360007 -0.020061223 -0.00923968
000050 9a ea a0 3a 5c 26 31 bb 3b 7f 84 3c bc 23 9c 3b
       0.0012276948 -0.002703092 0.01617395 0.004765002
000060 61 d3 01 bb 5a be b1 3b df 9c 88 3b f3 7b 0c 3b
       -0.001980983 0.005424303 0.004169091 0.0021436184
000070 28 3d b0 3b b6 33 16 3c 9a 6a 1c 3b 6a 5f d5 ba
       0.005378384 0.009167602 0.002386725 -0.0016279046
000080 65 7c 9e b9 2b f8 81 bc 8d 98 85 bb 6f 1a 41 bb
       -0.0003022879 -0.015865406 -0.0040770234 -0.0029465219
000090 69 bd 3c 3c 62 5f 21 bc ef bc 1a 3b 05 dd de 3b
       0.011519768 -0.009849401 0.0023611148 0.00680125
0000a0 47 80 f4 3a 47 df 9c bb bb 4d 3b 39 e7 f6 fb bb
       0.0018653952 -0.004787359 0.00017862667 -0.007689345
0000b0 80 0a 50 bb d1 cf 8e ba 8c 12 0d 3c b7 f6 2f 3a
       -0.003174454 -0.0010895674 0.008610379 0.00067124836
0000c0 da 05 ff bb af 2f 26 bb 15 e9 92 bb 52 f2 16 bb
       -0.00778268 -0.0025358011 -0.004483352 -0.0023032618
0000d0 6f 7e e4 3b c5 38 3c bc 33 eb 38 bb 1f c0 b8 3b
       0.00697308 -0.011488144 -0.0028216362 0.005638137
0000e0 5b 13 99 3a 93 d7 5c 3b f3 a7 4a bb 58 47 13 3c
       0.0011678742 0.0033697828 -0.003092286 0.008989178
0000f0 d0 45 b7 b9 81 a9 3e 3b 97 ae 84 3b 76 89 9b 3a
       -0.00034956494 0.0029092731 0.004049133 0.0011866528
000100 af 9f e8 ba e2 fd ac bc 30 c6 b2 3b db eb 0a bc
       -0.0017747785 -0.021117155 0.0054557547 -0.008479084
000110 47 96 1b 3c 7e 25 8b bb f7 6b bf 3c 55 f3 db 3b
       0.009496278 -0.004246413 0.023366911 0.006712357
000120 50 d2 eb bb 3d e5 c6 3b 7b 36 30 3c 53 82 b5 bb
       -0.007196702 0.006069808 0.010755177 -0.0055392175
000130 ef b1 5a ba 98 f3 45 3c 6f 9d 76 ba 15 b6 12 bb
       -0.0008342554 0.012082003 -0.00094076147 -0.0022386361
000140 d4 5f 17 bc c8 da 25 3c 4e fc 25 bc 4d f0 bc 3b
       -0.009239156 0.010122962 -0.010130955 0.005765951
000150 0a 26 cd 3c 1e 5c c2 3b b0 38 f6 bb 56 4f 94 bc
       0.025042553 0.0059313914 -0.007514082 -0.018104237
000160 07 42 4f bb 73 fa 7a 3c 83 dd 21 bc 94 69 82 bc
       -0.0031625049 0.015318501 -0.009879473 -0.015919484
000170 68 d3 bf bb ef ac b3 3b e4 15 c4 3b a8 c3 3e bb
       -0.005854059 0.005483262 0.005984055 -0.002910832
000180 8d f2 7c ba b7 fb f0 ba 6a a6 f3 3b 48 d5 dc ba
       -0.000964918 -0.0018385564 0.0074356096 -0.0016848231
000190 6a cf cf ba af 0e 95 bb 2a 84 7c 3b d2 6d db bb
       -0.0015854661 -0.0045488696 0.0038530924 -0.006696441
0001a0 b6 f1 11 bc 8f 7e db 3b 1f 38 80 3c 20 a5 75 ba
       -0.008907726 0.0066984366 0.01565176 -0.0009370614
0001b0 ef d6 54 bc c7 69 c6 ba 4e 00 2c 3b d0 97 da ba
       -0.012990697 -0.0015137725 0.0026245299 -0.0016677324
0001c0 b2 ce fc bb f3 e4 06 bc a6 07 a2 bb 0d 2f e4 ba
       -0.0077150697 -0.008233297 -0.0049447594 -0.0017409042
0001d0 da 13 66 bb ec ac 0b bc 05 ea f2 bb 47 0a 0e 3c
       -0.0035107047 -0.0085251145 -0.007413151 0.0086694425
0001e0 13 67 89 b9 bf 15 77 3b 42 70 cf bb ef 93 e2 b9
       -0.00026207473 0.003770217 -0.006330521 -0.00043216298
0001f0 cb 3b e8 ba a5 dc f6 bb 62 e5 bf bb 57 e4 c5 3b
       -0.0017718015 -0.007533627 -0.005856202 0.006039183

exp_avg f4 [128, 78]
000000 d3 dc 26 b7 d3 dc 26 b7 d3 dc 26 b7 8a 72 50 37
       -9.945786e-06 -9.945786e-06 -9.945786e-06 1.2424434e-05
000010 a4 06 4c b7 38 c7 c8 b7 b7 55 84 b7 02 4d 6b b7
       -1.2160894e-05 -2.3934626e-05 -1.577554e-05 -1.4025021e-05
000020 8e 8a ca b7 8f e2 21 b6 eb d3 a3 b7 d2 08 ba 37
       -2.4144796e-05 -2.4122744e-06 -1.9529796e-05 2.2177035e-05
000030 ca d2 6f b7 c8 f9 39 b7 8e fe 0d b7 e5 02 b7 36
       -1.4294588e-05 -1.1085016e-05 -8.463523e-06 5.454162e-06
000040 54 0e 8a b7 8b bd 2f b7 00 00 00 00 7f 7d 85 b4
       -1.6457554e-05 -1.0474944e-05 0.0 -2.486449e-07
000050 00 00 00 00 d3 dc a6 b6 7f 7d 85 b4 d3 dc a6 36
       0.0 -4.972893e-06 -2.486449e-07 4.972893e-06
000060 d3 dc a6 b6 7f 7d 85 b4 d3 dc a6 b6 d3 dc a6 36
       -4.972893e-06 -2.486449e-07 -4.972893e-06 4.972893e-06
000070 7f 7d 85 b4 d3 dc a6 b6 d3 dc a6 36 7f 7d 85 b4
       -2.486449e-07 -4.972893e-06 4.972893e-06 -2.486449e-07
000080 d3 dc a6 36 00 00 00 00 00 00 00 00 a4 0b cc 35
       4.972893e-06 0.0 0.0 1.5202572e-06
000090 00 00 00 00 c2 cb 18 b5 e9 c8 8a b7 31 d5 58 b7
       0.0 -5.692092e-07 -1.6544438e-05 -1.2924241e-05
0000a0 31 d5 58 b7 31 d5 58 b7 af a7 54 37 d6 ce 4b b7
       -1.2924241e-05 -1.2924241e-05 1.2675227e-05 -1.2147901e-05
0000b0 87 52 e3 b7 83 4b 9d b7 2c 63 61 b7 13 54 e0 b7
       -2.7098939e-05 -1.8751021e-05 -1.3434135e-05 -2.6742031e-05
0000c0 eb 3c 8e b6 61 3c 97 b7 fe 8e a7 37 c2 20 8f b7
       -4.2390216e-06 -1.8028719e-05 1.9974537e-05 -1.7062182e-05
0000d0 95 39 26 b7 ea 07 29 b7 2e 54 67 37 23 87 a2 b7
       -9.907778e-06 -1.0075028e-05 1.3788273e-05 -1.9374833e-05
0000e0 59 e3 46 b7 00 00 00 00 5f 77 ad b4 00 00 00 00
       -1.1854653e-05 0.0 -3.2310615e-07 0.0
0000f0 31 d5 d8 b6 5f 77 ad b4 31 d5 d8 36 31 d5 d8 b6
       -6.4621204e-06 -3.2310615e-07 6.4621204e-06 -6.4621204e-06
000100 5f 77 ad b4 31 d5 d8 b6 31 d5 d8 36 5f 77 ad b4
       -3.2310615e-07 -6.4621204e-06 6.4621204e-06 -3.2310615e-07
000110 31 d5 d8 b6 31 d5 d8 36 5f 77 ad b4 31 d5 d8 36
       -6.4621204e-06 6.4621204e-06 -3.2310615e-07 6.4621204e-06
000120 00 00 00 00 00 00 00 00 a4 67 01 36 00 00 00 00
       0.0 0.0 1.9282825e-06 0.0
000130 2b 92 a5 b5 40 ea 98 b7 4c a2 1a 36 4c a2 1a 36
       -1.2335998e-06 -1.8228893e-05 2.3042257e-06 2.3042257e-06
000140 4c a2 1a 36 24 6a 9c b6 8f a7 af b5 06 2a 38 b7
       2.3042257e-06 -4.6615187e-06 -1.3087282e-06 -1.0977039e-05
000150 8e 08 d8 b6 29 10 f9 b5 e4 1d 17 b7 4c a9 cf b6
       -6.4382975e-06 -1.8556649e-06 -9.007261e-06 -6.1887895e-06
000160 2e 7d 04 b7 67 e4 45 37 c1 ea f0 b6 27 08 13 b5
       -7.896959e-06 1.1795294e-05 -7.1798863e-06 -5.477363e-07
000170 83 c3 20 b7 1e 61 05 b6 68 1a c5 b6 f0 9b 48 b7
       -9.582264e-06 -1.9875074e-06 -5.8741316e-06 -1.1957236e-05
000180 00 00 00 00 f0 69 77 33 00 00 00 00 4c a2 9a 35
       0.0 5.760552e-08 0.0 1.1521129e-06
000190 f0 69 77 33 4c a2 9a b5 4c a2 9a 35 f0 69 77 33
       5.760552e-08 -1.1521129e-06 1.1521129e-06 5.760552e-08
0001a0 4c a2 9a 35 4c a2 9a b5 f0 69 77 33 4c a2 9a 35
       1.1521129e-06 -1.1521129e-06 5.760552e-08 1.1521129e-06
0001b0 4c a2 9a b5 f0 69 77 33 4c a2 9a b5 00 00 00 00
       -1.1521129e-06 5.760552e-08 -1.1521129e-06 0.0
0001c0 00 00 00 00 43 5d ce b5 00 00 00 00 08 36 e9 b5
       0.0 -1.5375339e-06 0.0 -1.7375578e-06
0001d0 35 c1 2a 35 0d dc 89 35 0d dc 89 35 0d dc 89 35
       6.361109e-07 1.0271339e-06 1.0271339e-06 1.0271339e-06
0001e0 a9 b8 cb b6 9a 73 cd 34 56 4a fe b6 79 d0 03 b7
       -6.0713687e-06 3.8268337e-07 -7.5784437e-06 -7.856747e-06
0001f0 63 9d 56 b5 21 09 d2 b6 51 5f 0c b7 a6 7a ed b6
       -7.995024e-07 -6.2595504e-06 -8.366843e-06 -7.0774286e-06
000200 aa 34 70 37 87 bf 06 b7 2a 49 21 35 e2 43 dd b6
       1.4317377e-05 -8.031616e-06 6.008364e-07 -6.594216e-06
000210 99 6b 0b 35 81 52 d0 b6 db a0 32 b7 00 00 00 00
       5.193811e-07 -6.208488e-06 -1.0647079e-05 0.0
000220 19 92 dc 32 00 00 00 00 0d dc 09 35 19 92 dc 32
       2.5677808e-08 0.0 5.1356693e-07 2.5677808e-08
000230 0d dc 09 b5 0d dc 09 35 19 92 dc 32 0d dc 09 35
       -5.1356693e-07 5.1356693e-07 2.5677808e-08 5.1356693e-07
000240 0d dc 09 b5 19 92 dc 32 0d dc 09 35 0d dc 09 b5
       -5.1356693e-07 2.5677808e-08 5.1356693e-07 -5.1356693e-07
000250 19 92 dc 32 0d dc 09 b5 00 00 00 00 00 00 00 00
       2.5677808e-08 -5.1356693e-07 0.0 0.0
000260 13 e9 45 b5 00 00 00 00 8e 43 62 b6 72 f4 80 b4
       -7.3727387e-07 0.0 -3.3715946e-06 -2.4019715e-07
000270 49 16 b2 36 49 16 b2 36 49 16 b2 36 78 8b 44 b7
       5.3074077e-06 5.3074077e-06 5.3074077e-06 -1.1714983e-05
000280 9b 77 ea 36 94 d9 81 b5 dc ee 18 b5 8d 75 0d 37
       6.9876673e-06 -9.674573e-07 -5.6972e-07 8.431624e-06
000290 3f ea 94 35 e9 2f f6 b6 05 36 d7 b5 6d 62 05 37
       1.1095034e-06 -7.336949e-06 -1.603447e-06 7.950334e-06
0002a0 cf ec 1c b6 ce a5 18 37 ab 0d b7 b6 54 0e 08 b7
       -2.3383652e-06 9.09851e-06 -5.455416e-06 -8.109568e-06
0002b0 49 b1 82 36 cb b2 1e b7 00 00 00 00 1b 78 0e 34
       3.8949406e-06 -9.459162e-06 0.0 1.3268475e-07
0002c0 00 00 00 00 49 16 32 36 1b 78 0e 34 49 16 32 b6
       0.0 2.6537039e-06 1.3268475e-07 -2.6537039e-06
0002d0 49 16 32 36 1b 78 0e 34 49 16 32 36 49 16 32 b6
       2.6537039e-06 1.3268475e-07 2.6537039e-06 -2.6537039e-06
0002e0 1b 78 0e 34 49 16 32 36 49 16 32 b6 1b 78 0e 34
       1.3268475e-07 2.6537039e-06 -2.6537039e-06 1.3268475e-07
0002f0 49 16 32 b6 00 00 00 00 00 00 00 00 d3 2e 1c b6
       -2.6537039e-06 0.0 0.0 -2.3273067e-06
000300 00 00 00 00 1f 6e 69 b6 1a 37 e0 36 07 cc 9d 36
       0.0 -3.4783804e-06 6.682135e-06 4.7027165e-06
000310 07 cc 9d 36 07 cc 9d 36 0c 7c 4d b7 68 77 ea 36
       4.7027165e-06 4.7027165e-06 -1.2247834e-05 6.987644e-06
000320 11 0a f4 35 bf 54 e6 b5 cb de 04 37 77 fc 64 36
       1.8182346e-06 -1.7161e-06 7.919686e-06 3.4121601e-06
000330 52 2a 16 b7 e3 7c 77 b6 2b b3 44 37 4c 74 50 b6
       -8.95055e-06 -3.6878562e-06 1.1724226e-05 -3.106211e-06
000340 39 08 0b 37 8d 0c 2f b6 3a e2 9e 36 5a 4d 9e 33
       8.28696e-06 -2.6084338e-06 4.735103e-06 7.3715185e-08
000350 f3 e4 e3 b6 00 00 00 00 81 79 fc 33 00 00 00 00
       -6.7917804e-06 0.0 1.1756766e-07 0.0
000360 07 cc 1d 36 81 79 fc 33 07 cc 1d b6 07 cc 1d 36
       2.3513583e-06 1.1756766e-07 -2.3513583e-06 2.3513583e-06
000370 81 79 fc 33 07 cc 1d 36 07 cc 1d b6 81 79 fc 33
       1.1756766e-07 2.3513583e-06 -2.3513583e-06 1.1756766e-07
000380 07 cc 1d 36 07 cc 1d b6 81 79 fc 33 07 cc 1d b6
       2.3513583e-06 -2.3513583e-06 1.1756766e-07 -2.3513583e-06
000390 00 00 00 00 00 00 00 00 44 fa cc b5 00 00 00 00
       0.0 0.0 -1.5272021e-06 0.0
0003a0 fd b1 98 b6 fc ce c2 36 8f fb e3 b5 8f fb e3 b5
       -4.5506736e-06 5.8057467e-06 -1.6986031e-06 -1.6986031e-06
0003b0 8f fb e3 b5 45 1f 7f 37 4b 0b 72 b7 2b 9f d9 36
       -1.6986031e-06 1.5206465e-05 -1.4426953e-05 6.4856335e-06
0003c0 b2 44 ac 35 49 e2 8b b7 9e 3f a3 36 ab 4d 79 36
       1.2834992e-06 -1.6675463e-05 4.8651846e-06 3.71491e-06
0003d0 57 84 10 37 be d2 09 b6 25 f3 45 36 54 07 89 b7
       8.613882e-06 -2.053726e-06 2.9496816e-06 -1.6335085e-05
0003e0 d3 3c 83 37 e0 e7 52 37 03 40 67 b7 c6 97 a5 37
       1.564474e-05 1.2570963e-05 -1.3783577e-05 1.9740208e-05
0003f0 00 00 00 00 21 63 36 b3 00 00 00 00 8f fb 63 b5
       0.0 -4.2465334e-08 0.0 -8.4930156e-07

exp_avg_sq f4 [128, 78]
000000 5f 3f 4d 2f 5f 3f 4d 2f 5f 3f 4d 2f aa e9 fd 2e
       1.8667155e-10 1.8667155e-10 1.8667155e-10 1.1546615e-10
000010 69 5b 41 2e 26 6e af 2e d4 f4 11 2f 65 c9 91 2e
       4.3964308e-11 7.977645e-11 1.3274654e-10 6.6296114e-11
000020 6e 39 f9 2e 7d 57 cf 2e 5d 71 02 32 eb 7e 9c 31
       1.13334106e-10 9.428811e-11 7.592772e-09 4.5546265e-09
000030 5e 5f 0e 2f 41 7e 52 2e 78 6f 6b 2e cc 63 c4 2e
       1.2948706e-10 4.7860608e-11 5.3531818e-11 8.9307756e-11
000040 8e 7f 55 2e 2e 4f 99 2e 00 00 00 00 c5 5b 03 2a
       4.8543884e-11 6.9716996e-11 0.0 1.1666976e-13
000050 00 00 00 00 5f 3f 4d 2e c5 5b 03 2a 5f 3f 4d 2e
       0.0 4.666789e-11 1.1666976e-13 4.666789e-11
000060 5f 3f 4d 2e c5 5b 03 2a 5f 3f 4d 2e 5f 3f 4d 2e
       4.666789e-11 1.1666976e-13 4.666789e-11 4.666789e-11
000070 c5 5b 03 2a 5f 3f 4d 2e 5f 3f 4d 2e c5 5b 03 2a
       1.1666976e-13 4.666789e-11 4.666789e-11 1.1666976e-13
000080 5f 3f 4d 2e 00 00 00 00 00 00 00 00 c5 26 a3 2c
       4.666789e-11 0.0 0.0 4.637043e-12
000090 00 00 00 00 4e 72 25 2d a1 bf d1 2e d0 8c 6c 2f
       0.0 9.404545e-12 9.53826e-11 2.1514102e-10
0000a0 d0 8c 6c 2f d0 8c 6c 2f 76 69 09 2f ea a7 5f 2e
       2.1514102e-10 2.1514102e-10 1.2497545e-10 5.0853467e-11
0000b0 0c 55 c0 2e d8 f8 05 2f 39 ec 9e 2e 6a 4c 00 2f
       8.7462565e-11 1.2184687e-10 7.22697e-11 1.166868e-10
0000c0 ce ad b9 2e 56 4b 02 32 f0 41 a5 31 51 19 fe 2e
       8.4437e-11 7.584125e-09 4.8096283e-09 1.155508e-10
0000d0 ec 12 61 2e 9f 18 7b 2e 5a 15 09 2f 0c 63 5e 2e
       5.1175883e-11 5.709266e-11 1.2467663e-10 5.0564927e-11
0000e0 b3 2e 9d 2e 00 00 00 00 61 64 17 2a 00 00 00 00
       7.147829e-11 0.0 1.344632e-13 0.0
0000f0 d0 8c 6c 2e 61 64 17 2a d0 8c 6c 2e d0 8c 6c 2e
       5.3785254e-11 1.344632e-13 5.3785254e-11 5.3785254e-11
000100 61 64 17 2a d0 8c 6c 2e d0 8c 6c 2e 61 64 17 2a
       1.344632e-13 5.3785254e-11 5.3785254e-11 1.344632e-13
000110 d0 8c 6c 2e d0 8c 6c 2e 61 64 17 2a d0 8c 6c 2e
       5.3785254e-11 5.3785254e-11 1.344632e-13 5.3785254e-11
000120 00 00 00 00 00 00 00 00 ce b2 a0 2c 00 00 00 00
       0.0 0.0 4.567325e-12 0.0
000130 9a 04 48 2d 3c 26 00 2f 19 53 80 2e 19 53 80 2e
       1.13697055e-11 1.1655116e-10 5.835527e-11 5.835527e-11
000140 19 53 80 2e 16 46 32 2e 49 1b 9a 2d 1a 0b f4 2d
       5.835527e-11 4.0534763e-11 1.751989e-11 2.7744518e-11
000150 bc c1 31 2e f4 b3 b9 2d 55 4e 27 2e af dc 34 2e
       4.041721e-11 2.111198e-11 3.8040977e-11 4.1123268e-11
000160 84 23 2b 2e e3 2a 09 2f 82 1a 31 2e 38 ec a5 2d
       3.8912443e-11 1.2475314e-10 4.0268684e-11 1.886323e-11
000170 2a da 0b 2e db 19 48 2e 3d 4b cf 2d 69 6e 41 2e
       3.179871e-11 4.54977e-11 2.3566588e-11 4.3981183e-11
000180 00 00 00 00 68 41 24 29 00 00 00 00 19 53 80 2d
       0.0 3.6472046e-14 0.0 1.4588818e-11
000190 68 41 24 29 19 53 80 2d 19 53 80 2d 68 41 24 29
       3.6472046e-14 1.4588818e-11 1.4588818e-11 3.6472046e-14
0001a0 19 53 80 2d 19 53 80 2d 68 41 24 29 19 53 80 2d
       1.4588818e-11 1.4588818e-11 3.6472046e-14 1.4588818e-11
0001b0 19 53 80 2d 68 41 24 29 19 53 80 2d 00 00 00 00
       1.4588818e-11 3.6472046e-14 1.4588818e-11 0.0
0001c0 00 00 00 00 33 a0 1b 2c 00 00 00 00 f4 3c 65 2c
       0.0 2.2115753e-12 0.0 3.2576693e-12
0001d0 d8 6b 52 2d 84 74 62 2e 84 74 62 2e 84 74 62 2e
       1.1961064e-11 5.1489937e-11 5.1489937e-11 5.1489937e-11
0001e0 11 e0 35 2e 58 4c 84 2d 1f ef cf 2d 8e 4f 38 2e
       4.1353646e-11 1.5040566e-11 2.3639367e-11 4.1907415e-11
0001f0 7b 3a a4 2d f2 1d 16 2e 58 86 3b 2e 73 b8 1e 2e
       1.8670612e-11 3.4132648e-11 4.26382e-11 3.6088865e-11
000200 f1 ca 04 2f 84 f9 34 2e 40 01 91 2d 25 f3 fa 2d
       1.207743e-10 4.1148876e-11 1.6485147e-11 2.8529687e-11
000210 c9 f3 54 2e 4f 20 c7 2d 36 9a 37 2e 00 00 00 00
       4.8419744e-11 2.2638029e-11 4.174635e-11 0.0
000220 6c ee 10 29 00 00 00 00 84 74 62 2d 6c ee 10 29
       3.218122e-14 0.0 1.2872484e-11 3.218122e-14
000230 84 74 62 2d 84 74 62 2d 6c ee 10 29 84 74 62 2d
       1.2872484e-11 1.2872484e-11 3.218122e-14 1.2872484e-11
000240 84 74 62 2d 6c ee 10 29 84 74 62 2d 84 74 62 2d
       1.2872484e-11 3.218122e-14 1.2872484e-11 1.2872484e-11
000250 6c ee 10 29 84 74 62 2d 00 00 00 00 00 00 00 00
       3.218122e-14 1.2872484e-11 0.0 0.0
000260 fb bc 11 2c 00 00 00 00 67 12 81 2c 2b 98 3e 2d
       2.0710645e-12 0.0 3.6684436e-12 1.0834038e-11
000270 a7 14 c3 2e a7 14 c3 2e a7 14 c3 2e 9f ed 79 2e
       8.871242e-11 8.871242e-11 8.871242e-11 5.6827095e-11
000280 cd 33 c8 2d 8f a7 cd 2d 0e 13 17 2e f2 30 d0 2d
       2.2760372e-11 2.3380213e-11 3.435035e-11 2.3668598e-11
000290 09 ca f7 2d 67 b0 1f 2e e2 5d 0c 2e 43 b1 eb 2e
       2.817037e-11 3.630909e-11 3.19157e-11 1.0718051e-10
0002a0 43 d4 18 2e 23 ba a3 2d 06 dc ff 2d 19 5d 6f 30
       3.4749325e-11 1.8613616e-11 2.9087854e-11 8.7079993e-10
0002b0 db f0 60 2e 4f af 3e 2e 00 00 00 00 14 b4 79 29
       5.1145626e-11 4.3356704e-11 0.0 5.54453e-14
0002c0 00 00 00 00 a7 14 c3 2d 14 b4 79 29 a7 14 c3 2d
       0.0 2.2178105e-11 5.54453e-14 2.2178105e-11
0002d0 a7 14 c3 2d 14 b4 79 29 a7 14 c3 2d a7 14 c3 2d
       2.2178105e-11 5.54453e-14 2.2178105e-11 2.2178105e-11
0002e0 14 b4 79 29 a7 14 c3 2d a7 14 c3 2d 14 b4 79 29
       5.54453e-14 2.2178105e-11 2.2178105e-11 5.54453e-14
0002f0 a7 14 c3 2d 00 00 00 00 00 00 00 00 63 6d c2 2c
       2.2178105e-11 0.0 0.0 5.525956e-12
000300 00 00 00 00 e2 de 0b 2d c0 95 13 2e b0 ae c3 2e
       0.0 7.950725e-12 3.3556935e-11 8.898604e-11
000310 b0 ae c3 2e b0 ae c3 2e cf d0 83 2e 15 ca c2 2d
       8.898604e-11 8.898604e-11 5.994282e-11 2.2144989e-11
000320 81 57 b9 2d ca 40 16 2e 73 3e cb 2d a6 bd e4 2d
       2.1070925e-11 3.4163596e-11 2.3106161e-11 2.600482e-11
000330 cc e2 25 2e 2c 47 14 2e 32 15 ef 2e 3c 03 17 2e
       3.7718093e-11 3.3714517e-11 1.0872227e-10 3.4336298e-11
000340 a0 30 94 2d db 44 f1 2d 8f 42 86 30 ae 86 69 2e
       1.6847246e-11 2.7429106e-11 9.7687e-10 5.3097686e-11
000350 c4 d2 48 2e 00 00 00 00 39 79 7a 29 00 00 00 00
       4.5661933e-11 0.0 5.5616295e-14 0.0
000360 b0 ae c3 2d 39 79 7a 29 b0 ae c3 2d b0 ae c3 2d
       2.224651e-11 5.5616295e-14 2.224651e-11 2.224651e-11
000370 39 79 7a 29 b0 ae c3 2d b0 ae c3 2d 39 79 7a 29
       5.5616295e-14 2.224651e-11 2.224651e-11 5.5616295e-14
000380 b0 ae c3 2d b0 ae c3 2d 39 79 7a 29 b0 ae c3 2d
       2.224651e-11 2.224651e-11 5.5616295e-14 2.224651e-11
000390 00 00 00 00 00 00 00 00 87 1f bf 2c 00 00 00 00
       0.0 0.0 5.4320467e-12 0.0
0003a0 91 75 0e 2d 76 c1 15 2e cf e3 f0 2e cf e3 f0 2e
       8.0978705e-12 3.4050505e-11 1.09544034e-10 1.09544034e-10
0003b0 cf e3 f0 2e 2e d0 e3 2e f2 39 47 2e b6 35 bb 2e
       1.09544034e-10 1.0359745e-10 4.5298827e-11 8.5133164e-11
0003c0 31 81 c8 2e e4 ed 58 2e bc b4 c4 2e 38 56 c8 2e
       9.117896e-11 4.9324003e-11 8.945153e-11 9.1102625e-11
0003d0 6b 0b e1 2e 6a 97 42 2f a8 b3 c1 2e 3e e3 66 2e
       1.02338436e-10 1.769799e-10 8.808537e-11 5.2497777e-11
0003e0 16 b7 e0 2e 62 05 ef 2e 78 48 62 2e ee 01 d5 2e
       1.0218863e-10 1.0869418e-10 5.1450816e-11 9.6864614e-11
0003f0 00 00 00 00 6a 2b 9a 29 00 00 00 00 cf e3 f0 2d
       0.0 6.846505e-14 0.0 2.7386008e-11
