results/ag11/PlatformRotate/PlatformRotate-29221.pt (torch, 661833 bytes, 39 tensors)

network_body._body_endoder.seq_layers.0.weight f4 [128, 78]
00000000: 29c5 aabc b8fa df3d a78c 203d 0346 a4bd
00000010: c323 523e edb3 653d bcdb 0ab9 93f2 2b3e
00000020: a371 e83c e75a ce3c d60c 1bbd 1ad2 35bd
00000030: c7be b03c 56c4 5dbc 7125 0cbe eab7 ea3d
00000040: bb0d 24be 4339 00be 0270 0e3d 2244 12bb
00000050: 6b23 0dbe d4b7 17be 3beb 7ebe d4d7 19be
00000060: d8cb 443d fa23 183d ec73 04be e354 a7bb
00000070: a9fb 2ebe ace8 b63d f690 58bd 8558 61be
00000080: 4f6a b63d 3dc1 8d3d 2156 193e 386c cf3c
00000090: c5bd 33bc 59d8 91bd 88ba dbbc 61b7 523e
000000a0: a5d6 d8bd 6ff3 d33d 6f7d 4dbd e6cb 8a3d
000000b0: 1f99 273e ba92 85be c7fc 1c3e c7f4 a73d
000000c0: 0064 143d 53c5 c4bd 36b1 d03c 9398 69bd
000000d0: e0da 07bd d617 6b3e fa62 0e3e cc72 aabd
000000e0: 77e0 6a3c fc45 af3d 5af0 95bd 3c8e 1ebd
000000f0: 2140 c93d 4778 a93c 4bd7 a1bd ce82 433e
00000100: 2644 40bd ea9f 90bd 9c05 11be 781b 5e3d
00000110: f811 1fbe ecbf 9f3d 5eb9 80bd f711 973d
00000120: 9edb 243d 2f29 83bd d235 d23d 979b cebd
00000130: 08d2 e73c 7eec c9bd c75d 8e3e cc24 133e
00000140: 673a 31bd 7d04 3fbd ef9e db3b c5dc 9a3d
00000150: 46e2 debd 4f28 eaba 5435 e93c 76f6 c83c
00000160: 5fec 04bd 55fd f23c ba62 46be 08b2 58be
00000170: 4ca7 59be 00e7 913d 2c38 debb f4b2 89bd
00000180: c3a7 c33c f25a 0e3e e38a af3d a5ae d53d
00000190: abbb f3bd e7c8 c7bd 8d03 f3bd b7a3 89bd
000001a0: 5935 42bd 02a2 483e afcd efbd d01f 1dbe
000001b0: 01f8 473d df73 103e eaec 69bc 11e6 f4bc
000001c0: 5a17 03be d974 703d 84ce 183e 8d46 e5bd
000001d0: 6231 a1bd 3d6f 9abd be43 bc3d 308a 043e
000001e0: efa4 42bd d3ff 91bd 498a b1bd eca0 883d
000001f0: 600f 46bc 5835 aebd 2fc0 d03c 524a 78bd
00000200: d6f0 0d3e 5c5c 94bd 2b16 9c3d 2383 60bd
00000210: 20ea b1bd 3c8c 243d cb68 af3c 102f 63bc
00000220: 999d 0e3c a861 253e 3bf0 d63c 85b7 ebbd
00000230: 8e4f f4bd 7334 b23c dba3 babd d17f b53e
00000240: 4ff7 6a3c 0ea6 17be 691f 3c3d ed00 09be
00000250: c0c7 edbc eb1c 4dbe cbf1 403e 5150 7d3d
00000260: f490 30bd 68c9 443e f0f8 fbbc 10ef 6b3e
00000270: c0a5 89bd a8d7 1ebe 08a6 27bd d53a 0bbd
00000280: effc 06be c776 00be 6e0b ea3d b8e5 3f3d
00000290: 7b76 0bbe 2e80 233e 2774 d23c d63b cfbc
000002a0: 9aac 153e 7140 d73b c375 0fbe 4ae5 1ebd
000002b0: a47d 88bd 184e 2f3e 2868 cc3b 1290 303d
000002c0: 7782 1c3d 5cab fdbb 4d0c 8f3c d294 dfbd
000002d0: f5d9 5d3e 0bf4 1dbd 65e1 04bc 43d0 123e
000002e0: 12d1 a43c 3143 d43c 563d d63d 603f 30bd
000002f0: 6a08 9cbb d46c f33d fedb 553e 338c 49bc
00000300: bf25 b7bc b787 c8bc 3e8c 1cbd 480f aabc
00000310: ea06 533d 2c70 37be d867 43bd 0f9f d33c
00000320: f64b 8fbd 7eda 9d3c 8a7f 983b 026f 3cbe
00000330: 4a9d bfbd 62f2 33ba 0e23 31be f3b7 643e
00000340: 1059 79be 174f 45be ae30 61bc efda 7bbd
00000350: 308d bebd 5c63 833d 8118 edbd f31a 493d
00000360: 0496 953d f862 b83c 34db efbd 2dbe bd3b
00000370: 31da b43c 49d0 ce3d 47ab d33d b659 12bd
00000380: dff4 2fbe bf81 ccbc 58ce 2dbd baaa b63c
00000390: 2c4a 713e 1f78 99bc 216f 33bc 4c10 24be
000003a0: fca5 b33d 6cb6 06bd 69cb e0bd e410 333d
000003b0: fc94 bebd 98a8 d2bd 3d89 3abe 2fbc 953d
000003c0: 110a fdbc 3030 76bd 3c4a 2f3e 2529 713d
000003d0: 3bc2 2c3e 932f 5e3e 36ab 913d 8dd2 a7bd
000003e0: ae7d 1fbe 30d2 353e b3ba 85bc c9df 8abd
000003f0: d6ad 39bd 6971 c23c d187 cf3d af31 1f3e
-0.020845966 0.10936493 0.039196637 -0.08021166 0.20521455 0.056079794 -0.00013242563 0.16791753
0.028374499 0.02518983 -0.03785404 -0.04438982 0.021575345 -0.01353558 -0.13686158 0.1146086
-0.16020863 -0.12521844 0.034774788 -0.0022318442 -0.13783042 -0.14816219 -0.24894421 -0.15023738
0.048045963 0.037143685 -0.12934846 -0.005106555 -0.17088188 0.089310974 -0.05287262 -0.22006424
0.089069955 0.06921623 0.14974262 0.025320157 -0.010970538 -0.07121343 -0.026822343 0.20577766
-0.10587815 0.10349166 -0.05016845 0.06777172 0.16367005 -0.26088506 0.15330802 0.082009844
0.03622818 -0.09607949 0.025475126 -0.05703027 -0.03316772 0.22958311 0.13904944 -0.08322677
0.014335743 0.0855827 -0.07321234 -0.038709864 0.09826685 0.020687236 -0.07902392 0.19092867
-0.04693999 -0.07061751 -0.14162296 0.054225415 -0.15534198 0.07800278 -0.06285356 0.073764734
0.040248506 -0.064043395 0.10264172 -0.1008827 0.028298393 -0.098595604 0.2780592 0.14369506
-0.043268587 -0.04663514 0.006702296 0.0756164 -0.10883002 -0.0017864796 0.028467812 0.024531584
-0.032451984 0.029661814 -0.19373599 -0.21161664 -0.21255225 0.07124138 -0.0067815986 -0.06723586
0.023883706 0.1390188 0.085714124 0.104337014 -0.11901029 -0.09755116 -0.11865912 -0.06720679
-0.047414158 0.19593051 -0.11709153 -0.15344167 0.0488205 0.14106701 -0.014277676 -0.02989486
-0.12801877 0.058705185 0.1492253 -0.11195097 -0.07870747 -0.07540748 0.09192608 0.1294334
-0.047520574 -0.07128873 -0.08668954 0.066713184 -0.012088627 -0.08506268 0.025482265 -0.060617752
0.13861403 -0.07244179 0.07621416 -0.05481256 -0.08687234 0.0401728 0.021412274 -0.013866201
0.008704566 0.16150534 0.026237598 -0.11509613 -0.11929236 0.021753525 -0.09113284 0.3544908
0.0143411895 -0.14809439 0.045928393 -0.1337926 -0.029025912 -0.20030563 0.18842237 0.061844174
-0.043106988 0.19217455 -0.030758351 0.23040414 -0.067210674 -0.15511954 -0.040929824 -0.033991653
-0.13182424 -0.1254531 0.11427961 0.046849936 -0.13619415 0.15966865 0.025690151 -0.025297087
0.14616624 0.0065689613 -0.14009766 -0.038792886 -0.06664589 0.17119634 0.0062380023 0.043106146
0.03821036 -0.007741375 0.01746192 -0.10917057 0.21665175 -0.038562816 -0.008110379 0.14337258
0.020119224 0.025910946 0.10460918 -0.04302919 -0.004761745 0.11885992 0.20884702 -0.0123014925
-0.022356866 -0.024478776 -0.038219683 -0.02075924 0.051520266 -0.17913884 -0.047706455 0.025832681
-0.0699691 0.019269224 0.0046538757 -0.18401721 -0.093561724 -0.0006864426 -0.17298529 0.22335796
-0.24350381 -0.19268452 -0.013744516 -0.06148809 -0.09304273 0.06415436 -0.115769394 0.049097966
0.07304004 0.02250813 -0.117117316 0.005790493 0.022076698 0.10098321 0.10335403 -0.035730086
-0.17183255 -0.024964212 -0.042433113 0.022298206 0.2356345 -0.018734036 -0.010951788 -0.16021842
0.087718934 -0.032888815 -0.109762974 0.04371728 -0.0930576 -0.10286063 -0.18216415 0.07311284
-0.03088859 -0.06010455 0.17118162 0.05887713 0.16870968 0.21697836 0.07112734 -0.08194456
-0.15575287 0.17755961 -0.016324377 -0.06780965 -0.0453318 0.023735719 0.10133327 0.15546297

network_body._body_endoder.seq_layers.0.bias f4 [128]
00000000: e77a d4ba dd9a f0b9 67b2 6fbb 952f 65ba
00000010: c1c0 14ba 3a94 5b39 391e 5a3b ae15 5f3b
00000020: cb03 85ba 7c6a 5239 86c2 45ba dd66 533b
00000030: 5562 3a3a 8cd7 293a 4376 6bba 2dd1 bd3b
00000040: dac2 0b38 e17f 0c3b a26e c3bb 4919 fe3a
00000050: eb5c 9c3a bda6 ef38 e104 2f3a c245 63bb
00000060: 920d a4ba ff5b 20bb 8b93 eb38 38ae 80b9
00000070: f147 daba 380d 193a 3285 cdba 60ba 173a
00000080: 4584 513a f432 0cbb 02e0 88ba 2da4 0f3b
00000090: 813f 8b3a f892 6fba c8b8 73ba f37b b8b8
000000a0: e19a 7139 bcda 39ba 48da 67ba bb7a 53ba
000000b0: 6575 e939 986b 0cbb 9c34 de3a d0d1 63b9
000000c0: db8f 273a 6109 f2b9 5c11 393b a60a d7ba
000000d0: 4a64 b839 90c7 b3bb 6877 99ba 7f20 ee37
000000e0: c89b 1cbb e32e 973a c80d 913a 46b6 8abb
000000f0: e238 923a 920b 7339 0bcf 893a 6737 7cba
00000100: e095 32ba 2a5e 863a 6cd7 9b3a a689 87ba
00000110: 5080 823a ad43 60bb 223e 6f3a cff2 b83a
00000120: cfdc 393b d331 963b 49eb b7ba dc3c 37bb
00000130: 5884 5cba 0997 973a d7f7 4ebb c3b3 1fba
00000140: 9e59 deb9 2a41 bc39 358a dfb9 19e8 02bb
00000150: c911 863a 0ea0 a7ba 096d 293a 19c8 acba
00000160: a8b6 deb9 dff8 7a3b 15cd a4b9 477b f0ba
00000170: 692a 3dbb 65a2 1bba 91a3 693a 470b 303b
00000180: d22e d5ba 8fc1 6cbb 5db3 753b a247 8ab9
00000190: 15fb aeba 997f 46bb 3304 5c3a ddd3 123a
000001a0: bec3 f339 0083 d73a 2937 d939 2f96 443a
000001b0: be8b 33ba b897 c23a 5e17 183a 5b6d a139
000001c0: 9abf 09bb 8839 0239 ae48 103a 5c01 b9ba
000001d0: 2bc8 aeb9 de22 db3a 4920 323b 8223 f739
000001e0: 0fb9 063a 036c 023b 9cf4 8ebb be5f f43a
000001f0: 5b09 0d3b fe18 063a e8f9 063a fd97 6b3a
-0.0016210944 -0.0004589175 -0.0036574842 -0.0008742747 -0.00056744745 0.00020940686 0.0033282174 0.0034040022
-0.0010148225 0.00020066829 -0.000754394 0.0032257356 0.00071099895 0.00064789574 -0.0008982161 0.005792758
3.3321652e-05 0.0021438526 -0.005964116 0.0019386198 0.0011929547 0.000114274655 0.0006676447 -0.003467903
-0.0012516251 -0.0024468896 0.00011233155 -0.00024543866 -0.001665352 0.00058384566 -0.0015679954 0.0005787965
0.0007992427 -0.0021392675 -0.0010442736 0.0021917925 0.0010623784 -0.00091390265 -0.0009297249 -8.796891e-05
0.00023041248 -0.0007089784 -0.0008844477 -0.00080672995 0.0004452869 -0.0021426436 0.0016952935 -0.00021726568
0.00063919806 -0.00046164825 0.0028239107 -0.0016406372 0.00035169936 -0.005486436 -0.001170856 2.8386943e-05
-0.0023896564 0.0011534359 0.0011066729 -0.0042331545 0.0011155868 0.00023178596 0.0010513974 -0.00096212927
-0.0006812494 0.0010251452 0.0011889762 -0.0010340705 0.0009956453 -0.0034220025 0.0009126385 0.0014110449
0.0028360372 0.004583576 -0.0014031912 -0.002795986 -0.0008412055 0.0011565398 -0.003158083 -0.0006092155
-0.0004240991 0.00035906705 -0.00042636847 -0.0019974767 0.0010228689 -0.0012788789 0.0006463086 -0.0013182192
-0.0004247923 0.0038295311 -0.00031433316 -0.0018347286 -0.002886439 -0.00059369794 0.0008912618 0.002686219
-0.0016264564 -0.0036126112 0.0037490942 -0.00026374782 -0.0013349975 -0.0030288456 0.000839296 0.0005601028
0.0004649441 0.0016442239 0.00041430563 0.0007499186 -0.00068491313 0.0014846241 0.0005801822 0.0003078979
-0.0021018744 0.00012419198 0.0005503994 -0.0014114785 -0.00033337003 0.0016718765 0.0027179888 0.00047137967
0.000513927 0.0019900806 -0.004362656 0.0018644256 0.002152047 0.00051154185 0.0005148933 0.00089871866

network_body._body_endoder.seq_layers.2.weight f4 [128, 128]
00000000: 744f a13d a3f5 243e 4e12 61be f973 a03d
00000010: 84d8 0c3e ea30 943c ff5f 433e 28fc 9a3d
00000020: 8670 4e3b ea74 2b3d 8cc9 8dbd 3de8 873d
00000030: fb4d 03be 0095 25bd 8233 d2bd f117 ee3c
00000040: 6771 b33d b87c 1bbe 7aa1 9cbd e85a 763d
00000050: 0d39 143d 0b7e f7bc 7fb8 65bd afa5 a2bd
00000060: 545e eabb ba3e 8bbd d8bd 16be bea9 333d
00000070: 838d 1f3e 4c0e db3d 0b0a 823c 96f3 ca3d
00000080: c7b4 94bb ef8c 803d 9105 23be 7ebc ddbc
00000090: afb8 b7bc 34de acbc 9848 d1bb 2744 e4bd
000000a0: a568 09bd bbaf 8c3d f1d2 1dbd 56eb 98bd
000000b0: 0612 283c f07b e4bd cec4 7e3e d4e0 27be
000000c0: 6701 483d fea1 e0bd 501b 07be 2bec bfbd
000000d0: 20a9 c23d 7b5f a6bd 913a 933d 99d2 37be
000000e0: 2b92 3a3d 7c3a 8a3d bf78 3cbe 7965 6abe
000000f0: c0cb 153e a802 96bc 1114 9a3c 02d1 b83b
00000100: 5cab bebb 7604 933d f02b 563d daf7 6d3d
00000110: d70c 8bbc 3119 ff3c 3197 3a3d ea55 ecbc
00000120: 17d1 203d 482d 9abc 7593 0dbe 5379 113c
00000130: 1afa a8bc 595f 033d 0a05 8d3d a150 583e
00000140: eb7a 1d3d 7d77 84bc 1e6f 7d3d 29d0 11be
00000150: b135 c63d 295e 0a3e 5d48 903c e708 c03c
00000160: cbb7 84bd 3f57 a73d adee 673d c0a0 05bd
00000170: 382b 8f3d a360 c53d ae44 a73d a293 b43d
00000180: 3687 253e abc1 7abd 98b2 64be f804 cc3d
00000190: c430 aabd f8c0 573d 131a 69bd ada6 223d
000001a0: 589d 093e a2b0 6cbd ab74 c63d d255 b63c
000001b0: 7a28 9cbc 3954 c3bd 2be3 17bd f038 71bd
000001c0: 7b69 de3d ced2 cdbb d582 803e 888c d5bc
000001d0: c3f6 2d3e db15 a8bd d50e 24be 160d 7a3c
000001e0: 4d71 b2bc 7056 59bd 563e 813d 0fba 92bd
000001f0: 6a30 a63b 6d29 b6bb 33c1 313d 30fa b2bd
00000200: 1443 8ebd 8ecc 2b3d e6df cbbd 7a81 023e
00000210: 5084 5abd 6b7d bbbc 2032 ce3d e5d7 663e
00000220: e9d8 a73c b00d 7abc fdce 92bd 5473 25bc
00000230: eaed 623c 5944 2ebe 62b0 f73d ef0f acbd
00000240: fb27 17be f115 f63c dd28 a13d 1cc7 a13d
00000250: 2e64 093d 4788 94bd 0d08 debc 815e 423d
00000260: 1d86 c2bd 4018 863d c3ef bdbc 8762 6fbc
00000270: c47f 06be 27e0 303d 958b 3b3d 8c6e 93be
00000280: 85cc 283e 6bad 353c 0a79 533b 092a a9bc
00000290: 7c6b b83d 2a3d 2ebe 5e01 2abd 5336 d3bb
000002a0: 9eac 85bd 06b7 f53d d77f fe3b 7fbd 7e3c
000002b0: 553d 223e b705 513c ebb5 a9bd 3b69 083e
000002c0: d5d4 e1bc 69cd c83d 37c2 3bbb e14c e6bd
000002d0: b52d 043d a2a6 16be 7bd9 403d 5aa8 1e3e
000002e0: d850 35bd 8e10 183e 2eb4 ffbb 2dd5 93bb
000002f0: 6b10 fcbb 871b f2bd b8e1 8cbd d6f2 38bc
00000300: e852 4c3d a0ff cfbd 313c 89bc 7d18 cdbd
00000310: 7f2e c73d c698 283e 539c 9f3d ddc6 4f3d
00000320: 0c69 4ebe 3233 d63d 6b0c 893b 95aa 543d
00000330: 8a2f aabd d588 533d 4fb3 3a3e 1ee6 c93c
00000340: a9ce 083d 1343 083e 178c d33d 6b73 14be
00000350: b44d 9d3d af7a d33d f6bd 0cbd 437c 0abc
00000360: f4c8 34bd ff25 b6bd 47a1 c9bd c9e0 883c
00000370: eb33 ef3d e721 b2bd 3823 21be 1487 bc3d
00000380: 0e2d 913c d7be e43d 6d70 abbd 7c75 90bd
00000390: 65bf bdbd 7d24 d53d 5c5e b03c 34ed 1bbc
000003a0: 12b5 7abd 7ada d7bc 8b79 b13a fa10 ce3d
000003b0: 1b10 8d3b e093 623d 6c62 223e c940 1f3e
000003c0: 34c2 10bd f964 873c 212b 79bd d691 b8bc
000003d0: 4253 3b3d 47de 7b3c d064 133e bb11 2abe
000003e0: 7537 9b3d 5127 b4bb 5983 1abe 34f6 a23d
000003f0: 0c1e e8bd a3e4 553c 4345 8a3d 273c 10bd
0.078764826 0.16109328 -0.21979639 0.0783462 0.13754469 0.01808973 0.19079588 0.07567626
0.0031500175 0.041859545 -0.06923208 0.06636093 -0.12822716 -0.0404253 -0.102637306 0.02906415
0.08761864 -0.15184295 -0.07647987 0.06014529 0.03618722 -0.03021147 -0.056084152 -0.07941758
-0.007152358 -0.067990735 -0.14720857 0.04386305 0.15581326 0.10696086 0.01587393 0.099097416
-0.004538152 0.06276881 -0.15920092 -0.02706742 -0.022426931 -0.021102048 -0.0063868277 -0.111458115
-0.033547062 0.068694554 -0.038531248 -0.07466762 0.010258203 -0.11156452 0.24879763 -0.16394359
0.048829462 -0.109683976 -0.13194013 -0.09371217 0.09504914 -0.0812368 0.07188905 -0.1795143
0.045549553 0.06749436 -0.18405436 -0.22890271 0.14628506 -0.018311813 0.018808397 0.00564015
-0.0058187675 0.07178585 0.052287996 0.058097698 -0.016973896 0.031139942 0.045554344 -0.02884956
0.039261904 -0.01882042 -0.13825782 0.008879024 -0.02062707 0.032073352 0.06885727 0.21124507
0.0384473 -0.016170258 0.061873548 -0.14239563 0.096782096 0.13512482 0.01761263 0.023441745
-0.06480368 0.08170938 0.056624103 -0.032624006 0.06990665 0.096375726 0.081673965 0.08817221
0.1616486 -0.061219852 -0.22333753 0.09961885 -0.083100826 0.052674264 -0.056909632 0.039709736
0.13438928 -0.057785638 0.096902214 0.02225772 -0.01906227 -0.095375486 -0.03708188 -0.05889219
0.108599626 -0.0062812334 0.25099817 -0.026067987 0.16988663 -0.082072936 -0.16021283 0.015261909
-0.021782542 -0.05306095 0.06310718 -0.07164394 0.0050716894 -0.0055591376 0.04339714 -0.08739126
-0.06946388 0.041943125 -0.099548146 0.12744704 -0.05334884 -0.022886952 0.10068154 0.22543295
0.020489173 -0.015262052 -0.07168386 -0.010098297 0.013850668 -0.1701826 0.12094189 -0.084014766
-0.14761345 0.03003976 0.07869122 0.07899305 0.033542804 -0.07252555 -0.027103448 0.047453407
-0.09498236 0.06547594 -0.023185616 -0.014610893 -0.13134676 0.04318252 0.045787413 -0.28795278
0.16484268 0.011088709 0.003226819 -0.020649927 0.09004876 -0.1701552 -0.04150521 -0.006445685
-0.06527065 0.119977996 0.0077667045 0.015548109 0.15843709 0.01275771 -0.08286651 0.13321392
-0.027567307 0.09804804 -0.0028649697 -0.11245132 0.032270152 -0.14712003 0.047082406 0.15493909
-0.04426655 0.14850065 -0.0078034615 -0.0045114965 -0.007692387 -0.11821657 -0.0687899 -0.011288365
0.049883753 -0.101561785 -0.016752334 -0.100144364 0.09725665 0.16464528 0.07793488 0.05072676
-0.2015726 0.104589835 0.0041823885 0.051920492 -0.083098486 0.051644165 0.18232463 0.024645861
0.03340021 0.13306837 0.103294544 -0.14497153 0.07680836 0.103261344 -0.03436085 -0.008452478
-0.044136956 -0.08893966 -0.09845214 0.016708748 0.116798244 -0.086978726 -0.15736091 0.092054516
0.017721679 0.11169212 -0.08371053 -0.07053658 -0.09265021 0.1040735 0.021529369 -0.009517003
-0.06120784 -0.026349295 0.0013540251 0.10061832 0.0043048984 0.055316806 0.15857857 0.15552057
-0.035341457 0.01652764 -0.060832147 -0.022530477 0.045733698 0.015372819 0.14393926 -0.16608326
0.07578937 -0.005497851 -0.15089168 0.07957116 -0.11333856 0.0130549995 0.06751492 -0.035213616

network_body._body_endoder.seq_layers.2.bias f4 [128]
00000000: 0fe6 10ba b5e8 133a 2298 b2ba 6794 0cb9
00000010: 086b 2238 9049 27bb 4dd1 dbb9 b2db 853a
00000020: bcd7 803a 16b3 19ba 13b4 c3ba b7c8 833a
00000030: f24b b9b9 3fb7 1cba 53eb 4d3a f7c6 a439
00000040: 9737 56ba 5df4 6bb9 ef33 e6b8 d3e9 31ba
00000050: 7992 a73a dafe ec39 771c 88ba 315d 54ba
00000060: e1d0 81b9 217a 80b9 ef1e b4b9 388d 2dba
00000070: 3949 413a aa2e 03bb eaf7 edba 6cd0 1bba
00000080: 46b0 563a de0b 91b9 1548 c2ba 062e 973a
00000090: 40e7 3039 8940 76ba 3e38 14ba 44ea b8b9
000000a0: 48bc bd3a 9f7a 93ba 905b 463b d2b7 a83a
000000b0: 962c 2dba ce0c 07bb 4b68 ab3a 7268 b039
000000c0: 2fdf d8ba 214c 88b9 9eb6 513a b51c 813a
000000d0: 8e70 c4b9 e99d f139 d430 7539 ecf0 ea39
000000e0: 3741 9f3a b8ce 483a 745a c53a 61ec cc3a
000000f0: 128e 5b3a 8f04 2fba ea43 9c39 d681 12ba
00000100: 434f 14ba 97c2 843a fb2a 4e3a 1d39 993a
00000110: 755d 043a f1d3 95ba 9127 aeba 8246 c3ba
00000120: 4023 ecba 2b44 a839 35d0 69ba 6cb8 033a
00000130: 2f58 b83a c684 22ba a9eb 7939 2c99 ab39
00000140: b7d8 1fbb c06c 1ebb 197d 76b9 d19f 96ba
00000150: 2047 943a 539c c9ba 4d9c 55ba 4f10 9339
00000160: d798 12b9 6794 583a 60ce fd39 c4d2 74ba
00000170: 87a6 d8ba 9074 4dba 6fcb b33a ab03 5eba
00000180: 8164 ac39 4e48 8e39 1f81 3bba 2fcf 533a
00000190: 42f5 93b9 85c5 9a3a 89f6 0dbb 3913 2bba
000001a0: c47f 023a 058e 633a 0ad1 193a 4373 8139
000001b0: 68c8 7f3a dce1 253a 15c4 ceba 88ef 82ba
000001c0: 7008 e33a b630 f7ba 3097 e9ba 3e98 ddba
000001d0: 1e34 bf39 ec1f a0ba af1f 0c3b e31c c8b9
000001e0: e927 81bb afe1 753a 144d 1f3b 44c0 cf3a
000001f0: f3e5 ad3a 57be a53a a375 0abb ad07 bdb9
-0.00055274455 0.0005642281 -0.0013625661 -0.00013406725 3.872349e-05 -0.0025526024 -0.00041926876 0.0010212569
0.0009829919 -0.00058631727 -0.0014930986 0.0010054325 -0.00035342533 -0.00059782335 0.00078551954 0.00031428758
-0.00081717357 -0.00022502379 -0.00010976928 -0.00067868567 0.0012784741 0.00045203307 -0.001038446 -0.0008101045
-0.00024760424 -0.00024505056 -0.00034355323 -0.00066204695 0.0007373277 -0.0020016828 -0.0018155549 -0.0005943838
0.0008189719 -0.00027665397 -0.0014822508 0.0011534102 0.00016870815 -0.0009393772 -0.00056541327 -0.00035269756
0.0014475668 -0.0011251754 0.0030266978 0.0012872166 -0.000660607 -0.0020606997 0.0013077346 0.00033647154
-0.0016546006 -0.00025996662 0.00079999294 0.0009850474 -0.00037467893 0.00046084754 0.0002338321 0.0004481146
0.0012150173 0.0007660198 0.0015056864 0.0015634411 0.0008375357 -0.00066763995 0.0002980524 -0.0005588805
-0.0005657563 0.0010128793 0.0007864681 0.0011689995 0.00050493266 -0.0011430961 -0.0013286938 -0.0014898332
-0.0018015876 0.00032094246 -0.000891927 0.00050247344 0.0014064367 -0.00061995944 0.00023834281 0.00032729784
-0.0024390647 -0.0024173707 -0.0002350699 -0.0011491721 0.0011312701 -0.0015381671 -0.0008148596 0.00028050176
-0.00013980582 0.000826186 0.00048409682 -0.0009339268 -0.0016529121 -0.00078374986 0.0013717244 -0.00084691745
0.00032881278 0.00027138222 -0.00071527244 0.0008079884 -0.00028220756 0.0011808133 -0.002166184 -0.0006525997
0.0004978145 0.00086805254 0.0005867636 0.00024690674 0.0009757341 0.0006327906 -0.001577499 -0.0009989599
0.001732124 -0.0018859121 -0.0017821547 -0.0016906334 0.0003646919 -0.0012216545 0.002138119 -0.00038168495
-0.0039415252 0.0009379638 0.0024307417 0.0015850146 0.0013267383 0.0012645227 -0.0021127246 -0.00036054608

action_model._continuous_distribution.log_sigma f4 [1, 2]
00000000: 8f56 5aba 398a e43b
-0.0008328938 0.0069744852

action_model._continuous_distribution.mu.weight f4 [2, 128]
00000000: ff05 b53c 85e6 19bd 3089 583c b8c5 5abc
00000010: 06f5 1ebc cfcc a63c a57a aa3c 3d3b 02b8
00000020: 6493 413c 674d a73c 0c40 1fbc 65fe b1bc
00000030: 3ebc b43c 50ae be3c 7166 2fbc 6122 4cbc
00000040: 76c0 d23c 12e3 86ba 4f39 a53c 4ecb 443c
00000050: 45bd 9bbc f3de f6bc 710f 22bc 982d ec3c
00000060: 7bb8 4cba b6fb 03bc bd7a 183c 31b9 9abb
00000070: 45f1 4f3c 7f64 cc3b 5848 f8ba 7f8f ab3c
00000080: fc84 11bc 4c06 b0b8 9efd 26bb f421 8ebc
00000090: 9ed9 56bb ef87 093d bc26 803c ee2b 8d3a
000000a0: 9271 afba af80 dd3c 14fa 05bb 49a7 9fbb
000000b0: e3dd 193c 2cf9 573c eaa6 b0bc 3b67 eebb
000000c0: bb01 9e3c 09be bfbb 37d8 2bbd 5cdc 68bc
000000d0: 997a e03c 378c e63c 35d8 52bc f2db f2bb
000000e0: 114f 2abc 862b 41bb a6a2 a6bb f0a6 6ebc
000000f0: 6442 81bc 3fda 953b 040b 22b9 8fe1 85bc
00000100: 9c3d 07bd bf40 a1bb 9ec4 90bc 3059 8a3b
00000110: 8940 8bbb e33b 4a3b bcdf 0f3c e9a4 b43c
00000120: ace8 fa3b 6064 d23c 0ceb 4e3c d747 09bc
00000130: 20e6 92bc a477 15bb fe65 d1bc fc67 643b
00000140: 9e95 193c 5d08 4b3d eafd 0e3b 50cc 953c
00000150: e5af d9bb 5079 9a3b 1d4c d63c a58d 75bb
00000160: 7e82 1c3a a323 04bd 764b 8e3c 72ba fcbb
00000170: 5ad4 cb3c b5cc 0c3d 988e 21bd f1e4 753c
00000180: 42ff 98bb 991e 5fbc aa76 463c 9855 c73b
00000190: 917a 66bc 923f 88bc 715b 033c 99f0 3b3c
000001a0: fcfc 7d3b 00ef 143c 7023 343b 84a9 0fbc
000001b0: 790a 18bc 2eb8 18bc dfae e03c 4a9c fe3c
000001c0: a7dd b83a a6dd bb3c 0db8 e83b cf8e 973c
000001d0: 8c20 0ebc fe53 cb3c 8593 e3bc 9aac 473d
000001e0: 4727 b33b 57e5 79bb 770d b3bb 4e9d 83bb
000001f0: 4b3d 99bc 24bb 69bc 1b11 c03c 2d90 4bbb
00000200: 20e2 933b ec43 1e3c f335 12bc 2f9b a73b
00000210: 0167 b3bb d52c 43bb 75c5 2fbc 46a5 c4ba
00000220: 5b32 073d 7a83 213c c2e5 83bc b1b2 783b
00000230: d197 33bc d7cc d43b 1e70 17bb 41d7 c83c
00000240: 4a17 cdbb b671 c73b 2f9e dabc 87d5 093c
00000250: 6039 21bd 8d1a 213c b183 9fbc fb4a 2eb8
00000260: eb26 ddbc 26d5 523c 5917 943c 1785 9dbb
00000270: ad70 e33c 59a0 8abc 9064 5ebb 6cef 3f3c
00000280: c0e5 89bb fdc6 f2bb 6d90 fcbc 172f 26bd
00000290: b628 36bb ffb9 3fbd 58fd b7ba 6f44 9d3c
000002a0: fa44 d33c 0f2d f9bc a120 183b 0883 f13c
000002b0: e097 0ebc 3e5d 173c ebe3 1e3b 6164 193d
000002c0: 061f b53c c176 19bc 6edb 9f3c 364d 4c3c
000002d0: 75a1 7dbc ad74 e4bc cf1d ed3c a600 463a
000002e0: 8f96 dc3c 2a7e 983c 0d7d cc3c d021 0d3c
000002f0: bbe1 5e3c c092 6dbc 6613 10bc f354 3dbc
00000300: 91af f1bc d97e ebbc bb33 2abb 8047 773c
00000310: 71e2 ccba c000 bdbc 993a 4d3b bafc 0cbb
00000320: 2a24 be3b 2635 4abc c73f 543c 1122 03bd
00000330: b27e 29bc 6352 1fbc d8bd a3bc 28f0 733c
00000340: 921c 2fbc 668a 143d 25b0 b8bb 4e52 38bd
00000350: 78c1 c33c 0dd4 023c 3598 db3b cfe6 4fbb
00000360: bb00 f0bb 8f71 6e3c a9a6 aebc 0abb e5bc
00000370: 9dc6 ce3b 071e 62bc 1fdb 77bc d6c5 fabb
00000380: 6c19 babc 00eb 19b6 2863 8fbc a89f 143d
00000390: f6a8 80bc a8cf 5b3c 99f3 f13c 3699 0ebd
000003a0: 1d84 3f3c 00f6 983c 3d95 0bbd ea22 f83b
000003b0: ce89 8f3b 5dc7 97bc 8dc6 dd3c 126d 86bc
000003c0: 5c95 0f3d 18e6 073c cb54 ff3b 05e8 0d3c
000003d0: 980b 6c3b ce20 d8bb 25bc 6b3c 8105 a93c
000003e0: 923e 5ebc 151d 993c 6553 df3b 9023 c03c
000003f0: 48c3 393d 5812 893c 6df0 203c 91e4 5abc
0.022097586 -0.037573356 0.013216302 -0.013352804 -0.009701973 0.020361332 0.020810435 -3.1049585e-05
0.011814926 0.02042265 -0.00971986 -0.02172775 0.022062417 0.023276478 -0.010705576 -0.012459368
0.025726538 -0.0010291061 0.020168928 0.012011362 -0.01901115 -0.030135607 -0.009891377 0.028830335
-0.0007809472 -0.008055618 0.009306607 -0.0047217836 0.0126918005 0.006237566 -0.0018942459 0.020942448
-0.008881804 -8.393507e-05 -0.0025480757 -0.017350174 -0.0032783519 0.033576902 0.01564347 0.0010770538
-0.0013385287 0.0270389 -0.0020443248 -0.004872237 0.009391281 0.013181966 -0.021563966 -0.0072754896
0.019287935 -0.0058515114 -0.041954245 -0.014212694 0.02740221 0.028143032 -0.012868931 -0.0074114734
-0.010394827 -0.0029475405 -0.005085307 -0.014566168 -0.015778728 0.004573136 -0.00015453628 -0.016342906
-0.03301774 -0.0049210484 -0.01767188 0.0042220578 -0.0042496365 0.003085845 0.00878137 0.022051292
0.007657131 0.025682628 0.012629282 -0.008378944 -0.017931998 -0.0022806907 -0.025561329 0.0034852019
0.00937405 0.049568523 0.0021818825 0.0182859 -0.0066432827 0.0047141686 0.02615934 -0.003746846
0.00059703726 -0.03226055 0.017369967 -0.0077126557 0.02488153 0.03437491 -0.03944263 0.015008197
-0.004669101 -0.013618135 0.012113253 0.0060832016 -0.014067308 -0.016631875 0.008017407 0.011470937
0.0038755527 0.009090185 0.0027486943 -0.008768443 -0.009279841 -0.009321256 0.027427135 0.031080384
0.0014104143 0.022932839 0.0071020187 0.018500714 -0.008674752 0.024820324 -0.027780304 0.04874859
0.0054673287 -0.0038131082 -0.0054642516 -0.004016555 -0.018705985 -0.014265809 0.023445657 -0.0031061277
0.00451304 0.0096597485 -0.008923995 0.005114935 -0.0054749255 -0.002978136 -0.01072823 -0.0015002869
0.033007007 0.009858007 -0.016100768 0.0037948305 -0.010961489 0.0064941454 -0.0023107599 0.024516704
-0.00625888 0.0060865534 -0.026686756 0.008412725 -0.039361358 0.00983299 -0.019471975 -4.1554664e-05
-0.026996097 0.012868201 0.01807754 -0.0048071253 0.027763689 -0.016922163 -0.0033934452 0.0117147975
-0.0042082965 -0.007408975 -0.030830586 -0.040572252 -0.0027795262 -0.04680824 -0.0014037294 0.01919767
0.025789727 -0.030416993 0.0023212808 0.029481426 -0.008703202 0.009238539 0.0024244736 0.037449244
0.02210952 -0.009366692 0.019513812 0.01246958 -0.015480389 -0.027887667 0.028944878 0.0007553197
0.02692726 0.018614847 0.024961973 0.008614019 0.013603623 -0.01450032 -0.008793687 -0.011555898
-0.029502662 -0.02874701 -0.0025970775 0.0150927305 -0.001563145 -0.023071647 0.0031315445 -0.0021512941
0.005802651 -0.012341773 0.012954659 -0.03201491 -0.010345148 -0.009724232 -0.019987985 0.014888801
-0.010687964 0.0362648 -0.0056362324 -0.045000367 0.023895964 0.007985127 0.006701494 -0.0031723266
-0.007324306 0.014553442 -0.021319704 -0.028043289 0.0063102976 -0.013801104 -0.015127926 -0.0076529784
-0.0227172 -2.2935565e-06 -0.017503336 0.036285073 -0.015705567 0.013416208 0.029535102 -0.034814082
0.011689213 0.01867199 -0.03407787 0.0075725215 0.0043804413 -0.018527681 0.027072215 -0.01640943
0.03505455 0.008294605 0.0077920905 0.008661275 0.0036017653 -0.0065957075 0.014388119 0.020632507
-0.013564723 0.018690625 0.0068153613 0.023454458 0.04535225 0.01673238 0.009822947 -0.013360159

action_model._continuous_distribution.mu.bias f4 [2]
00000000: 4496 84ba 51df cd39
-0.0010115583 0.0003926703

action_model._discrete_distribution.branches.0.weight f4 [1, 128]
00000000: 8180 9c3c 2c58 353c 33ee c43b f673 ccbb
00000010: cd31 5e3b 2a0c 2aba bc27 1ebc ceb2 c6ba
00000020: 1b02 cd3b 6e65 a7ba 781e f83b 60f0 4d3c
00000030: d670 b0bb 975a 003b 1378 763b 7fb3 febb
00000040: 0910 093b f096 023a 003a 8b3b 0287 a33c
00000050: 1aa6 dd3b 1bef 353c e652 bbbb c58f 2dbc
00000060: f522 d13b 0339 7a3a d3de 6abc 07be 5e3b
00000070: dcbf c13b 6d41 9a3b 8585 09bc 0bb4 7b3c
00000080: 0f7d e13b 1d7b 22ba ae67 c0ba 1755 4a3c
00000090: bb8b 5f3c e513 00ba 90da 20bb c78f 92bb
000000a0: 8826 e53a e455 2bbc e947 9fbc a30c 543b
000000b0: 015e 0e3b 9b2a 0fbc d777 9b3c 979d b13a
000000c0: 5f1f 45bc bfac 323b 3979 0ebc 9064 ed39
000000d0: 63b6 84ba 8bcf 863b 3379 e0ba 5bfb 073c
000000e0: 0a92 f1ba dfff 803b 05da 06bb 1f87 ee3a
000000f0: 3bd2 8abb 8b67 3c3c 7658 343b 1208 013c
00000100: 855c 153c 1255 f83b 77ad 4abc 2b39 24bb
00000110: 7f1b 8c3b d2ff 0dba d9d0 3c3a 0156 293c
00000120: 3605 3c3a 5f9f d4bc 317b 303c df08 ac3b
00000130: 7bd9 68ba 7db8 f93b a20e d8bb d94d 02bb
00000140: a8a1 2a3c 00c0 f4ba 6445 0f3c 00d6 0abc
00000150: ed19 4e3a 4947 413c 6bed 373b 34e9 953c
00000160: 031c 10bc 817e 31b9 d9f5 86bb 9e4d 093c
00000170: 3b08 223a c780 323c 330d a13c 852c 083b
00000180: 8cab 2dbc 3add b0bb 3c5b 16bc c28d 41bc
00000190: 0ba5 92bb b8ca e839 3e25 333c 817b 463b
000001a0: 3313 903b 4f67 813b 3fc3 bcbc 1ab8 333c
000001b0: 7b72 46ba 6361 7b3a 57b2 b2ba 6526 ab3a
000001c0: 4f16 49ba 351a 513c a176 22bb ab41 933b
000001d0: a84b bf3b cf27 eb3b 1fd5 29bc d343 953c
000001e0: ba2c b03c 08ec b13b afb3 233c 9654 9c3b
000001f0: d424 a9bb d30d 923a e19e 293c 13fe 03ba
0.019104244 0.011068385 0.006009841 -0.0062394096 0.0033904195 -0.0006486798 -0.009653028 -0.0015159489
0.0062563545 -0.0012771317 0.0075719915 0.012569517 -0.005384545 0.0019585246 0.003760819 -0.0077728624
0.0020914099 0.0004981598 0.0042488575 0.019961838 0.0067641856 0.0111043705 -0.0057166694 -0.010593359
0.006382341 0.00095452386 -0.014335352 0.0033987777 0.005912764 0.0047075064 -0.00839365 0.01536275
0.006881363 -0.0006198155 -0.0014679336 0.012349389 0.013644154 -0.0004885777 -0.0024544336 -0.004472706
0.0017482797 -0.01045749 -0.01944347 0.0032356165 0.002172351 -0.008738185 0.018978043 0.0013550994
-0.012031405 0.002726361 -0.008695894 0.00045279087 -0.0010125156 0.0041140965 -0.0017125964 0.008299674
-0.0018430364 0.003936752 -0.0020576727 0.0018198228 -0.004236487 0.011499296 0.0027518547 0.007875459
0.009116297 0.0075785005 -0.012370459 -0.0025058489 0.0042757387 -0.00054168433 0.00072027516 0.010335446
0.00071724073 -0.0259549 0.010771559 0.005250081 -0.0008882505 0.0076208697 -0.0065935412 -0.0019882827
0.010414518 -0.0018672943 0.008744571 -0.008473873 0.00078621396 0.011796781 0.0028065096 0.018299676
-0.008795741 -0.00016927162 -0.004118663 0.008380322 0.0006181036 0.010894961 0.019659614 0.0020778489
-0.010599982 -0.005397466 -0.009177025 -0.011813583 -0.004475241 0.00044401526 0.010934172 0.0030286016
0.00439682 0.003949083 -0.02304232 0.010969186 -0.00075701595 0.0009589402 -0.0013633472 0.0013057707
-0.0007670866 0.012762596 -0.0024789947 0.004493912 0.0058378763 0.0071763764 -0.010365753 0.018220818
0.021505702 0.0054297484 0.00999157 0.0047708256 -0.005161861 0.0011143036 0.010352821 -0.00050351134

exp_avg f4 [128, 78]
00000000: b6f6 ec36 b6f6 ec36 b6f6 ec36 43c8 e5b6
00000010: 76f6 0737 5325 7835 55c8 9838 3e9b bf38
00000020: bc43 8638 136b eeb5 d0db 6c36 3b09 79b6
00000030: 6bdc 2936 3c5c c5b6 08de f6b6 5ac7 fbb6
00000040: 6e04 2437 5dde a2b6 0000 0000 5992 3d34
00000050: 0000 0000 b6f6 6c36 5992 3d34 b6f6 6cb6
00000060: b6f6 6c36 5992 3d34 b6f6 6c36 b6f6 6cb6
00000070: 5992 3d34 b6f6 6c36 b6f6 6cb6 5992 3d34
00000080: b6f6 6cb6 0000 0000 cff2 86b5 0000 0000
00000090: 4052 3c36 f73c d331 ae37 e236 e4b3 f836
000000a0: e4b3 f836 e4b3 f836 2d25 f0b6 7eec 0737
000000b0: 77c0 bd35 e91b a038 2612 d538 2b03 9038
000000c0: 9c0d 52b6 ebc1 9436 56b4 82b6 6546 e336
000000d0: 5074 09b6 d51a ddb6 9e58 16b7 8b8a 5a37
000000e0: bc93 a0b6 0000 0000 77f6 4634 0000 0000
000000f0: e4b3 7836 77f6 4634 e4b3 78b6 e4b3 7836
00000100: 77f6 4634 e4b3 7836 e4b3 78b6 77f6 4634
00000110: e4b3 7836 e4b3 78b6 77f6 4634 e4b3 78b6
00000120: 0000 0000 616a 97b5 0000 0000 4fc7 4736
00000130: fba4 6432 147c e636 1443 1837 1443 1837
00000140: 1443 1837 59a6 40b6 1a97 53b7 99b4 e436
00000150: 3de6 0138 568d e7b5 83db 1a38 ea6e dbb6
00000160: fa95 8bb6 fe0b c3b6 8524 34b6 b32b aab6
00000170: cf15 db36 f36c 3c35 1864 7fb7 e855 8136
00000180: 0000 0000 889e 7334 0000 0000 1443 9836
00000190: 889e 7334 1443 98b6 1443 9836 889e 7334
000001a0: 1443 9836 1443 98b6 889e 7334 1443 9836
000001b0: 1443 98b6 889e 7334 1443 98b6 0000 0000
000001c0: b88b b235 0000 0000 35d1 8bb6 3758 1035
000001d0: 813f dd36 13cb 2e37 13cb 2e37 13cb 2e37
000001e0: cb33 63b6 bd67 24b7 3164 db36 797d 1a38
000001f0: 9282 b135 7157 2038 a3d5 89b6 642e 16b6
00000200: 92eb f9b6 5c9c 98b6 195b ef36 98d0 a336
00000210: 01f5 ccb6 78d0 8ab6 a96b 9735 0000 0000
00000220: b3d5 8b34 0000 0000 13cb ae36 b3d5 8b34
00000230: 13cb aeb6 13cb ae36 b3d5 8b34 13cb ae36
00000240: 13cb aeb6 b3d5 8b34 13cb ae36 13cb aeb6
00000250: b3d5 8b34 13cb aeb6 0000 0000 f8f6 d335
00000260: 0000 0000 4ffc 96b6 2bc2 2935 803c 0937
00000270: 3d96 7e36 3d96 7e36 3d96 7e36 472c c8b6
00000280: 4903 ca35 cbb2 2436 ce5a 5235 8371 e736
00000290: f4d1 3336 8e4e 25b6 52e8 60b6 2927 57b6
000002a0: adc0 3d37 6694 0b37 385b 6bb5 c988 d2b6
000002b0: 2a0e 9334 7e1f 4db6 0000 0000 63ab cb33
000002c0: 0000 0000 3d96 fe35 63ab cb33 3d96 feb5
000002d0: 3d96 fe35 63ab cb33 3d96 fe35 3d96 feb5
000002e0: 63ab cb33 3d96 fe35 3d96 feb5 63ab cb33
000002f0: 3d96 feb5 0000 0000 2120 f6b4 0000 0000
00000300: ce00 b833 f200 bfb5 e7a9 bc36 4e31 8736
00000310: 4e31 8736 4e31 8736 b296 d1b6 4a6c 8035
00000320: 713b 5336 4e56 02b6 9597 b536 de7b 4f36
00000330: a5d1 88b6 8e63 8fb6 c4fd 42b6 5266 a837
00000340: e15c 0d37 7854 9735 0195 d6b6 2552 19b4
00000350: d299 05b6 0000 0000 fd4e d833 0000 0000
00000360: 4e31 0736 fd4e d833 4e31 07b6 4e31 0736
00000370: fd4e d833 4e31 0736 4e31 07b6 fd4e d833
00000380: 4e31 0736 4e31 07b6 fd4e d833 4e31 07b6
00000390: 0000 0000 295c 29b5 0000 0000 e20b 1934
000003a0: 380f bdb5 68e9 b736 012d 0737 012d 0737
000003b0: 012d 0737 1911 af36 a454 76b6 f51f 0d36
000003c0: f903 2138 f99f f9b6 1cf5 2138 5185 df35
000003d0: 1e63 b6b6 0362 a936 b30c 70b7 b8b7 ceb6
000003e0: 1ffb a335 f19f e236 80e3 9db6 af96 8f36
000003f0: 0000 0000 0748 5834 0000 0000 012d 8736
7.062069e-06 7.062069e-06 7.062069e-06 -6.8480454e-06 8.104011e-06 9.2441513e-07 7.2852396e-05 9.136506e-05
6.4022344e-05 -1.7763545e-06 3.5294688e-06 -3.7109264e-06 2.5311263e-06 -5.881795e-06 -7.357219e-06 -7.5035905e-06
9.776193e-06 -4.8538627e-06 0.0 1.7655238e-07 0.0 3.5310345e-06 1.7655238e-07 -3.5310345e-06
3.5310345e-06 1.7655238e-07 3.5310345e-06 -3.5310345e-06 1.7655238e-07 3.5310345e-06 -3.5310345e-06 1.7655238e-07
-3.5310345e-06 0.0 -1.0054445e-06 0.0 2.8062059e-06 6.147839e-09 6.741807e-06 7.411918e-06
7.411918e-06 7.411918e-06 -7.156885e-06 8.10169e-06 1.4137612e-06 7.634593e-05 0.00010160012 6.867045e-05
-3.130036e-06 4.4333187e-06 -3.895296e-06 6.773322e-06 -2.0482294e-06 -6.589437e-06 -8.9613295e-06 1.302607e-05
-4.78557e-06 0.0 1.852985e-07 0.0 3.705959e-06 1.852985e-07 -3.705959e-06 3.705959e-06
1.852985e-07 3.705959e-06 -3.705959e-06 1.852985e-07 3.705959e-06 -3.705959e-06 1.852985e-07 -3.705959e-06
0.0 -1.1281337e-06 0.0 2.9769324e-06 1.3308859e-08 6.8689787e-06 9.075524e-06 9.075524e-06
9.075524e-06 -2.8707057e-06 -1.2611761e-05 6.815954e-06 3.0970423e-05 -1.7251975e-06 3.6920897e-05 -6.5396207e-06
-4.1599824e-06 -5.812849e-06 -2.6843347e-06 -5.071482e-06 6.5292475e-06 7.0194e-07 -1.5222489e-05 3.8545004e-06
0.0 2.2688812e-07 0.0 4.537762e-06 2.2688812e-07 -4.537762e-06 4.537762e-06 2.2688812e-07
4.537762e-06 -4.537762e-06 2.2688812e-07 4.537762e-06 -4.537762e-06 2.2688812e-07 -4.537762e-06 0.0
1.3302697e-06 0.0 -4.1668777e-06 5.377255e-07 6.593706e-06 1.041849e-05 1.041849e-05 1.041849e-05
-3.3855783e-06 -9.799315e-06 6.5383724e-06 3.6833317e-05 1.3225529e-06 3.822841e-05 -4.1077888e-06 -2.2378745e-06
-7.4482023e-06 -4.5481556e-06 7.13336e-06 4.882062e-06 -6.108196e-06 -4.1369894e-06 1.128171e-06 0.0
2.6046254e-07 0.0 5.209245e-06 2.6046254e-07 -5.209245e-06 5.209245e-06 2.6046254e-07 5.209245e-06
-5.209245e-06 2.6046254e-07 5.209245e-06 -5.209245e-06 2.6046254e-07 -5.209245e-06 0.0 1.5792602e-06
0.0 -4.499721e-06 6.323996e-07 8.179923e-06 3.79364e-06 3.79364e-06 3.79364e-06 -5.965619e-06
1.5051129e-06 2.4541976e-06 7.8363234e-07 6.897551e-06 2.6795287e-06 -2.463264e-06 -3.351383e-06 -3.206029e-06
1.1310139e-05 8.319597e-06 -8.767706e-07 -6.2744116e-06 2.739119e-07 -3.0565711e-06 0.0 9.484099e-08
0.0 1.89682e-06 9.484099e-08 -1.89682e-06 1.89682e-06 9.484099e-08 1.89682e-06 -1.89682e-06
9.484099e-08 1.89682e-06 -1.89682e-06 9.484099e-08 -1.89682e-06 0.0 -4.5844448e-07 0.0
8.568314e-08 -1.4230884e-06 5.622616e-06 4.0290533e-06 4.0290533e-06 4.0290533e-06 -6.2462286e-06 9.568259e-07
3.147605e-06 -1.9421745e-06 5.411867e-06 3.0917504e-06 -4.0775217e-06 -4.273322e-06 -2.9055964e-06 2.0074807e-05
8.42588e-06 1.127496e-06 -6.3950433e-06 -1.427912e-07 -1.990808e-06 0.0 1.0072652e-07 0.0
2.0145267e-06 1.0072652e-07 -2.0145267e-06 2.0145267e-06 1.0072652e-07 2.0145267e-06 -2.0145267e-06 1.0072652e-07
2.0145267e-06 -2.0145267e-06 1.0072652e-07 -2.0145267e-06 0.0 -6.3091517e-07 0.0 1.4253558e-07
-1.4086027e-06 5.480997e-06 8.057105e-06 8.057105e-06 8.057105e-06 5.217397e-06 -3.6706124e-06 2.1029239e-06
3.838909e-05 -7.4394015e-06 3.8613667e-05 1.6653595e-06 -5.4355614e-06 5.0480025e-06 -1.43080715e-05 -6.160666e-06
1.2217532e-06 6.7539445e-06 -4.705449e-06 4.279274e-06 0.0 2.0142771e-07 0.0 4.0285527e-06

exp_avg_sq f4 [128, 78]
00000000: 6c0c bf2f 6c0c bf2f 6c0c bf2f 8263 8c2f
00000010: 1096 472e 3aef f22e d802 bb32 564a 4833
00000020: f52f 9e32 0bf6 7f2e d428 7c2e 373d 892f
00000030: 6c1d 7330 8e48 f22f 4131 962e 3436 882f
00000040: 7cc9 9f2e 090c 1f2e 0000 0000 cf8a 742a
00000050: 0000 0000 6c0c bf2e cf8a 742a 6c0c bf2e
00000060: 6c0c bf2e cf8a 742a 6c0c bf2e 6c0c bf2e
00000070: cf8a 742a 6c0c bf2e 6c0c bf2e cf8a 742a
00000080: 6c0c bf2e 0000 0000 765c 112b 0000 0000
00000090: 9225 072c 6f03 b22b 058c ae2f 352b c12f
000000a0: 352b c12f 352b c12f e36f 8f2f 76bb 4e2e
000000b0: d501 f72e af15 b932 c5a6 4233 4f98 9c32
000000c0: 6c7a 8b2e bd15 852e dbcd 8a2f 2a89 8f30
000000d0: cc18 0b30 c83b a12e 6d46 8a2f 95dd a92e
000000e0: f734 272e 0000 0000 9041 772a 0000 0000
000000f0: 352b c12e 9041 772a 352b c12e 352b c12e
00000100: 9041 772a 352b c12e 352b c12e 9041 772a
00000110: 352b c12e 352b c12e 9041 772a 352b c12e
00000120: 0000 0000 f871 1a2b 0000 0000 f8ee 122c
00000130: 786a c22b 936f b02f 3efa f62e 3efa f62e
00000140: 3efa f62e 186c c12e c70c f72d 5eb1 592e
00000150: 5cdf 7530 c6e2 f62f 45a7 4030 b673 252e
00000160: a5ac 222e 4bb1 ac2e 6fc2 202f 0ebc 682e
00000170: 3ba0 182e a019 b92f d38d 522e f1a6 0b2e
00000180: 0000 0000 c910 9e29 0000 0000 3efa f62d
00000190: c910 9e29 3efa f62d 3efa f62d c910 9e29
000001a0: 3efa f62d 3efa f62d c910 9e29 3efa f62d
000001b0: 3efa f62d c910 9e29 3efa f62d 0000 0000
000001c0: dad5 ad2b 0000 0000 1305 992c 2ff6 082c
000001d0: ca6a be2e 840d 032f 840d 032f 840d 032f
000001e0: b883 d42e d623 122e ea3b 742e 2635 7730
000001f0: f57b f72f d9e2 3f30 a80b 322e 437f 3a2e
00000200: a9af b62e ed7e 1130 8aab 6030 bf79 3b2e
00000210: a0b0 ef2f 7c2f 992e 33db 152e 0000 0000
00000220: 5fbf a729 0000 0000 840d 032e 5fbf a729
00000230: 840d 032e 840d 032e 5fbf a729 840d 032e
00000240: 840d 032e 5fbf a729 840d 032e 840d 032e
00000250: 5fbf a729 840d 032e 0000 0000 1735 c42b
00000260: 0000 0000 70b1 a32c a904 142c 42ec d02e
00000270: 041e e12e 041e e12e 041e e12e cd87 a02e
00000280: b1b2 072e 678e 902e f55f 8a2f c05a 3c30
00000290: 61f8 962f ced0 bd2d 6b7b 9a2d e9e1 412e
000002a0: 24ef 9d31 1a65 8030 2594 f92e b405 412f
000002b0: c3c8 a32d abc7 be2d 0000 0000 3a13 9029
000002c0: 0000 0000 041e e12d 3a13 9029 041e e12d
000002d0: 041e e12d 3a13 9029 041e e12d 041e e12d
000002e0: 3a13 9029 041e e12d 041e e12d 3a13 9029
000002f0: 041e e12d 0000 0000 97f4 352a 0000 0000
00000300: 024d 522a 2445 bf2c 80c8 b92e e7de f42e
00000310: e7de f42e e7de f42e 9c77 af2e 1afd 032e
00000320: 4257 982e 4c1d 8c2f 8b02 3c30 0340 9b2f
00000330: fcc2 c72d df4a af2d 0e3b 502e 3623 a431
00000340: 43cc 7430 a92d 002f 90fe 462f 4141 bb2d
00000350: 5db4 d12d 0000 0000 9fb7 9c29 0000 0000
00000360: e7de f42d 9fb7 9c29 e7de f42d e7de f42d
00000370: 9fb7 9c29 e7de f42d e7de f42d 9fb7 9c29
00000380: e7de f42d e7de f42d 9fb7 9c29 e7de f42d
00000390: 0000 0000 98e4 612a 0000 0000 10aa 702a
000003a0: 9b3c ba2c 00d9 ca2e 7538 a02f 7538 a02f
000003b0: 7538 a02f 6bc2 692f a9fc d72e 449d 302f
000003c0: 9ce2 df31 c759 d831 0157 b931 4e1e b92e
000003d0: 85c7 a02e 9474 302f 3474 5a32 4bc2 5431
000003e0: 83bf a02f 84d5 6d2f 53c7 c52e c273 942e
000003f0: 0000 0000 0f15 4d2a 0000 0000 7538 a02e
3.4751524e-10 3.4751524e-10 3.4751524e-10 2.5536556e-10 4.5380644e-11 1.1047381e-10 2.1770958e-08 4.6633737e-08
1.841543e-08 5.8198817e-11 5.733443e-11 2.496365e-10 8.8444696e-10 4.4071097e-10 6.8299595e-11 2.477677e-10
7.266274e-11 3.6163104e-11 0.0 2.1719712e-13 0.0 8.687881e-11 2.1719712e-13 8.687881e-11
8.687881e-11 2.1719712e-13 8.687881e-11 8.687881e-11 2.1719712e-13 8.687881e-11 8.687881e-11 2.1719712e-13
8.687881e-11 0.0 5.1642664e-13 0.0 1.920551e-12 1.2648614e-12 3.1749905e-10 3.5137196e-10
3.5137196e-10 3.5137196e-10 2.609105e-10 4.7005476e-11 1.1232585e-10 2.1546695e-08 4.532082e-08 1.8230052e-08
6.342735e-11 6.052001e-11 2.5248323e-10 1.0443604e-09 5.0603144e-10 7.3320516e-11 2.5152094e-10 7.724591e-11
3.8018446e-11 0.0 2.1960754e-13 0.0 8.784299e-11 2.1960754e-13 8.784299e-11 8.784299e-11
2.1960754e-13 8.784299e-11 8.784299e-11 2.1960754e-13 8.784299e-11 8.784299e-11 2.1960754e-13 8.784299e-11
0.0 5.4869954e-13 0.0 2.0880502e-12 1.381408e-12 3.2093492e-10 1.1231237e-10 1.1231237e-10
1.1231237e-10 8.795825e-11 2.8086323e-11 4.949762e-11 8.9447894e-10 4.4908272e-10 7.00869e-10 3.761943e-11
3.6987875e-11 7.853148e-11 1.4620992e-10 5.291772e-11 3.4703112e-11 3.3669512e-10 4.7874437e-11 3.1753215e-11
0.0 7.019521e-14 0.0 2.8078092e-11 7.019521e-14 2.8078092e-11 2.8078092e-11 7.019521e-14
2.8078092e-11 2.8078092e-11 7.019521e-14 2.8078092e-11 2.8078092e-11 7.019521e-14 2.8078092e-11 0.0
1.2351745e-12 0.0 4.349085e-12 1.9463422e-12 8.659169e-11 1.1919182e-10 1.1919182e-10 1.1919182e-10
9.664042e-11 3.3228385e-11 5.553239e-11 8.9933605e-10 4.5017115e-10 6.9807765e-10 4.0482867e-11 4.2404535e-11
8.307605e-11 5.2931065e-10 8.1734497e-10 4.262701e-11 4.3599346e-10 6.9660694e-11 3.4073366e-11 0.0
7.4494874e-14 0.0 2.9797956e-11 7.4494874e-14 2.9797956e-11 2.9797956e-11 7.4494874e-14 2.9797956e-11
2.9797956e-11 7.4494874e-14 2.9797956e-11 2.9797956e-11 7.4494874e-14 2.9797956e-11 0.0 1.3941373e-12
0.0 4.652438e-12 2.1034652e-12 9.500713e-11 1.0237147e-10 1.0237147e-10 1.0237147e-10 7.300081e-11
3.0854156e-11 6.5736576e-11 2.5170235e-10 6.8522965e-10 2.7461325e-10 2.157954e-11 1.7562582e-11 4.4083768e-11
4.5964885e-09 9.34196e-10 1.1349525e-10 1.7555274e-10 1.862011e-11 2.168917e-11 0.0 6.39822e-14
0.0 2.5592868e-11 6.39822e-14 2.5592868e-11 2.5592868e-11 6.39822e-14 2.5592868e-11 2.5592868e-11
6.39822e-14 2.5592868e-11 2.5592868e-11 6.39822e-14 2.5592868e-11 0.0 1.6160889e-13 0.0
1.8678464e-13 5.4362227e-12 8.448442e-11 1.1135431e-10 1.1135431e-10 1.1135431e-10 7.9793255e-11 3.001075e-11
6.92766e-11 2.5486668e-10 6.8397615e-10 2.823982e-10 2.2710271e-11 1.9928446e-11 4.7346176e-11 4.777031e-09
8.9056956e-10 1.1657754e-10 1.8098434e-10 2.1288417e-11 2.3840646e-11 0.0 6.959645e-14 0.0
2.7838577e-11 6.959645e-14 2.7838577e-11 2.7838577e-11 6.959645e-14 2.7838577e-11 2.7838577e-11 6.959645e-14
2.7838577e-11 2.7838577e-11 6.959645e-14 2.7838577e-11 0.0 2.0063324e-13 0.0 2.1375284e-13
5.2931665e-12 9.2244434e-11 2.9143946e-10 2.9143946e-10 2.9143946e-10 2.1260298e-10 9.8219495e-11 1.6062979e-10
6.5159167e-09 6.296634e-09 5.3941e-09 8.418209e-11 7.3113994e-11 1.6048524e-10 1.2715692e-08 3.0960503e-09
2.9239908e-10 2.163088e-10 8.99393e-11 6.7508235e-11 0.0 1.8214964e-13 0.0 7.2859864e-11

exp_avg f4 [128]
00000000: 01b4 f836 17cb 2e37 5d31 8736 d8ac f136
00000010: 64a7 2a36 4f2e 14b7 c4bc 7436 ae13 aab6
00000020: 9b8f ff37 d6bc 8b36 3c7e 1636 5090 2c37
00000030: e3cf 9bb6 6fd4 32b7 1469 28b6 a092 0fb7
00000040: c3aa 3537 57ab 93b5 b795 11b4 93c3 0234
00000050: 7180 b8b6 2a34 4e36 dc89 d736 14d8 0037
00000060: 0c80 1fb6 2a17 fbb5 cb3c 7636 f465 c8b6
00000070: 879c 01b6 a298 52b7 1c35 00b7 6916 05b6
00000080: 3779 ff36 3daa 2fb7 5277 42b7 011c 6736
00000090: 233c 84b6 f316 d3b6 8323 4536 1a8a cd35
000000a0: a6fb 7337 1b48 a9b6 87e7 6636 6849 a5b5
000000b0: 8179 27b7 f534 8636 2c44 cfb6 5c86 44b6
000000c0: 8900 8ab7 31eb dc35 0cba 9737 484b 3db7
000000d0: 1ba4 4836 087b ff34 b623 9836 fd92 3d36
000000e0: 1e96 48b7 8c54 8c35 7cc3 90b5 0a03 0335
000000f0: d948 5736 cde2 2db7 651f 5236 d903 22b6
00000100: 5b84 29b6 3296 4c36 52f9 a037 4cbc 1cb7
00000110: abb7 1f37 1c62 c936 3be7 6eb6 fbb0 1e36
00000120: febf c9b6 0ae1 cbb5 2001 d136 ad92 93b5
00000130: 9b72 c435 6854 6c37 4edc a135 f7a7 f0b6
00000140: e752 37b7 2841 08b6 2b6a b1b4 801e 9d33
00000150: 3eeb 8336 93cb 3435 ef33 e636 0a7c 5a36
00000160: 2ca8 3bb7 c653 a1b4 d1ee d836 896b 81b7
00000170: de6d b236 515d 89b7 d6ba 6c37 1a13 5e37
00000180: 6311 4eb7 a876 6f36 1ac2 54b6 b993 a637
00000190: 8c60 9cb7 defa d9b6 518c e1b5 535a ffb7
000001a0: 8b30 c5b6 aca6 00b5 4c16 bbb5 d525 8237
000001b0: c4b0 c2b5 6204 4fb6 f7af 2637 044d 0fb6
000001c0: 59c9 9436 5659 08b7 5828 8cb7 08fa 0237
000001d0: 150e 3c36 3e7a 1636 b169 2336 f7ae 1c32
000001e0: adc7 2db7 dbf4 9eb6 0fa0 73b6 286a 37b7
000001f0: 8106 e036 8ae4 b237 8731 2336 44cd 11b6
7.411931e-06 1.0418494e-05 4.02906e-06 7.2024814e-06 2.5429408e-06 -8.8322695e-06 3.646871e-06 -5.068686e-06
3.046524e-05 4.164506e-06 2.242522e-06 1.0285599e-05 -4.643561e-06 -1.0659088e-05 -2.5095114e-06 -8.557603e-06
1.0828199e-05 -1.100222e-06 -1.3558643e-07 1.2178343e-07 -5.49858e-06 3.0726756e-06 6.4235483e-06 7.679704e-06
-2.376738e-06 -1.8707699e-06 3.6692243e-06 -5.9723334e-06 -1.9313609e-06 -1.2552513e-05 -7.64176e-06 -1.9831589e-06
7.6137035e-06 -1.04704495e-05 -1.15910825e-05 3.4437983e-06 -3.9409074e-06 -6.2909617e-06 2.9375958e-06 1.5313883e-06
1.454252e-05 -5.0449867e-06 3.4407437e-06 -1.2314822e-06 -9.9822655e-06 3.999676e-06 -6.177017e-06 -2.9284483e-06
-1.6451131e-05 1.6459727e-06 1.8087238e-05 -1.1282806e-05 2.9897844e-06 4.7586968e-07 4.5341103e-06 2.8248753e-06
-1.1955881e-05 1.0455419e-06 -1.078573e-06 4.8805725e-07 3.20799e-06 -1.036441e-05 3.1310713e-06 -2.414212e-06
-2.5260003e-06 3.0485794e-06 1.9189585e-05 -9.342166e-06 9.519902e-06 6.0016882e-06 -3.5599357e-06 2.364685e-06
-6.0126176e-06 -1.5190174e-06 6.2288163e-06 -1.0995042e-06 1.4636493e-06 1.40863485e-05 1.2059552e-06 -7.172111e-06
-1.0926952e-05 -2.0303505e-06 -3.3046067e-07 7.31643e-08 3.93149e-06 6.7351465e-07 6.86058e-06 3.2556732e-06
-1.1185224e-05 -3.004954e-07 6.4651035e-06 -1.5428073e-05 5.3176036e-06 -1.6375127e-05 1.4110197e-05 1.3236679e-05
-1.2282605e-05 3.5682842e-06 -3.1703444e-06 1.985753e-05 -1.8641607e-05 -6.4963087e-06 -1.6804644e-06 -3.044043e-05
-5.8767087e-06 -4.7926255e-07 -1.3939075e-06 1.5514825e-05 -1.4505572e-06 -3.0847955e-06 9.935341e-06 -2.135349e-06
4.4341837e-06 -8.127032e-06 -1.6708087e-05 7.806819e-06 2.802238e-06 2.2422896e-06 2.4350413e-06 9.1201775e-09
-1.0358094e-05 -4.737272e-06 -3.6302988e-06 -1.0932366e-05 6.6764774e-06 2.1325675e-05 2.4317721e-06 -2.1726164e-06

exp_avg_sq f4 [128]
00000000: 372b c12f 860d 032f e7de f42e 5170 a92f
00000010: 482a c92e 1e32 012f f0d2 832f 1c1c 212e
00000020: b238 c530 74c5 302f ef90 902e da93 642f
00000030: 008c 6c2f e9bf 9b2f accd 5c30 6815 312e
00000040: 433f 1e31 d656 e030 4728 ee2c 9b7d 852e
00000050: dacd ef2e 9ab2 732f 33ff f830 0185 142e
00000060: 4adc 6e2f fa78 fe2f 2b2a ae2f 2236 2d2f
00000070: 4b62 a62f 606e 582f e02b 2230 d901 882f
00000080: 913d 3d30 0aa7 3930 d95a 9f2f e9d2 812f
00000090: 6e4f 0930 b20a 8b30 7f52 152f 3f2e 9e30
000000a0: 6cce 8e2f 598e 1b30 f56b ad30 76de c62e
000000b0: ea9d e72f 576c 312e c0ad b62e ec2b ca30
000000c0: 8800 ba30 9351 242f eb36 4531 9e7f 2c30
000000d0: 1e08 a32e 99bf 802e d355 552e 5699 ad30
000000e0: f6c7 532f 1b93 082f fbdd 872e 7b3f e12c
000000f0: 717b 8e2f 2a33 f82f 8d3e 7f2f 0bf8 4f2f
00000100: f237 ba2e f5a2 b62f 695c 5b2f 22ae 602f
00000110: e877 2530 04a8 3d2e 9079 862f 63af 9e2f
00000120: 3014 c32f 11cd 012f 6dd0 0c30 db8d a62e
00000130: d356 cf2e 4f06 1930 4aff 862d 192c 862f
00000140: dc59 3b30 8696 3a2d eae7 0e30 547c c72e
00000150: e393 1a30 852d 652e 7625 8a30 736e 102f
00000160: 7766 2e2f d0cb cd2d 8178 d22f acf7 cd2f
00000170: 9fe8 012f dc52 602f a697 8430 bcb5 4230
00000180: 8f68 3b30 d7fe b72f 2453 7a2c 7baf 822f
00000190: bc15 8c30 0b35 012f daa3 312f d82f 1730
000001a0: 5fae 182e 0218 b52f 3c59 7f2f 88fc 9f2f
000001b0: c039 a62f e9b9 cb2f 2b26 0a30 a533 a32e
000001c0: 4e5f a42f 898b a42e dc70 0231 79d0 1f2f
000001d0: 01fe 3330 b0fd aa2f 8f37 c12f 148d 2a2d
000001e0: 8542 7d2f c25e 9d2f 0ce8 d12e 9af8 662f
000001f0: 399a ec2f aa3d cc30 41d6 b12e 75b3 b12f
3.5137201e-10 1.1919185e-10 1.1135431e-10 3.0820727e-10 9.1479324e-11 1.1750287e-10 2.397864e-10 3.6632128e-11
1.434975e-09 1.6077256e-10 6.574107e-11 2.0789007e-10 2.1513813e-10 2.8330696e-10 8.032781e-10 4.0264153e-11
2.3027986e-09 1.6322825e-09 6.7688385e-12 6.070452e-11 1.0905028e-10 2.2164173e-10 1.8116907e-09 3.3769435e-11
2.1724236e-10 4.628829e-10 3.1680378e-10 1.575349e-10 3.0265065e-10 1.9684299e-10 5.8997607e-10 2.473957e-10
6.884529e-10 6.7539985e-10 2.8986483e-10 2.3614824e-10 4.9953186e-10 1.0116621e-09 1.358078e-10 1.1509157e-09
2.597632e-10 5.659096e-10 1.261809e-09 9.0435145e-11 4.213086e-10 4.0341366e-11 8.307266e-11 1.4709918e-09
1.3533432e-09 1.4944694e-10 2.869849e-09 6.275459e-10 7.413824e-11 5.854801e-11 4.850682e-11 1.2630987e-09
1.9261379e-10 1.242139e-10 6.178521e-11 6.4019324e-12 2.591736e-10 4.5147291e-10 2.3214337e-10 1.8914663e-10
8.4682386e-11 3.3221395e-10 1.9950765e-10 2.0434546e-10 6.019705e-10 4.3122853e-11 2.4460833e-10 2.8864652e-10
3.5484637e-10 1.1805336e-10 5.1227894e-10 7.5740046e-11 9.428693e-11 5.567004e-10 1.5347407e-11 2.440579e-10
6.81579e-10 1.0606299e-11 5.198887e-10 9.0715574e-11 5.6235033e-10 5.2109e-11 1.0051469e-09 1.3135963e-10
1.586161e-10 2.3396313e-11 3.82844e-10 3.7465264e-10 1.1815125e-10 2.0402119e-10 9.647365e-10 7.083505e-10
6.817879e-10 3.346858e-10 3.557329e-12 2.377155e-10 1.0192518e-09 1.1751326e-10 1.6156268e-10 5.500147e-10
3.471567e-11 3.2940767e-10 2.3223817e-10 2.9101366e-10 3.0236258e-10 3.7057582e-10 5.025835e-10 7.421556e-11
2.9899144e-10 7.482643e-11 1.8981643e-09 1.453503e-10 6.548078e-10 3.1103076e-10 3.5145972e-10 9.694707e-12
2.3033848e-10 2.8625463e-10 9.5454394e-11 2.1006699e-10 4.3037732e-10 1.486048e-09 8.087087e-11 3.2323624e-10
