results/ag06/PlatformRotate/checkpoint.pt (torch, 624969 bytes, 39 tensors)

network_body._body_endoder.seq_layers.0.weight f4 [128, 66]
0.09631647 -0.0648073 -0.14437836 0.124840684 0.12938859 0.16772072 -0.21642727 -0.106241465
0.03839829 -0.13033071 -0.0031200734 -0.10727327 -0.17581649 0.21344788 -0.14973003 -0.02993565
-0.043202005 -0.1035226 0.10581113 -0.022803279 -0.15678866 -0.14557718 -0.100747734 0.23531272
0.038909335 -0.05396317 -0.20069082 -0.18178792 -0.104420625 -0.09800871 -0.094126366 0.100016065
0.09418111 -0.25188634 0.08558013 0.15354183 -0.010124364 0.04256921 -0.10668094 0.14289592
-0.13746426 -0.013595633 -0.08524294 0.022987798 0.09644357 0.14285284 -0.22980477 0.039177276
0.09812171 0.2544544 0.03227012 0.05806018 -0.12246716 0.08785309 -0.06964244 -0.052200064
-0.079830356 0.079713754 -0.17698216 -0.25215632 -0.3214589 -0.065734506 0.11154734 0.16477196
0.04112237 -0.037745748 -0.1221965 -0.092813656 0.10017166 0.018087117 0.45689005 0.007869432
0.13477954 0.1430768 0.017794764 0.0018624658 0.0031657035 0.045040842 0.10101504 -0.034467414
0.10407573 -0.043595508 -0.026256284 0.016310683 -0.2608972 0.054508924 0.081992425 -0.02092809
0.11719563 -0.20514442 -0.25088382 0.16690418 -0.07542101 0.22112717 -0.06318015 0.046080135
0.24891254 0.099673524 0.1360043 0.28228176 0.009951336 0.102894895 -0.0425013 0.058185834
0.16849698 0.0547002 0.14009409 0.07410161 -0.07375594 0.083765715 0.03326869 0.20609234
0.16793604 -0.007866914 -0.24353674 0.069920756 0.06929365 -0.005525465 -0.108555004 0.062152956
-0.04410965 0.15033266 0.026749084 -0.06693932 0.05776626 -0.082002796 0.07422399 -0.001065036
0.3352398 0.05207399 0.04979924 -0.0040627867 -0.055238713 -0.12619042 -0.05737506 0.06240069
-0.114844434 0.0734118 -0.2341147 -0.005938388 -0.15741952 -0.34301358 -0.104948275 0.25188082
-0.0476268 -0.012517502 -0.25197706 -0.010240029 0.008780941 0.03905353 0.15727624 -0.051724307
-0.16546144 -0.07640493 0.026230512 0.32188413 0.25139844 0.1394571 -0.039850693 -0.11028568
-0.20688371 -0.0009992633 0.06578995 0.057298172 0.005789736 0.010900825 0.09604513 -0.22886269
0.079448834 -0.10631797 -0.0035844403 0.29355657 -0.06520757 -0.23894665 0.07229244 0.058311198
-0.17750247 0.05564576 0.004435422 0.06909669 -0.12294853 -0.032891367 0.045460604 0.09088407
-0.01570262 0.018084673 0.040199514 0.004161967 -0.017158516 0.19898412 0.16235916 -0.032966595
0.22197944 0.13739306 0.07048145 0.021030832 -0.041505598 0.22957847 0.10739806 -0.06552669
0.12965319 -0.18153706 0.11924321 -0.1234878 -0.0060347207 0.19071858 -0.050389644 -0.08293473
0.10153217 -0.18203959 -0.2355998 0.21110891 -0.21992433 0.065710545 -0.007687144 0.21215932
0.037056785 0.029480599 -0.02114461 -0.18404117 -0.18288577 -0.040762667 -0.26948854 0.05185595
-0.03571775 0.18361402 0.11889157 -0.08491515 -0.0029965194 -0.03739942 0.13748722 0.07130522
-0.1079356 0.06378209 0.16418634 -0.1390772 0.08706625 0.12736641 0.18574825 0.15783477
-0.09318488 -0.07384851 0.19240487 0.038386807 -0.0026992094 -0.13118255 -0.18787526 0.116449475
-0.034437787 0.014664185 -0.06557606 0.071686685 -0.03459501 0.09241187 -0.037710663 0.041600335
00000000: 9241 c53d b1b9 84bd ecd7 13be 79ac ff3d
00000010: 717e 043e fbbe 2b3e 1c9f 5dbe 2095 d9bd
00000020: 8647 1d3d 6a75 05be 257a 4cbb 17b2 dbbd
00000030: 3d09 34be 1592 5a3e d452 19be 9c3b f5bc
00000040: 96f4 30bd a803 d4bd 81b3 d83d f1cd babc
00000050: 358d 20be 2f12 15be d454 cebd d1f5 703e
00000060: 655f 1f3d 7c08 5dbd e581 4dbe 9d26 3abe
00000070: 7bda d5bd cab8 c8bd 53c5 c0bd 39d5 cc3d
00000080: 07e2 c03d 3ff7 80be a344 af3d 123a 1d3e
00000090: a9e0 25bc 0d5d 2e3d 897b dabd 4f53 123e
000000a0: 6ec3 0cbe 38c0 5ebc da93 aebd e850 bc3c
000000b0: 3584 c53d 0448 123e f151 6bbe 5a78 203d
000000c0: 09f4 c83d d947 823e ac2d 043d 83d0 6d3d
000000d0: 10d0 fabd 52ec b33d b2a0 8ebd bccf 55bd
000000e0: 197e a3bd f740 a33d d03a 35be a21a 81be
000000f0: 4396 a4be d09f 86bd ef72 e43d fbb9 283e
00000100: ee6f 283d 499b 1abd 2942 fabd 1615 bebd
00000110: cd26 cd3d 6f2b 943c 7eed e93e caee 003c
00000120: a603 0a3e ba82 123e 53c6 913c fb1d f43a
00000130: b177 4f3b bf7c 383d f9e0 ce3d b42d 0dbd
00000140: a825 d53d 3491 32bd 6b17 d7bc fb9d 853c
00000150: 5194 85be c044 5f3d a5eb a73d 6371 abbc
00000160: 4304 f03d 6111 52be d873 80be eee8 2a3e
00000170: 5576 9abd 296f 623e 9864 81bd 86be 3c3d
00000180: eee2 7e3e a221 cc3d b644 0b3e 3c87 903e
00000190: ee0a 233c 8fba d23d d815 2ebd 4554 6e3d
000001a0: 798a 2c3e 510d 603d d374 0f3e 96c2 973d
000001b0: 5b0d 97bd 5c8d ab3d c044 083d df09 533e
000001c0: 6df7 2b3e 3be4 00bc b261 79be 9d32 8f3d
000001d0: d4e9 8d3d f60e b5bb 1652 debd 1994 7e3d
000001e0: 52ac 34bd cef0 193e e520 db3c 7b17 89bd
000001f0: 509c 6c3d 15f1 a7bd bf02 983d ae98 8bba
00000200: 8da4 ab3e 894b 553d 4afa 4b3d 2021 85bb
00000210: fd41 62bd 1038 01be 1c02 6bbd de97 7f3d
00000220: 8f33 ebbd ed58 963d c4bb 6fbe cf96 c2bb
00000230: 9532 21be 7a9f afbe 1fef d6bd 86f6 803e
00000240: 5214 43bd 3516 4dbc 2303 81be cbc5 27bc
00000250: f0dd 0f3c 98f6 1f3d 060d 213e dedc 53bd
00000260: b96e 29be 307a 9cbd 5fe1 d63c ffcd a43e
00000270: 4cb7 803e d8cd 0e3e 7b3a 23bd 75dd e1bd
00000280: 53d9 53be b6f9 82ba e2bc 863d 7db1 6a3d
00000290: d3b7 bd3b 6099 323c 4fb3 c43d fb5a 6abe
000002a0: 12b6 a23d 3cbd d9bd eee8 6abb 0c4d 963e
000002b0: 8c8b 85bd 6eae 74be 0f0e 943d b9d7 6e3d
000002c0: 35c3 35be cfec 633d 0457 913b 9182 8d3d
000002d0: 70cc fbbd 19b9 06bd e634 3a3d 6d21 ba3d
000002e0: c8a2 80bc 4f26 943c 3fa8 243d 1c61 883b
000002f0: 0490 8cbc 7ec2 4b3e 7b41 263e fb07 07bd
00000300: 944e 633e c4b0 0c3e 9458 903d da48 ac3c
00000310: c601 2abd 9e16 6b3e 84f3 db3d db32 86bd
00000320: cec3 043e dae4 39be c935 f43d 2ce7 fcbd
00000330: e8be c5bb bb4b 433e 5f65 4ebd afd9 a9bd
00000340: 19f0 cf3d 9668 3abe 1341 71be ef2c 583e
00000350: d833 61be 4093 863d 70e4 fbbb 4b40 593e
00000360: dbc8 173d 4c81 f13c 7637 adbc 4a75 3cbe
00000370: 6846 3bbe c1f6 26bd 67fa 89be e866 543d
00000380: c74c 12bd 5005 3c3e 6c7d f33d ffe7 adbd
00000390: 4161 44bb 2230 19bd 73c9 0c3e 7908 923d
000003a0: 570d ddbd 2fa0 823d 7720 283e 416a 0ebe
000003b0: ca4f b23d 576c 023e ca34 3e3e 709f 213e
000003c0: b7d7 bebd e33d 97bd c805 453e 7c3b 1d3d
000003d0: 38e5 30bb b854 06be 5f62 40be 107d ee3d
000003e0: a30e 0dbd 0d42 703c be4c 86bd 78d0 923d
000003f0: 7fb3 0dbd 6f42 bd3d 7f76 1abd 1d65 2a3d

network_body._body_endoder.seq_layers.0.bias f4 [128]
-0.0075540277 0.011805859 -0.011441596 -0.0218369 -0.0016245628 -0.025637275 0.0088048 -0.04266099
-0.04258415 -0.0083718365 -0.003358629 -0.067765504 -0.019021263 -0.0036992624 -0.07265432 -0.05233512
-0.05774813 -0.004111804 -0.003945804 -0.015610853 -0.024792412 -0.022585958 0.062585816 0.009389564
-0.028987395 -0.005897241 0.0048248395 0.004050456 -0.0005267137 0.040487666 -0.008987281 -0.035164613
-0.067224845 0.0018419904 0.003032913 -0.0019884957 -0.014699657 0.00033857024 -0.009424302 -0.015614142
-0.021809159 -0.0042807553 0.010972792 0.008457587 -0.011655481 0.00085203483 -0.044532597 -0.008176827
0.0026699733 -0.10552437 -0.03591559 0.003945205 -0.0009802164 0.0091791805 -0.0022093523 -0.0087308185
-0.03284556 -0.031851783 0.055157233 -0.03172706 0.0058866167 -0.0025780397 -0.050928332 -0.020613614
-0.032595687 -0.007434275 -0.02160669 0.019180045 -0.045848724 -0.01004405 -0.02478508 0.011057938
0.006696089 -0.0061827665 0.07614353 -0.030905569 -0.015634807 -0.029543199 -0.013219632 -0.022322148
0.002650276 0.011587087 0.02188843 -0.045912016 0.06784713 -0.0031102437 -0.049661424 0.010335025
-0.025381237 -0.011017985 0.06319227 0.0921094 0.06524237 -0.050640367 0.0005772045 0.004117763
-0.033216763 0.07440129 0.0012741031 -0.021977529 0.055058453 0.0033718992 0.003224465 -0.032312334
-0.0030470819 0.025879191 0.009023762 -0.034502648 -0.08032312 -0.027582249 0.002142679 0.000861075
-0.0012730868 -0.08144961 0.0013166002 0.039358765 -0.011385751 -0.0016787326 0.005178257 0.002573793
0.021278456 0.10211375 -0.01120831 0.07565396 -0.021435894 -0.008275543 -0.0085786255 0.03787592
00000000: c787 f7bb 5d6d 413c 8875 3bbc 4ce3 b2bc
00000010: 48ef d4ba 4305 d2bc 0242 103c 4abd 2ebd
00000020: b86c 2ebd 072a 09bc 721c 5cbb a4c8 8abd
00000030: 7bd2 9bbc 536f 72bb cacb 94bd 5a5d 56bd
00000040: 4e89 6cbd 50bc 86bb ce4b 81bb aac4 7fbc
00000050: 7519 cbbc 3006 b9bc fe2c 803d b0d6 193c
00000060: f976 edbc a53d c1bb b019 9e3b b0b9 843b
00000070: 2813 0aba 65d6 253d 633f 13bc c508 10bd
00000080: 2ead 89bd f16e f13a d6c3 463b 6c51 02bb
00000090: d5d6 70bc 2182 b139 6368 1abc 75d2 7fbc
000000a0: 1fa9 b2bc 9445 8cbb 3ac7 333c b191 0a3c
000000b0: a1f6 3ebc 175b 5f3a d067 36bd 19f8 05bc
000000c0: b8fa 2e3b 291d d8bd 3a1c 13bd c746 813b
000000d0: 9b7a 80ba 4664 163c c8ca 10bb b50b 0fbc
000000e0: 1189 06bd 0477 02bd 8dec 613d 3cf4 01bd
000000f0: 85e4 c03b 54f4 28bb 3a9a 50bd e2dd a8bc
00000100: 0e83 05bd 389b f3bb 8300 b1bc 781f 9d3c
00000110: dfcb 3bbd cd8f 24bc 150a cbbc 5b2c 353c
00000120: de6a db3b ce98 cabb 24f1 9b3d ad2d fdbc
00000130: 9114 80bc 9404 f2bc 2897 58bc f0dc b6bc
00000140: 41b0 2d3b c4d7 3d3c 5d4f b33c 3d0e 3cbd
00000150: 70f3 8a3d 3bd5 4bbb c769 4bbd 3d54 293c
00000160: 50ec cfbc c784 34bc f36a 813d daa3 bc3d
00000170: cb9d 853d 466c 4fbd 8a4f 173a 4dee 863b
00000180: 4d0e 08bd b45f 983d ceff a63a 380a b4bc
00000190: f984 613d 15fb 5c3b 8c51 533b f059 04bd
000001a0: 8db1 47bb 9900 d43c 67d8 133c a652 0dbd
000001b0: 7380 a4bd 2bf4 e1bc 306c 0c3b c4b9 613a
000001c0: b4dd a6ba 0ecf a6bd c691 ac3a a836 213d
000001d0: 4d8b 3abc eb08 dcba 5eae a93b 15ad 283b
000001e0: 2850 ae3c 0421 d13d 0fa3 37bc 77f0 9a3d
000001f0: 549a afbc 2596 07bc 5d8d 0cbc c823 1b3d

network_body._body_endoder.seq_layers.2.weight f4 [128, 128]
-0.06548613 -0.09079668 -0.009188338 0.16696806 -0.021779811 0.058401547 0.00077519775 0.13873658
0.059079114 0.099678144 -0.027971549 -0.24261534 -0.047606897 0.023541901 -0.087713405 0.019229177
-0.055064745 -0.060584478 0.054581467 0.06351838 0.02498931 0.030031042 -0.046294138 0.017348528
-0.12640037 0.011693658 0.1278549 -0.00094395096 0.022667114 -0.05395689 -0.06469214 0.057051606
-0.05186246 0.2219933 0.0384498 0.098048165 0.11319578 -0.0018848475 0.016686795 -0.05946061
-0.04156434 -2.0432602e-05 -0.19183402 0.08918435 0.0049238373 -0.109562084 -0.11919049 -0.015834175
-0.16141987 -0.023506712 0.065837316 0.024474144 0.1078778 -0.09799332 -0.015990516 -0.0062734955
-0.07138588 -0.10397985 -0.06882989 0.0023567649 -0.05403422 -0.12150765 -0.017915297 -0.0567966
0.094489075 -0.1104255 0.028644616 0.13087556 0.01316332 0.031184196 0.09569098 -0.15026227
-0.063700974 -0.05937048 0.09828636 0.013356999 -0.04157206 0.054539412 0.082121715 0.04471346
-0.11283336 0.23108342 -0.050530165 0.038272407 0.019936677 0.028983178 0.11447109 -0.08067924
0.019639049 -0.042443227 0.02215904 -0.05715933 0.011241215 -0.076907665 -0.056398366 -0.07302947
0.011583123 -0.0557072 -0.15143271 0.12852803 0.013025625 -0.030210607 -0.0010111228 0.024780631
-0.12607045 0.05316204 -0.037148464 -0.02094264 -0.03985595 -0.07317711 0.05990241 -0.08842524
0.13311806 -0.07596432 -0.09976889 0.014709503 -0.033724032 -0.049921013 -0.0676786 0.0723349
0.028241362 0.018960299 0.06911945 0.073302105 0.015093056 -0.052438054 -0.22464512 0.014174834
-0.11411982 -0.16379575 -0.09475661 -0.07856335 -0.1066007 0.06158469 0.0454392 -0.035687797
-0.0053625936 -0.09018911 -0.07794986 0.14484183 -0.15735401 -0.009121944 0.20479842 0.09274231
-0.021382587 0.050547287 -0.06338173 0.03683473 -0.014874842 -0.02426577 -0.028077658 0.1646142
-0.030587943 0.18694116 0.09223553 -0.07972004 -0.054969113 0.07884478 -0.05571107 0.22880128
0.16231781 0.09270593 0.07044879 0.10863294 -0.04728347 0.08626081 -0.07610109 -0.13123149
0.0315126 0.111586384 -0.1045716 0.057819687 -0.0022457975 0.21784088 0.13001718 -0.1105234
-0.020253833 -0.2433973 0.10015357 -0.014749318 -0.063267365 0.02205765 -0.018312063 0.06687528
-0.050850358 -0.05844658 -0.14193629 0.1331018 -0.009914115 0.07430944 0.10129074 -0.14798048
0.037437867 -0.1306888 -0.05497053 0.108587466 0.029531602 -0.034919128 -0.14335705 -0.06649875
-0.0915505 -0.08251587 0.048576962 -0.030855589 0.06827483 -0.096871704 0.108750775 0.12853417
0.14726262 -0.111843206 0.06833472 0.028528927 -0.067036025 0.019081341 0.04042326 0.08483312
-0.25650716 0.10304705 -0.0017936616 0.16666116 -0.012061749 -0.10371542 0.09587813 -0.042599745
-0.085681625 -0.014590274 -0.1078638 0.048765205 0.20900798 -0.12980434 -0.11142358 0.03258881
0.04160153 0.044903733 0.09470341 -0.095201485 0.03111978 -0.026724242 -0.09626281 0.15558329
0.14863431 0.09122952 0.022431921 0.034145564 0.12569997 0.12363964 -0.065955155 -0.10429051
-0.16593711 0.054057218 -0.08165415 -0.15648888 0.084186085 -0.032244246 0.075207606 -0.078731805
00000000: 981d 86bd 9cf3 b9bd af8a 16bc adf9 2a3e
00000010: 936b b2bc 7636 6f3d a436 4b3a f610 0e3e
00000020: f1fc 713d 0e24 cc3d 9724 e5bc 2870 78be
00000030: 73ff 42bd f2da c03c 16a3 b3bd 8286 9d3c
00000040: 928b 61bd 6e27 78bd d190 5f3d ed15 823d
00000050: 62b6 cc3c a903 f63c ec9e 3dbd 801e 8e3c
00000060: 196f 01be c296 3f3c 65ec 023e 7a73 77ba
00000070: 62b0 b93c e601 5dbd 507d 84bd f2ae 693d
00000080: bb6d 54bd 3652 633e 8a7d 1d3d 7acd c83d
00000090: 30d3 e73d fd0c f7ba bfb2 883c f88c 73bd
000000a0: 5f3f 2abd ae66 abb7 2370 44be 49a6 b63d
000000b0: 2458 a13b 1662 e0bd 251a f4bd acb6 81bc
000000c0: 404b 25be 2691 c0bc b7d5 863d 007e c83c
000000d0: 09ef dc3d b9b0 c8bd 8bfe 82bc e591 cdbb
000000e0: c332 92bd 63f3 d4bd aff6 8cbd f473 1a3b
000000f0: fc52 5dbd 01d9 f8bd 1ac3 92bc 8da3 68bd
00000100: 7d83 c13d c426 e2bd 1da8 ea3c 3e04 063e
00000110: f7aa 573c 0076 ff3c a2f9 c33d 5ade 19be
00000120: a875 82bd 762e 73bd 5c4a c93d 50d7 5a3c
00000130: 7747 2abd b864 5f3d 6e2f a83d 7625 373d
00000140: 2d15 e7bd 22a1 6c3e b8f8 4ebd 87c3 1c3d
00000150: 3e52 a33c 216e ed3c d26f ea3d 283b a5bd
00000160: 12e2 a03c f3d8 2dbd e086 b53c e71f 6abd
00000170: 132d 383c c481 9dbd f901 67bd 7a90 95bd
00000180: 24c7 3d3c 3c2d 64bd 2d11 1bbe da9c 033e
00000190: 6e69 553c 3c7c f7bc a787 84ba c000 cb3c
000001a0: 9d18 01be 70c0 593d fd28 18bd e68f abbc
000001b0: fe3f 23bd e1dd 95bd 3b5c 753d 4b18 b5bd
000001c0: 1a50 083e 2e93 9bbd a253 ccbd 2100 713c
000001d0: 3622 0abd fa79 4cbd 149b 8abd 5224 943d
000001e0: 6e5a e73c a152 9b3c 808e 8d3d 6a1f 963d
000001f0: dd48 773c 49c9 56bd 5f09 66be 903d 683c
00000200: a7b7 e9bd 13ba 27be c10f c2bd d2e5 a0bd
00000210: 7851 dabd 3a40 7c3d 741e 3a3d 5e2d 12bd
00000220: b2b8 afbb 11b5 b8bd 2da4 9fbd 6b51 143e
00000230: 6921 21be 3574 15bc adb6 513e aeef bd3d
00000240: 892a afbc ac0a 4f3d 48ce 81bd 04e0 163d
00000250: 9cb5 73bc 02c9 c6bc 1e03 e6bc a090 283e
00000260: 9193 fabc 816d 3f3e fbe5 bc3d 4344 a3bd
00000270: 4b27 61bd 5f79 a13d 4a31 64bd e24a 6a3e
00000280: a436 263e 9bdc bd3d 7547 903d f27a de3d
00000290: 50ac 41bd 82a9 b03d e3da 9bbd 8c61 06be
000002a0: 5b13 013d 6787 e43d a329 d6bd 56d4 6c3d
000002b0: 3b2e 13bb ae11 5f3e 3923 053e 185a e2bd
000002c0: 5eeb a5bc 243d 79be 511d cd3d 20a7 71bc
000002d0: 5292 81bd 3fb2 b43c 2e03 96bc e8f5 883d
000002e0: 7748 50bd ae65 6fbd bf57 11be d74b 083e
000002f0: d06e 22bc 8c2f 983d 8571 cf3d 3288 17be
00000300: 7358 193d 49d3 05be c728 61bd 1b63 de3d
00000310: 42ec f13c 5c07 0fbd 31cc 12be 7f30 88bd
00000320: d47e bbbd 15fe a8bd a3f8 463d dcc4 fcbc
00000330: add3 8b3d ac64 c6bd bab8 de3d 769e 033e
00000340: 03cc 163e 0d0e e5bd 13f3 8b3d 7fb5 e93c
00000350: 2f4a 89bd 7950 9c3c dc92 253d fdbc ad3d
00000360: e854 83be 550a d33d 4c19 ebba 39a9 2a3e
00000370: a49e 45bc c068 d4bd c15b c43d 127d 2ebd
00000380: d979 afbd 0b0c 6fbc b2e7 dcbd 06be 473d
00000390: 3006 563e 6eeb 04be 0c32 e4bd d87b 053d
000003a0: 5e66 2a3d faec 373d ddf3 c13d fff8 c2bd
000003b0: e9ee fe3c ccec dabc 7025 c5bd 3a51 1f3e
000003c0: 9833 183e 8bd6 ba3d 26c3 b73c 38dc 0b3d
000003d0: 7eb7 003e c836 fd3d 7f13 87bd 4396 d5bd
000003e0: 6beb 29be 1a6b 5d3d 4a3a a7bd 9f3e 20be
000003f0: c169 ac3d 8b12 04bd 7206 9a3d 243e a1bd

network_body._body_endoder.seq_layers.2.bias f4 [128]
0.0044873557 -0.009155005 0.0034360392 0.01487111 -0.04523176 -0.027047317 0.0019645272 -0.037529483
-0.017315071 0.015253993 -0.03811258 -0.010174156 -0.010829281 0.0023160866 -0.003610434 -0.03198691
0.003861741 0.05708537 -0.017018197 0.0018973987 0.006301389 -0.015452214 0.0055775642 -0.01789994
0.00097624236 -0.017914832 -0.0051240153 -0.057993222 0.012031539 -0.0017043059 -0.007688979 0.03372846
-0.0055774357 -0.025584603 -0.013229397 -0.010913852 0.02500441 -0.012770424 -0.029188626 -0.008475218
0.0047753733 0.017839355 -0.002208837 -0.02713782 0.0037220668 0.01630126 0.071603686 0.008142303
-0.005190785 -0.025728263 0.026353162 0.024486564 0.019751122 -0.02477921 0.011145449 -0.0005114289
-0.0115246875 -0.012203265 0.006017846 -0.017703202 -0.003770328 0.023575189 0.005668868 0.03010157
-0.04435115 -0.0070694303 0.010318718 -0.00070832577 0.009631113 -0.0208799 -0.0038271316 -0.0056039514
-0.00883875 0.0024611577 -0.04145875 0.007517075 0.024436032 0.008187652 0.029703934 -0.022923922
0.0057183946 -0.0024029724 -0.031585496 0.0003198674 -0.0294074 0.050190512 0.021159614 -0.0014056576
-0.0030046129 0.007940764 0.0052307784 0.06857138 -0.02385409 -0.013947412 -0.027443055 -0.021927087
0.029626934 -0.007324305 -0.031025559 -0.0102367345 -0.007983419 -0.010122146 -0.004626798 -0.004846758
0.008720234 -0.0030340978 0.0076471264 0.019810706 -0.011671784 -0.035216007 0.045858335 -0.06685403
-0.06287069 0.0343215 -0.012207041 -0.012902801 -0.019207979 -0.0058929855 -0.005107213 0.0006785084
-0.0027774202 -0.04679085 0.03538672 0.0074243136 -0.005420908 -0.0031529202 -0.03374294 -0.01706519
00000000: ab0a 933b e0fe 15bc 2c2f 613b f5a5 733c
00000010: f044 39bd 5692 ddbc 4cbf 003b 84b8 19bd
00000020: 56d8 8dbc e2eb 793c f01b 1cbd 81b1 26bc
00000030: 4c6d 31bc 7cc9 173b 089d 6cbb b504 03bd
00000040: 4315 7d3b 59d2 693d bf69 8bbc 23b2 f83a
00000050: e27b ce3b 482b 7dbc 00c4 b63b e5a2 92bc
00000060: 84ea 7f3a 20c2 92bc 5be7 a7bb 4d8a 6dbd
00000070: ef1f 453c 0463 dfba d5f3 fbbb db26 0a3d
00000080: ecc2 b6bb cd96 d1bc 1dc0 58bc 03d0 32bc
00000090: 0cd6 cc3c 0a3b 51bc fc1c efbc a4db 0abc
000000a0: bc7a 9c3b d723 923c 23c2 10bb 2250 debc
000000b0: ebed 733b 388a 853c f4a4 923d 4b67 053c
000000c0: 7617 aabb 14c4 d2bc 96e2 d73c 0c98 c83c
000000d0: 1bcd a13c c5fd cabc 679b 363c 6a11 06ba
000000e0: 0bd2 3cbc 34f0 47bc 5a31 c53b 4e06 91bc
000000f0: 9b17 77bb c120 c13c e9c1 b93b 9197 f63c
00000100: 8da9 35bd aea6 e7bb d70f 293c f0ae 39ba
00000110: d1cb 1d3c 530c abbc 9dd0 7abb 5aa1 b7bb
00000120: 68d0 10bc 604b 213b a6d0 29bd cc51 f63b
00000130: 132e c83c 8025 063c aa55 f33c f3ca bbbc
00000140: 5f61 bb3b 307b 1dbb cb5f 01bd e0b3 a739
00000150: cae7 f0bc 9194 4d3d ed56 ad3c 0b3e b8ba
00000160: 0ae9 44bb fa19 023c f366 ab3b 276f 8c3d
00000170: a769 c3bc b083 64bc 42d0 e0bc 6fa0 b3bc
00000180: 2fb4 f23c b900 f0bb 5029 febc fab7 27bc
00000190: e3cc 02bc 5cd7 25bc 659c 97bb 8ed1 9ebb
000001a0: 50df 0e3c b7d7 46bb bf94 fa3b 104a a23c
000001b0: 033b 3fbc a93e 10bd f3d5 3b3d c4ea 88bd
000001c0: 59c2 80bd b494 0c3d 0a00 48bc 4566 53bc
000001d0: 0d5a 9dbc f219 c1bb 685a a7bb eedd 313a
000001e0: 6105 36bb c3a7 3fbd aaf1 103d a847 f33b
000001f0: dfa1 b1bb 39a1 4ebb 0936 0abd 4ccc 8bbc

action_model._continuous_distribution.log_sigma f4 [1, 2]
0.066301845 0.078461036
00000000: 43c9 873d 2eb0 a03d

action_model._continuous_distribution.mu.weight f4 [2, 128]
0.005067406 -0.009780206 -0.019713517 0.0003147802 0.007496098 0.004566583 -0.0071508177 6.861996e-05
-0.004417645 0.052039422 -0.0013125141 -0.031612173 -0.026050542 -0.017226147 -0.010253496 0.033818062
-0.014040928 -0.04286264 0.0047218353 -0.021885026 -0.018358314 0.021417074 -0.01848897 0.016239764
-0.02044626 0.011610945 -0.09080201 0.04375779 0.000105904044 -0.010261054 -0.011627708 -0.030977253
-0.028672023 0.03627674 -0.008375287 -0.00092902046 0.0375971 -0.0005592839 -0.008657667 0.021277312
-0.081905946 -0.031878393 -0.038845964 0.006334924 0.011015382 -0.124445334 -0.037935123 -0.024833074
0.0009682081 -0.00605046 -0.010885375 0.06815127 -0.041773032 -0.009792508 -0.042815942 -0.008975171
-0.01761934 -0.0013632204 0.011766018 0.018762687 -0.03128578 -0.03206034 -0.044183783 0.030719625
0.025942836 0.013763272 -0.020372253 -0.0223901 -0.019825326 0.026624205 -0.011683304 -0.013753418
-0.0022007034 -0.035032105 0.0005049725 -0.030580105 -0.10955113 -0.05194735 0.036161292 -0.0071025137
-0.05674086 -0.023754401 0.008013351 -0.009851573 0.004936709 0.025353992 -0.024256889 0.010086988
0.0013865912 -0.029261053 -0.041273993 -0.03479827 -0.00036576047 -0.000562018 0.021747964 -0.0067353863
0.026022172 -0.016578011 -0.001601973 -0.0313138 -0.027387297 -0.03909129 -0.02196477 -0.010905387
-0.024586795 -0.03564447 -0.030060152 -0.05960446 -0.0009990713 -0.007005533 -0.01984189 -0.003643181
0.0002906829 -0.043789178 -0.07047381 -0.02524339 -0.00842281 0.0032064936 -0.022977035 -0.047591873
-0.0031263193 -0.0010404716 0.019169526 -0.01484266 0.0009861528 -0.020155735 -0.014231028 0.02975435
0.02987723 -0.012840589 -0.018747166 0.03244371 -0.0032164606 -0.016070362 -0.019327614 -0.001006239
-0.010915123 0.009165111 -0.0052664177 0.02643361 0.0053396327 -0.005339746 0.008650945 -0.00756829
-0.02153669 -0.054470047 -0.012069686 -0.007708496 0.0038403415 0.0021270472 -0.041111413 0.002636138
-0.010046071 -0.015343092 -0.035359375 0.012041006 0.021212306 -0.014810859 0.026269529 -0.039970204
0.0002458717 0.0044501056 0.016828801 -0.028634576 0.016858097 0.028176012 0.004938375 0.026166417
-0.037511047 0.0026720662 0.002763993 -0.0188184 -0.03203604 0.0057410467 -0.07053905 -0.025992787
-0.026946014 -0.007182565 -0.016134879 0.013915443 -0.035808563 0.010262653 -0.020818315 0.018745687
-0.03983666 -0.017959155 -0.0057128267 0.015634604 0.02623097 -0.075125925 -0.022694182 0.06714899
0.0051563256 -0.018036034 -0.016956603 0.0015617736 -0.028422311 0.0049416055 -0.0100824125 0.038920734
-0.0016730474 -0.030812124 -0.004085301 -0.026203597 -0.05542495 -0.058394197 0.077069595 0.009493057
-0.01912451 -0.007387292 -0.0058440208 -0.020374352 -0.0026482379 -0.05625707 -0.0016121743 -0.00089073234
-0.02227597 0.011332492 -0.018096102 -0.06987419 0.019654673 -0.0152035495 -0.0054971753 0.0014857847
-0.03419775 -0.007463958 -0.010508803 0.0027155713 0.0023173415 -0.008500674 0.017236888 0.0587251
-0.029004741 -0.0024359913 -0.02390043 -0.046691537 -0.015534848 0.00565296 -0.033042185 0.02003265
-0.0038718584 -0.02858756 -0.015482819 0.008345116 0.03868617 -0.03393587 -0.0043244553 0.0056369877
-0.029034322 -0.011615273 0.055643674 -0.029705655 0.018206295 0.01341642 -0.03933502 0.008438827
00000000: 7c0c a63b 283d 20bc 3e7e a1bc 1509 a539
00000010: d4a1 f53b 46a3 953b 6851 eabb 0fe8 8f38
00000020: e4c1 90bb 4a27 553d aa08 acba c47b 01bd
00000030: f267 d5bc d91d 8dbc 47fe 27bc cf84 0a3d
00000040: ec0b 66bc bc90 2fbd a0b9 9a3b 3a48 b3bc
00000050: 2d64 96bc dc72 af3c 2e76 97bc 4109 853c
00000060: ea7e a7bc d53b 3e3c 67f6 b9bd 5e3b 333d
00000070: cd18 de38 fb1d 28bc 2482 3ebc 02c4 fdbc
00000080: 97e1 eabc eb96 143d 8038 09bc 8289 73ba
00000090: 6bff 193d e89c 12ba e3d8 0dbc c24d ae3c
000000a0: 4ebe a7bd eb92 02bd f21c 1fbd 3295 cf3b
000000b0: dc79 343c 32dd febd dc61 1bbd bb6e cbbc
000000c0: 59cf 7d3a f042 c6bb 9258 32bc e592 8b3d
000000d0: 331a 2bbd c170 20bc c55f 2fbd 980c 13bc
000000e0: 6f56 90bc 16ae b2ba 42c6 403c 35b4 993c
000000f0: 8525 00bd b451 03bd 0efa 34bd b9a7 fb3c
00000100: 1286 d43c 597f 613c b6e3 a6bc 716b b7bc
00000110: b968 a2bc 011b da3c 546b 3fbc 0456 61bc
00000120: ad39 10bb d37d 0fbd 2160 043a 2183 fabc
00000130: 585c e0bd bfc6 54bd dd1d 143d 34bc e8bb
00000140: 1b69 68bd 9798 c2bc 6e4a 033c 7e68 21bc
00000150: 1ec4 a13b 2db3 cf3c 62b6 c6bc e543 253c
00000160: 48be b53a e0b4 efbc eb0e 29bd a188 0ebd
00000170: 8ac3 bfb9 6454 13ba c928 b23c 84b4 dcbb
00000180: 732c d53c 9cce 87bc 4bf9 d1ba e642 00bd
00000190: 535b e0bc 301e 20bd 76ef b3bc 82ac 32bc
000001a0: 3f6a c9bc f0ff 11bd b540 f6bc ce23 74bd
000001b0: 45f3 82ba ac8e e5bb 768b a2bc 6fc2 6ebb
000001c0: cc66 9839 485c 33bd 9354 90bd 3acb cebc
000001d0: d3ff 09bc 0924 523b 563a bcbc b2ef 42bd
000001e0: efe2 4cbb 6f60 88ba 6909 9d3c a12e 73bc
000001f0: cc41 813a a41d a5bc 4229 69bc 65bf f33c
00000200: 18c1 f43c 5561 52bc a893 99bc b2e3 043d
00000210: 41cb 52bb fea5 83bc f254 9ebc c7e3 83ba
00000220: 58d5 32bc 4329 163c ea91 acbb 4c8b d83c
00000230: 16f8 ae3b 09f9 aebb b1bc 0d3c 6bff f7bb
00000240: b66d b0bc fc1b 5fbd efbf 45bc 8d97 fcbb
00000250: 3dae 7b3b ee65 0b3b 7164 28bd 0ec3 2c3b
00000260: 4798 24bc 9861 7bbc fed4 10bd a447 453c
00000270: 6ec5 ad3c 3fa9 72bc 3233 d73c ccb7 23bd
00000280: 57e8 8039 31d2 913b 8edc 893c 0f93 eabc
00000290: fe19 8a3c 61d1 e63c 18d2 a13b f45a d63c
000002a0: 2fa5 19bd d51d 2f3b 1c24 353b 0c29 9abc
000002b0: 3938 03bd 641f bc3b c776 90bd d3ee d4bc
000002c0: e3bd dcbc b95b ebbb 4b2d 84bc 99fd 633c
000002d0: 00ac 12bd b024 283c 2c8b aabc 8e90 993c
000002e0: c42b 23bd 141f 93bc aa32 bbbb 2414 803c
000002f0: 55e2 d63c 9fdb 99bd 26e9 b9bc 6985 893d
00000300: 65f6 a83b 4ec0 93bc 93e8 8abc 6db4 cc3a
00000310: e8d5 e8bc 31ed a13b b430 25bc 596b 1f3d
00000320: 284a dbba b569 fcbc fddd 85bb eda8 d6bc
00000330: 4605 63bd c12e 6fbd aad6 9d3d c488 1b3c
00000340: 01ab 9cbc 1911 f2bb 337f bfbb 1de8 a6bc
00000350: 0f8e 2dbb d06d 66bd 984f d3ba 0980 69ba
00000360: 187c b6bc ebab 393c 473e 94bc 331a 8fbd
00000370: d602 a13c 4f18 79bc a621 b4bb a9be c23a
00000380: f112 0cbd 3894 f4bb 1d2d 2cbc baf7 313b
00000390: 8ade 173b 6946 0bbc 6034 8d3c bb89 703d
000003a0: 5a9b edbc 27a5 1fbb d6ca c3bc a03f 3fbd
000003b0: e085 7ebc 773c b93b 3e57 07bd 831b a43c
000003c0: 01bf 7dbb 7530 eabc a6ab 7dbc f4b9 083c
000003d0: 6475 1e3d 5700 0bbd 29b4 8dbb 7bb6 b83b
000003e0: 63d9 edbc fc4d 3ebc 9fea 633d 4659 f3bc
000003f0: 5e25 953c 8bd0 5b3c c21d 21bd 0143 0a3c

action_model._continuous_distribution.mu.bias f4 [2]
-0.008134747 -0.02121083
00000000: 9a47 05bc 56c2 adbc

action_model._discrete_distribution.branches.0.weight f4 [1, 128]
0.0019231096 0.0074754744 -0.008727334 0.009598325 -0.004505272 0.010862379 -0.0012231392 -0.009409583
-0.0061867586 0.002016092 -0.012307045 -0.014612396 -0.0020562958 0.010855336 0.0032396365 0.0034775843
-0.006019212 0.006985932 0.011168896 -0.02060563 -0.0019373139 0.0032853906 -0.010891836 -0.005345786
0.005121987 0.012622492 0.0040550283 0.0066881217 -0.008225425 0.0065736123 0.0076184683 0.0074615143
0.0027033575 0.014166102 0.0085968 -0.0051652053 -0.00816063 0.0061838734 0.011964467 -0.0082220705
0.017452925 0.004346179 -0.0016025316 -0.00776233 -0.0075992146 0.004438549 -0.0028142438 0.0027846254
0.012512641 0.009477784 0.010272491 -0.0037360273 -0.00077802775 0.0031849176 -0.012120703 -0.0044901096
0.006755092 0.0023173278 0.0016760965 -0.00268208 0.014353164 -0.0028469358 -0.01674852 -0.00037793358
0.0036256935 -0.012136891 0.0054903496 -0.0003678572 -0.0008901727 0.0045440174 0.0046839486 -0.0010929141
-0.0019148123 -0.01436946 0.004925098 0.0017725456 -0.002344076 -0.009363138 -0.002898786 0.0074784975
-0.015572547 0.01331708 0.0015937759 -0.0014741237 0.001821847 -0.00149011 -0.00400839 0.020013504
-0.005359789 0.005336992 -0.0006595733 0.00023414909 -0.017674735 -0.0052568554 -0.0049095335 -0.00070682925
-0.0046863346 -0.00552572 -0.0077032866 -0.0071472297 0.00078129134 0.00783791 -0.00084327965 0.012854107
0.005721934 -0.0024919217 -0.0014211345 -0.0036610824 -0.0067401617 -0.013396427 0.012257372 -0.0036054363
-0.0038151834 -0.0053326166 -0.0009211451 -0.0028536578 0.0070102112 0.0007106884 -0.0087375995 0.007639024
0.0057176226 -0.015364773 -0.010278343 0.01939118 0.0011070807 -0.0037905655 -0.0044604535 -0.019237338
00000000: da10 fc3a d3f4 f43b 18fd 0ebc 4b42 1d3c
00000010: f6a0 93bb 1ff8 313c be51 a0ba a72a 1abc
00000020: 4bba cabb 6920 043b 7da3 49bc d568 6fbc
00000030: ebc2 06bb 94da 313c 1550 543b 2fe8 633b
00000040: cf3c c5bb 3fea e43b bffd 363c 23cd a8bc
00000050: 78ed fdba b54f 573b ac73 32bc b42b afbb
00000060: 57d6 a73b 92ce 4e3c 0be0 843b 0828 db3b
00000070: efc3 06bc 7567 d73b 58a4 f93b b87f f43b
00000080: d02a 313b f018 683c 98d9 0c3c e240 a9bb
00000090: 2ab4 05bc 17a2 ca3b 9d06 443c ddb5 06bc
000000a0: 70f9 8e3c 646a 8e3b 0a0c d2ba 255b febb
000000b0: d502 f9bb 3f71 913b 2d6f 38bb 437e 363b
000000c0: d201 4d3c b548 1b3c f34d 283c 23d8 74bb
000000d0: 8ff4 4bba 0dba 503b ea95 46bc c521 93bb
000000e0: d259 dd3b 4fde 173b 77b0 db3a d6c5 2fbb
000000f0: 8829 6b3c a893 3abb 3134 89bc 6325 c6b9
00000100: 0b9d 6d3b cfd9 46bc 64e8 b33b f5dc c0b9
00000110: 7b5a 69ba fbe5 943b cf7b 993b 1d40 8fba
00000120: 70fa faba e26d 6bbc b762 a13b c354 e83a
00000130: 129f 19bb d967 19bc 8ff9 3dbb 2f0e f53b
00000140: ff23 7fbc e22f 5a3c 3fe6 d03a 6237 c1ba
00000150: 0bcb ee3a cb4f c3ba d058 83bb 5cf3 a33c
00000160: 2ba1 afbb efe1 ae3b 37e7 2cba eb85 7539
00000170: 9bca 90bc b341 acbb 27e0 a0bb 824a 39ba
00000180: d38f 99bb 1911 b5bb da6b fcbb 4f33 eabb
00000190: 93cf 4c3a 946a 003c 8a0f 5dba 089a 523c
000001a0: 107f bb3b 824f 23bb 5c45 baba c5ee 6fbb
000001b0: 93dc dcbb b07c 5bbc 25d3 483c 2f49 6cbb
000001c0: 2808 7abb 3bbd aebb 0079 71ba 6f04 3bbb
000001d0: eab5 e53b 7e4d 3a3a 2628 0fbc c750 fa3b
000001e0: e55a bb3b 87bc 7bbc 7f66 28bc 40da 9e3c
000001f0: 771b 913a 236b 78bb ff28 92bb 9f97 9dbc

exp_avg f4 [128, 66]
-0.00016500373 -0.00016500373 -0.00016500373 0.00013051763 0.00028696278 0.00026960747 -0.00012375279 -0.02620952
-0.00012375279 0.00017966263 0.00019833674 0.00015274715 0.00026928564 0.00022387736 0.00018176272 0.0001477937
0.00023710742 0.00017873073 0.0 -4.125095e-06 0.0 -8.2501865e-05 -4.125095e-06 8.2501865e-05
-8.2501865e-05 -4.125095e-06 -8.2501865e-05 8.2501865e-05 -4.125095e-06 -8.2501865e-05 0.0 -4.125095e-06
0.0 -0.00021799665 -0.00021799665 -0.00021799665 0.00017908869 0.00033822432 0.00031571396 -0.00016349746
-0.011793481 -0.00016349746 0.00023034799 0.0002545201 0.0002020937 0.00032126252 0.00027809426 0.00023282261
0.00019651823 0.00029050276 0.00022516382 0.0 -5.4499137e-06 0.0 -0.00010899833 -5.4499137e-06
0.00010899833 -0.00010899833 -5.4499137e-06 -0.00010899833 0.00010899833 -5.4499137e-06 -0.00010899833 0.0
-5.4499137e-06 0.0 1.5977612e-05 1.5977612e-05 1.5977612e-05 -1.2188084e-05 6.4553177e-07 1.6973805e-05
1.1983204e-05 6.888681e-05 1.1983204e-05 3.1554237e-06 -1.7061637e-06 -1.1894673e-05 1.48788085e-05 1.2508915e-05
4.1412363e-06 -1.051698e-05 3.0564543e-06 4.6552527e-06 0.0 3.9944007e-07 0.0 7.988806e-06
3.9944007e-07 -7.988806e-06 7.988806e-06 3.9944007e-07 7.988806e-06 -7.988806e-06 3.9944007e-07 7.988806e-06
0.0 3.9944007e-07 0.0 3.125601e-05 3.125601e-05 3.125601e-05 -2.362339e-05 8.981903e-06
2.9228946e-05 2.3442006e-05 9.258276e-05 2.3442006e-05 3.632378e-06 6.454498e-06 -2.3189717e-05 2.6920668e-05
2.3110833e-05 4.492256e-06 -2.1120291e-05 1.2862903e-05 5.10243e-06 0.0 7.8140005e-07 0.0
1.5628006e-05 7.8140005e-07 -1.5628006e-05 1.5628006e-05 7.8140005e-07 1.5628006e-05 -1.5628006e-05 7.8140005e-07
1.5628006e-05 0.0 7.8140005e-07 0.0 0.00013194732 0.00013194732 0.00013194732 -0.00011265897
-0.00011523549 -0.000110797635 9.8960496e-05 -0.013003904 9.8960496e-05 -0.00010414404 -0.00011195552 -0.000120443015
-8.7034874e-05 -0.00010272579 -0.000120314005 -0.00011848045 -0.000121138495 -0.00011802215 0.0 3.2986825e-06
0.0 6.597366e-05 3.2986825e-06 -6.597366e-05 6.597366e-05 3.2986825e-06 6.597366e-05 -6.597366e-05
3.2986825e-06 6.597366e-05 0.0 3.2986825e-06 0.0 0.00015836094 0.00015836094 0.00015836094
-0.0001364429 -0.00013865772 -0.00013087 0.00011877069 -0.014831641 0.00011877069 -0.00012689286 -0.00013603132
-0.00014449761 -0.00010771908 -0.00012521113 -0.0001438795 -0.00014214775 -0.0001449577 -0.00014011876 0.0
3.959023e-06 0.0 7.918047e-05 3.959023e-06 -7.918047e-05 7.918047e-05 3.959023e-06 7.918047e-05
-7.918047e-05 3.959023e-06 7.918047e-05 0.0 3.959023e-06 0.0 2.2580148e-06 2.2580148e-06
2.2580148e-06 -1.6254397e-06 7.14096e-07 2.4541669e-06 1.6935103e-06 1.1037916e-05 1.6935103e-06 4.2327926e-07
1.1149602e-06 -1.607503e-06 2.164144e-06 2.2196434e-06 6.287245e-07 -1.4627923e-06 1.4504833e-06 6.791593e-07
0.0 5.645037e-08 0.0 1.1290074e-06 5.645037e-08 -1.1290074e-06 1.1290074e-06 5.645037e-08
1.1290074e-06 -1.1290074e-06 5.645037e-08 1.1290074e-06 0.0 5.645037e-08 0.0 1.1964602e-07
1.1964602e-07 1.1964602e-07 -7.465784e-10 -1.4691862e-07 1.1594307e-06 8.973433e-08 1.5065707e-05 8.973433e-08
6.0580527e-07 9.977859e-09 2.1539424e-08 8.1257156e-07 1.0599624e-06 8.32374e-07 6.833334e-08 1.9317399e-07
8.831664e-07 0.0 2.9911629e-09 0.0 5.982301e-08 2.9911629e-09 -5.982301e-08 5.982301e-08
00000000: da04 2db9 da04 2db9 da04 2db9 8fdb 0839
00000010: 7e73 9639 1a5a 8d39 a3c3 01b9 59b5 d6bc
00000020: a3c3 01b9 d263 3c39 9df8 4f39 c02a 2039
00000030: e82e 8d39 9fc0 6a39 8f97 3e39 12f9 1a39
00000040: 0aa0 7839 aa69 3b39 0000 0000 4c6a 8ab6
00000050: 0000 0000 da04 adb8 4c6a 8ab6 da04 ad38
00000060: da04 adb8 4c6a 8ab6 da04 adb8 da04 ad38
00000070: 4c6a 8ab6 da04 adb8 0000 0000 4c6a 8ab6
00000080: 0000 0000 0896 64b9 0896 64b9 0896 64b9
00000090: c1c9 3b39 b353 b139 6986 a539 8470 2bb9
000000a0: 7239 41bc 8470 2bb9 9189 7139 1c71 8539
000000b0: 1de9 5339 206f a839 2ecd 9139 d821 7439
000000c0: 7610 4e39 9f4e 9839 f419 6c39 0000 0000
000000d0: 67de b6b6 0000 0000 0896 e4b8 67de b6b6
000000e0: 0896 e438 0896 e4b8 67de b6b6 0896 e4b8
000000f0: 0896 e438 67de b6b6 0896 e4b8 0000 0000
00000100: 67de b6b6 0000 0000 a907 8637 a907 8637
00000110: a907 8637 6c7b 4cb7 9b48 2d35 f862 8e37
00000120: 780b 4937 5377 9038 780b 4937 c4c1 5336
00000130: 57ff e4b5 3b8f 47b7 ff9f 7937 61dd 5137
00000140: f3f4 8a36 1672 30b7 7c1d 4d36 5134 9c36
00000150: 0000 0000 a072 d634 0000 0000 a907 0637
00000160: a072 d634 a907 06b7 a907 0637 a072 d634
00000170: a907 0637 a907 06b7 a072 d634 a907 0637
00000180: 0000 0000 a072 d634 0000 0000 e318 0338
00000190: e318 0338 e318 0338 d82a c6b7 fbb0 1637
000001a0: af30 f537 53a5 c437 fe28 c238 53a5 c437
000001b0: c7c3 7336 b793 d836 8a87 c2b7 b2d3 e137
000001c0: 23de c137 2fbc 9636 7b2b b1b7 bfcd 5737
000001d0: 8a35 ab36 0000 0000 67c1 5135 0000 0000
000001e0: e318 8337 67c1 5135 e318 83b7 e318 8337
000001f0: 67c1 5135 e318 8337 e318 83b7 67c1 5135
00000200: e318 8337 0000 0000 67c1 5135 0000 0000
00000210: 575b 0a39 575b 0a39 575b 0a39 5343 ecb8
00000220: 95aa f1b8 075c e8b8 0389 cf38 540e 55bc
00000230: 0389 cf38 e867 dab8 aac9 eab8 5a96 fcb8
00000240: 7e86 b6b8 7d6e d7b8 1751 fcb8 b578 f8b8
00000250: bc0b feb8 a982 f7b8 0000 0000 ef5e 5d36
00000260: 0000 0000 575b 8a38 ef5e 5d36 575b 8ab8
00000270: 575b 8a38 ef5e 5d36 575b 8a38 575b 8ab8
00000280: ef5e 5d36 575b 8a38 0000 0000 ef5e 5d36
00000290: 0000 0000 b10d 2639 b10d 2639 b10d 2639
000002a0: 1d12 0fb9 a664 11b9 263a 09b9 8714 f938
000002b0: 6900 73bc 8714 f938 8b0e 05b9 a1a3 0eb9
000002c0: 4884 17b9 3ee7 e1b8 1b4b 03b9 5cde 16b9
000002d0: 7f0d 15b9 c9ff 17b9 d8ec 12b9 0000 0000
000002e0: c0d7 8436 0000 0000 b10d a638 c0d7 8436
000002f0: b10d a6b8 b10d a638 c0d7 8436 b10d a638
00000300: b10d a6b8 c0d7 8436 b10d a638 0000 0000
00000310: c0d7 8436 0000 0000 6688 1736 6688 1736
00000320: 6688 1736 af29 dab5 4eb0 3f35 44b2 2436
00000330: 924c e335 7d2f 3937 924c e335 0f3f e334
00000340: bea5 9535 62c1 d7b5 b63b 1136 2ff5 1436
00000350: 9ec5 2835 2955 c4b5 3aae c235 794f 3635
00000360: 0000 0000 d773 7233 0000 0000 6688 9735
00000370: d773 7233 6688 97b5 6688 9735 d773 7233
00000380: 6688 9735 6688 97b5 d773 7233 6688 9735
00000390: 0000 0000 d773 7233 0000 0000 0c78 0034
000003a0: 0c78 0034 0c78 0034 c937 4db0 afc0 1db4
000003b0: bc9d 9b35 f8b3 c033 b8c2 7c37 f8b3 c033
000003c0: 9f9e 2235 176b 2b32 b205 b932 7e1f 5a35
000003d0: 0844 8e35 4e70 5f35 a7be 9233 436b 4f34
000003e0: bc12 6d35 0000 0000 188d 4d31 0000 0000
000003f0: 0c78 8033 188d 4d31 0c78 80b3 0c78 8033

exp_avg_sq f4 [128, 66]
9.736132e-08 9.736132e-08 9.736132e-08 7.63441e-08 7.434699e-08 6.633684e-08 5.477277e-08 0.081492044
5.4913542e-08 6.2923974e-08 7.3655805e-08 8.1838344e-08 4.4222165e-08 5.988635e-08 8.117557e-08 7.972303e-08
8.2898524e-08 7.8146165e-08 0.0 6.0850824e-11 0.0 2.434033e-08 6.0850824e-11 2.434033e-08
2.434033e-08 6.0850824e-11 2.434033e-08 2.434033e-08 6.0850824e-11 2.434033e-08 0.0 6.0850824e-11
0.0 1.1074129e-07 1.1074129e-07 1.1074129e-07 8.632285e-08 8.510499e-08 7.5651194e-08 6.23035e-08
0.09270998 6.240135e-08 7.208262e-08 8.4654104e-08 9.307812e-08 5.1315947e-08 6.930272e-08 9.248612e-08
9.05254e-08 9.4578475e-08 8.8316845e-08 0.0 6.921327e-11 0.0 2.7685322e-08 6.921327e-11
2.7685322e-08 2.7685322e-08 6.921327e-11 2.7685322e-08 2.7685322e-08 6.921327e-11 2.7685322e-08 0.0
6.921327e-11 0.0 3.5770964e-09 3.5770964e-09 3.5770964e-09 1.8806827e-09 5.23071e-10 1.8062293e-09
2.0843762e-09 3.1595515e-09 1.8453957e-09 1.8977961e-10 7.603224e-10 2.0872521e-09 2.0219435e-09 1.2003765e-09
1.442616e-10 1.6946518e-09 8.963892e-10 8.277954e-11 0.0 2.235686e-12 0.0 8.942741e-10
2.235686e-12 8.942741e-10 8.942741e-10 2.235686e-12 8.942741e-10 8.942741e-10 2.235686e-12 8.942741e-10
0.0 2.235686e-12 0.0 4.164009e-09 4.164009e-09 4.164009e-09 2.1950732e-09 6.710232e-10
2.1659705e-09 2.4083116e-09 3.9178794e-09 2.1581548e-09 1.9431053e-10 9.873934e-10 2.395656e-09 2.3630005e-09
1.4935474e-09 1.4760988e-10 1.9717383e-09 1.1885845e-09 8.635024e-11 0.0 2.6025057e-12 0.0
1.0410023e-09 2.6025057e-12 1.0410023e-09 1.0410023e-09 2.6025057e-12 1.0410023e-09 1.0410023e-09 2.6025057e-12
1.0410023e-09 0.0 2.6025057e-12 0.0 1.7199673e-08 1.7199673e-08 1.7199673e-08 1.3720119e-08
1.2181686e-08 1.0288492e-08 9.6843635e-09 0.025944075 9.536438e-09 1.13924346e-08 1.3068259e-08 1.4422762e-08
7.976907e-09 1.0494556e-08 1.3874954e-08 1.3692559e-08 1.382235e-08 1.3211207e-08 0.0 1.0749793e-11
0.0 4.299918e-09 1.0749793e-11 4.299918e-09 4.299918e-09 1.0749793e-11 4.299918e-09 4.299918e-09
1.0749793e-11 4.299918e-09 0.0 1.0749793e-11 0.0 2.0954756e-08 2.0954756e-08 2.0954756e-08
1.6476589e-08 1.5150674e-08 1.3092043e-08 1.1795607e-08 0.030808397 1.1658685e-08 1.3765345e-08 1.5997804e-08
1.7581327e-08 9.844681e-09 1.3048221e-08 1.7033505e-08 1.6745782e-08 1.7154342e-08 1.621305e-08 0.0
1.3096731e-11 0.0 5.238689e-09 1.3096731e-11 5.238689e-09 5.238689e-09 1.3096731e-11 5.238689e-09
5.238689e-09 1.3096731e-11 5.238689e-09 0.0 1.3096731e-11 0.0 4.0941434e-10 4.0941434e-10
4.0941434e-10 2.5736446e-10 1.0860668e-10 1.9901798e-10 2.2915793e-10 5.5206206e-10 1.7344497e-10 9.990204e-11
1.09185314e-10 2.6236288e-10 2.604475e-10 1.2556907e-10 7.757015e-11 1.6510818e-10 8.7900506e-11 3.7828515e-11
0.0 2.5588358e-13 0.0 1.02353584e-10 2.5588358e-13 1.02353584e-10 1.02353584e-10 2.5588358e-13
1.02353584e-10 1.02353584e-10 2.5588358e-13 1.02353584e-10 0.0 2.5588358e-13 0.0 4.1828166e-10
4.1828166e-10 4.1828166e-10 2.6124566e-10 1.1898973e-10 2.0798677e-10 2.3405294e-10 6.383219e-10 1.8179858e-10
9.9683276e-11 1.14052975e-10 2.6485622e-10 2.6594296e-10 1.3336704e-10 7.772097e-11 1.7086088e-10 9.362238e-11
3.7824906e-11 0.0 2.6142635e-13 0.0 1.04570415e-10 2.6142635e-13 1.04570415e-10 1.04570415e-10
00000000: f414 d133 f414 d133 f414 d133 9df2 a333
00000010: b1a8 9f33 1075 8e33 4c3f 6b33 4de5 a63d
00000020: 14da 6b33 d220 8733 b52c 9e33 1bbf af33
00000030: c9ee 3d33 de9a 8033 be52 ae33 3334 ab33
00000040: f205 b233 4fd1 a733 0000 0000 f8cf 852e
00000050: 0000 0000 f414 d132 f8cf 852e f414 d132
00000060: f414 d132 f8cf 852e f414 d132 f414 d132
00000070: f8cf 852e f414 d132 0000 0000 f8cf 852e
00000080: 0000 0000 abd0 ed33 abd0 ed33 abd0 ed33
00000090: 7d60 b933 f7c2 b633 af75 a233 b6cb 8533
000000a0: bbde bd3d 8101 8633 d7cb 9a33 16cb b533
000000b0: 3de2 c733 7b66 5c33 93d3 9433 c89c c633
000000c0: dd66 c233 111b cb33 b3a8 bd33 0000 0000
000000d0: 9b33 982e 0000 0000 abd0 ed32 9b33 982e
000000e0: abd0 ed32 abd0 ed32 9b33 982e abd0 ed32
000000f0: abd0 ed32 9b33 982e abd0 ed32 0000 0000
00000100: 9b33 982e 0000 0000 f2d0 7531 f2d0 7531
00000110: f2d0 7531 523d 0131 d9c7 0f30 0b3f f830
00000120: bc3c 0f31 6b1f 5931 17a1 fd30 36aa 502f
00000130: effe 5030 546f 0f31 68f2 0a31 7efa a430
00000140: 089e 1e2f 42e9 e830 c865 7630 bd08 b62e
00000150: 0000 0000 8a52 1d2c 0000 0000 f2d0 7530
00000160: 8a52 1d2c f2d0 7530 f2d0 7530 8a52 1d2c
00000170: f2d0 7530 f2d0 7530 8a52 1d2c f2d0 7530
00000180: 0000 0000 8a52 1d2c 0000 0000 0313 8f31
00000190: 0313 8f31 0313 8f31 23d8 1631 0f73 3830
000001a0: 28d8 1431 777f 2531 089e 8631 a94e 1431
000001b0: 8da5 552f d1b4 8730 d3a0 2431 5862 2231
000001c0: 8745 cd30 7d4c 222f 307f 0731 995b a330
000001d0: dde2 bd2e 0000 0000 9322 372c 0000 0000
000001e0: 0313 8f30 9322 372c 0313 8f30 0313 8f30
000001f0: 9322 372c 0313 8f30 0313 8f30 9322 372c
00000200: 0313 8f30 0000 0000 9322 372c 0000 0000
00000210: 7bbe 9332 7bbe 9332 7bbe 9332 b9b5 6b32
00000220: 9f47 5132 44c1 3032 4860 2632 ab88 d43c
00000230: b3d5 2332 75b8 4332 d082 6032 fac7 7732
00000240: cf0a 0932 8c4b 3432 b15e 6e32 833c 6b32
00000250: 5777 6d32 81f7 6232 0000 0000 c41c 3d2d
00000260: 0000 0000 7bbe 9331 c41c 3d2d 7bbe 9331
00000270: 7bbe 9331 c41c 3d2d 7bbe 9331 7bbe 9331
00000280: c41c 3d2d 7bbe 9331 0000 0000 c41c 3d2d
00000290: 0000 0000 ffff b332 ffff b332 ffff b332
000002a0: 6788 8d32 af24 8232 6aeb 6032 a1a5 4a32
000002b0: e461 fc3c 704b 4832 a17c 6c32 8b6b 8932
000002c0: bf05 9732 5d21 2932 af2a 6032 1351 9232
000002d0: 5dd8 8f32 cc5a 9332 e044 8b32 0000 0000
000002e0: 6f66 662d 0000 0000 ffff b331 6f66 662d
000002f0: ffff b331 ffff b331 6f66 662d ffff b331
00000300: ffff b331 6f66 662d ffff b331 0000 0000
00000310: 6f66 662d 0000 0000 f213 e12f f213 e12f
00000320: f213 e12f d47c 8d2f 20d4 ee2e 95d2 5a2f
00000330: 39f6 7b2f eabf 1730 6bb4 3e2f d9af db2e
00000340: de19 f02e 4b3c 902f ba2e 8f2f 8d10 0a2f
00000350: 1d94 aa2e d289 352f 964b c12e 1f5f 262e
00000360: 0000 0000 b60c 902a 0000 0000 f213 e12e
00000370: b60c 902a f213 e12e f213 e12e b60c 902a
00000380: f213 e12e f213 e12e b60c 902a f213 e12e
00000390: 0000 0000 b60c 902a 0000 0000 e9f3 e52f
000003a0: e9f3 e52f e9f3 e52f 0f9f 8f2f a2d4 022f
000003b0: 12af 642f 06ac 802f e975 2f30 c0e3 472f
000003c0: b234 db2e 1ece fa2e 339b 912f 2534 922f
000003d0: 7ca3 122f 04e9 aa2e 10dd 3b2f b7e0 cd2e
000003e0: 0f5b 262e 0000 0000 822b 932a 0000 0000
000003f0: e9f3 e52e 822b 932a e9f3 e52e e9f3 e52e

exp_avg f4 [128]
-0.00021799661 3.1256004e-05 0.00015836096 1.1964612e-07 -0.00021567654 -0.00018617742 -6.746586e-05 -0.00013866667
-0.00018575114 -5.7621546e-05 -1.7086136e-06 -8.587838e-05 -2.440479e-05 5.663734e-06 -0.00011238513 -9.349493e-06
-6.422277e-05 2.7765213e-05 -1.2097759e-05 -0.000293783 -4.317028e-05 3.682629e-05 -0.00021902677 -0.00043085744
-0.00013213416 -8.407839e-05 3.741962e-05 -9.752513e-06 1.553181e-05 -0.0003197398 -2.6715978e-05 -0.00017870552
-4.1432962e-05 -1.5864498e-06 4.0530493e-05 8.235623e-06 0.00016484878 -0.0002515483 3.8670237e-06 -1.0543133e-05
-0.00018076325 -0.00011724918 2.0102689e-05 -0.00019462888 2.7614757e-05 2.057436e-05 -8.2336126e-05 -0.0003161877
0.00011557754 0.00030989182 -3.6363176e-07 -2.9395608e-06 1.37105e-05 -6.067843e-05 3.3428087e-06 -5.0738167e-06
0.00012524294 -0.00032134837 8.9149944e-05 1.3604688e-05 -1.5946618e-05 0.00015466378 -7.551075e-05 5.6591443e-07
-0.0002076986 6.2050876e-06 5.044282e-05 4.3899827e-06 0.00048472406 -2.5040434e-05 -0.00037166604 2.8008286e-05
2.926504e-06 0.00010933843 -0.0001247495 -7.5466273e-06 -0.00031635573 -0.00011091226 -8.594356e-05 -0.00044859984
-1.6969829e-05 -0.00012374372 1.7507427e-05 -0.00028818313 0.0001872601 -3.2835794e-06 -3.2537762e-05 2.3732086e-05
1.9947454e-05 0.0002557435 -7.183836e-05 -0.00013070591 -0.00031931238 3.6221496e-05 7.016718e-05 -7.0322676e-06
-5.5712804e-05 4.6049172e-05 3.8669264e-06 -1.2650965e-05 5.3283526e-05 7.6974204e-05 0.00020965737 0.0003145078
6.77734e-05 5.0290502e-05 3.927743e-05 0.00015312109 -9.336042e-05 -3.537339e-06 1.846924e-05 5.361985e-05
1.7592323e-05 -2.2800308e-05 2.2739382e-06 -0.0001010948 -0.00014882402 -0.000118450786 -3.6432924e-05 -1.946671e-06
1.4541266e-05 -0.0002607901 -2.930916e-05 -8.6944376e-05 -6.1972605e-05 -7.7754696e-05 3.0650313e-05 0.00015669227
00000000: 0596 64b9 e118 0338 b20d 2639 1378 0034
00000010: 3b27 62b9 9f38 43b9 757c 8db8 0d67 11b9
00000020: 31c6 42b9 aaae 71b8 8453 e5b5 9b19 b4b8
00000030: e3b8 ccb7 1b0b be36 4fb0 ebb8 c4db 1cb7
00000040: 56af 86b8 57e9 e837 7bf7 4ab7 e306 9ab9
00000050: bc11 35b8 ee75 1a38 8daa 65b9 b5e4 e1b9
00000060: 7e8d 0ab9 3e53 b0b8 03f3 1c38 b99e 23b7
00000070: 4f4a 8237 c0a2 a7b9 201c e0b7 e662 3bb9
00000080: 4ec8 2db8 00ee d4b5 49ff 2938 bb2b 0a37
00000090: 42db 2c39 3ee2 83b9 7bc1 8136 69e2 30b7
000000a0: 448b 3db9 ade3 f5b8 32a2 a837 4b15 4cb9
000000b0: 3da6 e737 1a97 ac37 dfab acb8 ffc5 a5b9
000000c0: 3862 f238 fa78 a239 2b39 c3b4 4545 45b6
000000d0: 2606 6637 f880 7eb8 0455 6036 c13f aab6
000000e0: a553 0339 a67a a8b9 03f6 ba38 b13f 6437
000000f0: 1ac5 85b7 3e2d 2239 865b 9eb8 58e9 1735
00000100: abc9 59b9 4c35 d036 9192 5338 aa4d 9336
00000110: 9022 fe39 ec0d d2b7 2cdc c2b9 56f3 ea37
00000120: f564 4436 9f4c e538 30cf 02b9 0939 fdb6
00000130: 8cdc a5b9 9199 e8b8 993c b4b8 0d32 ebb9
00000140: 6e5a 8eb7 34c1 01b9 eadc 9237 4917 97b9
00000150: 405b 4439 775b 5cb6 2879 08b8 4414 c737
00000160: d554 a737 5015 8639 eda7 96b8 1a0e 09b9
00000170: 6269 a7b9 89ec 1738 b826 9338 b8f6 ebb6
00000180: 2bad 69b8 ec24 4138 a5c0 8136 7b3f 54b7
00000190: c07c 5f38 366d a138 79d7 5b39 86e4 a439
000001a0: 9121 8e38 04ef 5238 d2bd 2438 218f 2039
000001b0: 7eca c3b8 0563 6db6 64ee 9a37 e0e5 6038
000001c0: 3a93 9337 4a43 bfb7 f699 1836 dc02 d4b8
000001d0: a50d 1cb9 c868 f8b8 8ecf 18b8 8ea3 02b6
000001e0: 43f6 7337 a8ba 88b9 f1dc f5b7 e855 b6b8
000001f0: 4af7 81b8 3c10 a3b8 868e 0038 c34d 2439

exp_avg_sq f4 [128]
1.10741276e-07 4.164009e-09 2.0954765e-08 4.182816e-10 5.3685422e-08 5.2915375e-08 2.1771951e-08 1.6866665e-08
5.7535985e-08 2.051479e-08 3.781392e-09 8.0311615e-09 2.3425086e-08 1.3783182e-09 7.957103e-09 4.506815e-09
2.2566226e-08 2.9808074e-09 1.2912119e-08 1.6526835e-07 3.566681e-08 1.2686642e-08 8.5595195e-07 1.12489666e-07
4.7632934e-08 1.5522286e-08 7.319825e-09 1.4256994e-08 6.0482214e-10 5.8625556e-08 1.5018948e-08 3.0984996e-08
5.601725e-08 7.0068555e-11 2.163118e-09 5.040592e-09 1.2963702e-07 1.2958377e-07 8.0904256e-10 5.6070526e-09
4.4975106e-08 1.8057791e-07 1.0166007e-08 1.6330945e-08 3.770103e-09 1.6305628e-09 2.1710509e-08 5.3618248e-08
6.7485577e-09 3.258249e-08 2.8227802e-11 5.9774847e-09 1.9041172e-08 4.995471e-08 8.779009e-10 6.2600543e-09
1.0163932e-08 1.7150803e-07 1.9205753e-08 1.930565e-08 4.1285914e-10 7.230922e-08 6.9986172e-09 1.0123146e-08
1.695091e-08 3.1851455e-10 2.8429497e-08 1.939713e-10 7.159701e-08 5.867995e-10 1.7059514e-07 2.2348823e-09
1.0989972e-09 4.2836817e-08 1.1799341e-07 1.9758377e-09 2.7266655e-08 2.030533e-08 2.4826152e-08 3.629279e-08
3.0855224e-10 2.059263e-08 2.5236593e-08 3.3405833e-08 5.1535345e-08 8.568705e-09 1.7308562e-08 5.480676e-09
1.3517749e-09 3.5676127e-08 2.8503974e-08 6.329927e-08 1.2003439e-07 1.6380017e-08 7.531292e-09 3.39655e-10
1.679145e-08 1.8178436e-07 3.918363e-09 1.909458e-08 3.0946345e-09 1.3152779e-08 5.2006303e-08 1.2776935e-07
2.509838e-09 1.8478994e-08 3.2665685e-08 1.2527239e-08 1.9683794e-08 1.6897526e-09 1.7092453e-09 4.077767e-09
2.8925246e-08 1.3114378e-08 1.0380887e-10 1.5117934e-08 2.5314359e-08 2.904244e-08 1.2007757e-08 5.5442717e-09
1.8845482e-08 1.5066695e-07 2.2045399e-09 4.8320796e-08 9.937275e-09 6.729051e-09 1.6921465e-09 8.546522e-08
00000000: a9d0 ed33 0313 8f31 0400 b432 e7f3 e52f
00000010: bf93 6633 1245 6333 0705 bb32 30e2 9032
00000020: 7c1d 7733 8038 b032 7aed 8131 6cf9 0932
00000030: 4f38 c932 436f bd30 b6b3 0832 5dda 9a31
00000040: a8d7 c132 ebd6 4c31 1ad4 5d32 9e74 3134
00000050: 1330 1933 71f4 5932 92c4 6535 d991 f133
00000060: f794 4c33 de55 8532 dd81 fb31 ecee 7432
00000070: 9340 2630 7bcb 7b33 0403 8132 5d14 0533
00000080: 9e97 7033 1715 9a2e f9a5 1431 8431 ad31
00000090: 5a32 0b34 b723 0b34 4f63 5e30 28a8 c031
000000a0: a72a 4133 e1e4 4134 92a6 2e32 2148 8c32
000000b0: 2d8a 8131 541a e030 ea7d ba32 e349 6633
000000c0: f1e0 e731 d4f0 0b33 5c4b f82d 8362 cd31
000000d0: fb8f a332 c98d 5633 c950 7130 0518 d731
000000e0: 729d 2e32 c527 3834 e6f9 a432 93d5 a532
000000f0: c2f8 e22f 6a48 9b33 7d78 f031 11ea 2d32
00000100: 729b 9132 f01a af2f 2035 f432 1146 552f
00000110: dfc0 9933 584c 2130 d62c 3734 7794 1931
00000120: 870b 9730 94fb 3733 9063 fd33 4ec7 0731
00000130: 0238 ea32 e56b ae32 4941 d532 58e0 1b33
00000140: dea0 a92f ace3 b032 dbc7 d832 1a7a 0f33
00000150: b657 5d33 9035 1332 eead 9432 8950 bc31
00000160: 5ac9 b930 513a 1933 e7d8 f432 24ef 8733
00000170: cde2 0034 0ab4 8c32 f962 0132 31ba ba2f
00000180: ca3c 9032 8130 4334 49a2 8631 6d05 a432
00000190: 63a9 5431 89f6 6132 895d 5f33 f930 0934
000001a0: 8979 2c31 bdbb 9e32 4d4c 0c33 6137 5732
000001b0: 1f15 a932 e23c e830 b9ea ea30 6b1c 8c31
000001c0: 4a77 f832 a54d 6132 3347 e42e b0dc 8132
000001d0: dd72 d932 0079 f932 ac4a 4e32 ee7f be31
000001e0: a7e1 a132 04c7 2134 ad7e 1731 4789 4f33
000001f0: 99b8 2a32 5c35 e731 1d91 e830 0089 b733
