results/ag21/PlatformRotate/PlatformRotate-21803.onnx (onnx, 19151 bytes, 8 tensors)

network_body._body_endoder.seq_layers.0.weight f4 [32, 78]
00000000: d439 1a3c 8c7a 593d b841 13be e53a 6abe
00000010: 5300 0d3e df9d bebc c9ec 8dbc 82cd 7f3d
00000020: cf43 f6bd 6579 de3d aa87 cf3d 3a73 31bc
00000030: dbfc 19bd 7e11 ccbd 5b0b 703c cc7f e73d
00000040: 3edf 833d 3110 9fbd 0f4a 613d 5131 483d
00000050: 035f fd3c c017 cf3b cc7b 603c bc6d 313e
00000060: c2bf 4a3d 56b9 fe3d a963 0e3d 3f41 94bd
00000070: 2dbb ebbb 3b6d a63d 709d 143d 5dfd 9a3d
00000080: ac6a 5abe 6a2e 11be 9979 463d 0757 503e
00000090: be96 b43b e66d efbd 4dea 783d 5786 003e
000000a0: d3f1 ccbd d90e e93d 38f2 883d eea8 8fbd
000000b0: 4914 66bd dd1a dcbd b431 703e d4c0 2abc
000000c0: ab38 a3bd b3d8 7dbd 9c22 083e 77e7 6abd
000000d0: 009b b73d 05bd 55be 78aa ca3c a652 2e3e
000000e0: 6d8d ffbd 1e11 3bbe 7cca edbd d6a7 373d
000000f0: f617 b8bd e8ea 563d 527e 7bbe c32b 43be
00000100: 1977 20be 37b3 883e 100e 443d 3c90 93bd
00000110: 09c1 b4bd d295 183b 1011 c1bd 9eea cb3d
00000120: cd5a 3f3e 6475 d8bd fd91 3c3d 7352 883d
00000130: f3c2 91bd e1b1 123e 929a b83d 8cf4 3ebe
00000140: cc3c b8bd 59ca 1abd 64ba 92bd 6cae b33d
00000150: d67f 003e 326b 453d ce50 9b3e 1148 d6bd
00000160: 5b8e 093d df10 bcbc 9cb0 6fbe b7ec afbd
00000170: 7666 00bc fb45 c0bc fe1d 9c3d 4b55 0cbe
00000180: 6202 c6bd bbca ac3d 2168 cf3d f839 503d
00000190: 5f50 6abe ce15 49bd 964e 2fbc 90cd bd3d
000001a0: e1c1 1b3e a274 3e3d 18cc 06be f885 c9bb
000001b0: 9dba e1bd 35d6 8fbc fb5a 08be c250 39be
000001c0: 3a85 e7bc 0643 2c3c 7b3d 413e 744b 183e
000001d0: 6b84 6d3d d840 4bbe 8d56 48be 3450 513e
000001e0: 7889 393d f165 bf3d 8bc5 79bd 1fb1 553e
000001f0: 621f 3ebd 106f abbc 7077 4e3e 409f 3abe
00000200: 5ab2 44be ddd4 6dbd 5169 1d3d e8d7 b13d
00000210: 8e4f 08ba bd07 d6bd 1e9e cfbc 0bbc 4f3d
00000220: 03de f8bd a799 bfbd 246f 7ebd 03d0 7e3d
00000230: c544 ddbd c74e 9c3d a3ac 20bd b65f 283d
00000240: 6655 f93b b7b8 033e 590d 6abe fbd1 6cbc
00000250: d861 70bd 55c9 bbbd 4009 383c 76c4 c43c
00000260: dc5c e5bd 12f1 72bd 56ff debd 6982 0c3e
00000270: e24e a23c 800e 4e3d ec22 a4bd 8d06 e5bd
00000280: 572e 7cbe 8c9a 47bd 7349 873e a745 a9bd
00000290: e04f 223d 8a19 6ebd 3e06 ba3d 1506 01be
000002a0: 8b70 c0bd ad88 3ebd 1400 25bd 9a4f 6cbd
000002b0: b57c 933e 342c 71bd cee2 453d be1c c9bc
000002c0: 28bf 703c e3fc ac3e ec1d d8bc 0cc8 64be
000002d0: 9e25 3b3e 6411 ef3d 38ab 883d 98e2 04be
000002e0: 912f 343e 2f37 fbbc 055e 9d3e eb84 e2bc
000002f0: 0df1 21be cbca 94bc bd9b 22bd 729a 8b3d
00000300: aae7 d4bd 3fdf afbb e6a3 173d b3bf c43d
00000310: b9ce 13be 4b52 9ebd 7033 afbc fc53 d6be
00000320: 3717 7ebd 5bef 67bd 5fb5 5b3d baaa 1abe
00000330: f1ef 963d 79f3 be3c 1eed f7bd f823 7abd
00000340: a4be 4a3e 538f 51be 66e8 d43d 6bce e03d
00000350: 76de e33c 0696 52be 2594 b13c 34b4 243e
00000360: 8568 9d3d e61d 49bc 2547 17bd ba2b ce3d
00000370: 0607 38bd 3120 313b 671c 663e 1f42 39bd
00000380: 74bd efbc c2c4 03bd 8d1d aabc 0eaa e4bc
00000390: d630 b5bc 2538 1abd 78d8 383d 5854 6dbc
000003a0: dac1 b3bd 9e19 353e b503 a23d bb68 e03d
000003b0: 1e56 8b3e 91af b13d ee0a d3bd 5f3f a43d
000003c0: fb80 8abe 0d8a 493c 8219 60bd c77a b53d
000003d0: 04e4 7dbd 33a0 0b3e 84a9 813e e1a0 ac3c
000003e0: 9c37 43be bb02 51bd d8fa 973d 17ea cb3c
000003f0: 2b21 3abd a36e 06be 02f3 45be 9dbf cd3d
0.009413201 0.053095385 -0.14380538 -0.22874029 0.13769655 -0.023268638 -0.017324822 0.062451847
-0.12024652 0.10862998 0.10133298 -0.010830695 -0.037594657 -0.09964274 0.014651145 0.11303672
0.064390644 -0.0776676 0.05500227 0.048875157 0.030929094 0.00631997 0.0137013905 0.17327017
0.04949928 0.12437694 0.034763012 -0.07239007 -0.007193944 0.08126303 0.036282957 0.075678565
-0.21329755 -0.14177862 0.04845581 0.20345698 0.005511134 -0.11690883 0.06077032 0.12551247
-0.10007062 0.11379785 0.066868246 -0.07014643 -0.05617169 -0.10747311 0.2345646 -0.01042195
-0.07969793 -0.06197424 0.13294452 -0.05734965 0.08965111 -0.20872886 0.024739489 0.17023715
-0.12478147 -0.18268248 -0.116108865 0.044837795 -0.08988945 0.052470118 -0.24559906 -0.19059663
-0.15670432 0.2669923 0.047864974 -0.07205245 -0.08825881 0.002328266 -0.094270825 0.09956859
0.18686981 -0.105692655 0.046037663 0.06656351 -0.07117262 0.14325668 0.09013857 -0.18647975
-0.08995971 -0.03779063 -0.071644574 0.08773503 0.12548766 0.048197933 0.30335087 -0.10462964
0.033583026 -0.022957264 -0.23407215 -0.08590072 -0.007836929 -0.02347087 0.07622908 -0.13704412
-0.09668423 0.08437105 0.10127283 0.050836533 -0.22882222 -0.04909306 -0.010699889 0.092677236
0.15210678 0.04649795 -0.13163793 -0.0061500035 -0.11021922 -0.017558197 -0.13315956 -0.18097213
-0.02826177 0.0105140265 0.18871109 0.14872533 0.05798761 -0.19848955 -0.19564267 0.20440751
0.045297116 0.09345616 -0.060979407 0.20868348 -0.046416648 -0.020926982 0.2016275 -0.18224812
-0.1920866 -0.05806433 0.038430516 0.08683759 -0.0005199843 -0.10450695 -0.02534395 0.05071644
-0.121517204 -0.09355479 -0.06211771 0.062210094 -0.10804132 0.07632213 -0.03922714 0.041106902
0.0076090572 0.12863432 -0.22856654 -0.01445436 -0.05868706 -0.091692604 0.011232674 0.024019461
-0.11199352 -0.059311934 -0.10888545 0.13721623 0.019813005 0.050306797 -0.08014473 -0.1118289
-0.24627052 -0.04873137 0.26423225 -0.08265238 0.039626956 -0.058129825 0.09083222 -0.12599976
-0.09396466 -0.046517063 -0.040283278 -0.0576931 0.2880608 -0.058880046 0.048312 -0.024549838
0.014694013 0.33786687 -0.026381455 -0.22341937 0.18276069 0.11673239 0.066732824 -0.12977064
0.1759627 -0.030665962 0.30735794 -0.02765127 -0.1581461 -0.018163105 -0.039699305 0.068165675
-0.10395749 -0.005367189 0.03702154 0.09606876 -0.14434327 -0.0773054 -0.021386832 -0.4186095
-0.06203386 -0.05662475 0.053639766 -0.1510419 0.07369984 0.023309456 -0.121057734 -0.06106946
0.19799286 -0.2046483 0.10395889 0.10976871 0.027816039 -0.20565042 0.021677086 0.16084367
0.07685951 -0.012275195 -0.036933083 0.10066934 -0.044928573 0.0027027244 0.22471772 -0.045229074
-0.029265143 -0.032170065 -0.020766044 -0.02791312 -0.022118013 -0.0376512 0.045128316 -0.014485441
-0.087772086 0.17685553 0.07910863 0.10957476 0.2721414 0.08676065 -0.10304819 0.080198996
-0.2705153 0.01230098 -0.054711826 0.088613085 -0.06198503 0.1363533 0.25324643 0.021072807
-0.19064182 -0.051027995 0.074208915 0.024891896 -0.045441788 -0.13128142 -0.19330981 0.10046313

network_body._body_endoder.seq_layers.0.bias f4 [32]
00000000: 7a07 323b 9c8a 77b8 5092 4cba 2f64 1ebb
00000010: 0646 0fbb c414 8a3a 03b6 02bb 4328 fc39
00000020: 0c2c ad39 edd7 6c3a c986 203b ca95 19bb
00000030: 0679 e6ba ceb9 9e39 75b7 04bb 68ff d6ba
00000040: 609b f6b8 97c6 dcba d610 c239 6574 e939
00000050: 20f3 2f3b 3954 78bb 32b3 03b9 c2c8 41b8
00000060: 895c 11bb 28f1 cbba 614f 663a 4cf3 a6b9
00000070: 489c a93a ca68 c4b9 6cc4 49bb 4cac 42b9
0.00271651 -5.901848e-05 -0.00078037847 -0.00241686 -0.0021861806 0.0010534753 -0.0019944913 0.00048095183
0.0003302995 0.0009034861 0.00244944 -0.0023435229 -0.0017583675 0.00030274544 -0.002025095 -0.0016403021
-0.00011759135 -0.0016843852 0.00037015107 0.00044527944 0.0026847795 -0.0037891997 -0.00012559889 -4.6201756e-05
-0.00221804 -0.0015559541 0.0008785632 -0.00031843258 0.0012940252 -0.00037462107 -0.0030787243 -0.00018565467

network_body._body_endoder.seq_layers.2.weight f4 [32, 32]
00000000: 266d 75bd ef8f 3ebd bc69 bfbd 84c9 d03b
00000010: 6e0a 9d3d c282 5cbd 0626 813d 10d7 86bd
00000020: 83ed c2bd 6796 473e 5f8a e13e 65ed 4bbc
00000030: 6688 1e3e f3a5 2cbd e58f 2ebd 8bb2 be3d
00000040: 09e6 cf3d 4036 cfbd 3ada a03d 56a6 c63e
00000050: 7654 82bd 87cd 2ebe b0b3 14be 3580 513e
00000060: 1354 69be eda8 21be 9477 45be b497 2e3d
00000070: abdc 763e 37d2 593e 8a70 5e3d 00d0 26bb
00000080: 3797 d13d d2d9 76bd b98b 2abe 50f0 d93c
00000090: 262f 23be 526e 163e c9ef dc3e d057 273c
000000a0: f435 b53e 2e13 423d 36ae e2bd d0b5 c7bd
000000b0: 55cb 3ebe 8a9c 73bc b754 f73d e721 8cbd
000000c0: c5dd 8bbe 7505 95be 0783 203e a7eb 27bb
000000d0: 95a8 5b3e b468 b33d 69b6 ccbd 4603 cfbd
000000e0: 37b1 54be d8aa 103e 38b3 b13d 56e3 1bbe
000000f0: 12b5 ad3e 306a bbbd 4507 afbd dd75 013d
00000100: 863b 6bbe 48a3 61be e96c cfbd 70df b83d
00000110: c9f5 a93e c7e3 803d e6a6 b3be ca4d f5bd
00000120: 79df f53d 24d0 703e f056 05be 4563 c23e
00000130: ce85 c73d d2db 6c3e 1168 073b f3b9 003e
00000140: e60b aa3d 7575 81be dc36 4e3d 8043 db3d
00000150: ab68 33be d07d 06bc 7e9f c43b 51a2 71bd
00000160: d514 9ebd bf78 983e c7ef ecbd 3c79 30be
00000170: 1904 43be 17d8 32be d01e c83a 7988 65bd
00000180: e3fa 9abb c9d7 21bd be4e 0d3e a3fa 963e
00000190: df59 613e db2e 83be 889a b0bd e386 383d
000001a0: d010 be3e 4b54 1f3d 1bf4 2b3e fbc4 803c
000001b0: f6d4 0a3e 615e bb3d 00b0 f6be 1405 94bd
000001c0: 52a2 adbe 4aa3 c33e 18e6 ec3d 12c5 083c
000001d0: 1658 77bc 2598 9d3e 4187 533d e960 8fbe
000001e0: 7d73 093e 59c9 90be 617e 0dbe 5921 c13d
000001f0: 6dcc 54bc c0e7 78bd e79a 053e 3a16 63be
00000200: e3db d23e 8f59 ddbd 3901 b03c 3df5 073e
00000210: a6a2 603d 9f68 f63e 0371 1abe f982 df3b
00000220: 7b6f 3cbe 5d96 f33c e040 3bbe c879 8a3e
00000230: a7ed d03c acef 0d3e 039a a63d 8c15 6c3e
00000240: 8d11 3c3e 1039 513d d956 0fbe b36d e13e
00000250: 4ee1 4c3c 7f9b 84be d554 633e b979 29be
00000260: 5e4a d43e d3bd 77be e4ba 97bc 9c0b c1bd
00000270: 7ee5 063e 3ddf 183e e94c 6f3e 8384 2abe
00000280: fd55 97be 070e ed3c 64d3 b33d 6009 963e
00000290: c210 86bd b66c a0bd 3450 8dbd 44d8 243e
000002a0: 3541 ed3d 3f83 bb3c 6cf8 abbd f603 2bbd
000002b0: 7e17 18be 5a5d f43d bdab 533e 59a4 35be
000002c0: 4555 c2bd e7e7 303e 9241 90be dd70 d5bc
000002d0: 4522 0bbe be1b d23c 3966 a63d 6166 65be
000002e0: 1153 8bbd 51fc 213e a518 93be ad41 afbe
000002f0: 3a65 7f3e b695 103e 2ec1 4abe 5ea2 84be
00000300: 5c72 ddbd 31cf 973c 016e 7abc 7a58 733c
00000310: f295 d63c 9889 c9bd 0cb3 1c3e ea10 ec3c
00000320: 14d0 d3bd 1255 09bc 3d89 2c3d d938 f6bc
00000330: 4d15 2cbe 6b23 02be e0e4 5f3e 5480 febd
00000340: 5406 01be 4fc3 0f3e 3fb2 ae3e 9904 da3d
00000350: 2bdc ccbd 6b31 e1bd e2a5 e43c 9ef8 a03d
00000360: abf6 353d 74d1 623d 10be 8f3d 22fb 6dbd
00000370: b50b 83bc f527 4d3e 58d9 be3c 57c9 f63d
00000380: 548b 593d 0f01 3dbe bc0d b63d 8c59 3f3e
00000390: f25b 31be 59d6 573b d767 92be bff7 bb3e
000003a0: 49ef 403d 740a 8abd d4d8 b0bd 0d1e 96bd
000003b0: 9eb1 0c3f 6112 19be 1700 62bc 6c2f b3be
000003c0: 0aa4 093e f6cb 103d f39c 53be 29db 71bd
000003d0: a09f fcbe dc38 babd c00e 0a3e a64e 3f3e
000003e0: 7ef8 223e b308 adbc a383 783c b97d 9a3e
000003f0: 0b65 893d 3a85 75be 000c e5bd f854 09be
-0.059918545 -0.046523985 -0.09346339 0.006371679 0.07668005 -0.053835638 0.063060805 -0.06583989
-0.09517958 0.19490968 0.4405088 -0.012446736 0.1548172 -0.04215045 -0.042617697 0.09311398
0.101512976 -0.10117769 0.078541234 0.3879878 -0.06363766 -0.1707059 -0.1452167 0.20459063
-0.22785978 -0.15787096 -0.19283897 0.042625144 0.24107616 0.21271597 0.054306544 -0.0025453568
0.1023392 -0.060266323 -0.16654862 0.026603848 -0.15935954 0.14690521 0.43151692 0.010213807
0.35392725 0.047381572 -0.11068384 -0.09751475 -0.18632253 -0.014868865 0.12076705 -0.06842404
-0.27317634 -0.29105726 0.15674983 -0.0025622637 0.21451028 0.08760205 -0.099957295 -0.10108046
-0.20770727 0.14127672 0.086767614 -0.1522344 0.33927208 -0.09151113 -0.085463084 0.031606544
-0.22971925 -0.22034943 -0.10128195 0.09026992 0.33195332 0.06293445 -0.3508827 -0.11977728
0.12005515 0.235169 -0.13021445 0.37966362 0.09742318 0.2313073 0.0020661394 0.12570934
0.08303051 -0.25284925 0.050345287 0.10706234 -0.17520396 -0.008208707 0.0060004583 -0.058992688
-0.07718817 0.29779622 -0.115691714 -0.17233747 -0.19044532 -0.17465244 0.0015267972 -0.056038354
-0.004729615 -0.03951243 0.13799569 0.29488096 0.2200694 -0.25621685 -0.086232245 0.045050513
0.37122202 0.038898747 0.16792338 0.015718928 0.135578 0.09148861 -0.48181152 -0.07227531
-0.33912903 0.38210517 0.115673244 0.0083477665 -0.015096685 0.3078014 0.05164266 -0.28003624
0.13422962 -0.28278616 -0.13817741 0.09430189 -0.012988192 -0.06076789 0.13047372 -0.22176448
0.41183385 -0.108080976 0.021484958 0.13277145 0.054842614 0.48126695 -0.15082173 0.006821033
-0.18401901 0.029734785 -0.18286467 0.27046037 0.025503946 0.13860959 0.08134844 0.23055094
0.1836607 0.05107981 -0.13997974 0.44029006 0.012504889 -0.25899884 0.2220033 -0.1655034
0.41462988 -0.24193506 -0.018521734 -0.094260424 0.13173482 0.14928909 0.23369183 -0.16652112
-0.2955779 0.028937353 0.08780554 0.29304028 -0.06546165 -0.07833235 -0.06900063 0.16098124
0.11584703 0.022889731 -0.08396992 -0.041751824 -0.14852712 0.11931868 0.20670982 -0.17738475
-0.0948892 0.17275964 -0.28175026 -0.026054794 -0.13587292 0.025647994 0.08124966 -0.22402336
-0.06802953 0.15818907 -0.2872974 -0.34229794 0.24940959 0.1411961 -0.19800255 -0.25905126
-0.10812828 0.018531414 -0.015285016 0.014852637 0.026194546 -0.09840697 0.15302676 0.028816659
-0.10342422 -0.008382099 0.042123068 -0.030056404 -0.16805 -0.12708823 0.21864653 -0.124268204
-0.1260007 0.14039348 0.34120366 0.10645408 -0.10002931 -0.10995754 0.02791113 0.0785992
0.044424694 0.05537553 0.070186734 -0.058100827 -0.015996793 0.20034774 0.023296997 0.12050121
0.05311139 -0.18457435 0.088893384 0.18686503 -0.1732023 0.0032934158 -0.2859485 0.36712453
0.0471032 -0.06740275 -0.08635107 -0.073299505 0.5495852 -0.14948417 -0.013793967 -0.34997118
0.13441482 0.035350762 -0.2066534 -0.059046898 -0.49340534 -0.09092876 0.13482189 0.18682346
0.15915105 -0.021122312 0.015168103 0.30174044 0.067087255 -0.23976603 -0.111839294 -0.1341132

network_body._body_endoder.seq_layers.2.bias f4 [32]
00000000: 5df2 e03a 8d21 d6ba 880b 88b9 7e9d 8b39
00000010: f28f 98b9 1094 99ba 890b 04ba 74bd 903a
00000020: 0453 44b9 c7f9 d03a 7367 96ba 4e75 35ba
00000030: 8c1f 2c39 53f7 ccba 4bf9 a93b 15ee 41b7
00000040: 458b 0abb 9cc8 0d3a 8cbe 053b 82b4 0cb9
00000050: b54c bc39 7167 ad39 63c9 90ba bcde a6b9
00000060: 690b 063b e151 633a 82af 083a ff3b 4eba
00000070: 8e43 67b9 ad67 873a 65fa 273a e85c aaba
0.0017162074 -0.0016336903 -0.00025948533 0.00026629487 -0.00029098947 -0.00117171 -0.0005037119 0.001104279
-0.00018722942 0.001594358 -0.0011474922 -0.0006922082 0.0001641495 -0.0015637673 0.0051871887 -1.1559129e-05
-0.002114014 0.0005408616 0.0020407764 -0.00013418685 0.00035915305 0.000330742 -0.0011046346 -0.00031827937
0.0020453578 0.00086715637 0.0005214141 -0.00078672165 -0.00022055043 0.001033058 0.0006407856 -0.0012997659

action_model._continuous_distribution.log_sigma f4 [1, 2]
00000000: 93e4 da3b dfa4 213c
0.00668008 0.0098659685

action_model._continuous_distribution.mu.weight f4 [2, 32]
00000000: 3412 60bc 1120 87bc 1d8c 2e3d d34f 96bc
00000010: 18cc 1239 e631 453d 7bae baba 081c c83b
00000020: 70d3 b2bc 5254 ad3a 9ba0 013b 0e47 773c
00000030: 9dc6 a73d aec2 513d 42f3 5dbc c442 9ebb
00000040: 96ac a0bd 96b1 f8bc f08e 9b3d 4999 943d
00000050: ead6 33bd 7e9d 883c ee26 423b c6d9 0bbd
00000060: cc71 c7bc 65fd 92bd c322 1ebd 35fb 283d
00000070: 890e f4bc 62d3 11bd 1c4e 843d e8f7 2f3d
00000080: cee3 ddbb 6acb 603b 7c19 50bd 8aa9 d9ba
00000090: 49b3 943c 1f1d 3f3c 9c35 923d 6858 9dbc
000000a0: 3e60 693d 392e d6bc dccc 8f3c 77c2 513d
000000b0: d6f7 94bc 36b8 5dbc c82e 403d 8af7 e1ba
000000c0: c9de 963b 06cb a8bc 0af0 14bd da30 353c
000000d0: 0c5b ae3b 41d5 dcbc e2c6 a739 e1a4 59bd
000000e0: fccc 483c 566c 183c c626 5fbc 8c3e 7b3a
000000f0: 9ca7 1b3c 4d62 bb3d 18a0 d43b 1e3b b53c
-0.013676215 -0.016494783 0.04261409 -0.01834861 0.00013999676 0.04814329 -0.0014242673 0.006106857
-0.021829337 0.0013223982 0.0019779566 0.015092624 0.08192179 0.05121105 -0.013546767 -0.0048297364
-0.07845418 -0.030358117 0.075956225 0.07255799 -0.04390613 0.01667666 0.0029625255 -0.03414323
-0.024346255 -0.071772374 -0.03860737 0.041255195 -0.029792087 -0.03560198 0.06460211 0.04296103
-0.006771541 0.0034300932 -0.050805554 -0.0016606313 0.018151896 0.011664658 0.071391314 -0.019207194
0.05697655 -0.026145088 0.01755374 0.051210847 -0.018184584 -0.013532689 0.046919614 -0.001723991
0.004604195 -0.020604622 -0.03636173 0.01105901 0.005320912 -0.026957156 0.000320009 -0.053135756
0.012255903 0.009303173 -0.013620084 0.00095842103 0.00950041 0.09149609 0.006488811 0.022122916

action_model._continuous_distribution.mu.bias f4 [2]
00000000: 1803 0aba aa3e 21ba
-0.0005264743 -0.0006151

action_model._discrete_distribution.branches.0.weight f4 [1, 32]
00000000: 02d5 0f3d 9410 923c 5b1e 5d3c 13e7 82bb
00000010: 5e08 c93c de8d 2dbd 9f2a e43b 73a2 653c
00000020: 4fb2 04bd fde3 e8bb 08a5 acbc 8794 703b
00000030: a276 f039 2699 1dbb 689a 84bb 0fb6 983c
00000040: 1a95 f13c 6b61 46bb 131d 9fbc de50 b73b
00000050: 99c2 953c f9a4 883c 255f 4cbb a265 ff3c
00000060: 6c8b 9d3b 2c28 9abc d359 86bd c7ef 29bc
00000070: fbfc 0abd 7899 d93b c0f1 6e3c 27b0 39bc
0.03511525 0.01783017 0.013496007 -0.0039948313 0.024540123 -0.042371623 0.0069630886 0.014015782
-0.03239661 -0.0071072564 -0.021074787 0.0036709623 0.00045864756 -0.0024047582 -0.004046727 0.0186415
0.029490042 -0.0030270468 -0.019423043 0.005594357 0.018281268 0.016680228 -0.003118464 0.031176392
0.00480788 -0.018817984 -0.06560101 -0.010372109 -0.033932667 0.0066406094 0.014584005 -0.011333502
