results/ag25/PlatformRotate/PlatformRotate-7660156.onnx (onnx, 112474 bytes, 8 tensors)

network_body._body_endoder.seq_layers.0.weight f4 [128, 78]
0.04613792 0.06449278 -0.05768822 -0.07521857 0.10631225 0.0693802 -0.009995543 0.21456076
-0.14371216 -0.13044912 0.17852208 -0.0236364 -0.09600191 -0.27086905 0.030816248 -0.18449754
0.028580818 -0.058178283 -0.021002889 0.07657767 -0.021396643 -0.047277298 0.34331214 -0.03930073
0.21239968 -0.15498617 0.05360688 -0.047445443 -0.0145626925 0.09600372 -0.05674084 0.14694613
0.08543437 -0.16093397 -0.095592745 -0.01564013 -0.025128998 -0.09423919 0.033535916 0.013493425
-0.028625643 -0.028061045 -0.031971864 -0.18194905 0.072388686 0.038992506 0.1290375 -0.063907556
0.0124525055 0.101491086 0.06651413 -0.18699625 -0.07816122 -0.018853359 -0.032539085 -0.102408655
-0.016300514 -0.0322793 0.08860794 0.082259685 -0.18041283 -0.0937531 0.043527544 0.04837708
0.041078802 0.04192853 -0.14885113 0.03437193 -0.18199411 0.025981588 -0.016042178 -0.13791636
0.079499945 0.08705017 -0.047044545 0.07754338 -0.096148126 0.2649003 -0.0036814178 0.22457509
0.038752396 0.022191133 0.15004207 0.18624496 0.13421796 0.017865324 -0.066629186 -0.15434392
0.1433173 0.21604821 0.14205252 0.13061109 -0.13341606 -0.21469058 -0.19295892 0.06422821
0.019244976 0.011836585 -0.02441549 -0.028638126 -0.16668521 0.22122687 -0.085312486 -0.027176835
-0.027593607 -0.09279406 -0.040871136 -0.1510809 0.106077 -0.13801397 0.06888966 -0.05696044
-0.090220496 0.21203987 0.002969746 -0.025795333 -0.0023949 0.0035637396 0.13263905 -0.09123204
0.018085893 -0.0033361812 -0.022256102 0.07484377 -0.24772476 -0.02900683 -0.08003497 -0.11337653
0.07853758 0.08372008 0.062105313 -0.14527826 0.27042282 -0.1600047 -0.1797038 -0.19871557
0.08942675 -0.0428428 -0.0021550462 -0.088643275 -0.26258335 -0.23684733 -0.12499342 -0.068749785
0.161644 -0.22953697 -0.20023187 0.20818381 -0.16191255 -0.056700088 0.08919306 -0.18524076
-0.096432276 0.0124392025 -0.108745076 0.15815753 0.13455054 0.018856164 -0.09660467 0.27793887
-0.010077368 -0.036585562 0.03631714 -0.14527085 -0.2002753 -0.05808979 -0.1698916 -0.36840287
-0.08050853 -0.031120852 -0.49830183 0.11581675 0.01339721 -0.18050653 -0.23327486 -0.21290247
0.011120183 -0.13217106 0.23304544 0.073385134 0.009541184 0.07799006 -0.15426365 0.04020051
-0.24795859 0.016306784 -0.17433274 -0.08225278 0.26921302 0.04009956 0.12768468 0.08284288
-0.027887082 0.058200706 -0.0063025057 0.07686779 0.09653841 0.009899061 -0.13097148 0.012150739
-0.1289412 0.005555101 0.10674351 -0.13269253 0.12916313 -0.16491006 0.15899776 0.0042291633
0.032012213 -0.16119029 -0.124587245 -0.08662055 0.104649976 -0.10940026 0.1748416 -0.26326555
-0.27042457 -0.017013313 -0.06795159 0.09970023 0.05400429 0.18852128 -0.07133651 0.16887613
0.034584306 -0.2071843 -0.25592655 0.012230497 0.28047058 0.1554723 -0.13116917 -0.124607034
0.14977199 0.03527922 -0.16407439 -0.04034241 0.10880819 -0.164946 -0.022637496 -0.011305756
0.04217403 -0.023034038 0.21000424 0.008155494 0.10661589 -0.0826868 -0.11197054 0.10205631
-0.021436457 0.1020553 -0.04879065 0.06637288 0.036122352 0.013532605 -0.20704094 -0.047765534
00000000: 1efb 3c3d ca14 843d 7c4a 6cbd 320c 9abd
00000010: 3dba d93d 3517 8e3d 59c4 23bc d1b5 5b3e
00000020: 4829 13be 7494 05be 7ece 363e 20a1 c1bc
00000030: a69c c4bd 59af 8abe 5b72 fc3c ecec 3cbe
00000040: 5222 ea3c 5a4c 6ebd 400e acbc c1d4 9c3d
00000050: 0348 afbc d7a5 41bd 9cc6 af3e cdf9 20bd
00000060: 4d7f 593e b2b4 1ebe e392 5b3d 2756 42bd
00000070: 5c98 6ebc 999d c43d 1569 68bd 0c79 163e
00000080: 37f8 ae3d e0cb 24be 21c6 c3bd bb1f 80bc
00000090: 54db cdbc 7a00 c1bd f55c 093d 8713 5d3c
000000a0: 5380 eabc 47e0 e5bc eef4 02bd da50 3abe
000000b0: 8540 943d 9bb6 1f3d 6822 043e f7e1 82bd
000000c0: 9805 4c3c 8fda cf3d 8f38 883d f27b 3fbe
000000d0: fd12 a0bd 5c72 9abc b447 05bd a1bb d1bd
000000e0: a888 85bc 4d37 04bd 1478 b53d c477 a83d
000000f0: 24be 38be a001 c0bd f049 323d 0c27 463d
00000100: 3f42 283d 40bd 2b3d 6e6c 18be 95c9 0c3d
00000110: aa5c 3abe 57d7 d43c e36a 83bc f239 0dbe
00000120: ded0 a23d 5c47 b23d c8b1 40bd 10cf 9e3d
00000130: 4fe9 c4bd 03a1 873e f143 71bb 03f7 653e
00000140: d5ba 1e3d 2eca b53c a1a4 193e 00b7 3e3e
00000150: 6f70 093e 4d5a 923c e274 88bd 550c 1ebe
00000160: c5c1 123e be3b 5d3e 3776 113e eabe 053e
00000170: 389e 08be d9d7 5bbe 0697 45be 148a 833d
00000180: a4a7 9d3c 3cee 413c fe02 c8bc 819a eabc
00000190: 87af 2abe 4c89 623e 50b8 aebd f4a1 debc
000001a0: fd0b e2bc d00a bebd 7e68 27bd f4b4 1abe
000001b0: e63e d93d 8953 0dbe 0616 8d3d 5a4f 69bd
000001c0: 86c5 b8bd fb20 593e 12a0 423b bc50 d3bc
000001d0: c1f3 1cbb a18d 693b 88d2 073e ddd7 babd
000001e0: de28 943c d5a3 5abb 6e52 b6bc b147 993d
000001f0: 8fab 7dbe bb9f edbc 60e9 a3bd f431 e8bd
00000200: 50d8 a03d 6f75 ab3d 2462 7e3d d3c3 14be
00000210: dc74 8a3e 46d8 23be 4604 38be 187c 4bbe
00000220: 5f25 b73d ef7b 2fbd ad3b 0dbb 9b8a b5bd
00000230: 5371 86be 1b88 72be 8dfc ffbd b0cc 8cbd
00000240: 0186 253e bd0b 6bbe 9509 4dbe 232e 553e
00000250: 67cc 25be 5a3e 68bd daaa b63d c1af 3dbe
00000260: 497e c5bd cccd 4b3c bdb5 debd 0cf4 213e
00000270: 9ec7 093e 3e78 9a3c abd8 c5bd 014e 8e3e
00000280: 8b1b 25bc beda 15bd 48c1 143d e2c1 14be
00000290: f814 4dbe 8fef 6dbd 10f8 2dbe 4d9f bcbe
000002a0: a8e1 a4bd 28f1 febc 6b21 ffbe 5531 ed3d
000002b0: f97f 5b3c b4d6 38be 9bdf 6ebe 1b03 5abe
000002c0: 6e31 363c da57 07be 77a3 6e3e f24a 963d
000002d0: a052 1c3c 41b9 9f3d 4af7 1dbe 4aa9 243d
000002e0: dbe8 7dbe ce95 853c 4884 32be 2574 a8bd
000002f0: 4ad6 893e 703f 243d c6bf 023e 87a9 a93d
00000300: 7373 e4bc dd63 6e3d 4085 cebb dc6c 9d3d
00000310: eeb5 c53d ac2f 223c 631d 06be e513 473c
00000320: 2909 04be 9107 b63b 579c da3d 8de0 07be
00000330: 5743 043e 2fde 28be 4fd0 223e cb94 8a3b
00000340: 3d1f 033d 110f 25be 9927 ffbd 1d66 b1bd
00000350: ba52 d63d 3e0d e0bd ad09 333e beca 86be
00000360: 1775 8abe 815f 8bbc 342a 8bbd a22f cc3d
00000370: 9a33 5d3d b90b 413e e018 92bd dded 2c3e
00000380: 46a8 0d3d 1f28 54be ce08 83be 6c62 483c
00000390: d799 8f3e 2134 1f3e 3651 06be f931 ffbd
000003a0: d45d 193e f280 103d 1e03 28be 153e 25bd
000003b0: d4d6 de3d 9be7 28be 4572 b9bc c73b 39bc
000003c0: adbe 2c3d e1b1 bcbc 5a0b 573e 9f9e 053c
000003d0: 6f59 da3d b257 a9bd cf50 e5bd e602 d13d
000003e0: 829b afbc 5e02 d13d b4d8 47bd 81ee 873d
000003f0: 08f5 133d dcb7 5d3c 8a02 54be cba5 43bd

network_body._body_endoder.seq_layers.0.bias f4 [128]
0.0033286398 -0.049684618 0.03188005 -0.005140564 0.0052515897 0.028386932 -0.046453416 0.020063126
0.027800238 0.04355699 0.01981934 -0.0020830508 -0.0051255175 -0.006315551 0.010371683 0.008225873
0.021807756 -0.012069896 0.016792888 -0.01632775 -0.012521261 -0.00030507453 0.010344513 0.009388237
0.05551877 0.011841154 -0.023827896 -0.015908362 0.01764464 0.038554035 0.0062273075 -0.008230477
0.0042108507 0.03403278 0.02644744 0.012674759 0.016461967 -0.030681752 0.032144316 0.0021091509
0.0040327543 0.022941919 -0.014272888 0.013424063 0.035689816 -0.0033223254 0.023625564 0.017381595
0.011260093 -0.026736973 -0.06322557 0.035951044 -0.00084649515 -0.0128944395 -0.041080013 -0.025025645
0.043521702 0.0119110085 -0.008919995 0.023910008 0.053852864 0.003046534 0.015305195 -0.024578268
0.008086873 -0.02137675 0.013379009 -0.0059017646 0.020316264 0.023267861 0.007371886 0.0023457354
0.00915917 0.010446761 -0.00085141987 -0.00046923285 -0.016409256 0.01636415 0.036461413 0.02780121
-0.00029588383 0.004722587 0.008138496 -0.0052366215 -0.019574413 0.014205454 0.010389108 -0.0023916867
0.0019947262 0.0034412802 0.01911365 0.023164494 0.010721943 -0.0070762006 -0.03155217 0.04023333
-0.010643062 0.027404286 -0.0058345716 0.013692551 -0.019365642 0.004056213 0.014763739 -0.0055843806
0.0048465063 -0.0006637536 0.017029991 0.007194693 -0.021802854 0.01884104 -0.042720582 -0.004285462
-0.016812682 -0.02329277 -0.006568534 -0.010630812 0.021835566 -0.029632775 0.041251883 -0.00872724
0.0074441805 0.017203027 0.041247457 0.004310184 -0.026706858 -0.0060703657 0.009257517 0.009392014
00000000: 4f25 5a3b 1982 4bbd a894 023d 2d72 a8bb
00000010: 8715 ac3b b68b e83c f045 3ebd 6d5b a43c
00000020: 53bd e33c d068 323d 2b5c a23c cb83 08bb
00000030: f5f3 a7bb aff2 cebb feed 293c d0c5 063c
00000040: 2ea6 b23c d0c0 45bc 3d91 893c c6c1 85bc
00000050: fa25 4dbc 69f2 9fb9 087c 293c 1fd1 193c
00000060: a667 633d 6601 423c b832 c3bc 4152 82bc
00000070: 7e8b 903c d6ea 1d3d 710e cc3b 1fd9 06bc
00000080: 2dfb 893b f565 0b3d 4da8 d83c cba9 4f3c
00000090: 3fdb 863c 4c58 fbbc c2a9 033d ae39 0a3b
000000a0: 3225 843b b1f0 bb3c d5d8 69bc 9af0 5b3c
000000b0: 7c2f 123d 5fbb 59bb 668a c13c d963 8e3c
000000c0: 417c 383c 7f07 dbbc 687c 81bd 6741 133d
000000d0: 54e7 5dba 3343 53bc 8443 28bd 9502 cdbc
000000e0: d043 323d 6426 433c 2c25 12bc ecde c33c
000000f0: d294 5c3d 5ca8 473b a4c2 7a3c 5d58 c9bc
00000100: ce7e 043c 4b1e afbc a233 5b3c 9763 c1bb
00000110: 4b6e a63c 3e9c be3c dd8f f13b e9ba 193b
00000120: 5810 163c e428 2b3c d231 5fba 5e03 f6b9
00000130: b46c 86bc 1c0e 863c 9058 153d 5dbf e33c
00000140: db20 9bb9 eebf 9a3b 5457 053c f797 abbb
00000150: 855a a0bc febd 683c 1437 2a3c d8bd 1cbb
00000160: f4b9 023b 1a87 613b 3b94 9c3c 77c3 bd3c
00000170: 17ab 2f3c 79df e7bb d93c 01bd b4cb 243d
00000180: 3d60 2ebc f47e e03c ef2f bfbb b956 603c
00000190: b2a4 9ebc fbe9 843b 9ce3 713c 2efd b6bb
000001a0: 71cf 9e3b c0ff 2dba 7b82 8b3c 76c1 eb3b
000001b0: e69b b2bc 8658 9a3c c7fb 2ebd 106d 8cbb
000001c0: c0ba 89bc 7bd0 bebc db3c d7bb db2c 2ebc
000001d0: 80e0 b23c 6fc0 f2bc bcf7 283d b3fc 0ebc
000001e0: 50ee f33b 5ded 8c3c 18f3 283d 723c 8d3b
000001f0: 57c8 dabc ebe9 c6bb d7ac 173c f6e0 193c

network_body._body_endoder.seq_layers.2.weight f4 [128, 128]
-0.09617917 0.04823681 -0.14254968 -0.052261505 -0.17419934 -0.051605135 -0.24116199 -0.2803847
-0.17334482 -0.008149714 0.057742655 0.09241554 -0.06395366 0.3107423 -0.07867989 0.07807188
0.093808874 -0.037628364 0.020811489 -0.11816641 -0.16635475 0.031388756 -0.09684277 0.17164296
0.09899627 -0.04906617 0.048019726 -0.0328387 0.05814075 0.0151930405 -0.056960132 -0.04947087
-0.13044965 -0.054416563 0.14778492 0.23035161 -0.04781972 0.3032814 -0.07215347 -0.010547026
0.09160071 0.010539862 0.048581317 -0.15311365 -0.055336207 0.17758726 -0.09287691 0.08653826
0.04043875 0.099166535 0.10405468 -0.11359622 -0.05694137 0.01001102 -0.12600115 0.07522093
-0.020624634 0.03500205 -0.006245634 -0.18011025 0.045824084 0.1680261 0.10881206 0.09331121
-0.1356361 -0.043475114 -0.14417818 0.109101504 0.020408763 -0.19191112 -0.09921643 -0.058606386
-0.10104348 -0.18905936 0.039764 -0.10674082 -0.063138224 0.100740045 -0.13448912 -0.027917398
0.05720411 -0.020121986 0.008360796 -0.009426294 -0.021537235 -0.051944077 -0.03921386 0.028698625
-0.049192704 -0.08978072 -0.16091044 0.08124934 -0.030995037 -0.040277433 0.03879896 0.008931308
-0.02199176 0.08443839 -0.018059254 0.109916046 -0.0077298465 0.05007444 -0.01914282 -0.00050704874
-0.03474795 0.03194543 0.15018818 -0.018401638 0.0523574 -0.07468876 -0.1571273 -0.023660582
-0.040569473 0.055102352 -0.03637386 -0.035791382 -0.19646573 -0.17736794 0.14529656 0.13433735
0.06910445 0.051697616 -0.10926778 0.05687032 -0.019242506 0.0752993 0.044875473 -0.015662028
-0.11058009 0.092356406 -0.1383456 0.09247831 -0.16005956 -0.050736547 0.07596402 -0.08972905
0.050961234 0.06378757 -0.058900338 0.14793327 -0.0082242 0.029183082 -0.007907936 -0.10394353
-0.011787737 0.03973891 0.061951887 -0.0968809 0.015066297 0.0557777 0.046087787 0.13687153
0.0041866913 0.10145518 0.017281935 0.11047894 -0.057833858 -0.06575384 0.08290887 -0.025693217
-0.019596413 0.20763311 0.11627011 0.07670376 0.1160462 -0.06841697 0.1855883 0.07530679
-0.08071702 -0.05494917 -0.15326212 0.010003789 -0.17442974 -0.052188035 -0.05024517 0.021951012
0.023427796 -0.085147455 -0.13346286 -0.13970621 -0.02132882 0.060355484 0.056490675 -0.1801894
-0.017767657 -0.015388316 0.089969605 -0.27776036 0.13347588 -0.058380984 0.03066167 0.0046243244
0.17291725 -0.024025582 -0.07610236 0.0073915822 -0.037475683 -0.09196348 -0.11940179 -0.046834804
0.035586946 -0.15847132 0.0048934165 0.023233663 0.07665227 -0.11810929 -0.014809805 -0.1747343
0.053246617 -0.16292243 0.0056554284 0.020661885 -0.034827128 -0.13647026 -0.034271438 0.08673274
-0.029621443 0.17284831 0.0055293515 -0.011211927 -0.020644376 0.05758286 0.014386941 0.32335627
-0.22799295 -0.0130255455 -0.08567242 -0.06932694 -0.057643227 -0.11366296 -0.08216698 -0.10745509
-0.08349609 -0.0027015987 -0.0258403 0.091760226 0.032863222 -0.13648377 -0.005100612 -0.0873591
-0.061961427 -0.041654058 -0.13525948 -0.13030323 0.028264487 -0.03163189 0.055255756 0.08560302
-0.009878416 0.11601701 -0.0070757726 0.023217313 0.13009538 0.076395795 -0.027596653 -0.029951781
00000000: 96f9 c4bd f693 453d 8bf8 11be 2910 56bd
00000010: 5061 32be e85f 53bd 2bf3 76be 958e 8fbe
00000020: 4e81 31be 6186 05bc 9083 6c3d 5c44 bd3d
00000030: 23fa 82bd 9d19 9f3e ec22 a1bd 26e4 9f3d
00000040: de1e c03d 3320 1abd db7c aa3c 3b01 f2bd
00000050: e658 2abe 7f91 003d 8155 c6bd 2cc3 2f3e
00000060: 8ebe ca3d 9cf9 48bd 55b0 443d df81 06bd
00000070: ff24 6e3d 3bec 783c 074f 69bd f8a1 4abd
00000080: 9894 05be e7e3 5ebd ee54 173e 4be1 6b3e
00000090: 9cde 43bd b347 9b3e 33c5 93bd 6fcd 2cbc
000000a0: 2799 bb3d 63af 2c3c 34fd 463d d3c9 1cbe
000000b0: 38a8 62bd 6fd9 353e 4036 bebd f93a b13d
000000c0: 1aa3 253d d317 cb3d 9f1a d53d 23a5 e8bd
000000d0: 5b3b 69bd 4305 243c 7206 01be 6e0d 9a3d
000000e0: fef4 a8bc 4f5e 0f3d 2da8 ccbb d26e 38be
000000f0: 09b2 3b3d 090f 2c3e dbd8 de3d f319 bf3d
00000100: 31e4 0abe f612 32bd 72a3 13be 9c70 df3d
00000110: 4730 a73c 5984 44be fc31 cbbd 400d 70bd
00000120: e2ef cebd c798 41be 93df 223d ee9a dabd
00000130: 9d4e 81bd cc50 ce3d 84b7 09be 07b3 e4bc
00000140: db4e 6a3d ddd6 a4bc b8fb 083c be70 1abc
00000150: db6e b0bc 50c3 54bd b69e 20bd 6119 eb3c
00000160: 4a7e 49bd f4de b7bd b5c5 24be 0e66 a63d
00000170: 4ee9 fdbc f3f9 24bd a9eb 1e3d 9f54 123c
00000180: 1028 b4bc 09ee ac3d 00f1 93bc aa1b e13d
00000190: a74a fdbb db1a 4d3d 67d1 9cbc 77eb 04ba
000001a0: de53 0ebd 36d9 023d eeca 193e 08bf 96bc
000001b0: b774 563d 6cf6 98bd fbe5 20be d6d3 c1bc
000001c0: 2d2c 26bd 01b3 613d c2fc 14bd fc99 12bd
000001d0: 502e 49be f19f 35be 9fc8 143e bb8f 093e
000001e0: a286 8d3d e1c0 533d c9c7 dfbd daf0 683d
000001f0: 76a2 9dbc 8536 9a3d 58cf 373d a74d 80bc
00000200: d077 e2bd 5b25 bd3d 78aa 0dbe 4565 bd3d
00000210: a7e6 23be 20d1 4fbd 0693 9b3d ddc3 b7bd
00000220: babc 503d 0fa3 823d 7b41 71bd d27b 173e
00000230: ccbe 06bc 5c11 ef3c 4a90 01bc 58e0 d4bd
00000240: 5a21 41bc 44c5 223d 43c1 7d3d 7e69 c6bd
00000250: a1d8 763c 2877 643d 8cc6 3c3d 0d28 0c3e
00000260: 8330 893b bcc7 cf3d d892 8d3c c842 e23d
00000270: 32e3 6cbd f3a9 86bd 20cc a93d 957a d2bc
00000280: a888 a0bc c69d 543e 061f ee3d dc16 9d3d
00000290: a1a9 ed3d 321e 8cbd dc0a 3e3e 723a 9a3d
000002a0: f74e a5bd 6212 61bd bff0 1cbe efe6 233c
000002b0: b69d 32be 1fc3 55bd e1cd 4dbd 9cd2 b33c
000002c0: a6eb bf3c ca61 aebd 7daa 08be 250f 0fbe
000002d0: c7b9 aebc 5037 773d c462 673d 9283 38be
000002e0: 7a8d 91bc 461f 7cbc fc41 b83d 9b36 8ebe
000002f0: e7ad 083e e620 6fbd 2f2e fb3c a587 973b
00000300: 3811 313e 4cd1 c4bc 8edb 9bbd 1635 f23b
00000310: 1a80 19bd 5957 bcbd ed88 f4bd dad5 3fbd
00000320: 9ec3 113d 4e46 22be f458 a03b 8654 be3c
00000330: defb 9c3d 49e3 f1bd d3a4 72bc 8ced 32be
00000340: 2019 5a3d 23d5 26be 2c51 b93b 1d43 a93c
00000350: e4a6 0ebd dcbe 0bbe 3560 0cbd efa0 b13d
00000360: aba8 f2bc 26ff 303e 902f b53b 3bb2 37bc
00000370: 651e a9bc 01dc 6b3d 34b7 6b3c f48e a53e
00000380: fc76 69be 1969 55bc 0675 afbd 48fb 8dbd
00000390: 4e1b 6cbd 20c8 e8bd 2947 a8bd 6a11 dcbd
000003a0: ffff aabd 4e0d 31bb 09af d3bc c9ec bb3d
000003b0: 969b 063d 67c2 0bbe 0923 a7bb 54e9 b2bd
000003c0: 44cb 7dbd 729d 2abd 7681 0abe 366e 05be
000003d0: ed8a e73c 7190 01bd dc53 623d a350 af3d
000003e0: 14d9 21bc 539a ed3d e2db e7bb 3c32 be3c
000003f0: b937 053e 6675 9c3d 6012 e2bc 705d f5bc

network_body._body_endoder.seq_layers.2.bias f4 [128]
0.016857961 0.018835818 -0.029763496 -0.0076513533 0.02187678 0.012847262 -0.013984587 0.029373342
-0.0025748797 -0.004483423 0.036088668 -0.007863022 0.02033611 0.068214476 -0.039826963 0.046921387
-0.0008035014 0.013782898 -0.012538097 -0.00798053 0.02591838 -0.02148013 0.0023546182 0.0044639003
0.025582941 -0.029883359 -0.0072995545 -0.0025489996 0.02351076 0.009846421 -0.00030811803 0.004778955
0.03302134 0.0041280063 -0.0018577874 0.0045685894 -0.00079900486 0.010066219 0.007658505 0.03164464
0.052723244 0.034075115 0.04224566 -0.041415695 0.046075802 -0.0034878773 0.018325895 0.01659228
0.020506999 0.025915693 0.0041696746 0.013951631 -0.017969701 -0.0018239775 0.036128283 -0.020625366
-0.0043979366 0.019316506 0.026075166 0.02926536 -0.049612854 -0.024190553 0.019353235 0.030831082
-0.008389448 -0.012689908 -0.00031586704 0.017625576 0.015781727 0.021711117 0.010476183 -0.059732806
-0.0011661706 0.0076889317 0.02738173 0.001719014 -0.0002970581 -0.025033416 -0.01741675 -0.04546147
-0.020935372 0.020325467 -0.015757274 0.013630469 -0.040141247 0.0077281618 0.017715348 0.02097127
-0.03334504 0.010865412 0.02827818 0.0061995466 0.020537786 0.0010190827 -0.012231272 0.024139633
-0.01957202 -0.0047989297 0.03277312 0.03967319 0.007160096 0.013863105 0.03097716 0.005744635
-0.010061019 0.016022302 0.013821405 -0.038119704 0.023456793 -0.033226855 -0.0023627237 -0.018259836
-0.016301425 0.045591466 0.031570792 0.030640146 0.009117516 -0.024808519 0.0020051957 -0.019764537
0.018333253 -0.015879748 0.014717748 -0.00026162324 -0.017113963 0.0061548594 -0.018382428 0.0017408916
00000000: b519 8a3c 934d 9a3c 93d2 f3bc 34b8 fabb
00000010: ef36 b33c 537d 523c 9c1f 65bc 5da0 f03c
00000020: 50bf 28bb aee9 92bb b6d1 133d e8d3 00bc
00000030: ea97 a63c 08b4 8b3d 9921 23bd a430 403d
00000040: 11a2 52ba aad1 613c 976c 4dbc c5c0 02bc
00000050: c852 d43c 19f7 afbc f04f 1a3b e945 923b
00000060: 5193 d13c f2cd f4bc 1a31 efbb 1e0d 27bb
00000070: a399 c03c e252 213c e78a a1b9 c898 9c3b
00000080: 6241 073d 3a44 873b 0081 f3ba 1bb4 953b
00000090: 4f74 51ba c8ec 243c 32f4 fa3b cf9d 013d
000000a0: 54f4 573d 5992 0b3d c909 2d3d 81a3 29bd
000000b0: fbb9 3c3d df94 64bb 3020 963c 88ec 873c
000000c0: 4bfe a73c 264d d43c c4a1 883b 6295 643c
000000d0: 3235 93bc 8712 efba 40fb 133d 87f6 a8bc
000000e0: 911c 90bb a63d 9e3c 969b d53c e9bd ef3c
000000f0: d936 4bbd 442b c6bc ad8a 9e3c 7791 fc3c
00000100: e573 09bc 55e9 4fbc f59a a5b9 8363 903c
00000110: ae48 813c 83db b13c 4ca4 2b3c 63aa 74bd
00000120: 31da 98ba 6ff3 fb3b a64f e03c 8a50 e13a
00000130: 77be 9bb9 e112 cdbc 92ad 8ebc ce35 3abd
00000140: a880 abbc 9881 a63c 6615 81bc 5552 5f3c
00000150: 266b 24bd 853c fd3b c71f 913c f1cb ab3c
00000160: cf94 08bd d704 323c a4a7 e73c 9125 cb3b
00000170: dc3e a83c be92 853a ac65 48bc 7bc0 c53c
00000180: 8055 a0bc 5740 9dbb 1b3d 063d 5b80 223d
00000190: 3d9f ea3b 1422 633c d0c3 fd3c 7e3d bc3b
000001a0: f9d6 24bc 3441 833c 2d73 623c 6823 1cbd
000001b0: 7628 c03c e218 08bd edd7 1abb a795 95bc
000001c0: 918a 85bc 1ebe 3a3d 6050 013d 0b01 fb3c
000001d0: a261 153c 3c3b cbbc 9a69 033b 3de9 a1bc
000001e0: 9e2f 963c 3f16 82bc b622 713c 7a2a 89b9
000001f0: 9532 8cbc b4ae c93b bf96 96bc a12e e43a

action_model._continuous_distribution.log_sigma f4 [1, 2]
-0.16240342 -0.16279368
00000000: 154d 26be 63b3 26be

action_model._continuous_distribution.mu.weight f4 [2, 128]
0.029241985 0.006835739 -0.03183839 -0.029844875 0.032577947 -0.080887444 -0.048619792 0.052242525
0.0338447 0.06559142 0.0054476773 -0.018538201 -0.0020739522 -0.009207858 -0.006915718 -0.006051357
0.0125144 0.05603263 -0.011957462 0.022980254 0.045901284 0.042385105 0.011419544 -0.0023824186
-0.08328156 -0.03970579 -0.03951346 -0.04033971 -0.09834603 -0.011693744 0.018725611 -0.02152464
0.03514886 -0.04136205 0.031251207 -0.019723523 -0.042492587 -0.022830147 -0.03913672 -0.0973825
0.083659194 0.05715212 -0.09642493 -0.005186616 0.038253322 0.018142907 -0.07625281 0.04540236
0.019229837 0.028472532 -7.9679354e-05 -0.0600231 0.03131609 -0.026255066 0.08545806 0.0061303014
-0.059172187 -0.030709106 0.065532066 0.051893033 0.04526869 -0.007182989 0.04020737 0.0378074
-0.032484755 -0.027461745 -0.059312034 -0.012000298 -0.0073405816 0.06369751 0.085527 -0.0067079123
-0.026668543 -0.02091692 0.0073166047 0.0027687724 -0.040036686 -0.03325858 -0.013202931 -0.038464926
-0.028963525 -0.02623296 -0.04091783 -0.05461518 0.029397978 0.0028225337 -0.01308801 0.08903606
-0.05136833 -0.030073052 0.103826314 0.056083966 -0.02155439 -0.0060343333 -0.017514305 0.05576873
-0.017748209 -0.054430474 -0.045437314 0.031482726 -0.06067902 0.045166567 0.03860328 -0.020928966
-0.0017982764 0.05182404 -0.022179114 -0.07018344 0.06243132 -0.036058184 0.018892178 -0.04539504
-0.023119597 0.040892776 -0.00842475 -0.009538821 -0.027915074 -0.034197036 -0.056416754 -0.033423193
0.034106493 -0.028934648 -0.0064289253 -0.049894966 -0.020308373 -0.017456884 -0.08547626 -0.049204208
-0.02216083 -0.07607262 0.021880131 0.035076752 -0.00930561 -0.050829466 0.0071763108 -0.057422653
-0.03416501 -0.0058329375 0.068844035 0.00461297 0.036293447 0.069618 -0.021267729 0.138853
0.06177619 -0.017156646 0.0132916 0.015309427 -0.08898565 0.033797387 -0.03032236 0.028480638
-0.05247253 -0.01873167 0.0030157513 -0.0055290065 -0.019894596 -0.0064868336 -0.027510343 0.03733293
0.03784606 0.0024390456 0.023587216 0.012694639 -0.031504102 -0.0315889 0.0055256835 0.02931822
-0.06268171 -0.0103107765 0.0037716264 0.02757222 0.048417937 -0.031883467 0.052103743 0.054884132
-0.00538069 0.05056675 -0.044726856 0.028152922 0.01910644 -0.026008887 -0.08741384 -0.044374354
0.043660093 0.030314406 -0.010407086 0.029974924 -0.0070313667 -0.0031346888 0.02833399 -0.009875277
-0.011556693 0.05200509 -0.01888646 0.045237597 0.03669588 -0.00081305543 0.00901537 -0.008461058
-0.031297166 -0.03541697 0.04283912 0.015025587 0.010097689 -0.036446627 0.015547551 0.0045095277
-0.007973433 0.009633169 -0.009562426 -0.011098057 0.029272553 0.013848767 0.04669656 -0.012103636
0.007414065 -0.037650976 -0.011213692 0.015211136 0.046644077 -0.043826517 -0.043020964 0.04255817
0.020737795 0.012537417 -0.005846018 -0.024230063 -0.029234083 0.02124419 0.041049052 -0.0198046
0.07036143 0.0122270305 0.029473918 -0.016171653 0.01193616 -0.011047078 0.039801393 -0.028565394
-0.043046262 0.021306302 -0.06433278 0.033780634 -0.02948401 0.013256543 -0.019239964 -0.0020778629
-0.0009850584 0.030946102 -0.019410688 -0.013479361 0.020782115 0.025789645 -0.036547855 -0.031804387
00000000: e38c ef3c 56fe df3b f968 02bd 3d7d f4bc
00000010: 7470 053d 51a8 a5bd 8c25 47bd 42fc 553d
00000020: bda0 0a3d cb54 863d 6e82 b23b 6ddd 97bc
00000030: 25eb 07bb 8edc 16bc 3f9d e2bb 764a c6bb
00000040: 3309 4d3c 7982 653d 3be9 43bc 1641 bc3c
00000050: fc02 3c3d 019c 2d3d 0a19 3b3c 5a22 1cbb
00000060: 868f aabd 8aa2 22bd ded8 21bd 403b 25bd
00000070: a569 c9bd 1e97 3fbc 7466 993c 7154 b0bc
00000080: 40f8 0f3d 416b 29bd 4401 003d 3a93 a1bc
00000090: b50c 2ebd 4a06 bbbc d34d 20bd 7a70 c7bd
000000a0: 8355 ab3d 5718 6a3d 6f7a c5bd 7df4 a9bb
000000b0: 84af 1c3d 6fa0 943c 6f2a 9cbd d3f7 393d
000000c0: e487 9d3c 3a3f e93c 8719 a7b8 c8da 75bd
000000d0: 4d45 003d dd14 d7bc a304 af3d b2e0 c83b
000000e0: 895e 72bd aa91 fbbc ad35 863d ca8d 543d
000000f0: a96b 393d 475f ebbb 7cb0 243d efdb 1a3d
00000100: bc0e 05bd 74f7 e0bc 2df1 72bd e69c 44bc
00000110: 4389 f0bb d773 823d c828 af3d 0cce dbbb
00000120: fd77 dabc f659 abbc 21c0 ef3b 4b74 353b
00000130: 82fd 23bd 263a 08bd 1b51 58bc 668d 1dbd
00000140: ea44 edbc 81e6 d6bc 7499 27bd 2bb4 5fbd
00000150: 07d4 f03c 42fa 383b 186f 56bc 8a58 b63d
00000160: 9967 52bd c35b f6bc e4a2 d43d 4db8 653d
00000170: d592 b0bc a8bb c5bb 297a 8fbc c06d 643d
00000180: b164 91bc 7df2 5ebd 7a1c 3abd 08f4 003d
00000190: 908a 78bd 9400 393d 791e 1e3d 3973 abbc
000001a0: 25b4 ebba 7245 543d f9b0 b5bc 56bc 8fbd
000001b0: fcb7 7f3d bfb1 13bd c5c3 9a3c 26f0 39bd
000001c0: 4f65 bdbc 2f7f 273d f607 0abc b748 1cbc
000001d0: 27ae e4bc 3112 0cbd 4115 67bd c2e6 08bd
000001e0: 40b3 0b3d 5b08 edbc bca9 d2bb aa5e 4cbd
000001f0: bf5d a6bc bd01 8fbc 2d0e afbd 5a8a 49bd
00000200: a18a b5bc f6cb 9bbd f63d b33c a4ac 0f3d
00000210: 8f76 18bc 8f32 50bd 4227 eb3b 0434 6bbd
00000220: 9cf0 0bbd 3a22 bfbb 1afe 8c3d 6628 973b
00000230: 70a8 143d e293 8e3d a939 aebc 7b2f 0e3e
00000240: 0809 7d3d 188c 8cbc 03c5 593c 64d4 7a3c
00000250: 1c3e b6bd 216f 0a3d 9966 f8bc 3a50 e93c
00000260: 70ed 56bd 2973 99bc e9a3 453b ab2c b5bb
00000270: fef9 a2bc 818f d4bb 5f5d e1bc 6aea 183d
00000280: 7804 1b3d 65d8 1f3b fa39 c13c 2dfd 4f3c
00000290: 720a 01bd 5d63 01bd cb10 b53b c42c f03c
000002a0: 455f 80bd 88ee 28bc 642d 773b 23df e13c
000002b0: e351 463d 3d98 02bd bc6a 553d 2fce 603d
000002c0: 8050 b0bb 151f 4f3d 8233 37bd f5a0 e63c
000002d0: 1c85 9c3c 9710 d5bc 0706 b3bd e2c1 35bd
000002e0: edd4 323d eb55 f83c 7c82 2abc f98d f53c
000002f0: 6167 e6bb 5a6f 4dbb af1c e83c eacb 21bc
00000300: 4958 3dbc 4a03 553d c7b7 9abc 0f4b 393d
00000310: 6b4e 163d 3a23 55ba 34b5 133c 40a0 0abc
00000320: 7531 00bd 6211 11bd 1378 2f3d e12d 763c
00000330: c770 253c 0f49 15bd 28bb 7e3c a9c4 933b
00000340: 00a3 02bc 70d4 1d3c b9ab 1cbc a0d4 35bc
00000350: fecc ef3c f0e5 623c e444 3f3d 544e 46bc
00000360: aff1 f23b e937 1abd a2b9 37bc 2138 793c
00000370: dc0d 3f3d 6f83 33bd c036 30bd 7a51 2e3d
00000380: 4fe2 a93c bd69 4d3c f48f bfbb 207e c6bc
00000390: 517c efbc 4c08 ae3c 0d23 283d 423d a2bc
000003a0: a719 903d e253 483c 4973 f13c 6a7a 84bc
000003b0: e28f 433c cefe 34bc c906 233d f901 eabc
000003c0: 4751 30bd 8e8a ae3c e8c0 83bd 905d 0a3d
000003d0: 7388 f1bc f931 593c 219d 9dbc c12c 08bb
000003e0: 131d 81ba ae82 fd3c 2a03 9fbc 8ad8 5cbc
000003f0: 413f aa3c ce44 d33c 34b3 15bd 5145 02bd

action_model._continuous_distribution.mu.bias f4 [2]
0.010422824 -0.0063681034
00000000: 7ec4 2a3c 86ab d0bb

action_model._discrete_distribution.branches.0.weight f4 [1, 128]
-0.0067076543 -0.0029775808 0.013487053 0.0028476843 0.0030769953 0.0112652825 -0.0061845793 0.0037775356
-0.007893174 0.0054252204 -0.0021161407 -0.0019668583 -0.001174697 0.00068713055 0.0055343932 0.009229187
-0.019110722 0.0011179886 0.0008617947 -0.010269991 0.00501704 -0.00027406824 0.0010631669 -0.012724036
0.006720101 -0.012805464 0.031197771 0.002343592 0.0066844295 0.0004663417 -0.0019638203 0.0047239433
0.0027995016 0.0022516449 -0.0050935536 -0.007799465 -0.0022014577 0.015422109 0.007243694 0.0016173657
-0.0002448044 0.0052935695 0.013468118 0.004796187 0.009677847 -0.0018116281 -0.017598197 -0.0088183945
-0.010399507 0.004527354 0.0015298825 0.007210461 -0.007427999 0.0032969264 0.0050865347 0.013674624
0.0033962883 -0.0066671832 0.0108637195 -0.0047919 -0.0011631538 -0.0044772453 0.016333727 -0.004439968
-0.0001070135 -0.0025678305 0.015095772 -0.0006516242 -0.010528858 0.003222946 0.0107033355 -0.0039241984
0.0088927075 0.0029141624 -0.005478794 -0.0058809705 -0.01412358 0.013011281 -0.011927476 -0.001175424
-0.0042964383 -0.009170747 -0.01421013 0.0068908283 -0.018832799 -0.0009948349 0.0028403213 -0.011724822
0.010142549 -0.007542552 0.0038669214 -0.0043675704 0.01445317 0.0044114874 -0.0023247825 -0.014177136
-0.0027095338 0.0012152455 0.0038448002 -0.011785469 0.014353113 0.0073106154 0.0009102036 0.008885101
-0.0034545213 0.0056380904 -0.005480971 -0.0030208724 0.0022966822 -0.0024989683 -0.014163958 0.02191643
-0.0024701937 -0.008884619 -0.01653241 0.0044116764 -0.0052664983 -0.004684297 -0.00059006014 0.004644505
0.017069576 -0.014979488 0.0058941934 0.012815277 -0.016095353 0.016806535 0.019822834 0.00095145835
00000000: e2cb dbbb 8423 43bb cdf8 5c3c 37a0 3a3b
00000010: 6aa7 493b 0592 383c 03a8 cabb 8890 773b
00000020: 5f52 01bc 0cc6 b13b f3ae 0abb 68e6 00bb
00000030: 4af8 99ba 8d20 343a db59 b53b 0436 173c
00000040: 178e 9cbc 7989 923a 10ea 613a 7743 28bc
00000050: fb65 a43b d1b0 8fb9 f659 8b3a 7a78 50bc
00000060: 4b34 dc3b 02ce 51bc 7892 ff3c f396 193b
00000070: 0f09 db3b 537f f439 70b3 00bb 4fcb 9a3b
00000080: d877 373b 5590 133b d3e7 a6bb a892 ffbb
00000090: 5546 10bb 03ad 7c3c 825c ed3b cafd d33a
000000a0: 1759 80b9 ae75 ad3b 62a9 5c3c 5529 9d3b
000000b0: d58f 1e3c 2774 edba 182a 90bc 077b 10bc
000000c0: b262 2abc 335a 943b 5786 c83a bb45 ec3b
000000d0: 9266 f3bb 3f11 583b f2ac a63b 880b 603c
000000e0: 4394 5e3b 6378 dabb befd 313c 5f05 9dbb
000000f0: f774 98ba dbb5 92bb 4fce 853c 277d 91bb
00000100: 6f6c e0b8 0c49 28bb 4254 773c c3d1 2aba
00000110: 3b81 2cbc 1038 533b 0b5d 2f3c 9096 80bb
00000120: b8b2 113c 88fb 3e3b 7587 b3bb 28b5 c0bb
00000130: 9766 67bc 452d 553c 766b 43bc af10 9aba
00000140: 23c9 8cbb e740 16bc 9bd1 68bc 75cc e13b
00000150: 3e47 9abc 1f65 82ba af24 3a3b 7819 40bc
00000160: ef2c 263c 8327 f7bb 2d6c 7d3b d61d 8fbb
00000170: fdcc 6c3c 3d8e 903b 615b 18bb 3847 68bc
00000180: 6f92 31bb df48 9f3a 0bf9 7b3b d717 41bc
00000190: 5229 6b3c e38d ef3b bb9a 6e3a d192 113c
000001a0: 4065 62bb bbbf b83b b899 b3bb d4f9 45bb
000001b0: ef83 163b bbc5 23bb f20f 68bc 168a b33c
000001c0: f9e2 21bb cb90 11bc fa6e 87bc d38f 903b
000001d0: 9792 acbb bb7e 99bb 44ae 1aba ef30 983b
000001e0: 7fd5 8b3c 876c 75bc 1424 c13b 2bf7 513c
000001f0: 67da 83bc dcad 893c 7f63 a23c 4a6b 793a
