results/ag25/PlatformRotate/PlatformRotate-6999995.onnx (onnx, 112474 bytes, 8 tensors)

network_body._body_endoder.seq_layers.0.weight f4 [128, 78]
00000000: 7766 423d 88ca 863d 23df 66bd 8f3e 96bd
00000010: a2c3 d93d 2393 923d f357 62bc cf01 5a3e
00000020: 5e08 13be d8a0 05be 00d3 333e 8a9a c8bc
00000030: 7726 bebd 9af4 89be 5acd 033d c227 3dbe
00000040: 3f43 ef3c d371 6fbd 400e acbc 208a 9f3d
00000050: 0348 afbc 7a3a 3cbd e573 b03e 2a65 26bd
00000060: 24da 5a3e f459 1dbe 40fe 603d 84c1 47bd
00000070: 9eed 58bc 5353 c73d 72d4 6dbd cad3 173e
00000080: 7d42 ac3d 7255 26be 0a5d c0bd f0cd 70bc
00000090: f492 cbbc 4714 bcbd 1fa1 0e3d 970b 763c
000000a0: 4b04 debc 3f64 d9bc c0dd fabc 4569 3abe
000000b0: 225b 983d be8a 0f3d cdf7 023e e417 82bd
000000c0: 1af6 513c 997a c93d 5543 883d f5fe 3cbe
000000d0: fad2 9bbd ac23 8ebc eed3 04bd d22f d1bd
000000e0: 4c71 89bc 4d37 04bd a696 b83d c477 a83d
000000f0: a12e 37be 0ee3 bcbd fa0b 2c3d 0265 4c3d
00000100: 817f 2e3d 36fb 313d f1fb 19be d706 133d
00000110: 27cd 38be 435b c83c b7e0 6dbc 75c9 0ebe
00000120: 64a0 a03d 3103 b63d 05ae 3cbd 8c3b 9f3d
00000130: 9295 bfbd 2027 883e 2dff 13bb 136c 673e
00000140: 218f 243d b3fd c93c 1236 1b3e 531a 3e3e
00000150: 5042 0b3e 507d 943c 9a1c 89bd 61ee 1cbe
00000160: 0fd6 123e 26a9 5e3e 43ee 123e 8985 053e
00000170: 7328 09be 4c60 5cbe 0d61 44be 251e 863d
00000180: a4a7 9d3c 72f5 583c fe02 c8bc 1ef1 debc
00000190: 103f 29be 2614 613e fbcd abbd 551e d3bc
000001a0: 9a62 d6bc 25f5 c0bd aca6 21bd ce3f 19be
000001b0: 9154 d63d 12e3 0bbe b12b 8a3d d7e9 6bbd
000001c0: 66c7 b6bd 3020 583e 29bd 013b a578 d3bc
000001d0: ea5c 10bb f07d d73b 39e8 0a3e 62ac b4bd
000001e0: 9d15 b13c 8868 cfba 116a bfbc 8ccb 9d3d
000001f0: 8f59 7dbe b25e f1bc 5a21 a1bd cf33 e8bd
00000200: 6b3d a33d f63c af3d 8766 7e3d c9e4 16be
00000210: a378 8a3e d465 22be 578c 38be 187c 4bbe
00000220: 783f bd3d ef7b 2fbd 85f8 603a 8270 afbd
00000230: 4dfc 87be 4072 6fbe 74e2 f9bd e2a0 86bd
00000240: 2670 223e a3fe 67be baf3 49be 4818 523e
00000250: 4dbf 22be fe95 74bd 3042 b53d d06c 3bbe
00000260: b798 c4bd 1f00 553c 3bbf debd d90d 233e
00000270: 9a1b 0a3e ea17 9d3c b530 c5bd 04c4 8e3e
00000280: ccf4 f8bb d57a 1ebd a19a 193d e753 11be
00000290: 8aaf 4abe 71a3 66bd 5f60 2ebe 8c32 bdbe
000002a0: 5c68 a9bd da42 0cbd a539 febe 97e8 e93d
000002b0: 700b 703c b13a 3abe 9bdf 6ebe 32af 59be
000002c0: 6e31 363c de03 07be 60f7 6e3e fca2 953d
000002d0: 3d92 213c 3c61 a03d 4ea3 1dbe 7159 233d
000002e0: f294 7dbe 7a35 883c 44d8 32be 2acc a7bd
000002f0: 47ac 893e a506 1f3d e2a7 023e 67b8 a93d
00000300: 7d63 d3bc c0e9 6a3d 8618 e3bb 98d4 9d3d
00000310: aa1d c63d a56d 253c f5a2 04be 7643 6b3c
00000320: f1fd 05be 0335 ec3b 3f45 dc3d 7e63 05be
00000330: 03d7 053e 2a05 2bbe 8ba7 203e 98d5 4b3b
00000340: 11c4 e93c 44b4 22be 939e 00be 031a afbd
00000350: 8926 d43d 3e0d e0bd 833d 333e beca 86be
00000360: 225b 8abe 89c0 89bc f191 8bbd 5f97 cc3d
00000370: 0f03 5e3d 993f 413e 9d80 92bd b321 2d3e
00000380: c477 0e3d ff5b 54be d1ee 82be 6924 453c
00000390: 12be 8e3e d436 1f3e a41a 06be 558e fabd
000003a0: 6211 183e 590e 103d 7edf 26be 9caf 20bd
000003b0: 211e e13d 57c4 2abe 5e0d b1bc e06e 2cbc
000003c0: df52 303d a7b8 b8bc 8de7 563e 2f1a 153c
000003d0: 8934 dc3d f24a adbd 1c11 e8bd 7b2d d23d
000003e0: ab10 cebc 523e d03d 22bb 4abd e878 893d
000003f0: 08f5 133d 17c7 6f3c 8a02 54be 3217 3fbd
0.047461 0.065815985 -0.056365144 -0.07336151 0.10633017 0.0715697 -0.013814914 0.21289752
-0.1435866 -0.13049638 0.17560959 -0.024487752 -0.0928468 -0.2694443 0.03217826 -0.18472198
0.02920687 -0.05845816 -0.021002889 0.07790017 -0.021396643 -0.045954205 0.3446342 -0.04062382
0.21372277 -0.15366346 0.05492997 -0.048768535 -0.013240246 0.0973269 -0.05806393 0.14826885
0.08411119 -0.16243532 -0.09392746 -0.014697537 -0.024850346 -0.09183555 0.034821626 0.015017412
-0.027101656 -0.026537059 -0.030623317 -0.1820422 0.07439257 0.035044424 0.12789841 -0.06352213
0.012815023 0.09837837 0.066534676 -0.18456633 -0.076086 -0.017350994 -0.032428674 -0.10214199
-0.016777657 -0.0322793 0.09013109 0.082259685 -0.17888881 -0.09222995 0.04200361 0.049901016
0.042602066 0.043452464 -0.15037514 0.035895195 -0.1804701 0.02445758 -0.014518908 -0.13944037
0.07843092 0.088873275 -0.046064395 0.077750295 -0.093547 0.2659235 -0.0022582517 0.22599821
0.04017556 0.024657106 0.15157345 0.1856473 0.13599515 0.01812616 -0.066949084 -0.1532531
0.1433947 0.21744213 0.14348702 0.13039221 -0.13394336 -0.2152111 -0.19177647 0.06548718
0.019244976 0.0132421125 -0.02441549 -0.027214583 -0.16527963 0.21980342 -0.08388897 -0.0257713
-0.026170064 -0.094217576 -0.03946559 -0.14965746 0.104653485 -0.13660839 0.06746615 -0.057596054
-0.08924751 0.21106029 0.0019796586 -0.025814364 -0.0022028037 0.006576292 0.13565148 -0.08821942
0.021616751 -0.0015824 -0.023366006 0.07704839 -0.24741195 -0.0294641 -0.078676894 -0.11338007
0.07970699 0.08556549 0.062109496 -0.14735712 0.27045164 -0.15859157 -0.18022285 -0.19871557
0.09240621 -0.0428428 0.0008581954 -0.08566381 -0.26559678 -0.23383427 -0.12201396 -0.06573655
0.15863094 -0.2265573 -0.1972188 0.20517075 -0.15893288 -0.059713356 0.08850515 -0.18303227
-0.095994405 0.013000517 -0.10876318 0.15923251 0.13487092 0.019176442 -0.09628431 0.27883923
-0.0075975414 -0.03869136 0.03750098 -0.14192162 -0.19793525 -0.056308214 -0.1702895 -0.36952627
-0.08271858 -0.034243442 -0.49653354 0.11421316 0.014651164 -0.18186451 -0.23327486 -0.21258238
0.011120183 -0.13185069 0.23336554 0.073064774 0.009861526 0.07831046 -0.15394327 0.03988022
-0.2476385 0.016627062 -0.17465311 -0.08193238 0.2688925 0.038824696 0.12759355 0.08287125
-0.025804276 0.057351828 -0.0069304137 0.07706565 0.09673627 0.010096942 -0.12952788 0.014359346
-0.13085152 0.007208468 0.10755395 -0.13026235 0.13070302 -0.16701189 0.15688913 0.0031102654
0.028535875 -0.15889078 -0.12560491 -0.08549883 0.103589125 -0.10940026 0.17503934 -0.26326555
-0.27022654 -0.01681544 -0.068149455 0.09989809 0.054202136 0.18871917 -0.07153437 0.16907386
0.034782186 -0.20738219 -0.25572827 0.012032607 0.27879387 0.15548259 -0.130961 -0.12234179
0.14850381 0.035169933 -0.16296193 -0.039229974 0.10992075 -0.1667646 -0.02161282 -0.010524482
0.043047782 -0.022548987 0.20986767 0.009100481 0.10752208 -0.0846156 -0.11331388 0.10262581
-0.025154432 0.10168137 -0.04949487 0.06712514 0.036122352 0.014634869 -0.20704094 -0.04665298

network_body._body_endoder.seq_layers.0.bias f4 [128]
00000000: b602 9f3b 302b 3fbd 2264 033d 96ab 8cbb
00000010: 98a3 b03b 0fc5 e93c 4d13 35bd ce4f a83c
00000020: c509 e03c ad80 323d c38e 9a3c 7fc2 36bb
00000030: 7228 b5bb a185 51bb 6eab 4c3c 1de7 1c3c
00000040: 1d4b ac3c 5c7c 56bc 8e03 8d3c 7c73 8bbc
00000050: 5db2 1ebc 0de5 1fba f893 4f3c 5ec4 1b3c
00000060: da47 5e3d 925c 2e3c 92ad adbc ed2f 78bc
00000070: 5374 883c baeb 1b3d 62fb d43b 85fa 8abb
00000080: fbe7 913b 20c0 0c3d fa48 dd3c 2770 5a3c
00000090: 0ad9 5a3c a724 f1bc 6a64 063d 63a7 c43a
000000a0: 9122 aa3b 66b7 bd3c 9206 45bc 6aaa 5a3c
000000b0: b3ee 0f3d c85c 97bb 77b5 b73c 605b 973c
000000c0: 68dc 403c 63c1 e2bc d82a 84bd 8e67 193d
000000d0: 5fde eb3a 225f 47bc 8beb 2abd fa71 d6bc
000000e0: 4465 2e3d 8b42 5b3c c18c f0bb 3ca1 bf3c
000000f0: e3cf 4e3d 44a9 7f3b 4f19 693c 500e c8bc
00000100: 520b ee3b 30b2 b8bc 3d7f 463c 21d9 85bb
00000110: e452 bd3c 3740 9a3c 9334 ff3b 0747 9b3b
00000120: 65b6 353c 8a06 363c 4161 0abb 5166 21bb
00000130: bbf5 5cbc 4c27 6a3c cf38 113d 1858 d73c
00000140: 7fb8 f8ba 5be8 c53a 2066 eb3b b319 fdbb
00000150: e07f 94bc 769d 823c c657 293c 38a5 0fba
00000160: 8902 463a bfcb 913b 00ca 9e3c f3b2 c03c
00000170: 4315 4d3c 6c34 0bbc d3d7 06bd 39fa 293d
00000180: 0d13 3dbc 6d0c e63c b4dd adbb e207 453c
00000190: 7fd9 9abc 4fdf 6e3b 0123 763c 8682 0abc
000001a0: 791d c63b 8f54 e2b8 21c2 903c 5626 c83b
000001b0: 1f5d b9bc f428 a23c 34c8 2bbd b9f1 4ebb
000001c0: b720 8cbc da06 b9bc 8a5e e9bb 8875 10bc
000001d0: bc19 bb3c 62fa 04bd 8bfc 2c3d e379 16bc
000001e0: 1e12 173c fd38 8b3c 35cd 263d b60e 7d3b
000001f0: c881 d6bc 6cd2 8abb 5e8b 153c 8d94 2b3c
0.004852618 -0.046672046 0.032077916 -0.0042929156 0.0053905956 0.028536348 -0.04420786 0.020545866
0.027348408 0.043579746 0.018866902 -0.0027886925 -0.005528503 -0.0031970518 0.012492044 0.009576586
0.02103191 -0.013091173 0.01721361 -0.01702284 -0.00968608 -0.00060995 0.012669556 0.009507267
0.05426774 0.010642188 -0.021200929 -0.015148145 0.01665703 0.038066603 0.0064996937 -0.00424129
0.004452703 0.034362912 0.027012337 0.013332403 0.01335741 -0.029436423 0.032810606 0.0015003498
0.005192109 0.02315874 -0.012025492 0.013346294 0.03513975 -0.0046192147 0.022425396 0.018476188
0.011771299 -0.027680105 -0.06453484 0.037452273 0.0017995349 -0.0121686775 -0.041728538 -0.026177395
0.042577043 0.013382564 -0.007340998 0.023392312 0.050491225 0.0039010802 0.014227225 -0.024420887
0.007264533 -0.022545904 0.012115297 -0.0040847217 0.023110814 0.018829448 0.0077882498 0.0047386917
0.0110908495 0.0111099575 -0.0021115097 -0.0024627636 -0.013486321 0.014291596 0.035454568 0.026287124
-0.0018975883 0.0015099155 0.007183805 -0.007724011 -0.018127382 0.015944224 0.010335868 -0.00054796366
0.00075534784 0.0044493373 0.01938343 0.02352283 0.012517276 -0.008496385 -0.03292067 0.041498397
-0.011540187 0.028082097 -0.00530597 0.012025805 -0.018902538 0.003644902 0.015022994 -0.008453971
0.006045994 -0.0001079227 0.017670693 0.0061080856 -0.022627411 0.019794919 -0.041938975 -0.0031577183
-0.017105443 -0.022586275 -0.0071218656 -0.008817084 0.02283942 -0.032465346 0.04223303 -0.0091843335
0.009220628 0.016994948 0.040723044 0.0038613505 -0.026184931 -0.00423651 0.009127466 0.010472429

network_body._body_endoder.seq_layers.2.weight f4 [128, 128]
00000000: f986 c5bd 6e62 433d 8391 12be fd14 5abd
00000010: ba94 31be 05fc 58bd 02b1 75be 0cb8 8fbe
00000020: 3ed9 30be df2c efbb 65e7 753d ca8b bf3d
00000030: d889 85bd 0b57 9e3e e8b7 a5bd 7305 a43d
00000040: 3d77 bf3d 2a2f 21bd 7cbd a23c d657 f2bd
00000050: ad31 2ebe 8322 f33c 60e8 cebd 0235 2f3e
00000060: 7713 cb3d 7738 4cbd 8b6f 463d 6bc4 00bd
00000070: e38b 6f3d 001b 833c dd62 6abd 9103 55bd
00000080: 4d37 05be 76a3 5bbd 8c9e 173e 3371 6b3e
00000090: abd4 41bd 02ef 9b3e 70be 92bd 7f58 2cbc
000000a0: 41d5 ad3d 3d8e 353c eec0 413d dd12 1cbe
000000b0: 7315 5ebd c7e2 353e d3b2 bfbd 2a36 af3d
000000c0: 9d07 243d 026c d03d 2cbf d53d 19ae ecbd
000000d0: cac3 78bd f670 153c f9d8 febd 28e6 9b3d
000000e0: 5e9a 94bc 5bf9 123d eb8a abbb b339 38be
000000f0: 3c0e 413d e1d8 2a3e ffd9 dd3d cfb7 be3d
00000100: a145 0dbe 11cd 2abd 8d41 13be d76a dc3d
00000110: b436 8b3c 5883 44be fbbf cebd 3b48 79bd
00000120: afd3 d2bd 32e6 44be f405 263d 17b9 d7bd
00000130: 4a92 82bd 6a65 ce3d bda1 0abe 5319 dfbc
00000140: 1dfe 653d 511e acbc ea22 173c fe24 2abc
00000150: 3db9 b2bc 06c6 5ebd eb8c 30bd 1aa1 e23c
00000160: c368 3bbd 8782 b2bd de96 26be 94f1 a73d
00000170: 32f8 02bd 4bd7 1cbd c795 233d 5545 153c
00000180: ffb6 abbc 2381 a83d 0dd3 92bc 36ff df3d
00000190: 1cc6 eebb 44e2 573d 742f a9bc a0bb 1d3a
000001a0: 5a3b 10bd 9975 f53c b701 1a3e efb3 96bc
000001b0: 1f50 5a3d 829a 9bbd 08a6 1cbe dcce c6bc
000001c0: d8c4 15bd 0aa9 633d ac4e 16bd 8534 12bd
000001d0: 6526 48be 4c40 35be f22c 153e aeba 083e
000001e0: b9ad 8f3d 312e 543d db71 e0bd 3615 6d3d
000001f0: b64a 93bc d40a 943d a861 413d 6c3c 7cbc
00000200: 7002 e2bd ca42 b93d 1d11 0dbe dd38 b63d
00000210: 966d 24be 74f0 4abd b870 9c3d f889 b4bd
00000220: 9bfb 553d 3967 833d 9f47 5ebd f535 173e
00000230: 7a08 2fbc ca65 d53c 4387 18bc 95a6 d3bd
00000240: 53f3 47bc eb5d 153d 1e82 7f3d 8e33 c5bd
00000250: 2a6c 5c3c 5408 5e3d d4e5 373d 1482 0b3e
00000260: e9df 8d3b 1e09 d03d efbb 983c 243d e43d
00000270: 904d 6bbd c8b1 85bd 55a2 a83d 8d15 cebc
00000280: f478 9ebc cfa0 553e 406b ee3d e6c5 9c3d
00000290: 4d7e ed3d 17a7 8dbd 9c77 3e3e 2c91 9e3d
000002a0: cf8d abbd e4d6 60bd 61bd 1dbe edbc 2c3c
000002b0: b1bf 32be 624d 4fbd db74 4abd 6482 ad3c
000002c0: e7c2 c23c 4594 a7bd ef2d 09be 856d 10be
000002d0: 46f0 bebc 15c1 793d 64d8 673d 57c5 37be
000002e0: c999 91bc 2e8a 72bc 18ec bd3d 1abb 8ebe
000002f0: ffb4 093e 67b5 71bd a092 013d a7b0 903b
00000300: 90ea 303e fa22 b5bc 38c2 99bd f2a4 d33b
00000310: daa4 24bd f106 bbbd 1309 f6bd 4910 46bd
00000320: a38c 143d 1cae 24be 0e24 f73b 0e81 c33c
00000330: fd4b 9f3d e44b efbd 2f2e 56bc c186 30be
00000340: ee11 5f3d f5de 27be 0c05 c23b 268a ac3c
00000350: 5771 09bd 9f13 0bbe bae3 0fbd 5688 af3d
00000360: c397 ecbc dee5 2f3e 6352 923b 904e 34bc
00000370: c66d aebc dc0a 6d3d dbbe 733c 6f61 a53e
00000380: 49d1 68be 666b 17bc b4e9 afbd 8c11 8cbd
00000390: 3a92 5ebd f21d e4bd ad11 a8bd ffbd dcbd
000003a0: d8fb acbd 19db bcbb 691b d6bc 94a1 b93d
000003b0: 4fac 093d cc09 0ebe 8dc6 e6ba 3db4 b3bd
000003c0: cbaa 82bd dcb8 25bd 6c7a 06be 6c88 05be
000003d0: d668 f23c fb34 f7bc b18d 623d 4d61 ae3d
000003e0: ecb5 2fbc 8766 ed3d 614b 14bc f385 d73c
000003f0: 4f92 063e 936e 983d 35b0 e7bc 4013 ecbc
-0.096448846 0.04770129 -0.14313321 -0.053242672 -0.17341891 -0.05297472 -0.23993304 -0.28070104
-0.17270371 -0.00729905 0.06003513 0.093528345 -0.06520432 0.30925784 -0.08091718 0.08008852
0.09348915 -0.03935162 0.019865744 -0.118331596 -0.17011137 0.029679542 -0.10102916 0.17110065
0.09915822 -0.049858537 0.04844622 -0.03143732 0.058483016 0.016004086 -0.05722319 -0.052005354
-0.13009377 -0.053622685 0.14806575 0.22992401 -0.047321957 0.30455786 -0.07165229 -0.010519146
0.084879406 0.0110812755 0.047303133 -0.15241571 -0.054219674 0.1776229 -0.0936028 0.08555253
0.040046323 0.10176851 0.10436854 -0.11556644 -0.060733594 0.00912117 -0.12443728 0.07612258
-0.018140014 0.035882335 -0.005235066 -0.1799076 0.047132716 0.16684295 0.10832595 0.093124025
-0.13796093 -0.041699473 -0.14380474 0.107625656 0.016993858 -0.19190729 -0.10095211 -0.0608599
-0.10294282 -0.19228438 0.04053302 -0.1053335 -0.06375559 0.10077937 -0.13538261 -0.027233755
0.056150544 -0.02101055 0.009224633 -0.010384796 -0.021816844 -0.05438807 -0.04310314 0.02766471
-0.045754205 -0.08716302 -0.16268489 0.08200374 -0.03197498 -0.038291257 0.03993776 0.009110768
-0.020961283 0.08227756 -0.017922902 0.109373495 -0.0072868 0.052706018 -0.02065251 0.0006017033
-0.035212852 0.029963301 0.15039717 -0.018396346 0.053299066 -0.075978294 -0.15297711 -0.02426856
-0.036564678 0.05558113 -0.03669612 -0.035694618 -0.19545896 -0.17700309 0.14567927 0.13352463
0.07015557 0.051801864 -0.10959216 0.057881556 -0.01797996 0.07228628 0.047212273 -0.015395265
-0.11035621 0.09045942 -0.1377606 0.088975646 -0.16057429 -0.04954572 0.07638687 -0.08815378
0.052241903 0.064161725 -0.054267522 0.14766677 -0.010683173 0.026049513 -0.009309593 -0.103345074
-0.012204009 0.03646652 0.06237995 -0.09628974 0.013453523 0.05420716 0.044896916 0.1362384
0.0043296707 0.10157989 0.018644301 0.11144474 -0.057447016 -0.0652805 0.082340874 -0.02515676
-0.019344784 0.20862125 0.1164155 0.07654934 0.115963556 -0.069166355 0.18600315 0.07742533
-0.08376657 -0.054892436 -0.15404274 0.01054309 -0.17455937 -0.050610907 -0.04942785 0.02118034
0.023774577 -0.08182577 -0.13396429 -0.14104278 -0.02330793 0.060975153 0.05660285 -0.17946373
-0.017773526 -0.014803452 0.09273547 -0.27877122 0.13447951 -0.05901089 0.031633973 0.00441559
0.17276978 -0.022111405 -0.075077474 0.006458872 -0.040196277 -0.09132183 -0.120134495 -0.048355374
0.036266934 -0.16082042 0.00754214 0.023865249 0.077781655 -0.11684397 -0.013072534 -0.17238905
0.05446046 -0.16393645 0.005921012 0.021061968 -0.033555355 -0.13581704 -0.035129286 0.08570926
-0.02888096 0.17177531 0.0044653877 -0.011005059 -0.021292578 0.057871684 0.014877046 0.32300898
-0.22736086 -0.009241914 -0.08589497 -0.06839284 -0.05433867 -0.11138524 -0.082064964 -0.107784264
-0.08446473 -0.005763423 -0.026136117 0.09064022 0.033611592 -0.13870925 -0.001760678 -0.08774612
-0.063802324 -0.0404595 -0.13132638 -0.13040322 0.029591005 -0.03017663 0.05531091 0.085146524
-0.010724526 0.11591821 -0.009051175 0.02630899 0.1314175 0.07442965 -0.028282264 -0.028817773

network_body._body_endoder.seq_layers.2.bias f4 [128]
00000000: f37f 8a3c aab1 993c 593e f6bc d777 dfbb
00000010: cfb3 b43c 5fd1 503c d14a 63bc 55ee f13c
00000020: c4d8 38bb 7578 0fbb 5e78 0e3d ee13 04bc
00000030: 178f 973c d09c 8b3d 2967 24bd a686 3a3d
00000040: b77a 49bb 7b3d 643c 0d90 39bc d0b5 08bc
00000050: 7fb0 cf3c 7ab1 c0bc a563 3a3b 8ee9 a03b
00000060: 16f8 c53c 5c17 f5bc cd26 00bc ca68 29bb
00000070: 0e4b b83c cb12 1a3c a231 253a 25e6 833b
00000080: 7356 023d b9b6 4b3b 7e87 feba 2931 b73b
00000090: 6a79 d1ba a985 2c3c 03e2 0f3c 7f10 fc3c
000000a0: 3944 573d 5a87 113d 1f58 283d dc3c 2bbd
000000b0: 881f 353d 2893 36bb 28bd 993c 721b 6d3c
000000c0: 0f56 b63c e255 ca3c fff3 603b 4996 663c
000000d0: 89df 7fbc 6686 2aba e9d4 133d 6702 a4bc
000000e0: 0580 92bb a13b b23c 53f3 d93c c1ef ea3c
000000f0: b0bc 4bbd 74e2 c0bc c8e4 9b3c 5dc8 f63c
00000100: ff54 10bc 4c15 5ebc 85ae 41bb ef21 883c
00000110: 4339 7e3c 644a b03c 3029 493c 6731 6fbd
00000120: 710a 7eba 4b51 3f3c b47c d43c 2e2a 563b
00000130: a8e9 b5ba cb3f d6bc 9fd5 8fbc c1d1 39bd
00000140: 94aa adbc b6d3 a63c f55a 7abc 7ea5 4d3c
00000150: 3dd1 30bd e777 fa3b 5cae 8f3c 4275 af3c
00000160: 316f 07bd 4753 343c f929 ec3c 1034 da3b
00000170: 940f a43c 67d4 703a 134d 3bbc 0e3a c13c
00000180: fc6f 9abc 0acf abbb 5360 023d c759 213d
00000190: fd19 b43b 5478 633c 4443 f53c 4461 ce3b
000001a0: aa41 59bc edb9 863c 0fa7 603c 53af 1fbd
000001b0: 61d8 c23c 7597 09bd 6f26 62bb 642a 92bc
000001c0: b844 9ebc 114a 3a3d 45d5 023d 8845 f23c
000001d0: a349 083c 7db2 d1bc e6d0 af3a 0442 8bbc
000001e0: fdf2 a43c 9544 7abc b92b 633c ab46 8939
000001f0: 526f 7cbc 3781 aa3b 9850 9abc 6339 0c3b
0.016906714 0.018761475 -0.030059027 -0.006819706 0.022058396 0.01274523 -0.013872818 0.02953259
-0.0028205374 -0.0021891866 0.03478276 -0.008061392 0.018500848 0.06817019 -0.040137444 0.045538567
-0.003074331 0.013930674 -0.011325848 -0.008344129 0.025352715 -0.023522127 0.002844074 0.0049106544
0.024166148 -0.029918365 -0.007821751 -0.0025849813 0.022496726 0.009403895 0.00063016464 0.004025238
0.031820726 0.0031084253 -0.0019419042 0.005590577 -0.0015981619 0.010529914 0.008781913 0.030769585
0.052555297 0.035529472 0.041099664 -0.041806087 0.044219524 -0.0027858708 0.018766955 0.0144718755
0.022257833 0.024699155 0.003432512 0.014073917 -0.01561726 -0.0006505012 0.03609172 -0.020020677
-0.0044708275 0.021756949 0.026605284 0.028678777 -0.049740493 -0.023545481 0.01902999 0.030124838
-0.008809327 -0.013554882 -0.0029553485 0.016617743 0.015516582 0.021519847 0.012277886 -0.058396723
-0.0009690887 0.011677097 0.02593837 0.003267895 -0.0013878839 -0.026153466 -0.017557917 -0.045366053
-0.021199502 0.020364624 -0.015280475 0.012551663 -0.043168295 0.007643688 0.017539196 0.021418218
-0.033065025 0.011006183 0.028828608 0.0066590384 0.02002696 0.0009186924 -0.01143195 0.023587253
-0.018852226 -0.005243187 0.031830143 0.03939226 0.005496262 0.013883669 0.029939301 0.006298216
-0.013260284 0.016446078 0.013711705 -0.03898556 0.023784818 -0.033591706 -0.0034507771 -0.017842479
-0.019319877 0.04548079 0.03194167 0.02957417 0.008318338 -0.025597805 0.0013413697 -0.016999252
0.020135397 -0.01527514 0.013865405 0.00026183328 -0.0154074 0.005203392 -0.018837258 0.002139651

action_model._continuous_distribution.log_sigma f4 [1, 2]
00000000: 30bf 22be b1c0 24be
-0.15893245 -0.16089131

action_model._continuous_distribution.mu.weight f4 [2, 128]
00000000: 6198 f03c 06cc f63b e732 01bd c65e fdbc
00000010: e06f 073d c15c a4bd 1b64 4bbd 159c 583d
00000020: 3cad 0b3d 5881 893d a4f4 9c3b f7ca 9fbc
00000030: 0184 0abb 1c41 1bbc e695 aebb 1e21 edbb
00000040: 0587 2a3c ba39 653d f318 6ebc 0f4e ac3c
00000050: 85b8 423d ae95 263d 15f5 3a3c 1e10 8bbb
00000060: a93d a8bd 9a7a 27bd 5ba1 20bd 53f2 28bd
00000070: 0a3b c7bd 92f2 3abc 9142 9f3c 0d0c b4bc
00000080: 24b2 0e3d 15bc 22bd 0908 ff3c f3d5 a5bc
00000090: bfee 2cbd b44e c2bc b2f3 1fbd c503 c7bd
000000a0: b949 ae3d 951f 743d a177 c0bd f227 fcbb
000000b0: d70b 1c3d a7c9 973c b890 9bbd 4247 353d
000000c0: 25d2 a13c 6ec3 de3c f593 7139 e09a 78bd
000000d0: 1408 fd3c 4f87 ddbc c79b b03d cb8c d73b
000000e0: f4da 70bd 7b14 14bd 3ad5 853d 871c 533d
000000f0: 0dc6 3c3d 90d5 14bc 4ef7 263d 0ee5 0c3d
00000100: 48e6 03bd 661e e9bc b84d 6fbd 34ff 46bc
00000110: aba8 eabb bdaa 813d 34ae b33d fbed b4bb
00000120: 8711 e1bc 2e0c cabc 1d51 d53b ee29 323a
00000130: e39f 2abd 6fbe ffbc cbb5 73bc aefa 1cbd
00000140: 8fd8 f8bc 8293 e1bc e45e 2abd 6ab4 59bd
00000150: b862 dd3c cb84 003b 5236 63bc bbd9 b63d
00000160: 4121 52bd dc3d f9bc 76de d53d f56e 663d
00000170: 7945 bcbc 905c bdbb 80bd 8cbc 21db 643d
00000180: 4f7a 85bc a444 5dbd 51e5 34bd b6c7 053d
00000190: e65d 77bd a3e3 373d 7095 1c3d 347e a6bc
000001a0: b8ad 85bb d4f8 533d 7336 bcbc e893 8ebd
000001b0: 11f4 7f3d 2b65 15bd 788d 983c 36f2 3cbd
000001c0: 0bfb a9bc 142a 2d3d a7c3 01bc 95be 26bc
000001d0: bd0c d3bc 1914 0bbd 5721 71bd 4b54 0fbd
000001e0: 4bf5 133d 7790 f6bc 35f0 a1bb 9b7c 4fbd
000001f0: 5e4b acbc 4333 8cbc b332 a8bd 5fd8 4abd
00000200: d778 b6bc 0941 9bbd 67c6 a93c 99e3 0e3d
00000210: 3fd5 26bc e596 50bd 9b49 ad3b e5b4 66bd
00000220: a346 09bd f0a6 77bb d215 8c3d c97f 413b
00000230: 19ad 113d 301c 8e3d 3c88 a2bc 16ad 0c3e
00000240: 3e22 773d 6197 90bc 8109 5c3c ad13 6e3c
00000250: 118d b5bd fdaf f23c ba67 f6bc 5556 e63c
00000260: 91cc 5abd 80d9 9cbc bbe1 9f3a 514d bebb
00000270: 2354 a9bc a25a bbbb 241f e5bc a56e 1b3d
00000280: 6396 1e3d f997 283b 3399 cc3c 1d68 8a3c
00000290: d44d 03bd ccbf fcbc 63dc b03b f460 e93c
000002a0: fa48 7cbd 3e59 36bc 748f aa3b af0c de3c
000002b0: 2d0c 473d e716 01bd c22d 543d 149d 5a3d
000002c0: 746b 8dbb 0212 403d 3ff7 31bd bb84 d53c
000002d0: da76 a23c 0f3e cfbc dd27 b2bd eb01 30bd
000002e0: 4c2a 333d 0eb6 f33c 8634 0fbc 515e ed3c
000002f0: ad7b a2ba ca17 94bb e8eb e43c 13a4 25bc
00000300: 4263 3fbc 2d08 523d 2faa 8ebc efc9 373d
00000310: 29cf 1b3d 7386 f0ba d1d9 443c 87f3 16bc
00000320: e50f febc f3cd 1bbd c8e4 2b3d 6153 993c
00000330: 4d83 323c 7fd2 19bd a1f5 7a3c a749 4a3b
00000340: 97fb 0fbc 20f1 133c 673e 14bc e794 2abc
00000350: 99ce de3c 6732 5d3c f5ec 3c3d d0f4 53bc
00000360: e38b cf3b 9723 1cbd 6671 4dbc ac71 723c
00000370: b032 3e3d f67e 32bd 14ef 2ebd 40ec 283d
00000380: 6119 a93c 2b15 673c 229e a6bb 9ee3 bebc
00000390: 74ab edbc 374c 9f3c ab85 2a3d 8d65 9fbc
000003a0: d834 893d b7e0 313c 4aeb e03c 8a64 88bc
000003b0: 07be 2c3c 4216 44bc fb52 223d 6644 ebbc
000003c0: 5b55 27bd b7b2 a63c 394b 81bd 3e6d 093d
000003d0: 108e eebc 6331 633c 3dfb afbc 950d 87ba
000003e0: 083a 97ba c875 0a3d 7fad 96bc b5a9 60bc
000003f0: e319 bc3c 20f6 c83c a286 17bd b040 fabc
0.029369535 0.0075316457 -0.031542685 -0.03092898 0.033065677 -0.08025504 -0.049656015 0.052883226
0.034100756 0.067141235 0.0047899056 -0.01950596 -0.002113581 -0.0094759725 -0.005327928 -0.007236614
0.010408168 0.055963255 -0.014532316 0.021033315 0.047539253 0.04067009 0.011410971 -0.0042438647
-0.08214886 -0.040888406 -0.03921638 -0.041246723 -0.09728058 -0.011410372 0.019440921 -0.021978403
0.034837857 -0.03973015 0.031131761 -0.02024362 -0.042219874 -0.02371917 -0.039050765 -0.09717516
0.08510155 0.05960043 -0.093978174 -0.0076951915 0.03809723 0.018528773 -0.07595962 0.04425741
0.019753525 0.027192798 0.0002303867 -0.060694575 0.030887641 -0.02704206 0.08623462 0.006578063
-0.05880256 -0.036152344 0.0653481 0.051540878 0.046087313 -0.00908412 0.040763192 0.03439813
-0.032202035 -0.028456878 -0.058423728 -0.012145806 -0.00716122 0.06331394 0.08773461 -0.0055215335
-0.027474178 -0.02466401 0.0065099136 0.0006796409 -0.041656386 -0.031218736 -0.014874886 -0.038325004
-0.0303767 -0.027536158 -0.0415944 -0.053150572 0.027024612 0.00196104 -0.013867931 0.089282475
-0.051301245 -0.030425005 0.10442822 0.05625816 -0.022982346 -0.0057788566 -0.017180204 0.05587304
-0.016293673 -0.05402054 -0.044164006 0.032661162 -0.060392283 0.044894826 0.038228452 -0.02032385
-0.004079547 0.051750973 -0.022975182 -0.06961805 0.06248862 -0.036473434 0.018622145 -0.046129428
-0.02074959 0.042276457 -0.007920182 -0.010177274 -0.02576291 -0.033954713 -0.058869686 -0.034992497
0.0361226 -0.030098183 -0.004941965 -0.050655942 -0.021032032 -0.017114287 -0.08212795 -0.049522754
-0.022274418 -0.07580764 0.020724488 0.034885023 -0.010182678 -0.050925154 0.0052883155 -0.05632486
-0.03351463 -0.0037788711 0.068400994 0.0029525629 0.03556547 0.0693897 -0.019840352 0.13737902
0.06033539 -0.017650308 0.01343 0.014531058 -0.08864797 0.029624933 -0.030078758 0.028117338
-0.053417746 -0.01914668 0.001219801 -0.0058075567 -0.020670002 -0.0057175914 -0.02796895 0.037947316
0.03871764 0.0025725348 0.024975395 0.016895348 -0.032056645 -0.030853175 0.005397366 0.028488614
-0.061593033 -0.011129675 0.005205089 0.027105657 0.048595596 -0.031515982 0.05180145 0.053372458
-0.004315788 0.046892174 -0.043448683 0.026064267 0.019832063 -0.025298147 -0.086990096 -0.04297058
0.04374151 0.029749896 -0.00874055 0.028975638 -0.0012396477 -0.0045194374 0.02794452 -0.010109919
-0.01168138 0.05127733 -0.017415134 0.044870313 0.03803936 -0.0018350616 0.012014822 -0.009213335
-0.031013438 -0.038038205 0.04196623 0.018716516 0.010895562 -0.03755426 0.015317352 0.0030866654
-0.008788011 0.009029657 -0.009048081 -0.010411478 0.027198123 0.013500786 0.046124417 -0.012936786
0.0063338145 -0.03811988 -0.012539243 0.014797609 0.046435058 -0.04357811 -0.04270847 0.04124093
0.020641984 0.014104168 -0.005084769 -0.023301896 -0.02901242 0.019445522 0.041631382 -0.019457603
0.06699532 0.010856799 0.027455945 -0.016649503 0.010543353 -0.011968197 0.039629918 -0.028719138
-0.040852886 0.02034889 -0.06313176 0.033551447 -0.029120475 0.013866755 -0.021482104 -0.001030373
-0.001153768 0.03380373 -0.018393276 -0.013712336 0.022961562 0.024531424 -0.03699363 -0.030548424

action_model._continuous_distribution.mu.bias f4 [2]
00000000: e32d 2e3c 6d15 dbbb
0.010631057 -0.0066859038

action_model._discrete_distribution.branches.0.weight f4 [1, 128]
00000000: e2cb dbbb 8423 43bb cdf8 5c3c 37a0 3a3b
00000010: 6aa7 493b 0592 383c 03a8 cabb 8890 773b
00000020: 5f52 01bc 0cc6 b13b f3ae 0abb 68e6 00bb
00000030: 4af8 99ba 8d20 343a db59 b53b 0436 173c
00000040: 178e 9cbc 7989 923a 10ea 613a 7743 28bc
00000050: fb65 a43b d1b0 8fb9 f659 8b3a 7a78 50bc
00000060: 4b34 dc3b 02ce 51bc 7892 ff3c f396 193b
00000070: 0f09 db3b 537f f439 70b3 00bb 4fcb 9a3b
00000080: d877 373b 5590 133b d3e7 a6bb a892 ffbb
00000090: 5546 10bb 03ad 7c3c 825c ed3b cafd d33a
000000a0: 1759 80b9 ae75 ad3b 62a9 5c3c 5529 9d3b
000000b0: d58f 1e3c 2774 edba 182a 90bc 077b 10bc
000000c0: b262 2abc 335a 943b 5786 c83a bb45 ec3b
000000d0: 9266 f3bb 3f11 583b f2ac a63b 880b 603c
000000e0: 4394 5e3b 6378 dabb befd 313c 5f05 9dbb
000000f0: f774 98ba dbb5 92bb 4fce 853c 277d 91bb
00000100: 6f6c e0b8 0c49 28bb 4254 773c c3d1 2aba
00000110: 3b81 2cbc 1038 533b 0b5d 2f3c 9096 80bb
00000120: b8b2 113c 88fb 3e3b 7587 b3bb 28b5 c0bb
00000130: 9766 67bc 452d 553c 766b 43bc af10 9aba
00000140: 23c9 8cbb e740 16bc 9bd1 68bc 75cc e13b
00000150: 3e47 9abc 1f65 82ba af24 3a3b 7819 40bc
00000160: ef2c 263c 8327 f7bb 2d6c 7d3b d61d 8fbb
00000170: fdcc 6c3c 3d8e 903b 615b 18bb 3847 68bc
00000180: 6f92 31bb df48 9f3a 0bf9 7b3b d717 41bc
00000190: 5229 6b3c e38d ef3b bb9a 6e3a d192 113c
000001a0: 4065 62bb bbbf b83b b899 b3bb d4f9 45bb
000001b0: ef83 163b bbc5 23bb f20f 68bc 168a b33c
000001c0: f9e2 21bb cb90 11bc fa6e 87bc d38f 903b
000001d0: 9792 acbb bb7e 99bb 44ae 1aba ef30 983b
000001e0: 7fd5 8b3c 876c 75bc 1424 c13b 2bf7 513c
000001f0: 67da 83bc dcad 893c 7f63 a23c 4a6b 793a
-0.0067076543 -0.0029775808 0.013487053 0.0028476843 0.0030769953 0.0112652825 -0.0061845793 0.0037775356
-0.007893174 0.0054252204 -0.0021161407 -0.0019668583 -0.001174697 0.00068713055 0.0055343932 0.009229187
-0.019110722 0.0011179886 0.0008617947 -0.010269991 0.00501704 -0.00027406824 0.0010631669 -0.012724036
0.006720101 -0.012805464 0.031197771 0.002343592 0.0066844295 0.0004663417 -0.0019638203 0.0047239433
0.0027995016 0.0022516449 -0.0050935536 -0.007799465 -0.0022014577 0.015422109 0.007243694 0.0016173657
-0.0002448044 0.0052935695 0.013468118 0.004796187 0.009677847 -0.0018116281 -0.017598197 -0.0088183945
-0.010399507 0.004527354 0.0015298825 0.007210461 -0.007427999 0.0032969264 0.0050865347 0.013674624
0.0033962883 -0.0066671832 0.0108637195 -0.0047919 -0.0011631538 -0.0044772453 0.016333727 -0.004439968
-0.0001070135 -0.0025678305 0.015095772 -0.0006516242 -0.010528858 0.003222946 0.0107033355 -0.0039241984
0.0088927075 0.0029141624 -0.005478794 -0.0058809705 -0.01412358 0.013011281 -0.011927476 -0.001175424
-0.0042964383 -0.009170747 -0.01421013 0.0068908283 -0.018832799 -0.0009948349 0.0028403213 -0.011724822
0.010142549 -0.007542552 0.0038669214 -0.0043675704 0.01445317 0.0044114874 -0.0023247825 -0.014177136
-0.0027095338 0.0012152455 0.0038448002 -0.011785469 0.014353113 0.0073106154 0.0009102036 0.008885101
-0.0034545213 0.0056380904 -0.005480971 -0.0030208724 0.0022966822 -0.0024989683 -0.014163958 0.02191643
-0.0024701937 -0.008884619 -0.01653241 0.0044116764 -0.0052664983 -0.004684297 -0.00059006014 0.004644505
0.017069576 -0.014979488 0.0058941934 0.012815277 -0.016095353 0.016806535 0.019822834 0.00095145835
