results/ag25/PlatformRotate/PlatformRotate-7071401.pt (torch, 661833 bytes, 39 tensors)

network_body._body_endoder.seq_layers.0.weight f4 [128, 78]
000000 55 82 41 3d 7c 58 86 3d 45 c3 67 bd bb a7 96 bd
       0.047243435 0.06559846 -0.056582708 -0.07356211
000010 46 92 d7 3d 8d 19 90 3d c4 90 5d bc 07 4d 5b 3e
       0.10525946 0.070361234 -0.013523284 0.21416102
000020 8f d7 10 be 04 6c 04 be 44 a6 36 3e 29 2f c1 bc
       -0.14144729 -0.1293183 0.17836863 -0.023582058
000030 9f 6a c1 bd fc 35 8a be e9 3e f6 3c 27 e8 3c be
       -0.094441645 -0.26994312 0.030059295 -0.18447934
000040 05 60 f4 3c d5 0c 72 bd 40 0e ac bc 23 18 9f 3d
       0.029830942 -0.05909427 -0.021002889 0.077682756
000050 03 48 af bc 9b 1e 3d bd 65 57 b0 3e 09 81 25 bd
       -0.021396643 -0.046171766 0.34441677 -0.04040626
000060 1a a1 5a 3e fd 92 1d be 1f 1a 60 3d 63 dd 46 bd
       0.21350518 -0.15388103 0.05471241 -0.048550975
000070 95 7d 5c bc 48 e1 c6 3d 51 f0 6c bd c1 9a 17 3e
       -0.013457675 0.09710938 -0.05784637 0.14805128
000080 88 b4 ac 3d 8b 0e 25 be 7b 1c c0 bd 82 5a 80 bc
       0.08432871 -0.16118829 -0.09380432 -0.015668157
000090 e2 5d cd bc bb e3 be bd de 2f 0d 3d 14 e1 6f 3c
       -0.02506918 -0.0932078 0.034469478 0.014641065
0000a0 8f 19 e1 bc 83 79 dc bc 42 9e f8 bc eb 98 3b be
       -0.027478008 -0.02691341 -0.0303489 -0.18320052
0000b0 54 de 95 3d 08 23 12 3d e7 bc 03 3e c7 23 7c bd
       0.07317796 0.03567794 0.1286503 -0.061557557
0000c0 6a b6 64 3c f0 90 cf 3d 21 be 89 3d db 0d 3e be
       0.0139595065 0.101350665 0.06725717 -0.18559973
0000d0 38 83 9e bd 74 49 9f bc e0 6d 04 bd fc ca ce bd
       -0.07739872 -0.019444205 -0.032331347 -0.1009731
0000e0 c3 37 8d bc 4d 37 04 bd 68 d1 b7 3d c4 77 a8 3d
       -0.017238503 -0.0322793 0.08975488 0.082259685
0000f0 4a 91 37 be 4c a8 bd bd 9b 96 2d 3d 61 da 4a 3d
       -0.17926517 -0.09260616 0.042379957 0.04952467
000100 0e f5 2c 3d 95 70 30 3d 48 99 19 be 64 7c 11 3d
       0.04222589 0.043076117 -0.14999878 0.03551902
000110 d0 2f 39 be 87 70 cb 3c 78 0a 74 bc cc 66 0e be
       -0.18084645 0.02483393 -0.014895074 -0.13906401
000120 b2 b9 a2 3d ad cb b5 3d 46 4f 41 bd c9 ee 9e 3d
       0.07945575 0.08876739 -0.04719474 0.077603884
000130 01 97 c2 bd 67 fd 87 3e 46 6e ef ba 33 dd 67 3e
       -0.09501458 0.26560518 -0.0018267117 0.22642975
000140 a4 53 26 3d 09 e7 c2 3c 04 6f 1a 3e e1 43 3f 3e
       0.04060711 0.023791807 0.15081412 0.18678237
000150 c3 4b 0a 3e a0 cd 93 3c 09 99 88 bd ef 5b 1e be
       0.13505463 0.018042386 -0.06669814 -0.15464757
000160 d2 22 13 3e aa 03 5e 3e 11 8d 12 3e a5 26 06 3e
       0.14368752 0.21681085 0.14311625 0.13100679
000170 68 c5 09 be 51 c3 5b be b5 58 45 be 0f dc 84 3d
       -0.13454211 -0.21461226 -0.1927212 0.06487285
000180 a4 a7 9d 3c 24 f1 5f 3c fe 02 c8 bc de 67 db bc
       0.019244976 0.013668332 -0.02441549 -0.026782926
000190 57 cf 28 be fe a2 60 3e ab eb aa bd 79 a0 cf bc
       -0.16485344 0.21937177 -0.08345731 -0.025345074
0001a0 5a d9 d2 bc 75 d7 c1 bd c2 e7 1f bd a6 ce 18 be
       -0.025738407 -0.09464923 -0.03903938 -0.1492258
0001b0 41 72 d5 3d 59 73 0b be 61 49 89 3d 0c 07 69 bd
       0.10422183 -0.1361822 0.06703449 -0.056891486
0001c0 eb 3f b6 bd fb 58 59 3e e1 9a 41 3b da 7e d4 bc
       -0.0889891 0.2122535 0.0029541778 -0.025939394
0001d0 d6 8b b0 ba 8b c2 b2 3b 5d c2 09 3e 20 f8 b6 bd
       -0.0013469409 0.0054553202 0.1345305 -0.08934045
0001e0 ac b6 9f 3c 17 6d 1e bb 69 b3 b3 bc 23 87 9b 3d
       0.019496284 -0.002417391 -0.021936135 0.07594135
0001f0 e8 3f 7d be fc 42 ef bc 22 7c a5 bd 44 7a e7 bd
       -0.2473141 -0.029206745 -0.08080317 -0.11302617
000200 f3 4d a2 3d e8 62 ad 3d d8 19 80 3d b1 af 16 be
       0.07925024 0.084661305 0.06254929 -0.14715458
000210 15 87 8a 3e e3 80 23 be f9 ee 37 be 18 7c 4b be
       0.27056184 -0.15967135 -0.17962255 -0.19871557
000220 f2 f9 ba 3d ef 7b 2f bd 76 e6 89 b9 08 b6 b1 bd
       0.091297045 -0.0428428 -0.00026302383 -0.08677298
000230 5c 69 87 be 2a 98 70 be fa 27 fc bd b7 ec 88 bd
       -0.2644757 -0.23495546 -0.123123124 -0.06685775
000240 10 96 23 3e 66 21 69 be a4 19 4b be 32 3e 53 3e
       0.15975213 -0.22766647 -0.19834 0.20629194
000250 10 e2 23 be 4a fe 6f bd 70 ae b6 3d de 13 3d be
       -0.16004205 -0.05859212 0.0891999 -0.1846461
000260 01 d1 c3 bd 52 18 52 3c 31 2b df bd 6f 92 23 3e
       -0.09561349 0.012823181 -0.1089691 0.15973829
000270 45 b5 0a 3e 3b e5 a1 3c 60 fd c3 bd 89 a4 8f 3e
       0.13545711 0.019762626 -0.09569812 0.28055218
000280 d3 4f 14 bc 8c c7 1a bd 3c 21 17 3d 8f d7 12 be
       -0.009052235 -0.03778796 0.03689693 -0.14340042
000290 0d ea 4b be c6 fc 66 bd e7 7f 2e be 03 01 bc be
       -0.19913502 -0.056393407 -0.17040978 -0.36719522
0002a0 57 cc a3 bd 52 65 03 bd 0a 15 fe be b9 09 ea 3d
       -0.07997959 -0.03207905 -0.49625427 0.11427636
0002b0 7a 95 72 3c ca 87 38 be 9b df 6e be 8b 15 59 be
       0.014806146 -0.1802055 -0.23327486 -0.21199624
0002c0 6e 31 36 3c 34 6a 06 be 07 91 6f 3e a8 6f 94 3d
       0.011120183 -0.13126451 0.23395167 0.07247859
0002d0 db 2c 2b 3c 7b 94 a1 3d a4 09 1d be c6 f2 20 3d
       0.010447706 0.078896485 -0.15335709 0.039294027
0002e0 4b fb 7c be ce 02 8d 3c ee 71 33 be eb 98 a6 bd
       -0.24705236 0.017213251 -0.1752393 -0.081346355
0002f0 77 5f 89 3e e2 73 24 3d 7c 73 03 3e ab f7 ab 3d
       0.26830646 0.040149577 0.12837023 0.08396848
000300 39 83 d3 bc 29 d0 6f 3d 86 95 c5 bb 52 c7 9e 3d
       -0.025819408 0.058548126 -0.0060297875 0.07752861
000310 64 10 c7 3d 96 03 2d 3c b4 7a 03 be c1 fc 5f 3c
       0.09719923 0.010559937 -0.12839776 0.013671101
000320 22 07 05 be be a2 c4 3b 2d 3f dd 3d ad c8 06 be
       -0.12991002 0.0060008457 0.108030654 -0.13162489
000330 00 c4 05 3e 3b a7 29 be 38 8f 23 3e 1f 21 ae 3b
       0.1306305 -0.165677 0.15972602 0.005314007
000340 20 49 fc 3c 51 3b 23 be c8 fc 00 be aa d0 ad bd
       0.030796587 -0.15940596 -0.12596428 -0.08487065
000350 e3 4d d7 3d 3e 0d e0 bd dd b6 33 3e be ca 86 be
       0.105129026 -0.10940026 0.17550226 -0.26326555
000360 6f 1e 8a be d7 f5 85 bc ac 84 8c bd 1a 8a cd 3d
       -0.26976344 -0.016352577 -0.06861243 0.100361064
000370 72 e8 5f 3d fa b8 41 3e 58 73 93 bd 0d 9b 2d 3e
       0.054665036 0.18918219 -0.071997344 0.16953678
000380 3f 5d 10 3d 60 d5 54 be 27 b2 82 be 7a 8e 3d 3c
       0.035245176 -0.20784521 -0.25526544 0.011569614
000390 76 58 8f 3e 0e c4 1f 3e 81 52 05 be 96 2d fb bd
       0.27997178 0.15602133 -0.13019754 -0.12264554
0003a0 d4 6b 19 3e 0f 9c 12 3d 3e 62 28 be a3 ba 26 bd
       0.1498254 0.03579336 -0.16443726 -0.040705334
0003b0 9f 18 de 3d f8 b1 28 be 36 f8 ad bc 54 aa 3e bc
       0.1084454 -0.1647414 -0.02123652 -0.011637289
0003c0 9f d8 30 3d 6f 7f b5 bc 22 c4 56 3e 2d d1 e4 3b
       0.043175336 -0.022155492 0.20973256 0.0069829435
0003d0 43 cc db 3d ea 79 aa bd 2b 8f e6 bd 93 37 d3 3d
       0.10732319 -0.083240345 -0.11257776 0.10313334
0003e0 a2 58 c5 bc 65 a2 d3 3d f8 2e 45 bd 85 2c 85 3d
       -0.024090115 0.10333709 -0.048140496 0.06502632
0003f0 08 f5 13 3d 85 d3 57 3c 8a 02 54 be 7c 22 45 bd
       0.036122352 0.013172989 -0.20704094 -0.04812859

network_body._body_endoder.seq_layers.0.bias f4 [128]
000000 ae ad 92 3b a4 c2 43 bd 9b 49 05 3d a9 72 d1 bb
       0.0044762706 -0.047793046 0.0325409 -0.0063918424
000010 9c 88 b8 3b 2a 6b eb 3c 1c 5f 37 bd 09 ea aa 3c
       0.0056315195 0.028737623 -0.044768438 0.02086355
000020 63 d5 e4 3c d7 b1 30 3d c9 d4 9d 3c fe c1 0f bb
       0.027933782 0.04313835 0.019266503 -0.0021935697
000030 e9 28 d1 bb e7 56 95 bb 67 3c 3f 3c 40 4a 13 3c
       -0.0063830507 -0.0045574787 0.011672116 0.008989871
000040 13 b4 a8 3c 7c 10 50 bc 61 05 86 3c 28 37 8d bc
       0.020593679 -0.012699243 0.016359987 -0.017238215
000050 10 a1 41 bc 9b f3 88 ba 17 e1 1b 3c c3 27 19 3c
       -0.011818185 -0.0010448577 0.009514115 0.009347859
000060 b0 ee 5c 3d a9 a6 3b 3c b9 2c bd bc 1a 58 73 bc
       0.053938568 0.011453309 -0.023092614 -0.014852548
000070 12 69 8a 3c 93 92 1b 3d 68 82 d1 3b 7a d1 02 bc
       0.016895805 0.03798158 0.0063937195 -0.007984513
000080 2d df 7d 3b fa ab 0a 3d 93 c0 de 3c 70 69 61 3c
       0.003873776 0.033855416 0.027191436 0.013758048
000090 9b 97 83 3c 72 9e f5 bc f0 60 05 3d d1 ee 6e 3b
       0.016063502 -0.02998278 0.03256315 0.0036458264
0000a0 8c 5b 83 3b 2b 8a bc 3c e2 6f 49 bc d0 97 58 3c
       0.004008716 0.023015102 -0.012294741 0.013219789
0000b0 18 72 11 3d 60 91 a1 bb 48 6f b8 3c bd 13 95 3c
       0.0355092 -0.00493066 0.022514 0.018197889
0000c0 c6 b3 3c 3c 7c 79 d9 bc d8 b6 80 bd ea ae 16 3d
       0.011517471 -0.026547186 -0.06284875 0.036787905
0000d0 93 2c 76 3a 17 5f 4e bc b4 0d 2c bd ed 02 c6 bc
       0.00093907973 -0.012595913 -0.042005256 -0.024171317
0000e0 b0 ca 2b 3d d0 ce 5b 3c 7f 21 e1 bb f3 72 bf 3c
       0.041941345 0.013416007 -0.006870448 0.023370242
0000f0 5c 58 56 3d f2 61 5b 3b 0b 90 76 3c 9b 8a c8 bc
       0.05233036 0.0033475128 0.015048991 -0.024480155
000100 52 94 e6 3b 6b 0c c7 bc df f4 47 3c b2 65 a2 bb
       0.007036724 -0.024297914 0.012204378 -0.0049559707
000110 34 e9 a9 3c d3 42 a1 3c 19 67 de 3b f3 33 7d 3b
       0.020741083 0.019685185 0.0067871925 0.00386357
000120 81 14 25 3c 2d 3d 2f 3c 52 01 e5 b9 c3 6a 03 ba
       0.010075689 0.010695738 -0.00043679267 -0.0005013162
000130 9b e4 84 bc 5a 3c 6d 3c ce 0a 12 3d 29 1a e2 3c
       -0.016222289 0.014479721 0.035654835 0.027600365
000140 ad a8 7c ba 07 c4 86 3b c7 2f 02 3c 76 51 21 bc
       -0.0009638172 0.0041127237 0.007945961 -0.009846082
000150 3b 7e 9e bc 84 28 74 3c 30 88 24 3c cf f9 9c ba
       -0.0193473 0.014902238 0.010042235 -0.0011976304
000160 8c 57 78 3a 6e 30 4d 3b 7f 99 a3 3c b4 65 be 3c
       0.0009473495 0.0031309384 0.019970654 0.023241855
000170 68 eb 41 3c fe 6e 09 bc b9 9c 07 bd 83 0a 28 3d
       0.01183591 -0.008388279 -0.033108447 0.04102565
000180 2a 41 3b bc 8a 9a e8 3c c4 11 b3 bb a1 64 4e 3c
       -0.011429111 0.028394002 -0.0054647643 0.012597234
000190 26 50 a5 bc f3 71 4b 3b ec 46 71 3c 06 91 ee bb
       -0.02017982 0.003104326 0.014726382 -0.0072804717
0001a0 f8 1f bb 3b 22 48 a2 ba 2b 63 91 3c 69 b7 da 3b
       0.005710598 -0.0012381116 0.017747482 0.006674696
0001b0 d3 c8 b2 bc c6 fc 9c 3c 99 e3 35 bd 4b 3f 63 bb
       -0.021824276 0.0191635 -0.044406507 -0.0034675177
0001c0 c5 52 96 bc d1 f3 c8 bc d1 1b e2 bb 33 1d 1f bc
       -0.018350014 -0.024530323 -0.0069002886 -0.0097115515
0001d0 ce 2e bd 3c ba 56 0b bd e9 fc 2b 3d 4e 6e 0f bc
       0.023093607 -0.034018256 0.04198924 -0.008754326
0001e0 74 b7 0f 3c 6c 7e 89 3c d0 99 25 3d 35 ef 71 3b
       0.008771766 0.016783915 0.04042989 0.003691626
0001f0 e9 45 cb bc 66 79 bf bb a1 d0 0b 3c a0 17 23 3c
       -0.02481361 -0.0058433292 0.008533628 0.009954363

network_body._body_endoder.seq_layers.2.weight f4 [128, 128]
000000 5b 22 c5 bd d0 a4 45 3d 76 a8 11 be fb 7b 58 bd
       -0.096256934 0.04825288 -0.14224419 -0.052852612
000010 08 3d 31 be b4 5e 51 bd 4a f9 77 be 3d af 8f be
       -0.17308438 -0.051115707 -0.2421619 -0.28063384
000020 3e 97 30 be 74 b8 f5 bb aa 9e 77 3d 0a 60 bf 3d
       -0.17245194 -0.007498795 0.06045405 0.0934449
000030 d9 f0 82 bd 96 14 9e 3e 41 26 a4 bd 92 db a2 3d
       -0.06393594 0.3087508 -0.08015109 0.07952036
000040 6f fc bf 3d 64 1f 19 bd be a0 af 3c af 52 f1 bd
       0.0937432 -0.037383452 0.021438953 -0.11783349
000050 4a 0c 2b be f7 52 fd 3c e7 60 cc bd 02 e9 2f 3e
       -0.16703907 0.03092335 -0.0997942 0.17178729
000060 a4 57 cb 3d d9 1c 49 bd 61 7d 44 3d a0 94 01 bd
       0.099288255 -0.049099777 0.047971133 -0.03163588
000070 98 f5 6d 3d d4 91 81 3c bf d8 66 bd d9 43 4d bd
       0.058095545 0.015816607 -0.05635905 -0.050113533
000080 8d 46 04 be 88 90 5d bd 20 b1 17 3e 4a da 6b 3e
       -0.12917538 -0.054092914 0.14813662 0.2303249
000090 a2 8d 3a bd 40 67 9b 3e 0b 42 93 bd 57 61 3b bc
       -0.045545228 0.3035221 -0.07190331 -0.011436782
0000a0 5a 9d b3 3d 6e e9 30 3c 98 28 47 3d b4 74 1c be
       0.08770247 0.0107978415 0.048622698 -0.15278894
0000b0 54 ae 5b bd 56 15 37 3e be 11 be bd 80 96 b1 3d
       -0.05363305 0.17879233 -0.09280728 0.08671284
0000c0 22 c3 25 3d af 7d ce 3d e7 9f d6 3d 3e 8a eb bd
       0.040469296 0.10082566 0.10479718 -0.11500977
0000d0 24 80 74 bd ad 65 14 3c 92 d3 00 be 34 d5 99 3d
       -0.059692517 0.0090574445 -0.12580708 0.075113684
0000e0 a7 56 9e bc 59 4b 11 3d 46 5e f9 bb 9e 91 38 be
       -0.019328428 0.035472248 -0.007610115 -0.18024299
0000f0 77 fc 3a 3d 9c 1f 2b 3e e7 e7 de 3d 00 46 c0 3d
       0.045650925 0.16711277 0.108840756 0.093883514
000100 79 20 0c be c9 1a 27 bd 49 7e 13 be 84 d9 dc 3d
       -0.13684262 -0.04079703 -0.14403643 0.10783675
000110 84 7f 97 3c cc 1b 44 be 19 73 c9 bd a8 93 70 bd
       0.018493421 -0.19151229 -0.09836406 -0.058734566
000120 10 04 d0 bd 42 39 41 be f4 5d 23 3d 20 90 da bd
       -0.10157025 -0.18869498 0.039884523 -0.10672021
000130 56 f6 81 bd 66 93 d1 3d 4c df 08 be 4b e3 db bc
       -0.06345813 0.10233192 -0.13366431 -0.02684178
000140 3a 8f 67 3d 80 96 a0 bc df b7 07 3c 70 bf 16 bc
       0.056533076 -0.019603014 0.008283584 -0.009200916
000150 84 fe b2 bc bc dd 5a bd 77 0c 20 bd a4 54 e6 3c
       -0.021849878 -0.05343412 -0.039074387 0.028116532
000160 15 5d 3d bd 86 92 b5 bd de 64 24 be f5 95 a7 3d
       -0.046231348 -0.08865838 -0.16054103 0.08182899
000170 a2 15 00 bd 9e 5f 1f bd 27 2e 20 3d f5 fd 17 3c
       -0.03127063 -0.038909547 0.039106514 0.009276857
000180 12 dd b1 bc 5c c1 a9 3d 30 64 87 bc ca d1 e2 3d
       -0.02171186 0.082888335 -0.016527265 0.1107517
000190 5f c6 fe bb 0a bd 54 3d 0c 59 99 bc cf 3c b9 b8
       -0.0077751125 0.051938094 -0.018719219 -8.832814e-05
0001a0 83 4f 0f bd 68 4a fe 3c b3 ec 19 3e 40 0d 94 bc
       -0.034987938 0.031041339 0.150317 -0.018072724
0001b0 06 24 5a 3d 2f cd 98 bd 47 50 20 be 29 0b c6 bc
       0.05325701 -0.07461011 -0.15655623 -0.024175243
0001c0 05 0c 2a bd 19 ca 65 3d 9f 8b 13 bd 5c 1f 13 bd
       -0.04151537 0.05610094 -0.036021825 -0.03591858
0001d0 60 49 48 be 1c a8 34 be 6e fa 14 3e 11 91 09 3e
       -0.1955924 -0.17642254 0.14548656 0.13434245
0001e0 a9 e3 8f 3d d6 40 55 3d 14 ea dc bd c3 fb 6c 3d
       0.070258446 0.052063785 -0.10786834 0.057857286
0001f0 a1 a1 a0 bc c2 65 98 3d 9f 59 3c 3d bc a1 80 bc
       -0.01960832 0.07441284 0.045983907 -0.015702121
000200 e8 b2 e2 bd 29 a8 ba 3d d9 ef 0c be bd 3b ba 3d
       -0.1106928 0.09114105 -0.1376337 0.090934254
000210 6d e4 23 be bf c0 4a bd ee b6 97 3d 5d 47 b8 bd
       -0.16005106 -0.049500223 0.07407938 -0.089979865
000220 aa a4 58 3d f4 c5 82 3d a3 63 65 bd 25 17 17 3e
       0.05289141 0.06385413 -0.056003224 0.14754923
000230 03 ee 1f bc fb 01 e0 3c 6e ad 1c bc 0a 6d d5 bd
       -0.009761336 0.027344694 -0.009562833 -0.10421188
000240 3d 75 46 bc b0 dd 23 3d d0 52 7e 3d 0c 26 c6 bd
       -0.012112913 0.04000634 0.062090695 -0.096752256
000250 a8 06 79 3c b8 b1 61 3d a9 99 3a 3d 57 71 0c 3e
       0.015199341 0.055101126 0.045556698 0.1371511
000260 60 a7 88 3b 37 de cf 3d ee 5b 8a 3c b6 4c e3 3d
       0.0041703433 0.10149806 0.016889539 0.11098616
000270 42 ee 6e bd b7 ca 85 bd 3b 91 a9 3d 70 92 cf bc
       -0.05833269 -0.065328054 0.08279654 -0.025338382
000280 0e 0e 9b bc e8 ae 54 3e d4 cd ee 3d c6 4d 9d 3d
       -0.0189276 0.20769846 0.11660352 0.0768085
000290 26 19 ef 3d 8d 71 8c bd 50 40 3e 3e 7e 57 97 3d
       0.116747186 -0.068575956 0.18579221 0.07389735
0002a0 29 11 a7 bd 7d 4f 62 bd 36 c9 1c be ef 85 21 3c
       -0.0815757 -0.055251587 -0.15311131 0.009858592
0002b0 c8 f1 31 be 59 39 4e bd 31 59 4a bd c4 b1 b3 3c
       -0.17377388 -0.05034766 -0.049401466 0.021935351
0002c0 6c 23 c3 3c be 19 ab bd 29 17 09 be 40 a6 0f be
       0.023820601 -0.08354519 -0.13387741 -0.14028263
0002d0 0e 92 ba bc af c5 74 3d 20 72 67 3d 33 fa 38 be
       -0.022774722 0.05975884 0.056505322 -0.18064193
0002e0 8a 99 93 bc 60 f8 7c bc ea d4 b4 3d 03 68 8f be
       -0.018017549 -0.015440077 0.08829673 -0.28009042
0002f0 49 04 07 3e 28 cd 76 bd 5a 61 fa 3c 27 b4 78 3b
       0.13185228 -0.060254246 0.030563999 0.0037949176
000300 65 00 31 3e 85 5b aa bc 76 97 9c bd fe c3 d0 3b
       0.17285307 -0.020795593 -0.076460764 0.0063710203
000310 c0 2b 1c bd d8 53 bd bd 86 27 f1 bd 3d 79 40 bd
       -0.03812766 -0.092445076 -0.117751166 -0.04699062
000320 3d 93 0f 3d a2 f9 21 be 72 c1 d3 3b 8d e9 b2 3c
       0.035052527 -0.15817884 0.0064622695 0.021839881
000330 fa f4 9c 3d 31 35 ef bd d2 95 52 bc 5a 8e 32 be
       0.07663913 -0.11680067 -0.012853103 -0.17437115
000340 94 e1 5a 3d 70 42 26 be bc af 9e 3b 1f b9 b0 3c
       0.053437784 -0.16236281 0.0048427265 0.021572648
000350 cd 25 0e bd 1f 17 0d be 62 83 07 bd 9e 3c b1 3d
       -0.03470402 -0.13778351 -0.03308428 0.0865414
000360 d6 a2 f0 bc 25 bc 30 3e 01 ee be 3b 99 55 38 bc
       -0.029374521 0.17259271 0.005826712 -0.011250877
000370 bf 5d a9 bc 43 7e 6c 3d b5 28 6c 3c b9 b3 a5 3e
       -0.020674584 0.0577376 0.014414002 0.3236368
000380 44 69 69 be e8 66 51 bc 5d 34 ac bd 21 0b 8b bd
       -0.22794062 -0.012780882 -0.08408425 -0.06789232
000390 bc 8a 65 bd 90 be e6 bd 32 44 a6 bd e2 a3 db bd
       -0.05604051 -0.11266816 -0.08118476 -0.107246175
0003a0 8d 70 ab bd c4 65 ac bb d3 38 d6 bc 12 a3 ba 3d
       -0.08371077 -0.005261155 -0.026150143 0.091131344
0003b0 a0 85 07 3d 6b f2 0c be 94 10 69 bb 58 1b b6 bd
       0.03308642 -0.1376435 -0.003556286 -0.08891934
0003c0 e6 7c 83 bd fd d6 23 bd e7 02 07 be 95 21 07 be
       -0.06420307 -0.03999995 -0.13184701 -0.13196404
0003d0 0b 5a ec 3c 76 a4 fe bc c4 00 62 3d 65 93 af 3d
       0.02885153 -0.03108428 0.05517651 0.08573035
0003e0 47 4b 28 bc 6e b2 ed 3d 3a 60 db bb b7 96 c4 3c
       -0.010271854 0.116062984 -0.0066948207 0.023997648
0003f0 ba ae 04 3e 5e cc 99 3d 05 e6 e4 bc 09 f2 f7 bc
       0.12957278 0.07509683 -0.027941713 -0.030266779

network_body._body_endoder.seq_layers.2.bias f4 [128]
000000 3a 2e 8c 3c 08 e7 99 3c c1 78 f1 bc b5 b0 fb bb
       0.017111886 0.018786922 -0.029476525 -0.007680977
000010 d7 89 b4 3c b9 eb 44 3c 15 a0 60 bc f4 f5 ee 3c
       0.022038383 0.012019091 -0.0137100415 0.029170014
000020 10 ca 26 bb 43 72 80 bb ba 7c 0e 3d bc b9 f2 bb
       -0.0025450028 -0.003919871 0.034786917 -0.007407395
000030 16 88 9e 3c b2 06 8b 3d cd 73 2c bd 09 a9 3a 3d
       0.019352 0.067883864 -0.042102624 0.04557136
000040 2c 57 12 bb 2d d3 5f 3c 10 54 43 bc 81 fa 0d bc
       -0.002232979 0.013661188 -0.0119218975 -0.008665682
000050 4f e7 d1 3c 77 ea c9 bc a0 c4 36 3b 80 0f 86 3b
       0.025622992 -0.024647934 0.0027888194 0.004091203
000060 6c 3e c7 3c 63 c5 f1 bc 19 1b 01 bc 4c 18 2b bb
       0.024321757 -0.029513067 -0.007879996 -0.0026107011
000070 86 b9 b7 3c 8e 6f 19 3c d7 2c 8b 39 33 cf 8a 3b
       0.022427332 0.009364976 0.00026545554 0.004236126
000080 0f 09 ff 3c 63 b7 70 3b 33 30 20 bb 58 70 a2 3b
       0.03113225 0.00367304 -0.0024442791 0.00495724
000090 af 70 8d ba a0 08 28 3c 78 ca 0a 3c d8 87 fe 3c
       -0.0010791029 0.010255963 0.008471124 0.031070635
0000a0 97 94 56 3d 55 9f 0d 3d cf 5f 28 3d 94 aa 2b bd
       0.0523878 0.03457578 0.041106995 -0.041910723
0000b0 96 89 36 3d 2f fd 48 bb d2 9a 96 3c 64 3d 6d 3c
       0.044564806 -0.0030668487 0.018384371 0.014479969
0000c0 af fb af 3c 25 42 cf 3c 4c 41 63 3b 60 ae 67 3c
       0.021482317 0.025300095 0.003467637 0.014140695
0000d0 1d 95 8b bc 32 40 60 ba 62 66 15 3d cc 6f a3 bc
       -0.017038876 -0.0008554488 0.036474593 -0.01995077
0000e0 fc 79 a5 bb 9e 5d b7 3c c1 43 d6 3c b8 33 e7 3c
       -0.005049942 0.022383507 0.026155354 0.028222904
0000f0 74 c1 4d bd 00 c1 c0 bc 46 3e 99 3c c6 cc f6 3c
       -0.05023332 -0.02352953 0.018706452 0.03012694
000100 6d 01 1a bc 54 11 5e bc 35 f8 92 bb f1 e9 8a 3c
       -0.009399754 -0.013553936 -0.004485155 0.016957255
000110 ec f1 76 3c 12 76 ad 3c 86 2b 2d 3c 83 f7 71 bd
       0.015072327 0.021174464 0.010569459 -0.059073936
000120 b4 b8 80 ba e4 8c 16 3c 9f ac d5 3c 8c d0 06 3b
       -0.0009820671 0.009188864 0.026083289 0.002057108
000130 e7 53 94 ba 42 dc d0 bc 75 7e 8f bc d5 a8 3c bd
       -0.0011316509 -0.025495652 -0.017516354 -0.04605945
000140 45 ce ac bc a7 d8 ad 3c f8 eb 7c bc 03 31 47 3c
       -0.02109445 0.021221472 -0.015437119 0.012157681
000150 33 89 35 bd 74 28 ee 3b c7 b7 8b 3c 5c d0 ac 3c
       -0.044320296 0.007268006 0.017055405 0.021095447
000160 b1 88 07 bd 17 81 41 3c 62 1c e6 3c 87 63 c3 3b
       -0.033089343 0.011810563 0.028089706 0.0059627923
000170 f6 cd a4 3c d3 c9 8a 3a 99 c4 37 bc 78 20 c3 3c
       0.020117741 0.0010588713 -0.011216306 0.023819193
000180 ab 91 9d bc 66 bb a1 bb e7 af 02 3d 81 f2 21 3d
       -0.019234499 -0.0049356697 0.031906035 0.03953791
000190 14 c1 d3 3b d8 75 58 3c 78 19 f8 3c 16 d7 c8 3b
       0.0064622257 0.01321169 0.030285582 0.006129156
0001a0 37 9a 36 bc d3 35 7f 3c a4 fc 5f 3c 1d ed 18 bd
       -0.011145166 0.015576798 0.013671074 -0.037335504
0001b0 0e 5a c1 3c a2 bb 05 bd 64 e7 55 bb fb a6 98 bc
       0.023602512 -0.032649644 -0.003263914 -0.01863431
0001c0 4f 55 9c bc d7 0c 38 3d b0 b6 01 3d cc 2f f5 3c
       -0.019083647 0.04493412 0.031668365 0.029930018
0001d0 9d c0 11 3c 02 c7 ce bc 56 b8 b1 3a b6 2b 97 bc
       0.00889602 -0.025241379 0.0013558965 -0.01845346
0001e0 ed be 9b 3c e3 a5 82 bc 9e f8 69 3c 5b 3e a2 ba
       0.019011939 -0.015948242 0.014280466 -0.0012378203
0001f0 39 c6 80 bc 27 30 9f 3b 4b 8c 99 bc 51 30 31 3b
       -0.01571952 0.004858035 -0.018743655 0.0027036855

action_model._continuous_distribution.log_sigma f4 [1, 2]
000000 f1 26 23 be 29 04 25 be
       -0.15932824 -0.16114868

action_model._continuous_distribution.mu.weight f4 [2, 128]
000000 1c 2d ed 3c 6c b8 e2 3b 0c 4c 00 bd b5 6e f2 bc
       0.028952174 0.0069189575 -0.031322524 -0.029593805
000010 3d c8 05 3d aa 2d a2 bd f5 8a 46 bd 7e 38 56 3d
       0.032661665 -0.07918866 -0.048472364 0.05229997
000020 8e 08 0a 3d 91 fa 87 3d cd b1 99 3b 2f 0a a0 bc
       0.033699565 0.066395886 0.004690385 -0.019536106
000030 4b ba c6 ba 3e db 25 bc 59 c3 a8 bb 42 0e f1 bb
       -0.0015161721 -0.010123072 -0.0051502404 -0.007356436
000040 b0 1f 4e 3c 58 3c 63 3d 0d 8c 5a bc ff 1f b7 3c
       0.012580797 0.05547747 -0.013339055 0.022354124
000050 50 a1 3e 3d cf e6 22 3d 90 36 39 3c 95 a5 66 bb
       0.04654056 0.039770897 0.011304513 -0.003519391
000060 84 25 a7 bd 3a 4a 25 bd b2 16 20 bd 7a 43 26 bd
       -0.081614524 -0.04035399 -0.039084144 -0.040591694
000070 4f 0b c7 bd f4 27 39 bc 77 fc 98 3c ba c2 ae bc
       -0.09718954 -0.0113010295 0.018675072 -0.021333087
000080 23 48 0b 3d f7 75 28 bd 33 3a fc 3c 8b fe ae bc
       0.03400434 -0.041128125 0.03078947 -0.02136161
000090 3e a3 29 bd 12 70 be bc 3f 79 1e bd 51 be c5 bd
       -0.041415446 -0.023246799 -0.038689848 -0.096554406
0000a0 19 a3 ab 3d ef a4 6c 3d 34 fd c0 bd cd 31 d2 bb
       0.08380718 0.05777448 -0.09423295 -0.006414628
0000b0 93 5f 1c 3d a3 41 94 3c 8f 9f 9a bd 2b 79 36 3d
       0.038177084 0.018097704 -0.07549965 0.04454915
0000c0 3e f5 a3 3c d7 94 e6 3c 00 67 86 39 8a 59 7a bd
       0.020014402 0.028147144 0.00025635213 -0.061120547
0000d0 83 a0 00 3d 4c e2 d0 bc 17 e6 ae 3d 55 82 d7 3b
       0.031403076 -0.025498532 0.0853998 0.006576816
0000e0 51 32 72 bd ae 43 0d bd b7 76 83 3d 47 c1 4f 3d
       -0.059130017 -0.034488373 0.064191274 0.050721433
0000f0 b7 a9 32 3d 84 b4 08 bc 1a 19 24 3d 9a 64 10 3d
       0.043618884 -0.0083438195 0.040063 0.03525219
000100 63 04 01 bd 32 01 e6 bc 05 fe 65 bd 11 ac 48 bc
       -0.031498324 -0.028076742 -0.056150455 -0.012248055
000110 6e 9d f0 bb 5e 28 81 3d 85 b0 af 3d 7e 51 b8 bb
       -0.007342986 0.063065276 0.0857859 -0.005624949
000120 f0 b8 db bc 0e 40 c0 bc cf 32 de 3b 6a 87 e6 3a
       -0.026821584 -0.023468044 0.006780959 0.0017587964
000130 f1 92 28 bd 80 2a fa bc e4 33 61 bc ca 74 1b bd
       -0.04115576 -0.030537844 -0.013745282 -0.037953176
000140 55 07 f4 bc 26 92 da bc d6 ee 27 bd 30 b4 56 bd
       -0.029788652 -0.026681017 -0.040999256 -0.052417934
000150 3b 10 db 3c fe 86 60 3b 5c 59 60 bc 73 aa b5 3d
       0.026741138 0.003426015 -0.01369318 0.08870401
000160 cf 50 4f bd 23 49 f3 bc a5 bf d3 3d d0 ac 62 3d
       -0.050614174 -0.02969796 0.10339288 0.055340588
000170 e6 8b ae bc 1f 51 b1 bb 1f a7 8a bc a3 62 60 3d
       -0.021306943 -0.0054112817 -0.016925393 0.054781567
000180 e3 8a 8f bc 35 c6 5e bd 29 3a 33 bd 6a 17 fe 3c
       -0.017522281 -0.054388244 -0.043756638 0.031017024
000190 9c da 71 bd 4a 04 38 3d 67 3c 1d 3d f0 d7 a5 bc
       -0.059046373 0.044925965 0.038387682 -0.020244569
0001a0 6e cb 68 bb cd 22 52 3d 8d c9 bd bc 9a 0d 90 bd
       -0.0035521644 0.05130272 -0.023167396 -0.07033844
0001b0 90 2a 7e 3d 42 13 13 bd 9e 2c 92 3c 9e 0d 38 bd
       0.06205231 -0.035907038 0.01784354 -0.04493486
0001c0 2c 1d a4 bc 6d 6c 28 3d 3c 00 fe bb cb e4 1a bc
       -0.020033441 0.041119028 -0.007751493 -0.009453963
0001d0 ec f1 db bc d2 86 0c bd a2 37 6c bd c0 a0 0a bd
       -0.026848756 -0.034308262 -0.057670243 -0.03384471
0001e0 59 4f 0d 3d a9 95 f2 bc ac 27 b0 bb c3 00 48 bd
       0.0344995 -0.02961238 -0.005375823 -0.04882885
0001f0 d7 54 ab bc 40 65 80 bc d8 11 a9 bd e1 23 4b bd
       -0.020914478 -0.01567328 -0.082553566 -0.049594764
000200 87 1c b8 bc c7 bf 9b bd 1b 4d b6 3c be c3 09 3d
       -0.02247454 -0.07604938 0.022253564 0.03363394
000210 25 42 2b bc 2f c9 4c bd 67 55 de 3b 13 f4 6b bd
       -0.010452782 -0.04999655 0.006785083 -0.057605814
000220 a9 06 0c bd c5 2c 96 bb 18 52 8b 3d 6e 24 82 3b
       -0.03418604 -0.0045829737 0.068027675 0.003971628
000230 b0 99 10 3d 20 8b 8f 3d c2 5b 9b bc 2a 67 0c 3e
       0.035302818 0.07008958 -0.018964652 0.13711229
000240 8e 0b 79 3d 7e 92 8f bc e9 82 5c 3c 3b 3c 64 3c
       0.060802035 -0.017525908 0.013458946 0.013930376
000250 c0 3f b6 bd 6d 6e f8 3c b9 c5 f9 bc d8 6e e9 3c
       -0.08898878 0.030326093 -0.03048979 0.028495237
000260 50 26 55 bd bb f7 9c bc a4 78 29 3b db f9 dc bb
       -0.05203849 -0.019161096 0.002585926 -0.0067436523
000270 c5 91 a2 bc 1b 93 cd bb 45 25 e5 bc 2c 17 1a 3d
       -0.019844899 -0.00627364 -0.027971873 0.037619755
000280 e7 3d 1a 3d 7b 5c aa 3a 83 03 c9 3c ea 1f 61 3c
       0.03765669 0.0012997532 0.024537807 0.013740519
000290 e9 cf fd bc d9 64 00 bd 1f 09 9f 3b cb 91 f3 3c
       -0.030982928 -0.031346176 0.0048533822 0.029732605
0002a0 f3 28 7c bd 4e de 27 bc 4d eb c0 3b ce e6 db 3c
       -0.06156249 -0.010245873 0.005887425 0.026843455
0002b0 db 6b 43 3d 55 48 01 bd 07 24 54 3d d3 64 5d 3d
       0.04771028 -0.03156312 0.05179217 0.05405123
0002c0 10 4e 01 bc 31 ee 4c 3d 7f 41 34 bd d4 9f e2 3c
       -0.007892147 0.050031845 -0.044007774 0.027664103
0002d0 ec f6 9b 3c 46 1e d6 bc 57 5c b3 bd e6 6d 32 bd
       0.01903864 -0.026137482 -0.08757847 -0.04356184
0002e0 95 9a 30 3d d8 28 fc 3c cd 19 1b bc 9a f0 eb 3c
       0.04311617 0.030781195 -0.009466601 0.028801251
0002f0 d7 c1 cb bb cc 5f 3a bb cd 51 e3 3c af 7b 2c bc
       -0.006218176 -0.0028438447 0.027748967 -0.010527535
000300 b4 08 35 bc 3c 1a 52 3d 5f ae 8c bc f9 be 35 3d
       -0.011049438 0.05129455 -0.01717299 0.04437158
000310 6a c3 18 3d 9e 0a c6 ba 3e 02 1a 3c 76 39 08 bc
       0.037295736 -0.0015109365 0.009399949 -0.008314481
000320 8b 1a fd bc 72 b1 17 bd e8 ea 2b 3d e6 d9 83 3c
       -0.030896446 -0.03703446 0.04197207 0.016095113
000330 7a f6 2a 3c 7b 15 15 bd d3 5f 87 3c 87 b6 95 3b
       0.010434741 -0.03639744 0.016525185 0.004568878
000340 69 ec f8 bb 27 a2 2b 3c 25 4e 16 bc 2f 5b 22 bc
       -0.0075965417 0.010475672 -0.009173905 -0.009909435
000350 b7 0f dc 3c 6a da 58 3c fc 87 3b 3d 08 cd 48 bc
       0.026862962 0.013235668 0.04578398 -0.0122559145
000360 81 97 da 3b 99 0b 1c bd b7 f4 41 bc f9 2a 68 3c
       0.0066708927 -0.038096998 -0.01183813 0.014170402
000370 5b 5a 41 3d 34 f2 34 bd e2 24 30 bd 32 d3 28 3d
       0.04720531 -0.044176295 -0.043003924 0.041217037
000380 62 b4 a8 3c 06 b0 52 3c 47 fd ab bb ad b3 c8 bc
       0.020593826 0.01285935 -0.005248699 -0.024499739
000390 57 47 e4 bc f9 7b a7 3c 9e 79 24 3d 3a 23 a6 bc
       -0.027866049 0.020444857 0.040155046 -0.02028047
0003a0 5e f3 8c 3d ef 41 3d 3c 8f a0 e8 3c 73 ca 90 bc
       0.06882356 0.011551364 0.028396873 -0.01767466
0003b0 b7 f2 35 3c 2a b9 3a bc 75 70 20 3d 98 32 e0 bc
       0.011105231 -0.011396686 0.039169747 -0.027367875
0003c0 23 92 26 bd f3 d7 a7 3c bb 87 82 bd e7 25 08 3d
       -0.04066671 0.020488715 -0.06373545 0.03323927
0003d0 b9 57 f5 bc 68 ee 62 3c b7 85 a4 bc be 78 ed ba
       -0.029949056 0.013850786 -0.020083291 -0.0018117649
0003e0 bf 9e f2 ba 54 ed 00 3d 7d 0f 9d bc 90 22 4e bc
       -0.0018510445 0.031476334 -0.019172424 -0.0125814825
0003f0 21 7a b7 3c fa dd cb 3c 93 0a 1a bd 84 30 01 bd
       0.022397103 0.02488612 -0.03760774 -0.03154041

action_model._continuous_distribution.mu.bias f4 [2]
000000 10 d4 2b 3c df ef e1 bb
       0.010487571 -0.00689505

action_model._discrete_distribution.branches.0.weight f4 [1, 128]
000000 e2 cb db bb 84 23 43 bb cd f8 5c 3c 37 a0 3a 3b
       -0.0067076543 -0.0029775808 0.013487053 0.0028476843
000010 6a a7 49 3b 05 92 38 3c 03 a8 ca bb 88 90 77 3b
       0.0030769953 0.0112652825 -0.0061845793 0.0037775356
000020 5f 52 01 bc 0c c6 b1 3b f3 ae 0a bb 68 e6 00 bb
       -0.007893174 0.0054252204 -0.0021161407 -0.0019668583
000030 4a f8 99 ba 8d 20 34 3a db 59 b5 3b 04 36 17 3c
       -0.001174697 0.00068713055 0.0055343932 0.009229187
000040 17 8e 9c bc 79 89 92 3a 10 ea 61 3a 77 43 28 bc
       -0.019110722 0.0011179886 0.0008617947 -0.010269991
000050 fb 65 a4 3b d1 b0 8f b9 f6 59 8b 3a 7a 78 50 bc
       0.00501704 -0.00027406824 0.0010631669 -0.012724036
000060 4b 34 dc 3b 02 ce 51 bc 78 92 ff 3c f3 96 19 3b
       0.006720101 -0.012805464 0.031197771 0.002343592
000070 0f 09 db 3b 53 7f f4 39 70 b3 00 bb 4f cb 9a 3b
       0.0066844295 0.0004663417 -0.0019638203 0.0047239433
000080 d8 77 37 3b 55 90 13 3b d3 e7 a6 bb a8 92 ff bb
       0.0027995016 0.0022516449 -0.0050935536 -0.007799465
000090 55 46 10 bb 03 ad 7c 3c 82 5c ed 3b ca fd d3 3a
       -0.0022014577 0.015422109 0.007243694 0.0016173657
0000a0 17 59 80 b9 ae 75 ad 3b 62 a9 5c 3c 55 29 9d 3b
       -0.0002448044 0.0052935695 0.013468118 0.004796187
0000b0 d5 8f 1e 3c 27 74 ed ba 18 2a 90 bc 07 7b 10 bc
       0.009677847 -0.0018116281 -0.017598197 -0.0088183945
0000c0 b2 62 2a bc 33 5a 94 3b 57 86 c8 3a bb 45 ec 3b
       -0.010399507 0.004527354 0.0015298825 0.007210461
0000d0 92 66 f3 bb 3f 11 58 3b f2 ac a6 3b 88 0b 60 3c
       -0.007427999 0.0032969264 0.0050865347 0.013674624
0000e0 43 94 5e 3b 63 78 da bb be fd 31 3c 5f 05 9d bb
       0.0033962883 -0.0066671832 0.0108637195 -0.0047919
0000f0 f7 74 98 ba db b5 92 bb 4f ce 85 3c 27 7d 91 bb
       -0.0011631538 -0.0044772453 0.016333727 -0.004439968
000100 6f 6c e0 b8 0c 49 28 bb 42 54 77 3c c3 d1 2a ba
       -0.0001070135 -0.0025678305 0.015095772 -0.0006516242
000110 3b 81 2c bc 10 38 53 3b 0b 5d 2f 3c 90 96 80 bb
       -0.010528858 0.003222946 0.0107033355 -0.0039241984
000120 b8 b2 11 3c 88 fb 3e 3b 75 87 b3 bb 28 b5 c0 bb
       0.0088927075 0.0029141624 -0.005478794 -0.0058809705
000130 97 66 67 bc 45 2d 55 3c 76 6b 43 bc af 10 9a ba
       -0.01412358 0.013011281 -0.011927476 -0.001175424
000140 23 c9 8c bb e7 40 16 bc 9b d1 68 bc 75 cc e1 3b
       -0.0042964383 -0.009170747 -0.01421013 0.0068908283
000150 3e 47 9a bc 1f 65 82 ba af 24 3a 3b 78 19 40 bc
       -0.018832799 -0.0009948349 0.0028403213 -0.011724822
000160 ef 2c 26 3c 83 27 f7 bb 2d 6c 7d 3b d6 1d 8f bb
       0.010142549 -0.007542552 0.0038669214 -0.0043675704
000170 fd cc 6c 3c 3d 8e 90 3b 61 5b 18 bb 38 47 68 bc
       0.01445317 0.0044114874 -0.0023247825 -0.014177136
000180 6f 92 31 bb df 48 9f 3a 0b f9 7b 3b d7 17 41 bc
       -0.0027095338 0.0012152455 0.0038448002 -0.011785469
000190 52 29 6b 3c e3 8d ef 3b bb 9a 6e 3a d1 92 11 3c
       0.014353113 0.0073106154 0.0009102036 0.008885101
0001a0 40 65 62 bb bb bf b8 3b b8 99 b3 bb d4 f9 45 bb
       -0.0034545213 0.0056380904 -0.005480971 -0.0030208724
0001b0 ef 83 16 3b bb c5 23 bb f2 0f 68 bc 16 8a b3 3c
       0.0022966822 -0.0024989683 -0.014163958 0.02191643
0001c0 f9 e2 21 bb cb 90 11 bc fa 6e 87 bc d3 8f 90 3b
       -0.0024701937 -0.008884619 -0.01653241 0.0044116764
0001d0 97 92 ac bb bb 7e 99 bb 44 ae 1a ba ef 30 98 3b
       -0.0052664983 -0.004684297 -0.00059006014 0.004644505
0001e0 7f d5 8b 3c 87 6c 75 bc 14 24 c1 3b 2b f7 51 3c
       0.017069576 -0.014979488 0.0058941934 0.012815277
0001f0 67 da 83 bc dc ad 89 3c 7f 63 a2 3c 4a 6b 79 3a
       -0.016095353 0.016806535 0.019822834 0.00095145835

exp_avg f4 [128, 78]
000000 0d df 11 b9 0d df 11 b9 0d df 11 b9 a3 48 eb 39
       -0.0001391137 -0.0001391137 -0.0001391137 0.0004487681
000010 51 90 ce b8 10 6d a7 39 a2 b2 2e ba 7f 38 25 b9
       -9.8497265e-05 0.0003193398 -0.00066641916 -0.00015756673
000020 49 27 dc b9 a4 37 3c b9 ce ef bd b8 72 2c 59 38
       -0.0004199094 -0.00017949805 -9.0568894e-05 5.1778225e-05
000030 9d 6b 17 ba ec af e1 b8 bd db 2b b9 25 a1 6e 3a
       -0.00057762285 -0.00010761604 -0.0001638969 0.0009102992
000040 56 b4 3c b8 6d a0 58 39 00 00 00 00 e4 64 69 b6
       -4.4990644e-05 0.00020659128 0.0 -3.4778432e-06
000050 00 00 00 00 d1 56 36 ba e4 64 69 b6 d1 56 36 3a
       0.0 -0.00069556857 -3.4778432e-06 0.00069556857
000060 d1 56 36 ba e4 64 69 b6 d1 56 36 ba d1 56 36 3a
       -0.00069556857 -3.4778432e-06 -0.00069556857 0.00069556857
000070 e4 64 69 b6 d1 56 36 ba d1 56 36 3a e4 64 69 b6
       -3.4778432e-06 -0.00069556857 0.00069556857 -3.4778432e-06
000080 d1 56 36 3a 94 9a 40 b8 ce 1d 27 37 ce ca 2a b8
       0.00069556857 -4.592033e-05 9.960915e-06 -4.0720035e-05
000090 03 43 0c b8 67 7c 2f b8 b5 36 39 b6 00 76 10 b9
       -3.344101e-05 -4.183911e-05 -2.7598992e-06 -0.00013776869
0000a0 00 76 10 b9 00 76 10 b9 a4 55 0b 3a fc ec b0 b8
       -0.00013776869 -0.00013776869 0.00053151906 -8.436476e-05
0000b0 fd 08 85 39 8a 98 2f ba d0 c7 0d b9 3c d2 d2 b9
       0.00025374434 -0.00066984503 -0.00013521244 -0.00040210958
0000c0 26 7f 87 b9 ce 73 a5 b8 d3 87 82 b7 3b cb 19 ba
       -0.0002584394 -7.8893834e-05 -1.5560456e-05 -0.00058667705
0000d0 ce 48 e6 b8 56 61 19 b9 63 79 4d 3a 2d b4 18 b8
       -0.000109808156 -0.00014627478 0.00078382174 -3.6407426e-05
0000e0 df ce e1 38 00 00 00 00 31 23 67 b6 00 00 00 00
       0.00010767369 0.0 -3.4442166e-06 0.0
0000f0 7e 93 34 ba 31 23 67 b6 7e 93 34 3a 7e 93 34 ba
       -0.0006888433 -3.4442166e-06 0.0006888433 -0.0006888433
000100 31 23 67 b6 7e 93 34 ba 7e 93 34 3a 31 23 67 b6
       -3.4442166e-06 -0.0006888433 0.0006888433 -3.4442166e-06
000110 7e 93 34 ba 7e 93 34 3a 31 23 67 b6 7e 93 34 3a
       -0.0006888433 0.0006888433 -3.4442166e-06 0.0006888433
000120 cb bf 76 b8 dd c0 54 37 c6 61 24 b8 a8 45 12 b8
       -5.882959e-05 1.2681089e-05 -3.9191706e-05 -3.4873985e-05
000130 e2 0e 53 b8 3c aa 60 b6 f1 11 b4 37 f1 11 b4 37
       -5.032018e-05 -3.347769e-06 2.1466027e-05 2.1466027e-05
000140 f1 11 b4 37 9d d2 67 36 1a ab 8a 37 f8 0a f2 b8
       2.1466027e-05 3.4544275e-06 1.6530557e-05 -0.00011541502
000150 42 f0 2f 39 2d 2f 76 37 3e 8a bc b7 50 1e 0d b8
       0.00016778804 1.4673727e-05 -2.247572e-05 -3.364525e-05
000160 bf 22 56 37 d0 f0 5d b8 90 be 19 39 0f ac a1 37
       1.2763484e-05 -5.291478e-05 0.00014662207 1.9272817e-05
000170 e7 0e ad b8 6c 22 52 38 d2 ce 5c 37 6a e0 31 b8
       -8.2520586e-05 5.009996e-05 1.3161176e-05 -4.240909e-05
000180 00 00 00 00 5e 0e 10 35 00 00 00 00 7d 16 e1 38
       0.0 5.366509e-07 0.0 0.00010733025
000190 5e 0e 10 35 7d 16 e1 b8 7d 16 e1 38 5e 0e 10 35
       5.366509e-07 -0.00010733025 0.00010733025 5.366509e-07
0001a0 7d 16 e1 38 7d 16 e1 b8 5e 0e 10 35 7d 16 e1 38
       0.00010733025 -0.00010733025 5.366509e-07 0.00010733025
0001b0 7d 16 e1 b8 5e 0e 10 35 7d 16 e1 b8 68 89 03 36
       -0.00010733025 5.366509e-07 -0.00010733025 1.9600502e-06
0001c0 7e d2 1a 36 f8 44 8b 36 a9 1c 8e 33 f5 49 d3 36
       2.307031e-06 4.150552e-06 6.6176035e-08 6.2968998e-06
0001d0 ba 81 19 35 8c a3 b5 37 8c a3 b5 37 8c a3 b5 37
       5.718572e-07 2.1653039e-05 2.1653039e-05 2.1653039e-05
0001e0 69 dc 60 36 5e 43 ab 37 ed 6b 1a b9 8e fb 3a 39
       3.3506897e-06 2.0416159e-05 -0.0001472679 0.00017832054
0001f0 c2 34 3e 37 ad 06 e3 b7 70 7e 1c b8 7e 8f 60 37
       1.1337166e-05 -2.7063617e-05 -3.7311052e-05 1.338485e-05
000200 ef bf 78 b8 7f bb 1c 39 d0 f3 a0 37 ed 0c b5 b8
       -5.930656e-05 0.00014947167 1.918702e-05 -8.63316e-05
000210 86 ac 61 38 56 8f 65 37 71 54 46 b8 00 00 00 00
       5.3804855e-05 1.3682837e-05 -4.728552e-05 0.0
000220 ae 4f 11 35 00 00 00 00 85 0c e3 38 ae 4f 11 35
       5.413266e-07 0.0 0.000108265354 5.413266e-07
000230 85 0c e3 b8 85 0c e3 38 ae 4f 11 35 85 0c e3 38
       -0.000108265354 0.000108265354 5.413266e-07 0.000108265354
000240 85 0c e3 b8 ae 4f 11 35 85 0c e3 38 85 0c e3 b8
       -0.000108265354 5.413266e-07 0.000108265354 -0.000108265354
000250 ae 4f 11 35 85 0c e3 b8 d0 82 11 36 17 6f cd 35
       5.413266e-07 -0.000108265354 2.1682827e-06 1.5306022e-06
000260 3f 60 8e 36 b2 8c 0a 35 09 ef e0 36 7c 2a 35 35
       4.2431343e-06 5.1613745e-07 6.7035476e-06 6.748958e-07
000270 de 19 50 b9 de 19 50 b9 de 19 50 b9 8e 2c ae ba
       -0.00019846062 -0.00019846062 -0.00019846062 -0.0013288425
000280 98 d2 ff 37 54 83 09 ba 46 b2 f1 ba e5 de de 37
       3.0496434e-05 -0.00052457047 -0.001843997 2.6568256e-05
000290 98 1f d9 39 f4 42 25 ba 4e a5 76 b8 ef 55 57 b9
       0.00041413005 -0.0006304227 -5.8804922e-05 -0.0002053601
0002a0 06 a7 20 38 6d af 93 37 a4 5f 30 3a c1 f1 19 ba
       3.8302525e-05 1.7605455e-05 0.0006728119 -0.0005872511
0002b0 23 bc 14 39 13 99 8a ba 00 00 00 00 0d 7b a6 b6
       0.00014184466 -0.0010574184 0.0 -4.9615105e-06
0002c0 00 00 00 00 28 10 82 ba 0d 7b a6 b6 28 10 82 3a
       0.0 -0.0009923028 -4.9615105e-06 0.0009923028
0002d0 28 10 82 ba 0d 7b a6 b6 28 10 82 ba 28 10 82 3a
       -0.0009923028 -4.9615105e-06 -0.0009923028 0.0009923028
0002e0 0d 7b a6 b6 28 10 82 ba 28 10 82 3a 0d 7b a6 b6
       -4.9615105e-06 -0.0009923028 0.0009923028 -4.9615105e-06
0002f0 28 10 82 3a 02 da bf b7 73 c5 cb b9 46 27 3b b9
       0.0009923028 -2.2870492e-05 -0.00038866288 -0.0001784834
000300 b3 93 bb b7 ac b2 ad b9 62 a4 36 b6 e2 ce 80 b9
       -2.2360915e-05 -0.00033130252 -2.7215797e-06 -0.00024568202
000310 e2 ce 80 b9 e2 ce 80 b9 a2 4c d3 ba 26 22 da b8
       -0.00024568202 -0.00024568202 -0.0016120861 -0.00010401411
000320 84 22 8b 39 c4 56 cc ba e0 19 d6 38 13 d6 b8 39
       0.00026537862 -0.0015589823 0.00010209135 0.00035254713
000330 61 ba 11 ba 63 a9 9c b8 1d b3 34 b9 64 89 a9 b9
       -0.00055590837 -7.4702104e-05 -0.00017232863 -0.00032336556
000340 48 4c d4 b7 22 c6 43 3a e1 ae d2 39 94 b5 18 b7
       -2.530789e-05 0.0007468184 0.00040184616 -9.102183e-06
000350 92 bc 2b ba 00 00 00 00 c8 17 ce b6 00 00 00 00
       -0.00065512315 0.0 -6.142047e-06 0.0
000360 a0 02 a1 ba c8 17 ce b6 a0 02 a1 3a a0 02 a1 ba
       -0.0012284108 -6.142047e-06 0.0012284108 -0.0012284108
000370 c8 17 ce b6 a0 02 a1 ba a0 02 a1 3a c8 17 ce b6
       -6.142047e-06 -0.0012284108 0.0012284108 -6.142047e-06
000380 a0 02 a1 ba a0 02 a1 3a c8 17 ce b6 a0 02 a1 3a
       -0.0012284108 0.0012284108 -6.142047e-06 0.0012284108
000390 ca 90 32 37 d1 7d df b9 27 ab 43 b9 fb a3 a6 b7
       1.0643338e-05 -0.00042627615 -0.00018660408 -1.9865101e-05
0003a0 9e 4a 99 b9 c7 c2 ee b6 e6 2f 07 36 e6 2f 07 36
       -0.00029238028 -7.115628e-06 2.0144448e-06 2.0144448e-06
0003b0 e6 2f 07 36 37 b7 ec 38 fa 6f cb b6 a1 81 8c 38
       2.0144448e-06 0.00011287483 -6.0629072e-06 6.6998655e-05
0003c0 a9 3b 2f b9 09 d6 a8 b7 0f 05 5a 39 03 fe 39 39
       -0.00016711526 -2.0126829e-05 0.00020791985 0.00017737602
0003d0 9d 78 d0 b5 df a5 3f b9 8b 4d d4 b8 30 9c a5 b7
       -1.5532311e-06 -0.00018276971 -0.00010123391 -1.9742263e-05
0003e0 b8 a5 b1 b8 7f 4a 11 b9 c3 3f d8 b4 b1 c5 4a b8
       -8.470885e-05 -0.0001385603 -4.0279528e-07 -4.8344667e-05
0003f0 00 00 00 00 50 4c 58 33 00 00 00 00 cb fb 28 37
       0.0 5.0360825e-08 0.0 1.0072205e-05

exp_avg_sq f4 [128, 78]
000000 e5 ae 32 35 e5 ae 32 35 e5 ae 32 35 33 e9 c3 36
       6.656467e-07 6.656467e-07 6.656467e-07 5.838601e-06
000010 92 87 b4 33 77 e6 ef 36 e7 05 17 36 ba 85 c8 32
       8.406563e-08 7.1495847e-06 2.250419e-06 2.3343876e-08
000020 ff e5 82 35 58 19 4a 36 2b eb c8 32 cb 07 51 36
       9.752692e-07 3.0115098e-06 2.3390006e-08 3.1147963e-06
000030 01 ef 49 36 be e5 16 33 89 45 80 36 dc dc 72 36
       3.0090453e-06 3.5133546e-08 3.822792e-06 3.6189367e-06
000040 97 13 20 33 79 b9 b7 36 00 00 00 00 e5 b6 e4 2f
       3.727072e-08 5.475417e-06 0.0 4.1602913e-10
000050 00 00 00 00 91 98 8b 37 e5 b6 e4 2f 91 98 8b 37
       0.0 1.6641136e-05 4.1602913e-10 1.6641136e-05
000060 91 98 8b 37 e5 b6 e4 2f 91 98 8b 37 91 98 8b 37
       1.6641136e-05 4.1602913e-10 1.6641136e-05 1.6641136e-05
000070 e5 b6 e4 2f 91 98 8b 37 91 98 8b 37 e5 b6 e4 2f
       4.1602913e-10 1.6641136e-05 1.6641136e-05 4.1602913e-10
000080 91 98 8b 37 30 a4 8b 34 e6 3a 20 35 81 e1 04 35
       1.6641136e-05 2.601023e-07 5.9690353e-07 4.9501983e-07
000090 a3 95 f1 34 dd 73 d8 34 20 11 1f 30 42 74 34 35
       4.4998623e-07 4.0317437e-07 5.78682e-10 6.72244e-07
0000a0 42 74 34 35 42 74 34 35 fd 06 ba 36 7a 47 a9 33
       6.72244e-07 6.72244e-07 5.5440455e-06 7.882677e-08
0000b0 97 2f e2 36 0b 82 15 36 e4 27 c4 32 0e 0f 83 35
       6.740865e-06 2.2278425e-06 2.2835543e-08 9.764642e-07
0000c0 20 46 45 36 ee 41 cd 32 5b 91 4e 36 72 1b 4b 36
       2.9396106e-06 2.3895122e-08 3.0781e-06 3.0265332e-06
0000d0 d9 f6 10 33 70 00 83 36 21 ce 76 36 8e 9b 12 33
       3.375212e-08 3.904155e-06 3.677684e-06 3.413475e-08
0000e0 1e d8 b7 36 00 00 00 00 3d fb e6 2f 00 00 00 00
       5.4789843e-06 0.0 4.2015272e-10 0.0
0000f0 c0 fa 8c 37 3d fb e6 2f c0 fa 8c 37 c0 fa 8c 37
       1.6806065e-05 4.2015272e-10 1.6806065e-05 1.6806065e-05
000100 3d fb e6 2f c0 fa 8c 37 c0 fa 8c 37 3d fb e6 2f
       4.2015272e-10 1.6806065e-05 1.6806065e-05 4.2015272e-10
000110 c0 fa 8c 37 c0 fa 8c 37 3d fb e6 2f c0 fa 8c 37
       1.6806065e-05 1.6806065e-05 4.2015272e-10 1.6806065e-05
000120 d1 9c 8d 34 f8 03 22 35 bd ca 06 35 e0 ce f3 34
       2.6377396e-07 6.035548e-07 5.0213913e-07 4.5412798e-07
000130 8d 05 dc 34 2f d0 20 30 63 45 99 30 63 45 99 30
       4.0982232e-07 5.850351e-10 1.1151936e-09 1.1151936e-09
000140 63 45 99 30 7d 38 13 33 7b 0a 18 32 4d 0f ae 34
       1.1151936e-09 3.427748e-08 8.849947e-09 3.2421158e-07
000150 33 e3 b0 33 fb fd 1f 32 4b 79 04 33 2e 3f 8b 33
       8.236966e-08 9.312767e-09 3.084396e-08 6.484184e-08
000160 65 aa 35 32 58 07 f8 34 50 d1 cc 34 47 a7 cf 31
       1.057433e-08 4.6198943e-07 3.8150256e-07 6.04351e-09
000170 9e f9 2b 33 e0 f4 95 34 35 a3 92 32 a4 c3 11 33
       4.0041066e-08 2.7931583e-07 1.7070855e-08 3.3938377e-08
000180 00 00 00 00 f4 2f 44 2b 00 00 00 00 91 7c ef 32
       0.0 6.9699736e-13 0.0 2.7879908e-08
000190 f4 2f 44 2b 91 7c ef 32 91 7c ef 32 f4 2f 44 2b
       6.9699736e-13 2.7879908e-08 2.7879908e-08 6.9699736e-13
0001a0 91 7c ef 32 91 7c ef 32 f4 2f 44 2b 91 7c ef 32
       2.7879908e-08 2.7879908e-08 6.9699736e-13 2.7879908e-08
0001b0 91 7c ef 32 f4 2f 44 2b 91 7c ef 32 7e de 55 2f
       2.7879908e-08 6.9699736e-13 2.7879908e-08 1.9451282e-10
0001c0 66 70 ca 2f 6a 03 a0 2f 44 31 c8 2e 4f a5 55 2f
       3.682345e-10 2.9106256e-10 9.1036984e-11 1.9430967e-10
0001d0 06 3a 88 2b ba ac be 30 ba ac be 30 ba ac be 30
       9.679486e-13 1.3873411e-09 1.3873411e-09 1.3873411e-09
0001e0 af 23 31 33 bf 12 0b 32 55 1e b7 34 8b be b4 33
       4.1243478e-08 8.095127e-09 3.4108476e-07 8.416563e-08
0001f0 6f 2d 10 32 73 ba 0a 33 1f c9 9b 33 b5 eb 21 32
       8.392234e-09 3.2300203e-08 7.254334e-08 9.425027e-09
000200 03 3a f9 34 70 fa d2 34 f3 2b bd 31 2b d3 40 33
       4.6422073e-07 3.9297765e-07 5.5056204e-09 4.489554e-08
000210 d1 7a 9a 34 34 c4 84 32 96 99 41 33 00 00 00 00
       2.8774096e-07 1.5456045e-08 4.5076e-08 0.0
000220 42 10 74 2b 00 00 00 00 e7 f6 14 33 42 10 74 2b
       8.6708776e-13 0.0 3.468349e-08 8.6708776e-13
000230 e7 f6 14 33 e7 f6 14 33 42 10 74 2b e7 f6 14 33
       3.468349e-08 3.468349e-08 8.6708776e-13 3.468349e-08
000240 e7 f6 14 33 42 10 74 2b e7 f6 14 33 e7 f6 14 33
       3.468349e-08 8.6708776e-13 3.468349e-08 3.468349e-08
000250 42 10 74 2b e7 f6 14 33 ca 20 9a 2f 99 fc 29 30
       8.6708776e-13 3.468349e-08 2.8035735e-10 6.1840805e-10
000260 68 2e db 2f e9 1b 4c 2f ca 73 6e 2f 83 17 89 2b
       3.9868842e-10 1.8563608e-10 2.168711e-10 9.740961e-13
000270 e8 95 44 36 e8 95 44 36 e8 95 44 36 35 45 9e 37
       2.9293533e-06 2.9293533e-06 2.9293533e-06 1.8867295e-05
000280 60 af 74 34 0c 69 ec 37 ac 41 be 36 7b a8 86 33
       2.2788072e-07 2.8182309e-05 5.6700865e-06 6.270508e-08
000290 94 65 5c 36 56 c2 3c 37 8c a6 86 33 c2 54 ea 36
       3.284168e-06 1.1250921e-05 6.270156e-08 6.9836105e-06
0002a0 60 72 e1 37 ff 6c 25 34 9a 59 87 37 d0 8a e7 37
       2.687535e-05 1.5406475e-07 1.6134978e-05 2.7601985e-05
0002b0 41 dc 5a 34 c8 28 f3 37 00 00 00 00 3b a1 fb 30
       2.038296e-07 2.8986848e-05 0.0 1.8308478e-09
0002c0 00 00 00 00 1d 95 99 38 3b a1 fb 30 1d 95 99 38
       0.0 7.323383e-05 1.8308478e-09 7.323383e-05
0002d0 1d 95 99 38 3b a1 fb 30 1d 95 99 38 1d 95 99 38
       7.323383e-05 1.8308478e-09 7.323383e-05 7.323383e-05
0002e0 3b a1 fb 30 1d 95 99 38 1d 95 99 38 3b a1 fb 30
       1.8308478e-09 7.323383e-05 7.323383e-05 1.8308478e-09
0002f0 1d 95 99 38 f5 50 b4 35 98 60 34 36 95 bf 17 36
       7.323383e-05 1.3434607e-06 2.6878315e-06 2.2612269e-06
000300 3d 83 dd 35 2c cf c9 35 e4 db 2c 31 82 5f 48 36
       1.6503978e-06 1.5035962e-06 2.5154288e-09 2.9857915e-06
000310 82 5f 48 36 82 5f 48 36 d9 0b 97 37 99 2e 7b 34
       2.9857915e-06 2.9857915e-06 1.800612e-05 2.3393149e-07
000320 75 c5 e3 37 4c 09 c4 36 f2 4e d2 33 0d 91 70 36
       2.7152457e-05 5.8423375e-06 9.793247e-08 3.5847218e-06
000330 99 a5 40 37 79 24 a4 33 96 22 00 37 bd cd ea 37
       1.1482648e-05 7.6434794e-08 7.637447e-06 2.7990778e-05
000340 b3 68 2b 34 2e f9 85 37 c9 ae e8 37 77 9a 6d 34
       1.5963705e-07 1.5970869e-05 2.7737946e-05 2.2128539e-07
000350 4e f5 f0 37 00 00 00 00 13 3d 00 31 00 00 00 00
       2.8724458e-05 0.0 1.8661168e-09 0.0
000360 97 8a 9c 38 13 3d 00 31 97 8a 9c 38 97 8a 9c 38
       7.464474e-05 1.8661168e-09 7.464474e-05 7.464474e-05
000370 13 3d 00 31 97 8a 9c 38 97 8a 9c 38 13 3d 00 31
       1.8661168e-09 7.464474e-05 7.464474e-05 1.8661168e-09
000380 97 8a 9c 38 97 8a 9c 38 13 3d 00 31 97 8a 9c 38
       7.464474e-05 7.464474e-05 1.8661168e-09 7.464474e-05
000390 e0 9c b7 35 cb 3d 38 36 3d b0 1a 36 09 da e2 35
       1.3680219e-06 2.7454105e-06 2.3050372e-06 1.6901769e-06
0003a0 8b f8 d1 35 61 83 32 31 ff 86 1a 31 ff 86 1a 31
       1.5644049e-06 2.597709e-09 2.2486686e-09 2.2486686e-09
0003b0 ff 86 1a 31 8a d5 ec 32 f5 11 37 30 67 d1 94 33
       2.2486686e-09 2.7571122e-08 6.660053e-10 6.929877e-08
0003c0 11 a3 a4 33 b1 3f 36 30 8e 8f e0 32 eb 05 7c 33
       7.666507e-08 6.6301725e-10 2.6142313e-08 5.8678705e-08
0003d0 b2 1d 82 30 3a 61 5d 33 ec 68 78 33 66 1e 42 30
       9.467185e-10 5.1544e-08 5.7837426e-08 7.061999e-10
0003e0 2a 69 2c 33 be 7a 34 33 7f 2a 99 30 ad 49 47 33
       4.0142517e-08 4.202115e-08 1.1144293e-09 4.6400306e-08
0003f0 00 00 00 00 87 cb c5 2b 00 00 00 00 e3 72 71 33
       0.0 1.4054182e-12 0.0 5.6216674e-08
