results/ag05/PlatformRotate/PlatformRotate-651330.pt (torch, 624969 bytes, 39 tensors)

network_body._body_endoder.seq_layers.0.weight f4 [128, 66]
0.05727225 0.06457027 -0.117057435 0.11120968 -0.24672319 0.010588252 0.054446638 -0.09005271
0.13076228 0.07388463 -0.022467233 -0.028684128 0.022620525 -0.07406633 -0.052525032 0.008234224
-0.01875908 -0.10148471 0.23890717 0.098642804 -0.15959562 -0.031725544 0.053438295 0.20571382
0.028004155 -0.12733251 -0.18119307 -0.05341605 -0.0369776 -0.038958862 -0.074434996 0.13914339
-0.0045736884 -0.03269923 -0.1132868 0.06486966 0.26217258 -0.1822827 -0.16454986 0.020285826
-0.12725632 0.064321466 0.23007277 -0.17944683 0.11847913 0.013805322 0.041033585 0.21274261
0.025189996 0.031444978 0.0944633 -0.05655575 -0.070709795 -0.020457372 0.03963675 0.09004812
-0.05847204 0.12524578 0.015661683 0.09885896 0.09579278 -0.098989084 0.14886434 -0.0070910025
-0.402724 -0.0978273 0.051032607 0.0026087859 0.042092353 -0.054437436 -0.10808478 -0.06668617
0.15409341 -0.0040068263 0.24452727 -0.11490779 0.03361165 -0.20290497 0.055374686 -0.2197979
-0.113578536 0.30502558 0.10669432 0.04730674 0.022972431 -0.010057753 -0.021533625 0.45521054
0.04238421 -0.031486828 -0.07311539 0.059951127 -0.006909157 -0.083595864 -0.12433821 0.16946107
-0.06046488 -0.13159512 -0.06421444 0.23626345 -0.102976814 -0.09940187 -0.06558067 0.16159952
0.06636999 -0.03648155 0.022509443 -0.10673426 -0.15997338 -0.025274001 -0.07416676 -0.13609819
-0.3067439 0.0065606777 0.12272682 -0.09170527 0.12596843 0.122113496 0.108451 -0.1899331
-0.20375533 -0.06282656 -0.09848698 -0.29389662 0.1000401 0.02084239 0.0878979 -0.06586327
0.028953267 0.06758943 -0.09400036 -0.03533726 0.09592364 0.03477486 -0.17359415 -0.15458353
0.08259959 0.04639649 0.0071184644 -0.10160382 0.19214216 0.051087275 -0.053182505 0.08083748
-0.016820641 -0.1802328 -0.046343282 -0.057979573 0.14713232 -0.20185561 0.0019173811 0.05282908
0.009586023 -0.24448642 0.1450095 -0.07076381 0.1258279 0.045802534 0.10945818 0.010950392
0.13515845 0.15993723 0.043337338 0.2991318 -0.017298084 -0.19366685 -0.003896703 -0.1365639
-0.26735476 0.030158386 0.20411831 0.04234775 -0.015984572 -0.16360162 -0.08705086 -0.20905693
-0.08845788 -0.002637783 -0.056352206 -0.05848849 0.055051584 0.0936656 0.03894331 -0.056689158
0.11628142 0.031039683 0.10194142 -0.016747605 -0.010714132 -0.014003575 0.03678588 -0.08942013
-0.113443874 -0.12971486 -0.0020158973 -0.012695229 -0.19341491 -0.02747019 -0.017090967 -0.06430575
-0.06693305 -0.017034238 0.020059746 -0.013394432 -0.017200578 0.12846895 -0.12789999 0.14705981
-0.064081505 0.012016637 0.17424487 -0.05430689 0.18792453 -0.26677853 0.1823985 0.32886162
0.023133747 -0.06553102 0.16116472 0.047186468 0.06457242 0.06884531 -0.18246295 -0.14040016
-0.15285687 0.09728501 0.15390994 0.042321745 -0.027078532 0.29836383 -0.0142795555 0.21550283
-0.17937282 -0.17010012 -0.084533505 -0.086133264 -0.124484114 0.13833493 -0.27362692 -0.17943695
0.02614165 -0.17195259 -0.11048292 0.18031959 0.33209807 0.23937495 0.059405446 -0.021705832
0.043508414 -0.21109414 0.058635745 0.029336961 -0.043716528 -0.19093734 -0.02040321 -0.0326043
00000000: 4f96 6a3d 6b3d 843d cfbb efbd e7c1 e33d
00000010: 01a5 7cbe 597a 2d3c 7003 5f3d 8e6d b8bd
00000020: 8ce6 053e d350 973d 340d b8bc fafa eabc
00000030: ae4e b93c 17b0 97bd 7d24 57bd d7e8 063c
00000040: a4ac 99bc 37d7 cfbd 15a4 743e 3d05 ca3d
00000050: 096d 23be a5f2 01bd 1de2 5a3d a5a6 523e
00000060: f868 e53c 7463 02be ad8a 39be caca 5abd
00000070: d375 17bd 5493 1fbd 6071 98bd 9b7b 0e3e
00000080: e1de 95bb a1ef 05bd e902 e8bd 62da 843d
00000090: 7c3b 863e 51a8 3abe c27f 28be 762e a63c
000000a0: 7b4f 02be f9ba 833d 3298 6b3e e9c0 37be
000000b0: 30a5 f23d b82f 623c d512 283d 33d9 593e
000000c0: 405b ce3c 73cc 003d fa75 c13d 01a7 67bd
000000d0: 4cd0 90bd 3896 a7bc 255a 223d 266b b83d
000000e0: 6180 6fbd 6e40 003e ee4c 803c 9176 ca3d
000000f0: 012f c43d caba cabd e56f 183e a45b e8bb
00000100: d731 cebe ae59 c8bd 9107 513d 2af8 2a3b
00000110: 0869 2c3d caf9 5ebd 8e5b ddbd c292 88bd
00000120: aaca 1d3e b24b 83bb 5b65 7a3e c754 ebbd
00000130: 5fac 093d 52c6 4fbe 91d0 623d b312 61be
00000140: dd9b e8bd 502c 9c3e 8d82 da3d b6c4 413d
00000150: ae30 bc3c 46c9 24bc 4967 b0bc 5b11 e93e
00000160: 119b 2d3d 55f8 00bd 86bd 95bd 508f 753d
00000170: 3666 e2bb 4f34 abbd 08a5 febd 3487 2d3e
00000180: 06aa 77bd dfc0 06be dc82 83bd 0cef 713e
00000190: 82e5 d2bd 3593 cbbd 294f 86bd 587a 253e
000001a0: fdec 873d ae6d 15bd b965 b83c 7e97 dabd
000001b0: 10d0 23be 6c0b cfbc bee4 97bd 535d 0bbe
000001c0: 890d 9dbe f4fa d63b 3358 fb3d f9cf bbbd
000001d0: defd 003e a416 fa3d 8f1b de3d d37d 42be
000001e0: 3da5 50be 36ab 80bd 8bb3 c9bd 9e79 96be
000001f0: d3e1 cc3d a9bd aa3c d003 b43d 52e3 86bd
00000200: 672f ed3c 546c 8a3d 4383 c0bd cebd 10bd
00000210: 9d73 c43d 1570 0e3d aac2 31be 254b 1ebe
00000220: f929 a93d 3f0a 3e3d 0242 e93b aa15 d0bd
00000230: eac0 443e e440 513d e6d5 59bd 1f8e a53d
00000240: 71cb 89bc f28e 38be 74d2 3dbd fd7b 6dbd
00000250: dba9 163e 3db3 4ebe a250 fb3a 4e63 583d
00000260: b20e 1d3c a65a 7abe 5f7d 143e 9eec 90bd
00000270: 07d9 003e 709b 3b3d 9c2b e03d 4669 333c
00000280: fa66 0a3e 96c6 233e 7e82 313d ce27 993e
00000290: b6b4 8dbc 9a50 46be d45f 7fbb 68d7 0bbe
000002a0: b9e2 88be b80e f73c 6404 513e d674 2d3d
000002b0: 14f2 82bc 2f87 27be b947 b2bd 0513 56be
000002c0: 6829 b5bd a8de 2cbb 92d1 66bd a091 6fbd
000002d0: c57d 613d c0d3 bf3d 0583 1f3d e432 68bd
000002e0: f424 ee3d ef46 fe3c aac6 d03d 4632 89bc
000002f0: 548a 2fbc 406f 65bc caac 163d e721 b7bd
00000300: 4355 e8bd f9d3 04be 251d 04bb a6ff 4fbc
00000310: 8f0e 46be 2a09 e1bc 5b02 8cbc bcb2 83bd
00000320: 3214 89bd 638b 8bbc 5654 a43c 5274 5bbc
00000330: 3ae8 8cbc 5d8d 033e 37f8 02be d996 163e
00000340: 2a3d 83bd 6ee1 443c 3f6d 323e e770 5ebd
00000350: 4a6f 403e 3297 88be acc6 3a3e 8d60 a83e
00000360: fc82 bd3c 2135 86bd 5d08 253e 9946 413d
00000370: 8c3e 843d c5fe 8c3d 91d7 3abe 0fc5 0fbe
00000380: 8386 1cbe 5d3d c73d 919a 1d3e 9159 2d3d
00000390: ccd3 ddbc 25c3 983e ccf4 69bc c6ac 5c3e
000003a0: 82ad 37be ba2e 2ebe e71f adbd a366 b0bd
000003b0: 87f1 febd aca7 0d3e d418 8cbe 52be 37be
000003c0: 0327 d63c 5714 30be df44 e2bd b3a5 383e
000003d0: c208 aa3e b51e 753e 2053 733d 6ed0 b1bc
000003e0: e135 323d 1029 58be 092c 703d 1154 f03c
000003f0: 1a10 33bd 1485 43be a224 a7bc 168c 05bd

network_body._body_endoder.seq_layers.0.bias f4 [128]
0.01883334 -0.0015116902 0.010745938 -0.029598674 0.0041125836 0.012439675 0.013316942 0.005318931
0.011113083 0.03625122 0.011419203 0.0035362125 -0.006178815 -0.021023503 -0.014071168 0.018712377
0.010696978 -0.01375895 0.03884103 -0.023267291 -0.006290038 0.005068971 0.020678109 -0.00313833
0.0142096905 -0.006609296 -0.018227676 -0.019923994 -0.014789732 0.009957405 0.0023674557 0.027485127
0.010346772 -0.0016513501 -0.0046135043 0.013508083 0.028225834 -0.0016916787 0.0005080914 -0.018787503
-0.015170879 0.00859843 -0.02330493 0.0114660915 -0.005993701 -0.016767241 -0.02630472 -0.00013979296
-0.0018301337 -1.4168472e-05 0.021268629 0.010829268 -0.016306588 0.0047666817 0.0055159098 0.0006776177
-0.009115345 0.017860398 0.0023060697 -0.016191682 0.021440007 0.005806682 -0.0007130518 -0.0101747215
0.007991758 0.028786156 -0.014912562 -0.0070176967 -0.010976947 -0.013650746 0.01671489 0.018292684
-0.022367306 -0.015105595 0.019231075 0.011842093 0.011826395 0.0037410704 -0.00057798123 0.030892689
0.017546145 -0.009270189 0.0005747266 -0.026163945 -0.005213359 0.03943593 0.033460673 -7.879567e-05
-0.013734667 -0.012746879 -0.010773138 0.0094801495 -0.019729061 -0.01323533 0.020180786 0.00746459
0.014506768 0.003979855 0.0064592003 0.010105098 -0.0008391213 -0.0020769434 0.007585122 -0.01728973
0.0467655 0.005240418 -0.00605491 -0.019807722 -0.008036374 0.018860921 0.017292164 0.0072791697
0.0281752 -0.006612571 -0.0011859267 -0.0063469354 0.018136773 0.011085626 0.029746585 0.0038653363
0.0030366024 0.003823726 0.019784257 0.008807698 0.00036826052 -0.016312292 0.0049557853 0.016158719
00000000: 6048 9a3c e823 c6ba bb0f 303c eb78 f2bc
00000010: dac2 863b c7cf 4b3c 4e2f 5a3c 6d4a ae3b
00000020: a613 363c 297c 143d 9c17 3b3c cdbf 673b
00000030: a877 cabb 7b39 acbc c28a 66bc b34a 993c
00000040: 6142 2f3c 386d 61bc c617 1f3d 0c9b bebc
00000050: aa1c cebb 9c19 a63b 2365 a93c 71ac 4dbb
00000060: c3cf 683c cb92 d8bb 3552 95bc a537 a3bc
00000070: a250 72bc 6224 233c 5127 1b3b 7d28 e13c
00000080: 8285 293c 1d72 d8ba e12c 97bb 0251 5d3c
00000090: dd39 e73c 51bb ddba 7031 053a 40e8 99bc
000000a0: 478f 78bc 6ee0 0c3c fbe9 bebc 46dc 3b3c
000000b0: cf66 c4bb 745b 89bc ff7c d7bc 6395 12b9
000000c0: 19e1 efba 20b5 6db7 8c3b ae3c 3e6d 313c
000000d0: 6595 85bc d331 9c3b cebe b43b 27a2 313a
000000e0: 8758 15bc f84f 923c 6e21 173b 6ba4 84bc
000000f0: f4a2 af3c fb45 be3b 19ec 3aba e0b3 26bc
00000100: ddef 023c f2d0 eb3c d253 74bc b5f4 e5bb
00000110: a7d8 33bc 61a7 5fbc aaed 883c 8ada 953c
00000120: a43b b7bc 757d 77bc 7d8a 9d3c 5705 423c
00000130: 7fc3 413c bf2c 753b aa83 17ba aa12 fd3c
00000140: efbc 8f3c fee1 17bc 40a9 163a c555 d6bc
00000150: d3d4 aabb 9287 213d 0f0e 093d 1a3f a5b8
00000160: 5e07 61bc 49d8 50bc d181 30bc a152 1b3c
00000170: d79e a1bc ffd8 58bc 2d52 a53c 8599 f43b
00000180: ccad 6d3c 7269 823b b3a7 d33b da8f 253c
00000190: 7af8 5bba 541d 08bb 9d8c f83b 31a3 8dbc
000001a0: 2e8d 3f3d d0b7 ab3b 4468 c6bb ce43 a2bc
000001b0: ffaa 03bc 3882 9a3c 4ca8 8d3c 1a86 ee3b
000001c0: adcf e63c 44ae d8bb 1971 9bba f4f9 cfbb
000001d0: 9293 943c 7ca0 353c 1caf f33c 9551 7d3b
000001e0: bc01 473b 7a97 7a3b 9812 a23c 2a4e 103c
000001f0: 1713 c139 5ba1 85bc 2464 a23b 4a5f 843c

network_body._body_endoder.seq_layers.2.weight f4 [128, 128]
-0.12768847 -0.075401835 -0.046372972 0.03264193 0.09450122 0.11316042 0.1564917 -0.067050524
-0.027613146 -0.05310282 0.14210288 -0.19263533 -0.05629556 0.083157085 -0.079855286 0.07561888
-0.1818918 0.050728235 -0.08712258 0.07170256 -0.15612683 0.02662866 -0.021818718 0.03254006
0.03304205 0.07950997 -0.044757903 -0.011318022 -0.011742322 -0.055420235 -0.03605784 0.14457764
-0.083371066 -0.010370452 -0.11573262 0.07276333 -0.11684637 0.0083463555 0.26549172 0.044760495
-0.045163214 0.06618609 -0.00802018 0.13542156 0.04218733 -0.084511414 0.041814175 0.060409807
-0.029556466 -0.07476359 -0.17526701 0.0770427 -0.21322909 0.039584562 -0.02891586 0.05693657
0.006424891 0.083673775 0.16885924 -0.07212646 0.017714476 0.06780038 0.015757367 0.014614862
-0.079881385 0.038298357 0.04197282 0.004410788 -0.15315177 0.1304467 0.09695763 -0.11588251
0.012369925 -0.045764294 -0.08354287 -0.023577083 -0.007958945 -0.1533587 -0.003280931 -0.11830063
-0.11077052 -0.19446498 0.073626734 0.030794136 -0.031054452 -0.038179096 -0.028536811 0.073944345
-0.007855537 -0.020824838 0.0009876156 -0.029255899 -0.16791657 -0.008580563 -0.0032946684 0.12235973
-0.06873734 0.022224432 0.0110360645 0.00858359 0.1338702 -0.015710704 0.032923292 -0.07883074
-0.03788105 0.0031938767 -0.056562994 -0.12721057 -0.07890191 -0.063762255 0.04509517 -0.04534169
0.012008549 0.10143714 0.072737314 0.2386166 -0.058528222 0.012912732 -0.0704165 0.02581734
0.080354914 -0.10894304 0.028496062 -0.08122321 -0.11931822 0.035263043 0.15704812 -0.041712664
0.14048976 0.11923884 -0.08989322 -0.1564359 0.1460365 0.03105843 0.04549699 0.18444633
-0.093706325 0.05015216 0.07413788 -0.10753052 0.006081675 0.033074316 -0.02272521 0.038009144
-0.11861164 -0.04048244 0.048706118 -0.0002508042 0.034082938 -0.012863185 0.044527475 0.12003147
0.1319587 -0.026906872 -0.15466757 -0.049058676 0.09460197 -0.026014917 -0.035286184 -0.17726974
0.020463103 0.0766627 -0.076227315 -0.005225294 -0.049373925 -0.16871394 0.017999768 -0.07020244
-0.15376002 -0.077917285 -0.04479337 -0.13863806 0.0066266456 -0.055337563 0.115808524 -0.10280561
0.065687835 0.04042238 -0.14105688 0.052685346 -0.034626644 0.07993181 0.02556441 -0.06922664
-0.17865226 -0.07388122 -0.14935812 0.11025801 0.062768295 -0.10243501 0.016300377 0.024440255
0.11498569 0.12546293 0.12421577 -0.032817036 -0.17579126 0.01580552 -0.036037546 -0.09154484
0.11198732 0.051775232 -0.06635538 -0.041123435 0.08383127 0.051493485 0.013968369 -0.06582759
-0.011046395 0.045268618 0.14525752 -0.0009930629 0.06497214 0.06754615 -0.024405375 0.019382874
0.030988045 -0.11418121 0.11311879 -0.07176566 0.065761566 0.085150145 -0.036425598 -0.028449828
0.014049452 -0.03188937 0.111723654 -0.031086482 -0.021861313 -0.046840716 -0.11329449 0.11665466
-0.11846183 0.008295289 -0.2557248 -0.07354314 0.016583383 0.05609036 0.06418399 0.048290472
-0.03907589 0.079191126 0.06737245 0.1772544 -0.16084744 -0.061069775 -0.018357288 0.12006034
-0.12790738 -0.06574119 -0.11273064 -0.08849131 -0.042847753 -0.019969892 0.10704072 -0.0295923
00000000: c4c0 02be 476c 9abd 96f1 3dbd 8bb3 053d
00000010: db89 c13d a6c0 e73d 5c3f 203e c951 89bd
00000020: f734 e2bc 5882 59bd 6b83 113e 3242 45be
00000030: 2c96 66bd 434e aa3d 2b8b a3bd 12de 9a3d
00000040: d841 3abe 69c8 4f3d 536d b2bd cbd8 923d
00000050: b6df 1fbe 5924 da3c 2bbd b2bc ba48 053d
00000060: 1a57 073d 20d6 a23d 1054 37bd 3a6f 39bc
00000070: de62 40bc 5400 63bd 63b1 13bd 290c 143e
00000080: 73be aabd d4e8 29bc 3905 edbd f104 953d
00000090: 264d efbd 27bf 083c 88ee 873e c856 373d
000000a0: 10fd 38bd 938c 873d 1367 03bc f3ab 0a3e
000000b0: 9fcc 2c3d 5214 adbd 5745 2b3d 4670 773d
000000c0: 6720 f2bc a71d 99bd 3279 33be 90c8 9d3d
000000d0: ba58 5abe 6c23 223d f4e0 ecbc 5236 693d
000000e0: e487 d23b 285d ab3d 70e9 2c3e 0ab7 93bd
000000f0: f31d 913c edda 8a3d 9815 813c 2d73 6f3c
00000100: da98 a3bd bdde 1c3d b1eb 2b3d 5f88 903b
00000110: d1d3 1cbe d293 053e b991 c63d cf53 edbd
00000120: 3aab 4a3c 5773 3bbd 8618 abbd ba24 c1bc
00000130: 3c66 02bc 100a 1dbe e304 57bb 9a47 f2bd
00000140: a8db e2bd d421 47be 9dc9 963d fc43 fc3c
00000150: e865 febc af61 1cbd 08c6 e9bc 2270 973d
00000160: 83b4 00bc da98 aabc e172 813a 11aa efbc
00000170: 52f2 2bbe 7d95 0cbc 5deb 57bb bd97 fa3d
00000180: 2ac6 8cbd 0310 b63c 9cd0 343c 30a2 0c3c
00000190: 4515 093e bcb3 80bc 93da 063d 0372 a1bd
000001a0: 2929 1bbd 5c50 513b 99ae 67bd 7d43 02be
000001b0: 5397 a1bd c995 82bd b7b5 383d 35b8 39bd
000001c0: 81bf 443c 46be cf3d 4df7 943d e957 743e
000001d0: 4abb 6fbd ec8f 533c 8736 90bd e37e d33c
000001e0: 1e91 a43d 871d dfbd 9370 e93c 5b58 a6bd
000001f0: 1c5d f4bd fb6f 103d 39d1 203e e6da 2abd
00000200: 8cdc 0f3e 7e33 f43d f019 b8bd bc30 20be
00000210: 988a 153e 406e fe3c 0d5b 3a3d 80df 3c3e
00000220: 1ae9 bfbd 5a6c 4d3d 9ad5 973d f638 dcbd
00000230: ca48 c73b ef78 073d 382a babc 7aaf 1b3d
00000240: a9ea f2bd ead0 25bd 1180 473d 5f7e 83b9
00000250: 8d9a 0b3d 1cc0 52bc 7162 363d 0fd3 f53d
00000260: 2e20 073e cd6b dcbc 2d61 1ebe c0f1 48bd
00000270: adbe c13d 3c1d d5bc 3f88 10bd 3386 35be
00000280: 3da2 a73c 5501 9d3d 111d 9cbd f138 abbb
00000290: 503c 4abd 59c3 2cbe 4074 933c 4cc6 8fbd
000002a0: 4473 1dbe 1993 9fbd 4179 37bd 23f7 0dbe
000002b0: 5524 d93b a4a9 62bd 052d ed3d bf8b d2bd
000002c0: 5887 863d f091 253d 3771 10be 97cc 573d
000002d0: abd4 0dbd 4ab3 a33d 746c d13c b2c6 8dbd
000002e0: 9ef0 36be 094f 97bd 56f1 18be f4ce e13d
000002f0: aa8c 803d 72c9 d1bd 5e88 853c ee36 c83c
00000300: 9e7d eb3d 5b79 003e d664 fe3d 286b 06bd
00000310: a002 34be 947a 813c 1b9c 13bd dc7b bbbd
00000320: 9c59 e53d 4412 543d 54e5 87bd 0c71 28bd
00000330: bbaf ab3d d5ea 523d 96db 643c 9ed0 86bd
00000340: f0fb 34bc 966b 393d 63be 143e a929 82ba
00000350: 1d10 853d a355 8a3d c8ed c7bc d5c8 9e3c
00000360: a4da fd3c d7d7 e9bd d3aa e73d e0f9 92bd
00000370: 00ae 863d 3363 ae3d 0233 15bd 9d0f e9bc
00000380: ac2f 663c 6e9e 02bd 5fcf e43d 14a9 febc
00000390: 7f16 b3bc 0ddc 3fbd f106 e8bd a3e8 ee3d
000003a0: 1e9c f2bd f7e8 073c 5cee 82be c99d 96bd
000003b0: e0d9 873c 01bf 653d e572 833d 3bcc 453d
000003c0: 0a0e 20bd f52e a23d 91fa 893d 2d82 353e
000003d0: 31b5 24be 4d24 7abd 0662 96bc 32e2 f53d
000003e0: 27fa 02be 51a3 86bd 52df e6bd ef3a b5bd
000003f0: 2081 2fbd e697 a3bc 2a38 db3d 8d6b f2bc

network_body._body_endoder.seq_layers.2.bias f4 [128]
0.001489298 0.008540762 0.016640836 0.0070302435 -0.0028519975 -0.0013645964 -0.011961031 0.008365633
0.015338816 0.011702504 -0.009468517 0.0020843125 0.021832995 0.0066553196 0.0010978174 -0.0051205545
-0.004255601 0.0007099361 -0.00819905 -0.0019889842 1.7728516e-05 0.002639435 0.0076530958 -0.0019299921
-0.021238608 -0.0021435989 0.008050016 -0.0015995619 -0.015974062 0.0057237605 -0.00067645626 0.00058095227
0.012235178 0.012884159 0.015865427 -0.0072858296 -0.013611963 0.018602071 -0.006311226 0.0096388
-0.008837709 -0.025784029 0.0095392065 -0.003972501 0.005421305 0.008876733 0.022724701 0.0064632613
0.022672303 -0.0010344128 -0.007723971 0.0100283865 -0.016861757 -0.002745084 -0.013692624 0.0035999015
-0.00034612627 -0.017154507 -0.01753817 -0.004107311 0.0038619223 0.005090057 0.0037099444 -0.005971427
0.010413798 0.010191765 -0.005163068 0.01445035 0.0026426995 -0.0057001295 0.0027045454 -0.006512925
-0.018963413 0.010891028 -0.0069912444 0.0042182077 -0.0076779514 -0.0070215417 0.0011808106 0.0042183646
-0.00997965 -0.009432513 0.005116098 0.00819632 -0.002800882 0.0074707 -0.001592761 0.014088939
0.011427676 0.010981784 0.0001832154 -0.008027027 0.010317954 0.0032709697 0.017489431 -0.00026846645
0.0003713923 -0.0045758816 0.018910566 -0.0026650787 0.0043615038 -0.009593116 0.010179046 -0.0013277481
-0.014109109 -0.002974378 -0.022908114 0.0061363797 0.0021185502 -0.019125883 0.005743819 -0.0038168612
0.0039797765 0.015894094 0.02099259 0.0068421867 -0.020928904 -0.01095199 -0.012329163 -0.0069501796
0.007678028 -0.008130186 -0.023107734 -0.01019428 0.0033996876 0.00034363003 -0.0009068875 0.010855299
00000000: 8c34 c33a 8dee 0b3c 5d52 883c f55d e63b
00000010: 94e8 3abb 42dc b2ba 33f8 43bc 0210 093c
00000020: a84f 7b3c dcbb 3f3c d721 1bbc f698 083b
00000030: 1cdb b23c de14 da3b a4e4 8f3a 53ca a7bb
00000040: 9272 8bbb 011b 3a3a 4f55 06bc 9e59 02bb
00000050: b3b7 9437 5ffa 2c3b d2c6 fa3b caf7 fcba
00000060: 97fc adbc 9f7b 0cbb 37e4 033c 64a8 d1ba
00000070: 09dc 82bc 628e bb3b 3654 31ba 0c4b 183a
00000080: 0e76 483c 1418 533c 36f8 813c f8bd eebb
00000090: b604 5fbc 5f63 983c 67ce cebb 0fec 1d3c
000000a0: 0acc 10bc 0739 d3bc 554a 1c3c c12b 82bb
000000b0: 34a5 b13b b76f 113c 2729 ba3c c4c9 d33b
000000c0: 44bb b93c 2295 87ba 5d19 fdbb 1a4e 243c
000000d0: ab21 8abc dee6 33bb 0757 60bc 53ec 6b3b
000000e0: 4878 b5b9 9c87 8cbc 35ac 8fbc 9f96 86bb
000000f0: 4e18 7d3b 7eca a63b 8a22 733b f6ab c3bb
00000100: a29e 2a3c 5cfb 263c f42e a9bb 29c1 6c3c
00000110: 2431 2d3b 27c8 babb be3e 313b 606a d5bb
00000120: 2959 9bbc 4870 323c cf16 e5bb e438 8a3b
00000130: 5397 fbbb f614 e6bb 6ec5 9a3a 353a 8a3b
00000140: b081 23bc d48a 1abc f1a4 a73b dc49 063c
00000150: 018f 37bb c6cc f43b 31c4 d0ba 4bd5 663c
00000160: 263b 3b3c f1ec 333c 821d 4039 cb83 03bc
00000170: a30c 293c c45d 563b ff45 8f3c f5c0 8cb9
00000180: 6eb7 c239 47f1 95bb 55ea 9a3c 9aa8 2ebb
00000190: f2ea 8e3b 722c 1dbc 03c6 263c d507 aeba
000001a0: e429 67bc c8ed 42bb cca9 bbbc af13 c93b
000001b0: 60d7 0a3b e2ad 9cbc a536 bc3b 4e24 7abb
000001c0: c968 823b 5534 823c a7f8 ab3c 6c34 e03b
000001d0: 1873 abbc fa6f 33bc 4200 4abc 55be e3bb
000001e0: f897 fb3b 7934 05bc 6e4c bdbc e905 27bc
000001f0: 4bcd 5e3b 3e29 b439 31bc 6dba 6dda 313c

action_model._continuous_distribution.log_sigma f4 [1, 2]
0.07776544 0.06500483
00000000: 7d43 9f3d 4121 853d

action_model._continuous_distribution.mu.weight f4 [2, 128]
0.042954717 0.0033228637 -0.040552642 0.005967002 0.0210678 0.020111995 0.0011571168 -0.010482225
-0.027603427 -0.0022420625 -0.027714895 0.06046011 -0.0032973841 -0.025237095 -0.015829239 -0.002823815
-0.0128656 0.0479097 0.05250721 -0.011553222 -0.009246935 -0.02696855 -0.05048534 0.022847502
-0.00072205486 -0.017966127 0.009582333 0.014431651 -0.00032223391 -0.050301287 0.027931843 0.0054488895
-0.025235986 -0.008903 0.055188224 -0.0070025832 0.012996033 -0.049894094 0.033156227 -0.010203236
0.03684864 0.0060157403 -0.05738474 -0.0046100197 0.03705668 0.018541837 -0.09531793 0.03848365
0.0052571474 0.009647204 -0.006427304 -0.06480618 0.008968231 0.027975097 -0.01943267 -0.032738484
0.030245043 -0.0047462503 -0.015048738 -0.01773522 0.010291003 0.0086578615 0.0071050213 -0.009616326
0.046626132 0.00035086522 -0.015374982 0.047892187 -0.006441293 -0.02158177 -0.035034038 0.022521656
0.017486818 -0.024745105 0.01826197 0.0029924924 -0.040159486 0.017535733 0.040897556 0.020478433
0.009955337 -0.0018142026 -0.01328379 0.00078105985 -0.016695341 -0.031120542 0.01032763 -0.0059636505
-0.04104679 -0.041324414 0.035384953 0.01979129 0.05296387 0.008987495 -0.028799241 0.0044107763
-0.031899694 0.018066248 0.017785283 0.0013445435 0.0014293938 -0.010476843 0.026020227 0.02992983
0.015722517 -0.005237287 0.0023567164 0.048738763 0.00897494 -0.0006622123 0.015158834 0.038720828
-0.0078381775 0.02318121 -0.034400746 -0.044734962 0.0035212887 0.016370272 8.7403096e-05 -0.010576783
0.016287675 0.022100827 0.00701775 0.015597189 0.037120678 0.0001259282 0.011112895 -0.046866555
-0.015734753 -0.012410126 0.054511998 -0.018937787 -0.005756601 0.0036701192 0.030382764 -0.01750529
0.002477951 -0.0345829 0.029248705 -0.028606804 -0.05342397 -0.01756238 0.019487355 0.0469154
-0.00095654 -0.0028879298 0.0027090644 -0.0028027343 0.042657714 -0.0025806709 0.071160614 -0.0066299033
0.010967597 0.02452539 -0.008503475 0.03125754 0.020444728 -0.009158882 -0.017964192 0.0021545931
0.035112366 -0.021250933 -0.024445295 0.0541154 0.005337638 -0.05890669 0.013963905 -0.040821087
0.0084265405 0.026666537 0.0054356866 -0.0043306914 -0.009556248 -0.032986753 0.057332072 -0.026619935
-0.052736282 -0.013672195 0.04134398 0.05189365 0.0047289985 -0.011144742 0.006750836 -0.025538964
0.023487585 0.006117757 0.019409742 -0.0184395 -0.008986391 -0.024384307 -0.0032942826 0.045808285
-0.034992523 0.0044308756 0.034106746 -0.030687377 -0.019191502 -0.006331802 0.058641266 0.01532418
0.006563786 -0.03312552 -0.0044336305 -0.03226372 0.059175193 0.03388296 -0.01601204 -0.023015091
0.0017494179 0.026694426 -0.020103956 -0.043350685 -0.0037727763 0.018247837 0.0020231374 -0.023668794
-0.026299661 -0.0031784617 0.018439492 0.008792282 -0.02840968 -0.008709051 -0.012278275 -0.0030281919
-0.011231682 0.03820662 -0.05891411 0.0068911156 0.019229995 0.0028716594 -0.016484661 -0.0017960467
-0.0007400404 -0.020810584 0.016980544 -0.028649474 -0.038171183 0.0055761593 -0.007145481 0.010662196
0.005280091 -0.052310918 0.01240726 -0.015931258 0.017261872 0.0006107299 -0.00013244529 0.035831876
-0.011278169 -0.0002091243 0.0010273518 0.027828874 -0.0015201572 0.04283047 0.044935673 0.005961367
00000000: 49f1 2f3d 67c4 593b 871a 26bd d786 c33b
00000010: 6196 ac3c e9c1 a43c 66aa 973a a3bd 2bbc
00000020: 9520 e2bc 91ef 12bb 590a e3bc 05a5 773d
00000030: ed18 58bb 06be cebc 52ac 81bc c10f 39bb
00000040: 3dca 52bc f63c 443d cd11 573d ba49 3dbc
00000050: 7580 17bc 26ed dcbc b7c9 4ebd af2a bb3c
00000060: 4848 3dba b32d 93bc 38ff 1c3c bb72 6c3c
00000070: 81f1 a8b9 b908 4ebd 52d1 e43c 998c b23b
00000080: b3bb cebc e3dd 11bc 0c0d 623d ed75 e5bb
00000090: 50ed 543c c05d 4cbd d3ce 073d 792b 27bc
000000a0: 99ee 163d b01f c53b 430c 6bbd a60f 97bb
000000b0: bfc8 173d 0de5 973c 0c36 c3bd 08a1 1d3d
000000c0: 2644 ac3b 4e0f 1e3c 229c d2bb 1ab9 84bd
000000d0: 7def 123c 082c e53c 4331 9fbc ca18 06bd
000000e0: 74c4 f73c 6f86 9bbb fb8e 76bc 7449 91bc
000000f0: 989b 283c b4d9 0d3c 3dd1 e83b cb8d 1dbc
00000100: 0bfb 3e3d 55f4 b739 59e7 7bbc 992a 443d
00000110: 7b11 d3bb 41cc b0bc da7f 0fbd 567f b83c
00000120: 8440 8f3c 3fb6 cabc 209a 953c b11d 443b
00000130: 467e 24bd 19a7 8f3c 3284 273d 63c2 a73c
00000140: b61b 233c 8aca edba 41a4 59bc 0ac0 4c3a
00000150: abc4 88bc 82f0 febc 3835 293c ba6a c3bb
00000160: ae20 28bd ca43 29bd d0ef 103d 5821 a23c
00000170: a5f0 583d 4940 133c 63ec ebbc 4688 903b
00000180: 41a9 02bd abff 933c 71b2 913c 653b b03a
00000190: 7f5a bb3a 11a7 2bbc 5f28 d53c 672f f53c
000001a0: 82cc 803c 8c9d abbb 2473 1a3b 4ca2 473d
000001b0: a00b 133c 5198 2dba c25c 783c bb99 1e3d
000001c0: b36b 00bc 85e6 bd3c cce7 0cbd 023c 37bd
000001d0: 6cc5 663b f31a 863c 2e4c b738 3e4a 2dbc
000001e0: bb6d 853c cb0c b53c 27f5 e53b 5a8b 7f3c
000001f0: da0b 183d 980b 0439 dc12 363c 25f7 3fbd
00000200: 2be6 80bc d753 4bbc f947 5f3d 6b23 9bbc
00000210: dfa1 bcbb 6286 703b 46e5 f83c 4167 8fbc
00000220: 1f65 223b cda6 0dbd fb9a ef3c d158 eabc
00000230: 18d3 5abd fbde 8fbc f2a3 9f3c 5d2a 403d
00000240: 50c0 7aba 6c43 3dbb 8f8a 313b 14ae 37bb
00000250: dbb9 2e3d 7920 29bb a8bc 913d a93f d9bb
00000260: 70b1 333c 78e9 c83c 2952 0bbc e807 003d
00000270: b47b a73c 230f 16bc a429 93bc 1334 0d3b
00000280: fcd1 0f3d 7016 aebc 8041 c8bc 1ca8 5d3d
00000290: 5ae7 ae3b 2448 71bd ddc8 643c 0334 27bd
000002a0: 790f 0a3c c873 da3c d81d b23b 79e8 8dbb
000002b0: cf91 1cbc 1e1d 07bd 09d5 6a3d 0d12 dabc
000002c0: 0002 58bd 5801 60bc 4e58 293d 708e 543d
000002d0: b7f5 9a3b 7098 36bc 1e36 dd3b 1737 d1bc
000002e0: 0969 c03c 7777 c83b 2e01 9f3c 6f0e 97bc
000002f0: a83b 13bc 99c1 c7bc e4e4 57bb 78a1 3b3d
00000300: 5254 0fbd e130 913b 84b3 0b3d 1864 fbbc
00000310: 7f37 9dbc 017b cfbb d331 703d 4512 7b3c
00000320: 0715 d73b a0ae 07bd fd47 91bb f626 04bd
00000330: b061 723d dcc8 0a3d af2b 83bc 258a bcbc
00000340: b94c e53a 45ae da3c 0db1 a4bc 7d90 31bd
00000350: af40 77bb 7d7c 953c 9d96 043b 0fe5 c1bc
00000360: 6372 d7bc bd4d 50bb 6b0e 973c 810d 103c
00000370: 6bbb e8bc 68b0 0ebc d12a 49bc a174 46bb
00000380: 1705 38bc 8b7e 1c3d ec4f 71bd dece e13b
00000390: 3988 9d3c 7332 3c3b d70a 87bc 5469 ebba
000003a0: 45ff 41ba f57a aabc c81a 8b3c 4db2 eabc
000003b0: 6359 1cbd 37b8 b63b a424 eabb 7eb0 2e3c
000003c0: 9d04 ad3b f943 56bd d247 4b3c 4582 82bc
000003d0: c568 8d3c 6419 203a 03e1 0ab9 72c4 123d
000003e0: 12c8 38bc 6048 5bb9 35a8 863a 61f9 e33c
000003f0: 0340 c7ba 016f 2f3d 780e 383d 9257 c33b

action_model._continuous_distribution.mu.bias f4 [2]
0.0011799182 -0.01683999
00000000: 7ca7 9a3a 05f4 89bc

action_model._discrete_distribution.branches.0.weight f4 [1, 128]
-0.0006414977 -0.01256073 0.0040147062 0.017735627 0.01068741 0.019235754 0.0027582147 -0.004507214
-0.003910408 -0.008106065 0.015107944 -0.0048665 -0.009191282 -0.00094883464 -0.0053568105 -0.015403355
-0.0024509125 -0.007361059 0.0052883714 -0.0025712175 0.0035879083 0.0029730657 -0.009692977 -0.0038257434
-0.007693858 0.007340435 -0.013831103 0.009811807 0.004960068 -0.0017616492 0.0053089634 0.0022222865
0.009665216 -0.016826231 0.009300466 -0.018176017 0.00014960521 -0.008936646 -0.0061275554 -0.0008941886
-0.00068264664 -0.0034822677 -0.010159076 -0.013534143 0.007967307 0.0135300355 -0.016782718 -0.0017551832
-0.009471513 -0.0109218815 0.000800523 0.001758166 -0.01792595 0.00758242 -0.009930706 0.005387748
-0.0058596334 -0.0075317905 0.005543592 1.7463868e-05 0.003811581 -0.0108401375 0.0026376564 0.010288145
0.0021686123 0.011800284 -0.014043437 -0.009011206 -0.0098595265 0.003825544 0.005584477 -0.006425347
0.010084947 0.0041862517 -0.01752117 0.009906674 -0.004973318 0.007540151 -0.004798665 0.0059580193
0.0072090076 5.5377513e-05 0.0020555253 0.007702379 0.0066205994 -0.003124221 -0.026501581 -0.0051531256
0.01437069 0.0013216573 0.0019369879 -0.01208043 -0.006342664 -0.006547753 -0.010820722 0.004056435
-0.009829345 0.014057065 -0.010259639 0.0032670181 -0.0087555135 0.019960087 -0.0007717859 0.010081315
0.0030281784 -0.013951081 0.00037876688 0.005452687 0.0044888603 0.0015586695 -0.005426707 -0.023651375
0.001714562 -0.00522234 -0.010061858 -0.010334093 0.0073807114 0.0018784631 -0.0044320268 0.0023977922
-0.00017387788 -0.0081127295 -0.018996986 0.0016716769 -0.0047114524 -0.013125533 0.0023308403 -0.0010279812
00000000: 2f2a 28ba 85cb 4dbc cc8d 833b 4e4a 913c
00000010: 3f1a 2f3c 4d94 9d3c 2ac3 343b 40b1 93bb
00000020: e122 80bb 4dcf 04bc 4f87 773c 2977 9fbb
00000030: 0897 16bc 37bb 78ba 2f88 afbb 5a5e 7cbc
00000040: 7d9f 20bb 0a35 f1bb 134a ad3b df81 28bb
00000050: 1d23 6b3b c4d7 423b 4bcf 1ebc 53b9 7abb
00000060: c21c fcbb 0888 f03b da9b 62bc b4c1 203c
00000070: 1188 a23b 23e7 e6ba d0f6 ad3b c8a3 113b
00000080: db5a 1e3c 2ad7 89bc fb60 183c dfe5 94bc
00000090: 58df 1c39 036b 12bc a9c9 c8bb fb67 6aba
000000a0: a4f3 32ba c236 64bb 4172 26bc 4fbe 5dbc
000000b0: 4f89 023c 15ad 5d3c e97b 89bc 2d0e e6ba
000000c0: 682e 1bbc b1f1 32bc 30da 513a 4372 e63a
000000d0: 71d9 92bc f375 f83b 66b4 22bc b58b b03b
000000e0: 2b02 c0bb 3dcd f6bb 05a7 b53b 5f7f 9237
000000f0: b8cb 793b d59a 31bc 88dc 2c3b 9c8f 283c
00000100: 471f 0e3b fa55 413c 7216 66bc bda3 13bc
00000110: da89 21bc fab5 7a3b fdfd b63b b88b d2bb
00000120: 553b 253c d32c 893b 8f88 8fbc 9a4f 223c
00000130: 37f7 a2bb 5f13 f73b 1f3e 9dbb 7d3b c33b
00000140: 8a39 ec3b 2745 6838 feb5 063b 3d64 fc3b
00000150: 9df1 d83b bbbf 4cbb d819 d9bc 8ddb a8bb
00000160: 0b73 6b3c 763b ad3a 87e2 fd3a ffec 45bc
00000170: 1fd6 cfbb 888e d6bb 6649 31bc d8eb 843b
00000180: 430b 21bc 9b4f 663c 0b18 28bc 781b 563b
00000190: 4973 0fbc 5683 a33c ad51 4aba 1a2c 253c
000001a0: 6774 463b 1393 64bc 3b95 c639 74ac b23b
000001b0: 4a17 933b 454c cc3a 85d2 b1bb 87c0 c1bc
000001c0: 27bb e03a 2a20 abbb 7eda 24bc 5450 29bc
000001d0: e5d9 f13b c336 f63a 893a 91bb 4724 1d3b
000001e0: fd52 36b9 41eb 04bc 919f 9bbc 2b1c db3a
000001f0: 8762 9abb 7a0c 57bc 03c1 183b 53bd 86ba

exp_avg f4 [128, 66]
6.5976856e-05 6.5976856e-05 6.5976856e-05 1.4962412e-05 -2.5535506e-05 6.9561145e-05 4.1487318e-05 -0.006873734
-1.8011171e-05 3.310176e-05 -7.2526186e-06 -1.9418845e-05 1.638484e-05 -9.223355e-05 1.9041665e-05 -4.1820218e-05
1.6020475e-05 -2.6227794e-05 0.0 1.6494232e-06 0.0 3.2988428e-05 1.6494232e-06 -3.2988428e-05
3.2988428e-05 1.6494232e-06 3.2988428e-05 -3.2988428e-05 1.6494232e-06 3.2988428e-05 0.0 1.6494232e-06
0.0 6.456765e-05 6.456765e-05 6.456765e-05 1.5810941e-05 -2.8539243e-05 6.918163e-05 4.0632418e-05
-0.0068795756 -1.9194555e-05 3.3127704e-05 -1.0049351e-05 -1.736804e-05 1.5934107e-05 -9.446305e-05 1.8884692e-05
-4.072156e-05 1.5460402e-05 -2.6292979e-05 0.0 1.6141934e-06 0.0 3.2283824e-05 1.6141934e-06
-3.2283824e-05 3.2283824e-05 1.6141934e-06 3.2283824e-05 -3.2283824e-05 1.6141934e-06 3.2283824e-05 0.0
1.6141934e-06 0.0 3.5678953e-05 3.5678953e-05 3.5678953e-05 -2.3299728e-05 7.546387e-06 -8.729938e-06
2.3693876e-05 -0.0008255261 1.7028578e-05 1.2203329e-05 -1.1590132e-05 -2.5179408e-05 8.734868e-06 -7.52874e-05
4.0173536e-06 -2.1993066e-05 1.0726133e-05 -1.6924892e-05 0.0 8.919746e-07 0.0 1.7839477e-05
8.919746e-07 -1.7839477e-05 1.7839477e-05 8.919746e-07 1.7839477e-05 -1.7839477e-05 8.919746e-07 1.7839477e-05
0.0 8.919746e-07 0.0 3.445617e-05 3.445617e-05 3.445617e-05 -2.2033553e-05 5.4422526e-06
-1.035229e-05 2.2873095e-05 -0.0008319298 1.6074815e-05 1.24269e-05 -1.2525867e-05 -2.44967e-05 7.884454e-06
-7.750151e-05 3.9240767e-06 -2.1000656e-05 1.0427739e-05 -1.724991e-05 0.0 8.6140517e-07 0.0
1.7228085e-05 8.6140517e-07 -1.7228085e-05 1.7228085e-05 8.6140517e-07 1.7228085e-05 -1.7228085e-05 8.6140517e-07
1.7228085e-05 0.0 8.6140517e-07 0.0 -9.440248e-06 -9.440248e-06 -9.440248e-06 2.310111e-05
-2.110035e-05 -4.788145e-05 -3.84332e-06 -0.04268699 2.3033463e-05 4.7050267e-05 -2.9910174e-05 -7.4490754e-06
3.5332552e-05 -9.054067e-06 -1.3188099e-05 6.2860954e-06 1.7517748e-06 3.8209173e-06 0.0 -2.3600656e-07
0.0 -4.720124e-06 -2.3600656e-07 4.720124e-06 -4.720124e-06 -2.3600656e-07 -4.720124e-06 4.720124e-06
-2.3600656e-07 -4.720124e-06 0.0 -2.3600656e-07 0.0 -1.0155639e-05 -1.0155639e-05 -1.0155639e-05
2.460993e-05 -2.0538722e-05 -4.9153423e-05 -4.4065623e-06 -0.042782962 2.2555465e-05 4.773688e-05 -2.987085e-05
-7.276671e-06 3.5185953e-05 -9.579758e-06 -1.31108345e-05 6.771524e-06 1.1346602e-06 3.758545e-06 0.0
-2.5389124e-07 0.0 -5.0778194e-06 -2.5389124e-07 5.0778194e-06 -5.0778194e-06 -2.5389124e-07 -5.0778194e-06
5.0778194e-06 -2.5389124e-07 -5.0778194e-06 0.0 -2.5389124e-07 0.0 -1.8539951e-05 -1.8539951e-05
-1.8539951e-05 -4.2781958e-05 3.3893575e-05 1.315437e-05 -1.3097716e-05 0.05562443 -9.281416e-06 -4.4537886e-05
3.3603992e-05 7.8306575e-06 -3.9358103e-05 3.6984133e-05 9.493452e-06 8.987651e-06 -5.8016735e-06 8.155128e-06
0.0 -4.634993e-07 0.0 -9.269976e-06 -4.634993e-07 9.269976e-06 -9.269976e-06 -4.634993e-07
-9.269976e-06 9.269976e-06 -4.634993e-07 -9.269976e-06 0.0 -4.634993e-07 0.0 -1.7591212e-05
-1.7591212e-05 -1.7591212e-05 -4.4039167e-05 3.483698e-05 1.3955754e-05 -1.2413515e-05 0.05574812 -8.554948e-06
-4.5277597e-05 3.4154895e-05 7.23238e-06 -3.929843e-05 3.737874e-05 9.527692e-06 8.300065e-06 -5.3430363e-06
8.202207e-06 0.0 -4.3978096e-07 0.0 -8.795606e-06 -4.3978096e-07 8.795606e-06 -8.795606e-06
00000000: 0e5d 8a38 0e5d 8a38 0e5d 8a38 1207 7b37
00000010: 1535 d6b7 5be1 9138 ab02 2e38 0f3d e1bb
00000020: b216 97b7 bfd6 0a38 855b f3b6 a7e5 a2b7
00000030: 2d72 8937 836d c1b8 aabb 9f37 1e68 2fb8
00000040: b563 8637 c203 dcb7 0000 0000 c061 dd35
00000050: 0000 0000 0e5d 0a38 c061 dd35 0e5d 0ab8
00000060: 0e5d 0a38 c061 dd35 0e5d 0a38 0e5d 0ab8
00000070: c061 dd35 0e5d 0a38 0000 0000 c061 dd35
00000080: 0000 0000 7e68 8738 7e68 8738 7e68 8738
00000090: bda1 8437 8f67 efb7 9b15 9138 ba6c 2a38
000000a0: 106e e1bb fe03 a1b7 9af2 0a38 a299 28b7
000000b0: 95b1 91b7 3caa 8537 771a c6b8 916a 9e37
000000c0: 71cc 2ab8 f6b0 8137 be8f dcb7 0000 0000
000000d0: 43a7 d835 0000 0000 7e68 0738 43a7 d835
000000e0: 7e68 07b8 7e68 0738 43a7 d835 7e68 0738
000000f0: 7e68 07b8 43a7 d835 7e68 0738 0000 0000
00000100: 43a7 d835 0000 0000 fca5 1538 fca5 1538
00000110: fca5 1538 c973 c3b7 f936 fd36 cc76 12b7
00000120: 36c2 c637 1e68 58ba 98d8 8e37 e6bc 4c37
00000130: 3d73 42b7 5e38 d3b7 f98b 1237 9de3 9db8
00000140: cecc 8636 c07d b8b7 64f4 3337 eef9 8db7
00000150: 0000 0000 0770 6f35 0000 0000 fca5 9537
00000160: 0770 6f35 fca5 95b7 fca5 9537 0770 6f35
00000170: fca5 9537 fca5 95b7 0770 6f35 fca5 9537
00000180: 0000 0000 0770 6f35 0000 0000 0885 1038
00000190: 0885 1038 0885 1038 b2d4 b8b7 989c b636
000001a0: bfae 2db7 99df bf37 dd15 5aba 67d8 8637
000001b0: 217d 5037 3026 52b7 437e cdb7 7947 0437
000001c0: 4e88 a2b8 90ab 8336 912a b0b7 ccf2 2e37
000001d0: e6b3 90b7 0000 0000 503b 6735 0000 0000
000001e0: 0885 9037 503b 6735 0885 90b7 0885 9037
000001f0: 503b 6735 0885 9037 0885 90b7 503b 6735
00000200: 0885 9037 0000 0000 503b 6735 0000 0000
00000210: 8e61 1eb7 8e61 1eb7 8e61 1eb7 42c9 c137
00000220: a800 b1b7 51d4 48b8 def5 80b6 8ed8 2ebd
00000230: fc37 c137 d757 4538 9ce7 fab7 12f3 f9b6
00000240: 0a32 1438 ece6 17b7 7442 5db7 26ed d236
00000250: 861e eb35 6e35 8036 0000 0000 fd68 7db4
00000260: 0000 0000 8e61 9eb6 fd68 7db4 8e61 9e36
00000270: 8e61 9eb6 fd68 7db4 8e61 9eb6 8e61 9e36
00000280: fd68 7db4 8e61 9eb6 0000 0000 fd68 7db4
00000290: 0000 0000 2362 2ab7 2362 2ab7 2362 2ab7
000002a0: 6c71 ce37 924a acb7 162a 4eb8 15dc 93b6
000002b0: 303d 2fbd 7e35 bd37 1639 4838 2993 fab7
000002c0: 212a f4b6 a194 1338 bfb8 20b7 9bf6 5bb7
000002d0: f336 e336 a14a 9835 503b 7c36 0000 0000
000002e0: 8c4e 88b4 0000 0000 2362 aab6 8c4e 88b4
000002f0: 2362 aa36 2362 aab6 8c4e 88b4 2362 aab6
00000300: 2362 aa36 8c4e 88b4 2362 aab6 0000 0000
00000310: 8c4e 88b4 0000 0000 3e86 9bb7 3e86 9bb7
00000320: 3e86 9bb7 c770 33b8 f328 0e38 97b1 5c37
00000330: 43be 5bb7 71d6 633d 61b7 1bb7 31ce 3ab8
00000340: 03f2 0c38 6b60 0337 7114 25b8 691f 1b38
00000350: 1146 1f37 abc9 1637 ffab c2b6 02d2 0837
00000360: 0000 0000 dcd6 f8b4 0000 0000 3e86 1bb7
00000370: dcd6 f8b4 3e86 1b37 3e86 1bb7 dcd6 f8b4
00000380: 3e86 1bb7 3e86 1b37 dcd6 f8b4 3e86 1bb7
00000390: 0000 0000 dcd6 f8b4 0000 0000 d790 93b7
000003a0: d790 93b7 d790 93b7 b2b6 38b8 ec1d 1238
000003b0: 8223 6a37 a443 50b7 2458 643d 3987 0fb7
000003c0: 73e8 3db8 8a41 0f38 acad f236 5ed4 24b8
000003d0: 1ec7 1c38 20d9 1f37 8240 0b37 5548 b3b6
000003e0: 369c 0937 0000 0000 091b ecb4 0000 0000
000003f0: d790 13b7 091b ecb4 d790 1337 d790 13b7

exp_avg_sq f4 [128, 66]
6.6590694e-08 6.6590694e-08 6.6590694e-08 2.3194083e-08 2.1351223e-08 2.7173328e-08 4.4985808e-07 0.043537654
1.0510966e-07 2.606385e-08 1.80358e-08 3.0218263e-08 2.7305896e-08 5.772238e-05 4.537599e-08 2.5367282e-08
1.8039673e-08 2.4896636e-08 0.0 4.161914e-11 0.0 1.6647673e-08 4.161914e-11 1.6647673e-08
1.6647673e-08 4.161914e-11 1.6647673e-08 1.6647673e-08 4.161914e-11 1.6647673e-08 0.0 4.161914e-11
0.0 6.672002e-08 6.672002e-08 6.672002e-08 2.3171925e-08 2.160886e-08 2.7113916e-08 4.514009e-07
0.043735895 1.05303855e-07 2.605439e-08 1.802819e-08 3.0304708e-08 2.7470625e-08 5.8149253e-05 4.5416844e-08
2.5305326e-08 1.8014406e-08 2.4950223e-08 0.0 4.1699963e-11 0.0 1.6680005e-08 4.1699963e-11
1.6680005e-08 1.6680005e-08 4.1699963e-11 1.6680005e-08 1.6680005e-08 4.1699963e-11 1.6680005e-08 0.0
4.1699963e-11 0.0 1.554284e-08 1.554284e-08 1.554284e-08 6.7915615e-09 6.2921828e-09 5.8120957e-09
8.979057e-09 0.0033053812 7.789413e-09 4.2864334e-09 3.938826e-09 9.386371e-09 8.055044e-09 0.0016841048
7.6792425e-08 6.7568284e-09 4.2690806e-09 4.002189e-09 0.0 9.7142615e-12 0.0 3.88571e-09
9.7142615e-12 3.88571e-09 3.88571e-09 9.7142615e-12 3.88571e-09 3.88571e-09 9.7142615e-12 3.88571e-09
0.0 9.7142615e-12 0.0 1.5554962e-08 1.5554962e-08 1.5554962e-08 6.7841652e-09 6.4716335e-09
5.808391e-09 9.008753e-09 0.0033171475 7.811113e-09 4.2999626e-09 3.8979646e-09 9.414677e-09 8.092069e-09
0.0016907174 7.694916e-08 6.7266948e-09 4.2519304e-09 4.038087e-09 0.0 9.7218605e-12 0.0
3.8887404e-09 9.7218605e-12 3.8887404e-09 3.8887404e-09 9.7218605e-12 3.8887404e-09 3.8887404e-09 9.7218605e-12
3.8887404e-09 0.0 9.7218605e-12 0.0 3.909636e-08 3.909636e-08 3.909636e-08 1.605399e-08
1.5981552e-08 1.654979e-08 1.2688969e-07 0.02193587 4.0293063e-08 1.4109665e-08 1.3502601e-08 2.3990859e-08
2.1747054e-08 0.0018195147 1.1137435e-07 1.5159236e-08 1.0917229e-08 1.1911855e-08 0.0 2.4435254e-11
0.0 9.77409e-09 2.4435254e-11 9.77409e-09 9.77409e-09 2.4435254e-11 9.77409e-09 9.77409e-09
2.4435254e-11 9.77409e-09 0.0 2.4435254e-11 0.0 3.910243e-08 3.910243e-08 3.910243e-08
1.6050985e-08 1.626851e-08 1.645595e-08 1.2740432e-07 0.022028051 4.033731e-08 1.4168192e-08 1.35246685e-08
2.4068763e-08 2.185493e-08 0.0018269531 1.1166196e-07 1.5072473e-08 1.0856974e-08 1.196826e-08 0.0
2.443904e-11 0.0 9.775608e-09 2.443904e-11 9.775608e-09 9.775608e-09 2.443904e-11 9.775608e-09
9.775608e-09 2.443904e-11 9.775608e-09 0.0 2.443904e-11 0.0 2.8657324e-08 2.8657324e-08
2.8657324e-08 1.6385089e-08 1.747077e-08 1.963607e-08 1.6393948e-07 0.06511677 4.5797503e-08 1.5617362e-08
1.653522e-08 2.0249956e-08 1.937262e-08 4.0309085e-05 2.5109893e-08 1.3740298e-08 1.200326e-08 1.3828534e-08
0.0 1.7910803e-11 0.0 7.164331e-09 1.7910803e-11 7.164331e-09 7.164331e-09 1.7910803e-11
7.164331e-09 7.164331e-09 1.7910803e-11 7.164331e-09 0.0 1.7910803e-11 0.0 2.8653456e-08
2.8653456e-08 2.8653456e-08 1.6442987e-08 1.7548247e-08 1.9640956e-08 1.6445675e-07 0.065377764 4.586992e-08
1.5662183e-08 1.6553786e-08 2.0254546e-08 1.9407894e-08 4.058136e-05 2.5140176e-08 1.3725689e-08 1.200471e-08
1.3840885e-08 0.0 1.7908409e-11 0.0 7.163364e-09 1.7908409e-11 7.163364e-09 7.163364e-09
00000000: 9f00 8f33 9f00 8f33 9f00 8f33 543c c732
00000010: d667 b732 c86a e932 0684 f134 8a54 323d
00000020: a6b8 e133 03e3 df32 25ed 9a32 55c9 0133
00000030: 4d8e ea32 ef1a 7238 6ee3 4233 3ee7 d932
00000040: a9f5 9a32 48dc d532 0000 0000 fc0a 372e
00000050: 0000 0000 9f00 8f32 fc0a 372e 9f00 8f32
00000060: 9f00 8f32 fc0a 372e 9f00 8f32 9f00 8f32
00000070: fc0a 372e 9f00 8f32 0000 0000 fc0a 372e
00000080: 0000 0000 b847 8f33 b847 8f33 b847 8f33
00000090: 9a0b c732 639e b932 22e8 e832 1158 f234
000000a0: 6924 333d 6823 e233 36ce df32 69dc 9a32
000000b0: 6128 0233 8bf8 eb32 49e5 7338 5910 4333
000000c0: 005f d932 19be 9a32 1f52 d632 0000 0000
000000d0: fc65 372e 0000 0000 b847 8f32 fc65 372e
000000e0: b847 8f32 b847 8f32 fc65 372e b847 8f32
000000f0: b847 8f32 fc65 372e b847 8f32 0000 0000
00000100: fc65 372e 0000 0000 1183 8532 1183 8532
00000110: 1183 8532 355b e931 a032 d831 bcb3 c731
00000120: 4f42 1a32 189f 583b 33d2 0532 de47 9331
00000130: 4856 8731 b241 2132 7562 0a32 2ebd dc3a
00000140: 15e9 a433 b129 e831 3baf 9231 a083 8931
00000150: 0000 0000 25e5 2a2d 0000 0000 1183 8531
00000160: 25e5 2a2d 1183 8531 1183 8531 25e5 2a2d
00000170: 1183 8531 1183 8531 25e5 2a2d 1183 8531
00000180: 0000 0000 25e5 2a2d 0000 0000 b99d 8532
00000190: b99d 8532 b99d 8532 261a e931 175d de31
000001a0: 2693 c731 eac4 1a32 8064 593b a331 0632
000001b0: dfbe 9331 dcee 8531 30be 2132 4c05 0b32
000001c0: 109b dd3a 403f a533 a220 e731 6018 9231
000001d0: 64bf 8a31 0000 0000 5e07 2b2d 0000 0000
000001e0: b99d 8531 5e07 2b2d b99d 8531 b99d 8531
000001f0: 5e07 2b2d b99d 8531 b99d 8531 5e07 2b2d
00000200: b99d 8531 0000 0000 5e07 2b2d 0000 0000
00000210: e7ea 2733 e7ea 2733 e7ea 2733 19e7 8932
00000220: ce47 8932 6029 8e32 2c3f 0834 dbb2 b33c
00000230: b10e 2d33 f766 7232 11f9 6732 7514 ce32
00000240: 47ce ba32 c87c ee3a b22c ef33 8337 8232
00000250: 7b8e 3b32 e4a4 4c32 0000 0000 4def d62d
00000260: 0000 0000 e7ea 2732 4def d62d e7ea 2732
00000270: e7ea 2732 4def d62d e7ea 2732 e7ea 2732
00000280: 4def d62d e7ea 2732 0000 0000 4def d62d
00000290: 0000 0000 94f1 2733 94f1 2733 94f1 2733
000002a0: 7de0 8932 d5be 8b32 045b 8d32 a2cc 0834
000002b0: 2c74 b43c 573f 2d33 5e68 7332 1f5a 6832
000002c0: c5bf ce32 80bb bb32 6076 ef3a d0ca ef33
000002d0: b878 8132 7a85 3a32 f79c 4d32 0000 0000
000002e0: d3f7 d62d 0000 0000 94f1 2732 d3f7 d62d
000002f0: 94f1 2732 94f1 2732 d3f7 d62d 94f1 2732
00000300: 94f1 2732 d3f7 d62d 94f1 2732 0000 0000
00000310: d3f7 d62d 0000 0000 1f2a f632 1f2a f632
00000320: 1f2a f632 31bf 8c32 a112 9632 2dac a832
00000330: 5707 3034 f15b 853d e3b2 4433 f126 8632
00000340: 5509 8e32 20f2 ad32 d868 a632 8d11 2938
00000350: 3db1 d732 780e 6c32 e536 4e32 8992 6d32
00000360: 0000 0000 8b8b 9d2d 0000 0000 1f2a f631
00000370: 8b8b 9d2d 1f2a f631 1f2a f631 8b8b 9d2d
00000380: 1f2a f631 1f2a f631 8b8b 9d2d 1f2a f631
00000390: 0000 0000 8b8b 9d2d 0000 0000 9e21 f632
000003a0: 9e21 f632 9e21 f632 833e 8d32 01bd 9632
000003b0: ebb6 a832 8795 3034 c7e4 853d 8302 4533
000003c0: 8189 8632 2932 8e32 38fc ad32 69b6 a632
000003d0: e735 2a38 d5f3 d732 38ce 6b32 463d 4e32
000003e0: dbc8 6d32 0000 0000 2786 9d2d 0000 0000
000003f0: 9e21 f631 2786 9d2d 9e21 f631 9e21 f631

exp_avg f4 [128]
6.456769e-05 3.445617e-05 -1.0155672e-05 -1.7591212e-05 -5.1503444e-06 4.5693614e-05 -4.146002e-05 -4.4485605e-05
1.8474768e-05 -1.0356842e-05 -8.193621e-06 -5.3605345e-07 -4.9156108e-05 -4.214198e-06 -5.2319533e-06 5.407558e-06
2.3510842e-05 -1.0848207e-06 7.014948e-05 -2.509201e-05 4.0636452e-05 -4.415868e-06 6.627722e-05 -1.0369046e-05
3.7930076e-05 5.088148e-06 -1.425937e-06 -1.016071e-06 -1.5216627e-06 7.228656e-05 1.8627874e-05 -2.991842e-05
-1.1475576e-06 -3.0534574e-07 -2.0044681e-05 9.362345e-06 5.428276e-05 2.3546008e-05 -4.2308915e-05 -3.2990567e-07
-3.9688002e-06 -1.288196e-05 2.041155e-05 3.3614495e-05 1.0064158e-05 3.216369e-06 -1.5600237e-05 -2.6838847e-05
2.3041562e-06 -3.689193e-05 5.649909e-05 2.1655058e-05 -3.665724e-05 -2.3824523e-05 8.736484e-06 -1.5434944e-05
1.345614e-06 -4.8153115e-06 6.169724e-06 7.4571353e-06 4.0845745e-05 3.281947e-05 2.4373404e-07 1.5485793e-05
-2.5418792e-06 4.703815e-05 6.7078536e-06 -2.5863057e-05 1.1928127e-05 -7.2044368e-06 4.2406657e-05 2.937789e-05
1.1690824e-05 9.19104e-06 7.318745e-06 9.074282e-05 -2.7345663e-05 -2.3541908e-05 -6.350978e-06 1.4150092e-05
1.9395387e-05 -7.253284e-06 -2.9998617e-05 -8.203232e-06 1.747657e-05 2.4266454e-05 -5.209972e-06 2.5258375e-06
-8.912111e-06 6.0390726e-06 1.3396344e-05 -2.057119e-05 -9.088291e-06 -1.9269153e-05 6.127728e-05 2.198824e-05
2.3813493e-05 1.6561278e-05 -1.8600038e-05 1.6236661e-05 2.813136e-05 -4.9315167e-06 1.0916745e-05 -1.3012604e-05
2.7985972e-05 1.4082954e-05 -7.0739907e-06 -6.38176e-06 -3.425572e-05 5.7734583e-06 1.583866e-05 3.5330842e-05
-2.2455586e-05 3.6024533e-06 4.527412e-06 -3.1860134e-05 2.6877442e-05 1.3069563e-06 2.244767e-05 -3.104158e-05
2.0454097e-05 -3.1420517e-05 3.904277e-05 4.7419e-05 -1.08362365e-05 2.489877e-06 -8.299384e-06 1.2216176e-05
00000000: 8468 8738 0885 1038 4762 2ab7 d790 93b7
00000010: 1fd1 acb6 25a7 3f38 5ce5 2db8 0e96 3ab8
00000020: 43fa 9a37 4cc2 2db7 5677 09b7 50e5 0fb5
00000030: f82c 4eb8 af67 8db6 238e afb6 9272 b536
00000040: 2639 c537 289a 91b5 371d 9338 ae7c d2b7
00000050: 0f71 2a38 042c 94b6 50fe 8a38 b7f6 2db7
00000060: 1c17 1f38 dcba aa36 d262 bfb5 ef5f 88b5
00000070: ef3b ccb5 8d98 9738 0e43 9c37 51f9 fab7
00000080: c705 9ab5 66ee a3b4 a025 a8b7 f712 1d37
00000090: abad 6338 ab84 c537 da74 31b8 e41d b1b4
000000a0: bc2b 85b6 991f 58b7 7839 ab37 4afd 0c38
000000b0: 3bd9 2837 ccd8 5736 41dd 82b7 fc23 e1b7
000000c0: 1aa1 1a36 69bc 1ab8 70f9 6c38 e2a7 b537
000000d0: 69c0 19b8 c6da c7b7 ea92 1237 4a7a 81b7
000000e0: f29a b435 3693 a1b6 8705 cf36 4e38 fa36
000000f0: c951 2b38 a3a7 0938 8dda 8234 7de7 8137
00000100: 2795 2ab6 d44a 4538 0614 e136 7ef4 d8b7
00000110: ea1e 4837 a4bd f1b6 cddd 3138 8a70 f637
00000120: b523 4437 3733 1a37 8a93 f536 2e4d be38
00000130: 5d64 e5b7 dd7b c5b7 7c1a d5b6 2f66 6d37
00000140: 47b3 a237 3c61 f3b6 8aa5 fbb7 9da0 09b7
00000150: a69a 9237 d08f cb37 52d1 aeb6 8f81 2936
00000160: 3a85 15b7 3da3 ca36 dcc0 6037 4b90 acb7
00000170: ea79 18b7 31a4 a1b7 fd81 8038 6373 b837
00000180: 16c3 c737 13ed 8a37 4707 9cb7 f733 8837
00000190: a3fb eb37 6879 a5b6 1027 3737 b550 5ab7
000001a0: 6bc3 ea37 d445 6c37 1e5d edb6 e722 d6b6
000001b0: cdad 0fb8 a1b9 c136 43dd 8437 3430 1438
000001c0: 015f bcb7 adc1 7136 2cea 9736 8fa1 05b8
000001d0: de76 e137 ad6a af35 014e bc37 a532 02b8
000001e0: d794 ab37 86c9 03b8 dbc1 2338 c3e3 4638
000001f0: 48cd 35b7 c317 2736 953d 0bb7 14f4 4c37

exp_avg_sq f4 [128]
6.672e-08 1.5554955e-08 3.910244e-08 2.8653456e-08 2.3103792e-09 7.775013e-08 6.9431145e-08 5.397817e-08
2.6800086e-08 2.5149369e-08 5.9303087e-09 4.9905765e-08 4.179088e-08 3.6158672e-09 4.964739e-09 5.398626e-08
1.4264306e-08 1.0455523e-08 5.5111414e-08 1.6600854e-08 3.616229e-08 4.4016875e-08 9.52437e-08 3.6036482e-08
3.488146e-08 8.755805e-09 1.2201465e-08 1.8143169e-09 1.342204e-08 3.0164593e-08 1.2390302e-08 1.0357837e-07
4.1997755e-08 2.2206045e-08 5.5481406e-09 1.0287912e-08 3.2501347e-08 2.0965272e-08 3.692968e-08 6.6765784e-09
7.831199e-09 3.6525516e-09 3.121455e-08 5.4188412e-08 1.5684385e-08 1.534351e-08 1.2302319e-08 2.40314e-08
2.8012064e-08 3.083927e-08 5.8110007e-08 1.809241e-08 1.271688e-08 1.2743395e-08 6.1819505e-09 1.2106837e-08
2.6603455e-09 2.2394724e-08 2.3019906e-08 7.552105e-09 9.500631e-09 4.2870095e-08 1.4879311e-09 2.3380878e-08
5.7261758e-08 2.0784068e-08 1.0233974e-08 4.14436e-08 3.3512102e-09 1.503787e-08 1.7798683e-08 8.630421e-09
1.8241886e-08 1.2846842e-08 3.6897199e-09 1.344175e-07 7.8401406e-08 6.042232e-09 2.6538023e-08 3.227474e-08
1.9010631e-08 1.5525695e-08 7.333419e-09 1.3877193e-08 4.0108464e-08 3.8516564e-08 3.352799e-08 2.1901134e-09
4.535205e-09 1.1975421e-08 2.5907317e-08 1.7750795e-09 2.7260585e-08 1.4535342e-08 5.1186106e-08 8.525643e-09
1.1922316e-08 8.479022e-09 1.4158816e-08 1.5472768e-08 1.1360989e-08 3.4482384e-09 1.0689833e-08 3.1380193e-08
3.3217563e-07 8.389396e-09 2.1630948e-08 5.6817604e-09 1.2076967e-08 8.721778e-09 5.6277756e-08 2.7981367e-08
3.4470276e-08 1.2188043e-08 5.360681e-09 2.437487e-08 6.838119e-08 1.1598272e-08 8.899868e-09 4.6996096e-09
3.5250434e-08 9.031213e-09 2.5362084e-08 3.463262e-08 1.4704555e-08 1.9968451e-09 2.0525583e-09 1.1193645e-08
00000000: b547 8f33 b59d 8532 96f1 2733 9e21 f632
00000010: 9fc4 1e31 96f7 a633 2d1a 9533 a0d5 6733
00000020: 0336 e632 0c08 d832 8cc3 cb31 f857 5633
00000030: 8f7d 3333 027b 7831 4e96 aa31 85de 6733
00000040: 150f 7532 e09f 3332 a4b3 6c33 aa99 8e32
00000050: dc50 1b33 110d 3d33 c788 cc33 88c6 1a33
00000060: 92d0 1533 706c 1632 9c9e 5132 9a5b f930
00000070: c296 6632 528e 0133 20dd 5432 d06e de33
00000080: 0561 3433 9cbf be32 f6a1 be31 b7be 3032
00000090: 9c97 0b33 1f17 b432 9d9c 1e33 ce67 e531
000000a0: fa89 0632 5e00 7b31 c310 0633 cabc 6833
000000b0: 54ba 8632 bccc 8332 2c5a 5332 9c6d ce32
000000c0: 2e9f f032 2374 0433 a194 7933 a169 9b32
000000d0: 6e79 5a32 0bee 5a32 0369 d431 6ffe 4f32
000000e0: 4bd1 3631 855e c032 4fbd c532 82be 0132
000000f0: 3838 2332 2b20 3833 ec7f cc30 18d7 c832
00000100: f8ef 7533 a688 b232 7ed1 2f32 b8ff 3133
00000110: 1d4b 6631 a02c 8132 b8e3 9832 fe44 1432
00000120: 55b2 9c32 02b5 5c32 3d8e 7d31 6754 1034
00000130: a15d a833 099c cf31 bbf5 e332 749e 0a33
00000140: d24c a332 5d5d 8532 70f9 fb31 8a68 6e32
00000150: b943 2c33 696d 2533 6a00 1033 e280 1631
00000160: 16d4 9b31 75bc 4d32 cb8a de32 0ff7 f330
00000170: a92a ea32 1cb7 7932 b8d7 5b33 2d78 1232
00000180: e6d2 4c32 22ab 1132 223f 7332 fae8 8432
00000190: 282e 4332 0df6 6c31 62a6 3732 e3c6 0633
000001a0: df55 b234 f420 1032 f5ce b932 4b39 c331
000001b0: 107b 4f32 c9d6 1532 0cb6 7133 ad5b f032
000001c0: 780c 1433 9463 5132 0c31 b831 e860 d132
000001d0: f5d8 9233 bd41 4732 09e6 1832 347a a131
000001e0: 4366 1733 b227 1b32 d0db d932 f8be 1433
000001f0: 519f 7c32 df38 0931 fd0c 0d31 2c4e 4032
