results/ag05/PlatformRotate/PlatformRotate-999996.pt (torch, 624969 bytes, 39 tensors)

network_body._body_endoder.seq_layers.0.weight f4 [128, 66]
000000 b4 c6 93 3d fc b8 a2 3d 3e 40 d1 bd df 9b fa 3d
       0.07215634 0.07945439 -0.10217331 0.12236761
000010 07 7e 83 be 6a ba 08 3c 40 3c 7b 3d db 9c ab bd
       -0.2568209 0.008345226 0.061336756 -0.08379527
000020 49 20 06 3e 82 42 b3 3d ea 3e 1d bd 27 fc 2c bd
       0.13098253 0.0875292 -0.038390078 -0.04223266
000030 1b 9a fa 3c 00 4a 8b bd f2 53 51 bd 40 ce 98 bb
       0.030591061 -0.06801224 -0.051105447 -0.004663259
000040 67 a0 ef 3a a8 76 f2 bd 15 a4 74 3e a4 76 e8 3d
       0.0018282057 -0.11839038 0.23890717 0.11350754
000050 09 6d 23 be 3a f8 89 bc 6e e2 8b 3d 02 69 43 3e
       -0.15959562 -0.016841996 0.068302974 0.19083026
000060 03 ab 2f 3d 94 55 e6 bd 0a 4d 2a be aa e0 8b bd
       0.0428877 -0.112467915 -0.1663095 -0.06829961
000070 f9 25 b5 bc a6 39 c5 bc 60 71 98 bd 52 b4 1d 3e
       -0.022112833 -0.02407534 -0.074434996 0.15400818
000080 e1 de 95 bb e0 7d 8c bc 89 2a c8 bd c1 b2 a4 3d
       -0.0045736884 -0.017149866 -0.09773738 0.08041907
000090 d8 85 8b 3e 11 87 44 be 3b 34 2a be c4 3c e2 3c
       0.27250552 -0.19192149 -0.16621487 0.027616866
0000a0 5c d4 f7 bd cb e7 84 3d 68 c6 79 3e c5 c7 45 be
       -0.12101051 0.064895235 0.24392092 -0.19314487
0000b0 45 68 d5 3d cc 49 b9 3c d3 d6 40 3d c0 16 5b 3e
       0.104202785 0.022618197 0.047079872 0.21395397
0000c0 28 d4 44 3c 29 d4 5a 3d 11 cd 9e 3d 01 a7 67 bd
       0.012013473 0.053424988 0.07753957 -0.05655575
0000d0 e4 04 62 bd 38 96 a7 bc 3e 0a 62 3d 05 39 d8 3d
       -0.055180445 -0.020457372 0.05518555 0.105577506
0000e0 4e 98 97 bd 75 2c 10 3e 53 84 ff 3c ae 4e ea 3d
       -0.07402097 0.14079459 0.031191027 0.11440788
0000f0 e4 56 a4 3d eb ec aa bd ed 5b 28 3e a4 5b e8 bb
       0.080243856 -0.0834597 0.16441317 -0.0070910025
000100 56 3e c6 be ae 59 c8 bd 04 6d 5c 3d a8 a7 b0 3b
       -0.38719434 -0.0978273 0.053814903 0.00539108
000110 7c ce 37 3d 8c b9 3c bd db 6a b4 bd f3 01 8f bd
       0.044874653 -0.04607539 -0.088094436 -0.06982794
000120 6e 52 1a 3e 59 eb 33 bb 3e 6e 71 3e b0 05 f1 bd
       0.15070507 -0.002745351 0.2357721 -0.11768663
000130 05 ed 43 3d 8a f4 45 be c6 ed 50 3d 72 de 5e be
       0.04783346 -0.19331565 0.05100801 -0.21764544
000140 6d 30 e3 bd 49 00 a2 3e 95 6e e1 3d dd ea 77 3d
       -0.11093221 0.31640843 0.1100742 0.060526717
000150 ae 30 bc 3c 06 aa ee bb 49 67 b0 bc 0c 7e ea 3e
       0.022972431 -0.007283452 -0.021533625 0.4579929
000160 22 f8 38 3d 7d 5d 0c bd e6 0a 90 bd 2e 76 80 3d
       0.045158513 -0.034268845 -0.07033329 0.06272541
000170 69 3c 87 bb f0 e6 b0 bd 8f f6 f8 bd 73 60 30 3e
       -0.0041270745 -0.08637798 -0.12156402 0.17224292
000180 06 aa 77 bd 8b e9 03 be dc 82 83 bd f9 49 75 3e
       -0.06046488 -0.12882058 -0.06421444 0.23954
000190 a6 2f cc bd 5a dd c4 bd 67 91 6d bd 17 98 3b 3e
       -0.09970026 -0.09612532 -0.057999995 0.18319736
0001a0 17 39 83 3d cd 3e 22 bd 1a bf c2 3c 85 34 eb bd
       0.064073734 -0.039610673 0.023772765 -0.11484627
0001b0 6f 19 27 be 7d 9b 1d bc 14 e2 84 bd bb 6c 0f be
       -0.16318296 -0.009619591 -0.064884335 -0.14006321
0001c0 19 f3 9b be e7 c8 17 3c fc b1 08 3e bb 1b b2 bd
       -0.30458906 0.009264207 0.13349146 -0.086966954
0001d0 87 50 0f 3e a4 16 fa 3d 7a cc e4 3d d3 7d 42 be
       0.13995562 0.122113496 0.11171813 -0.1899331
0001e0 6a 4a 4d be 9f f4 73 bd 41 69 d0 bd 24 cc 94 be
       -0.20047918 -0.05955946 -0.101763256 -0.29061997
0001f0 be 92 d3 3d 8b 94 c5 3c 1a 4e ad 3d 65 32 80 bd
       0.10330723 0.024118682 0.08462162 -0.06259612
000200 26 03 04 3d 54 6c 8a 3d 58 d2 b9 bd ce bd 10 bd
       0.032229565 0.06758943 -0.09073323 -0.03533726
000210 1e 5d b9 3d 54 86 f0 3c ec 4d 37 be 98 28 1e be
       0.09050964 0.029360928 -0.17900819 -0.15445173
000220 71 91 dd 3d 8d 13 48 3d e5 6b 1f 3b 2e 61 b9 bd
       0.10818756 0.04884677 0.0024325785 -0.09051739
000230 00 1c 43 3e 09 e1 35 3d b4 bb 17 bd 2e 79 b1 3d
       0.1905365 0.044404063 -0.037044242 0.08665691
000240 a0 5c a8 bc 89 0f 2a be 7a a5 3c bd b1 6b 3b bd
       -0.02055198 -0.16607489 -0.04605625 -0.045757
000250 9e 51 0b 3e 48 4b 47 be a2 50 fb 3a a8 40 42 3d
       0.13605353 -0.19462311 0.0019173811 0.047424942
000260 b2 0e 1d 3c cb e5 7f be a3 f4 0e 3e 3e d6 85 bd
       0.009586023 -0.24990003 0.13960509 -0.06535004
000270 be 9b f6 3d ca 78 25 3d 3c 15 d5 3d f8 0d 86 3c
       0.12041424 0.040398397 0.10404441 0.016364083
000280 3e de 04 3e 71 3b 1e 3e 7e 82 31 3d 85 63 96 3e
       0.12975404 0.15452363 0.043337338 0.29372802
000290 b6 b4 8d bc 15 e4 4b be 60 0f 19 bc e3 6a 11 be
       -0.017298084 -0.19911225 -0.009342045 -0.1420093
0002a0 53 cd 88 be 59 c0 6a 3d 92 b4 53 3e 7e b5 19 3d
       -0.2671915 0.057312343 0.20674351 0.0375266
0002b0 4c 93 a0 bb 87 08 29 be cd 7d c0 bd c0 66 46 be
       -0.0049003717 -0.16507159 -0.093989946 -0.19375134
0002c0 05 1e a9 bd 0b d9 d5 bb 7b cd 2c bd 81 37 6e bd
       -0.08257679 -0.0065261177 -0.04218815 -0.0581584
0002d0 d1 57 89 3d cd de a8 3d 2d ba 3d 3d e4 32 68 bd
       0.06706203 0.08245621 0.04632013 -0.056689158
0002e0 29 03 e3 3d ef 46 fe 3c cd 9f c5 3d 6e b9 b5 bc
       0.11084587 0.031039683 0.0964962 -0.022183146
0002f0 f7 a7 ac bb cb 52 9f bc 2e 69 00 3d c4 48 c2 bd
       -0.0052690464 -0.019448658 0.031350307 -0.09486535
000300 66 2e dd bd d7 64 0a be 4f 7b f4 bb a6 ff 4f bc
       -0.107998654 -0.1351503 -0.0074609886 -0.012695229
000310 6d 9f 4b be 2a 09 e1 bc 36 67 92 bc e5 4b 85 bd
       -0.19885035 -0.02747019 -0.01787148 -0.06508616
000320 5e ad 8a bd 1d 8b 59 bc ed 56 3e 3c 9b 11 8a bc
       -0.067713484 -0.013277796 0.011617404 -0.016854098
000330 46 f0 8d bc 81 8f 02 3e d4 72 03 be b9 1f 18 3e
       -0.017326485 0.12750055 -0.12836772 0.14855851
000340 88 50 8a bd 6c 7e 2d 3c 14 fb 32 3e c7 c4 5e bd
       -0.06753641 0.010589223 0.17478591 -0.05438688
000350 b5 5b 40 3e 67 81 8c be 66 22 3c 3e 42 73 a8 3e
       0.18784983 -0.27442476 0.18372497 0.32900435
000360 fc 82 bd 3c c6 cd 87 bd 5d 08 25 3e 33 14 3e 3d
       0.023133747 -0.06631045 0.16116472 0.046405982
000370 e5 a5 82 3d e3 97 8e 3d 2b a4 3b be 6e 91 10 be
       0.06379298 0.06962564 -0.18324344 -0.14117977
000380 1d 53 1d be 7b d6 c8 3d 32 ce 1c 3e 2b 27 2a 3d
       -0.15363736 0.09806534 0.15313032 0.04154126
000390 cc d3 dd bc 01 5d 98 3e cc f4 69 bc 12 56 5b 3e
       -0.027078532 0.29758456 -0.0142795555 0.21419552
0003a0 36 04 39 be 6e 85 2f be 1d fb a3 bd 9e 8f c3 bd
       -0.18068013 -0.17140743 -0.080068804 -0.09548877
0003b0 1c ac 03 be 44 54 0d 3e 9d 97 8c be c8 ae 38 be
       -0.12858623 0.13801676 -0.27459422 -0.18035424
0003c0 3d 5f e3 3c 6b 45 34 be 20 62 e4 bd cd c8 38 3e
       0.027755374 -0.17604606 -0.11151528 0.1804535
0003d0 84 fc a9 3e 2e f8 74 3e 08 72 56 3d 45 80 ac bc
       0.33200467 0.23922798 0.052354842 -0.021057257
0003e0 04 0a 32 3d 10 29 58 be d4 d3 6a 3d 11 54 f0 3c
       0.043466583 -0.21109414 0.05733092 0.029336961
0003f0 ed 6a 38 bd 31 db 44 be 14 6f 9c bc ea e6 0a bd
       -0.045023847 -0.1922424 -0.019095935 -0.033911623

network_body._body_endoder.seq_layers.0.bias f4 [128]
000000 e3 d4 0c 3d 1d 52 e7 3a b7 b0 ad 3b 97 2e fd bc
       0.034382712 0.0017648373 0.005300607 -0.030906005
000010 c2 7b 05 bc 78 70 af 3c b0 e6 54 3c 74 06 15 bb
       -0.008147182 0.021415934 0.012994453 -0.0022739442
000020 3a f8 83 3c f4 95 19 3d 5a ed 42 3c 2e a0 b8 3b
       0.016109575 0.037496522 0.011897409 0.0056343293
000030 37 b2 8d bc 8a c1 85 bc 2b 5e 98 bc 2f 7a bf 3c
       -0.017296894 -0.016327638 -0.01859959 0.023373691
000040 dd 46 c1 3c 65 7e 16 bc 76 e4 5d 3d 55 b5 f1 bc
       0.02359336 -0.009185408 0.054172955 -0.029505411
000050 50 36 44 bb 9a 6f 98 3a ef c2 18 3d a7 42 1a bc
       -0.00299396 0.001162994 0.03729528 -0.009415305
000060 fc f9 76 3c 69 49 34 3c df b2 b4 bc 58 d5 05 bd
       0.015074249 0.0110038305 -0.022057949 -0.032674164
000070 b3 6e a4 bc 69 18 d0 3c 62 89 99 bb 5c d9 0e 3d
       -0.020072317 0.025402265 -0.0046855668 0.03487526
000080 a7 8e 8f 3c 3f 90 11 3b ce 62 05 bc 20 21 9d 3c
       0.017524077 0.0022211222 -0.008141233 0.019180834
000090 7c e2 36 3d 8e 2c 8c ba 2b 51 c4 bb bc 01 e7 bc
       0.044649586 -0.0010694431 -0.0059911213 -0.02819907
0000a0 07 d9 63 bc 34 24 6c 3c 05 71 24 bc 5c b5 1c 3c
       -0.013906724 0.014412928 -0.010036712 0.009564724
0000b0 f3 e5 15 3c cc cf a1 bb 71 d3 cd bc a1 f5 96 39
       0.009149062 -0.0049381014 -0.025125237 0.00028793237
0000c0 a2 d8 8d 3a 55 cf 8d bb 80 cc 00 3d e5 c0 8e 3c
       0.0010822008 -0.0043276944 0.031445026 0.017425964
0000d0 7d 1b bf bc 80 27 a4 bb 26 73 5f 3c 5b d1 ab 3a
       -0.023328537 -0.0050095916 0.013638293 0.0013108657
0000e0 12 d0 2d bc 3a e5 86 3c 69 51 44 3c a9 99 54 bc
       -0.01060869 0.016466726 0.0119823 -0.012976089
0000f0 69 86 18 3d 85 a6 2d 3c 69 88 62 3c cc 76 39 bb
       0.03723756 0.010598783 0.013826468 -0.0028299568
000100 9a cc 22 3b 51 8c 12 3d b7 37 35 bc 28 e9 2a bc
       0.002484119 0.035778347 -0.011060647 -0.010431565
000110 b2 6e 30 bc df 04 a5 bc 67 c5 b3 3c 0b db d1 3c
       -0.010768579 -0.020143924 0.021944715 0.025617143
000120 05 90 d0 bc 55 84 83 bc 39 24 c1 3c 0d e2 b9 3c
       -0.025459299 -0.016054312 0.023576843 0.022690797
000130 15 b6 65 3c ff 54 85 3b 2b 54 df bb b4 54 24 3d
       0.0140204625 0.00406897 -0.0068154535 0.04011984
000140 32 57 c3 3c f8 b3 5e bc 0c ef 2c bc 97 2d 0b bd
       0.023845289 -0.013592713 -0.01055504 -0.033979025
000150 13 34 9b bb cc 8f 53 3d a1 46 0e 3d 60 c7 05 3c
       -0.0047364323 0.051650807 0.034735326 0.0081652105
000160 c2 87 05 bc d8 d0 7e bc c5 ed 1a bc 10 80 e7 bb
       -0.008150043 -0.015552722 -0.009456103 -0.007064827
000170 b0 d2 9c bc 92 5b 6d bc b0 03 e5 3c d2 d1 65 3c
       -0.019143432 -0.014487164 0.02795586 0.014027076
000180 29 05 f8 3c 11 af c2 3b 13 2a 06 3b c3 53 83 3c
       0.030275898 0.0059412797 0.0020471856 0.016031152
000190 86 32 36 3c ff 2b 8b bc f5 cd 86 3c 1c 55 b1 bc
       0.011120444 -0.016988752 0.01645563 -0.021647029
0001a0 10 aa 5b 3d f1 f5 29 3c f8 f0 ff bb 5e be ce bc
       0.05362898 0.010373578 -0.007810708 -0.025237259
0001b0 af eb a5 bc a0 c2 9a 3c f1 de 9d 3c c9 67 a5 3c
       -0.020253984 0.018891633 0.019271346 0.02019109
0001c0 ca 82 0a 3d 51 8a ef bb ae f7 0b 3b dd 5c 91 bc
       0.033816136 -0.00731019 0.0021357345 -0.017744476
0001d0 27 ef de 3c 41 d9 df 3c 58 e0 24 3d f1 96 76 bb
       0.027213646 0.027325274 0.040253013 -0.003762659
0001e0 ed 9c 6d 3b 7d 38 c2 bb cb d2 df 3c 30 06 90 3c
       0.0036256865 -0.005927144 0.027322194 0.017581075
0001f0 dd 9f df bb 1d 88 78 bc 46 2a cf 3b 86 a5 e3 3c
       -0.006824477 -0.015169171 0.006322178 0.027788889

network_body._body_endoder.seq_layers.2.weight f4 [128, 128]
000000 56 bc 07 be 2a 70 99 bd 28 04 35 bd 89 82 1a 3d
       -0.13255438 -0.07492097 -0.044193417 0.037722144
000010 9a c5 c6 3d d7 8e dd 3d 70 c4 23 3e c5 5a 88 bd
       0.09705658 0.1081826 0.15992904 -0.06657938
000020 83 2d d8 bc 6c 5f 81 bd d4 32 18 3e 24 d0 46 be
       -0.02638889 -0.063170284 0.1486314 -0.19415337
000030 dc aa 59 bd 24 4f a9 3d 02 1a a5 bd 57 14 b0 3d
       -0.05314146 0.08267048 -0.08061601 0.085976295
000040 b4 53 3b be 67 a4 4f 3d 90 97 c4 bd e4 c7 89 3d
       -0.18293649 0.050693896 -0.09599221 0.06727579
000050 17 66 22 be cb ca d9 3c 7f 57 e7 bc a6 33 09 3d
       -0.15859257 0.026585957 -0.028239964 0.03349652
000060 d1 86 0d 3d e9 11 a7 3d 60 f7 31 bd 22 84 95 bb
       0.0345524 0.08157713 -0.043448806 -0.0045628706
000070 7e 79 1b bc f6 9b 83 bd b8 b6 11 bd fb 5e 01 3e
       -0.009489415 -0.064262316 -0.035574645 0.12633888
000080 25 20 bc bd 52 35 b4 bc e6 6a 01 be d7 aa 8c 3d
       -0.091858186 -0.021998081 -0.12638435 0.068685226
000090 61 77 08 be 73 ba 04 3c fd e8 82 3e 29 5b 56 3d
       -0.1332679 0.008101094 0.2556838 0.05233303
0000a0 4d 06 40 bd 61 b4 9f 3d 39 d7 8c bc c7 9b 0a 3e
       -0.04688101 0.077980764 -0.01719247 0.13535987
0000b0 bb a2 18 3d e2 24 af bd e6 06 2c 3d 0d 5e 86 3d
       0.037264567 -0.08551957 0.041998766 0.065609075
0000c0 50 97 aa bc b1 21 93 bd 7d b5 38 be 71 8e ab 3d
       -0.020824105 -0.071841605 -0.18037982 0.08376778
0000d0 b9 f2 52 be 4b ba 35 3d 1e 64 c3 bc 3e 72 6b 3d
       -0.20600404 0.044367116 -0.02385145 0.057481997
0000e0 9e 16 94 3c fe ab ba 3d de d3 2a 3e 53 1e 98 bd
       0.018077191 0.09114836 0.16682383 -0.07427659
0000f0 10 0b 8c 3c 5b b9 83 3d 7e 1b c5 3c 4c 71 1d 3c
       0.017095119 0.06431838 0.02406096 0.009609532
000100 99 87 a2 bd 17 8a 1b 3d fc 4d 26 3d 3b d6 e7 bb
       -0.079360195 0.03797349 0.040601715 -0.007075099
000110 5d 79 12 be 8c 9e 05 3e b5 a0 c4 3d bc 36 f3 bd
       -0.14304109 0.13048762 0.09600965 -0.11875674
000120 74 02 a7 3c 36 2d 3d bd 8e 2e b3 bd 7f 9e 0a bd
       0.020386912 -0.046185695 -0.08749114 -0.03384256
000130 7e e5 6f bc 73 36 1b be bf ea 9d bb 55 2c 0b be
       -0.014642118 -0.1515749 -0.0048192437 -0.1359113
000140 ce d9 fa bd 35 47 3f be 32 c4 ac 3d ed 94 ee 3c
       -0.12248574 -0.18679507 0.08435859 0.029123748
000150 f5 26 05 bd 8d 8f 2d bd 37 94 c0 bc 99 cd 9a 3d
       -0.032507855 -0.04237323 -0.023508174 0.07558746
000160 4c d9 dc 3a 56 cc b8 bc df f2 3c bb f4 35 0d bd
       0.0016849427 -0.022558372 -0.0028831286 -0.03447528
000170 8f a5 2b be ca af d1 3b 37 e6 db bb 0f db ec 3d
       -0.16762374 0.0063991295 -0.0067107934 0.115652196
000180 88 e4 95 bd 5a 54 c3 3c 55 69 80 3b 82 1c 0c 3c
       -0.073189795 0.023843933 0.0039188066 0.008551719
000190 10 b8 07 3e 84 ee fc bb 2a a0 ef 3c 9b 0f b6 bd
       0.13253808 -0.007718863 0.029251177 -0.08889695
0001a0 5e 1d 40 bd 85 a4 97 ba b4 85 5b bd 67 c3 01 be
       -0.046903007 -0.0011569416 -0.053594306 -0.12672196
0001b0 90 c9 a1 bd 4f bc 8b bd 96 32 36 3d 8b 28 45 bd
       -0.07899773 -0.068230264 0.044481836 -0.048134368
0001c0 aa 2d 03 3b bc 7b d8 3d 60 9d 9d 3d 1a d0 77 3e
       0.0020016232 0.105704755 0.076960325 0.24200478
0001d0 eb 6f 8b bd 9f f8 f3 3b f7 95 96 bd f3 f2 d4 3c
       -0.06808456 0.0074454094 -0.07352822 0.025994753
0001e0 40 cb a1 3d bc 72 ed bd fc ee e5 3c ab 0c a6 bd
       0.07900095 -0.115941495 0.028068058 -0.08107885
0001f0 b3 f7 ea bd 1d d5 45 3d c1 19 19 3e 4d 4f 2e bd
       -0.11473026 0.048298944 0.1495123 -0.042556096
000200 3b f2 06 3e f9 22 f4 3d b3 71 c5 bd ea 40 29 be
       0.13178341 0.11920733 -0.09640827 -0.16528669
000210 c4 8e 12 3e 46 61 11 3d ea b3 72 3d d2 ea 3c 3e
       0.14312273 0.035493158 0.05925361 0.18448952
000220 7d bf d0 bd 5b 04 4d 3d cf 4d b8 3d 3c d7 cc bd
       -0.101927735 0.05005298 0.08999216 -0.1000199
000230 a9 e5 ad 3b 69 1b 5b 3d 43 e2 b8 bc b5 73 6e 3d
       0.0053069186 0.053492937 -0.022568827 0.058215816
000240 7c 43 00 be 64 5d 44 bd 0c a5 20 3d 04 b2 7f 37
       -0.12525743 -0.047940627 0.0392199 1.5240632e-05
000250 ef c3 cb 3c 0d ef ab bc d7 81 0d 3d 69 ff e3 3d
       0.024873702 -0.020988012 0.034547653 0.111327
000260 c7 69 fd 3d 87 ee 50 bb 4c a6 24 be 58 c0 52 bd
       0.12373691 -0.0031880455 -0.16079062 -0.051452965
000270 1b ae b6 3d 2d 02 0b bd 90 98 10 bd fb 58 44 be
       0.08919927 -0.03393762 -0.035301745 -0.19174568
000280 27 8d 8e 3c be d4 9c 3d b4 18 bf bd ed 39 1f bc
       0.017401291 0.07657765 -0.093308836 -0.0097184
000290 1a f4 4c bd 89 ca 35 be 3e 51 cc 3c 93 7a a1 bd
       -0.05003748 -0.17753042 0.024941083 -0.07884707
0002a0 59 cd 24 be 4c c1 6f bd 41 39 5e bd 46 3a 12 be
       -0.16093959 -0.05853395 -0.05425382 -0.14280042
0002b0 14 9c 66 3a 6a 06 2f bd 49 da 06 3e 8c 8d ac bd
       0.0008797061 -0.042730726 0.13169207 -0.084254354
0002c0 a2 c2 65 3d 7c 40 27 3d c0 67 0d be 9f eb 80 3d
       0.05609382 0.04083298 -0.13809109 0.06294941
0002d0 0e 90 0f bd 93 a1 a3 3d ca 77 81 3c b0 c9 6d bd
       -0.03504949 0.07989802 0.01580419 -0.058053672
0002e0 bc 91 33 be 84 6e 96 bd 5d 62 21 be 6c 7d d0 3d
       -0.17536062 -0.07345298 -0.15760179 0.10180172
0002f0 06 7e 80 3d f0 93 d1 bd 8e a9 b7 3c 29 25 8a 3c
       0.06274037 -0.10233295 0.022419717 0.016863422
000300 df 35 d8 3d 51 8f ef 3d d9 99 ee 3d 27 ce 27 bd
       0.1055715 0.11697257 0.11650438 -0.040968087
000310 a2 eb 34 be 5c 9b fe 3b ab 20 34 bd c3 be cc bd
       -0.17668012 0.007769985 -0.043976467 -0.099973224
000320 be 96 d2 3d 13 bc 31 3d a9 f9 87 bd a6 63 2a bd
       0.10282658 0.043392252 -0.06639416 -0.04159894
000330 43 5a c4 3d 74 5b 2d 3d e8 9e 96 3b b3 cf 96 bd
       0.095875286 0.042323545 0.00459658 -0.07363834
000340 da c2 3c bc bb 0f 2b 3d 96 53 14 3e b5 f7 25 bc
       -0.011521066 0.04176305 0.1448501 -0.010129859
000350 cc ba 65 3d 0a 17 6c 3d 7d d7 0b bd 8c df 9e 3c
       0.056086347 0.05763916 -0.034141053 0.019393705
000360 ed e4 be 3c bf 63 f9 bd 20 a1 ef 3d 06 ed 93 bd
       0.02330252 -0.12177228 0.11700654 -0.07222943
000370 e2 ae 79 3d da d2 ae 3d 9e d2 3b bd ef 81 11 bd
       0.060957797 0.085363105 -0.045855157 -0.035524305
000380 48 f0 67 3c 45 3f 27 bd 33 68 e4 3d 1e b4 fe bc
       0.014156409 -0.040831823 0.11152687 -0.031091746
000390 08 62 f4 bc 3a 19 50 bd 6b 2f fa bd 89 77 dd 3d
       -0.029831901 -0.050805308 -0.122160755 0.10813815
0003a0 92 57 f9 bd 32 e2 76 39 10 3c 85 be cd 4e a7 bd
       -0.12174906 0.00023544653 -0.26022387 -0.08169327
0003b0 09 bc 05 bc d5 d3 7f 3d 86 a9 6a 3d e0 12 22 3d
       -0.008162507 0.06245788 0.057290576 0.03956878
0003c0 44 14 23 bd 84 37 c2 3d 39 25 6f 3d a4 90 2e 3e
       -0.03981425 0.09483245 0.058385108 0.17047364
0003d0 ac e4 28 be a5 ce 91 bd 9b cb e0 bc 27 dc 04 3e
       -0.16493481 -0.071194924 -0.027440837 0.12974606
0003e0 33 be 0b be 8e 0e 75 bd 28 e8 e6 bd f6 d0 c0 bd
       -0.13646774 -0.059828334 -0.11274749 -0.09414856
0003f0 48 22 e5 bc 85 65 af bc 78 7d ff 3d d5 4b e7 bc
       -0.027970448 -0.021410713 0.12475103 -0.028234402

network_body._body_endoder.seq_layers.2.bias f4 [128]
000000 5d 7d 56 bc e8 1a 0b 3c 5c 6b c3 3c c9 e3 f1 3b
       -0.013091412 0.008490302 0.023854904 0.0073818904
000010 cd 65 f8 bb 98 80 69 bc c6 1b 9d bc 3c 31 4b 3c
       -0.007580495 -0.014251851 -0.019178282 0.012401875
000020 99 6d d3 3c ab 49 a5 3c 3a fe db bb 65 5f 1a ba
       0.025809096 0.02017673 -0.006713656 -0.00058888487
000030 75 b5 f7 3c 2d 94 2d 3c 82 c0 7d 3b 1b 70 f4 bb
       0.030237893 0.01059441 0.003871948 -0.007459653
000040 c5 28 cf 3b f8 b1 ec bb 89 41 84 bc 2c f5 55 3b
       0.006321999 -0.007223364 -0.01614453 0.0032647355
000050 90 be c4 ba 0f 80 7c 3c 0a 8d 36 3c 92 77 15 bc
       -0.0015010405 0.015411391 0.011142025 -0.009122746
000060 d5 b1 c5 bc 99 df df ba 80 71 7c 3b 13 6e f6 bb
       -0.024132648 -0.0017080187 0.00385198 -0.007520446
000070 85 0d 92 bc 7c 6a ad 3c 5f 19 3b 3a 51 10 0b bc
       -0.017828712 0.02116894 0.00071372645 -0.008487777
000080 a4 28 84 3c 23 9b d1 3c 29 bb 7b 3c 39 54 20 bc
       0.01613266 0.02558667 0.015364447 -0.009785705
000090 9c 3b b7 bc 38 66 02 3d f9 a7 8b bc 9b 6b 9b 3c
       -0.022367291 0.031835765 -0.017047869 0.018972209
0000a0 df 17 91 bc 8e c2 f8 bc 3a 49 9c 3c cf cc 0d 3c
       -0.017711578 -0.030366208 0.019077886 0.008654787
0000b0 30 71 09 3b be 3e 81 3c a9 b6 fe 3c 57 c9 2e 3c
       0.0020972006 0.015776988 0.031092959 0.01066812
0000c0 84 83 e4 3c df 57 8a 3b a8 92 ac bb 53 6e 8f 3c
       0.027894743 0.004221901 -0.005266506 0.017508661
0000d0 62 da b5 bc 3b 5d 2b bc 6b 48 14 bc 16 0e 71 3c
       -0.02219886 -0.01045924 -0.009050469 0.014712831
0000e0 16 71 a1 bc 03 e8 9c bc 0b 10 83 bc 3d 4c 0d 3b
       -0.019707244 -0.0191536 -0.01599886 0.0021560334
0000f0 72 d8 0d 3b de 22 ea 3b b8 24 23 3a 24 6c de bb
       0.0021643904 0.00714527 0.0006223428 -0.0067877937
000100 ad 4b ff 3b 8c a1 e1 39 fd bc 82 ba 88 45 5d 3c
       0.0077910037 0.00043035706 -0.0009974536 0.013505347
000110 05 22 72 3b 10 e3 a9 b6 d6 d8 98 3b 8d 36 bc bc
       0.0036946547 -5.063026e-06 0.0046645207 -0.02297523
000120 72 62 dd bc 7a 3a a3 3c 03 8b 53 bc f7 18 3d 3c
       -0.027024481 0.019925345 -0.012911561 0.011541597
000130 6f 07 04 bc 52 cb 9c bc be 72 cf ba 5f bb bb 3a
       -0.008058413 -0.01913992 -0.0015827043 0.0014322809
000140 5c 59 72 bc b7 0c 5f bc 89 06 46 3c ae a7 78 3c
       -0.014791813 -0.013613871 0.012086519 0.015176697
000150 8f f1 85 3b 1a bc 86 3c 5c c1 f5 bb bc 59 c8 3c
       0.004087634 0.016447116 -0.007499857 0.024456851
000160 ba 8b a8 3c b1 c9 ba 3c 01 b6 f9 bb 28 93 97 bc
       0.02057444 0.022801252 -0.0076205735 -0.018502787
000170 0c 73 bf 3b 7f c2 7f 3a 41 71 ef 3c 3e 98 0a bc
       0.005842572 0.000975646 0.029228808 -0.008459149
000180 44 07 04 3c 77 4c 78 bc 0b 3c c3 3c 40 75 22 bc
       0.008058373 -0.015154949 0.023832342 -0.00991565
000190 5c 2a 84 3a e1 6d 05 bc 44 34 08 3c 17 93 c3 bb
       0.0010083425 -0.008143873 0.008313242 -0.005968462
0001a0 97 a1 4e bc 74 4a 91 3b a1 1b ea bc 1d 90 96 3b
       -0.012611768 0.0044339243 -0.028577628 0.0045948164
0001b0 95 69 96 3c 33 08 af bc 48 39 04 3b 0b 58 40 bc
       0.018360892 -0.021366214 0.0020175744 -0.011739741
0001c0 4e f2 41 3c dc 18 99 3c 3e e0 fe 3c e2 16 97 3c
       0.011837555 0.018688612 0.031112786 0.018443529
0001d0 59 db bd bc 30 dc 87 bc 05 af 48 bc 21 61 fc bb
       -0.023175882 -0.016584486 -0.012248759 -0.0077020084
0001e0 2c 55 35 3b 7f 9e 91 bc bd e1 f2 bc 2e 87 93 bc
       0.0027669175 -0.017775772 -0.029648656 -0.018008795
0001f0 fa c1 6b bc 55 d6 4f bb 52 d3 c9 bb 1c ec 95 3c
       -0.014389509 -0.0031713445 -0.0061592245 0.018301062

action_model._continuous_distribution.log_sigma f4 [1, 2]
000000 fe 3e cc 3d 18 e6 e1 3d
       0.09972952 0.11030215

action_model._continuous_distribution.mu.weight f4 [2, 128]
000000 ed 7f 4f 3d 5e 82 95 3b 35 fe 61 bd 8c d4 ea 3b
       0.05065911 0.00456266 -0.05517407 0.007166451
000010 9f e9 a0 3c 66 23 ae 3c 87 87 4a 3b 53 7d 1a bc
       0.01964265 0.021257114 0.0030903534 -0.009429294
000020 7a f0 07 bd 67 58 c6 ba 78 bf c5 bc 4d 31 58 3d
       -0.03318832 -0.0015132547 -0.024139151 0.052781392
000030 ed 2a 24 bb ed 11 92 bc 3e bd 80 bc 5b 9f 36 bb
       -0.002505 -0.017830813 -0.015715238 -0.002786598
000040 09 3f 33 bc 5e 76 36 3d 8e fa 4e 3d 3f 03 e8 bb
       -0.010940322 0.044546477 0.050531916 -0.007080465
000050 c1 21 50 bc 6d fa f3 bc 10 60 45 bd b0 e2 a6 3c
       -0.01270336 -0.029782498 -0.048187315 0.020371765
000060 df a6 2b ba d1 42 a1 bc 88 f3 1e 3c 29 00 8c 3c
       -0.0006547998 -0.01968518 0.009701617 0.01708992
000070 7c d2 cd b9 78 fc 39 bd fe e2 a2 3c d9 8e 8d 3b
       -0.0003925747 -0.04540679 0.019883629 0.0043200073
000080 e2 a2 ed bc ef ed 1a bc 4d 55 78 3d 00 05 e1 bb
       -0.029008333 -0.009456142 0.060628224 -0.006867051
000090 1d dc bf 3c 93 5b 48 bd 0c 6e b6 3c 47 5d 21 bc
       0.023420388 -0.048915457 0.022269271 -0.009848899
0000a0 c9 67 40 3d 8a 51 c6 3b 51 70 42 bd 8b d9 9f bc
       0.046973977 0.0060522007 -0.047470395 -0.019512912
0000b0 db d2 2b 3d 1b e6 9a 3c e3 59 bd bd 80 3a 18 3d
       0.041949134 0.018908551 -0.0924566 0.037165165
0000c0 85 cd a1 3b 76 e9 05 3b 3b 29 32 bc 74 38 a0 bd
       0.00493783 0.0020433343 -0.010874088 -0.078232676
0000d0 1a 69 90 3c 73 63 d4 3c d2 7f 67 bc 49 99 10 bd
       0.017628241 0.025926327 -0.014129596 -0.035302434
0000e0 99 20 26 3d c8 eb 4b bb 3f 3e 39 bc ef ea 93 bc
       0.04055843 -0.0031115878 -0.0113063445 -0.018056361
0000f0 b9 cc 22 3c 0a 9d 02 3c 63 92 14 3c a5 03 8a bc
       0.009936505 0.007972011 0.009068104 -0.016847441
000100 2c 59 3e 3d 55 f1 37 3b b1 cb c7 bc 14 ce 46 3d
       0.04647176 0.002806743 -0.02438912 0.048536375
000110 78 45 e7 bb 47 19 ac bc fb 2f 41 bd 19 b7 01 3d
       -0.007057842 -0.021008147 -0.0471649 0.031668756
000120 f5 36 88 3c 6e 7d a7 bc 61 c5 87 3c ec 39 8b 3b
       0.016627768 -0.020445552 0.01657361 0.004248848
000130 78 a0 19 bd 07 16 b9 3c 94 de 2e 3d ae a9 ae 3c
       -0.03750655 0.022593511 0.042692736 0.021321144
000140 2d 45 23 3c 67 dd 8f ba ca a1 30 bc a8 4f 22 3b
       0.009965223 -0.0010976017 -0.010780761 0.0024766717
000150 2a ac 4f bc b4 e3 28 bd 48 d9 26 3c 4c 86 0b bc
       -0.012675324 -0.04123278 0.01018364 -0.008515906
000160 62 4e 0d bd 4c 8c 31 bd 0e 1b 2b 3d f0 1e a2 3c
       -0.03449858 -0.04334669 0.04177385 0.019790143
000170 7f 15 56 3d 4c 2c c4 3b b3 95 f0 bc 08 9c 6c 3b
       0.052266594 0.005986726 -0.029368257 0.0036103744
000180 b4 de ff bc 69 95 83 3c 63 da 8f 3c f7 6d b5 ba
       -0.031234123 0.016062455 0.01756019 -0.0013841976
000190 ed 92 dd 3a 1a 13 44 bb 20 12 b9 3c 63 f4 f4 3c
       0.0016904749 -0.0029918612 0.02259165 0.029901689
0001a0 62 86 69 3c b4 df e8 bb 66 05 86 3b 5a 9c 3a 3d
       0.014253231 -0.0071067456 0.004089999 0.045559265
0001b0 19 01 45 bb 35 4f 00 3b 10 0a 5e 3c 2e e2 24 3d
       -0.0030060469 0.001957846 0.013552204 0.040254764
0001c0 c1 5e 18 bc 17 c7 bd 3c ac 82 f4 bc 44 fe 22 bd
       -0.009299935 0.023166222 -0.029847465 -0.039793268
0001d0 7a df 67 3b c4 9f 85 3c b4 70 cc b9 fe 98 0b bc
       0.0035381005 0.016311534 -0.00038993882 -0.008520363
0001e0 f0 ad 63 3c 1f 19 b2 3c 4d 67 e5 3b 35 e0 b4 3c
       0.01389645 0.021740494 0.00700084 0.022079566
0001f0 d1 6d 27 3d 51 a8 2a bb d2 5b 6b 3c bc 11 3c bd
       0.040876213 -0.0026040266 0.014365153 -0.04591535
000200 79 75 c3 bb f1 2a 12 bc 7d 9c 69 3d 22 9a 93 bc
       -0.0059649316 -0.008921371 0.057034004 -0.018017832
000210 e1 17 9d bb c1 16 42 3a 1e 89 eb 3c eb fa 5a bc
       -0.0047941064 0.00074039033 0.028751906 -0.013365488
000220 74 91 ce 3a 66 e7 08 bd 20 8e de 3c 95 7b 60 bd
       0.0015759901 -0.033423804 0.02716738 -0.054805357
000230 58 36 52 bd bb 76 13 bc 2c 06 b4 3c 86 6b 40 3d
       -0.051321357 -0.0090004755 0.0219756 0.046977542
000240 32 b6 19 bc 70 48 a7 bc 42 88 0b 3b 9f 4b 54 3b
       -0.009381818 -0.020420283 0.0021290933 0.0032393706
000250 ee 6c 40 3d 2e 44 8e bb 02 d4 94 3d cb 46 1b bc
       0.046978883 -0.0043416237 0.07267 -0.009477328
000260 74 1a 34 3c 22 c1 ba 3c dd 62 06 bc ba 74 31 3d
       0.010992635 0.022797171 -0.008202282 0.04332421
000270 05 96 a7 3c 19 75 06 bc e0 ba 35 bd 1d 01 db 3a
       0.020457277 -0.008206629 -0.04436767 0.0016708706
000280 e5 98 f4 3c be 85 b7 bc 59 0e 40 bd ce b5 84 3d
       0.029858062 -0.02240264 -0.046888683 0.06479989
000290 7c 65 54 3c ca 9e 6d bd 80 90 3f bc 47 ff 25 bd
       0.012963649 -0.05801276 -0.011692166 -0.040526655
0002a0 e8 c4 a9 3c e2 8d da 3c 5d 60 a2 3b 52 7a 2c bc
       0.020723775 0.026678983 0.004955335 -0.01052721
0002b0 68 c6 d5 bc 47 87 80 bd 83 97 91 3d f5 9f 56 bd
       -0.026095584 -0.06275802 0.07108977 -0.05239864
0002c0 5b 35 4a bd c5 4f d9 bc d0 fd 5e 3d ac 8d 3c 3d
       -0.04936729 -0.026527295 0.054441273 0.046033546
0002d0 d9 58 5e 3c 59 f7 3b bc f8 f2 cd 3b 20 56 04 bd
       0.013570988 -0.0114725465 0.0062850676 -0.032308698
0002e0 e9 c5 f3 3c cf 5d a5 3b 73 d3 4e 3c e3 8c 8d bc
       0.029757457 0.0050465832 0.012623656 -0.017279094
0002f0 77 37 14 bc 58 d2 b1 bc 33 53 85 bc e5 df 37 3d
       -0.009046427 -0.021706745 -0.016275024 0.044891257
000300 d6 3c 09 bd fc 01 35 3b 2c 75 1c 3d e8 5a 45 bd
       -0.033505283 0.002761959 0.03819768 -0.048182398
000310 2a e3 08 bb fb 33 ba bb bd a7 65 3d a6 10 aa 3c
       -0.0020887353 -0.005682466 0.05606817 0.020759892
000320 45 c3 7a 3b 0b 5f d2 bc 13 2a 07 bc 5d 49 f1 bc
       0.0038263362 -0.025680086 -0.008249777 -0.029453928
000330 71 da 6d 3d 09 5b 1d 3d e4 55 18 bd db 0e 99 bc
       0.05806965 0.038416896 -0.037191287 -0.018683841
000340 14 a3 e1 3a 1f 7e e0 3c c1 62 58 bc 82 7d 18 bd
       0.0017214739 0.02740389 -0.0132071385 -0.03722907
000350 25 a0 97 bb e8 ec aa 3c 3a d7 44 bb 3e 92 e8 bc
       -0.004627245 0.020864919 -0.0030035512 -0.028390046
000360 9a dc bd bc a9 27 86 bb 60 42 49 3c da 7b 0e 3c
       -0.02317648 -0.0040940833 0.012283891 0.008696521
000370 a6 47 0a bd 04 7a da bb 6c 16 4a bc 09 4b c8 b8
       -0.033759736 -0.0066673774 -0.012334447 -9.5507196e-05
000380 87 58 33 bc 7a c2 08 3d 91 2c 6d bd 79 23 f8 3b
       -0.0109463995 0.033388592 -0.05790383 0.007572588
000390 94 6e ae 3c 50 89 07 b8 9d e0 8e bc de 2a ee ba
       0.021292962 -3.231439e-05 -0.017441088 -0.0018170734
0003a0 79 a8 e6 bc 87 80 bd bc 6e ca 66 3c b8 02 3f bd
       -0.028156506 -0.023132576 0.014086349 -0.046633452
0003b0 50 87 9f bd 4e 56 c7 ba fa 03 86 bb 6c b4 e0 bb
       -0.07789481 -0.0015208216 -0.0040898295 -0.0068574455
0003c0 28 d0 ac 3b f0 2a 53 bd d0 d7 93 3c 46 7a a8 bc
       0.0052738376 -0.05155462 0.018047243 -0.020566117
0003d0 9a 80 8d 3c d8 2a 1f 3a 16 ea 3f b7 b1 f1 17 3d
       0.017273236 0.0006071753 -1.14389895e-05 0.03709573
0003e0 dd 0f 25 bc 89 ed 9d ba 31 75 59 ba 05 4e 07 3d
       -0.010074583 -0.001204894 -0.0008295356 0.03303339
0003f0 78 2d aa 3b 02 14 4b 3d 49 02 1d 3d d3 5c 4b 3c
       0.0051934086 0.049579628 0.038332257 0.012412268

action_model._continuous_distribution.mu.bias f4 [2]
000000 b9 36 21 bc 3f c0 c9 bc
       -0.009839707 -0.024627803

action_model._discrete_distribution.branches.0.weight f4 [1, 128]
000000 2f 2a 28 ba 85 cb 4d bc cc 8d 83 3b 4e 4a 91 3c
       -0.0006414977 -0.01256073 0.0040147062 0.017735627
000010 3f 1a 2f 3c 4d 94 9d 3c 2a c3 34 3b 40 b1 93 bb
       0.01068741 0.019235754 0.0027582147 -0.004507214
000020 e1 22 80 bb 4d cf 04 bc 4f 87 77 3c 29 77 9f bb
       -0.003910408 -0.008106065 0.015107944 -0.0048665
000030 08 97 16 bc 37 bb 78 ba 2f 88 af bb 5a 5e 7c bc
       -0.009191282 -0.00094883464 -0.0053568105 -0.015403355
000040 7d 9f 20 bb 0a 35 f1 bb 13 4a ad 3b df 81 28 bb
       -0.0024509125 -0.007361059 0.0052883714 -0.0025712175
000050 1d 23 6b 3b c4 d7 42 3b 4b cf 1e bc 53 b9 7a bb
       0.0035879083 0.0029730657 -0.009692977 -0.0038257434
000060 c2 1c fc bb 08 88 f0 3b da 9b 62 bc b4 c1 20 3c
       -0.007693858 0.007340435 -0.013831103 0.009811807
000070 11 88 a2 3b 23 e7 e6 ba d0 f6 ad 3b c8 a3 11 3b
       0.004960068 -0.0017616492 0.0053089634 0.0022222865
000080 db 5a 1e 3c 2a d7 89 bc fb 60 18 3c df e5 94 bc
       0.009665216 -0.016826231 0.009300466 -0.018176017
000090 58 df 1c 39 03 6b 12 bc a9 c9 c8 bb fb 67 6a ba
       0.00014960521 -0.008936646 -0.0061275554 -0.0008941886
0000a0 a4 f3 32 ba c2 36 64 bb 41 72 26 bc 4f be 5d bc
       -0.00068264664 -0.0034822677 -0.010159076 -0.013534143
0000b0 4f 89 02 3c 15 ad 5d 3c e9 7b 89 bc 2d 0e e6 ba
       0.007967307 0.0135300355 -0.016782718 -0.0017551832
0000c0 68 2e 1b bc b1 f1 32 bc 30 da 51 3a 43 72 e6 3a
       -0.009471513 -0.0109218815 0.000800523 0.001758166
0000d0 71 d9 92 bc f3 75 f8 3b 66 b4 22 bc b5 8b b0 3b
       -0.01792595 0.00758242 -0.009930706 0.005387748
0000e0 2b 02 c0 bb 3d cd f6 bb 05 a7 b5 3b 5f 7f 92 37
       -0.0058596334 -0.0075317905 0.005543592 1.7463868e-05
0000f0 b8 cb 79 3b d5 9a 31 bc 88 dc 2c 3b 9c 8f 28 3c
       0.003811581 -0.0108401375 0.0026376564 0.010288145
000100 47 1f 0e 3b fa 55 41 3c 72 16 66 bc bd a3 13 bc
       0.0021686123 0.011800284 -0.014043437 -0.009011206
000110 da 89 21 bc fa b5 7a 3b fd fd b6 3b b8 8b d2 bb
       -0.0098595265 0.003825544 0.005584477 -0.006425347
000120 55 3b 25 3c d3 2c 89 3b 8f 88 8f bc 9a 4f 22 3c
       0.010084947 0.0041862517 -0.01752117 0.009906674
000130 37 f7 a2 bb 5f 13 f7 3b 1f 3e 9d bb 7d 3b c3 3b
       -0.004973318 0.007540151 -0.004798665 0.0059580193
000140 8a 39 ec 3b 27 45 68 38 fe b5 06 3b 3d 64 fc 3b
       0.0072090076 5.5377513e-05 0.0020555253 0.007702379
000150 9d f1 d8 3b bb bf 4c bb d8 19 d9 bc 8d db a8 bb
       0.0066205994 -0.003124221 -0.026501581 -0.0051531256
000160 0b 73 6b 3c 76 3b ad 3a 87 e2 fd 3a ff ec 45 bc
       0.01437069 0.0013216573 0.0019369879 -0.01208043
000170 1f d6 cf bb 88 8e d6 bb 66 49 31 bc d8 eb 84 3b
       -0.006342664 -0.006547753 -0.010820722 0.004056435
000180 43 0b 21 bc 9b 4f 66 3c 0b 18 28 bc 78 1b 56 3b
       -0.009829345 0.014057065 -0.010259639 0.0032670181
000190 49 73 0f bc 56 83 a3 3c ad 51 4a ba 1a 2c 25 3c
       -0.0087555135 0.019960087 -0.0007717859 0.010081315
0001a0 67 74 46 3b 13 93 64 bc 3b 95 c6 39 74 ac b2 3b
       0.0030281784 -0.013951081 0.00037876688 0.005452687
0001b0 4a 17 93 3b 45 4c cc 3a 85 d2 b1 bb 87 c0 c1 bc
       0.0044888603 0.0015586695 -0.005426707 -0.023651375
0001c0 27 bb e0 3a 2a 20 ab bb 7e da 24 bc 54 50 29 bc
       0.001714562 -0.00522234 -0.010061858 -0.010334093
0001d0 e5 d9 f1 3b c3 36 f6 3a 89 3a 91 bb 47 24 1d 3b
       0.0073807114 0.0018784631 -0.0044320268 0.0023977922
0001e0 fd 52 36 b9 41 eb 04 bc 91 9f 9b bc 2b 1c db 3a
       -0.00017387788 -0.0081127295 -0.018996986 0.0016716769
0001f0 87 62 9a bb 7a 0c 57 bc 03 c1 18 3b 53 bd 86 ba
       -0.0047114524 -0.013125533 0.0023308403 -0.0010279812

exp_avg f4 [128, 66]
000000 43 11 fa b8 43 11 fa b8 43 11 fa b8 34 bd bb 38
       -0.00011924144 -0.00011924144 -0.00011924144 8.952097e-05
000010 14 31 97 38 2d c8 bd b8 c9 6c bf b8 b2 f9 c7 37
       7.2093826e-05 -9.049508e-05 -9.1278525e-05 2.3838922e-05
000020 aa 61 b6 b8 03 ad de b5 9d 49 d3 37 54 f5 bf 38
       -8.6966276e-05 -1.6590642e-06 2.5187439e-05 9.153286e-05
000030 de fe be b8 4c b5 02 b7 0e 72 a4 36 06 f4 a6 38
       -9.107379e-05 -7.790815e-06 4.9008586e-06 7.96095e-05
000040 13 4f 21 b8 1a 6f e3 36 00 00 00 00 ce 0d 48 b6
       -3.8459035e-05 6.778061e-06 0.0 -2.9810358e-06
000050 00 00 00 00 43 11 7a b8 ce 0d 48 b6 43 11 7a 38
       0.0 -5.962072e-05 -2.9810358e-06 5.962072e-05
000060 43 11 7a b8 ce 0d 48 b6 43 11 7a b8 43 11 7a 38
       -5.962072e-05 -2.9810358e-06 -5.962072e-05 5.962072e-05
000070 ce 0d 48 b6 43 11 7a b8 00 00 00 00 ce 0d 48 b6
       -2.9810358e-06 -5.962072e-05 0.0 -2.9810358e-06
000080 00 00 00 00 1a c3 0a b9 1a c3 0a b9 1a c3 0a b9
       0.0 -0.00013233387 -0.00013233387 -0.00013233387
000090 1d 5a d0 38 a1 38 a4 38 48 74 d2 b8 88 37 d4 b8
       9.934998e-05 7.830677e-05 -0.000100352394 -0.00010119291
0000a0 53 9f ee 37 3a ff ca b8 d6 bf 0a b6 82 db 86 37
       2.8446002e-05 -9.67965e-05 -2.0675266e-06 1.6076261e-05
0000b0 b9 22 d7 38 cb 26 d4 b8 80 fb 2a b7 ee 1d b6 36
       0.000102584665 -0.000101161735 -1.01913465e-05 5.427507e-06
0000c0 27 61 b9 38 52 52 2d b8 6d 5a f3 36 00 00 00 00
       8.8395835e-05 -4.132308e-05 7.2524913e-06 0.0
0000d0 f5 04 5e b6 00 00 00 00 1a c3 8a b8 f5 04 5e b6
       -3.3083463e-06 0.0 -6.616693e-05 -3.3083463e-06
0000e0 1a c3 8a 38 1a c3 8a b8 f5 04 5e b6 1a c3 8a b8
       6.616693e-05 -6.616693e-05 -3.3083463e-06 -6.616693e-05
0000f0 1a c3 8a 38 f5 04 5e b6 1a c3 8a b8 00 00 00 00
       6.616693e-05 -3.3083463e-06 -6.616693e-05 0.0
000100 f5 04 5e b6 00 00 00 00 2e 36 49 b6 2e 36 49 b6
       -3.3083463e-06 0.0 -2.998287e-06 -2.998287e-06
000110 2e 36 49 b6 a8 de 1a 36 8b 82 36 b7 8e 34 27 b6
       -2.998287e-06 2.3077391e-06 -1.087844e-05 -2.491553e-06
000120 18 9a 04 b6 16 a1 8f b7 8f 4c f0 b5 e7 64 32 34
       -1.9759227e-06 -1.712194e-05 -1.7903675e-06 1.661425e-07
000130 00 75 46 b7 7f 29 12 36 e3 b6 19 b6 0b f8 3c b7
       -1.1828961e-05 2.177985e-06 -2.290523e-06 -1.1263425e-05
000140 69 59 89 b4 b3 35 5c 36 e7 09 91 35 e0 9a 6f b5
       -2.5583293e-07 3.2813812e-06 1.0806224e-06 -8.925981e-07
000150 00 00 00 00 3f f8 a0 b3 00 00 00 00 2e 36 c9 b5
       0.0 -7.495736e-08 0.0 -1.4991435e-06
000160 3f f8 a0 b3 2e 36 c9 35 2e 36 c9 b5 3f f8 a0 b3
       -7.495736e-08 1.4991435e-06 -1.4991435e-06 -7.495736e-08
000170 2e 36 c9 b5 2e 36 c9 35 3f f8 a0 b3 2e 36 c9 b5
       -1.4991435e-06 1.4991435e-06 -7.495736e-08 -1.4991435e-06
000180 00 00 00 00 3f f8 a0 b3 00 00 00 00 d9 7b 49 b6
       0.0 -7.495736e-08 0.0 -3.0023423e-06
000190 d9 7b 49 b6 d9 7b 49 b6 d7 5a 1b 36 a5 92 3f b7
       -3.0023423e-06 -3.0023423e-06 2.3149676e-06 -1.14186305e-05
0001a0 38 48 27 b6 00 fe f9 b5 db 06 88 b7 76 29 ff b5
       -2.4926976e-06 -1.8625869e-06 -1.6215656e-05 -1.9011047e-06
0001b0 2d 5e 80 34 57 de 3d b7 31 56 0d 36 6e 91 15 b6
       2.391038e-07 -1.1317045e-05 2.1060807e-06 -2.2287381e-06
0001c0 c3 07 2d b7 af d3 d1 b4 c1 6c 64 36 09 79 1e 36
       -1.0313411e-05 -3.9083304e-07 3.403795e-06 2.3614286e-06
0001d0 da 95 89 b5 00 00 00 00 f5 2f a1 b3 00 00 00 00
       -1.0250908e-06 0.0 -7.50587e-08 0.0
0001e0 d9 7b c9 b5 f5 2f a1 b3 d9 7b c9 35 d9 7b c9 b5
       -1.5011711e-06 -7.50587e-08 1.5011711e-06 -1.5011711e-06
0001f0 f5 2f a1 b3 d9 7b c9 b5 d9 7b c9 35 f5 2f a1 b3
       -7.50587e-08 -1.5011711e-06 1.5011711e-06 -7.50587e-08
000200 d9 7b c9 b5 00 00 00 00 f5 2f a1 b3 00 00 00 00
       -1.5011711e-06 0.0 -7.50587e-08 0.0
000210 c5 eb 5c 38 c5 eb 5c 38 c5 eb 5c 38 1a c9 25 b8
       5.2671665e-05 5.2671665e-05 5.2671665e-05 -3.9526356e-05
000220 bd f4 3a b8 54 26 26 38 0d 02 2a 38 70 c1 97 b7
       -4.4573786e-05 3.961318e-05 4.053307e-05 -1.8090679e-05
000230 8c f2 1d 38 39 09 6f 35 e7 d8 d1 b7 2e d3 29 b8
       3.7657606e-05 8.904786e-07 -2.5015745e-05 -4.0489416e-05
000240 d8 75 28 38 3c f2 37 b7 f5 13 19 b6 01 37 0d b8
       4.0164072e-05 -1.096405e-05 -2.2810393e-06 -3.3668246e-05
000250 a0 39 8e 37 98 95 7c b6 00 00 00 00 9d bc b0 35
       1.6954553e-05 -3.7638001e-06 0.0 1.3167916e-06
000260 00 00 00 00 c5 eb dc 37 9d bc b0 35 c5 eb dc b7
       0.0 2.6335832e-05 1.3167916e-06 -2.6335832e-05
000270 c5 eb dc 37 9d bc b0 35 c5 eb dc 37 c5 eb dc b7
       2.6335832e-05 1.3167916e-06 2.6335832e-05 -2.6335832e-05
000280 9d bc b0 35 c5 eb dc 37 00 00 00 00 9d bc b0 35
       1.3167916e-06 2.6335832e-05 0.0 1.3167916e-06
000290 00 00 00 00 7f 7a 88 38 7f 7a 88 38 7f 7a 88 38
       0.0 6.507802e-05 6.507802e-05 6.507802e-05
0002a0 be d7 4c b8 5b 23 40 b8 5a 68 4d 38 e0 98 51 38
       -4.8838316e-05 -4.5809295e-05 4.8972994e-05 4.997186e-05
0002b0 0b c7 89 b7 a8 8b 44 38 6b 38 98 35 5e 7f 93 b7
       -1.642436e-05 4.6860107e-05 1.1341302e-06 -1.7583076e-05
0002c0 31 65 53 b8 a0 20 50 38 b0 cb d5 b6 5a a3 2c b6
       -5.0400562e-05 4.962145e-05 -6.371607e-06 -2.572508e-06
0002d0 9d 53 30 b8 6a f3 bc 37 2d a7 86 b6 00 00 00 00
       -4.203954e-05 2.2524695e-05 -4.012973e-06 0.0
0002e0 8d 5d da 35 00 00 00 00 7f 7a 08 38 8d 5d da 35
       1.6269493e-06 0.0 3.253901e-05 1.6269493e-06
0002f0 7f 7a 08 b8 7f 7a 08 38 8d 5d da 35 7f 7a 08 38
       -3.253901e-05 3.253901e-05 1.6269493e-06 3.253901e-05
000300 7f 7a 08 b8 8d 5d da 35 7f 7a 08 38 00 00 00 00
       -3.253901e-05 1.6269493e-06 3.253901e-05 0.0
000310 8d 5d da 35 00 00 00 00 dc 3c 9e b5 dc 3c 9e b5
       1.6269493e-06 0.0 -1.178963e-06 -1.178963e-06
000320 dc 3c 9e b5 15 37 65 35 7d d0 17 37 0d 41 51 b5
       -1.178963e-06 8.53893e-07 9.048844e-06 -7.795323e-07
000330 41 cb 90 b5 8d c9 37 37 1a 3d 8c b5 c2 13 f7 b3
       -1.0787991e-06 1.0954577e-05 -1.0448596e-06 -1.1505428e-07
000340 91 2b 0e 37 73 47 83 35 0c e0 71 b5 ff a4 e3 36
       8.474003e-06 9.781055e-07 -9.010553e-07 6.7843353e-06
000350 7d 6a a8 34 1d df b0 33 68 33 51 b5 0a 01 3f 35
       3.136992e-07 8.236223e-08 -7.7933373e-07 7.1154557e-07
000360 00 00 00 00 e3 2d fd b2 00 00 00 00 dc 3c 1e b5
       0.0 -2.9473943e-08 0.0 -5.894815e-07
000370 e3 2d fd b2 dc 3c 1e 35 dc 3c 1e b5 e3 2d fd b2
       -2.9473943e-08 5.894815e-07 -5.894815e-07 -2.9473943e-08
000380 dc 3c 1e b5 dc 3c 1e 35 e3 2d fd b2 dc 3c 1e b5
       -5.894815e-07 5.894815e-07 -2.9473943e-08 -5.894815e-07
000390 00 00 00 00 e3 2d fd b2 00 00 00 00 21 27 23 b6
       0.0 -2.9473943e-08 0.0 -2.4311669e-06
0003a0 21 27 23 b6 21 27 23 b6 e3 77 f0 35 b1 e0 19 37
       -2.4311669e-06 -2.4311669e-06 1.7916285e-06 9.171826e-06
0003b0 9f ea e7 b5 df c4 0b b6 29 96 26 37 44 40 ff b5
       -1.7279125e-06 -2.0827208e-06 9.929333e-06 -1.9017684e-06
0003c0 53 eb 2c b4 80 43 f9 36 6a 0e 06 36 b3 91 fc b5
       -1.6104359e-07 7.4286363e-06 1.9975946e-06 -1.8817867e-06
0003d0 e8 5f ba 36 da 7e de 34 a2 97 6d 35 a0 1d 14 b6
       5.554397e-06 4.144302e-07 8.8510035e-07 -2.2070963e-06
0003e0 66 36 58 35 00 00 00 00 95 85 82 b3 00 00 00 00
       8.054543e-07 0.0 -6.077895e-08 0.0
0003f0 21 27 a3 b5 95 85 82 b3 21 27 a3 35 21 27 a3 b5
       -1.2155834e-06 -6.077895e-08 1.2155834e-06 -1.2155834e-06

exp_avg_sq f4 [128, 66]
000000 da 72 e5 33 da 72 e5 33 da 72 e5 33 26 d7 31 33
       1.0684535e-07 1.0684535e-07 1.0684535e-07 4.14067e-08
000010 3a a9 cc 32 b4 c9 36 33 99 5d 7e 34 34 8d 8e 3d
       2.3825681e-08 4.2558625e-08 2.3689644e-07 0.06960526
000020 81 98 ad 33 2e 91 e8 32 e4 6f ec 32 c8 45 78 33
       8.0836806e-08 2.7074375e-08 2.7524898e-08 5.7805465e-08
000030 5b 27 7d 33 6c 82 34 3d c5 5e d3 32 aa e7 4a 33
       5.8941946e-08 0.044069692 2.4606729e-08 4.7242487e-08
000040 d0 75 f1 32 6b 5e bf 32 00 00 00 00 e4 d8 92 2e
       2.8109667e-08 2.2278263e-08 0.0 6.677839e-11
000050 00 00 00 00 da 72 e5 32 e4 d8 92 2e da 72 e5 32
       0.0 2.6711337e-08 6.677839e-11 2.6711337e-08
000060 da 72 e5 32 e4 d8 92 2e da 72 e5 32 da 72 e5 32
       2.6711337e-08 6.677839e-11 2.6711337e-08 2.6711337e-08
000070 e4 d8 92 2e da 72 e5 32 00 00 00 00 e4 d8 92 2e
       6.677839e-11 2.6711337e-08 0.0 6.677839e-11
000080 00 00 00 00 59 06 e9 33 59 06 e9 33 59 06 e9 33
       0.0 1.08510626e-07 1.08510626e-07 1.08510626e-07
000090 9a 9c 35 33 c3 dd ec 32 a4 a4 3a 33 75 1f 80 34
       4.2284775e-08 2.7574862e-08 4.345624e-08 2.3864746e-07
0000a0 21 fa 8e 3d 36 3c af 33 08 e6 e7 32 85 b4 ec 32
       0.06981302 8.160025e-08 2.6996545e-08 2.7556107e-08
0000b0 3d 2d 7d 33 61 05 81 33 41 ea 34 3d a5 e7 d3 32
       5.8947297e-08 6.008009e-08 0.044168714 2.4668973e-08
0000c0 e0 99 4c 33 69 f2 ec 32 22 7e bf 32 00 00 00 00
       4.76374e-08 2.7584251e-08 2.2292685e-08 0.0
0000d0 c5 22 95 2e 00 00 00 00 59 06 e9 32 c5 22 95 2e
       6.781912e-11 0.0 2.7127657e-08 6.781912e-11
0000e0 59 06 e9 32 59 06 e9 32 c5 22 95 2e 59 06 e9 32
       2.7127657e-08 2.7127657e-08 6.781912e-11 2.7127657e-08
0000f0 59 06 e9 32 c5 22 95 2e 59 06 e9 32 00 00 00 00
       2.7127657e-08 6.781912e-11 2.7127657e-08 0.0
000100 c5 22 95 2e 00 00 00 00 68 5b 8d 32 68 5b 8d 32
       6.781912e-11 0.0 1.6456127e-08 1.6456127e-08
000110 68 5b 8d 32 29 0d e8 31 24 19 c5 31 16 26 da 31
       1.6456127e-08 6.753585e-09 5.7363128e-09 6.348965e-09
000120 4d 50 89 32 fb 8a d5 3c 54 b1 15 32 ca f7 92 31
       1.5985416e-08 0.026067248 8.713261e-09 4.2773296e-09
000130 14 83 ad 31 89 4d 2d 32 19 d3 36 32 87 d9 d0 3c
       5.0498645e-09 1.0087555e-08 1.0641792e-08 0.02549435
000140 d1 f5 f9 32 65 88 f2 31 70 11 90 31 2d b1 59 31
       2.90992e-08 7.0586332e-09 4.192934e-09 3.1678369e-09
000150 00 00 00 00 eb ef 34 2d 00 00 00 00 68 5b 8d 31
       0.0 1.0285088e-11 0.0 4.114032e-09
000160 eb ef 34 2d 68 5b 8d 31 68 5b 8d 31 eb ef 34 2d
       1.0285088e-11 4.114032e-09 4.114032e-09 1.0285088e-11
000170 68 5b 8d 31 68 5b 8d 31 eb ef 34 2d 68 5b 8d 31
       4.114032e-09 4.114032e-09 1.0285088e-11 4.114032e-09
000180 00 00 00 00 eb ef 34 2d 00 00 00 00 bc 63 8d 32
       0.0 1.0285088e-11 0.0 1.6459914e-08
000190 bc 63 8d 32 bc 63 8d 32 a9 3c e8 31 4a 68 cf 31
       1.6459914e-08 1.6459914e-08 6.758985e-09 6.036349e-09
0001a0 21 60 da 31 03 bd 89 32 ec 05 d6 3c fe 8a 15 32
       6.3555636e-09 1.6034852e-08 0.02612587 8.704545e-09
0001b0 cf f7 92 31 9c ac ab 31 a6 b2 2d 32 24 45 37 32
       4.277332e-09 4.9963784e-09 1.0110545e-08 1.0667723e-08
0001c0 64 50 d1 3c 58 80 fa 32 db 86 f1 31 26 99 8c 31
       0.025551029 2.9162194e-08 7.0293544e-09 4.0919472e-09
0001d0 86 a6 5b 31 00 00 00 00 8c fa 34 2d 00 00 00 00
       3.1963352e-09 0.0 1.0287448e-11 0.0
0001e0 bc 63 8d 31 8c fa 34 2d bc 63 8d 31 bc 63 8d 31
       4.1149786e-09 1.0287448e-11 4.1149786e-09 4.1149786e-09
0001f0 8c fa 34 2d bc 63 8d 31 bc 63 8d 31 8c fa 34 2d
       1.0287448e-11 4.1149786e-09 4.1149786e-09 1.0287448e-11
000200 bc 63 8d 31 00 00 00 00 8c fa 34 2d 00 00 00 00
       4.1149786e-09 0.0 1.0287448e-11 0.0
000210 fc 3c 5e 33 fc 3c 5e 33 fc 3c 5e 33 47 2c c8 32
       5.1743868e-08 5.1743868e-08 5.1743868e-08 2.33032e-08
000220 ea 41 58 32 53 11 ca 32 93 28 9b 33 b9 78 e0 3c
       1.2587842e-08 2.3523773e-08 7.2251304e-08 0.027401315
000230 3e 5c 13 33 a5 bb 23 32 2a 01 58 32 c5 dd 04 33
       3.431e-08 9.530514e-09 1.2573119e-08 3.0935343e-08
000240 dc 66 02 33 38 5c 31 3c c7 07 41 33 87 55 c1 32
       3.0361534e-08 0.010825209 4.4943388e-08 2.250705e-08
000250 a3 9f 7f 32 f2 8a 14 32 00 00 00 00 8a 3b 0e 2e
       1.4879251e-08 8.646326e-09 0.0 3.2339943e-11
000260 00 00 00 00 fc 3c 5e 32 8a 3b 0e 2e fc 3c 5e 32
       0.0 1.2935967e-08 3.2339943e-11 1.2935967e-08
000270 fc 3c 5e 32 8a 3b 0e 2e fc 3c 5e 32 fc 3c 5e 32
       1.2935967e-08 3.2339943e-11 1.2935967e-08 1.2935967e-08
000280 8a 3b 0e 2e fc 3c 5e 32 00 00 00 00 8a 3b 0e 2e
       3.2339943e-11 1.2935967e-08 0.0 3.2339943e-11
000290 00 00 00 00 31 60 61 33 31 60 61 33 31 60 61 33
       0.0 5.247438e-08 5.247438e-08 5.247438e-08
0002a0 4c a4 cb 32 cc cd 65 32 fd 57 cd 32 ba a0 9c 33
       2.3707024e-08 1.3376347e-08 2.3905153e-08 7.293552e-08
0002b0 59 41 e1 3c 94 be 14 33 de 0f 24 32 8a af 52 32
       0.02749698 3.4632265e-08 9.549664e-09 1.2263522e-08
0002c0 ad 0b 07 33 c6 a2 04 33 9e c3 31 3c 9b 92 41 33
       3.1442756e-08 3.0881687e-08 0.010849861 4.506965e-08
0002d0 8a c3 c2 32 ba e7 78 32 8e bb 14 32 00 00 00 00
       2.2673493e-08 1.4488188e-08 8.657379e-09 0.0
0002e0 89 3d 10 2e 00 00 00 00 31 60 61 32 89 3d 10 2e
       3.2796463e-11 0.0 1.3118595e-08 3.2796463e-11
0002f0 31 60 61 32 31 60 61 32 89 3d 10 2e 31 60 61 32
       1.3118595e-08 1.3118595e-08 3.2796463e-11 1.3118595e-08
000300 31 60 61 32 89 3d 10 2e 31 60 61 32 00 00 00 00
       1.3118595e-08 3.2796463e-11 1.3118595e-08 0.0
000310 89 3d 10 2e 00 00 00 00 e4 8f a3 32 e4 8f a3 32
       3.2796463e-11 0.0 1.9041131e-08 1.9041131e-08
000320 e4 8f a3 32 1f 34 00 32 fd bf f7 31 90 63 16 32
       1.9041131e-08 7.462432e-09 7.2104727e-09 8.753787e-09
000330 35 d6 8c 33 ea dc 2f 3d 47 fe b9 32 96 6e 29 32
       6.558222e-08 0.04293529 2.1652466e-08 9.862239e-09
000340 0a af 3c 32 fe 30 6d 32 82 db 63 32 df 42 7b 37
       1.09828395e-08 1.3806355e-08 1.3263049e-08 1.49763355e-05
000350 52 18 76 32 a6 3d 1e 32 6a ee 19 32 8d b6 2c 32
       1.4324614e-08 9.210828e-09 8.959981e-09 1.0053225e-08
000360 00 00 00 00 02 5c 51 2d 00 00 00 00 e4 8f a3 31
       0.0 1.1900704e-11 0.0 4.760283e-09
000370 02 5c 51 2d e4 8f a3 31 e4 8f a3 31 02 5c 51 2d
       1.1900704e-11 4.760283e-09 4.760283e-09 1.1900704e-11
000380 e4 8f a3 31 e4 8f a3 31 02 5c 51 2d e4 8f a3 31
       4.760283e-09 4.760283e-09 1.1900704e-11 4.760283e-09
000390 00 00 00 00 02 5c 51 2d 00 00 00 00 bd b5 a3 32
       0.0 1.1900704e-11 0.0 1.9058342e-08
0003a0 bd b5 a3 32 bd b5 a3 32 88 c3 00 32 b4 b6 fb 31
       1.9058342e-08 1.9058342e-08 7.495039e-09 7.3258324e-09
0003b0 24 9f 16 32 60 46 8d 33 13 9a 30 3d e5 35 ba 32
       8.7673335e-09 6.578625e-08 0.043115687 2.1677758e-08
0003c0 3b b9 29 32 18 d3 3c 32 a8 61 6d 32 d3 2f 64 32
       9.879211e-09 1.0991037e-08 1.381742e-08 1.3282221e-08
0003d0 45 f5 7c 37 1b 4f 76 32 31 4b 1e 32 87 8c 19 32
       1.5077477e-05 1.4337071e-08 9.213907e-09 8.937724e-09
0003e0 32 d1 2c 32 00 00 00 00 5c 8c 51 2d 00 00 00 00
       1.0059283e-08 0.0 1.1911441e-11 0.0
0003f0 bd b5 a3 31 5c 8c 51 2d bd b5 a3 31 bd b5 a3 31
       4.7645856e-09 1.1911441e-11 4.7645856e-09 4.7645856e-09
