results/ag14/PlatformRotate/PlatformRotate-842797.onnx (onnx, 112474 bytes, 8 tensors)

network_body._body_endoder.seq_layers.0.weight f4 [128, 78]
0	0xbdf29868	-0.118454754
1	0x3d4783c5	0.04870965
2	0xbd773fd9	-0.060363624
3	0x3d817330	0.063207984
4	0x3d000c16	0.031261526
5	0xbe05429d	-0.13013692
6	0x3b5b4a96	0.0033461205
7	0x3e1e802c	0.15478581
8	0xbe068143	-0.13135247
9	0x3d6cae30	0.057783306
10	0x3a9d5a91	0.001200514
11	0x3e19eb6e	0.15031216
12	0xbcf0590a	-0.029339332
13	0xbd5e85c9	-0.054326806
14	0x3d35ae8d	0.044355918
15	0x3dbf3948	0.093370974
16	0xbc60f3d4	-0.013730008
17	0x3d9241df	0.0714147
18	0x3c926432	0.017870042
19	0x3da2486d	0.0792397
20	0xbd9445aa	-0.0723985
21	0xbd33d4bb	-0.043904047
22	0xbe5a1d8e	-0.21300337
23	0xbc1da06f	-0.00962077
24	0x3b5a20de	0.003328375
25	0xbd86d678	-0.065838754
26	0x3d7acddb	0.061231475
27	0xbd037cc5	-0.03210141
28	0x3e9a9b2b	0.3019651
29	0x3ad90727	0.0016557918
30	0x3dec7c02	0.1154709
31	0xbea6535d	-0.32485476
32	0xbb9cbbcd	-0.00478313
33	0xbd60579d	-0.054771055
34	0x3ce8f107	0.028435243
35	0xbe4a20b9	-0.19739045
36	0x3c0697b8	0.0082148835
37	0x3d0805a2	0.033208497
38	0xbda141be	-0.078738675
39	0xbdd11927	-0.102098756
40	0x3d248b9e	0.04017221
41	0xbb6d2739	-0.0036186709
42	0xbb0fc126	-0.0021935194
43	0xbcf91d99	-0.030409621
44	0x3e4e273f	0.20132159
45	0x3c0e77d5	0.008695562
46	0x3c898a20	0.016789496
47	0xbc6046c0	-0.013688743
48	0x3c9ebb19	0.019376324
49	0xbe5f75b4	-0.21822244
50	0xbd5aab9c	-0.053386316
51	0x3c19d19f	0.0093883565
52	0x3d57dbbe	0.052699797
53	0x3e020b4a	0.12699619
54	0x3dfe70bf	0.12423848
55	0x3e21d17c	0.15802568
56	0xbd50d716	-0.050986372
57	0xbb85f290	-0.0040877536
58	0x3d18fef0	0.037352502
59	0xbde0f8ed	-0.10984979
60	0xbe9da259	-0.30787924
61	0xbdde0abf	-0.108418934
62	0x3e2dae58	0.16961038
63	0x3e8a010d	0.26953927
64	0xbc6d06ad	-0.014466924
65	0x3d89873b	0.06715246
66	0xbdcdd9c7	-0.10051303
67	0x3de41140	0.11136103
68	0xbe04b0cc	-0.12958068
69	0x3e2604e2	0.162128
70	0x3db53189	0.08847339
71	0x3e45800c	0.19287127
72	0xbdb9161a	-0.09037419
73	0xbdec3a5d	-0.115345694
74	0xbb47a06f	-0.0030460616
75	0x3c1ba79d	0.009500411
76	0x3cec886c	0.028873645
77	0x3cfd73c4	0.03093899
78	0x3d273342	0.040820368
79	0x3dcecddc	0.10097858
80	0xbd911140	-0.07083368
81	0xbd8331a6	-0.06405954
82	0x3dcfde87	0.101498656
83	0xbe120c75	-0.14262564
84	0xbcfbd240	-0.030739903
85	0x3dd6c7a9	0.10487301
86	0xbe479fbc	-0.19494528
87	0xbb369f08	-0.0027865786
88	0xbe07fb5e	-0.13279483
89	0x3d6d6229	0.05795494
90	0xbcd84c1a	-0.026403476
91	0xbe0649e9	-0.13114132
92	0xbdd9b815	-0.10630814
93	0x3d6e464a	0.0581725
94	0x3db373de	0.08762334
95	0xbd222c0b	-0.039592784
96	0x3d150d42	0.036389597
97	0xbda2efb3	-0.07955875
98	0x3ddc4ade	0.10756467
99	0x3dcb24ea	0.0991915
100	0x3e1135ca	0.14180675
101	0xbe4df73c	-0.20113844
102	0x3dc8988b	0.0979472
103	0xbd10b681	-0.0353303
104	0xbd1da1c0	-0.038484335
105	0xbdc25bad	-0.09490142
106	0x3d3ce76b	0.046119135
107	0xbc3b95ce	-0.01144929
108	0x3c30fa28	0.010801829
109	0x3b9f6bc1	0.00486514
110	0x3d6184ba	0.05505822
111	0xbdf6f811	-0.12059034
112	0xbd08edd6	-0.033429943
113	0x3cb0e996	0.021595757
114	0x3d1991aa	0.03749243
115	0x3e00a76a	0.12563863
116	0x3ddb2337	0.10700076
117	0xbd9922bc	-0.07477328
118	0x3d4c7782	0.04991866
119	0xbe4c4b52	-0.19950607
120	0x3caaa0d4	0.020828642
121	0xbd6048d4	-0.054756954
122	0x3e16c4d1	0.14723517
123	0xbc9f42e3	-0.019441074
124	0xbe899acd	-0.26875916
125	0xbd07514e	-0.033036523
126	0x3c826fab	0.015922388
127	0x3d88fb1e	0.06688522
128	0xbd9ba286	-0.07599358
129	0xbca3ef48	-0.02001156
130	0x3cfcdf04	0.03086806
131	0xbc80fc3a	-0.015745271
132	0x3d36ed11	0.044659678
133	0x3cbd2fab	0.023094019
134	0x3c73d038	0.014881186
135	0xbdea190c	-0.114305586
136	0xbdc62bc2	-0.09676315
137	0xbd7ca3a6	-0.061679505
138	0xbd0dbbba	-0.034602858
139	0x3d1b02ba	0.037844397
140	0xbde1e41e	-0.11029838
141	0x3d3d2a06	0.046182655
142	0x3ba71665	0.005099105
143	0x3e070313	0.13184766
144	0xbccab4bc	-0.024744384
145	0xbb65e235	-0.0035077457
146	0xbdb177d5	-0.08665434
147	0x3d37af6e	0.044845037
148	0xbe336a32	-0.17520979
149	0xbdd2853c	-0.10279319
150	0xbdf1f555	-0.118143715
151	0x3c30516a	0.010761598
152	0x3cab9163	0.02094335
153	0x3d381db1	0.04495019
154	0xbe98a1c7	-0.29810926
155	0x3e82532e	0.25454086
156	0xbe5412d2	-0.20710304
157	0x3dbc6797	0.09199446
158	0xbdaa8223	-0.08325603
159	0x3d8f215b	0.06988784
160	0xbd741a11	-0.05959517
161	0xbe01724a	-0.12641254
162	0x3db3f93f	0.08787774
163	0xbe28583c	-0.16439909
164	0xbe031264	-0.12799984
165	0xbcb9004e	-0.022583153
166	0x3d15ff50	0.036620438
167	0x3d824137	0.06360095
168	0x3e40a624	0.18813378
169	0xbdcd490c	-0.10023698
170	0xbddd7c0b	-0.10814675
171	0xbe7c0757	-0.24612175
172	0xbe0cb4bd	-0.13740821
173	0x3aaf901c	0.0013394388
174	0x3dddbfab	0.108275734
175	0xbdb5f4e3	-0.08884599
176	0xbd7446bc	-0.05963777
177	0x3d2a5488	0.04158452
178	0x3c60cf69	0.013721325
179	0x3e498939	0.19681253
180	0x3d82ae0d	0.06380854
181	0xbb94008e	-0.0045166677
182	0xbc229545	-0.009923284
183	0x3e1c0a24	0.15238243
184	0x3e555477	0.20833002
185	0xbd52044c	-0.05127363
186	0x3e12768b	0.14303033
187	0xbd194ca7	-0.037426617
188	0xbd9a9da1	-0.075495966
189	0xbe30753a	-0.17232218
190	0xba13ba6a	-0.0005635383
191	0xbd65887c	-0.056038365
192	0x3da3b3aa	0.079932526
193	0xbe081991	-0.13291003
194	0x3d01d8c6	0.031700872
195	0xba56d863	-0.0008195696
196	0xbbd74c37	-0.006570365
197	0x3e0c1207	0.13678752
198	0xbd4839e4	-0.048883334
199	0xbd08a463	-0.033359896
200	0xbdb3b93c	-0.08775565
201	0xbe7512b0	-0.2393291
202	0x3a7765ba	0.00094374607
203	0xbd3ca06c	-0.046051428
204	0x3d89b499	0.067238994
205	0x3cc588e4	0.024113126
206	0xbd93a757	-0.07209652
207	0xbd122b32	-0.035685726
208	0xbd01e628	-0.031713635
209	0x3cd99969	0.02656241
210	0xbe059f28	-0.13048995
211	0x3d6dd591	0.058065
212	0x3d9e451a	0.07728024
213	0x3d4703ed	0.04858773
214	0xbe95ca04	-0.29255688
215	0x3cccb365	0.024987886
216	0xbcee27d0	-0.029071718
217	0x3d8bdc99	0.06829185
218	0xbe53e0aa	-0.20691171
219	0xbe07842f	-0.13234018
220	0x3dd3d591	0.10343469
221	0x3d81008f	0.06298935
222	0x3d541f12	0.051787443
223	0xbbe04705	-0.0068444037
224	0xbba14fd0	-0.0049228445
225	0xbd7262e5	-0.059176344
226	0x3e178430	0.1479652
227	0x3d60de22	0.054899342
228	0xbe061bc3	-0.13096528
229	0x3e31721e	0.17328689
230	0x3de46db1	0.111537345
231	0xbd9bb7cd	-0.076034166
232	0x3dc2de3c	0.09515044
233	0xbc4de691	-0.012567178
234	0xbdbf78d9	-0.09349222
235	0x3d110c05	0.035411853
236	0x3d74bac9	0.059748445
237	0xbd149aa3	-0.036280286
238	0x3cda2ed8	0.026633665
239	0xbd23c837	-0.03998586
240	0x3c738610	0.014863506
241	0xbdcb9cc8	-0.09942013
242	0xbde7c51f	-0.11316895
243	0xbe10bfb4	-0.14135629
244	0xbda4436c	-0.08020672
245	0x3cb1ee1b	0.021719983
246	0x3e1a7754	0.15084583
247	0x3d7e069d	0.062018026
248	0xbd969492	-0.07352556
249	0x3c505239	0.012714916
250	0xbd1da5e7	-0.038488295
251	0xbc3f1cb8	-0.011664562
252	0x3db731a7	0.08945017
253	0x3e754b6f	0.23954557
254	0xbd862ed8	-0.065519035
255	0x3cc4a72c	0.024005495

network_body._body_endoder.seq_layers.0.bias f4 [128]
0	0xbc9b2377	-0.01893781
1	0x3b9f9406	0.0048699407
2	0xbc59a810	-0.013284698
3	0xbbf2c369	-0.0074085486
4	0xbbfc284e	-0.0076952344
5	0x3c4b9eb8	0.012427978
6	0xbc64d7f5	-0.013967504
7	0x3b3897d9	0.002816668
8	0x3c4b1e27	0.012397326
9	0xbc96ec99	-0.018423365
10	0x3c390366	0.011292314
11	0x3d00a5a2	0.03140796
12	0x3b4b08f5	0.003098068
13	0xbbbd9a96	-0.0057862503
14	0xba153fa4	-0.0005693382
15	0xbb1facb3	-0.0024364411
16	0xbca384fa	-0.01996087
17	0xbbf098be	-0.007342427
18	0xbc7d07c1	-0.015443743
19	0x3c7b9598	0.01535549
20	0x3ca21311	0.019784482
21	0x3b80bd38	0.0039288066
22	0xbc4da087	-0.01255048
23	0xb9fbba1d	-0.00048013116
24	0xbc5e182b	-0.013555567
25	0x3c7d36f7	0.015454999
26	0xbb8e42d6	-0.0043414636
27	0x3c665044	0.014057223
28	0xbc688a37	-0.014193109
29	0x3cb97eed	0.02264353
30	0xbbf2254d	-0.0073897005
31	0x3c2b27b1	0.010446475
32	0x3a56778d	0.00081812666
33	0x3c8e5a98	0.017377183
34	0xbc87e61c	-0.016589217
35	0x3c25e31d	0.010124949
36	0xbcb1fc6b	-0.021726808
37	0x3cb3de9f	0.02195674
38	0x3c72f2b7	0.014828376
39	0xbce3d5b4	-0.027811863
40	0xbc657070	-0.014003858
41	0xbbf0bf68	-0.007347036
42	0x3c58c252	0.013229923
43	0xbbb744ea	-0.005592932
44	0x3ccff7c5	0.0253867
45	0xbaa051c3	-0.0012231398
46	0xbc32d957	-0.010916076
47	0xbb7daaac	-0.0038706465
48	0x3c41e3f2	0.011834132
49	0xbbc6fb19	-0.0060724136
50	0x3bfddeb0	0.0077474937
51	0xbc5677ac	-0.013090055
52	0x3b01ee9f	0.0019826067
53	0x38c7cb62	9.5269424e-05
54	0x3b123c35	0.0022313718
55	0xbc036ad7	-0.008021078
56	0x3b221d69	0.0024736768
57	0x3c72d55f	0.014821379
58	0xbb9b0314	-0.0047305916
59	0xbcb389da	-0.021916319
60	0xbc96b026	-0.018394541
61	0x3c7a318b	0.015270601
62	0xbb56981e	-0.0032744478
63	0xbb776175	-0.0037747298
64	0x3c635650	0.013875559
65	0x3b99f1e8	0.004698027
66	0xbb88bce5	-0.0041729086
67	0xba5b68f6	-0.00083698274
68	0x3d0e6335	0.03476258
69	0x3c251e3f	0.010078012
70	0x3d0776ed	0.0330724
71	0x3b968cef	0.0045944373
72	0x3aebfa03	0.0018003586
73	0xbc010a61	-0.00787601
74	0xbc4c93a0	-0.012486368
75	0xbc5726be	-0.013131795
76	0x3c44dcbc	0.012015518
77	0xbb92e553	-0.004482904
78	0xbb6f6ac0	-0.0036532134
79	0x3bdc6e37	0.006727006
80	0x3ad75c79	0.0016430757
81	0xbc1e09db	-0.009645904
82	0xbc4cdc42	-0.012503685
83	0x3abdeac6	0.0014489524
84	0x3c765462	0.015034767
85	0x3bd5b986	0.0065223603
86	0xbcb9ae42	-0.0226661
87	0xbc9f8afe	-0.019475456
88	0x3c90ac79	0.017660366
89	0xbc197a50	-0.0093675405
90	0x3bb589e9	0.005540122
91	0x3bdd3148	0.0067502595
92	0xbb926eb9	-0.0044687656
93	0xbc7c5b26	-0.015402591
94	0x3bd86621	0.0066039716
95	0xbcad1ef4	-0.021132924
96	0x3bdcfb69	0.0067438376
97	0x3be505b9	0.0069892076
98	0x3c8129d4	0.015767016
99	0xbc38de07	-0.011283404
100	0xbb845ba6	-0.0040392457
101	0xbb100925	-0.0021978107
102	0x3cb02ffd	0.021507258
103	0xbbc46f29	-0.0059946966
104	0x3c8a50f9	0.016884314
105	0x3c33ce70	0.0109745115
106	0xbcab1c86	-0.020887624
107	0xbbc8793e	-0.006117969
108	0xbb8d3a0a	-0.0043098973
109	0x3b9235a3	0.0044619604
110	0xb9392f0d	-0.00017660503
111	0x3c349799	0.011022472
112	0xbc963893	-0.018337524
113	0xbbf0cf65	-0.007348942
114	0xb938dab7	-0.00017629085
115	0x3ce8d7b0	0.02842316
116	0xbbd0970d	-0.006365663
117	0x3bff2617	0.007786523
118	0x3cd59988	0.026074186
119	0xbc3c3941	-0.01148826
120	0x3c593abd	0.013258633
121	0xbb0b729a	-0.0021278025
122	0xbc1d5d11	-0.009604708
123	0xbcbcb100	-0.023033619
124	0xbc8f0a2f	-0.01746091
125	0x3c12888b	0.008943687
126	0xbaae29e0	-0.0013287626
127	0xbc3e4ef1	-0.011615501

network_body._body_endoder.seq_layers.2.weight f4 [128, 128]
0	0x3dc52aa4	0.09627274
1	0xbc44ba14	-0.012007255
2	0xbc8e3bbc	-0.017362468
3	0x3df23f60	0.11828494
4	0xbddd87b1	-0.10816897
5	0xbcd54f13	-0.026038682
6	0x3dbbed1e	0.09176086
7	0x3d31f0ed	0.043442655
8	0x3e381c9e	0.17979667
9	0x3bfaa44a	0.0076489793
10	0xbdfe4ad7	-0.12416618
11	0xbc1ba6ad	-0.009500188
12	0x3dd4f0e4	0.10397509
13	0xbc3b87bb	-0.011445935
14	0x3d7ee63f	0.0622313
15	0x3bec85ff	0.007218122
16	0x3e1d1030	0.15338206
17	0x3b9931d9	0.0046751318
18	0xbe060c7b	-0.13090698
19	0x3e0db4bb	0.13838474
20	0xbdd7b287	-0.10532098
21	0x3dea806d	0.114502765
22	0xbd94cf7f	-0.07266139
23	0x3daf8ca5	0.08571748
24	0x3d873b88	0.066031516
25	0x3ddb21e3	0.10699823
26	0x3c675d87	0.01412142
27	0x3d9c9b76	0.07646839
28	0xbdc93f79	-0.098265596
29	0xbdaa24ee	-0.08307825
30	0x3b9a9ea0	0.0047186166
31	0x3daca719	0.08430309
32	0x3dee876a	0.11646922
33	0xbd525dca	-0.051358975
34	0x390c7117	0.0001339357
35	0xbc958db9	-0.018256055
36	0x3da583f4	0.08081809
37	0x3d40fc01	0.04711533
38	0xbc89da47	-0.016827716
39	0x3d57a8eb	0.052651327
40	0xbe243c62	-0.16038659
41	0x3e1ed389	0.15510382
42	0x3e0aae97	0.13543163
43	0x3db82eba	0.089932874
44	0x3e4b9a10	0.19882989
45	0x3d9cf2ea	0.0766352
46	0x3dd1437e	0.10217951
47	0xbc2e2e69	-0.010631182
48	0xbd993d89	-0.0748244
49	0xbdace4cb	-0.08442076
50	0x3cc2aca9	0.023763971
51	0x3d717efa	0.058958985
52	0xbd9562e8	-0.072942555
53	0x3d9c60d0	0.07635653
54	0xbe2458e9	-0.16049542
55	0xbdd5c3d5	-0.104377426
56	0x3cd7304f	0.026268153
57	0xbdabf7c8	-0.0839687
58	0x3ce82720	0.028338969
59	0x3dfbdefa	0.12298389
60	0xbd6c3c9c	-0.05767499
61	0xbda978d2	-0.08274998
62	0xbe1192e4	-0.1421619
63	0x3d7aafee	0.061202936
64	0xbde89149	-0.11355836
65	0xbda34193	-0.07971492
66	0x3c3c9acf	0.011511519
67	0xbb8a5a6c	-0.004222205
68	0xbe0c616c	-0.13709038
69	0xbe1793ad	-0.14802428
70	0x3d312d46	0.043256067
71	0xbeb751a8	-0.35804486
72	0x3da16474	0.07880488
73	0x3c5890e4	0.013218138
74	0x3bfb21d5	0.007663945
75	0x3dcb2c57	0.099205665
76	0xbd16038c	-0.036624476
77	0x3e156988	0.14591038
78	0x3d4c1536	0.049824916
79	0xbd970e24	-0.07375744
80	0x3d411c95	0.0471464
81	0x3d8e950b	0.069620214
82	0x3db72d26	0.08944158
83	0xbdbb368f	-0.091412656
84	0xbe3a1d01	-0.18175127
85	0x3cdc2ad4	0.02687589
86	0xbd8972b3	-0.0671133
87	0xbd422160	-0.04739511
88	0xbdf081b8	-0.11743492
89	0x3e1237f2	0.14279154
90	0xbbb03b01	-0.0053781276
91	0xbe02e3ec	-0.12782258
92	0x3d9634de	0.07334302
93	0xbdc273e3	-0.0949476
94	0x3ce5a805	0.02803422
95	0x3d416452	0.047214814
96	0x3e01fc1e	0.12693831
97	0x3d5d7603	0.054067623
98	0xbde0d678	-0.10978407
99	0x3b0bc828	0.002132902
100	0xbd9b02d7	-0.07568901
101	0xbc2c88e1	-0.010530681
102	0xbd76e59f	-0.060277577
103	0x3d9c58a5	0.07634095
104	0x3e43a413	0.19105558
105	0xbc4cc344	-0.012497727
106	0xbda2cd9d	-0.07949374
107	0xbdc26dc4	-0.094935924
108	0x3d672655	0.05643304
109	0x3b94d3d6	0.0045418544
110	0x3de9b922	0.114122644
111	0xbd1f54f2	-0.03889937
112	0xbb0af813	-0.0021204993
113	0xba41d5a8	-0.0007394203
114	0xbde920d9	-0.11383218
115	0xbd901fef	-0.07037341
116	0x3c9aa7fe	0.018878933
117	0xbcf15d54	-0.029463448
118	0x3d8aabbe	0.067710385
119	0xbe0650d9	-0.13116778
120	0x3cfb4600	0.030673027
121	0x3d741924	0.05959429
122	0xbd1fb983	-0.038995277
123	0x3d7c976e	0.061667852
124	0xbdd5c854	-0.104386
125	0x3d2b2505	0.04178335
126	0xbd3ead35	-0.0465519
127	0xbd02ac65	-0.03190269
128	0xbde6518a	-0.11246021
129	0xbd6ddb7a	-0.058070637
130	0xbd5d77eb	-0.05406944
131	0xbb65fc59	-0.0035093038
132	0x3e17180c	0.14755267
133	0xbcf83826	-0.030300211
134	0xbccb3f77	-0.024810536
135	0xbdb7feab	-0.08984121
136	0xbde9f9f1	-0.11424626
137	0x3db62a26	0.08894758
138	0x3dd4ba01	0.1038704
139	0xbd2f9c7d	-0.04287385
140	0x3d2f9a77	0.04287192
141	0xbe0d11e0	-0.1377635
142	0x3d07954b	0.03310136
143	0xbd82259f	-0.06354832
144	0x3dc06ddc	0.09395954
145	0x3c210204	0.009827141
146	0xbdd8e31b	-0.10590192
147	0xbdaac706	-0.08338742
148	0x3ca4a531	0.0200983
149	0x3d144488	0.03619817
150	0x3dc7cbcb	0.09755667
151	0xbdbf4124	-0.093385965
152	0xbde6adde	-0.11263631
153	0xbe09739b	-0.13423006
154	0x3d5c3737	0.053763594
155	0xbce958c6	-0.028484713
156	0x3cb99b10	0.022656947
157	0x3d168703	0.03674985
158	0x3dbcf53d	0.09226463
159	0xbdcb4eee	-0.09927164
160	0x3d8e66e5	0.06953219
161	0xbd5c305d	-0.05375706
162	0xbe8591bb	-0.26087746
163	0x3ce419e4	0.027844377
164	0x3da6d799	0.08146591
165	0x3e03276c	0.12808007
166	0x3df68d02	0.12038614
167	0xbd9f5cc6	-0.07781367
168	0xbbf59d5e	-0.0074955663
169	0xbd663e58	-0.0562118
170	0xbd77cce2	-0.060498126
171	0x3bd11f1c	0.0063818824
172	0xbc5cbf36	-0.013473323
173	0x3d8997b7	0.067183904
174	0x3dd5be26	0.104366586
175	0x3da0dd3b	0.07854696
176	0xbc9af931	-0.018917652
177	0x3d99670f	0.0749036
178	0xbe28767e	-0.16451451
179	0x3b556d80	0.0032566488
180	0xbcf742b7	-0.03018318
181	0x3ca189bb	0.019718995
182	0xbde521d1	-0.111880906
183	0x3d78caf1	0.060740415
184	0xbe023d36	-0.12718663
185	0xbcb92bf5	-0.022603968
186	0x3d06db23	0.03292383
187	0x3cc32a7b	0.023823967
188	0x3d895bfc	0.06706998
189	0xbcc45f4d	-0.023971224
190	0x3c303950	0.010755852
191	0xbd029be0	-0.031886935
192	0xbe057a42	-0.13034919
193	0x3e0ba2fa	0.1363639
194	0x3dd03a01	0.10167313
195	0xbd83a136	-0.06427233
196	0x3d8a9b45	0.067678966
197	0x3d52eb25	0.051493783
198	0x3d36d917	0.044640627
199	0xbe42a351	-0.19007613
200	0xbc0cf508	-0.008603342
201	0xbc8a2a0b	-0.01686575
202	0xbe029a35	-0.12754138
203	0x3ce3d287	0.027810348
204	0x3d84a9ce	0.064777
205	0xbd442c60	-0.04789388
206	0x3de02a23	0.10945537
207	0x3b5fec80	0.0034168065
208	0xbd061039	-0.032730315
209	0x3c0baa3c	0.008524474
210	0xbcb2809b	-0.02178984
211	0xbd45dc9d	-0.048306096
212	0x3d8bd8b9	0.06828446
213	0xbd8fc8e9	-0.070207424
214	0x3d9f079e	0.07765125
215	0x3d9a1290	0.07523072
216	0x3dc2bb5f	0.095083944
217	0x3e29d7ae	0.16586182
218	0xbdb0ad8e	-0.08626853
219	0x3c79b4ad	0.01524083
220	0x3db43fbf	0.08801221
221	0xbd48caf2	-0.04902167
222	0xbdf7a9d0	-0.12092936
223	0xbc4926ac	-0.0122772865
224	0xbc3574b2	-0.011075186
225	0x3d41fdb6	0.0473611
226	0x3cdff933	0.027340507
227	0x3cf2b092	0.02962521
228	0x3ce336f9	0.027736174
229	0x3e349781	0.17635919
230	0xbe0c80ab	-0.13720958
231	0xbdb77068	-0.08956987
232	0xbd899836	-0.06718485
233	0xbddde77f	-0.1083517
234	0x3ddda5d8	0.10822648
235	0x3d34038a	0.043948688
236	0xbd9df686	-0.07713036
237	0x3d97d5de	0.07413839
238	0x3d9b6258	0.07587117
239	0x3d70ea6a	0.058817305
240	0x3c09afa4	0.008403692
241	0xbb0a7236	-0.0021125204
242	0x3d9e73f3	0.07736959
243	0x3b2f3a14	0.0026737498
244	0x3c8cdc28	0.017194822
245	0xbd1ac79f	-0.03778803
246	0xbd158c26	-0.03651061
247	0x3d950ff5	0.07278434
248	0xbd5ae2ab	-0.053438824
249	0xbd5cd6e7	-0.053915884
250	0xbdd46e02	-0.10372545
251	0x3d1abef0	0.03777975
252	0xbdfa52b4	-0.122228056
253	0xbe32e952	-0.17471817
254	0x3dcc712a	0.09982522
255	0x3d945552	0.07242836

network_body._body_endoder.seq_layers.2.bias f4 [128]
0	0xbc1500df	-0.009094446
1	0xbbe1f3d3	-0.006895521
2	0x3ab07b27	0.0013464437
3	0x3c03880e	0.008028043
4	0xb9a7fe04	-0.0003204198
5	0x3c12bd76	0.008956304
6	0x389f19c3	7.586509e-05
7	0x3be15d0c	0.006877547
8	0x3b6d8544	0.0036242763
9	0x3c6f0b79	0.014590138
10	0x3b6f464b	0.0036510404
11	0xbbc453f5	-0.005991454
12	0xbbd2311a	-0.006414545
13	0xbc5b5171	-0.013386116
14	0xbb5c3300	-0.0033599734
15	0xbca02b95	-0.019552032
16	0xbcbaa6d6	-0.022784632
17	0xbb1906d6	-0.0023350022
18	0xbcb6d9df	-0.022320686
19	0xbb84d6b2	-0.004053914
20	0x3c5a67dc	0.013330426
21	0xbbab57a0	-0.0052289516
22	0xbb1e9849	-0.0024199656
23	0xbcaf817b	-0.021424046
24	0x3c11c76f	0.008897646
25	0xbb7ad21e	-0.0038272212
26	0x3b83ff99	0.0040282723
27	0x3bd63017	0.0065364945
28	0x3b35c1a2	0.0027733822
29	0x3b2e0bc2	0.0026557301
30	0x3b19b3a3	0.002345302
31	0x3c42b2a1	0.011883409
32	0x3c2229f4	0.009897698
33	0x3b4c90a0	0.0031214133
34	0x3c86bd63	0.016447728
35	0x3c3bb789	0.011457332
36	0x3a2b4de0	0.00065347366
37	0x3a3ebbf9	0.0007275935
38	0x3ad23ec6	0.0016040436
39	0x3beb85e2	0.007187591
40	0xbc294575	-0.010331501
41	0x3b6dfed8	0.0036315229
42	0x3c6e8b4a	0.014559576
43	0xbc332dc2	-0.0109362025
44	0x3c85501d	0.016273553
45	0xbc0960d5	-0.008384903
46	0x3aa06aa0	0.0012238808
47	0xbb1d2627	-0.002397904
48	0xbb9fc3f4	-0.0048756544
49	0xbccbb8c5	-0.024868378
50	0x3d154210	0.036439955
51	0x3ac3d34a	0.0014940288
52	0x3b5cbaee	0.0033680755
53	0xbc2f589a	-0.010702277
54	0x3be764a9	0.00706156
55	0x3b1662be	0.0022947039
56	0xbcd00be0	-0.025396287
57	0xbb74a66f	-0.0037330647
58	0xbc881976	-0.016613703
59	0x3c6d0e05	0.014468675
60	0xbc26ef75	-0.010188927
61	0xbc2b86f5	-0.010469188
62	0x3bf3a552	0.007435479
63	0x3c6cd72b	0.014455597
64	0xbb4709b7	-0.003037078
65	0x3c0e94e0	0.008702487
66	0xbb63a423	-0.0034735284
67	0x3be5ea78	0.0070164762
68	0xbc6bbfb0	-0.014388964
69	0xbc07ffdb	-0.008300747
70	0xbbed1c82	-0.0072360644
71	0xbc5c7d72	-0.013457643
72	0xbc94687e	-0.018116232
73	0xba84c806	-0.0010130412
74	0xbbfde41f	-0.0077481414
75	0xbbcb5f5f	-0.0062064375
76	0xbc25db34	-0.010123063
77	0xbcc70ec6	-0.024299037
78	0xbb611b74	-0.0034348639
79	0x3c6d916f	0.014500006
80	0x3a8cb3a5	0.0010734691
81	0xbc80fb2a	-0.015744764
82	0xbc141b97	-0.009039781
83	0xbb2f6b4a	-0.002676683
84	0xbaea00bc	-0.0017853002
85	0x3c789794	0.015172858
86	0x3b36d5c7	0.0027898417
87	0x3b83dbf7	0.0040240246
88	0x3a80b5d2	0.0009819812
89	0x3bba8045	0.0056915605
90	0xbb419ccd	-0.0029542923
91	0x3d1a2f09	0.037642512
92	0xbc01aa58	-0.007914148
93	0xbbbe0449	-0.0057988507
94	0x3c8568ec	0.016285382
95	0xbbbc10d0	-0.005739309
96	0xbbfee177	-0.0077783423
97	0xbb902fcd	-0.0044002295
98	0x3af859d6	0.0018947672
99	0x39ec2672	0.00045042072
100	0x3b86dce1	0.0041156863
101	0xba134cb0	-0.00056190323
102	0x3c6390b3	0.013889479
103	0x39910722	0.0002766187
104	0xbbe5d8b2	-0.0070143575
105	0xbc7fdc85	-0.015616541
106	0xbc04de92	-0.0081097055
107	0xbbb75108	-0.0055943765
108	0x3bff8c98	0.0077987425
109	0x3c0c93b5	0.008580138
110	0x3c586f41	0.013210119
111	0x3af86f21	0.0018954017
112	0x3ba4fb7a	0.005034861
113	0x3bd7e75d	0.00658886
114	0xbb8718ab	-0.0041228137
115	0xb9d4572d	-0.00040500742
116	0xbb8bc8b2	-0.004265868
117	0xbbbe4456	-0.005806486
118	0x3bb20d66	0.005433726
119	0x3c5695b3	0.0130972145
120	0xbca50b7d	-0.02014708
121	0xbb290947	-0.0025792883
122	0x3c956401	0.018236162
123	0xba968578	-0.0011483869
124	0xbc400f5e	-0.011722414
125	0xbc2c0628	-0.010499515
126	0xbb4a0ed6	-0.0030831597
127	0xbc3560a5	-0.011070405

action_model._continuous_distribution.log_sigma f4 [1, 2]
0	0xb9ea9254	-0.0004474098
1	0x3c873bcb	0.016508004

action_model._continuous_distribution.mu.weight f4 [2, 128]
0	0x3cc2e141	0.02378905
1	0xbb5274c1	-0.0032113048
2	0x3b666624	0.0035156095
3	0x3c7b5f50	0.0153425485
4	0x3ca6809c	0.020324998
5	0xbd241333	-0.040057372
6	0x3c6b9f74	0.014381278
7	0xbd0643b5	-0.032779414
8	0xbba8d88f	-0.005152769
9	0xbc9da644	-0.01924432
10	0x3a29a309	0.00064711325
11	0xbd035813	-0.032066416
12	0xbc12cd63	-0.008960101
13	0xbb32e694	-0.002729808
14	0x3b95cd3e	0.004571586
15	0x3c552782	0.013009908
16	0x3c47eafa	0.012202019
17	0x3d093cc8	0.03350523
18	0x3bd91507	0.006624821
19	0xbcc45c3e	-0.023969766
20	0xbcc6aaa9	-0.024251299
21	0xbbe3198f	-0.006930537
22	0x3c82df1a	0.015975524
23	0xb9a2ac0d	-0.00031027236
24	0x3d441e19	0.047880266
25	0x3a337de1	0.00068470655
26	0xbc8b7615	-0.01702408
27	0xbc9253e9	-0.017862277
28	0xbc74fc6e	-0.014952762
29	0xbd1b1d8d	-0.03786998
30	0xbbc978e0	-0.0061484426
31	0x3d21dfde	0.039520137
32	0xbd59f312	-0.053210326
33	0x3ca42124	0.020035334
34	0xbd779fb6	-0.060455047
35	0xbc95269d	-0.018206889
36	0xbc3f56ad	-0.01167838
37	0xbd0d8ac5	-0.03455617
38	0x3bf432d3	0.007452348
39	0xbbfee2a5	-0.007778483
40	0x3bef440c	0.007301813
41	0xbc04ef5f	-0.008113711
42	0xba37cb39	-0.00070111785
43	0x3cd1e72a	0.025622923
44	0xbca65f08	-0.020308986
45	0x3bfe1e6d	0.007755092
46	0x3d0fcf11	0.035109583
47	0x3bd9b58f	0.006643958
48	0xbc371088	-0.011173375
49	0x3cf5b8e7	0.029995395
50	0x3d81541c	0.06314871
51	0x3d073640	0.03301072
52	0xbd34e7e4	-0.04416646
53	0xbbb2fe0e	-0.0054624146
54	0xbcf6a037	-0.030105693
55	0x3c3baf8f	0.011455431
56	0x3aa937bf	0.001291029
57	0x3c482d92	0.012217896
58	0xbbc92ef3	-0.00613963
59	0xbd26fa24	-0.040765896
60	0xbbb3ba4e	-0.0054848557
61	0x3b8429ce	0.004033304
62	0x3c8e119d	0.017342383
63	0x3d2fea38	0.042947978
64	0x3bc9b1c8	0.0061552264
65	0x3c826eae	0.015921917
66	0xbc56219b	-0.013069536
67	0x3c3f1996	0.011663815
68	0x3b073465	0.0020630595
69	0xbc406d14	-0.011744756
70	0xba82c43c	-0.0009976695
71	0x3c7b5d31	0.015342043
72	0xbc70ed0f	-0.014704957
73	0x3c21ff2e	0.0098875
74	0x3d3a32c6	0.045458578
75	0x3c1170c4	0.008876983
76	0xb84f83d4	-4.947542e-05
77	0x3ba832d1	0.005133011
78	0xbcab7e96	-0.020934384
79	0xbc60e3cf	-0.013726189
80	0x3d06d668	0.032919317
81	0x3c801aeb	0.015637835
82	0xb8a46e8f	-7.8407225e-05
83	0xbc18a482	-0.0093165655
84	0xbad095e9	-0.0015913817
85	0x3ca1556a	0.019694049
86	0x3cf115aa	0.029429276
87	0x3d437d1a	0.047726728
88	0x3c9808be	0.018558856
89	0xbc1a409c	-0.009414818
90	0x3ca9d1bc	0.020729892
91	0xbcd97f73	-0.02655003
92	0x3c43cc74	0.011950601
93	0x3ce9a27e	0.028519865
94	0xbd07e762	-0.03317965
95	0x3c82d833	0.015972232
96	0xba9ad0cf	-0.0011811497
97	0xbbb63f25	-0.0055617266
98	0xbca92ea9	-0.020652132
99	0xbc8b3a61	-0.01699561
100	0xbbe67933	-0.007033491
101	0xbc056bf8	-0.008143418
102	0x3d2bc2d4	0.04193385
103	0x3c9adf39	0.018905269
104	0xbc8a0783	-0.016849285
105	0x3a8921e5	0.0010462372
106	0x3cda2fb9	0.026634084
107	0xb81b7b0b	-3.7069472e-05
108	0x3bc1ef60	0.0059184283
109	0x3c8632c9	0.016381638
110	0x3d1b56bd	0.037924517
111	0xbd09b8dd	-0.033623565
112	0xbd60718b	-0.054795783
113	0xbb5252a7	-0.0032092722
114	0xbcb65f79	-0.022262322
115	0xbcc6809c	-0.024231248
116	0x3c695f39	0.014243894
117	0x3ca9a2aa	0.020707447
118	0xbc306331	-0.010765837
119	0x3c78be2b	0.015182058
120	0x3ce400d9	0.027832435
121	0x3ca750e8	0.020424321
122	0xbd41c120	-0.04730332
123	0xbc66d074	-0.014087785
124	0xbd10c044	-0.03533961
125	0x39f22e93	0.00046192537
126	0x3c34347c	0.010998841
127	0xbcfc4c75	-0.030798176
128	0xbbfc29e2	-0.0076954225
129	0xbc8de269	-0.017319875
130	0xbc45aec0	-0.012065589
131	0x3d7406e7	0.059576895
132	0xbb9daddd	-0.004811986
133	0x3ca50604	0.02014447
134	0x3c9dcc07	0.019262327
135	0xbc719f61	-0.014747472
136	0xbcbb3b82	-0.022855524
137	0xbc81fd5f	-0.015867887
138	0xbc3a296e	-0.011362417
139	0xbcf2c6da	-0.029635835
140	0x3bd82570	0.00659626
141	0xbcce532c	-0.025186144
142	0xbb9eac29	-0.0048423004
143	0x3cee3c8e	0.02908161
144	0x3cdf43f3	0.02725408
145	0x3d02a7e7	0.031898405
146	0xba93cb96	-0.0011275883
147	0x3bfc52ae	0.007700286
148	0x3cda5d79	0.0266559
149	0xbc230f3c	-0.009952363
150	0xbcd0a0de	-0.025467332
151	0xbbee5449	-0.007273231
152	0xbc401209	-0.01172305
153	0xbc92a98f	-0.017903117
154	0xbbac9a8c	-0.005267447
155	0x3d4195e3	0.047262084
156	0xbcedebcd	-0.029043103
157	0x3ce71b42	0.02821124
158	0x3cb9f6a0	0.022700608
159	0xbd0428da	-0.03226552
160	0x3b04030c	0.0020143418
161	0xbccc1caa	-0.024916012
162	0x3d0e9d3d	0.034817923
163	0x3b4add57	0.0030954683
164	0xbca1f132	-0.019768331
165	0xbc645231	-0.013935612
166	0x3bcbf927	0.0062247696
167	0xbcb12a1b	-0.021626523
168	0x3b8e360e	0.00433994
169	0xbd06e460	-0.03293264
170	0xbd5eacc4	-0.05436398
171	0x3b0b0f81	0.0021218958
172	0x3d2aa2ce	0.04165917
173	0xbcfb7c11	-0.030698808
174	0xbcdce91e	-0.026966628
175	0xbbc60a17	-0.0060436833
176	0xbce74685	-0.028231869
177	0xbb868c9a	-0.0041061165
178	0xbd20b89a	-0.03923855
179	0x3cf88623	0.030337399
180	0xbc1f5e16	-0.009727022
181	0xbb56cc23	-0.0032775484
182	0x3cd01874	0.025402285
183	0x3cdf7bec	0.02728077
184	0x3c542761	0.012948842
185	0x3c97dd61	0.018538179
186	0xbc981e0d	-0.018569017
187	0xbd486c39	-0.048931334
188	0xbca32e02	-0.0199194
189	0x3c479db0	0.012183592
190	0x3c2a677e	0.010400651
191	0x3bd3f6bb	0.0064686215
192	0x3b888979	0.0041667786
193	0x3c2f7067	0.010707951
194	0x3bc21849	0.005923305
195	0xbc040e8e	-0.008060111
196	0x3c1bc051	0.009506301
197	0xbc35d798	-0.011098765
198	0xbd232f4f	-0.03984004
199	0xbbc61186	-0.0060445694
200	0xbd8316ac	-0.06400809
201	0x3c2d3ef6	0.010574093
202	0x3c746d56	0.014918646
203	0xbd36af0d	-0.044600535
204	0x3d06c2da	0.03290067
205	0x3b8fa946	0.0043841926
206	0x3c121526	0.008916175
207	0xbd033d0f	-0.032040652
208	0xbcd5951f	-0.026072083
209	0xbc4614e2	-0.01208994
210	0x3c04d888	0.008108266
211	0xbc8aed65	-0.016958902
212	0xbca9df5d	-0.02073639
213	0x3d92712f	0.07150494
214	0xbcb76118	-0.022385165
215	0xbd59b544	-0.053151384
216	0x3cbcf482	0.02306581
217	0x3c3e8953	0.01162942
218	0x3c911b6f	0.017713277
219	0xbcf10a03	-0.02942372
220	0x3c0d639f	0.008629709
221	0x3c0559d8	0.008139096
222	0xbb1dff5d	-0.0024108507
223	0xbd2fe3d8	-0.042941898
224	0xbbf57b28	-0.007491488
225	0xbcf8b87a	-0.030361403
226	0xbcc1eaaa	-0.023671467
227	0x3cbf9753	0.023387587
228	0xbcf633fc	-0.030054085
229	0xbc8796a6	-0.016551327
230	0x3c09fb63	0.008421752
231	0x3d2bf6dd	0.041983474
232	0x3ad47235	0.0016208353
233	0xba409b5b	-0.00073473685
234	0xbcf677cd	-0.030086422
235	0xbcbc1125	-0.022957394
236	0x3cbe8e5f	0.023261247
237	0x3bea4664	0.0071495045
238	0x3c86b0f1	0.016441794
239	0x3bc52ae8	0.0060170777
240	0xbc631f69	-0.013862469
241	0x3c61108a	0.013736853
242	0xbc50bf05	-0.012740855
243	0xbbe38d70	-0.006944351
244	0xbc0fc718	-0.008775495
245	0x3d05f518	0.032704443
246	0xbb934bcf	-0.004495121
247	0xbd77a7a4	-0.06046261
248	0x39f5a3df	0.00046852135
249	0xbc4a9d3a	-0.012366587
250	0xbc558d0e	-0.013034118
251	0x3cc093bc	0.023507945
252	0xbcc91c6e	-0.02454969
253	0xbcb27d4f	-0.021788267
254	0xbca49120	-0.020088732
255	0xbcc7c878	-0.024387583

action_model._continuous_distribution.mu.bias f4 [2]
0	0xbb9ff537	-0.004881527
1	0x3b050b00	0.0020300746

action_model._discrete_distribution.branches.0.weight f4 [1, 128]
0	0x3abe7e73	0.0014533534
1	0x3ac57c97	0.0015067038
2	0x3b8d5c1b	0.0043139583
3	0x3963d58d	0.00021727961
4	0xbc8fe043	-0.017562991
5	0x3c9902a8	0.018678024
6	0x3aa408f0	0.0012514871
7	0xbbe095ab	-0.0068537793
8	0x3726f2b9	9.950884e-06
9	0x3bcd9030	0.006273292
10	0x3c245c45	0.010031764
11	0xbc063f7a	-0.008193845
12	0xba334bc9	-0.0006839601
13	0xbc0b27cb	-0.008493374
14	0xbb90826f	-0.00441008
15	0x3b2faebe	0.0026807035
16	0x3b9f63cb	0.004864191
17	0xbc005db3	-0.00783484
18	0xbc91e25e	-0.017808136
19	0x3b7e666a	0.0038818368
20	0x3c878cbb	0.016546598
21	0xbb9d1f1c	-0.0047949683
22	0xbbd1e0ba	-0.0064049633
23	0xbb1ecf8d	-0.0024232597
24	0xbb87466c	-0.004128268
25	0xbaf168ad	-0.0018418037
26	0xba2a3c1a	-0.0006493941
27	0xbc24e72c	-0.010064881
28	0xbbc079cf	-0.0058738957
29	0x3bd1a342	0.0063976357
30	0xb9638e82	-0.00021701495
31	0xbc661787	-0.014043695
32	0x3b8118bd	0.0039397166
33	0xbcc25800	-0.023723602
34	0xb9501970	-0.00019845902
35	0x3c33ef4f	0.010982349
36	0xbc09a01c	-0.008399989
37	0x3ba2270c	0.0049485024
38	0x3c4dde4d	0.012565208
39	0xb9c5e857	-0.00037747875
40	0x3c08bccf	0.008345797
41	0x3c46bef7	0.0121304905
42	0x3ba5adcf	0.00505612
43	0x3c0a7524	0.00845078
44	0xbc445cd0	-0.011985019
45	0x3c9d174c	0.019176148
46	0xbaee273b	-0.001816965
47	0xbbce64aa	-0.006298621
48	0xbaa61abf	-0.0012672766
49	0xbb635c6b	-0.0034692537
50	0xbb7082db	-0.003669909
51	0xbc253a3a	-0.010084683
52	0xbb9149e1	-0.004433856
53	0xbb0e7263	-0.002173566
54	0xbacbd530	-0.0015551206
55	0xbb0b33d0	-0.00212406
56	0xbb3d372b	-0.0028871994
57	0xbb8dc98e	-0.0043270057
58	0x3b8e849c	0.0043493044
59	0x3b3cef6a	0.0028829225
60	0xbbbf1910	-0.005831845
61	0x3b3e6a34	0.0029055001
62	0x3c429de2	0.0118784625
63	0xbc4ff5a7	-0.012692845
64	0xbb4870ea	-0.003058488
65	0x3c916242	0.017747048
66	0x3b96162b	0.0045802793
67	0xbabb56e0	-0.0014292859
68	0xbb832b53	-0.0040029674
69	0x3bef517d	0.0073034153
70	0xbbb72989	-0.005589668
71	0x3c346a73	0.011011708
72	0xbc4b5288	-0.012409814
73	0xbac2d234	-0.0014863671
74	0xba3a825b	-0.00071147614
75	0xba5d8790	-0.00084506813
76	0x3b58970d	0.0033049018
77	0x3c19fdf0	0.009398922
78	0x3adba42b	0.00167573
79	0x3c3ae76e	0.011407716
80	0xbc4b64f3	-0.012414205
81	0x3c0f6317	0.008751652
82	0xbcba92aa	-0.022775013
83	0x3bdd89a7	0.006760794
84	0x3cf7faca	0.030270953
85	0x3c050085	0.0081178
86	0x3a4451d9	0.0007489003
87	0x3c097eb3	0.008392024
88	0x3b681cf8	0.0035417657
89	0x3c02db38	0.007986836
90	0x3bc3e6d7	0.005978446
91	0xbc31df2f	-0.010856434
92	0x3bdae4cd	0.006680107
93	0xba800b57	-0.0009769005
94	0x3c2e1bd3	0.010626751
95	0xbbf8ba7d	-0.0075905905
96	0x3b3524ab	0.0027640264
97	0xbb8eae7f	-0.0043542976
98	0xbc0e17c7	-0.008672661
99	0x3bb601c6	0.0055544106
100	0x3c1ff42f	0.009762808
101	0xbb6b95fd	-0.0035947554
102	0x3c1405a4	0.009034548
103	0x3c4b4eab	0.012408893
104	0x3c17dfe3	0.009269687
105	0xbc03eaf6	-0.0080516245
106	0x3bb44c26	0.0055022417
107	0xbc22e791	-0.009942905
108	0x3ba78277	0.005111988
109	0xbc557593	-0.01302852
110	0xbaf6a8a5	-0.001881857
111	0xbb9282cd	-0.004471159
112	0xbc51f8d8	-0.012815677
113	0xbb8ac467	-0.0042348388
114	0x3a9e1c72	0.0012062921
115	0xbc30f57a	-0.010800714
116	0x3aa146df	0.0012304446
117	0xbb9f30ab	-0.0048580966
118	0xbb6f2b67	-0.0036494376
119	0x3afd149a	0.0019308508
120	0x3c7274d5	0.014798363
121	0x3bd29dfa	0.0064275237
122	0xbb88643f	-0.004162341
123	0xbc22e401	-0.009942056
124	0xbcac33d7	-0.021020813
125	0x3b4a6d03	0.003088773
126	0xbc68a945	-0.014200513
127	0xbc1f4756	-0.009721598
