results/ag20/PlatformRotate/PlatformRotate-596004.onnx (onnx, 351578 bytes, 8 tensors)

network_body._body_endoder.seq_layers.0.weight f4 [256, 78]
0.067445256 0.02036952 0.16335869 -0.19592041 0.058160335 -0.06973377 -0.12882121 -0.00096012815
-0.11850275 0.21466498 0.018093217 -0.053141434 -0.177973 0.07429855 0.09084515 0.18479525
0.06680858 0.17381753 -0.16424291 0.013763522 -0.015311798 0.10901901 -0.01900687 0.16047063
0.15343252 0.087553695 -0.058486056 0.14978325 0.10323712 0.06290632 -0.07705418 -0.12139802
0.063874826 -0.11238127 0.2429386 -0.07525282 -0.015863312 0.15707615 -0.010846969 0.29084986
0.059009902 -0.07321274 0.14627357 0.036734402 -0.124811955 -0.117523104 -0.13066657 0.02388157
-0.017205818 -0.027194316 0.045294672 0.021164842 -0.044842146 0.010329005 0.0144864805 0.03606031
0.06572014 0.03942114 0.14724998 -0.075713046 0.03800579 -0.045106616 0.008052579 -0.13523188
0.10640085 -0.14585543 -0.0606938 -0.06972408 0.19439605 -0.18269485 -0.1628413 -0.048908614
0.31803235 -0.00957696 -0.001343097 0.053205334 -0.016113773 -0.07335383 0.11745943 0.09757361
0.06514779 -0.0053183665 0.108080685 0.011339497 -0.07482062 -0.015128271 0.146554 -0.0055158027
0.07776071 -0.024499014 0.09356779 -0.14704938 0.008217771 0.1441794 -0.09064125 -0.0127596
0.091375284 0.116586834 -0.17650555 0.120227955 -0.038855106 0.087807946 -0.01013514 -0.06743936
-0.14984907 -0.08401949 -0.15125404 -0.0068585207 0.1384169 -0.053099997 -0.07796528 -0.06086431
0.24211678 -0.087896556 0.09682028 0.09137967 0.11836212 0.07051115 -0.00875555 0.019712783
-0.061146855 0.0648954 0.13655399 -0.036736548 -0.026770461 -0.0021306062 -0.054730847 -0.1941281
0.10419129 0.15844126 -0.019519946 -0.088088244 0.05636778 0.013324156 0.1829361 -0.048765957
0.21117187 -0.02775296 0.035423506 -0.0015434125 0.0007196083 0.17057778 0.08607461 0.028062426
-0.102029644 -0.082652844 -0.132374 -0.06131619 0.029752469 0.11033798 0.07720476 -0.014324056
-0.04155746 0.060846478 -0.010559351 0.10079286 0.01178923 0.10502521 -0.17473374 0.041301843
0.0017852455 0.09727867 0.007918773 -0.015055514 -0.09277504 -0.07748045 -0.084333465 0.097005844
-0.014113686 0.025096005 0.060321588 -0.043166317 -0.0026450502 0.0026825399 0.057333235 -0.22720248
0.14997335 0.114309415 0.11478303 0.16111703 0.11475031 0.10040459 -0.09132442 -0.0316692
0.08070023 0.006673594 -0.0051011574 0.11446669 0.01845654 -0.011140728 0.18800147 -0.013889327
0.059696063 0.04478014 0.012858336 -0.03226919 0.027513916 -0.11104373 0.024503808 0.08278492
-0.054587573 -0.03168273 0.14626347 -0.14704281 -0.10782644 0.07363438 -0.043744545 0.06300603
-0.13447186 0.048501253 -0.14195938 0.06083622 -0.07119894 0.121024124 -0.028741803 -0.09137349
0.07752688 -0.14821345 -0.095019266 -0.011916838 -0.014064082 0.083785415 0.1586115 0.026621075
-0.06929816 0.07584849 0.026200106 0.31013492 0.09068846 -0.20025833 0.07987302 -0.0033926533
-0.06082191 0.06795766 0.015895432 0.23177932 -0.29902205 -0.06419061 0.11519101 0.047077514
0.038923167 0.009875641 0.049444035 -0.12902798 -0.13532862 -0.2107256 0.04744842 0.1912943
-0.14402425 -0.047079246 -0.10274484 0.037137203 -0.06984155 -0.15297276 0.013748045 0.16144791
00000000: bd20 8a3d fbdd a63c 8047 273e 5c9f 48be
00000010: 8839 6e3d 94d0 8ebd b5e9 03be 1cb1 7bba
00000020: 92b1 f2bd 23d1 5b3e 3a38 943c d5aa 59bd
00000030: 8e3e 36be d729 983d 060d ba3d f73a 3d3e
00000040: f0d2 883d 39fd 313e 4b2f 28be 6580 613c
00000050: 56de 7abc 5c45 df3d 4cb4 9bbc 6a52 243e
00000060: 6a1d 1d3e 5a4f b33d 138f 6fbd c860 193e
00000070: fc6d d33d 07d5 803d 95ce 9dbd 869f f8bd
00000080: ced0 823d 2728 e6bd e5c4 783e 271e 9abd
00000090: c7f3 81bc 92d8 203e 7cb7 31bc 46ea 943e
000000a0: 5eb4 713d 90f0 95bd bdc8 153e d076 163d
000000b0: 699d ffbd f4af f0bd 75cd 05be 48a3 c33c
000000c0: 37f3 8cbc 9dc6 debc e886 393d e461 ad3c
000000d0: 66ac 37bd fd3a 293c b458 6d3c fab3 133d
000000e0: 4898 863d 1078 213d b3c8 163e 710f 9bbd
000000f0: f6ab 1b3d b7c1 38bd f7ee 033c 3a7a 0abe
00000100: b0e8 d93d 205b 15be 109a 78bd 80cb 8ebd
00000110: c20f 473e 5c14 3bbe dfbf 26be 6654 48bd
00000120: 23d5 a23e aee8 1cbc db0a b0ba d6ed 593d
00000130: 0801 84bc 883a 96bd 928e f03d acd4 c73d
00000140: 346c 853d b145 aebb 6859 dd3d 4cc9 393c
00000150: 8e3b 99bd 91dc 77bc 4012 163e e8bd b4bb
00000160: 0241 9f3d 28b2 c8bc 78a0 bf3d 1d94 16be
00000170: d4a3 063c c4a3 133e 1fa2 b9bd a40d 51bc
00000180: f722 bb3d 14c5 ee3d dfbd 34be 133a f63d
00000190: 8826 1fbd a7d4 b33d dc0d 26bc a61d 8abd
000001a0: 0972 19be 6912 acbd 57e2 1abe 71bd e0bb
000001b0: 29bd 0d3e 627f 59bd 43ac 9fbd db4c 79bd
000001c0: 76ed 773e 1c03 b4bd b649 c63d 4425 bb3d
000001d0: d767 f23d 2668 903d 7073 0fbc b47c a13c
000001e0: 2075 7abd e1e7 843d cfd4 0b3e 1079 16bd
000001f0: ba4d dbbc a4a1 0bbb 742d 60bd 84c9 46be
00000200: 3e62 d53d 6d3e 223e 4be8 9fbc 9c67 b4bd
00000210: e7e1 663d 904d 5a3c 9a53 3b3e d0be 47bd
00000220: 703d 583e 2d5a e3bc 3d18 113d 544c caba
00000230: 18a4 3c3a f1ab 2e3e e347 b03d 2ce3 e53c
00000240: ebf4 d0bd e545 a9bd 0d8d 07be af26 7bbd
00000250: 73bb f33c e1f8 e13d 871d 9e3d 72af 6abc
00000260: 2838 2abd 283a 793d 2101 2dbc 7d6c ce3d
00000270: 9d27 413c 7517 d73d 67ed 32be 1f2c 293d
00000280: e6fe e93a 0a3a c73d bebd 013c 67ab 76bc
00000290: d700 bebd 12ae 9ebd 06b7 acbd 00ab c63d
000002a0: 173d 67bc 2396 cd3c c513 773d 2acf 30bd
000002b0: 9458 2dbb 8dcd 2f3b 41d6 6a3d c4a7 68be
000002c0: 9d92 193e 0e1b ea3d 5d13 eb3d ddfb 243e
000002d0: 3602 eb3d eca0 cd3d 4c08 bbbd 90b7 01bd
000002e0: 2a46 a53d 2aae da3b 9c27 a7bb 836d ea3d
000002f0: 2b32 973c 9a87 36bc 7583 403e 0f90 63bc
00000300: dc83 743d 616b 373d c5ab 523c b32c 04bd
00000310: dd64 e13c e56a e3bd 36bc c83c 248b a93d
00000320: 3897 5fbd c0c5 01bd 17c6 153e 6492 16be
00000330: 1cd4 dcbd 9fcd 963d 7b2d 33bd 4e09 813d
00000340: feb2 09be 40a9 463d cd5d 11be 662f 793d
00000350: c0d0 91bd 7fdb f73d ee73 ebbc 0622 bbbd
00000360: 6ac6 9e3d 44c5 17be 7699 c2bd d73e 43bc
00000370: 096d 66bc b097 ab3d 0e6b 223e 7114 da3c
00000380: 32ec 8dbd 7456 9b3d 9ba1 d63c 01ca 9e3e
00000390: dfba b93d 8510 4dbe 7794 a33d 4757 5ebb
000003a0: 6520 79bd 632d 8b3d 2337 823c 8f57 6d3e
000003b0: 6b19 99be 5e76 83bd 44e9 eb3d 5ad4 403d
000003c0: e66d 1f3d 71cd 213c d485 4a3d e91f 04be
000003d0: 9693 0abe 74c8 57be 4659 423d a7e2 433e
000003e0: 187b 13be 2bd6 40bd e36b d2bd 2e1d 183d
000003f0: 1609 8fbd e4a4 1cbe 7b3f 613c 9a52 253e

network_body._body_endoder.seq_layers.0.bias f4 [256]
0.012434418 0.006968554 -0.015997501 -0.0005768627 -0.0026488625 0.016390596 -0.008667177 0.00714633
0.013161853 0.009989678 -0.0013401047 0.009610609 0.0025247422 -0.0077788476 -0.0030813909 0.020956267
-0.003690039 -0.014209444 -0.0055246535 -0.0038763958 0.027815284 0.034739267 0.01254882 0.006409437
0.0010143552 -0.0029308696 0.030577578 0.0020906217 -0.0028981331 -0.008488874 -0.0023364343 -0.00035214762
-0.007797258 0.0062392266 -0.0007674048 -0.0008542341 -0.011870047 -0.010995095 0.011033233 0.0002409446
0.0028478003 0.005166976 0.0077732764 -0.010494699 0.001168351 -0.0047925026 0.007160323 0.009991954
-0.008397615 0.002078871 0.010635665 -0.010531577 -0.0027821285 -0.009226435 -0.008842401 -0.0014648315
-0.00767727 -0.014081486 0.0022507901 -0.0016919147 -0.008798548 -0.0014609467 -0.0059499396 -0.004121928
-0.004515861 -0.012303187 0.008201221 -0.006456161 -0.0028823216 -0.011014164 -0.0016041888 -0.0133871995
0.0034758628 -0.00514701 -0.007717407 -0.009651818 -0.017225761 0.0047151945 -0.0029575888 -0.01246386
0.0052123573 -0.007963918 0.0038469008 -0.004801587 -0.0074514835 0.00065990555 -0.00027623668 0.010155157
-0.005759044 -0.00018190545 -0.0077542327 -0.005713954 0.0023816042 0.0043332987 0.004020315 -0.0073374836
0.007238803 0.0006814504 -0.007368449 -0.0002069349 -0.003983526 -0.016979275 -0.013863668 0.0074834474
-0.019993084 0.0018689386 0.0041027856 -0.011322736 0.0006355978 0.0049728965 -0.0076913964 0.0047790236
-0.008781541 -0.0016403621 0.004409486 0.006130849 0.00055252574 -0.026248416 -0.015615059 -0.00025813657
-0.0070317546 -0.0062351692 -0.0059198667 0.0011415976 0.0053442894 -0.007805654 -0.0067081996 -0.010310791
-0.00060627144 0.004354549 -0.012213775 0.0047940626 -0.0071079107 -0.003911644 -0.004188733 -0.009790245
-0.009021932 0.011391784 0.0050343433 -0.0139762815 -0.008389691 -0.006087734 -0.009869622 -0.005017887
-0.0030541844 0.012761919 -0.007241591 -0.0050394298 0.007051061 0.0027922697 0.012572232 -0.013848785
-0.0040809903 -0.0129247205 -0.003992044 -0.02522618 -0.00835479 -0.00764384 0.0090247 -0.014536663
0.0018330468 -0.0012440255 -0.004269875 -0.008531176 -0.0019618568 0.02080682 -0.00987349 -0.005896287
-0.005886858 -0.005327037 -0.013020199 0.006669359 0.0028376214 -0.0025266737 -0.01975647 0.0009662063
-0.0003149258 -0.0033598691 0.0031786626 -0.0038825572 -0.0029417844 -0.006241262 -0.01588856 -0.008667359
0.008364544 0.008547072 -0.005039786 0.0086262 -0.012765153 0.0022889157 -0.0075521455 0.0057357643
0.017707704 0.0045053726 -0.013649359 -0.0028305487 -0.009508598 -0.014667442 -0.008167918 -0.0050629834
-0.01338873 -0.006849825 -0.00031601693 -0.010301356 0.015888445 0.0076546054 0.001730263 0.0018693601
-0.011613885 -0.002913956 0.008806145 0.013900733 0.0041636503 -0.0038773324 -0.024654828 0.0014781173
-0.0076057864 0.004283748 0.00015652714 0.0096386485 -0.0027214612 -0.003996658 0.002357439 -0.008798232
-0.013996626 0.0028849912 0.0009929686 -0.0025276006 -0.010680333 -0.0036552867 -0.0013535134 0.019161912
0.0038223402 -0.014968281 0.004959589 -0.007155188 -0.001460709 0.0027489208 0.016696353 0.005535761
0.006003769 -0.025501713 -0.0031722314 0.0021500632 -0.019264184 -0.001089871 0.010898342 -0.012849696
-0.0032786417 -0.010660691 -0.006882148 0.0016392516 -0.012475967 -0.009390672 -0.011043575 -0.014094223
00000000: bbb9 4b3c 7858 e43b 310d 83bc 9a38 17ba
00000010: 8a98 2dbb 9245 863c c600 0ebc c32b ea3b
00000020: d0a4 573c bfab 233c 74a6 afba d175 1d3c
00000030: 2576 253b b4e5 febb 29f1 49bb 7aac ab3c
00000040: 95d4 71bb bace 68bc 2708 b5bb 210b 7ebb
00000050: e1dc e33c c34a 0e3d 9199 4d3c 4106 d23b
00000060: 1df4 843a d513 40bb d47d fa3c d002 093b
00000070: 9bee 3dbb eb14 0bbc dd1e 19bb 74a0 b8b9
00000080: 2480 ffbb 6d72 cc3b aa2b 49ba aeee 5fba
00000090: 967a 42bc c524 34bc bcc4 343c 13a6 7c39
000000a0: 29a2 3a3b bc4f a93b f8b6 fe3b f5f1 2bbc
000000b0: 5b23 993a 6d0a 9dbb 25a1 ea3b 4bb5 233c
000000c0: 2696 09bc ab3d 083b 3641 2e3c a38c 2cbc
000000d0: 5f54 36bb 792a 17bc b8df 10bc 97ff bfba
000000e0: 9c91 fbbb 08b6 66bc fe81 133b 3dc3 ddba
000000f0: c927 10bc 3d7d bfba b6f7 c2bb 3d11 87bb
00000100: caf9 93bb 4e93 49bc 6a5e 063c 348e d3bb
00000110: 55e5 3cbb c174 34bc a543 d2ba fc55 5bbc
00000120: 4dcb 633b 40a8 a8bb 4de2 fcbb a922 1ebc
00000130: 0a1d 8dbc eb81 9a3b 1bd4 41bb 3835 4cbc
00000140: 6ccc aa3b 187b 02bc 491c 7c3b a256 9dbb
00000150: 932b f4bb 83fd 2c3a dcd3 90b9 d161 263c
00000160: 5db6 bcbb dfbd 3eb9 3817 febb 1f3c bbbb
00000170: b014 1c3b 58fe 8d3b d9bc 833b 466f f0bb
00000180: 7b33 ed3b 5da3 323a 0873 f1bb aafc 58b9
00000190: 3d88 82bb 1f18 8bbc 7024 63bc b537 f53b
000001a0: 89c8 a3bc 2cf7 f43a a970 863b ff82 39bc
000001b0: 3f9e 263a aef3 a23b 1c08 fcbb 5b99 9c3b
000001c0: 74e0 0fbc 6b01 d7ba 737d 903b 4ae5 c83b
000001d0: 60d7 103a eb06 d7bc 4ed6 7fbc 8156 87b9
000001e0: a26a e6bb 6450 ccbb 71fb c1bb a9a1 953a
000001f0: 261f af3b 92c6 ffbb 75d0 dbbb 98ee 28bc
00000200: 30ee 1eba 9bb0 8e3b 491c 48bc 8317 9d3b
00000210: 7ae9 e8bb 402d 80bb a441 89bb 4467 20bc
00000220: bad0 13bc 9ba4 3a3c 22f7 a43b c6fc 64bc
00000230: ea74 09bc 9d7b c7bb 32b4 21bc 166d a4bb
00000240: b628 48bb 5e17 513c de4a edbb cd21 a5bb
00000250: 960c e73b 83fe 363b c3fb 4d3c 04e6 62bc
00000260: d4b9 85bb 35c2 53bc b1cf 82bb 22a7 cebc
00000270: 87e2 08bc 2d79 fabb 56dc 133c 2f2b 6ebc
00000280: d842 f03a 920e a3ba 4fea 8bbb 58c6 0bbc
00000290: 7f92 00bb 1073 aa3c 6bc4 21bc a435 c1bb
000002a0: 8be6 c0bb 6d8e aebb ac52 55bc a38a da3b
000002b0: 63f7 393b 8d96 25bb 52d8 a1bc 0249 7d3a
000002c0: a01c a5b9 4031 5cbb 1c51 503b 8072 7ebb
000002d0: f4ca 40bb 8083 ccbb ba28 82bc 8a01 0ebc
000002e0: 710b 093c 0509 0c3c ca24 a5bb e854 0d3c
000002f0: ef24 51bc a201 163b fd77 f7bb 14f3 bb3b
00000300: bf0f 913c cea1 933b 90a1 5fbc ba80 39bb
00000310: f3c9 1bbc b64f 70bc bbd2 05bc 62e7 a5bb
00000320: 675c 5bbc 7f74 e0bb 13af a5b9 05c7 28bc
00000330: 7c28 823c 7cd3 fa3b fec9 e23a 5105 f53a
00000340: 2a48 3ebc 12f8 3ebb a647 103c e6bf 633c
00000350: 3b6f 883b d81a 7ebb ecf8 c9bc 63bd c13a
00000360: f639 f9bb af5e 8c3b 6f21 2439 6ceb 1d3c
00000370: 8b5a 32bb 66f6 82bb 437f 1a3b 7626 10bc
00000380: 1b52 65bc 1f12 3d3b 7f26 823a 1aa6 25bb
00000390: 90fc 2ebc 898d 6fbb 6068 b1ba 71f9 9c3c
000003a0: 3a80 7a3b 853d 75bc 0c84 a23b 1176 eabb
000003b0: 4375 bfba 3d27 343b cac6 883c 5465 b53b
000003c0: 44bb c43b f8e8 d0bc 36e5 4fbb 13e8 0c3b
000003d0: eccf 9dbc 01da 8eba f68e 323c 8887 52bc
000003e0: 7bde 56bb 2eaa 2ebc a483 e1bb 28dc d63a
000003f0: 0068 4cbc 55db 19bc 1cf0 34bc 75eb 66bc

network_body._body_endoder.seq_layers.2.weight f4 [256, 256]
0.028138729 0.0021825936 0.015659742 0.10201393 -0.008473561 0.006635651 0.028298719 -0.01217509
-0.041605193 0.07403818 -0.07708359 0.009271551 -0.07217897 0.017599966 -0.007873914 -0.052462757
0.04457547 0.0011939399 -0.09685659 0.048792925 -0.030072674 0.046978872 0.014204414 0.14179626
-0.049497508 0.07263106 0.07509718 -0.13625205 0.020019004 0.049248174 -0.09119017 0.047182538
-0.08177928 -0.06947811 0.04710032 0.089317106 0.024994625 -0.037465826 -0.10804155 0.03916017
-0.10577917 0.018754277 0.04448465 0.055467106 -0.13090646 0.018120382 -0.024547607 0.024561508
0.13234866 0.01629651 -0.003909081 0.030330097 -0.0657443 -0.078352645 -0.0929806 0.013583005
0.028038284 0.08208082 0.025027178 -0.0025375432 -0.10732777 -0.033489373 0.06576297 -0.10375506
-0.1028387 0.05067157 0.057227574 -0.0009851817 0.05510056 0.107096665 -0.00437736 0.0017718431
0.13752773 -0.10891678 0.011028179 -0.0469368 0.03439833 -0.029451309 0.021338036 0.087336615
-0.06800132 0.017327435 -0.055864926 -0.09473105 0.033260312 0.11820475 -0.022909822 -0.038323198
0.040159244 -0.025493016 0.04364469 0.017101932 0.02932862 0.051298507 0.07992172 -0.03916341
0.050393812 -0.0672137 0.016427588 0.042527914 0.039017644 0.08657979 -0.09768576 0.053186502
-0.08994561 0.005203402 0.035094883 0.005642498 0.060784932 0.045240134 -0.09690819 0.12183413
0.010163479 -0.03569918 -0.022188729 0.0072214985 0.18779889 0.037674155 0.08576543 -0.029100398
0.10873713 0.01369645 0.031478677 0.023128467 -0.015533751 -0.055465143 -0.10891447 0.041788764
0.043310486 0.06894888 -0.042678747 0.027460193 0.023486618 -0.08522839 0.14752193 0.006925863
0.114423305 0.04338493 -0.017231379 0.006460818 -0.033113305 -0.029666787 -0.014097517 -0.015597608
-0.00884066 -0.037261393 -0.021106247 0.030127702 -0.07430428 -0.033282418 -0.08552719 0.036450204
-0.044572312 0.030260043 0.043086287 0.016567575 -0.07125693 -0.032342393 0.11488054 -0.023861166
-0.020229302 -0.036196284 -0.0017831627 -0.07424136 0.082290515 -0.04060446 -0.015729709 -0.040964972
-0.13531348 -0.04670078 -0.00124113 0.07799711 -0.101059854 0.039333325 0.06418807 -0.07109458
-0.06320659 0.028028598 -0.13288356 -0.09613541 0.07280636 -0.030510182 -0.06468046 -0.0106202
-0.051147256 -0.021188619 -0.08625893 -0.013553624 0.04847609 0.00058014673 -0.13167349 -0.03236116
0.111903735 0.012194019 0.028810114 0.029913766 0.026495168 -0.018741952 0.017241787 0.06722285
0.0026664264 0.008536839 0.024665061 -0.0046171807 0.061293364 0.086313754 -0.0013171084 -0.0695242
0.01887359 -0.11296302 -0.041371148 -0.022150587 -0.10209562 0.042130947 -0.052476052 -0.04709483
0.04206766 0.07974359 0.010253463 -0.0043897955 0.054024357 -0.10710657 -0.003782378 -0.058287244
-0.06415692 0.06908929 0.06781096 0.07470488 0.041022964 0.013563038 -0.0038413673 0.015889548
-0.07431676 -0.010875999 -0.012672417 0.051994286 -0.072998315 0.0020443487 -0.0068817544 -0.05859637
-0.08059587 -0.05949735 -0.009988225 -0.04733773 -0.013466633 0.11483262 0.14211766 -0.100249186
-0.046023138 -0.053015817 0.04397043 -0.14981379 0.04320011 -0.049225703 0.063543476 0.012857696
00000000: 3183 e63c d809 0f3b dc48 803c aeec d03d
00000010: b1d4 0abc e06f d93b b7d2 e73c 077a 47bc
00000020: 356a 2abd 54a1 973d 00de 9dbd b4e7 173c
00000030: 91d2 93bd ce2d 903c 9701 01bc 30e3 56bd
00000040: c594 363d fa7d 9c3a bf5c c6bd 17db 473d
00000050: f85a f6bc eb6c 403d a1b9 683c 0a33 113e
00000060: e6bd 4abd 98bf 943d 8dcc 993d a885 0bbe
00000070: e5fe a33c 74b8 493d e9c1 babd 7a42 413d
00000080: e57b a7bd 8a4a 8ebd 44ec 403d e3eb b63d
00000090: 87c1 cc3c c475 19bd e344 ddbd 6a66 203d
000000a0: c0a2 d8bd 92a2 993c 8935 363d 7a31 633d
000000b0: 580c 06be 3271 943c 1018 c9bc 3735 c93c
000000c0: 6886 073e 4280 853c c017 80bb d376 f83c
000000d0: f3a4 86bd 5a77 a0bd 9d6c bebd 418b 5e3c
000000e0: 8bb0 e53c fd19 a83d cc05 cd3c e94c 26bb
000000f0: a9ce dbbd 272c 09bd bcae 863d 887d d4bd
00000100: 199d d2bd fe8c 4f3d 7667 6a3d 3621 81ba
00000110: 20b1 613d 7f55 db3d f56f 8fbb 303d e83a
00000120: 12d4 0c3e c30f dfbd 89af 343c cd40 40bd
00000130: 43e5 0c3d df43 f1bc 1bcd ae3c 8add b23d
00000140: 4744 8bbd 44f2 8d3c 9fd2 64bd 5a02 c2bd
00000150: f73b 083d 5515 f23d 61ad bbbc c9f8 1cbd
00000160: 057e 243d bbd6 d0bc c6c4 323d 5a19 8c3c
00000170: 9342 f03c 621e 523d 00ae a33d d069 20bd
00000180: be69 4e3d 56a7 89bd 2693 863c c031 2e3d
00000190: f7d0 1f3d bf50 b13d 790f c8bd 17da 593d
000001a0: 6735 b8bd 4d81 aa3b a7bf 0f3d b4e4 b83b
000001b0: 9ff9 783d b84d 393d cd77 c6bd 2c84 f93d
000001c0: b884 263c 4e39 12bd 23c5 b5bc 52a2 ec3b
000001d0: 5a4e 403e 3750 1a3d c9a5 af3d f563 eebc
000001e0: 93b1 de3d 1367 603c c9ef 003d e977 bd3c
000001f0: 4681 7ebc 6b2f 63bd 8d0e dfbd b22a 2b3d
00000200: 5666 313d 1235 8d3d e9cf 2ebd 33f4 e03c
00000210: 0267 c03c 398c aebd fd0f 173e 5af2 e23b
00000220: c456 ea3d 65b4 313d d228 8dbc 45b5 d33b
00000230: d1a1 07bd c307 f3bc 46f9 66bc 1c8d 7fbc
00000240: 6ad8 10bc 679f 18bd 02e7 acbc 5fce f63c
00000250: d82c 98bd 2553 08bd e128 afbd cf4c 153d
00000260: 7591 36bd e9e3 f73c 3f7b 303d b9b8 873c
00000270: 27ef 91bd 7579 04bd 7d46 eb3d 7e78 c3bc
00000280: ecb7 a5bc 8e42 14bd 03b9 e9ba db0b 98bd
00000290: ee87 a83d dd50 26bd 97db 80bc e3ca 27bd
000002a0: 9e8f 0abe 5149 3fbd 6aad a2ba f3bc 9f3d
000002b0: 78f8 cebd fb1b 213d 0975 833d 099a 91bd
000002c0: 7572 81bd 3b9c e53c a112 08be a4e2 c4bd
000002d0: 801b 953d 7df0 f9bc 3077 84bd 5900 2ebc
000002e0: c97f 51bd c193 adbc 86a8 b0bd 0510 5ebc
000002f0: dd8e 463d fd14 183a 6ad5 06be 238d 04bd
00000300: c92d e53d 6cc9 473c 3003 ec3c b70d f53c
00000310: 650c d93c b988 99bc a63e 8d3c 22ac 893d
00000320: 36bf 2e3b 19de 0b3c 620e ca3c b84b 97bb
00000330: c00e 7b3d 44c5 b03d d3a2 acba b462 8ebd
00000340: c99c 9a3c 2859 e7bd cb74 29bd 2675 b5bc
00000350: 8217 d1bd 8091 2c3d 21f1 56bd 82e6 40bd
00000360: 234f 2c3d 9b50 a33d 24fe 273c 46d8 8fbb
00000370: a548 5d3d b05a dbbd c6e1 77bb 9bbe 6ebd
00000380: b464 83bd b07e 8d3d 79e0 8a3d dffe 983d
00000390: b207 283d 8137 5e3c 73bf 7bbb cc2a 823c
000003a0: 6333 98bd 3f31 32bc f89f 4fbc f6f7 543d
000003b0: 2480 95bd 7bfa 053b 5780 e1bb bf02 70bd
000003c0: 730f a5bd 7eb3 73bd a7a5 23bc 35e5 41bd
000003d0: 27a3 5cbc 5d2d eb3d 4b87 113e 724f cdbd
000003e0: c282 3cbd 1d27 59bd 561a 343d c968 19be
000003f0: 99f2 303d e4a0 49bd 1523 823d 16a9 523c

network_body._body_endoder.seq_layers.2.bias f4 [256]
0.0027703738 0.010334399 -0.0051417644 0.0020868857 0.0033997777 0.0037859709 0.02157644 -0.0053648693
-0.0023124588 -0.0056944904 0.004081951 -0.004601814 0.00029850073 0.0031074767 -0.0073399697 0.010563563
-0.0064710844 -0.007381844 0.0030131873 0.007176229 -0.001220863 -0.006966649 -0.005336193 -0.0023744714
-0.013808994 -0.011210587 -0.003917465 -0.0050871265 -0.008436608 -0.00010094285 -0.0013767751 -0.002475785
-0.0016019341 0.0011974961 -0.01199356 0.0031454903 -0.0007050206 0.0022228726 -0.009771992 0.00013261069
-0.0051433123 -0.0023892845 -0.00016646113 0.0077604535 0.008369192 0.0045795334 -0.011310647 0.0018532692
-0.0035124072 0.00091636495 0.008490064 -0.00892346 -0.0037833503 0.0053080786 -0.0027263756 0.01689025
0.011965768 -0.0046204235 -0.008538679 -5.1251636e-06 0.0014637195 0.003100513 -0.0047577135 -0.0057518375
-0.0033300044 -0.0070551927 -0.0035487907 0.0011021516 -0.0053458316 -0.009796368 -0.011101411 0.008209975
0.001391142 -0.010373895 -0.008907598 -0.0078074737 -0.012096257 -0.0017232414 -0.0012537084 -0.0034270925
-0.0035184685 -0.0037646047 0.0022380576 -0.0065756114 0.00062995846 0.0047155344 -0.007815341 0.0046474636
-0.009284899 -0.00044785708 -0.0051995665 -0.0030837425 0.004524489 -0.0072746444 0.0046126503 0.0016642096
-0.008570186 -0.005048224 -0.0020621917 -0.0057941657 -0.000712168 -0.0014460274 -0.011587056 -0.0015779134
0.0036629052 -0.0062756385 -0.0012695387 0.0015153327 -0.015154759 0.0059068017 -0.0071994364 0.0050779367
-0.006235407 -0.0057013403 -0.010273068 0.0018986851 -0.000554541 0.00038132118 0.007964617 0.0059951115
-0.004972076 0.0038059182 -0.0115447175 -0.0054020877 -0.004680719 -0.008587888 0.008568167 -0.0020239186
-0.0024418915 -0.0054467632 -0.00015171876 -0.010260717 -0.0019554945 -0.0037955556 0.0065052635 0.005106212
-0.0014875702 0.0031531092 0.007094084 -0.004598929 -5.9087048e-05 0.005291796 -0.0128671015 -0.010425759
0.005768139 -0.0050749946 -0.0035968695 -0.0059104194 -0.0061691953 -0.0030929795 -0.0072906073 0.0014156642
0.00067562074 -0.007049578 -0.002220064 -0.007532103 -0.00093153515 -0.011732968 -0.0013491969 -0.007381817
-0.000510379 -0.0052099447 0.0033279837 0.005785269 0.002365851 -0.0009626055 -0.0029586796 -0.0010552532
0.004540057 0.004519934 -0.004823961 0.0004773835 0.0043521244 -0.011916767 -0.00826941 0.0040031434
-0.0027049268 -0.0034145317 0.0056608524 -0.014160787 -0.0039435583 0.0019195223 -0.0065696146 -0.00035146606
-0.009747361 -0.010993136 0.0043002297 -0.0048050857 0.0061873067 -0.0040049874 0.0023005018 -0.006018435
-0.017522575 -0.0069288393 0.00060867687 0.0058688093 0.0049324334 -0.0043837596 -0.006505053 -0.012749283
0.0011548805 0.0020959312 -0.002949806 0.0043100463 0.0013294636 -0.002133612 -0.0088113565 0.0010185774
-0.009187813 0.005801505 0.004706594 -0.008500472 0.0027787555 0.0053395815 0.00034276847 -0.004062012
-0.0015343572 -0.0024883824 -0.0019819962 0.0012376674 -0.0018048092 -0.009750092 -0.011632707 -0.00037723032
-0.0021043238 -0.0064271875 -0.013185284 -0.00703332 -0.008119045 -0.00970749 -0.0076250373 -0.0031953354
0.00014559623 -0.003117004 -0.00029525525 -0.003671692 0.00076940935 -0.00049059914 -0.0043607666 0.0010599337
-0.0048347716 -0.0013739308 -0.012385187 -0.0032849372 -0.0027290026 -0.0037249725 0.0011955173 0.0036279992
-0.00095268345 -0.013653136 -0.010993367 0.0041679153 -0.004777864 -0.009798499 0.016823215 -0.001260641
00000000: 298f 353b 9c51 293c 3f7c a8bb 22c4 083b
00000010: cece 5e3b 0d1e 783b 13c1 b03c c9cb afbb
00000020: 9f8c 17bb d998 babb e3c1 853b d0ca 96bb
00000030: 1780 9c39 cfa6 4b3b 2184 f0bb cb12 2d3c
00000040: 640b d4bb 65e3 f1bb e578 453b 9226 eb3b
00000050: 5d05 a0ba 7d48 e4bb 3bdb aebb 059d 1bbb
00000060: 1e3f 62bc 9cac 37bc 145e 80bb e9b1 a6bb
00000070: b339 0abc 48b1 d3b8 e874 b4ba c840 22bb
00000080: fdf7 d1ba 4df5 9c3a a380 44bc 9224 4e3b
00000090: 22d1 38ba 9dad 113b b51a 20bc 690d 0b39
000000a0: 3b89 a8bb 8b95 1cbb 128c 2eb9 674b fe3b
000000b0: ef1e 093c e90f 963b 4b50 39bc 65e9 f23a
000000c0: 6a30 66bb 3638 703a e919 0b3c b433 12bc
000000d0: 16f2 77bb 64ef ad3b feac 32bb 6c5d 8a3c
000000e0: 120c 443c ec66 97bb d1e5 0bbc d2f8 abb6
000000f0: 47da bf3a fa31 4b3b 98e6 9bbb e979 bcbb
00000100: 343c 5abb 3f2f e7bb d492 68bb 1276 903a
00000110: 162c afbb f280 20bc b1e2 35bc 2283 063c
00000120: fb56 b63a 45f7 29bc 2df1 11bc d6d5 ffbb
00000130: 612f 46bc 63de e1ba 7953 a4ba 1299 60bb
00000140: 1b96 66bb 96b7 76bb 60ac 123b 3a78 d7bb
00000150: cc23 253a c584 9a3b eb0b 00bc c049 983b
00000160: b01f 18bc 5cce eab9 2061 aabb 9d18 4abb
00000170: 2a42 943b 2460 eebb b725 973b 9c21 da3a
00000180: f769 0cbc 926b a5bb d625 07bb fcdc bdbb
00000190: c9b0 3aba a188 bdba a3d7 3dbc fdd1 ceba
000001a0: 5a0d 703b dfa3 cdbb a666 a6ba 219e c63a
000001b0: ab4b 78bc d88d c13b 40e9 ebbb d264 a63b
000001c0: 6352 ccbb 4fd2 babb 5f50 28bc 4ddd f83a
000001d0: 9e5e 11ba 10ec c739 067e 023c a472 c43b
000001e0: ccec a2bb b66c 793b 0e26 3dbc ff03 b1bb
000001f0: b860 99bb 37b4 0cbc 7f61 0c3c b8a3 04bb
00000200: 2408 20bb c37a b2bb b216 1fb9 911c 28bc
00000210: c127 00bb dbbe 78bb 1b2a d53b 0352 a73b
00000220: 93fa c2ba 65a4 4e3b 7d75 e83b 9db2 96bb
00000230: 3cd4 77b8 cd66 ad3b 89d0 52bc cdd0 2abc
00000240: a802 bd3b 244c a6bb 75b9 6bbb 31ac c1bb
00000250: f626 cabb 96b3 4abb 0ce6 eebb cf8d b93a
00000260: 241c 313a 2500 e7bb 7e7e 11bb dccf f6bb
00000270: 4432 74ba a23b 40bc 89d7 b0ba 2be3 f1bb
00000280: f4ca 05ba 2fb8 aabb 4d1a 5a3b 5b92 bd3b
00000290: 650c 1b3b 5d57 7cba 68e6 41bb 6c50 8aba
000002a0: c2c4 943b f41b 943b 5112 9ebb 5449 fa39
000002b0: 449c 8e3b 8b3e 43bc 6b7c 07bc cd2c 833b
000002c0: 2445 31bb 56c6 5fbb ac7e b93b a502 68bc
000002d0: f738 81bb 7b98 fb3a ec45 d7bb fa44 b8b9
000002e0: 65b3 1fbc 8e1c 34bc f1e8 8c3b fb73 9dbb
000002f0: e4be ca3b 453c 83bb 04c4 163b 4b36 c5bb
00000300: 818b 8fbc 510b e3bb 9d8f 1f3a 244f c03b
00000310: 40a0 a13b a4a5 8fbb 5728 d5bb 5ee2 50bc
00000320: 5c5f 973a e45b 093b 8851 41bb 4a3b 8d3b
00000330: 6541 ae3a 12d4 0bbb 825d 10bc c981 853a
00000340: 7b88 16bc 8d1a be3b c639 9a3b 9045 0bbc
00000350: c81b 363b a8f7 ae3b 9bb5 b339 a01a 85bb
00000360: 7c1c c9ba 2114 23bb 61e4 01bb 3a39 a23a
00000370: 598f ecba dabe 1fbc 1c97 3ebc ffc6 c5b9
00000380: b2e8 09bb 289b d2bb 1707 58bc c477 e6bb
00000390: be05 05bc 2a0c 1fbc 73db f9bb d568 51bb
000003a0: 31ab 1839 a646 4cbb 7dcc 9ab9 c5a0 70bb
000003b0: 30b2 493a 8d9b 00ba c3e4 8ebb 79ed 8a3a
000003c0: 016d 9ebb 7815 b4ba 3deb 4abc 1a48 57bb
000003d0: 11d9 32bb ab1e 74bb e7b2 9c3a bac3 6d3b
000003e0: 81bd 79ba 67b1 5fbc 861d 34bc 0293 883b
000003f0: a18f 9cbb e289 20bc d7d0 893c 183c a5ba

action_model._continuous_distribution.log_sigma f4 [1, 2]
0.0036558926 0.022077577
00000000: b397 6f3b 09dc b43c

action_model._continuous_distribution.mu.weight f4 [2, 256]
0.010569999 0.0079795 0.007231363 -0.018574784 0.014800273 0.0035070414 0.031216756 -0.024668848
-0.025645532 0.013380555 0.015286952 -0.00014225689 0.011676199 0.0021482382 -0.009395453 -0.005426102
-0.0005843407 -0.021306574 -0.0071836147 0.001777061 -0.00554311 -0.007873013 -0.015431302 -0.0041974583
-0.017952219 -0.0013207865 -0.0035206885 -0.006542036 0.0024651748 -0.03612095 -0.009646943 0.00015875963
-0.01897231 0.0030336224 -0.017298756 0.003837101 -0.026159469 0.0077063446 -0.008136916 -0.01226763
0.02873382 0.004796696 -0.0007113638 -0.004234193 0.008619612 0.02568441 -0.011642559 0.030439746
-0.02219909 0.015586526 0.013313251 0.0016951847 0.002984961 0.013090599 -0.018006733 0.017300485
-0.017473828 -0.008225444 -0.006742101 0.0013362059 -0.014188202 -0.006303859 -0.011204545 -0.00027516414
-0.036035065 0.0057845837 -0.01084866 0.009990344 -0.026489824 -0.00015175714 0.00046833832 0.0126134055
0.004406198 -0.014395794 -0.00055094034 -0.014660307 -0.0003619848 -0.018564902 -0.01651795 0.0024413576
-0.007940788 -0.01413537 -0.022202544 -0.0012881554 -0.011828297 -0.011915219 -0.009069194 0.018649397
-0.008859021 0.002653201 -0.003245231 -0.0051264917 0.0045316257 -0.015991444 -0.016188912 -0.003648874
-0.0042247935 -0.002244258 -0.011045102 0.0029773514 0.0024938537 -0.0028211358 0.00033017452 0.009493474
0.014859164 -0.012526244 0.019614585 -0.004442078 -0.011632532 0.036906723 -0.008332944 0.02680732
-0.02157822 -0.014489032 -0.0015051678 0.0038198435 0.004856818 0.0169066 -0.0026960948 0.019195307
-0.011293437 -0.0032598283 -0.00891051 0.0015277871 0.0118054105 -0.020536283 0.014564959 0.008190299
0.0049350313 -0.0019943854 0.0013834238 -0.006802825 -0.00463696 -0.009212181 0.0096711395 -0.02461138
0.0001946584 0.0038244468 -0.0045461385 -0.017155755 -0.04747838 0.0076570446 -0.011132584 -0.0019312416
-0.034821846 0.009208306 0.011051711 0.016521541 0.0012358985 -0.029719943 -0.0029885254 0.0048160623
0.012933136 -6.734249e-05 0.0037105563 0.010399905 -0.0069177113 -0.0018805254 -0.02572273 -0.017559262
0.0025302065 -0.004301094 -0.002159546 0.002534588 0.0011368442 -0.00736277 0.0032019718 0.011318194
0.007807781 0.008915423 0.015059623 0.0017994456 0.013579528 0.00010821503 -0.0012220098 0.01164734
0.021135455 0.0071505415 0.0036838385 0.0002506196 0.0027551206 -0.018370675 -0.018378438 0.003650801
-0.017901339 -0.01835985 0.016766883 0.0039820466 0.0109106265 -0.021620927 0.008122654 0.0067782607
-0.0008327174 0.005242238 0.010483902 -0.017370857 0.013716083 -0.008563151 0.00861575 -0.011230432
0.013308842 -0.009410118 -0.003660977 0.0067971 -0.014087848 0.0060041044 -0.0033581657 -0.00067087804
-0.012622786 -0.041276995 0.0068892525 -0.026617078 -0.008719331 0.013355962 0.0058802683 -0.0041432492
0.01517318 0.003980319 -0.006966767 0.016186353 -0.02920007 -0.009147875 1.3187517e-05 -0.0063717267
0.009233947 0.012523152 0.003262146 -0.0023101405 -0.0005713965 0.0013655378 -0.008379691 -0.0009387618
0.015078087 -0.012476924 0.0035523425 -0.010410698 0.0028529535 -0.0018503882 0.010892584 0.015691524
-0.00474637 0.00923827 -0.00577256 0.011772432 0.009212638 -0.009243191 -0.032429818 -0.01618624
-0.012334107 -0.0025153838 -0.0041653994 -0.0064545684 -0.026596732 -3.5467463e-05 0.0011699899 0.0026616107
00000000: ca2d 2d3c 73bc 023c 12f5 ec3b 252a 98bc
00000010: d87c 723c 64d6 653b 48ba ff3c 5316 cabc
00000020: 9416 d2bc 1e3a 5b3c 2076 7a3c cb2a 15b9
00000030: 874d 3f3c 75c9 0c3b 63ef 19bc 71cd b1bb
00000040: 712e 19ba 208b aebc 8764 ebbb 46ec e83a
00000050: faa2 b5bb cffd 00bc 92d3 7cbc d58a 89bb
00000060: 8810 93bc 3e1e adba 5abb 66bb 935e d6bb
00000070: c58e 213b 90f3 13bd 360e 1ebc b778 2639
00000080: d16b 9bbc bdcf 463b 1fb6 8dbc df77 7b3b
00000090: 624c d6bc 8185 fc3b b350 05bc 2bfe 48bc
000000a0: 3063 eb3c 9a2d 9d3b d17a 3aba fcbe 8abb
000000b0: 4639 0d3c 1d68 d23c 6fc0 3ebc c65c f93c
000000c0: deda b5bc a15e 7f3c d21f 5a3c f630 de3a
000000d0: 569f 433b f479 563c db82 93bc bfb9 8d3c
000000e0: 4625 8fbc 03c4 06bc d8ec dcbb a123 af3a
000000f0: a275 68bc 9a90 cebb 4593 37bc e843 90b9
00000100: 8199 13bd 9b8c bd3b 94be 31bc 8aae 233c
00000110: 3001 d9bc ff20 1fb9 4e8b f539 75a8 4e3c
00000120: de61 903b 56dc 6bbc fb6c 10ba c931 70bc
00000130: c7c8 bdb9 6c15 98bc a750 87bc 2fff 1f3b
00000140: 141a 02bc 0a98 67bc 1ce2 b5bc 53d7 a8ba
00000150: 79cb 41bc 0d38 43bc f596 14bc 9fc6 983c
00000160: 6d25 11bc 54e1 2d3b f1ad 54bb 21fc a7bb
00000170: 087e 943b 7d00 83bc 9c9e 84bc f221 6fbb
00000180: 2370 8abb 6714 13bb 84f6 34bc ab1f 433b
00000190: ec6f 233b cee2 38bb 461b ad39 848a 1b3c
000001a0: da73 733c e03a 4dbc c4ae a03c da8e 91bb
000001b0: 6096 3ebc 812b 173d e686 08bc 069b db3c
000001c0: cfc4 b0bc 6863 6dbc 0d49 c5ba 5756 7a3b
000001d0: f125 9f3b b67f 8a3c f7b0 30bb 7a3f 9d3c
000001e0: 1c08 39bc d8a2 55bb 63fd 11bc 0740 c83a
000001f0: 7b6b 413c b53b a8bc dea1 6e3c 9b30 063c
00000200: 0bb6 a13b 3cb4 02bb 0054 b53a 3bea debb
00000210: a4f1 97bb b0ee 16bc b373 1e3c ce9d c9bc
00000220: 371d 4c39 92a3 7a3b c6f7 94bb 3a8a 8cbc
00000230: b178 42bd f2e7 fa3b 7165 36bc b721 fdba
00000240: 5aa1 0ebd 6fde 163c 3c12 353c 2f58 873c
00000250: dffd a13a 3d77 f3bc 23db 43bb 0fd0 9d3b
00000260: 81e5 533c 393a 8db8 ce2c 733b 5d64 2a3c
00000270: f8ad e2bb f67b f6ba 7ab8 d2bc 71d8 8fbc
00000280: d2d1 253b 31f0 8cbb 2b87 0dbb 551b 263b
00000290: 2902 953a 6443 f1bb 2cd8 513b f26f 393c
000002a0: 6ad8 ff3b ff11 123c a3bc 763c 60db eb3a
000002b0: ab7c 5e3c 80f1 e238 d82b a0ba 7cd4 3e3c
000002c0: 4324 ad3c 174f ea3b 8e6c 713b 9865 8339
000002d0: 418f 343b 197e 96bc 618e 96bc 4742 6f3b
000002e0: d4a5 92bc 6567 96bc b45a 893c d47b 823b
000002f0: 7cc2 323c 5f1e b1bc e114 053c 2c1c de3b
00000300: b84a 5aba 14c7 ab3b acc4 2b3c 544d 8ebc
00000310: 6cb9 603c 754c 0cbc 1329 0d3c d9ff 37bc
00000320: 540d 5a3c e52c 1abc 00ed 6fbb 35ba de3b
00000330: b8d0 66bc 14be c43b ac14 5cbb dddd 2fba
00000340: cdcf 4ebc 1112 29bd 3dbf e13b 0f0c dabc
00000350: 86db 0ebc f7d2 5a3c 44af c03b 18c4 87bb
00000360: ee98 783c 566d 823b 7a49 e4bb 3e99 843c
00000370: fc34 efbc f8e0 15bc f43f 5d37 ebc9 d0bb
00000380: fb49 173c e82d 4d3c bac9 553b ba65 17bb
00000390: c5c9 15ba d8fb b23a f94a 09bc 3d17 76ba
000003a0: 150a 773c 036c 4cbc 6bce 683b a291 2abc
000003b0: 9ef8 3a3b ba88 f2ba cf76 323c 838b 803c
000003c0: 7087 9bbb 1d5c 173c be27 bdbb 29e1 403c
000003d0: 9bf0 163c c170 17bc 21d5 04bd 0199 84bc
000003e0: ff14 4abc 23d9 24bb e77d 88bb d880 d3bb
000003f0: 64e1 d9bc e6c2 14b8 595a 993a 6b6e 2e3b

action_model._continuous_distribution.mu.bias f4 [2]
0.0039898925 -0.0016848085
00000000: a5bd 823b cbd4 dcba

action_model._discrete_distribution.branches.0.weight f4 [1, 256]
-0.0048404946 -0.0034026855 0.0068540657 -0.0023233925 -0.0006927244 -0.010851189 0.003988551 -0.0018864162
-0.0040544467 -0.0012517964 0.0014670086 0.0031436977 0.0032364682 0.0025743907 -0.004697922 -0.004640317
-0.0014189589 -0.003500466 0.008100442 -0.0015732499 0.0033826602 -0.008898719 0.0046786363 -0.0020452035
-0.0016653382 0.005323199 0.009539046 -0.0048641856 0.0019114284 -0.0012120917 -0.0071159783 0.0012422536
-0.01257316 -0.0062090033 0.013280665 -0.0030792397 -0.006368141 -0.011377527 0.0024539032 -0.005951481
0.0021498788 0.010827745 -0.010567895 0.002708174 0.005273175 0.0056218947 0.0030301316 0.0027670893
0.0010658818 -0.0034033773 0.0017354613 -0.0059394143 -0.008530409 0.010435494 -0.004134343 -0.009554235
-0.002915546 0.00097590446 0.009244305 0.0020168698 0.00039006225 -0.004558311 -0.00492186 -0.0048674005
0.009788117 0.002452515 0.010530772 -0.01438994 0.0025632489 0.0043597184 0.00228389 -0.0007510036
0.0069181337 -0.0004884225 0.006053505 -0.008852522 0.0006502668 5.4329146e-05 0.0027676232 -0.00707471
-0.0053637666 0.009636608 0.0022288305 -0.011961053 0.00483007 0.008482841 0.00076579576 -0.0039973184
0.0071012564 0.0012760076 -0.0025269198 0.00017040178 -0.00012754305 -0.0050293365 0.005976545 -0.0025750836
0.0042961035 -0.010202142 0.00062715955 -0.0012388767 0.001719281 0.010490524 -0.01033448 0.0023173557
0.0056002834 -0.002926559 0.0025099346 0.0008789529 -0.0017720681 -0.0031110109 0.011479825 -0.0035392984
-0.014531093 0.0025102932 0.0018583256 -0.01211591 -0.0064174416 0.002735278 -0.0075238794 -0.008684657
0.007475955 0.010197668 -0.0151184825 0.007999914 -0.0011260114 0.0042052823 0.0056786956 0.017241612
0.00022204204 -0.0010134802 -0.009364321 -0.0023524414 0.001650058 -0.00031730393 6.891155e-05 -0.008744553
0.005015913 0.012668448 -0.00070323655 2.8343957e-05 -0.0055596107 0.0069314255 -0.007094417 0.004461208
0.0029335227 -0.010829087 -0.002963872 0.000933028 0.005120882 0.008065022 -0.002726225 0.010705671
0.0019099171 -0.0037196546 -0.009548026 0.0020801383 0.0074444497 -0.00860069 -0.010652223 -0.008560798
0.006011234 0.004014631 -0.00472826 -0.007672929 -0.0049220254 -0.010333388 0.007791468 0.0012437309
0.0031090206 0.0011687669 0.0025956796 -0.007356209 -0.005812557 -0.00094293937 0.011617371 0.0007242983
-0.009895767 0.011454523 0.011557372 0.005393612 -0.003464019 -0.0060010334 -0.008435804 -0.0036891736
-0.0018270372 -0.001242331 -0.0028320448 0.0018233269 -0.0040619415 -0.00703005 -0.0039908714 -0.0041127615
0.0020198226 -0.009853088 -0.009740252 0.0015170089 -0.0026521632 -0.0012825135 -0.0032975567 -0.0001609533
-0.007314171 -0.009667902 -0.0006730023 -0.0039684065 0.00010418903 -0.0041287495 -0.007947355 -0.012416766
-0.0030364124 0.0018213276 0.0020686968 -0.00025097054 -0.0012147755 0.0019187164 -0.007635391 -0.0007191364
0.0065628113 -0.0006508701 0.011684504 -0.00998241 -0.0017728125 0.008537477 -0.003723877 0.008719469
-0.0011791313 0.0013683563 0.0019455537 0.013627415 -0.0014298791 -0.015885623 0.012383758 0.006566363
-0.010790001 0.0053968034 0.0026790795 -0.0034392811 -0.009981165 0.012395655 -0.00024994471 -0.003067434
-0.008249856 -0.0025329022 0.0060538715 -0.006205193 0.001324966 -8.1331964e-05 -0.010670163 -0.0049128244
-0.009964517 -0.00016542315 -0.005319226 -0.004675589 0.006584406 0.006341534 -0.0029409914 0.0015595045
00000000: 039d 9ebb 97ff 5ebb 1298 e03b 0f44 18bb
00000010: f397 35ba 2fc9 31bc 64b2 823b a041 f7ba
00000020: 2adb 84bb 5113 a4ba a448 c03a 7f06 4e3b
00000030: ed1a 543b 1cb7 283b 07f1 99bb cd0d 98bb
00000040: 5cfc b9ba 1368 65bb b7b7 043c 8235 ceba
00000050: 9faf 5d3b efcb 11bc 3f4f 993b d208 06bb
00000060: 7a47 daba 3b6e ae3b a949 1c3c bf63 9fbb
00000070: e588 fa3a 0cdf 9eba 272d e9bb 1dd3 a23a
00000080: a8ff 4dbc e574 cbbb 2597 593c 12cd 49bb
00000090: d7ab d0bb cf68 3abc aad1 203b a404 c3bb
000000a0: fbe4 0c3b db66 313c f724 2dbc 9f7b 313b
000000b0: 99ca ac3b df37 b83b 2c95 463b 0e58 353b
000000c0: 0fb5 8b3a 320b 5fbb 6b78 e33a 6b9f c2bb
000000d0: 21c3 0bbc a2f9 2a3c 6279 87bb 5e89 1cbc
000000e0: bf12 3fbb d7d3 7f3a 6d75 173c 762d 043b
000000f0: 4581 cc39 e25d 95bb 8e47 a1bb b77e 9fbb
00000100: 575e 203c 60ba 203b 4289 2c3c c8c3 6bbc
00000110: 2efc 273b f8db 8e3b 51ad 153b 00df 44ba
00000120: 83b1 e23b 7b09 00ba 7b5c c63b 2b0a 11bc
00000130: ab76 2a3a 7adf 6338 0361 353b f8d2 e7bb
00000140: 89c2 afbb dde2 1d3c 9211 123b 4bf8 43bc
00000150: 9045 9e3b 9dfb 0a3c afbf 483a f0fb 82bb
00000160: a8b1 e83b b63f a73a ae9a 25bb e1ad 3239
00000170: 14bd 05b9 22cd a4bb e5d6 c33b bcc2 28bb
00000180: 54c6 8c3b e326 27bc f767 243a ce61 a2ba
00000190: 7f59 e13a 72e0 2b3c f351 29bc c7de 173b
000001a0: 9582 b73b 83cb 3fbb b77d 243b 8869 663a
000001b0: bd44 e8ba 1ae2 4bbb e015 3c3c 93f3 67bb
000001c0: d213 6ebc bb83 243b 0f93 f33a cf81 46bc
000001d0: 6749 d2bb 5a42 333b e08a f6bb 174a 0ebc
000001e0: dbf8 f43b 1f14 273c 83b3 77bc 1212 033c
000001f0: ac96 93ba 77cc 893b 5a14 ba3b 483e 8d3c
00000200: f5d3 6839 c1d6 84ba cf6c 19bc 6b2b 1abb
00000210: c246 d83a d05b a6b9 9b84 9038 5045 0fbc
00000220: 875c a43b 528f 4f3c 6859 38ba 2fc4 ed37
00000230: 652d b6bb 0321 e33b 4878 e8bb 532f 923b
00000240: 5840 403b 7c6c 31bc 853d 42bb 7396 743a
00000250: 12cd a73b 2723 043c 77aa 32bb d766 2f3c
00000260: 2f56 fa3a 73c5 73bb 536f 1cbc ee52 083b
00000270: 92f0 f33b e9e9 0cbc a986 2ebc 9742 0cbc
00000280: e3f9 c43b 2a8d 833b 85ef 9abb 326d fbbb
00000290: f148 a1bb 5f4d 29bc 924f ff3b af04 a33a
000002a0: b6c0 4b3b 4f31 993a 471c 2a3b 5b0c f1bb
000002b0: 4377 bebb 972f 77ba c956 3e3c d6de 3d3a
000002c0: db21 22bc c0ab 3b3c 225b 3d3c e6bc b03b
000002d0: 9804 63bb 51a4 c4bb 5436 0abc 10c6 71bb
000002e0: 3279 efba b6d5 a2ba d499 39bb b3fc ee3a
000002f0: 091a 85bb 555c e6bb dbc5 82bb 58c4 86bb
00000300: 005f 043b d96e 21bc 9495 1fbc 5fd6 c63a
00000310: eacf 2dbb 031a a8ba d21b 58bb 93c5 28b9
00000320: b7ab efbb 1f66 1ebc 6b6c 30ba 6809 82bb
00000330: 0f80 da38 764a 87bb 9f35 02bc b16f 4bbc
00000340: 8cfe 46bb 9db9 ee3a f992 073b b294 83b9
00000350: 1a39 9fba 707d fb3a 4d32 fabb 6d84 3cba
00000360: da0c d73b 279f 2aba 5d70 3f3c 438d 23bc
00000370: b75d e8ba c6e0 0b3c 4a0c 74bb 1bdc 0e3c
00000380: 158d 9aba 6b5a b33a f301 ff3a 8545 5f3c
00000390: c86a bbba 9122 82bc 3fe5 4a3c a52a d73b
000003a0: 8bc8 30bc abd7 b03b 7f93 2f3b 9065 61bb
000003b0: 0a88 23bc 2517 4b3c 030b 83b9 0107 49bb
000003c0: 672a 07bc 0cff 25bb 8e5f c63b ef54 cbbb
000003d0: 7baa ad3a c490 aab8 e8d1 2ebc c2fb a0bb
000003e0: 3742 23bc 7075 2db9 e74c aebb af35 99bb
000003f0: 00c2 d73b a5cc cf3b a6bd 40bb 4a68 cc3a
