results/ag07/PlatformRotate/PlatformRotate-110275.pt (torch, 624969 bytes, 39 tensors)

network_body._body_endoder.seq_layers.0.weight f4 [128, 66]
-0.13082409 -0.0722426 0.12775752 -0.04548922 0.010477821 0.25676125 -0.12277929 0.037395716
0.09390254 0.09719348 0.11509454 -0.1391739 -0.03782181 -0.12622933 0.06788721 -0.023202706
-0.25547022 0.009019646 0.06453339 -0.011208725 0.17545718 0.011416905 -0.20660046 -0.022991413
0.023317026 -0.0149850985 0.24738306 -0.0409185 -0.08850757 0.046052027 0.1137954 -0.095723204
0.28887394 -0.11799203 0.30425295 0.19239247 -0.3337518 0.15605101 0.23481534 -0.14496133
0.115068406 0.12597275 -0.04245931 0.0709974 -0.17289457 -0.14360316 0.13206007 -0.092082344
0.11530547 -0.07114986 -0.010494603 -0.1878711 -0.0056931567 0.028185636 -0.048564505 0.11465534
0.082340255 -0.30181226 -0.11230923 -0.32900995 -0.13412419 -0.113784716 0.11104544 -0.014622465
0.14208102 0.008516804 -0.12156343 -0.010735563 -0.1527422 0.052923936 -0.119877554 -0.18514168
0.12588686 0.055192944 -0.10765967 0.046549335 -0.014278519 0.08596384 -0.0064602382 -0.14420877
-0.0007380084 -0.08093096 0.14203762 0.08165697 0.07595921 0.0046110973 0.14268851 -0.009138882
-0.029967207 0.05840669 0.08234653 -0.0671397 0.006030789 -0.13830872 0.19947109 0.055427995
0.005927074 -0.26735786 -0.15932511 0.16791956 0.0062696794 0.2126019 -0.07595732 -0.1347501
-0.016868645 -0.007853944 -0.034756877 0.031803805 0.004317975 -0.053661812 0.18507767 -0.118266605
0.04879759 -0.10187182 -0.13220766 -0.068103224 0.01692979 0.0036428182 -0.08156985 0.02174844
0.069078736 0.027623259 0.09085895 -0.085617885 -0.09049621 -0.01752819 0.04558468 -0.0975875
0.06603283 -0.11098734 0.22900987 -0.050626867 0.21237233 0.06261834 -0.06062883 0.016278539
0.1202406 -0.045788646 -0.02855896 -0.0450309 -0.0012768998 -0.008906182 -0.15183347 0.038934432
0.15317984 -0.12674797 0.06604523 0.07625569 -0.23307556 0.0432895 0.04519005 0.033155303
-0.09258367 -0.012202196 0.15078218 0.02519168 -0.13204832 0.1524363 -0.06780546 0.08819717
0.048846185 -0.0031435047 -0.1093688 -0.02409318 -0.11473956 -0.11172025 0.048861485 -0.16146553
0.12983057 0.07118372 0.19823289 0.15274829 -0.007886302 -0.005690069 0.056775555 -0.13556859
0.05102575 0.18205707 -0.010203181 0.06751146 -0.28779387 0.10282578 -0.079948805 0.15645194
-0.028696615 -0.16048147 -0.038683955 -0.3522129 -0.0389811 0.1169208 0.11193145 0.08443849
0.17432518 0.2480451 0.1579302 -0.14015202 -0.10638713 -0.07630704 -0.014260527 -0.04854588
-0.18174599 -0.0041321716 0.057363436 0.1627489 -0.065985814 -0.22688279 0.13993941 0.18374895
-0.08458712 -0.12124114 0.065586336 -0.07343317 0.16770914 0.21252985 -0.007037931 -0.16983275
0.07014105 -0.14551665 -0.0076019093 -0.12761216 -0.20176755 0.012763803 0.073979855 -0.015613783
0.12651156 0.020554835 -0.04553343 -0.14202014 0.051153317 -0.06206039 -0.0071263737 -0.083920546
0.024622327 -0.14389104 0.2016221 0.17246063 0.08558995 0.22546045 0.0946549 -0.1855038
-0.13194413 0.13689423 0.02689579 -0.22316553 -0.017154088 -0.16744165 0.00086381397 0.16960414
0.0015675881 0.15144914 -0.071746685 0.07488631 0.14757694 -0.08066714 0.18882914 0.020566603
00000000: c0f6 05be eef3 93bd ded2 023e e852 3abd
00000010: 2bab 2b3c 3676 833e b573 fbbd 402c 193d
00000020: fa4f c03d 600d c73d b0b6 eb3d 9a83 0ebe
00000030: 0beb 1abd 4342 01be 7308 8b3d 9a13 bebc
00000040: fecc 82be 23c7 133c 152a 843d cda4 37bc
00000050: 0cab 333e f80d 3b3c 128f 53be 7d58 bcbc
00000060: 5903 bf3c 0f84 75bc fc51 7d3e 289a 27bd
00000070: 7543 b5bd 0da1 3c3d 900d e93d 870a c4bd
00000080: 49e7 933e cea5 f1bd 0bc7 9b3e 8802 453e
00000090: 84e1 aabe d6cb 1f3e 6f73 703e be70 14be
000000a0: fca8 eb3d 00ff 003e d0e9 2dbd 1667 913d
000000b0: 460b 31be b50c 13be c13a 073e ab95 bcbd
000000c0: 4625 ec3d 05b7 91bd 8ef1 2bbc 4861 40be
000000d0: a98d babb 90e5 e63c 93eb 46bd 6bd0 ea3d
000000e0: 02a2 a83d 2387 9abe 6202 e6bd fe73 a8be
000000f0: da57 09be f607 e9bd cb6b e33d 1093 6fbc
00000100: b07d 113e 118a 0b3c 3ff6 f8bd 37e4 2fbc
00000110: 7468 1cbe c5c6 583d 5d82 f5bd c895 3dbe
00000120: 7ce8 003e ff11 623d ac7c dcbd 84aa 3e3d
00000130: 73f0 69bc cf0d b03d 68b0 d3bb 77ab 13be
00000140: e876 41ba 22bf a5bd 4f72 113e c53b a73d
00000150: 8190 9b3d b018 973b f01c 123e 40bb 15bc
00000160: ca7d f5bc da3b 6f3d 4ca5 a83d 8a80 89bd
00000170: ed9d c53b cda0 0dbe 2642 4c3e 7708 633d
00000180: e637 c23b 21e3 88be 1f26 23be 1bf3 2b3e
00000190: e271 cd3b 50b4 593e 838f 9bbd eefb 09be
000001a0: 1d30 8abc d4ad 00bc 3a5d 0ebd b544 023d
000001b0: cd7d 8d3b 7dcc 5bbd 0085 3d3e c335 f2bd
000001c0: fbdf 473d 2ca2 d0bd 7261 07be b479 8bbd
000001d0: 58b0 8a3c 59bc 6e3b 180e a7bd c929 b23c
000001e0: 2779 8d3d 2c4a e23c 4214 ba3d 6e58 afbd
000001f0: 1456 b9bd 4797 8fbc 00b7 3a3d f5db c7bd
00000200: 383c 873d 554d e3bd 9081 6a3e 1e5e 4fbd
00000210: 2278 593e 0b3e 803d f055 78bd 925a 853c
00000220: b440 f63d e08c 3bbd 7bf4 e9bc 5272 38bd
00000230: a65d a7ba 3ceb 11bc 3c7a 1bbe b679 1f3d
00000240: 2ddb 1c3e 38ca 01be b942 873d f12b 9c3d
00000250: 5cab 6ebe 5550 313d 3419 393d dbcd 073d
00000260: 829c bdbd b8eb 47bc a566 1a3e c85e ce3c
00000270: ad37 07be 4318 1c3e 97dd 8abd b8a0 b43d
00000280: f012 483d 4203 4ebb c0fc dfbd 105f c5bc
00000290: 93fc eabd 96cd e4bd fb22 483d 3857 25be
000002a0: 4ef2 043e c5c8 913d 90fd 4a3e 0c6a 1c3e
000002b0: 8c35 01bc c273 babb 7c8d 683d 7ed2 0abe
000002c0: 6000 513d 2b6d 3a3e 3e2b 27bc 7343 8a3d
000002d0: b859 93be 5396 d23d 33bc a3bd f034 203e
000002e0: 2a15 ebbc 4155 24be 1173 1ebd 4055 b4be
000002f0: a5aa 1fbd 2c74 ef3d 513c e53d 16ee ac3d
00000300: 4d82 323e 89ff 7d3e 74b8 213e 0384 0fbe
00000310: 7fe1 d9bd de46 9cbd fca4 69bc 0bd8 46bd
00000320: 9f1b 3abe 2b67 87bb ecf5 6a3d a6a7 263e
00000330: 9223 87bd f653 68be 474c 0f3e af28 3c3e
00000340: 033c adbd 464d f8bd 2152 863d 2164 96bd
00000350: f2bb 2b3e 6da1 593e 729e e6bb a3e8 2dbe
00000360: 1ca6 8f3d 5102 15be 7019 f9bb c3ac 02be
00000370: 279c 4ebe 451f 513c c082 973d f4d0 7fbc
00000380: 3f8c 013e 9d62 a83c 4381 3abd ba6d 11be
00000390: 2486 513d 0933 7ebd 5b84 e9bb 89de abbd
000003a0: c3b4 c93c 2c58 13be 0676 4e3e 8599 303e
000003b0: c949 af3d 1bdf 663e 6eda c13d b5f4 3dbe
000003c0: 5d1c 07be 002e 0c3e 8f54 dc3c 8185 64be
000003d0: bb86 8cbc d375 2bbe 9371 623a b5ac 2d3e
000003e0: 8777 cd3a 7c15 1b3e edef 92bd fe5d 993d
000003f0: 691e 173e d034 a5bd 6d5c 413e 4b7b a83c

network_body._body_endoder.seq_layers.0.bias f4 [128]
-0.004101071 0.009875466 -0.010433372 0.0017236973 0.0012560826 -0.0011665102 -0.005351386 0.012820079
-0.0039939415 -2.557447e-05 0.0036330703 -0.006090704 -0.008595282 -0.0029091234 0.0070457635 -0.004599771
-0.0024933945 -0.0006646157 0.00596299 -0.0027297526 0.0005222809 0.0035056411 0.0017696774 0.0048993146
0.011259284 0.00044776057 -0.0015298107 0.00022723377 0.005397991 0.01021651 -0.00090833724 -0.00553763
0.0003945023 -0.00619501 0.009909813 0.009688784 -0.003265851 -0.008167997 0.0015918217 -0.00033640402
-0.0063553187 -0.004457184 0.0013197614 -0.0034459971 0.0067764586 0.00053410925 0.011346359 -0.008240021
-0.007254757 0.0010237319 0.004158699 -0.004703934 -0.00457556 -0.0042977156 0.00019633003 -0.0022508428
-0.009825483 -0.0011905063 -0.007874546 -0.0074242842 0.0014565883 0.013108012 0.0054681078 -0.000423638
0.00021897716 -0.004527998 -0.00488994 -0.003449857 -0.008647741 0.0064761783 0.00053019205 -0.0059750816
0.004771196 -0.005655101 -0.008546684 -0.008358913 0.0008338342 -0.0031395515 -0.002987697 0.002604466
-0.005426829 0.006400436 0.010222991 0.008615306 0.014068272 -0.009156051 0.003687068 -0.0068091773
-0.004770043 0.0047446527 -0.009913255 -0.0033392413 -0.0026382466 -0.004391215 -0.0018148283 -0.0025930295
-0.0059363437 -0.0068960623 0.0011503233 0.0008572363 -0.00787361 0.0069063334 -0.008227714 -0.004554237
0.0044962433 0.0010021725 0.0085570775 -0.0047092712 -0.00065038126 0.0034187718 -0.0068810605 -0.005960566
0.003873212 0.0007735017 0.0032682882 0.0058755074 -0.0018382417 -0.0037003427 -0.0044159694 0.0009184612
-0.005547325 0.0041927593 0.0035227747 -0.006630903 -0.0044403956 -0.0047465027 -0.001758361 -0.006818364
00000000: 4762 86bb b5cc 213c bcf0 2abc afed e13a
00000010: 23a3 a43a 96e5 98ba ae5a afbb 4f0b 523c
00000020: 9cdf 82bb c288 d6b7 ce18 6e3b 8794 c7bb
00000030: 3ad3 0cbc fea6 3ebb 26e0 e63b adb9 96bb
00000040: 3868 23bb 9b39 2eba 3065 c33b a6e5 32bb
00000050: aee9 083a e6be 653b 85f4 e73a 6e8a a03b
00000060: dc78 383c 68c1 ea39 ee83 c8ba 9a45 6e39
00000070: a1e1 b03b 2663 273c 7b1d 6eba 0275 b5bb
00000080: 34d5 ce39 83ff cabb c55c 223c b5bd 1e3c
00000090: e307 56bb 10d3 05bc aca4 d03a 625f b0b9
000000a0: 4740 d0bb 920d 92bb d8fb ac3a 3dd6 61bb
000000b0: 0e0d de3b 7703 0c3a 14e6 393c 2701 07bc
000000c0: 50b9 edbb be2e 863a b245 883b 7523 9abb
000000d0: 94ee 95bb dad3 8cbb f1dd 4d39 e082 13bb
000000e0: 10fb 20bc c30a 9cba 3d04 01bc 6947 f3bb
000000f0: feea be3a fdc2 563c d02d b33b bb1b deb9
00000100: 3c9d 6539 9a5f 94bb ca3b a0bb ff16 62bb
00000110: 41af 0dbc 1f36 d43b 96fc 0a3a 9eca c3bb
00000120: b157 9c3b 6d4e b9bb 6407 0cbc d2f3 08bc
00000130: aa95 5a3a efc0 4dbb 3dcd 43bb b0af 2a3b
00000140: 8bd3 b1bb c0ba d13b 557e 273c 3627 0d3c
00000150: 9c7e 663c 4303 16bc bca2 713b 851f dfbb
00000160: 054e 9cbb 0879 9b3b 356b 22bc 2cd7 5abb
00000170: 6fe6 2cbb 2ee4 8fbb 88df edba d1ef 29bb
00000180: a985 c2bb 5df8 e1bb 72c6 963a 27b8 603a
00000190: 5000 01bc 864e e23b 89cd 06bc b53b 95bb
000001a0: 3955 933b 545b 833a fc32 0c3c 3b50 9abb
000001b0: 597e 2aba 790d 603b 857a e1bb da50 c3bb
000001c0: b7d5 7d3b d2c4 4a3a c730 563b 5487 c03b
000001d0: 28f1 f0ba 7381 72bb d6b3 90bb e3c4 703a
000001e0: 56c6 b5bb 6a63 893b 5ade 663b 0c48 d9bb
000001f0: bd80 91bb 8d88 9bbb ce78 e6ba 956c dfbb

network_body._body_endoder.seq_layers.2.weight f4 [128, 128]
-0.0019274608 -0.02997783 -0.0764499 0.20703664 0.04924793 -0.020584468 -0.14718291 0.02307597
0.07153898 -0.0070428415 0.07497232 -0.0073092068 -0.14920172 0.05614833 0.2961304 -0.01904608
-0.13267751 -0.044163626 -0.015881803 -0.020984959 0.12853819 0.07563149 0.060761333 -0.004972175
-0.0955865 0.03244527 -0.25161877 0.06604842 -0.10002543 -0.04168001 -0.0014012114 0.003642871
-0.07890668 0.011694189 -0.12796244 0.053538475 -0.11695342 -0.0023038564 0.07843066 -0.026322903
0.020602016 0.074150145 -0.013114849 -0.029728694 0.021610713 0.14876878 0.020988837 0.1207708
0.042992193 -0.11454493 -0.032261536 -0.087460674 0.12646298 0.01866011 -0.09601715 -0.06126604
-0.051761534 -0.086697645 -0.11046395 0.056651708 0.14185199 -0.008549756 -0.07613892 0.03794485
-0.028302941 0.02821635 -0.07525422 0.015903292 -0.007283868 0.010537763 -0.06472395 -0.09158551
0.0772087 0.02811976 -0.084704265 -0.16219097 -0.09569454 -0.10501299 0.044074252 0.039506897
0.0036744215 0.08333163 0.013696545 0.13322176 -0.044743083 0.12967716 0.052165408 -0.09819402
-0.024344314 0.15756796 0.0559994 0.0042574317 0.07857967 0.004764702 0.12363296 0.08206397
-0.11848551 0.03842383 0.1177639 0.06006429 -0.18233752 0.04357831 -0.016373497 -0.048537575
0.07776036 -0.049481332 -0.004161126 -0.028744789 0.10428563 0.06484721 -0.05701716 -0.13130729
0.018136993 0.012114899 0.06930522 0.11743712 0.010598156 0.11106278 -0.3067842 -0.14215526
0.13082191 0.00868609 0.12523952 0.0064916825 0.0036613813 -0.007732091 0.0032384547 -0.037255943
-0.04409253 -0.041965295 -0.09425704 -0.059093878 -0.05169621 0.030824566 -0.05899219 0.12290455
-0.01480672 -0.045386374 0.037410676 0.17306262 0.019976245 -0.052776586 -0.027779821 0.07086178
-0.120576516 0.015652636 0.056763917 -0.13701607 0.008785127 -0.002080288 0.046364445 0.002573279
0.0014981201 0.04904623 -0.08387459 0.050020088 -0.025835011 0.05342651 -0.027749194 0.010338136
-0.023887537 0.0678407 -0.02919618 0.09278587 -0.05169162 -0.029996742 0.039892506 -0.105697855
-0.11827079 -0.021524688 0.17728409 0.101096526 -0.062258333 0.19764248 0.0044093 0.10902376
0.095020145 0.0954062 0.17623173 0.10143382 -0.057628542 -0.05419224 0.07082754 -0.039113447
0.08383638 -0.10084715 -0.10133573 0.01947183 -0.0803972 0.076757215 -0.002141152 0.03844078
0.10247127 0.002018214 -0.09957625 0.04182587 0.080426455 0.040694088 0.049443446 0.041172184
0.16809042 0.08167581 -0.16523507 -0.09363891 -0.036286145 -0.04635316 0.15668912 -0.022100037
0.15751103 0.053389214 -0.0030768565 0.059759405 0.09875471 0.095657885 -0.1792797 0.0857079
-0.06591066 -0.057859097 0.003116142 -0.023584248 0.0048186285 -0.10577625 0.02393941 0.083573096
0.08789437 -0.10325612 -0.19093814 0.07954981 -0.0054645366 -0.09053943 0.027197275 0.022858132
-0.12828064 -0.05185183 -0.18651201 -0.019223226 0.007523194 -0.091925025 -0.008907613 0.08581456
0.020920275 0.08706457 0.023763781 0.034031693 -0.05415655 0.14630009 -0.088588595 0.05419696
-0.11489927 -0.10191828 0.03751998 0.055287383 0.07122968 -0.085525036 0.05279452 0.038197447
00000000: daa2 fcba 1194 f5bc c491 9cbd 6a01 543e
00000010: 33b8 493d c2a0 a8bc 1eb7 16be d109 bd3c
00000020: 0783 923d a3c7 e6bb 168b 993d 1282 efbb
00000030: 56c8 18be cbfb 653d 679e 973e 8606 9cbc
00000040: 9ddc 07be ebe4 34bd 8e1a 82bc a6e8 abbc
00000050: 849f 033e afe4 9a3d e0e0 783d a1ed a2bb
00000060: dbc2 c3bd 55e5 043d 2dd4 80be 6544 873d
00000070: 22da ccbd a8b8 2abd daa8 b7ba 3cbd 6e3b
00000080: d399 a1bd fc98 3f3c 9608 03be 294b 5b3d
00000090: 4685 efbd 4cfc 16bb 41a0 a03d 21a3 d7bc
000000a0: 8fc5 a83c 08dc 973d aadf 56bc 9789 f3bc
000000b0: f308 b13c d856 183e c8f0 ab3c ae56 f73d
000000c0: 9518 303d 8896 eabd ac24 04bd 951e b3bd
000000d0: 837f 013e 16dd 983c a4a4 c4bd 19f2 7abd
000000e0: e703 54bd 898e b1bd ec3a e2bd 9f0b 683d
000000f0: a641 113e 4714 0cbc b9ee 9bbd 0f6c 1b3d
00000100: 92db e7bc fa25 e73c e21e 9abd 9f47 823c
00000110: 83ad eebb 95a6 2c3c fe8d 84bd 2f91 bbbd
00000120: 981f 9e3d 695b e63c 6e79 adbd 6415 26be
00000130: 80fb c3bd 0d11 d7bd 3487 343d fcd1 213d
00000140: 90ce 703b c6a9 aa3d 7967 603c 496b 083e
00000150: 8644 37bd 17ca 043e 65ab 553d f219 c9bd
00000160: ba6d c7bc 7f59 213e a05f 653d ed81 8b3b
00000170: 61ee a03d 3821 9c3b 4733 fd3d 2811 a83d
00000180: 88a8 f2bd 4e62 1d3d 332e f13d f905 763d
00000190: b0b6 3abe 2c7f 323d b621 86bc 56cf 46bd
000001a0: d340 9f3d f0ac 4abd 0e5a 88bb 317a ebbc
000001b0: b493 d53d 9dce 843d d38a 69bd 6b75 06be
000001c0: 0894 943c 927d 463c e5ef 8d3d df82 f03d
000001d0: e3a3 2d3c e274 e33d d212 9dbe 2691 11be
000001e0: 2ef6 053e 1a50 0e3c ca3e 003e 2eb8 d43b
000001f0: c9f3 6f3b 7b5d fdbb 413c 543b b099 18bd
00000200: 5e9a 34bd cde3 2bbd d609 c1bd 6c0c 72bd
00000210: 68bf 53bd cd83 fc3c cba1 71bd 61b5 fb3d
00000220: e397 72bc 10e7 39bd f03b 193d 5437 313e
00000230: 39a5 a33c 432c 58bd 8292 e3bc fb1f 913d
00000240: d2f0 f6bd f539 803c 4881 683d f14d 0cbe
00000250: 7eef 0f3c 7155 08bb a5e8 3d3d 75a4 283b
00000260: 925c c43a b3e4 483d 71c6 abbd dde1 4c3d
00000270: f2a3 d3bc c2d5 5a3d 4752 e3bc 4961 293c
00000280: ccaf c3bc 11f0 8a3d d42c efbc 8506 be3d
00000290: 98ba 53bd babb f5bc 5366 233d 1e78 d8bd
000002a0: f537 f2bd 8b54 b0bc f689 353e b20b cf3d
000002b0: 9802 7fbd ca62 4a3e e47b 903b d947 df3d
000002c0: ec99 c23d 5364 c33d 1776 343e 89bc cf3d
000002d0: e80b 6cbd aff8 5dbd 070e 913d 6c35 20bd
000002e0: 68b2 ab3d f388 cebd 1b89 cfbd 6383 9f3c
000002f0: 4aa7 a4bd e332 9d3d 9252 0cbb 1474 1d3d
00000300: 75dc d13d 0344 043b a2ee cbbd 9a51 2b3d
00000310: a0b6 a43d d8ae 263d 3685 4a3d 2aa4 283d
00000320: e51f 2c3e a645 a73d 6233 29be c2c5 bfbd
00000330: c8a0 14bd d0dc 3dbd 1d73 203e 230b b5bc
00000340: 924a 213e a6ae 5a3d 16a5 49bb 47c6 743d
00000350: e93f ca3d 48e8 c33d 1995 37be a087 af3d
00000360: 2bfc 86bd a9fd 6cbd 3038 4c3b c133 c1bc
00000370: 96e5 9d3b 38a1 d8bd 951c c43c 5f28 ab3d
00000380: f701 b43d f277 d3bd 4a85 43be 03eb a23d
00000390: db0f b3bb bd6c b9bd d2cc de3c fa40 bb3c
000003a0: 005c 03be 9662 54bd 01fd 3ebe 077a 9dbc
000003b0: 2085 f63b 3043 bcbd 3df1 11bc 8bbf af3d
000003c0: ff60 ab3c e94e b23d 43ac c23c d164 0b3d
000003d0: 42d3 5dbd b1cf 153e f06d b5bd a2fd 5d3d
000003e0: 4f50 ebbd 88ba d0bd 8dae 193d 0675 623d
000003f0: dee0 913d c027 afbd 113f 583d ed74 1c3d

network_body._body_endoder.seq_layers.2.bias f4 [128]
0.0072035175 -0.0066332645 -0.0026589981 -0.0051995544 -0.0025145495 -0.0048238435 -0.0040649357 -0.0044146418
-0.0034349028 0.0016174089 0.0015702102 -0.0055285986 -0.004201212 -0.0023846955 0.008428412 0.004929082
0.005334641 -4.7741865e-05 0.0023764605 -0.005562357 -0.0006223982 -0.0023736716 0.0056524253 -0.007912252
0.00097020663 0.001701925 0.0033564074 -0.0031760654 -0.005425879 0.00035651677 -0.002938278 -0.002109653
-0.0047657075 0.0012854435 0.0036744745 0.0026670701 0.0045228256 0.008487122 0.00481814 -0.0072910464
-0.00012739026 -0.0041779773 -0.010219411 0.0022735447 -0.002547723 -0.0069281003 0.0031353633 0.006742354
0.0020996016 -0.007852141 -0.005460704 -0.0069828825 0.004637884 0.0042410423 0.00179637 -0.007257764
0.005008735 0.0011848413 -0.0064026527 -0.007895816 0.0035129813 -0.0066995113 -0.0036293492 -0.00088842126
-0.0048567117 -0.002560834 -0.0075957994 -0.0005425511 -0.008123492 -0.0030488225 0.0037322112 -0.0032591226
0.0025797463 -0.0046490594 -0.00035222532 -0.0019146225 -0.0018662873 -0.0059931683 -0.001444096 0.007524132
0.0011102854 -0.00070882315 -0.005579543 0.00078174943 -0.005972182 -0.0027190403 -0.004285292 -0.0029371409
-0.005305409 0.0019094966 -0.00070927583 0.0029087581 0.008034068 0.006897218 -0.0039858785 -0.0041454504
-0.0041650604 -0.0036301622 -0.005271411 0.0002528276 -0.0037425838 0.0040026163 0.0016285324 0.004325209
-0.0051204963 -0.0025760527 0.00035650772 -0.0061227563 -0.0010955123 -0.0056545953 -0.005538544 0.0020458621
0.0035153944 -0.0064921733 -0.0043479507 0.0010732355 -0.0061872643 -0.0077870367 -0.00257115 -0.0041038897
-0.0034671102 -0.00096403435 0.008805109 -0.008718287 -0.0049800365 -0.00043062723 0.0057164594 -0.0068243775
00000000: 7c0b ec3b db5b d9bb 9642 2ebb 0661 aabb
00000010: 24cb 24bb 5511 9ebb 2733 85bb b3a8 90bb
00000020: 1b1c 61bb 3dff d33a 83cf cd3a 3f29 b5bb
00000030: 52aa 89bb 8d48 1cbb 5217 0a3c 2384 a13b
00000040: 36ce ae3b 703e 48b8 64be 1b3b 6f44 b6bb
00000050: 7028 23ba 9a8f 1bbb fb37 b93b 64a2 01bc
00000060: 7755 7e3a 2013 df3a 2cf7 5b3b 8925 50bb
00000070: 92cb b1bb dfea ba39 2090 40bb 1b42 0abb
00000080: a729 9cbb 547c a83a 74cf 703b 03ca 2e3b
00000090: 3634 943b 920d 0b3c 7de1 9d3b bbe9 eebb
000000a0: 1094 05b9 6ae7 88bb 516f 27bc c0ff 143b
000000b0: b3f7 26bb 1e05 e3bb ab7a 4d3b f7ee dc3b
000000c0: 7899 093b 44a6 00bc b5ef b2bb aad0 e4bb
000000d0: 64f9 973b 71f8 8a3b 2d74 eb3a 8ad2 edbb
000000e0: 5120 a43b ad4c 9b3a 58cd d1bb 745d 01bc
000000f0: 0c3a 663b 9387 dbbb 60da 6dbb f1e4 68ba
00000100: 0d25 9fbb aad3 27bb 2fe6 f8bb fd39 0eba
00000110: 6518 05bc c1ce 47bb 1d98 743b 0197 55bb
00000120: f610 293b 2357 98bb e2aa b8b9 12f4 faba
00000130: 369e f4ba 5762 c4bb d247 bdba fe8c f63b
00000140: ff86 913a 51d0 39ba 99d4 b6bb 51ee 4c3a
00000150: 4bb2 c3bb ed31 32bb a26b 8cbb 0c7d 40bb
00000160: ffd8 adbb 1348 fa3a b2ee 39ba dda0 3e3b
00000170: 53a1 033c 0f02 e23b f99b 82bb 8fd6 87bb
00000180: 0f7b 88bb 04e8 6dbb cdbb acbb f28d 8439
00000190: 2346 75bb 6128 833b 7b74 d53a 7cba 8d3b
000001a0: d6c9 a7bb fed2 28bb a8e9 ba39 67a1 c8bb
000001b0: 4b97 8fba 2f4a b9bb ad7c b5bb df13 063b
000001c0: 8862 663b 4cbc d4bb 4179 8ebb cfab 8c3a
000001d0: 89be cabb 662a ffbb bd80 28bb ec79 86bb
000001e0: 7538 63bb 40b7 7cba 4e43 103c 25d7 0ebc
000001f0: 932f a3bb cfc5 e1b9 2351 bb3b 079f dfbb

action_model._continuous_distribution.log_sigma f4 [1, 2]
0.031949032 0.029180042
00000000: fddc 023d fc0a ef3c

action_model._continuous_distribution.mu.weight f4 [2, 128]
-0.03476914 0.028591752 -0.0038914592 0.03317457 0.010566476 -0.0073344614 -0.042931385 0.01985381
-0.0022072445 -0.022498159 -0.010960867 0.016837241 0.026102407 -0.007503257 -0.02972652 -0.013657662
-0.004622138 0.011344442 -0.0042962027 0.031856246 0.01987604 -0.008049886 -0.017583748 0.0043532383
-0.00019583691 -0.0051944144 -0.003903534 0.004123982 0.018848298 0.01144064 0.02413597 0.024572806
0.004389181 -0.021493372 -0.021766074 -0.0048238593 -0.035755638 -0.028436642 -0.025826331 0.033798296
-0.0029931504 -0.003935165 0.013180592 0.00089185755 0.008390986 0.014962048 -0.0006267365 -0.024391375
-0.012275829 0.029645113 0.024685366 0.021417161 -0.01739234 -0.015381714 0.0063720634 0.021043012
-0.026070345 -0.0016939476 0.012954474 0.053612694 -0.04010616 0.030820442 0.036548063 -0.010081289
0.0052377647 0.0061089825 0.017812176 -0.014571023 0.025982298 0.0077035693 -0.001270349 -0.003079139
0.01673962 -0.001068724 -0.0063468656 0.00050249795 -0.009175602 0.012529526 0.011108057 -0.023300385
0.0012152944 -0.0040686373 0.022537434 -0.011309376 0.012841674 0.027869541 0.023894433 0.0031769113
0.006636573 -0.0014284498 0.026661476 0.0025799721 -0.0067837066 -0.02399107 -0.027444368 0.0066880556
-0.0015216816 0.019884644 0.007968083 0.0011173534 0.025609434 -0.015490135 -0.019535627 -0.004175418
0.04667188 -0.0006744963 0.00639469 0.0050896113 -0.010858482 0.015515298 0.008143899 -0.007252562
-0.00012846579 0.03001846 -0.0026559073 -0.00017095546 0.015273822 0.017349029 0.0024631785 -0.004632917
0.021579104 0.0043897615 -0.03289011 0.0020161702 0.028323678 -0.021329934 -0.009756623 0.02656214
-0.01765602 -0.002492892 0.015681738 0.00044919175 0.027858336 0.0026656084 0.054316405 -0.016022643
0.01679996 0.01187812 0.006427472 -0.008641654 -0.02135463 0.009709252 -0.010896571 -0.018701077
-0.06972359 0.011851477 0.009835906 -0.006354824 0.035456743 0.039156448 0.0016420274 0.0038472172
-0.027827943 0.016002975 0.0016352388 -0.010426005 0.017386343 -0.027347097 0.009867514 -0.017942293
0.019208163 0.020313429 0.0028117662 -0.014200507 0.00796809 -0.028127667 -0.031796757 0.020205075
-0.010504598 0.007878802 -0.007150185 0.007922765 -0.03049193 -0.005577392 -0.019297358 -0.012660122
0.0133346785 0.014325489 -0.035751525 -0.0061000953 -0.04034629 -0.025520291 -0.02527116 0.005525451
0.023768933 0.008704828 0.0037516505 0.021038838 -0.04577769 -0.010079954 0.019240193 0.0020735424
0.029390171 0.027817348 0.0056910696 0.003377167 -0.011117567 -0.010921623 -0.03413909 -0.008219919
-0.021538775 0.028959658 0.0048096436 0.0015322899 0.0045653423 0.004345971 -0.02281807 0.01616882
-0.018777514 -0.011144402 0.023287365 -0.016070096 0.0011773292 5.408599e-05 0.010041462 0.01802811
-0.011882452 -0.041115187 -0.037686903 -0.04585935 -0.0052315793 0.018649308 0.028375588 -0.001737797
0.018401546 0.012170542 0.0014528652 0.020540958 -0.015713243 -0.002187649 0.014229173 -0.033895057
0.00031197665 0.009183693 -0.023660822 0.0030037502 0.03866502 0.00095999445 0.0069493544 -0.023735458
-0.032561615 -0.014954991 0.009491413 0.027338507 -0.01375756 -0.012879088 0.0044790003 0.012692094
0.022204438 0.021483017 -0.0075642257 -0.0007566124 0.0035608504 0.022902822 -0.00025074423 -0.004822576
00000000: 166a 0ebd 4039 ea3c da07 7fbb 0fe2 073d
00000010: 031f 2d3c ec55 f0bb d2d8 2fbd 75a4 a23c
00000020: 6ba7 10bb 0f4e b8bc 3595 33bc 41ee 893c
00000030: b7d4 d53c e2dd f5bb 0885 f3bc 63c4 5fbc
00000040: 4e75 97bb 0ade 393c 29c7 8cbb b27b 023d
00000050: 14d3 a23c abe3 03bc cb0b 90bc 9ca5 8e3b
00000060: 9259 4db9 e835 aabb 6fd2 7fbb 7822 873b
00000070: bf67 9a3c 8671 3b3c ccb8 c53c e94c c93c
00000080: 1ed3 8f3b de12 b0bc c44e b2bc 7711 9ebb
00000090: 8174 12bd f6f3 e8bc be91 d3bc 1570 0a3d
000000a0: bb28 44bb 8ef2 80bb 69f3 573c 8ccb 693a
000000b0: 597a 093c 6123 753c 934b 24ba 6cd0 c7bc
000000c0: 8f20 49bc 4fda f23c f738 ca3c 0b73 af3c
000000d0: 617a 8ebc 9603 7cbc becc d03b 6562 ac3c
000000e0: 7a91 d5bc 7307 deba 013f 543c fc98 5b3d
000000f0: 5b46 24bd 277b fc3c 6cb3 153d fe2b 25bc
00000100: 8ea1 ab3b dc2d c83b d7ea 913c 4dbb 6ebc
00000110: d4d8 d43c 396e fc3b d781 a6ba 61cb 49bb
00000120: 8721 893c 6d14 8cba 5ef9 cfbb 11ba 033a
00000130: 4455 16bc a448 4d3c 91fe 353c 73e0 bebc
00000140: 834a 9f3a 3452 85bb 6da0 b83c f64a 39bc
00000150: e265 523c aa4e e43c 42be c33c ba33 503b
00000160: 9c77 d93b d23a bbba 2b69 da3c c014 293b
00000170: db49 debb ec88 c4bc 03d3 e0bc 7a27 db3b
00000180: 2973 c7ba 1fe5 a23c 908c 023c 2974 923a
00000190: e0ca d13c 56ca 7dbc 2e09 a0bc f2d1 88bb
000001a0: 032b 3f3d aed0 30ba 8c8a d13b c1c6 a63b
000001b0: c6e7 31bc e033 7e3c fd6d 053c e6a6 edbb
000001c0: c6b4 06b9 46e9 f53c bb0e 2ebb 8242 33b9
000001d0: 0d3f 7a3c 8d1f 8e3c 476d 213b bacf 97bb
000001e0: a9c6 b03c fdd7 8f3b c8b7 06bd b921 043b
000001f0: 0f07 e83c 1dbc aebc 3eda 1fbc d898 d93c
00000200: 5ca3 90bc ca5f 23bb fd76 803c 7f81 eb39
00000210: 2a37 e43c 7db1 2e3b e17a 5e3d eb41 83bc
00000220: 12a0 893c 729c 423c 8b9d d23b b995 0dbc
00000230: e8ef aebc 8e13 1f3c 8887 32bc 0033 99bc
00000240: 3ecb 8ebd b32c 423c c826 213c 213c d0bb
00000250: 173b 113d 8362 203d 4c39 d73a 9821 7c3b
00000260: 6df7 e3bc ac18 833c 8255 d63a d6d1 2abc
00000270: ce6d 8e3c 0507 e0bc 5aab 213c b7fb 92bc
00000280: 705a 9d3c 5968 a63c 9c45 383b 3ea9 68bc
00000290: 978c 023c fe6b e6bc 513d 02bd 1d85 a53c
000002a0: 7a1b 2cbc 1716 013c 194c eabb 7cce 013c
000002b0: 36ca f9bc 8ec2 b6bb 7e15 9ebc 666c 4fbc
000002c0: b279 5a3c 75b5 6a3c 3170 12bd 4fe3 c7bb
000002d0: 2742 25bd ee0f d1bc 7705 cfbc d80e b53b
000002e0: 11b7 c23c b29e 0e3c 40de 753b a459 ac3c
000002f0: 6381 3bbd 6426 25bc 9c9d 9d3c 45e4 073b
00000300: a8c3 f03c 35e1 e33c 277c ba3b 7653 5d3b
00000310: 7526 36bc 9bf0 32bc 6ed5 0bbd d7ac 06bc
00000320: 1672 b0bc ce3c ed3c 379a 9d3b 1ed7 c83a
00000330: de98 953b a668 8e3b f6ec babc 7974 843c
00000340: 4dd3 99bc 0397 36bc 25c5 be3c 6fa5 83bc
00000350: 9d50 9a3a 64da 6238 f284 243c b0af 933c
00000360: 9eae 42bc 6668 28bd 955d 1abd 04d7 3bbd
00000370: ab6d abbb 6fc6 983c ec73 e83c cbc6 e3ba
00000380: d7be 963c f466 473c 116e be3a 8345 a83c
00000390: 0fb9 80bc a95e 0fbb 7a21 693c 8bd5 0abd
000003a0: cc90 a339 3377 163c 57d4 c1bc 91da 443b
000003b0: 365f 1e3d 23a8 7b3a 69b7 e33b dd70 c2bc
000003c0: 545f 05bd c705 75bc df81 1b3c 01f5 df3c
000003d0: 6467 61bc cf02 53bc 94c4 923b 80f2 4f3c
000003e0: 15e6 b53c 27fd af3c 53dd f7bb 6657 46ba
000003f0: 285d 693b b39e bb3c 5276 83b9 b306 9ebb

action_model._continuous_distribution.mu.bias f4 [2]
-0.0049388628 -0.002185358
00000000: 2fd6 a1bb 3938 0fbb

action_model._discrete_distribution.branches.0.weight f4 [1, 128]
0.0032464552 0.00080023817 -0.0026920845 -0.011953202 -0.0030718746 0.005391704 -0.020404017 -0.0068254336
0.0035266876 -0.0008037582 -0.002214442 -0.0030994562 0.0027273642 0.008504507 0.0037469782 -0.0076305675
-0.011156431 -0.005465831 0.015019203 0.010333313 -0.0067750174 -0.0030450015 0.0042841653 -0.0019072682
-0.002354804 0.010163206 0.0058688875 0.0040334365 -0.00022450786 0.012358329 -0.0057105105 0.004441348
-0.0038959172 0.010528869 0.0068354667 -0.01027264 0.0011148629 0.000425778 -0.0011081937 -0.0005059677
-0.009337645 -0.006370244 0.0047327033 0.013617331 -0.009449339 0.0068808305 -0.0020763369 -0.0021945694
0.00038547878 -0.013217831 0.011651835 0.0015841592 0.0062343096 0.015480742 0.0025017653 -0.00022865595
-0.0046359696 -0.008525206 -0.011722079 0.005955308 0.0030848437 -0.008433438 -0.010188372 0.016836653
0.0022527762 -0.006439876 -0.002085476 0.008570023 -0.0018082932 0.0046088644 -0.019292176 -0.014219749
-0.0015925234 0.0055510337 -0.0049567274 0.0017312078 0.0068866843 -0.0071007996 0.0044527007 0.011086631
0.024559876 -0.009967211 0.002248191 -0.0027286715 -0.0025610924 -0.00040352475 -0.006580803 -0.00027469464
0.0100618 0.011845398 0.006425652 0.015941842 -0.007962366 0.00097276765 -0.005470365 -0.005500381
0.0046955184 0.016055996 0.0011068992 -0.0018367734 0.0022748818 -0.012280966 0.0069094235 -0.0058746855
0.013315064 -0.010047362 0.0055579147 -0.0071144933 0.00049473054 -0.0076024593 0.013887497 -0.0018149577
-0.009470391 -0.015640035 -0.0041305013 0.004030784 -0.009453004 -0.0045202416 0.0019963009 -0.0010806391
-0.005766736 0.0113669215 -0.0051747933 -0.014179585 0.00056378014 0.009462191 0.0012220101 0.011232496
00000000: 7bc2 543b 13c7 513a af6d 30bb 5dd7 43bc
00000010: 8151 49bb e4ac b03b 5326 a7bc e3a7 dfbb
00000020: 0020 673b 4db3 52ba 2c20 11bb 3f20 4bbb
00000030: 94bd 323b 7d56 0b3c dd8f 753b d709 fabb
00000040: 77c9 36bc b71a b3bb 1a13 763c 0e4d 293c
00000050: f700 debb a68e 47bb 2f62 8c3b 4dfd f9ba
00000060: 0e53 1abb 9383 263c cc4f c03b eb2a 843b
00000070: df69 6bb9 977a 4a3c 3c1f bbbb ba88 913b
00000080: a552 7fbb 4781 2c3c 0dfc df3b 934e 28bc
00000090: 9720 923a f53a df39 cf40 91ba eba2 04ba
000000a0: ecfc 18bc 7bbd d0bb cb14 9b3b 3a1b 5f3c
000000b0: 66d1 1abc 9778 e13b 2713 08bb c4d2 0fbb
000000c0: 161a ca39 9a8f 58bc 57e7 3e3c 90a3 cf3a
000000d0: 2e49 cc3b f0a2 7d3c a8f4 233b 5dc3 6fb9
000000e0: 55e9 97bb 4ead 0bbc f60d 40bc bf24 c33b
000000f0: 172b 4a3b 672c 0abc 21ed 26bc 05ed 893c
00000100: 50a3 133b 9805 d3bb 7bac 08bb 4869 0c3c
00000110: 4004 edba f505 973b a00a 9ebc f3f9 68bc
00000120: 38bc d0ba 72e5 b53b 0b6c a2bb b2e9 e23a
00000130: b2a9 e13b d3ad e8bb f6e7 913b b3a4 353c
00000140: cb31 c93c 834d 23bc 6356 133b 83d3 32bb
00000150: 00d8 27bb 2d90 d3b9 c7a3 d7bb e404 90b9
00000160: 3fda 243c 3313 423c 478e d23b 7798 823c
00000170: 9574 02bc 5501 7f3a bf40 b3bb 8a3c b4bb
00000180: dddc 993b dd87 833c 6015 913a e3bf f0ba
00000190: 2f16 153b 1b36 49bc 7268 e23b 6f80 c0bb
000001a0: 6d27 5a3c b19d 24bc 2b1f b63b b220 e9bb
000001b0: ceb0 013a 0d1e f9bb 6288 633c e0e3 edba
000001c0: b329 1bbc 881f 80bc 2859 87bb ab14 843b
000001d0: c6e0 1abc 891e 94bb 5fd4 023b 3ba4 8dba
000001e0: e3f6 bcbb 533c 3a3c 5091 a9bb 7d51 68bc
000001f0: a5ca 133a 4e07 1b3c db2b a03a 8108 383c

exp_avg f4 [128, 66]
-9.0105493e-07 -9.0105493e-07 -9.0105493e-07 3.5917142e-06 2.4971425e-07 -2.5491731e-08 3.4736083e-06 -2.717001e-07
-7.328733e-07 6.736039e-07 -2.8906393e-06 -1.4203283e-06 1.7739704e-06 4.1246145e-07 4.938057e-07 3.0263352e-06
-8.957687e-07 4.3194154e-07 0.0 -2.2526407e-08 0.0 -4.5052747e-07 -2.2526407e-08 4.5052747e-07
-4.5052747e-07 -2.2526407e-08 -4.5052747e-07 4.5052747e-07 -2.2526407e-08 -4.5052747e-07 0.0 -2.2526407e-08
0.0 -1.0991524e-06 -1.0991524e-06 -1.0991524e-06 3.1858733e-06 2.612856e-07 3.9568934e-07 3.0717058e-06
7.437787e-08 -2.6202613e-07 1.4257296e-07 -2.7268043e-06 -1.2957645e-06 1.5109865e-06 6.415214e-07 8.2773647e-07
2.6346484e-06 -8.506687e-07 8.3444314e-07 0.0 -2.7478874e-08 0.0 -5.495762e-07 -2.7478874e-08
5.495762e-07 -5.495762e-07 -2.7478874e-08 -5.495762e-07 5.495762e-07 -2.7478874e-08 -5.495762e-07 0.0
-2.7478874e-08 0.0 4.808376e-06 4.808376e-06 4.808376e-06 8.884035e-06 -3.5115263e-06 -2.965169e-06
1.7159867e-06 1.5330235e-06 -5.5576265e-06 4.551346e-06 -1.4781266e-06 5.1252637e-06 4.720421e-06 -4.4554443e-05
-3.4149846e-06 9.45772e-06 -4.8215256e-06 -4.2565352e-06 0.0 1.2020946e-07 0.0 2.404188e-06
1.2020946e-07 -2.404188e-06 2.404188e-06 1.2020946e-07 2.404188e-06 -2.404188e-06 1.2020946e-07 2.404188e-06
0.0 1.2020946e-07 0.0 4.3745804e-06 4.3745804e-06 4.3745804e-06 9.0357125e-06 -2.9779742e-06
-2.5441923e-06 2.307091e-06 2.1426926e-05 -4.779764e-06 4.532149e-06 -1.6089904e-06 5.454872e-06 5.0629287e-06
-4.4229117e-05 -2.6535768e-06 9.459067e-06 -4.1973967e-06 -3.930166e-06 0.0 1.0936457e-07 0.0
2.1872902e-06 1.0936457e-07 -2.1872902e-06 2.1872902e-06 1.0936457e-07 2.1872902e-06 -2.1872902e-06 1.0936457e-07
2.1872902e-06 0.0 1.0936457e-07 0.0 -8.712513e-06 -8.712513e-06 -8.712513e-06 -4.112555e-06
2.6272976e-06 1.5760563e-06 -5.5305e-06 -0.002567185 -2.18382e-06 -4.7518156e-06 2.2809206e-06 2.3237556e-06
-7.3704778e-06 -9.1187256e-05 3.6903748e-06 -3.2848131e-06 2.4341596e-06 4.879828e-06 0.0 -2.1781267e-07
0.0 -4.3562563e-06 -2.1781267e-07 4.3562563e-06 -4.3562563e-06 -2.1781267e-07 -4.3562563e-06 4.3562563e-06
-2.1781267e-07 -4.3562563e-06 0.0 -2.1781267e-07 0.0 -9.399623e-06 -9.399623e-06 -9.399623e-06
-4.6694336e-06 2.4415674e-06 1.857903e-06 -6.452907e-06 -0.0025952093 -2.0595776e-06 -5.647706e-06 2.4584754e-06
2.4105789e-06 -8.144239e-06 -9.119278e-05 3.896329e-06 -3.6996119e-06 2.1548428e-06 5.370316e-06 0.0
-2.3499047e-07 0.0 -4.6998116e-06 -2.3499047e-07 4.6998116e-06 -4.6998116e-06 -2.3499047e-07 -4.6998116e-06
4.6998116e-06 -2.3499047e-07 -4.6998116e-06 0.0 -2.3499047e-07 0.0 -7.4486215e-06 -7.4486215e-06
-7.4486215e-06 -5.437167e-06 5.888416e-07 2.4711107e-06 -5.969301e-06 -0.00088317815 1.2558886e-06 -4.466678e-06
1.7820626e-06 5.2400806e-06 -6.498584e-06 6.8580453e-06 5.2547e-06 -5.428124e-06 1.6739807e-06 4.6764517e-06
0.0 -1.8621549e-07 0.0 -3.7243108e-06 -1.8621549e-07 3.7243108e-06 -3.7243108e-06 -1.8621549e-07
-3.7243108e-06 3.7243108e-06 -1.8621549e-07 -3.7243108e-06 0.0 -1.8621549e-07 0.0 -6.8912423e-06
-6.8912423e-06 -6.8912423e-06 -5.3258486e-06 3.3572422e-07 2.08515e-06 -5.856303e-06 -0.0008836602 6.272652e-07
-4.0151504e-06 1.6943185e-06 4.7915587e-06 -6.365333e-06 6.642356e-06 4.69309e-06 -5.304885e-06 1.3944169e-06
4.2575875e-06 0.0 -1.7228098e-07 0.0 -3.4456211e-06 -1.7228098e-07 3.4456211e-06 -3.4456211e-06
00000000: 06e0 71b5 06e0 71b5 06e0 71b5 2e09 7136
00000010: 7710 8634 e9f8 dab2 231c 6936 2dde 91b4
00000020: abba 44b5 b5d1 3435 cefc 41b6 1ca2 beb5
00000030: 2919 ee35 4570 dd34 128e 0435 0b18 4b36
00000040: c274 70b5 98e5 e734 0000 0000 1880 c1b2
00000050: 0000 0000 06e0 f1b4 1880 c1b2 06e0 f134
00000060: 06e0 f1b4 1880 c1b2 06e0 f1b4 06e0 f134
00000070: 1880 c1b2 06e0 f1b4 0000 0000 1880 c1b2
00000080: 0000 0000 9786 93b5 9786 93b5 9786 93b5
00000090: e3cc 5536 d246 8c34 216f d434 8123 4e36
000000a0: abb9 9f33 99ac 8cb4 2816 1934 24fe 36b6
000000b0: 21ea adb5 1acd ca35 0435 2c35 9e31 5e35
000000c0: eace 3036 8259 64b5 7ffe 5f35 0000 0000
000000d0: af0a ecb2 0000 0000 9786 13b5 af0a ecb2
000000e0: 9786 1335 9786 13b5 af0a ecb2 9786 13b5
000000f0: 9786 1335 af0a ecb2 9786 13b5 0000 0000
00000100: af0a ecb2 0000 0000 a357 a136 a357 a136
00000110: a357 a136 a40c 1537 90a7 6bb6 37fd 46b6
00000120: db50 e635 49c2 cd35 a67b bab6 c4b7 9836
00000130: 0b64 c6b5 aef9 ab36 1c64 9e36 f8df 3ab8
00000140: fd2c 65b6 99ac 1e37 97c8 a1b6 5cd3 8eb6
00000150: 0000 0000 ed12 0134 0000 0000 a357 2136
00000160: ed12 0134 a357 21b6 a357 2136 ed12 0134
00000170: a357 2136 a357 21b6 ed12 0134 a357 2136
00000180: 0000 0000 ed12 0134 0000 0000 5cc9 9236
00000190: 5cc9 9236 5cc9 9236 1798 1737 35d9 47b6
000001a0: e4bc 2ab6 86d3 1a36 f9bd b337 dc61 a0b6
000001b0: dd12 9836 7df4 d7b5 fe08 b736 3ae2 a936
000001c0: a782 39b8 1a14 32b6 62b2 1e37 5dd7 8cb6
000001d0: dedf 83b6 0000 0000 cfdb ea33 0000 0000
000001e0: 5cc9 1236 cfdb ea33 5cc9 12b6 5cc9 1236
000001f0: cfdb ea33 5cc9 1236 5cc9 12b6 cfdb ea33
00000200: 5cc9 1236 0000 0000 cfdb ea33 0000 0000
00000210: f52b 12b7 f52b 12b7 f52b 12b7 94fe 89b6
00000220: a150 3036 e288 d335 a292 b9b6 383e 28bb
00000230: be8d 12b6 c971 9fb6 eb11 1936 d1f1 1b36
00000240: ec4f f7b6 c93b bfb8 28a8 7736 a970 5cb6
00000250: 8b5a 2336 67bd a336 0000 0000 e4df 69b4
00000260: 0000 0000 f52b 92b6 e4df 69b4 f52b 9236
00000270: f52b 92b6 e4df 69b4 f52b 92b6 f52b 9236
00000280: e4df 69b4 f52b 92b6 0000 0000 e4df 69b4
00000290: 0000 0000 13b3 1db7 13b3 1db7 13b3 1db7
000002a0: 21ae 9cb6 cfd9 2336 105d f935 0d86 d8b6
000002b0: 6314 2abb 4637 0ab6 6d81 bdb6 49fc 2436
000002c0: 6ec5 2136 3da3 08b7 c03e bfb8 36bd 8236
000002d0: d946 78b6 eb9b 1036 aa32 b436 0000 0000
000002e0: b051 7cb4 0000 0000 13b3 9db6 b051 7cb4
000002f0: 13b3 9d36 13b3 9db6 b051 7cb4 13b3 9db6
00000300: 13b3 9d36 b051 7cb4 13b3 9db6 0000 0000
00000310: b051 7cb4 0000 0000 2cef f9b6 2cef f9b6
00000320: 2cef f9b6 e970 b6b6 e310 1e35 5cd5 2536
00000330: e84b c8b6 1585 67ba 0190 a835 79e0 95b6
00000340: 342f ef35 f3d3 af36 690e dab6 291e e636
00000350: 8851 b036 3b23 b6b6 8aad e035 6aea 9c36
00000360: 0000 0000 86f2 47b4 0000 0000 2cef 79b6
00000370: 86f2 47b4 2cef 7936 2cef 79b6 86f2 47b4
00000380: 2cef 79b6 2cef 7936 86f2 47b4 2cef 79b6
00000390: 0000 0000 86f2 47b4 0000 0000 523b e7b6
000003a0: 523b e7b6 523b e7b6 b1b4 b2b6 963d b434
000003b0: 9bee 0b36 4281 c4b6 6fa5 67ba 5661 2835
000003c0: e1b9 86b6 5768 e335 2dc7 a036 cb95 d5b6
000003d0: 67e1 de36 5679 9d36 9d00 b2b6 cd27 bb35
000003e0: 66dc 8e36 0000 0000 3cfc 38b4 0000 0000
000003f0: 523b 67b6 3cfc 38b4 523b 6736 523b 67b6

exp_avg_sq f4 [128, 66]
8.214567e-11 8.214567e-11 8.214567e-11 4.3292696e-11 2.7336996e-11 5.3517045e-11 5.9756984e-11 3.7183114e-11
5.1783165e-11 1.6839375e-11 1.549572e-11 3.8680715e-11 5.883897e-11 2.3298521e-11 2.436327e-11 3.567035e-11
2.1530699e-11 2.6637751e-11 0.0 5.1341062e-14 0.0 2.0536418e-11 5.1341062e-14 2.0536418e-11
2.0536418e-11 5.1341062e-14 2.0536418e-11 2.0536418e-11 5.1341062e-14 2.0536418e-11 0.0 5.1341062e-14
0.0 8.625849e-11 8.625849e-11 8.625849e-11 4.3290697e-11 3.1517768e-11 5.5332357e-11 6.231023e-11
3.848073e-11 5.3589175e-11 1.7263824e-11 1.5916412e-11 4.0785413e-11 6.1546185e-11 2.3885517e-11 2.4680846e-11
3.525536e-11 2.1124562e-11 2.7141794e-11 0.0 5.3911543e-14 0.0 2.1564623e-11 5.3911543e-14
2.1564623e-11 2.1564623e-11 5.3911543e-14 2.1564623e-11 2.1564623e-11 5.3911543e-14 2.1564623e-11 0.0
5.3911543e-14 0.0 3.6024075e-10 3.6024075e-10 3.6024075e-10 1.9990813e-10 1.4624336e-10 2.0949836e-10
2.2511192e-10 0.0016603834 2.1741779e-10 1.8239811e-10 1.557965e-10 1.9834696e-10 2.6852479e-10 0.0016611379
9.5153066e-11 2.0251723e-10 1.5216955e-10 1.974962e-10 0.0 2.251503e-13 0.0 9.006019e-11
2.251503e-13 9.006019e-11 9.006019e-11 2.251503e-13 9.006019e-11 9.006019e-11 2.251503e-13 9.006019e-11
0.0 2.251503e-13 0.0 3.869383e-10 3.869383e-10 3.869383e-10 1.9974153e-10 1.5932589e-10
2.079655e-10 2.4669836e-10 0.0017254238 2.2190101e-10 1.9019704e-10 1.61539e-10 2.0677206e-10 2.8989455e-10
0.0016666356 9.72654e-11 2.0092247e-10 1.5444157e-10 1.9948938e-10 0.0 2.418363e-13 0.0
9.673457e-11 2.418363e-13 9.673457e-11 9.673457e-11 2.418363e-13 9.673457e-11 9.673457e-11 2.418363e-13
9.673457e-11 0.0 2.418363e-13 0.0 2.0332465e-09 2.0332465e-09 2.0332465e-09 6.2316197e-10
6.5361794e-10 6.186252e-10 3.5291992e-09 0.011870695 1.7258068e-09 9.1075325e-10 7.438407e-10 9.701636e-10
1.2471241e-09 0.00027113073 1.1469115e-09 1.3574782e-09 1.4770319e-09 1.3969862e-09 0.0 1.27078e-12
0.0 5.083116e-10 1.27078e-12 5.083116e-10 5.083116e-10 1.27078e-12 5.083116e-10 5.083116e-10
1.27078e-12 5.083116e-10 0.0 1.27078e-12 0.0 2.0472146e-09 2.0472146e-09 2.0472146e-09
6.1455696e-10 6.549095e-10 6.208471e-10 3.5412702e-09 0.011909542 1.7293932e-09 9.1454627e-10 7.4964074e-10
9.801852e-10 1.2584502e-09 0.00027219704 1.1456809e-09 1.3507985e-09 1.4773031e-09 1.3982709e-09 0.0
1.2795102e-12 0.0 5.1180366e-10 1.2795102e-12 5.1180366e-10 5.1180366e-10 1.2795102e-12 5.1180366e-10
5.1180366e-10 1.2795102e-12 5.1180366e-10 0.0 1.2795102e-12 0.0 1.5041791e-09 1.5041791e-09
1.5041791e-09 4.5248782e-10 4.2395926e-10 4.1265266e-10 2.5423794e-09 0.012880059 1.2854068e-09 8.6756746e-10
7.095026e-10 8.197545e-10 7.3324413e-10 0.0031574378 6.8127604e-10 1.0431962e-09 1.1311694e-09 1.096424e-09
0.0 9.40111e-13 0.0 3.7604478e-10 9.40111e-13 3.7604478e-10 3.7604478e-10 9.40111e-13
3.7604478e-10 3.7604478e-10 9.40111e-13 3.7604478e-10 0.0 9.40111e-13 0.0 1.5040097e-09
1.5040097e-09 1.5040097e-09 4.5344656e-10 4.2529255e-10 4.1399828e-10 2.547356e-09 0.0129251685 1.2867832e-09
8.686467e-10 7.0927164e-10 8.2055146e-10 7.343638e-10 0.0031676264 6.829215e-10 1.0445423e-09 1.1307214e-09
1.098401e-09 0.0 9.400047e-13 0.0 3.7600242e-10 9.400047e-13 3.7600242e-10 3.7600242e-10
00000000: e7a3 b42e e7a3 b42e e7a3 b42e 3e67 3e2e
00000010: 7175 f02d d65e 6b2e 3168 832e 7788 232e
00000020: a9be 632e e71e 942d 424d 882d 9d1e 2a2e
00000030: 6563 812e 9bef cc2d 354d d62d 3ee1 1c2e
00000040: d362 bd2d e24e ea2d 0000 0000 3738 6729
00000050: 0000 0000 e7a3 b42d 3738 6729 e7a3 b42d
00000060: e7a3 b42d 3738 6729 e7a3 b42d e7a3 b42d
00000070: 3738 6729 e7a3 b42d 0000 0000 3738 6729
00000080: 0000 0000 37af bd2e 37af bd2e 37af bd2e
00000090: fe64 3e2e da9d 0a2e b25a 732e 8b05 892e
000000a0: 733d 292e 0cb0 6b2e adda 972d 9300 8c2d
000000b0: 4b60 332e 6c57 872e 6719 d22d 5318 d92d
000000c0: 020e 1b2e 49d0 b92d e3bd ee2d 0000 0000
000000d0: c7cb 7229 0000 0000 37af bd2d c7cb 7229
000000e0: 37af bd2d 37af bd2d c7cb 7229 37af bd2d
000000f0: 37af bd2d c7cb 7229 37af bd2d 0000 0000
00000100: c7cb 7229 0000 0000 610b c62f 610b c62f
00000110: 610b c62f 23cd 5b2f d9cb 202f 8c58 662f
00000120: 5f83 772f 39a1 d93a ab0d 6f2f 818c 482f
00000130: d14c 2b2f b515 5a2f 819f 932f 8aba d93a
00000140: 6a3e d12e 88ab 5e2f ec4f 272f 3d26 592f
00000150: 0000 0000 287f 7d2a 0000 0000 610b c62e
00000160: 287f 7d2a 610b c62e 610b c62e 287f 7d2a
00000170: 610b c62e 610b c62e 287f 7d2a 610b c62e
00000180: 0000 0000 287f 7d2a 0000 0000 b9b8 d42f
00000190: b9b8 d42f b9b8 d42f 3e9e 5b2f 402e 2f2f
000001a0: 16a9 642f b59f 872f 9e27 e23a 95fb 732f
000001b0: b51f 512f 309d 312f 2959 632f 085f 9f2f
000001c0: 0373 da3a 8de3 d52e a6ea 5c2f 70cf 292f
000001d0: 4557 5b2f 0000 0000 4924 882a 0000 0000
000001e0: b9b8 d42e 4924 882a b9b8 d42e b9b8 d42e
000001f0: 4924 882a b9b8 d42e b9b8 d42e 4924 882a
00000200: b9b8 d42e 0000 0000 4924 882a 0000 0000
00000210: 40b9 0b31 40b9 0b31 40b9 0b31 204b 2b30
00000220: 46aa 3330 e10b 2a30 5486 7231 4e7d 423c
00000230: 6e31 ed30 9058 7a30 2377 4c30 9956 8530
00000240: 4767 ab30 8d26 8e39 5ca1 9d30 0592 ba30
00000250: 7100 cb30 1500 c030 0000 0000 add8 b22b
00000260: 0000 0000 40b9 0b30 add8 b22b 40b9 0b30
00000270: 40b9 0b30 add8 b22b 40b9 0b30 40b9 0b30
00000280: add8 b22b 40b9 0b30 0000 0000 add8 b22b
00000290: 0000 0000 fbae 0c31 fbae 0c31 fbae 0c31
000002a0: 9aed 2830 2905 3430 3ba8 2a30 af5a 7331
000002b0: 3d20 433c 9daf ed30 7963 7b30 470f 4e30
000002c0: 33b7 8630 c8f5 ac30 abb5 8e39 1076 9d30
000002d0: ffa6 b930 fb09 cb30 492d c030 0000 0000
000002e0: 3713 b42b 0000 0000 fbae 0c30 3713 b42b
000002f0: fbae 0c30 fbae 0c30 3713 b42b fbae 0c30
00000300: fbae 0c30 3713 b42b fbae 0c30 0000 0000
00000310: 3713 b42b 0000 0000 99bb ce30 99bb ce30
00000320: 99bb ce30 00c2 f82f f612 e92f b3db e22f
00000330: 03b6 2e31 e206 533c 3baa b030 a279 6e30
00000340: cf06 4330 1855 6130 788d 4930 04ed 4e3b
00000350: 8a44 3b30 3460 8f30 7c77 9b30 fdb0 9630
00000360: 0000 0000 124f 842b 0000 0000 99bb ce2f
00000370: 124f 842b 99bb ce2f 99bb ce2f 124f 842b
00000380: 99bb ce2f 99bb ce2f 124f 842b 99bb ce2f
00000390: 0000 0000 124f 842b 0000 0000 a3b5 ce30
000003a0: a3b5 ce30 a3b5 ce30 ee48 f92f 9bce e92f
000003b0: 1499 e32f 900d 2f31 16c4 533c a9da b030
000003c0: 94c5 6e30 8ef6 4230 2d8d 6130 42dc 4930
000003d0: f497 4f3b 54b8 3b30 918f 8f30 b967 9b30
000003e0: 8df6 9630 0000 0000 3d4b 842b 0000 0000
000003f0: a3b5 ce2f 3d4b 842b a3b5 ce2f a3b5 ce2f

exp_avg f4 [128]
-1.0991545e-06 4.3745786e-06 -9.399624e-06 -6.891241e-06 9.650636e-06 -5.5235164e-06 -1.6913486e-06 9.991183e-06
3.1862103e-06 3.2699577e-06 8.967628e-06 -8.638579e-06 -1.0571718e-05 -1.5704238e-05 8.221844e-06 4.7927097e-06
-4.853134e-06 -1.3900713e-05 2.1812677e-07 -1.7988749e-06 9.1509725e-07 8.9699523e-07 -2.3984514e-06 -9.680416e-07
3.8023182e-07 1.0091425e-06 -5.6575622e-08 -4.52817e-06 4.6606065e-06 -1.375438e-06 1.6741267e-06 -1.198243e-05
6.2180948e-06 -8.673756e-06 -1.0652934e-05 3.9321026e-06 3.0087833e-07 2.5656982e-07 -1.0628462e-05 -4.03864e-06
-3.5860332e-06 6.8668915e-06 -1.116569e-05 -2.525379e-05 -1.8696007e-06 1.3378197e-07 3.736499e-06 1.31651905e-05
1.6727083e-06 -4.1424582e-06 5.6406975e-06 2.0386517e-05 -8.775553e-06 -2.7044493e-05 -1.7718727e-06 -1.2148239e-06
-9.364606e-06 -1.314452e-06 -1.0034612e-06 2.6337236e-06 3.129719e-05 2.0134274e-05 1.7333834e-05 -5.25443e-06
9.871138e-06 -1.6082473e-05 2.8673448e-06 -2.4093897e-06 -2.6295559e-06 1.3445807e-05 2.9192015e-05 -7.289935e-06
2.957736e-06 -1.5638476e-05 4.4118e-06 -1.2924889e-05 8.149916e-06 -5.566345e-07 -1.9390729e-05 1.9899791e-05
-7.2912013e-07 1.0064338e-05 4.156626e-06 -2.1238022e-06 -3.1319105e-06 2.0429802e-06 7.5240024e-07 -1.2688557e-05
4.9821706e-06 -3.2560836e-06 -3.053267e-06 -3.5952496e-07 -1.9364232e-05 4.224769e-06 -6.3766987e-07 8.416365e-06
-2.9314453e-05 1.22030915e-05 2.462224e-05 -8.267994e-06 1.4132151e-05 2.996991e-06 3.8488974e-06 8.088925e-06
8.546017e-07 -2.3240164e-06 -8.463995e-06 -4.6882146e-06 1.761446e-05 -6.7087585e-06 8.950044e-06 -1.2321077e-07
4.40166e-06 2.611576e-06 1.9257257e-05 -3.1879406e-06 -2.7995998e-06 -3.0973877e-06 -2.1763884e-05 7.508704e-07
-1.5472244e-06 1.4108871e-06 1.8008084e-05 -4.943796e-06 -2.462616e-05 -1.1134909e-05 5.765955e-07 -3.2876593e-05
00000000: a986 93b5 58c9 9236 14b3 1db7 4f3b e7b6
00000010: 2ae9 2137 a556 b9b6 4c02 e3b5 ce9f 2737
00000020: add2 5536 7271 5b36 ab73 1637 6aee 10b7
00000030: 2f5d 31b7 98bc 83b7 8df0 0937 10d1 a036
00000040: 1bd8 a2b6 1c37 69b7 3b36 6a34 df70 f1b5
00000050: 01a5 7535 0bc9 7035 15f5 20b6 a8ed 81b5
00000060: aa22 cc34 df71 8735 8efd 72b3 aff0 97b6
00000070: 4e62 9c36 b19b b8b5 8eb2 e035 2508 49b7
00000080: 07a5 d036 8085 11b7 01ba 32b7 81f0 8336
00000090: 6788 a134 b0be 8934 e650 32b7 a783 87b6
000000a0: 95a7 70b6 266a e636 4654 3bb7 1ad8 d3b7
000000b0: feee fab5 b5a5 0f34 90c0 7a36 10e0 5c37
000000c0: d281 e035 72ff 8ab6 3945 bd36 b603 ab37
000000d0: b73a 13b7 9bdd e2b7 15d1 edb5 080d a3b5
000000e0: ad1c 1db7 3a6c b0b5 aaae 86b5 07bf 3036
000000f0: 1a45 0338 06e6 a837 2068 9137 364f b0b6
00000100: 379c 2537 d9e8 86b7 9c6c 4036 00b1 21b6
00000110: 6d77 30b6 4d95 6137 60e1 f437 119c f4b6
00000120: 847d 4636 5f2f 83b7 1309 9436 fad7 58b7
00000130: 9fbb 0837 a26b 15b5 46a9 a2b7 7aee a637
00000140: c1b8 43b5 01da 2837 2579 8b36 a586 0eb6
00000150: d02d 52b6 221a 0936 8df8 4935 f0e0 54b7
00000160: 852c a736 1783 5ab6 bae6 4cb6 bc04 c1b4
00000170: 5f70 a2b7 7dc2 8d36 572c 2bb5 0334 0d37
00000180: 4fe8 f5b7 e1bb 4c37 dc8b ce37 c4b6 0ab7
00000190: 2019 6d37 ea1f 4936 c725 8136 abb5 0737
000001a0: c867 6535 4cf6 1bb6 9500 0eb7 754f 9db6
000001b0: c4c2 9337 cc1b e1b6 2528 1637 eb4b 04b4
000001c0: f9b1 9336 8942 2f36 a58a a137 67f0 55b6
000001d0: c2e0 3bb6 b7dc 4fb6 9691 b6b7 6c8f 4935
000001e0: 3aaa cfb5 b65d bd35 1110 9737 e2e2 a5b6
000001f0: 4794 ceb7 12d0 3ab7 57c7 1a35 f9e4 09b8

exp_avg_sq f4 [128]
8.625851e-11 3.869382e-10 2.0472135e-09 1.504009e-09 6.261052e-10 9.271417e-10 1.6664832e-10 1.7019264e-09
1.6384602e-10 3.4655758e-09 2.3807594e-09 1.846931e-09 2.027359e-09 1.0655722e-08 8.5633284e-10 7.255468e-10
1.12102966e-10 1.7872926e-09 8.1570035e-11 2.3869265e-10 1.8016547e-10 2.302722e-09 7.456999e-11 1.07573145e-10
1.5315806e-10 6.639763e-11 4.7669455e-09 3.4945765e-11 1.2699128e-10 1.516826e-10 8.333306e-10 5.875871e-09
8.619585e-10 1.0591481e-09 6.3394023e-10 1.4516169e-10 6.0535105e-10 9.780123e-12 1.6332289e-09 4.5015972e-10
1.3172232e-09 8.2791257e-10 1.5546189e-09 4.2620782e-09 1.1174983e-10 2.2516796e-11 5.099514e-10 7.434091e-10
2.0696836e-10 3.0137098e-11 3.005224e-10 1.434281e-09 6.561952e-10 4.255363e-09 1.2596841e-09 3.960011e-10
9.808571e-10 6.7363656e-11 1.9528353e-10 6.567607e-10 7.3801334e-09 7.8598533e-10 4.9880406e-09 1.7557192e-10
8.572794e-10 4.451098e-09 2.9842566e-11 3.5186698e-09 8.3749015e-11 5.2247047e-09 6.5826473e-09 1.1641523e-08
2.2447466e-09 6.533966e-09 4.807129e-10 2.6385596e-09 1.5989494e-10 2.2484696e-10 2.3991416e-09 1.988858e-09
1.0366192e-11 3.0858077e-10 6.5863565e-11 6.008773e-10 4.401873e-11 3.285765e-11 1.7139254e-10 2.9191949e-09
3.2382516e-10 7.3336753e-10 3.7874797e-11 3.4291795e-11 9.770908e-09 3.0525715e-09 1.1032057e-10 3.5384873e-10
9.954323e-09 8.790316e-10 3.5270065e-09 3.8240686e-09 1.5128202e-09 1.11970606e-10 7.6948214e-10 5.067069e-10
1.6261735e-09 4.3470873e-11 3.449271e-10 2.8661634e-10 8.670735e-10 1.2086061e-09 1.157909e-09 4.1469737e-11
1.9461643e-09 1.7003699e-11 2.9518428e-09 9.548953e-10 1.0948877e-10 6.2030414e-10 4.053924e-09 1.9492246e-11
5.3360844e-11 2.73246e-10 3.6676955e-09 7.519795e-11 4.206849e-09 6.0001204e-10 2.1735039e-10 9.865478e-09
00000000: 39af bd2e b6b8 d42f f6ae 0c31 9db5 ce30
00000010: 3d1a 2c30 ccd9 7e30 553b 372f 36e9 e930
00000020: 8e26 342f 0e27 6e31 c39a 2331 1cd7 fd30
00000030: ad51 0b31 5c10 3732 1163 6b30 d16f 4730
00000040: 5c84 f62e c5a4 f530 d95f b32e 0139 832f
00000050: 1218 462f ea3d 1e31 2cfb a32e 4c8e ec2e
00000060: 2966 282f 8b02 922e 7fca a331 6fb1 192e
00000070: dea0 0b2f dbc6 262f 6e10 6530 b5e4 c931
00000080: f0ee 6c30 7691 9130 9441 2e30 629b 1f2f
00000090: cb65 2630 c20d 2c2d 2278 e030 597a f72f
000000a0: ac09 b530 2b93 6330 4aaa d530 a371 9231
000000b0: 90bd f52e 510f c62d a42c 0c30 c458 4c30
000000c0: 6a90 632f 5b8b 042e c536 a52f 4720 c530
000000d0: a25f 3430 9236 9231 3221 ad30 33b4 d92f
000000e0: d7ce 8630 5e22 942e 6db7 562f 6d87 3430
000000f0: 5794 fd31 cd0c 5830 4563 ab31 1a0b 412f
00000100: ada5 6b30 46f0 9831 be3f 032e 18cd 7131
00000110: 812a b82e fd84 b331 942d e231 f6ff 4732
00000120: 0042 1a31 5f81 e031 2a23 0430 0852 3531
00000130: 6dce 2f2f cb38 772f 25de 2431 5cac 0831
00000140: 2e5d 362d e2a4 a92f e4d5 902e fb2a 2530
00000150: af98 412e 6d82 102e b672 3c2f 059b 4831
00000160: 5706 b22f 2796 4930 3b93 262e 21d1 162e
00000170: e8dc 2732 68c5 5131 f698 f22e c887 c22f
00000180: 9303 2b32 5aa0 7130 c15f 7231 dd64 8331
00000190: a1eb cf30 d939 f62e 7e83 5330 5448 0b30
000001a0: e57f df30 da2f 3f2e 2ca0 bd2f aa91 9d2f
000001b0: e056 6e30 0c1c a630 4d24 9f30 c662 362e
000001c0: 49bd 0531 ed90 952d 5ed9 4a31 643d 8330
000001d0: b3c4 f02e 0682 2a30 b14a 8b31 a374 ab2d
000001e0: f8ae 6a2e f537 962f c80a 7c31 af5c a52e
000001f0: d68b 9031 18ee 2430 b2fa 6e2f d57c 2932
