results/ag11/PlatformRotate.onnx (onnx, 112474 bytes, 8 tensors)

network_body._body_endoder.seq_layers.0.weight f4 [128, 78]
000000 9a 9f d6 3d c1 c8 8b 3d 1d ab 1c 3d 39 fc 2c be
       0.1047966 0.068254 0.038249124 -0.1689309
000010 26 d4 7c 3d 0f c6 39 be 68 55 9d bd 27 b5 1f bb
       0.061725758 -0.1814196 -0.076823056 -0.002436945
000020 72 93 e2 bd 71 88 72 bd 33 00 8b bd 75 ab db bb
       -0.11063279 -0.059212152 -0.067871474 -0.006703789
000030 b5 6a 2f 3e ab 31 0d bd d7 af 8b bd 8a e2 43 bd
       0.17130549 -0.034471195 -0.06820648 -0.047823466
000040 8d cf 94 be 71 90 17 3e 18 d0 75 bc 2a 18 cc 3d
       -0.290646 0.14801194 -0.015003227 0.099655464
000050 cb af fb bd 9b 72 9a bd 88 7e 94 3d 90 77 b3 3c
       -0.12289389 -0.075413905 0.072506964 0.021907598
000060 75 5a 52 3b 88 fc 0e bd 1b 68 96 3c 8e 93 02 bd
       0.0032097374 -0.0349088 0.018360188 -0.031879
000070 f0 3c 81 be cb bb 97 3d a6 32 56 3c 11 08 2a be
       -0.25241804 0.074088655 0.013073599 -0.1660464
000080 71 34 f0 3d 6d f4 01 be 3d 7f de bd be 15 2f bd
       0.117287524 -0.12690897 -0.108641125 -0.042745344
000090 68 9f 1b 3e 0b 2e f2 ba 18 00 98 bd 3f a0 cb 3d
       0.15197527 -0.0018476857 -0.07421893 0.09942674
0000a0 cf 12 94 3d c2 d7 a2 bd c6 c7 27 bd fd 54 a4 3d
       0.0723015 -0.07951309 -0.040962003 0.08024023
0000b0 77 4f a7 3d 46 cf 4d 3e 4d 03 9d bc ee 96 82 3c
       0.081694536 0.200986 -0.019166613 0.01594111
0000c0 f6 a1 8d 39 46 19 4e 3b 7c 32 28 3d 74 0b a2 3d
       0.00027014286 0.003144817 0.04106377 0.07912341
0000d0 c1 5a 2f be 7b 27 e8 3d 5e 7a ed 3d 1d 21 c3 bc
       -0.17124464 0.11335655 0.11595605 -0.0238195
0000e0 63 f4 bd 3c ca cf 97 bd 9a c7 c5 3d 27 55 38 3c
       0.023187822 -0.074126795 0.096572116 0.011250771
0000f0 2b 8a 13 3e 07 a9 f7 3b 88 73 4d bc 4c 74 7c bd
       0.14408176 0.0075579914 -0.012539752 -0.061634347
000100 f8 33 57 3e be 83 97 bb fd cd ec 3d 5b ba f4 bd
       0.21015918 -0.004623859 0.11562727 -0.11949607
000110 8e ba e4 3d 7b c9 12 be b5 b6 8c bd e8 66 a1 bd
       0.11168395 -0.14334671 -0.06870786 -0.07880956
000120 90 2e c7 bc e6 b9 8e 39 c3 09 32 3e fc e7 28 bc
       -0.024314195 0.00027222856 0.17386536 -0.010309216
000130 fc f5 ea 3d f9 8c 19 3d 5e 58 df bd b4 8e 3f bd
       0.11472699 0.037487958 -0.109055266 -0.04676695
000140 bf 69 bf 3d c2 73 74 bd 45 4b 00 3d 7a c9 de bd
       0.09346341 -0.059680708 0.031321783 -0.10878272
000150 f0 95 c5 bd 38 c3 ee 3d b6 d1 3f 3c 9a 94 c9 3d
       -0.09647739 0.11658329 0.011707714 0.098427966
000160 6b 83 36 3e 27 09 bc 3d 90 5d 15 3e 76 e3 ed 3d
       0.1782357 0.09181433 0.14586473 0.1161565
000170 be a9 5d bd c0 c3 e9 bd dd 0f 4d be ce ad 2d bd
       -0.054116957 -0.114142895 -0.20025583 -0.04240208
000180 62 ac 39 3c b5 87 0a 3e 63 d4 7c bb a5 1d 1f be
       0.011332603 0.1352833 -0.003857874 -0.15538652
000190 0f 37 7f 3d 23 14 2e be 09 b1 3c be e8 db 9f bd
       0.062308367 -0.16999869 -0.18426909 -0.07805616
0001a0 aa 54 7f bc 67 a4 f0 3c 73 1c 45 bd 0a ae 04 3e
       -0.01558415 0.029375268 -0.048122834 0.12957016
0001b0 eb 77 67 bd 91 a4 3e bd fa b3 66 bd a1 09 54 be
       -0.056510847 -0.04654366 -0.056323983 -0.20706798
0001c0 b0 76 e3 bd 4e 09 46 be f0 29 4b 3e 1d 5e 4a 3d
       -0.11106622 -0.19339487 0.19840217 0.04940616
0001d0 6e 1d 67 3d 0e e2 0a 3e 2f 9e c7 3c 6e d9 87 bd
       0.05642455 0.13562796 0.02436742 -0.06633268
0001e0 3d 19 91 3d 32 d4 ad 3b 4e 9d 17 3e 0e 74 04 be
       0.07084892 0.0053048367 0.148061 -0.12934896
0001f0 bb 16 25 be 69 21 3e bd f9 4b a2 bd 37 49 f1 bc
       -0.16121952 -0.04641858 -0.07924647 -0.029453857
000200 49 49 22 be 7b 5c 1e bb 3f f6 bc bc d8 55 db bc
       -0.15848269 -0.002416401 -0.023066638 -0.026774332
000210 e8 b0 f6 3d a7 84 40 be 8e cb b4 bc 04 bf f2 bd
       0.12045461 -0.18800603 -0.022069719 -0.118528396
000220 1b 85 b7 3d ce 2b 6b 3d 8d 15 d2 bc e0 fd c6 3d
       0.08960935 0.057414822 -0.025645042 0.097163916
000230 a9 bb 4a 3e e1 e4 9e bd 78 0c 08 3d 4d 78 e7 3d
       0.19798149 -0.07758499 0.033215016 0.113022424
000240 d4 aa 24 3e 58 a6 6b 3e b1 c8 3f 3d 16 b3 8d 3d
       0.16080791 0.23012674 0.046822254 0.069189236
000250 99 42 8b 3d bc 06 52 3d 15 0f 1b bc 9d c0 7a bb
       0.06799812 0.051275954 -0.009464045 -0.003826178
000260 bc 1b 84 3d b3 95 01 3e aa cd 1b bd 74 cd 0e 3e
       0.064506024 0.12654762 -0.038037933 0.13945562
000270 78 19 3e 3e 4e 8b ec 3d 16 c0 11 be 0d 4f 19 3d
       0.18564403 0.11550008 -0.14233431 0.037428904
000280 67 de 8c 3c 2d 93 17 bd 68 a3 85 3c 00 ac bc bd
       0.017195893 -0.037005592 0.01631327 -0.09212494
000290 00 00 ed bd 5c 13 ed 3d 77 5b 3f bd df 43 78 3e
       -0.115722656 0.11575958 -0.046718087 0.24244641
0002a0 b7 50 2a bd 3a 32 5a 3e c0 e6 36 bd 79 c9 5c bd
       -0.041580882 0.21308222 -0.044653654 -0.053903077
0002b0 00 48 84 bd 06 b9 d6 bd 50 1b 19 be c4 ec 07 3e
       -0.064590454 -0.10484509 -0.14951825 0.13273913
0002c0 fa 7e e6 3d 5b f2 3a be 2b d2 0e 3d e7 9b f0 bc
       0.112546876 -0.18256514 0.0348684 -0.029371215
0002d0 61 7c 53 bd e9 25 cb 3b 75 76 5c 3d 89 75 09 3d
       -0.05163229 0.0061995876 0.053823907 0.033559356
0002e0 9c 34 9f bd 43 24 7e bd 84 b8 8d bd 49 18 b2 3c
       -0.07773706 -0.0620463 -0.06919959 0.021740096
0002f0 49 4f 92 3d f7 09 21 3d b1 d8 d0 3d 69 c9 67 bd
       0.07144029 0.039316144 0.101975806 -0.056588564
000300 bb 52 1f bd 79 1c 99 3e dc 8d 91 ba 22 87 2e 3e
       -0.038897257 0.29904535 -0.00111049 0.17043737
000310 b7 02 05 be 00 7e 0b 3e f2 67 2e bc a0 8a df 3c
       -0.12989317 0.13622284 -0.0106449 0.027287781
000320 52 89 16 be 73 be a2 bd ca 93 19 be 7d 18 13 3d
       -0.14700821 -0.079464816 -0.14997783 0.035912026
000330 77 17 28 bd 30 af 34 3e 93 16 3b 3d f9 4d dd 3d
       -0.041038003 0.17644954 0.045675825 0.10805888
000340 86 9d 17 be 9b 15 ec 3c 58 5e 01 bd 08 f9 2e 3d
       -0.14806184 0.028818896 -0.031584114 0.042717963
000350 05 a2 47 3e 41 89 31 3e 98 15 bc bb 70 5b 17 3c
       0.194954 0.17337514 -0.005739879 0.009238109
000360 9f 68 01 be 98 77 6a 3d 79 0b 24 3d 3c 5e 1b bc
       -0.12637566 0.05724296 0.040050004 -0.009482916
000370 23 26 98 bd df 30 f1 3b 95 79 1e 3d b9 a6 d1 bc
       -0.07429149 0.007360562 0.03869017 -0.025592195
000380 54 fd fb bc 77 ae 40 be 20 a3 cf 3b f0 ef 6e 3e
       -0.030760445 -0.18816553 0.0063365847 0.23333716
000390 52 2a 2d bd 36 8c 39 3d 9f d8 0e 3e 39 0b b1 3d
       -0.042276688 0.04529973 0.13949822 0.08644719
0003a0 5f 23 a2 3e b5 71 03 3d ec d7 c3 bd fc 4c 0e be
       0.3166761 0.03209086 -0.09562668 -0.13896555
0003b0 61 17 63 3d f4 c2 c0 3d d0 9b 7a be 0b 38 85 3d
       0.055442218 0.09412184 -0.244735 0.0650483
0003c0 9f 35 4f bc 11 76 ac be 2c d2 db bc 76 5c b7 3d
       -0.012647062 -0.33683828 -0.026833616 0.089531824
0003d0 93 33 3d 3d db 1b ac bc 42 ca 79 3d 21 ef 4f 3e
       0.046191763 -0.021009376 0.060983904 0.20306064
0003e0 f1 7d 0f be bb 4a f2 bd 80 d1 a7 3c 5a 32 e0 3d
       -0.14012887 -0.1183066 0.02048564 0.10947104
0003f0 80 49 4c 3e a6 66 bc 3d 99 49 17 be f3 8a e7 3d
       0.19949913 0.09199266 -0.14774169 0.11305799

network_body._body_endoder.seq_layers.0.bias f4 [128]
000000 7b 76 d1 bb d2 3e a4 3b d9 59 ae ba 75 e6 48 b9
       -0.006392298 0.0050123716 -0.0013301923 -0.00019159338
000010 af 18 ce bb 4a 5b 35 3b dc 6a af bb c0 a0 19 bb
       -0.0062895636 0.002767282 -0.005353315 -0.0023441762
000020 d6 5c 14 3a 28 fb 1d bb c5 65 07 3b 2b 64 91 bb
       0.00056595856 -0.0024106 0.0020660025 -0.00443699
000030 0d 09 cd 3b 9c 1b 82 3b bc 62 e9 39 c6 17 cc 3b
       0.0062571825 0.0039705765 0.00044514786 0.00622842
000040 50 74 8e 3b ac 9c bb 3b 02 68 20 bb a3 e2 0c bb
       0.0043473616 0.005725464 -0.0024476056 -0.002149739
000050 d1 04 2f 3b 18 26 87 3b ab ff 7e 3b bb c5 1b bc
       0.0026705752 0.004124414 0.0038909714 -0.009507592
000060 43 1d 3c 3a 86 b9 fd 3a 28 1a 06 3b fa 46 8d bb
       0.0007175991 0.0019357658 0.0020462368 -0.0043114396
000070 c5 2a f1 bb 44 74 8a 37 eb bc d4 3b 25 c9 a0 bb
       -0.007359835 1.6505022e-05 0.0064922473 -0.004906791
000080 70 f8 28 3b b1 3d 7c bb 73 1c 19 bc ee a1 11 3a
       0.0025782846 -0.003848892 -0.009345162 0.00055554404
000090 55 69 0a bc ca 72 b3 3b e0 82 07 bc dc 16 c0 bb
       -0.008447965 0.0054763304 -0.008270949 -0.0058621
0000a0 f7 de 58 bb b6 6d 53 3b 47 f6 b2 3b e7 0b 46 3b
       -0.0033091882 0.0032261438 0.0054614875 0.0030219497
0000b0 5f 1d 5b b8 40 62 72 3b 42 4d 18 bb dc 30 23 bb
       -5.2241023e-05 0.003698483 -0.0023239409 -0.0024900949
0000c0 d0 84 7c 3b ac 5a b3 bb d7 9b ce bb 0c 02 48 3b
       0.003853131 -0.0054734554 -0.0063051987 0.0030518798
0000d0 d4 ad 5d ba 4e c8 9e bb a6 ef e4 bb 9f 12 f3 3b
       -0.00084563834 -0.0048456555 -0.006986576 0.0074179913
0000e0 38 54 ba 3a 07 9a 90 3b a2 fb 35 3a 57 33 d0 bb
       0.0014215773 0.0044128927 0.0006942098 -0.0063537764
0000f0 47 ef ec 3b cb 4d 0c 3b 85 9a bc ba 42 93 06 bb
       0.0072306725 0.0021408673 -0.0014389312 -0.002053455
000100 90 c4 ad 3b ea 65 26 3a 6e 11 c0 3a a6 eb 12 3b
       0.005302973 0.0006347584 0.0014653632 0.002241829
000110 a4 70 d1 bb 1f 1a ca bb 62 50 35 bb c4 9a 4e bb
       -0.0063916016 -0.0061676647 -0.002766632 -0.0031525353
000120 c4 c2 3c 3a a4 b7 28 bb e4 e3 48 bb a8 f9 30 bb
       0.0007200653 -0.0025744224 -0.0030653412 -0.0027004275
000130 87 ff c6 3b 84 28 3f 3a a7 e5 8f ba 22 b4 a3 bb
       0.0060729417 0.0007292109 -0.0010978476 -0.0049958387
000140 72 27 6e 3b 07 f9 d9 b9 99 a1 de bb 69 f8 9d bb
       0.003633943 -0.00041575005 -0.0067941663 -0.0048208726
000150 7e 6a 87 bb e7 16 7e 3a a6 7f 73 bb bc 3d 22 3c
       -0.004132568 0.0009692744 -0.0037154942 0.009902414
000160 f0 78 0a 3b fa 29 2b ba d6 34 6e bb a2 37 aa 3b
       0.0021129213 -0.00065293873 -0.003634741 0.00519462
000170 58 ee a1 3a ce 21 27 39 10 2b de bb 83 d8 30 bc
       0.0012354357 0.00015938954 -0.006780036 -0.010793808
000180 27 b8 85 ba e2 e7 c4 b7 3b 4e 47 3b e0 75 95 b9
       -0.0010201976 -2.3473e-05 0.003041162 -0.00028507318
000190 d3 00 2f 3b 8a 23 93 b9 f1 bd 41 3b eb a4 4f bb
       0.0026703372 -0.00028064504 0.0029562677 -0.0031683992
0001a0 05 59 ef 3b 65 ef 98 3b c6 70 85 3b 66 07 4c ba
       0.007304313 0.00466721 0.0040722815 -0.0007783085
0001b0 80 16 85 bb 8e 9b 1f 3a d2 bd 1c 3b 2c a8 d0 bb
       -0.00406152 0.0006088548 0.0023916853 -0.006367704
0001c0 3d 33 f4 39 e6 8a 08 bb 44 67 d2 b9 53 b0 b6 ba
       0.00046577482 -0.0020834743 -0.0004013126 -0.0013938047
0001d0 d1 b4 10 bb 7a 0b b0 3a cf 10 e5 b9 70 6c f7 3a
       -0.0022080431 0.0013431155 -0.00043690807 0.0018876921
0001e0 5d b9 13 3b 58 3a f6 3a 59 25 80 bb c5 cb d6 3b
       0.0022540905 0.0018785698 -0.003910702 0.006555053
0001f0 29 4a 93 3b f6 d0 cb bb 88 80 80 3b 0d 1c a2 bb
       0.0044949246 -0.0062199784 0.003921572 -0.0049471916

network_body._body_endoder.seq_layers.2.weight f4 [128, 128]
000000 4f 39 fc bc 46 b5 4e 3d 85 44 71 3d 9c d5 3f bd
       -0.030789046 0.050465845 0.058903236 -0.046834573
000010 4b fa cc 3d f1 7b c3 bd 3a 2a b0 3d ac 00 34 be
       0.10008677 -0.09545124 0.08601804 -0.17578381
000020 60 f5 fa bd 0f 27 1b bd d9 14 94 bd 09 86 82 be
       -0.12253833 -0.037879046 -0.07230539 -0.25492886
000030 9c 84 90 bc 34 92 26 3a 7d dd f4 bc d3 c0 cf 3c
       -0.017641358 0.00063541834 -0.02989077 0.0253605
000040 fb dc f3 bb dc 25 42 3d 1c 00 ea ba e4 dd 5d bc
       -0.0074421144 0.047399387 -0.0017852816 -0.013541672
000050 50 ec c7 3d c2 b2 a0 bd d3 bb 04 be 41 ae 54 3e
       0.0976187 -0.07846595 -0.12962274 0.20769598
000060 fc e2 fa bc ef 97 12 be a7 50 86 bd bf 43 22 3d
       -0.030625813 -0.1431577 -0.06558352 0.03961539
000070 e3 73 b8 3d f7 e7 de 3d 7c a1 8c 3d d7 c0 d2 bd
       0.09006479 0.108840875 0.06866738 -0.102906875
000080 24 80 e0 bd a8 97 48 be 43 c7 82 bd 33 9d 9d 3d
       -0.10961941 -0.19589102 -0.063856624 0.07695999
000090 a8 84 22 bd 07 07 75 3d 03 5b f2 3d dc c6 01 3d
       -0.039677292 0.059821155 0.11833765 0.031683788
0000a0 63 cd 9b bc db 1e 25 3b 8e 1d 4f 3d b6 37 13 bd
       -0.019018834 0.0025195393 0.050565295 -0.035941802
0000b0 33 c5 23 bd bd 2a 8d bc 60 47 2e 3d 8f 86 d9 3d
       -0.039982986 -0.017232293 0.042548537 0.10621368
0000c0 71 a0 c9 bc 7b 1d 64 3d 99 cc 36 bd d1 55 70 bd
       -0.024612637 0.055692177 -0.044628713 -0.05867559
0000d0 96 67 fd bd ff 0c 22 bc 80 99 55 bd fd 47 88 bd
       -0.12373273 -0.009890794 -0.052148342 -0.06654356
0000e0 f1 02 3f be 77 14 5f be 6d cb fc bc 59 80 61 bd
       -0.18653466 -0.2178515 -0.03085872 -0.055054042
0000f0 6a 52 98 bd 3e d7 b0 bb 31 0d 88 bd dc f3 a5 3c
       -0.07437594 -0.0053967526 -0.06643141 0.020257883
000100 1f c2 02 3d 0c 34 06 be 14 cc 00 3e a5 02 16 3d
       0.03192341 -0.13105792 0.1257785 0.036623616
000110 3d c0 07 bd 95 63 c0 bd 20 59 a8 3d 31 6e a9 3b
       -0.033142317 -0.09393994 0.08220124 0.0051706065
000120 d6 aa de bc 1c 95 ce 3d ab 80 4a bd a4 e7 6b 3d
       -0.02718107 0.10087034 -0.049439114 0.057593957
000130 ae 7b da 3d 56 a6 4b ba cf 76 8d bd c0 e6 ba 3d
       0.10668121 -0.00077686214 -0.069074266 0.09126043
000140 01 27 b2 bd 68 c0 ad 3d be 26 8a bd 29 b7 dc 3d
       -0.08698846 0.08483964 -0.06745671 0.107771225
000150 b8 a1 a3 3d de fd 4b bb 54 46 af bd 57 6a aa 3a
       0.0798983 -0.0031126658 -0.08558336 0.0013001662
000160 e2 40 4b 3e 55 3b 3e 3d d3 68 ec bd f5 22 81 3c
       0.1984897 0.046443302 -0.11543431 0.01576374
000170 ae 1e 0d 3e ca e8 7f 3d ef a7 6c 3d 7d 78 af bd
       0.13781235 0.062477864 0.05777734 -0.08567903
000180 4a 93 dd bc b9 02 fe 3c ab 4c 93 bd b7 10 e9 3d
       -0.027047772 0.031007158 -0.07192358 0.11380141
000190 e8 3f 71 3d 1f 2f 30 bd 3b bf 10 be b2 bc 1a be
       0.058898836 -0.04301369 -0.14135449 -0.15111044
0001a0 2c 24 48 bd 31 df 2a 3d 26 79 90 ba eb e5 22 3e
       -0.04886262 0.04171676 -0.0011022433 0.15908019
0001b0 a7 38 03 be 86 ac 24 3d cd 03 d0 bc 56 7b 54 bc
       -0.1281458 0.040203594 -0.025392437 -0.012968859
0001c0 05 05 84 3d a3 9d 02 be d5 c4 2c be dd b5 d3 3d
       0.0644627 -0.12755446 -0.1687196 0.10337422
0001d0 5d 61 76 3d 06 4e 39 3d 63 a0 e5 3c de 9a 0c 3c
       0.060151447 0.045240425 0.02803058 0.008581845
0001e0 e9 99 09 bd 32 f8 4b 3c 90 8e 9d bc 3f 2c a2 bd
       -0.033594046 0.012449311 -0.019233018 -0.079185955
0001f0 6a 3a 36 3d df 72 cc bd fb f7 a6 bd aa 01 b2 bd
       0.0444893 -0.099828474 -0.08152767 -0.08691724
000200 8f 0e 5b 3d 93 24 54 bd 86 f2 b5 bd c0 40 72 bd
       0.05348068 -0.051792692 -0.08884148 -0.05914378
000210 f6 4b 62 3d 9f b7 9b bc 77 8e a9 bd 27 95 af 3b
       0.055248223 -0.019008456 -0.08279126 0.0053583565
000220 6b a6 9c bd ee ed 27 3e 2a 56 0a be 28 28 d6 3b
       -0.07648929 0.16399357 -0.13509431 0.0065355487
000230 dc e1 16 3d 0d 84 cf bd 30 88 1f bd c5 ea 03 bd
       0.03683649 -0.101326086 -0.038948238 -0.032206316
000240 8f c0 c9 3d 3a 2e 49 3d f9 b1 1b 3c 0b 3e 5a 3e
       0.09851181 0.04911635 0.009502881 0.2131273
000250 02 20 6c bd 09 55 20 3d ac de ca 3d 4b 71 eb 3d
       -0.057647713 0.039143596 0.099057525 0.11496218
000260 b1 37 70 3c 1f d8 09 3e 28 b7 53 be 36 ea 15 bb
       0.014661715 0.1346135 -0.20675337 -0.0022875196
000270 5d df 60 bd 75 80 02 3e fd 70 db bd fd 2a bb bd
       -0.054900516 0.12744315 -0.1071491 -0.09139059
000280 42 a8 db bc 1c bc ca bd 85 ea b1 3d ac 88 92 bd
       -0.02681363 -0.0989916 0.08687309 -0.07154974
000290 4e b3 0a 3d c0 fe a4 be 51 e0 a4 3d 4f 72 8a 3d
       0.033862405 -0.3222561 0.080505975 0.06760084
0002a0 a2 38 3f 3c ca b0 43 bc 60 a9 27 be 23 48 5f bd
       0.011671217 -0.011944005 -0.16373205 -0.054512154
0002b0 b3 ed bc 3d ae 79 a9 3a 2d 62 41 bd 55 d5 6f bd
       0.09225025 0.001292994 -0.04721277 -0.05855306
0002c0 33 18 00 be 89 e4 f3 bc b5 49 11 3d 61 e0 47 3d
       -0.12509231 -0.02977206 0.035470683 0.04879797
0002d0 1b 06 81 3d a9 71 11 bd e7 bf 39 3c 77 da 07 be
       0.06299993 -0.035508785 0.011337257 -0.13266931
0002e0 10 97 4f 3d 33 c9 0d 3e 75 d7 97 bd 50 c6 14 bd
       0.050681174 0.13846283 -0.07414142 -0.036321938
0002f0 b5 dc d2 bd 7b 4f fc bd 27 ad 91 bc e9 1d 02 3d
       -0.10296003 -0.12319847 -0.01778276 0.031766806
000300 ce d5 a1 3d a9 5d 4f 3e 76 9d 3c bd 17 c8 99 b8
       0.07902108 0.20250572 -0.046048604 -7.332878e-05
000310 d0 43 7f bb 27 cd 4a bd 26 70 26 3d 0b de 5a 3d
       -0.0038950332 -0.049512055 0.040634297 0.053434413
000320 16 e1 f2 3c 3f 2b 15 3d fb 6d 94 be 2d 46 6b bc
       0.029648345 0.036418196 -0.28990158 -0.014359993
000330 4e 5a 44 bd 63 4f 0a 3e dd e7 6f 3d 8f 51 1a bc
       -0.047937684 0.13506846 0.05857073 -0.009418859
000340 12 f6 de 3d 9e b8 05 3c 27 19 0a 3c 43 5a 8c 3d
       0.10886778 0.008161692 0.008428848 0.068531536
000350 68 95 bf bc f3 76 1d 3b d9 d0 a7 3c 42 ee 88 3d
       -0.023386672 0.0024027198 0.020485329 0.06686069
000360 f9 3c 55 3e fb c1 b9 3a 0e da 06 3b 16 e3 dd bb
       0.2082404 0.001417219 0.0020576748 -0.0067714555
000370 35 fe d8 3d b3 bb fe bd 6c 64 14 3c 15 49 dc 3c
       0.10595361 -0.124381445 0.009057146 0.026890317
000380 13 84 92 3c 35 70 c7 bd e8 f8 11 bd 14 86 da bc
       0.017885244 -0.09738199 -0.035637766 -0.026675262
000390 98 f3 86 bd 47 69 63 3d 1e ab ea 3d 9c ae 03 3e
       -0.065894306 0.055520322 0.11458419 0.12859577
0003a0 99 ef d9 bc fd be d7 bd 81 6f e5 3b 40 69 44 3e
       -0.026603507 -0.10534475 0.0070018177 0.19180775
0003b0 a6 c7 af 3d ef 97 b0 bd 98 0a 54 3e fb c0 a8 3d
       0.08583002 -0.08622729 0.20707166 0.08239933
0003c0 10 ed b5 bd e4 73 4c be f5 90 8d bc 6b b0 82 bd
       -0.08883107 -0.19966084 -0.017281035 -0.06381305
0003d0 53 b1 50 bc 6c 2e 04 3d 08 72 02 bd d6 1e 8a 3d
       -0.01273759 0.032270834 -0.03184703 0.06744163
0003e0 a8 b4 99 3d be 51 30 bd 66 34 46 be 01 ee 51 3c
       0.075051606 -0.043046705 -0.19355926 0.012813092
0003f0 fe 73 f9 3d 25 51 88 bd 10 a0 cd bc 6b 7f 63 bd
       0.12180327 -0.06656102 -0.025100738 -0.055541437

network_body._body_endoder.seq_layers.2.bias f4 [128]
000000 17 8d ac 3b 71 4a c5 bb c6 b3 df bb c8 a7 8b 3b
       0.0052658427 -0.006020837 -0.0068268506 0.0042619444
000010 bc cc a4 bb 81 14 99 ba 5c ea 1b 3b 76 b0 62 3b
       -0.005029289 -0.0011679084 0.0023790812 0.0034590042
000020 00 61 2d bc 5b 6d 09 3c 3c 05 a4 3b b3 18 cd 3b
       -0.010582209 0.008387889 0.005005507 0.006259048
000030 e4 b1 93 3b 35 ba c3 ba 77 e9 17 bb f4 1a 40 bb
       0.00450729 -0.0014932813 -0.0023179927 -0.002931294
000040 11 83 68 3b 01 9f ac bb b7 82 87 3b e0 1e d6 bb
       0.0035478512 -0.005267978 0.0041354555 -0.0065344423
000050 06 a6 86 3b 25 1c 0f 3b 18 9e 9b 3b 29 df d2 b9
       0.004109147 0.0021836844 0.004749071 -0.0004022059
000060 07 bb 99 bb 02 ca c9 bb 21 6b b2 3b dc 9d d7 ba
       -0.004691485 -0.0061581144 0.0054448997 -0.0016450244
000070 46 ac 4a bb e0 1e ab 3b e5 6a 8c 3b 01 0f 80 bb
       -0.0030925437 0.0052221864 0.0042852038 -0.0039080386
000080 99 c3 d0 bb 96 aa 0f bb 41 0a 1d 3a 22 65 2e 3b
       -0.0063709733 -0.0021921746 0.00059906027 0.0026610573
000090 7c 31 5f 3a 06 de 3e bc 3d 6d b4 3b 3b ae c7 bb
       0.00085141486 -0.011649614 0.0055061863 -0.006093768
0000a0 cd c0 e7 bb 3f 68 34 3b 38 88 2f 3b 1d d1 bf bb
       -0.007072544 0.0027527956 0.0026784074 -0.0058537857
0000b0 b6 8e 15 b8 e4 8f 35 3a 5f a5 a8 bb 2d 74 d4 bb
       -3.565728e-05 0.00069260434 -0.005146667 -0.006483576
0000c0 d2 4a a7 bb e0 5b ae 3b 16 03 88 3b 0c 3b b2 bb
       -0.005105355 0.005321011 0.0041507585 -0.005439168
0000d0 4a 3c 88 ba de 5e 5c 3b d7 e7 b6 3a b3 15 a6 3a
       -0.0010393944 0.0033625881 0.0013954592 0.0012671262
0000e0 25 04 a6 3b ca 04 31 3b 22 a6 d0 38 c6 06 e1 3b
       0.005066412 0.002701091 9.9491575e-05 0.0068672625
0000f0 a6 06 fe 3b 68 8d 65 bb 6c 96 f2 3b dd 7b dd bb
       0.0077522574 -0.0035026912 0.0074031856 -0.0067591504
000100 71 a0 dd b9 34 f0 3d 3c ec 22 62 3b 5e 37 82 3a
       -0.00042271943 0.011592913 0.0034505678 0.0009934714
000110 c3 28 9f 3b 33 78 83 3b 6b ea 96 3b cd 0f 08 3c
       0.004857154 0.0040121316 0.0046055815 0.008304548
000120 05 b5 96 bb 51 90 02 3c 5f 42 39 b9 02 a6 4c bb
       -0.004599216 0.007968978 -0.000176677 -0.0031226878
000130 cb e7 a4 3b 25 75 03 bc f9 ba 4f 3b 88 59 9d 3b
       0.0050325147 -0.008023535 0.0031697138 0.0048019327
000140 12 07 5d bb d7 d5 a7 bb bb 90 84 bb d7 27 3f bb
       -0.0033726138 -0.0051219272 -0.0040455735 -0.0029168034
000150 67 bb 4a 3b 15 97 51 3b de d5 82 3b 3c fe 1a bc
       0.0030934454 0.003198092 0.00399278 -0.009460028
000160 10 7b f8 bb 0a a7 f4 38 0e 26 8f 3b e5 a1 84 bb
       -0.0075830296 0.0001166594 0.00436855 -0.0040476196
000170 ec 35 bf 3b 31 d0 84 3b d3 28 85 3b 91 36 89 bb
       0.0058352854 0.0040531387 0.0040637045 -0.004187413
000180 84 c6 96 3b ba dc 0d 3b 95 c9 74 3a fd b3 a3 3b
       0.0046013016 0.0021646456 0.00093378994 0.0049958215
000190 4e 0a 92 bb b5 40 1b bb fe 27 3c 3c 1f 87 a2 bb
       -0.004456795 -0.0023689691 0.011484144 -0.0049599553
0001a0 e2 ba 82 bb ab 29 19 3c 42 55 b3 bb 77 bb 57 ba
       -0.0039895633 0.009348313 -0.00547281 -0.00082295336
0001b0 82 5c 79 bb ce 57 dd bb 14 4e 4f 3b 3d 2e 62 bb
       -0.0038049524 -0.006754852 0.0031632232 -0.0034512423
0001c0 6d 5a 68 bb 2e 35 a3 3b 6b f7 04 bb 65 27 ed 3b
       -0.0035454289 0.0049807047 -0.0020289074 0.007237362
0001d0 e3 a0 a2 bb 47 c4 ea ba 70 2e 62 bb 05 bd b5 ba
       -0.004963027 -0.0017911278 -0.0034512542 -0.0013865536
0001e0 29 ad 98 3b 36 2c 9f 3a e2 42 fc 3b 69 66 4d bb
       0.004659314 0.0012143913 0.0076984027 -0.0031341559
0001f0 c0 27 3f 3b f6 a7 99 3a fd 74 54 bb b7 be a4 bb
       0.002916798 0.001172303 -0.0032418363 -0.005027618

action_model._continuous_distribution.log_sigma f4 [1, 2]
000000 e6 b8 75 ba e6 2a 47 3c
       -0.00093735603 0.012156224

action_model._continuous_distribution.mu.weight f4 [2, 128]
000000 f4 01 eb ba b9 09 71 3c 98 ad 99 3c 11 fa 04 bc
       -0.0017929659 0.014711791 0.018759534 -0.008116261
000010 bf a9 50 3b 87 3d a0 bb ed 1d 28 3c 6b ca a8 bb
       0.0031839458 -0.004890147 0.010261041 -0.005151083
000020 10 a8 e5 3c 29 96 11 bd 06 75 ea bb 8d 53 b3 bb
       0.02803424 -0.035543595 -0.0071550636 -0.0054726065
000030 a1 3c 89 bc 31 d4 4d 3b 07 2d 67 ba 88 c3 a2 ba
       -0.016752543 0.0031406994 -0.000881866 -0.0012417892
000040 4c 04 41 bc 20 07 02 3c 60 f2 da bb ee b7 e4 3c
       -0.01178081 0.007936269 -0.0066817254 0.027919736
000050 a0 71 c3 bc 52 d6 4f bc ce b3 9c bc df 36 2d bc
       -0.023857892 -0.012685375 -0.019128706 -0.010572164
000060 5f 12 be 3c 8c a5 17 3c db 1e 2d bd 48 07 ac 3c
       0.02320212 0.009255778 -0.042265754 0.020999566
000070 86 38 83 3c b7 79 d1 bc 8c ca 6a bc 96 04 c2 3a
       0.016018163 -0.025570733 -0.0143305175 0.0014802392
000080 8f 42 f1 3c 01 45 da 3b 6e fb 8b bb c1 d1 40 ba
       0.029450683 0.006661058 -0.004271916 -0.00073554745
000090 a5 e1 0f 3c c8 5e c8 3c 08 5f cd bc f9 b3 8d 3c
       0.008781825 0.024459258 -0.025069728 0.017297732
0000a0 d0 5d d2 3c e6 da c0 bb 7d 4f 1a bb e6 72 65 3c
       0.025679499 -0.0058854697 -0.0023545914 0.014004445
0000b0 06 d0 1b bc 9e 56 d7 39 43 f3 09 3c 5c 6e 39 3c
       -0.009510046 0.0004107253 0.0084198145 0.011317816
0000c0 de 1a 1f 3c 19 52 7c bc 2f ee 15 bc 23 27 00 ba
       0.0097109955 -0.015400433 -0.009151026 -0.00048886443
0000d0 f1 11 87 3b f6 c7 b7 bb 90 3e b1 bb f1 c6 d6 bb
       0.004122012 -0.005608554 -0.0054090694 -0.0065544774
0000e0 5f db 3b bc 6a eb af ba 58 0d 18 3c 11 d5 ac bc
       -0.011465876 -0.0013421599 0.009280525 -0.021097692
0000f0 ed 17 8c bc 19 c3 5d 39 6b 40 cb bc f0 0b 06 3d
       -0.017101252 0.00021148882 -0.02481099 0.03272623
000100 c5 28 eb b9 46 c6 d6 bb 9e 36 83 bb 14 d6 7b 39
       -0.00044853069 -0.0065543978 -0.0040043136 0.00024016976
000110 83 3c 52 bc 0d 96 88 bc 49 7f 53 bc bd b4 13 bd
       -0.01283181 -0.016673112 -0.012908765 -0.036061037
000120 95 23 2e 3c 35 1e 08 bd 92 eb e0 3a ca d7 5c 3c
       0.010628601 -0.033231933 0.0017160049 0.0134791825
000130 37 7e 1c bc c1 f5 ee 3b 13 c9 26 bd d7 e5 53 bb
       -0.009551576 0.0072924797 -0.040719103 -0.003233304
000140 f3 8c f1 3b fd 20 d6 3b 5e 86 ee 3b 5b 89 86 3c
       0.007371539 0.006534694 0.0072792014 0.016422918
000150 1e eb 59 3b 92 b6 96 bb f3 f1 c6 bc 9c 41 a7 3b
       0.0033251713 -0.004599401 -0.024285292 0.005104257
000160 b0 b4 b5 3c ab ca e2 3b f2 2b bf bc 8c 43 f4 3c
       0.022180885 0.0069211326 -0.023336384 0.029817365
000170 b1 3f a4 bc a4 4f 7f ba 67 b7 77 bb 11 e1 bb 3c
       -0.020049902 -0.00097393454 -0.0037798525 0.022934468
000180 63 fb 1c bd c1 a4 14 bd 69 38 5d ba b3 db 7c bc
       -0.03832568 -0.036289934 -0.0008438887 -0.01543324
000190 23 4f 45 3c 38 87 0a 3d 7a 9c 15 bd df c0 80 3c
       0.012042793 0.03382036 -0.03652618 0.015716968
0001a0 7f de 06 3c 40 ab 44 bc be 50 90 3c 91 a9 4d 3b
       0.008231758 -0.01200372 0.017616626 0.0031381587
0001b0 a1 26 ac 3c 31 85 35 3c 35 ef c5 bb 1f 4e 13 3d
       0.021014513 0.011079119 -0.0060404786 0.035963174
0001c0 e7 62 1f 3c e8 a8 e1 bc 8f b3 cf 3b 8b 40 f8 bc
       0.00972817 -0.027546361 0.0063385437 -0.030304214
0001d0 da ee 80 3c e7 c9 e1 3a 11 3a 02 3d 70 e5 88 3c
       0.015738893 0.0017226309 0.031793658 0.016710967
0001e0 a0 8d d1 bc 13 ba 2a bc 88 ea 6d bc a0 29 ff 3c
       -0.025580227 -0.01042034 -0.014521249 0.031147778
0001f0 e4 43 af bb 8a 07 d8 ba 2a fa 3b 3c 63 57 d0 3c
       -0.0053486694 -0.0016481739 0.011473218 0.025432294
000200 75 52 a2 3b 2f 3e 8b bb 66 cd 44 bb a0 2d 13 3c
       0.0049536773 -0.004249356 -0.0030029654 0.008983046
000210 4c ad fb 3a 07 a8 82 bc 00 68 35 3d 5f 71 5b 3c
       0.0019201427 -0.015949262 0.044288635 0.013393729
000220 6d c0 aa bc c0 de 90 bb 5c 4f b2 b9 1f 06 9b b7
       -0.020843709 -0.004421085 -0.00034009933 -1.848029e-05
000230 7c 6b 18 3c a4 3a 1c 3c 85 3c 04 bb 4d 7e 6c bc
       0.00930297 0.009535465 -0.0020177674 -0.014434409
000240 03 8c 35 3c 0b 73 14 bc b8 97 07 b9 6c a5 08 3b
       0.011080745 -0.0090606315 -0.00012931123 0.0020850552
000250 fd c6 7e bc 24 d8 f8 3c 49 e2 a9 3c ad 6c a4 bc
       -0.015550372 0.030376501 0.020737784 -0.020071352
000260 b9 52 7c bd e7 df 92 bc ca b2 ba 3b 4a d0 d6 3c
       -0.061602328 -0.01792903 0.005697583 0.026222367
000270 7c 41 12 3c 98 fd fb 3c c6 cf 18 bc 29 36 3c bc
       0.0089267455 0.030760571 -0.009326881 -0.011487522
000280 ff 3b 4a bc 47 a2 d6 bc 5c 02 1c bc 0b 34 5d 3c
       -0.012343406 -0.026200427 -0.009522047 0.013501178
000290 a0 6e 8c 3c 73 9d 9f ba 8f 1e 7a 3b fc 52 90 bb
       0.017142594 -0.0012177661 0.0038165187 -0.0044044238
0002a0 65 cb 0f ba a0 ab c1 3c 2d 39 3a 3c 24 68 3d bd
       -0.0005485325 0.023641407 0.011366171 -0.046241894
0002b0 c1 a3 c4 bc 34 54 08 3c 07 3a f4 bc d5 47 5a 3a
       -0.024003865 0.008320857 -0.029812826 0.0008326744
0002c0 da 13 36 bb 22 90 a8 3c d4 d7 16 ba f0 f0 85 3a
       -0.0027782829 0.02057654 -0.0005754207 0.00102189
0002d0 53 4b 96 3c 7f de 96 bb f4 a2 57 bc b2 86 1e bc
       0.018346464 -0.0046041603 -0.01316141 -0.009675669
0002e0 46 51 9b 3c 40 db 4d 3c da b3 03 3d cc 99 75 3c
       0.018959653 0.01256448 0.03215394 0.014990281
0002f0 84 c2 13 bb a2 b2 97 bb 63 ec 33 3b 3e e8 43 bc
       -0.002254636 -0.004629449 0.002745413 -0.011957226
000300 4c 17 0d 3b b2 b5 31 b8 18 dc d2 bb 60 f1 c0 3c
       0.0021528779 -4.2369305e-05 -0.0064349286 0.023552597
000310 7f bc 1b 3c 7d f4 88 bc e9 8b be 3c 77 31 45 bc
       0.00950539 -0.016718144 0.023260074 -0.012035719
000320 f3 01 29 bb bf 49 94 3b b1 0b e7 bb ae b1 9b 3b
       -0.0025788515 0.004525393 -0.0070509543 0.0047514057
000330 2e cc 65 3b ec 7d 4a bc 74 37 c2 3b de 64 b2 3b
       0.0035064328 -0.012359124 0.0059270207 0.005444153
000340 e2 57 2b 3b d6 8e 9c bc 5d 33 8d 3b 01 62 07 bd
       0.0026144912 -0.019111078 0.0043091015 -0.03305245
000350 c3 ef 4b 3c d1 0b fe 3c 5b b1 c5 3c b9 9c c7 bb
       0.0124473 0.031011494 0.024132421 -0.006091681
000360 b4 5d 63 bb 37 9b 05 3d 85 f3 d9 3b f0 65 e1 3a
       -0.0034693303 0.032618728 0.0066513442 0.0017196517
000370 5f 17 31 3c 56 d8 ab ba 1d c5 c1 3c 4c d4 42 bb
       0.010808795 -0.0013110738 0.023653561 -0.002972859
000380 f0 c9 fa ba 36 67 02 bd bc 28 e3 3c f5 0c 62 ba
       -0.0019133668 -0.03183671 0.027729385 -0.00086231466
000390 4f 49 b4 bc cd b0 f6 3c a6 5a 86 3c d2 14 2f 3c
       -0.022007613 0.030113602 0.016400646 0.010686116
0003a0 61 35 51 bc d5 5d b9 3b 20 66 e4 bc 9e b6 82 3b
       -0.012769074 0.0056569376 -0.027880728 0.003989055
0003b0 5f 78 85 3c f7 27 0d bc 6e 6f 82 ba 31 7d 03 3d
       0.016292749 -0.008615485 -0.0009951422 0.032101814
0003c0 cd e7 10 3c 47 25 c7 3c 2c 08 3d 3c 34 61 ee 3b
       0.008844328 0.024309767 0.011537593 0.007274771
0003d0 cf 7c 1e bc 12 e4 90 bb 90 3d 01 3b e7 bf 0e 3d
       -0.009673311 -0.0044217193 0.0019720532 0.03485098
0003e0 ac 2e cf 3b 71 b6 cb bc 2f 9c 0b 3b 8d d4 1a bd
       0.0063227024 -0.024867268 0.002130281 -0.03780036
0003f0 73 61 11 3c e8 67 36 3b 32 89 3b bd b1 07 49 bb
       0.008873331 0.002783293 -0.045785137 -0.003067475

action_model._continuous_distribution.mu.bias f4 [2]
000000 bf ba c2 bb 7f 85 1e 3b
       -0.005942672 0.0024188457

action_model._discrete_distribution.branches.0.weight f4 [1, 128]
000000 ab a7 a3 3b f8 fa bc 3a d8 3c 98 bb 47 b9 54 3c
       0.004994353 0.0014418056 -0.004645925 0.012983627
000010 bd ea 72 bb 85 72 12 bc 71 78 85 bb 0a 3e fc 3a
       -0.0037066184 -0.008938436 -0.0040731956 0.0019244563
000020 47 52 21 3b 00 60 9c 3a f7 17 95 bb e5 7d 05 3b
       0.0024615692 0.0011930466 -0.004549976 0.0020369228
000030 1f fc 65 3c 45 1b 82 bc 58 f0 97 bb 79 81 8d bc
       0.014037161 -0.015882144 -0.0046368055 -0.017273651
000040 1e 77 14 bb d1 08 01 3c ad 5b 05 3c 87 0b 9b bb
       -0.0022654007 0.007875637 0.008139533 -0.004731599
000050 d1 04 c5 3a 4f 1f a0 3b 92 b6 7f bc aa d3 f1 3b
       0.0015031343 0.004886545 -0.015607493 0.0073799687
000060 15 e5 fc 3a 11 c1 0f 3b db e1 0e 39 85 26 62 bc
       0.0019294346 0.0021935145 0.00013626313 -0.013803129
000070 9c 8b 18 bb a3 84 25 3c 1d 00 df 38 9f 0f 0d bc
       -0.0023276573 0.010102424 0.0001063349 -0.008609681
000080 cb 78 ee 3b a5 47 e8 3b 10 93 c1 bb 13 f9 9d 3c
       0.0072775832 0.007088619 -0.005907424 0.019283807
000090 69 63 87 3c 95 40 1e 3b 2e 52 84 bb bf ed 7f 3a
       0.016526895 0.002414738 -0.004038117 0.0009762905
0000a0 3b 1d e1 3a 61 84 21 3c af 5b ba ba e1 5c aa bc
       0.0017174849 0.009858222 -0.0014217998 -0.020796241
0000b0 67 eb 4d 3c 27 38 76 bc f9 68 82 ba c5 96 23 3a
       0.012568331 -0.015028036 -0.0009949497 0.0006240423
0000c0 f7 e3 89 3a e5 46 1e bc 17 0c e6 3b e3 db b9 3a
       0.0010520209 -0.009660457 0.007020484 0.0014179911
0000d0 e1 0f 35 3c fb cd 64 bc 3f 0f c3 ba 15 b1 14 bb
       0.011051149 -0.013965125 -0.0014881863 -0.0022688557
0000e0 f7 17 f0 bb 17 df d5 3b c5 f2 e8 ba 62 3b ee 3a
       -0.0073270756 0.0065268385 -0.0017772546 0.0018175656
0000f0 eb c0 f9 bb a4 8c 0f 3c 94 5b 86 3a c5 fb 7e 3b
       -0.0076218746 0.008761559 0.0010250681 0.003890739
000100 b0 1b fd ba a5 81 d4 bb c5 fe e2 bb 05 84 6a 38
       -0.001931062 -0.0064851814 -0.0069273436 5.59129e-05
000110 a8 2f 65 3c ef 5b 96 bc bb 1c 34 3c bf c5 18 bb
       0.013988413 -0.018354384 0.010993178 -0.0023311225
000120 42 1f 62 bb 5d 5d 10 bc 93 3e 81 bb 82 6d 7c 3a
       -0.0034503494 -0.008811322 -0.003944227 0.0009629355
000130 91 09 03 bc 77 83 48 3c 5b 21 b4 bb 73 cc a3 3c
       -0.007997886 0.012238375 -0.0054971403 0.01999495
000140 12 a1 69 3a db 11 5a 3b 80 c8 5e bc d9 c7 8e 3b
       0.0008912246 0.0033274803 -0.013597608 0.00435732
000150 18 eb dd 3b 74 60 ac bc c8 41 bd 3b ba c9 a5 3b
       0.00677241 -0.021042086 0.005775664 0.005059448
000160 c3 ae 55 3b c0 a1 7e 3b a7 94 8c 3c 8b 4e ba bb
       0.0032605387 0.0038853735 0.017160727 -0.0056856326
000170 9d cb 60 3b 82 36 eb bb d3 9d 15 3c 1a 27 9d 3c
       0.003430105 -0.0071781287 0.0091318665 0.019183684
000180 a3 aa 2a bc 1b 11 0e 3c 12 a7 ad 3a d3 d2 48 bb
       -0.0104166595 0.00867107 0.0013248643 -0.003064324
000190 0b da 38 3c 89 9d 04 bc 17 a1 12 bc b1 4f b5 bb
       0.011282454 -0.0080942 -0.00894954 -0.0055331816
0001a0 6f 27 99 3b e8 1c a4 3c 8c 5f cc ba 14 66 c8 3b
       0.0046738903 0.020033315 -0.001559244 0.0061156843
0001b0 4f 61 b6 3b 5b 3d 12 bc 3d 00 eb bb 23 b2 4d 3c
       0.0055657993 -0.008925761 -0.0071716593 0.012554678
0001c0 80 9a 4c 3b 57 2d a0 3a c5 8f 9f bb c1 77 b6 3b
       0.003122002 0.0012220544 -0.0048694336 0.005568475
0001d0 31 7d 03 ba 4f 12 4e bc d0 8d f2 3b a9 88 99 3c
       -0.00050159084 -0.012577607 0.0074021593 0.018741922
0001e0 87 ca 0c bc 27 93 65 3c 2b ff 6e bb 5e 6a 4b bc
       -0.008593208 0.014012135 -0.003646801 -0.012415497
0001f0 78 39 b2 bb a3 1c 01 bc 92 f9 65 3a dd 60 a8 3b
       -0.0054389797 -0.007880363 0.00087728456 0.0051385
