results/ag17/PlatformRotate/checkpoint.pt (torch, 661833 bytes, 39 tensors)

network_body._body_endoder.seq_layers.0.weight f4 [128, 78]
0	0xbe231bbb	-0.15928547
1	0xbec546c5	-0.38530555
2	0xbdfcce11	-0.123439915
3	0x3d901846	0.0703588
4	0xbcb489b4	-0.022038318
5	0x3e2083a1	0.15675212
6	0xbe1ccc2a	-0.15312257
7	0xbd3a2d9f	-0.045453664
8	0xbdcc7fcd	-0.099853136
9	0x3de7e039	0.11322064
10	0xbd8ac34c	-0.06775531
11	0xbd21bd70	-0.039487302
12	0xbd526af7	-0.05137154
13	0x3dd025ef	0.10163485
14	0xbe6856ce	-0.22689363
15	0xbdd23ca8	-0.102654755
16	0x3e061525	0.13094003
17	0xbd793205	-0.060838718
18	0x3c00f204	0.007870201
19	0x3d19340a	0.037403144
20	0x3e0e36c7	0.13888083
21	0x3e0c9976	0.13730416
22	0x3ca2e2b7	0.019883497
23	0x3d89cb09	0.06728179
24	0x3e0b1144	0.13580805
25	0x3d111834	0.035423473
26	0xbc5f9ee9	-0.013648727
27	0xbbf14b63	-0.007363723
28	0xbdab7b5c	-0.08373138
29	0x3da59a42	0.08086063
30	0xbddafd4c	-0.10692844
31	0x3c0b4a6f	0.008501633
32	0xbe8388c0	-0.2569027
33	0xbddeaf1b	-0.108732425
34	0xbd65a555	-0.056065876
35	0xbdf89546	-0.12137847
36	0xbd0ad572	-0.033894964
37	0x3d8cf187	0.06882005
38	0xbd19e8c2	-0.03757549
39	0xbce99bc3	-0.028516656
40	0x3cb8b101	0.02254534
41	0xbe565af3	-0.20933132
42	0x3c91da89	0.017804401
43	0xbe02dd31	-0.1277969
44	0x3d2d7a01	0.04235268
45	0xbde674c3	-0.11252739
46	0xbbcb8664	-0.006211089
47	0x3c2aa93f	0.010416328
48	0x3ddc7990	0.10765374
49	0xbe08e3eb	-0.13368194
50	0x3dcdb263	0.1004379
51	0x3d01eef0	0.03172201
52	0xbdb64dc0	-0.089015484
53	0x3e7f548a	0.24934593
54	0xbe0fe6ea	-0.1405293
55	0x3defc60a	0.11707695
56	0x3ceb3f5a	0.028716732
57	0x3e02a166	0.12756881
58	0x3d8f16f1	0.069867976
59	0x3984a0fc	0.00025296945
60	0x3e67806f	0.22607587
61	0xbd3f5fbd	-0.046722163
62	0x3e4a2e50	0.1974423
63	0x3d4ea473	0.0504498
64	0x3d244e93	0.040113997
65	0x3c4dbff1	0.012557969
66	0xbdac5ca4	-0.08416107
67	0xbe3cc452	-0.18434265
68	0x3cba97ae	0.022777405
69	0x3d80183d	0.06254623
70	0xbdd6994f	-0.1047846
71	0x3d463d6a	0.048398413
72	0xbde9ce11	-0.11416257
73	0x3c46ee35	0.012141754
74	0xbd6e9da2	-0.0582558
75	0x3d952d77	0.07284062
76	0xbdba79ed	-0.09105287
77	0xbdef47b1	-0.11683596
78	0x3d2de53e	0.04245495
79	0x3cabacbe	0.020956393
80	0x3d03dcf6	0.032193147
81	0xbdd53242	-0.104099765
82	0x3dec152c	0.11527476
83	0xbddadd65	-0.10686759
84	0xbd65f4fa	-0.05614183
85	0xbe4f76fb	-0.20260231
86	0x3df1ba80	0.1180315
87	0x3cd408f3	0.025883174
88	0xbde263f9	-0.110542245
89	0x3dd7494a	0.10512026
90	0xbde45635	-0.11149255
91	0x3e979e77	0.29613087
92	0x3e34dfb8	0.17663467
93	0xbddcf42a	-0.10788758
94	0xbe4e8806	-0.20169076
95	0xbd854efe	-0.06509207
96	0xbe4fb59a	-0.20284119
97	0x3a85bf9a	0.0010204196
98	0x3e07ad68	0.13249743
99	0x3e1bb1da	0.15204564
100	0xbd8bd542	-0.06827785
101	0x3dcd53a1	0.100257166
102	0xbdb1cb60	-0.08681369
103	0x3dfb1e28	0.12261611
104	0xba9e8ecb	-0.0012096999
105	0x3d9fc57a	0.078013375
106	0xbc2d3578	-0.01057183
107	0x3e06b4ce	0.13154909
108	0xbe07d2e8	-0.13264048
109	0x3dc093ad	0.09403167
110	0x3d18123d	0.03712677
111	0xbd56365a	-0.052297927
112	0x3e447bcb	0.19187848
113	0xbc509f06	-0.012733227
114	0xbd96431e	-0.0733702
115	0xbd87e38c	-0.06635198
116	0xbcdae8aa	-0.026722271
117	0x3da7a87a	0.08186431
118	0x3daa13bf	0.083045475
119	0xbda2acdd	-0.07943127
120	0x3d8b87df	0.06813025
121	0xbc6e4391	-0.014542476
122	0xbd908d26	-0.07058172
123	0xbd578dcd	-0.052625466
124	0x3dfcb3d5	0.12338988
125	0xbc7c11d4	-0.01538511
126	0x3bad433d	0.0052875564
127	0xbd215d16	-0.039395414
128	0x3cd62dbd	0.026144857
129	0xbd877f12	-0.066160336
130	0x3e9b4ee9	0.3033364
131	0xbe278e96	-0.16362986
132	0x3d81058a	0.062998846
133	0x3c884a88	0.016637102
134	0x3de90422	0.113777414
135	0x3e523168	0.2052666
136	0xbe37174a	-0.17879978
137	0x3dc4135b	0.09574004
138	0x3d07c1c4	0.033143774
139	0x3d7c499b	0.061593633
140	0x3e08fd39	0.13377847
141	0xbdd8b4ea	-0.105813816
142	0x3dea0f1e	0.114286646
143	0xbcd0b87e	-0.025478598
144	0xbc70078f	-0.01465024
145	0xbd5a17ae	-0.05324524
146	0x3ddb52a0	0.10709119
147	0x3d87dc9e	0.06633876
148	0x3ddb103a	0.10696454
149	0xbd83eb92	-0.06441416
150	0x3cb8e14e	0.022568371
151	0x3a8c896a	0.0010722105
152	0xbe2fac4b	-0.17155568
153	0xbd38df0c	-0.04513459
154	0x39900f18	0.00027477066
155	0x3ddf2156	0.1089503
156	0x3c89e91c	0.016834788
157	0xbdaca746	-0.084303424
158	0x3c05b4b2	0.008160757
159	0xbd873b3a	-0.066030934
160	0xbc69b2dc	-0.014263835
161	0xbd7c86dd	-0.061652053
162	0xbe76c66d	-0.24099131
163	0x3d91636a	0.0709904
164	0x3df58ddb	0.119899474
165	0xbd9e5405	-0.07730869
166	0xbd9a6259	-0.075382896
167	0x3c2ba641	0.01047665
168	0x3c227fb4	0.009918142
169	0xbe579c14	-0.21055633
170	0x3e2020cf	0.15637515
171	0x3e51cb60	0.20487738
172	0xbd6d6d72	-0.057965703
173	0x3cf756e7	0.030192805
174	0xbdac209a	-0.08404656
175	0x3e210514	0.15724593
176	0xbdd8c970	-0.10585296
177	0x3d72d0cd	0.05928116
178	0x3de58857	0.112076454
179	0xbcaa7b29	-0.02081068
180	0x3e19210c	0.14954013
181	0x3d7a49c7	0.061105516
182	0xbe1fd86f	-0.15609907
183	0xbe5de701	-0.21670152
184	0xbd55b912	-0.05217845
185	0xbdd46260	-0.10370326
186	0x3db33990	0.087512136
187	0x3cb19bf1	0.021680804
188	0xbd9e7709	-0.07737548
189	0xbd146a2d	-0.03623407
190	0xbcbaac9e	-0.022787388
191	0xbd40a7a1	-0.047034863
192	0xbe4f8720	-0.2026639
193	0xbd656ce5	-0.056012053
194	0x3dea6612	0.114452496
195	0xbbfa6dfb	-0.007642505
196	0x3e0cd1c0	0.13751888
197	0xbd632c00	-0.055461884
198	0x3de6c4e0	0.1126802
199	0xbdd92a4d	-0.10603771
200	0xbe25b230	-0.16181254
201	0xbd9735df	-0.07383322
202	0xbe94e219	-0.2907875
203	0xbe3209d2	-0.17386559
204	0xbb7058ce	-0.0036674025
205	0xbdb3234a	-0.08746965
206	0xbe44caf1	-0.19218041
207	0x3e6948b9	0.22781648
208	0x3d781c7e	0.060574047
209	0xbe2b2f0b	-0.16717164
210	0x3d73bdc2	0.05950714
211	0xbcd7c523	-0.02633912
212	0xbd9965ca	-0.07490118
213	0x3e8fd46e	0.28091758
214	0xbdbb869c	-0.09156534
215	0x3e264ac9	0.16239466
216	0xbe3a9d92	-0.18224171
217	0xbcae8015	-0.021301309
218	0x3d5efee9	0.05444232
219	0xbd976005	-0.07391361
220	0xbe50515e	-0.20343539
221	0x3c049747	0.008092708
222	0xbe747470	-0.23872542
223	0xbce779c0	-0.028256297
224	0x3e5fced8	0.21856248
225	0x3d7cf9aa	0.061761536
226	0x3d574952	0.052560158
227	0x3d6309f5	0.055429418
228	0xbcd23d2b	-0.025663933
229	0x3e228719	0.15871848
230	0x3e02261f	0.12709855
231	0xbbb25e51	-0.0054433723
232	0xbcee0fea	-0.029060323
233	0x3be5a475	0.00700813
234	0x3dc6e4ec	0.09711632
235	0xbda96860	-0.08271861
236	0xbdf341c2	-0.11877777
237	0xbd3cc0aa	-0.046082176
238	0xbd46635c	-0.0484346
239	0xbdf06335	-0.11737672
240	0x3d330e5a	0.04371486
241	0x3d57e263	0.052706134
242	0x3d2a4bc3	0.04157616
243	0xbc594d14	-0.013263006
244	0x3da863a4	0.0822213
245	0xbe24938e	-0.16071913
246	0x3d162ea7	0.036665585
247	0x3d4ce024	0.050018445
248	0xbd157a6a	-0.036493696
249	0x3e3121be	0.17298028
250	0x3ceba59b	0.02876549
251	0x3e17fe6a	0.14843145
252	0xbe2d1264	-0.16901547
253	0x3e8a13ea	0.26968318
254	0x3d03d14c	0.032182023
255	0xbbd6da77	-0.0065568048

network_body._body_endoder.seq_layers.0.bias f4 [128]
0	0xbc131efa	-0.008979553
1	0x3ad70692	0.0016405156
2	0xba8d41c1	-0.0010777042
3	0xbc380cc0	-0.011233509
4	0x3be0ad93	0.006856629
5	0x3b9621a2	0.004581646
6	0x3b5f7338	0.0034095775
7	0xbb9b773e	-0.0047444394
8	0x3c003efd	0.007827518
9	0xbc002095	-0.007820268
10	0x3b00609e	0.0019588838
11	0xbad41bdd	-0.001618262
12	0xbc1c250a	-0.009530315
13	0x3b9b8aa2	0.004746751
14	0x3d2ca2ec	0.042147562
15	0x3a9a5b27	0.0011776433
16	0x3c8c2c68	0.017111018
17	0x3963bfca	0.00021719854
18	0x3c246547	0.010033912
19	0x3c224158	0.0099032745
20	0x3bc5dab3	0.006038034
21	0x3ca1cddc	0.019751482
22	0x3c7e7f54	0.015533287
23	0x3c6f5e76	0.014609924
24	0xbc8f6783	-0.017505413
25	0xbc0fd52d	-0.008778852
26	0xbc3f4ae3	-0.011675569
27	0xbbb4e3d2	-0.0055203224
28	0x3b122b0b	0.0022303488
29	0x3c8322ea	0.01600786
30	0x3976d547	0.0002353984
31	0xbbfa7392	-0.0076431716
32	0xbc23e4e9	-0.010003307
33	0x3c99a58b	0.018755695
34	0x3c0b4f9e	0.008502869
35	0x3b4ff61f	0.0031732393
36	0xbbd11096	-0.006380151
37	0x3c88922f	0.016671268
38	0x3bf1988f	0.0073729227
39	0x3ad38bda	0.0016139701
40	0x3be06f0d	0.006849176
41	0xbc500c14	-0.012698192
42	0xbc32c634	-0.010911513
43	0x3b8e5f3a	0.004344848
44	0xbb14bb97	-0.002269482
45	0x3c37ed9c	0.011226084
46	0x3c45495c	0.012041416
47	0xbbc113cb	-0.005892252
48	0x3a46cd2e	0.0007583675
49	0x3a48fc58	0.00076669967
50	0xbc3e0e88	-0.011600144
51	0x3b230c77	0.0024879256
52	0xbbbbb13f	-0.0057279165
53	0xbc885f84	-0.016647108
54	0x3c5f811f	0.013641625
55	0x3c71b013	0.014751452
56	0xbb9ddd00	-0.004817605
57	0xbc0cd2b3	-0.0085951565
58	0xbc22f96b	-0.009947161
59	0xbbc0fd5d	-0.0058895783
60	0xbcac1856	-0.021007698
61	0xbc4098bb	-0.011755164
62	0xb9cf496a	-0.00039536814
63	0xbc0cd5d9	-0.008595907
64	0xbb271f39	-0.0025500788
65	0xbc24738a	-0.010037312
66	0xbc06714b	-0.008205722
67	0xbbf943b1	-0.0076069464
68	0x3cb006a4	0.021487541
69	0xbc8f1b7c	-0.01746916
70	0xbc255c93	-0.010092872
71	0x3b55c480	0.0032618344
72	0x3c43a18b	0.01194037
73	0xbbb1f6cf	-0.005431033
74	0x3c6f31b4	0.0145992525
75	0x3b7a3b3e	0.0038182284
76	0x3c8f5fc2	0.017501716
77	0xbbae5bc3	-0.0053209974
78	0xbb608bdb	-0.0034263048
79	0x3cb3237d	0.021867508
80	0xbc991ac0	-0.018689513
81	0xbb1e12b3	-0.0024120032
82	0x3c80373b	0.015651336
83	0x3bbf03c3	0.005829306
84	0xbbbb7b3b	-0.0057214773
85	0x3aaa68d7	0.0013001215
86	0x3c169c69	0.0091925645
87	0xbb6f3407	-0.0036499517
88	0xbb9bf6f1	-0.0047596623
89	0x3bfaec0f	0.007657535
90	0x3c4a9a8b	0.0123659475
91	0xbc9241d8	-0.017853662
92	0xba58172b	-0.00082431984
93	0xbb973688	-0.004614655
94	0xbc0af30e	-0.0084808
95	0xbca95540	-0.020670533
96	0x3c9f5d65	0.019453714
97	0x3cba64df	0.022753177
98	0x3b804fd9	0.0039157686
99	0x3c62e581	0.013848663
100	0x3b532c20	0.0032222345
101	0x396fc262	0.0002286523
102	0x3b2631df	0.0025359315
103	0x3bb76855	0.005597154
104	0xbcb1a14a	-0.021683354
105	0x3b9b8699	0.00474627
106	0xbc047efe	-0.008086918
107	0x3bd74c8f	0.006570406
108	0x3be48bd9	0.006974679
109	0xbc054403	-0.008133891
110	0xbb8b6f03	-0.004255177
111	0xba2f0810	-0.00066769216
112	0x3c693ede	0.01423618
113	0xbbac171e	-0.005251779
114	0xbb263c88	-0.002536567
115	0x3ab3263c	0.0013668011
116	0xbc3433ff	-0.010998725
117	0xbb04ff74	-0.0020293863
118	0xbc261236	-0.010136178
119	0x3b7c00e3	0.0038452677
120	0xbccdc6cf	-0.025119213
121	0x3b4a437d	0.003086298
122	0xbc1757c8	-0.009237237
123	0x3c67d61d	0.01415017
124	0xbae1570c	-0.001719208
125	0xb9cca489	-0.000390325
126	0xbad04885	-0.0015890753
127	0x3c5801b1	0.013183997

network_body._body_endoder.seq_layers.2.weight f4 [128, 128]
0	0xbe51596a	-0.20444265
1	0x3dd8a7b4	0.10578862
2	0xbc526f6c	-0.012843948
3	0x3d3fecc5	0.04685666
4	0x3dc1f92c	0.09471354
5	0xbdadce56	-0.08486621
6	0xbd9d16ef	-0.0767039
7	0x3b445b0d	0.0029961497
8	0x3c1e8247	0.009674615
9	0xbd950acd	-0.07277451
10	0x3d08e605	0.03342249
11	0x3c8edd20	0.017439425
12	0xbd0b602c	-0.034027264
13	0xbd270ecf	-0.040785607
14	0xbe04a68a	-0.12954155
15	0xbddcc847	-0.10780387
16	0xbbb83ac4	-0.00562224
17	0x3da64641	0.081188686
18	0xbca8c0d7	-0.020599766
19	0x3d55b8c9	0.052178178
20	0x3b4293bf	0.0029690114
21	0xbd936458	-0.071968734
22	0x3e122a59	0.14273967
23	0x3e11ff36	0.14257511
24	0x3e16b069	0.14715733
25	0xbc132856	-0.008981785
26	0x3dd6514c	0.10464725
27	0xbbf907c2	-0.0075998018
28	0x3de61226	0.1123393
29	0xbc6c1194	-0.014408488
30	0xbd42a987	-0.047524955
31	0xbe2eeee7	-0.17083322
32	0xbd8ba5f9	-0.06818766
33	0x3d603fff	0.05474853
34	0xbca7de9c	-0.02049189
35	0x3d750133	0.059815597
36	0xbdb0d49a	-0.086343005
37	0x3ca476f3	0.02007625
38	0x3d803b80	0.06261349
39	0x3d9a1269	0.07523043
40	0xbd1299b9	-0.035791133
41	0xbd05312a	-0.03251759
42	0x3d95a676	0.073071405
43	0x3d483af3	0.048884343
44	0xbbf7a833	-0.0075578927
45	0x3de43716	0.11143319
46	0x3ae61b84	0.0017555808
47	0x3c9b5be9	0.018964725
48	0xbd88cf40	-0.06680155
49	0x3cd4c144	0.025971062
50	0x3d4a2aa3	0.049357068
51	0xbd9343db	-0.07190677
52	0x3e07d6a3	0.13265471
53	0xbe097984	-0.13425261
54	0x3d075f50	0.03304988
55	0xbd2394f3	-0.03993697
56	0xbc651b2b	-0.013983528
57	0x3c36833f	0.01113969
58	0x3c684e1e	0.014178781
59	0xbe38de77	-0.18053614
60	0x3d1eada9	0.038739834
61	0x3d35176a	0.044211783
62	0x3dc3b0fb	0.09555241
63	0xbb3b4340	-0.002857402
64	0x3dcc80d7	0.09985512
65	0xbdae1119	-0.08499355
66	0x3dcb5d77	0.099299364
67	0x3e051ede	0.13000056
68	0x3c7f5706	0.015584713
69	0x3e3fead6	0.18741927
70	0xbe35e247	-0.17762099
71	0xbbebc00b	-0.007194524
72	0xbe259262	-0.16169122
73	0xbd2aa38d	-0.04165988
74	0xbda17714	-0.078840405
75	0xbe151645	-0.14559276
76	0xbdc27f9b	-0.09496995
77	0xbc31eaba	-0.010859186
78	0x3c97b712	0.018519912
79	0xbdac1d45	-0.0840402
80	0xbd86b36d	-0.065771915
81	0x3d87b465	0.066262044
82	0x3de64208	0.11243063
83	0xbe30c5d1	-0.17262961
84	0xbdb0953d	-0.08622215
85	0x3cd330f9	0.025780188
86	0xbafdbddd	-0.0019358952
87	0xbdad86cc	-0.08472976
88	0xbdbc2f59	-0.09188718
89	0xbe2548fa	-0.1614112
90	0xbcdea420	-0.02717787
91	0x3d754d78	0.059888333
92	0x3d8791be	0.06619595
93	0x3c2c8ec7	0.010532088
94	0x3d605d83	0.05477668
95	0xbe507196	-0.2035583
96	0xbca0e6dc	-0.019641332
97	0xbc6e67e0	-0.014551133
98	0x3d0dc802	0.03461457
99	0xbdeaf442	-0.1147237
100	0xbe21e429	-0.15809692
101	0xbd689079	-0.056778405
102	0xbdf16c88	-0.11788279
103	0x3e151914	0.14560348
104	0x3d8c03ec	0.068366855
105	0xbc553436	-0.013012936
106	0x3b7115ce	0.0036786678
107	0xbd7e94ee	-0.06215375
108	0xbda9efd7	-0.08297699
109	0xbd5352e0	-0.051592708
110	0xbe27ae63	-0.16375117
111	0x3dcb15cb	0.09916266
112	0x3e179f6d	0.1480691
113	0xbd6c4fce	-0.057693295
114	0xbd869e4e	-0.06573163
115	0xbbeabb3f	-0.0071634348
116	0x3ca3714b	0.019951483
117	0x3e0f8999	0.14017333
118	0xbc9baf89	-0.0190046
119	0x3e0448f1	0.1291845
120	0x3d2adac2	0.04171253
121	0xbd79368d	-0.06084304
122	0xbcbbc1c5	-0.022919545
123	0xbc35048f	-0.01104845
124	0x3d861a81	0.06548024
125	0x3db13829	0.0865329
126	0xbdcd7931	-0.10032881
127	0x3ccfebb6	0.02538095
128	0xbd19e0e9	-0.037568007
129	0xbd6d053e	-0.057866327
130	0xbdd4a86b	-0.10383686
131	0xbdb01033	-0.0859684
132	0xbb39ebb5	-0.0028369252
133	0xbd2b7e5e	-0.04186856
134	0x3ded5d77	0.11590093
135	0x3ddadd1c	0.106867045
136	0xbba14ac7	-0.004922244
137	0xbdb6f172	-0.08932771
138	0x3d5a93c9	0.053363595
139	0x3d86710f	0.06564533
140	0xbe4756c1	-0.19466688
141	0x3e40ea25	0.18839319
142	0xbd3204e9	-0.043461714
143	0xbc0fd76a	-0.008779386
144	0xbd2bcdd2	-0.041944332
145	0x3d223bad	0.039607693
146	0xbdcb6d12	-0.09932913
147	0xbce9f782	-0.028560404
148	0x3e08063a	0.13283625
149	0xbcf02781	-0.029315712
150	0xbd883490	-0.066506505
151	0xbe244173	-0.16040592
152	0xbd432ce5	-0.047650237
153	0xbdcd523b	-0.1002545
154	0xbe48fa8e	-0.19626829
155	0x3dba96af	0.09110772
156	0x3d4e886e	0.05042308
157	0xbda24f20	-0.07925248
158	0xbc24ad98	-0.010051154
159	0x3c15435c	0.009110298
160	0xbd6dbd63	-0.05804194
161	0xbb4733a8	-0.003039578
162	0x391e696b	0.00015107325
163	0xbd0d78c6	-0.034539007
164	0xbddb1248	-0.10696846
165	0x3deb0ccb	0.114770494
166	0xbcd7376b	-0.026271543
167	0x3cb6a006	0.022293102
168	0x3d4c3974	0.04985948
169	0x3d874148	0.06604248
170	0x3d42802d	0.04748552
171	0x3ce1b40f	0.027551679
172	0xbd7fd320	-0.062457204
173	0x3dcf4e2b	0.10122331
174	0xbe2788e7	-0.16360818
175	0x3e4abe7c	0.19799227
176	0x3b86f274	0.004118258
177	0x3e0c5c93	0.1370719
178	0xbd4eff9e	-0.050536744
179	0xbe2bc641	-0.16774847
180	0x3e3045f2	0.17214182
181	0xbd545465	-0.051838297
182	0xbded35b3	-0.11582508
183	0x3cdb5996	0.026776116
184	0x3de848c2	0.113420025
185	0xbd833ba4	-0.0640786
186	0x3d88652c	0.06659922
187	0xbe2ee920	-0.17081118
188	0xbe24ca4f	-0.160928
189	0x3e065ebb	0.13122074
190	0xbd7aefac	-0.061263725
191	0x3e4161d8	0.1888498
192	0x3bb50121	0.005523816
193	0xbdb37be7	-0.08763867
194	0x3e1189f6	0.14212784
195	0x3e44d8de	0.19223353
196	0x3dd41ff2	0.103576556
197	0x3d772a35	0.060342986
198	0xbcb4d6bd	-0.022075051
199	0x3d4e3dcf	0.050351914
200	0xbcdba389	-0.026811378
201	0xbbca4c18	-0.006173622
202	0x3c84eada	0.016225267
203	0xbe01666f	-0.12636732
204	0x3cb3c1c6	0.021942984
205	0xbd1ca755	-0.038245518
206	0x3d35f2c5	0.044420976
207	0xbd652def	-0.05595201
208	0x3d3d24d1	0.04617769
209	0x3d1da25e	0.038484924
210	0x3dabede3	0.08394983
211	0xbe42b568	-0.19014513
212	0x3ce75e38	0.02824317
213	0xbd56092a	-0.052254833
214	0x3d65b548	0.056081086
215	0x3db74a35	0.08949701
216	0xbd303adf	-0.043024894
217	0x3c3e5b07	0.011618382
218	0x3d3ce8c4	0.04612042
219	0xbcf9c08a	-0.030487318
220	0xbd8a55f7	-0.06754678
221	0xbdb0fc23	-0.08641841
222	0x3d885cb6	0.06658308
223	0x3cfa1710	0.030528575
224	0x3db61624	0.08890942
225	0xbb558218	-0.0032578763
226	0xbd182439	-0.03714392
227	0xbe731cb0	-0.23741412
228	0x3e0bfd6c	0.13670892
229	0xbc09b81d	-0.008405712
230	0x3e199005	0.14996345
231	0xbc3f3994	-0.011671443
232	0x3d3a28f7	0.045449223
233	0x3e2ea0c6	0.17053518
234	0xbe0e46f7	-0.13894258
235	0xbdc727cc	-0.097243875
236	0xbbed38ea	-0.0072394507
237	0x3c892d90	0.016745359
238	0xbe1ad2ce	-0.15119478
239	0x3e8bdfbf	0.27319142
240	0xbd70520f	-0.058672007
241	0xbe58fb30	-0.2118957
242	0x3d58006a	0.05273477
243	0x3de99207	0.11404806
244	0xbe334238	-0.17505729
245	0x3d36935c	0.044574127
246	0xbd025dd4	-0.031827763
247	0xbd6d7cb2	-0.057980247
248	0xbe3ab143	-0.18231682
249	0x3cfebedb	0.031096866
250	0xbdab94d1	-0.08377994
251	0xbcb1893a	-0.02167188
252	0xbe296cfa	-0.16545478
253	0xbcb5b629	-0.022181587
254	0x3d9d172b	0.076704346
255	0x3de2ce8d	0.11074553

network_body._body_endoder.seq_layers.2.bias f4 [128]
0	0x39ba3551	0.00035516408
1	0xbb623ddb	-0.0034521732
2	0xbbaa800c	-0.0052032527
3	0xbc3e73e8	-0.011624314
4	0xbb76198b	-0.0037551846
5	0xba5d46ed	-0.000844105
6	0x3b12f8fb	0.0022426236
7	0xbab5d676	-0.0013873118
8	0xbb94d6a2	-0.004542188
9	0xbc133e68	-0.008987047
10	0xbbffe2f1	-0.007809036
11	0xbb689b26	-0.0035492866
12	0xbbdac65a	-0.0066764774
13	0x3c943e5f	0.018096147
14	0xbbf9331d	-0.00760497
15	0xbc02851e	-0.007966308
16	0xba82e679	-0.0009986899
17	0x3a165196	0.0005734203
18	0xbbb8f5fb	-0.0056445575
19	0xbbd7c2c8	-0.006584499
20	0x3c5fd1d6	0.013660869
21	0x3bc7e090	0.006099768
22	0x3b91fb42	0.004455001
23	0x3c8dfc92	0.017332349
24	0xbc1cece6	-0.009577965
25	0x3ba2c2a8	0.0049670525
26	0x3c37fe40	0.0112300515
27	0x3b110636	0.0022128946
28	0x3c5abff4	0.013351429
29	0x3b8fee30	0.004392408
30	0xbc7a05c6	-0.015260166
31	0xbc691b04	-0.014227632
32	0xbc13967e	-0.009008048
33	0x3b8e29d2	0.0043384815
34	0x3be9af26	0.007131475
35	0xbc54589a	-0.012960577
36	0xbb9c6115	-0.0047723153
37	0xbc1e72c5	-0.009670918
38	0x3bd40dbf	0.006471365
39	0xba520bb0	-0.0008012606
40	0xbb5b5b7b	-0.0033471275
41	0x3b3ce241	0.0028821381
42	0x3ab5f162	0.0013881142
43	0x3b83d941	0.0040237014
44	0x3b8836f2	0.0041569406
45	0xbc879388	-0.01654984
46	0x3c387256	0.011257729
47	0x3c61e750	0.013788059
48	0xbba5d3ad	-0.005060634
49	0x39da0168	0.00041581248
50	0x3b67ad16	0.003535097
51	0xbbf54b1a	-0.0074857594
52	0x3aaaf726	0.0013043627
53	0xbc415b9c	-0.0118016265
54	0x39d9fa3f	0.00041575913
55	0x3bd3b1a2	0.0064603845
56	0x3abaa3f3	0.0014239535
57	0xbc59a4a6	-0.013283884
58	0xbb5b6b41	-0.0033480676
59	0x3be26eda	0.006910187
60	0x3b829c4f	0.0039859186
61	0x3ad90986	0.0016558624
62	0x3aa189b8	0.0012324369
63	0x3a5a4c9b	0.0008327455
64	0xbc85cbad	-0.016332472
65	0xb9825315	-0.00024857433
66	0xbc4ceaaa	-0.01250712
67	0x3ad53752	0.0016267097
68	0xbb31b644	-0.0027116695
69	0xbb800505	-0.0039068484
70	0x3b2c8f46	0.0026330515
71	0xbbc4095e	-0.005982562
72	0x3b21d130	0.0024691336
73	0x3bd5dd4d	0.0065266252
74	0x39865a61	0.0002562581
75	0x3c099bf6	0.008399
76	0x3c8c36ff	0.017116068
77	0x3c9a7fb5	0.018859724
78	0x3bea86c5	0.007157179
79	0xbb9631d5	-0.004583577
80	0xbc1074bf	-0.008816897
81	0xba68fa12	-0.0008887361
82	0x3c22342a	0.009900132
83	0x3bd47be5	0.006484496
84	0xbc45b9ae	-0.012068195
85	0x3c22f76f	0.009946688
86	0xbc6b88c0	-0.014375865
87	0xbb939885	-0.0045042657
88	0x3afd534f	0.0019327196
89	0xbc634f03	-0.013873818
90	0xba4d31ae	-0.0007827532
91	0xbad4148a	-0.0016180438
92	0x3c21f868	0.009885885
93	0xbc1e85a5	-0.009675418
94	0xbba919ae	-0.005160532
95	0x3b80630b	0.003918057
96	0xba03af96	-0.0005023418
97	0xbbd86526	-0.0066038547
98	0xbc2b32bc	-0.010449108
99	0xbc13cf7c	-0.009021636
100	0xbbccd052	-0.0062504197
101	0x3b6c65fd	0.0036071532
102	0x3a6d2ead	0.0009047788
103	0x3ba178f4	0.004927749
104	0x3b2b23f0	0.002611395
105	0xbbc3c2ab	-0.005974134
106	0xb8eb1bb9	-0.00011210837
107	0xbc752bbe	-0.014964042
108	0x3abe90b6	0.0014538977
109	0xb9b7f39f	-0.00035085992
110	0xbb6cc996	-0.0036130897
111	0x37da3060	2.6010151e-05
112	0xbc947b74	-0.018125273
113	0x3c4805fc	0.012208458
114	0xbc86ca8c	-0.016454004
115	0xbccb0881	-0.024784328
116	0x3b5e03ef	0.0033876856
117	0xba0fe7c2	-0.00054895517
118	0xbbed31d6	-0.007238607
119	0xbaf0a2a0	-0.0018359013
120	0x3af0413e	0.001832999
121	0xbc16350c	-0.009167921
122	0x3c25b907	0.010114915
123	0xbb4f73c3	-0.0031654693
124	0xbb9a1d57	-0.0047032046
125	0xbc5cf369	-0.013485768
126	0x39aaa176	0.00032545225
127	0xbb597bfa	-0.0033185468

action_model._continuous_distribution.log_sigma f4 [1, 2]
0	0xbcfdb8b1	-0.030971857
1	0x3d21cd31	0.039502326

action_model._continuous_distribution.mu.weight f4 [2, 128]
0	0x3b4c7186	0.0031195595
1	0x3cdee96a	0.02721091
2	0x3cca06ce	0.024661448
3	0x38c91fc0	9.590341e-05
4	0x3d270019	0.040771578
5	0x3cc23f16	0.023711722
6	0xbc438d65	-0.011935567
7	0x3cc183fd	0.023622507
8	0xbcd4d6ed	-0.02598139
9	0x3c211ec2	0.009833993
10	0xbb863f1e	-0.0040968796
11	0xbd125bf3	-0.03573222
12	0x3ca6842a	0.020326693
13	0x3d23fb54	0.040034607
14	0xbc286464	-0.010277841
15	0xbb81ed4c	-0.0039650556
16	0xbb9e18b7	-0.0048247236
17	0x3c2fc98f	0.010729208
18	0x3c43aca6	0.011943018
19	0x3c19d535	0.009389211
20	0xbd0b783a	-0.034050204
21	0xbc3b58d3	-0.011434752
22	0xbc73e723	-0.01488665
23	0xbd158e66	-0.036512755
24	0xbcb25ac3	-0.021771794
25	0x3ce5815f	0.02801579
26	0x3d1d2040	0.038360834
27	0x3d468a9c	0.048472032
28	0xbd1363b9	-0.035983775
29	0xbcf5dfd3	-0.030013954
30	0x3ce1d522	0.02756745
31	0xbb3dd4c7	-0.0028965937
32	0xba06b03c	-0.00051379553
33	0x3ced4cd2	0.028967295
34	0x3c50d343	0.012745681
35	0xbc4f36f6	-0.012647381
36	0x3d190c54	0.037365273
37	0x3cb5ebcc	0.022207163
38	0xbb161159	-0.0022898524
39	0xbc0ad511	-0.008473651
40	0xbc59c9df	-0.013292759
41	0xbbc2824c	-0.0059359428
42	0xbd59dffe	-0.05319213
43	0xbc0355c2	-0.008016052
44	0xbb5ce81a	-0.003370768
45	0xbaf501e6	-0.0018692582
46	0x3cbe11c0	0.023201823
47	0x3ca78d67	0.020453168
48	0xbc5fa83d	-0.013650951
49	0xbcb8d8ef	-0.02256438
50	0xbc6491a0	-0.013950735
51	0xbcf8327f	-0.030297516
52	0x3d468854	0.048469856
53	0xbc8b02cd	-0.016969109
54	0x3b828826	0.0039835153
55	0xbc35fd8a	-0.011107812
56	0xbc52613e	-0.012840567
57	0xbcbe0ed0	-0.023200423
58	0xbcd36d09	-0.025808828
59	0xbb4647f2	-0.0030255285
60	0xbcf4183d	-0.029796714
61	0xbc8cb176	-0.017174464
62	0xbcea82e1	-0.028626861
63	0x3c89b16f	0.01680824
64	0x3bacd75c	0.0052746963
65	0xbcc561e3	-0.024094528
66	0xbb0ad6c4	-0.002118514
67	0xbb2f50d5	-0.002675106
68	0xbc0ddfc4	-0.008659307
69	0x3c35dc1a	0.01109984
70	0x3b15cc24	0.0022857273
71	0xbbc360f6	-0.0059624864
72	0xbcd2a09d	-0.025711352
73	0x3cc27ee5	0.023742149
74	0xbb6b5583	-0.0035909123
75	0x3d258ff0	0.040420473
76	0xbce322bb	-0.027726522
77	0x3c833ac4	0.016019233
78	0xbd10c291	-0.035341803
79	0xbd13b4f3	-0.03606124
80	0xbc90c854	-0.017673649
81	0xbd1f66b5	-0.03891631
82	0x3c85c93b	0.016331306
83	0x3d0f9b3a	0.035060145
84	0xbcfdc1d5	-0.030976215
85	0x3bca62b3	0.0061763166
86	0xbb64af83	-0.0034894652
87	0xbcb9b368	-0.022668555
88	0xbb6026f2	-0.00342029
89	0xbd0835d0	-0.033254445
90	0x3d079d9b	0.03310929
91	0xbbb054f4	-0.005381221
92	0x3d20dfe1	0.039276008
93	0x3be920c3	0.007114501
94	0xbb9e2a3b	-0.0048268116
95	0xbb81d202	-0.0039618025
96	0xbc4adada	-0.01238128
97	0xbc3b5fe9	-0.011436441
98	0xbb5b6d77	-0.0033481994
99	0x3ba0fc57	0.0049128938
100	0x3b172ef5	0.002306876
101	0xbcc841a1	-0.024445357
102	0x3d10c443	0.03534342
103	0xbcf05502	-0.02933741
104	0xbcd03c5d	-0.025419408
105	0x3cbcd119	0.023048924
106	0xbbbb24c3	-0.0057111694
107	0x3a94dd62	0.0011357481
108	0xbc18fcf9	-0.009337657
109	0x3d16bb49	0.036799703
110	0x3c98ebaf	0.01866707
111	0xbbd305e2	-0.0064399103
112	0x3c6ced66	0.014460897
113	0x3c290641	0.010316432
114	0x39fd342d	0.00048294794
115	0xbc035697	-0.00801625
116	0xbc7305f7	-0.014832965
117	0xbc9f7c17	-0.01946835
118	0x3b1d7a67	0.0024029256
119	0xbcdfed66	-0.02733488
120	0x3cb92a57	0.022603197
121	0xbcaf451c	-0.021395259
122	0x3ba5aca2	0.00505598
123	0x3c8c394d	0.017117167
124	0x3c74ad71	0.01493393
125	0x3c42223f	0.011848985
126	0x3c4b1dd4	0.012397248
127	0xbb1283c6	-0.0022356375
128	0xbcb86248	-0.022507802
129	0xbc894c65	-0.01676006
130	0xbac94da4	-0.0015358222
131	0x3a90da42	0.0011051374
132	0x3d1ffab1	0.039057437
133	0x3c834b6a	0.016027171
134	0xbc282c40	-0.010264456
135	0xb60da1f8	-2.1104916e-06
136	0x3d277ac8	0.040888578
137	0x3bbaa189	0.005695526
138	0xbbf53de4	-0.0074841846
139	0x3b5d665a	0.003378293
140	0xbc362609	-0.011117467
141	0xbba2f051	-0.0049724956
142	0x3d25738c	0.040393397
143	0x3addcac8	0.0016921395
144	0xbb8c541f	-0.004282489
145	0x3be100de	0.0068665585
146	0x3bdf7e9f	0.0068205143
147	0x3ba8a349	0.005146418
148	0xbc3d4da2	-0.011554154
149	0x3d7b56ae	0.06136196
150	0x3d2ab8f0	0.041680276
151	0x3d2bf70a	0.04198364
152	0x3bb65ee5	0.0055655115
153	0x3abff3fa	0.0014644854
154	0x3bd7394b	0.006568109
155	0xbc8e51aa	-0.017372925
156	0x3b154e5c	0.0022782302
157	0x3d063070	0.032761037
158	0x3c5ffddc	0.013671365
159	0x3bc63d23	0.0060497685
160	0xbc993345	-0.018701205
161	0xbc6147bc	-0.013750013
162	0xbcbef3de	-0.023309644
163	0x3b7c0add	0.0038458623
164	0x3cb24a1f	0.02176386
165	0x3c5dfe7b	0.013549442
166	0xbcd02cd8	-0.025412008
167	0x3cc8946a	0.024484832
168	0xbc9970f4	-0.018730618
169	0x3d213e53	0.039366078
170	0x3bc91729	0.006136794
171	0x3b5e64c0	0.0033934563
172	0xbc7fc676	-0.015611282
173	0x3b874030	0.004127525
174	0x3d668be8	0.05628577
175	0x3cf5f5c9	0.030024426
176	0x3d0d1a0e	0.034448676
177	0x3cc4037f	0.023927448
178	0xbd3ede0a	-0.04659847
179	0x3c8dc3e7	0.017305328
180	0xbbb76ced	-0.0055977018
181	0x3c9c4ee2	0.019080583
182	0xbc3c11f6	-0.011478892
183	0xbce93e33	-0.028472042
184	0x3b8d33d6	0.004309158
185	0xbc760d45	-0.015017812
186	0x3d6d393e	0.05791592
187	0x3cfecbf4	0.031103112
188	0xbb018976	-0.001976577
189	0x3ccc82ef	0.024964778
190	0x3d10fb9c	0.035396203
191	0xbd2fdae2	-0.042933352
192	0xb6e946b0	-6.95217e-06
193	0x3cc50189	0.024048584
194	0x3ca2c2ae	0.019868221
195	0xbce528bf	-0.02797353
196	0xbc058ff5	-0.008151998
197	0x3bac284a	0.0052538263
198	0xbc45f987	-0.012083418
199	0x3c70e56b	0.014703135
200	0xb9e94f25	-0.0004450019
201	0x3beda334	0.0072521213
202	0x3c459900	0.012060404
203	0x3c035313	0.008015412
204	0xbc5c37ca	-0.0134410355
205	0x3d9d116e	0.0766934
206	0xbbc10463	-0.0058904155
207	0xbcb7792a	-0.022396643
208	0xbbf08a6f	-0.0073407213
209	0xbc7ae84f	-0.015314176
210	0xbd7c2e28	-0.061567456
211	0x3c80b229	0.015709953
212	0x3da3a289	0.079899855
213	0xbd07f0ae	-0.033188514
214	0xbc0934a4	-0.008374367
215	0xbc21b841	-0.00987059
216	0xbc74df24	-0.014945779
217	0xbcf4d42b	-0.029886326
218	0xbbfda35c	-0.007740421
219	0x3ac9b109	0.0015387844
220	0xbd210c19	-0.039318178
221	0x3ce1aaa0	0.02754718
222	0xbba8c2ca	-0.005150174
223	0xba836de1	-0.0010027253
224	0x3d618d9c	0.05506669
225	0x3b7b5e93	0.0038355931
226	0x3bc0d511	0.0058847745
227	0x3c89524c	0.016762875
228	0x3bde7a6f	0.0067894976
229	0x3ba9f5c8	0.00518677
230	0xbcce02c8	-0.02514781
231	0xbc47e919	-0.012201571
232	0x3c452a10	0.012033954
233	0xba5f9cd4	-0.0008530144
234	0xba914c3e	-0.0011085344
235	0x3c3878f6	0.011259308
236	0x3d0b45fa	0.03400228
237	0xbba6c5cd	-0.0050894977
238	0xbbe10b76	-0.0068678213
239	0x3ca28c23	0.019842213
240	0xbc1c2008	-0.009529121
241	0xbbbced48	-0.005765591
242	0x3c01c6d3	0.007920939
243	0xba839c7f	-0.0010041146
244	0xbc54d53d	-0.012990293
245	0x3c2f9c77	0.0107184565
246	0x3c5e02b2	0.013550447
247	0xbb75cab6	-0.0037504858
248	0xbc77cc9f	-0.015124469
249	0xbce1c70f	-0.027560739
250	0xbd1e0aea	-0.038584627
251	0x3c1f9ed1	0.009742455
252	0x3c9eb9fd	0.019375795
253	0xbcb0981f	-0.021556912
254	0x3bfe4df4	0.0077607576
255	0xbcac79ef	-0.021054236

action_model._continuous_distribution.mu.bias f4 [2]
0	0xba9cc85f	-0.0011961571
1	0xbb990d52	-0.0046707774

action_model._discrete_distribution.branches.0.weight f4 [1, 128]
0	0x3bbaf1f7	0.005705114
1	0x3c4da4f2	0.012551533
2	0x3a8dc9b3	0.0010817557
3	0xbc228715	-0.009919901
4	0x3b810fc6	0.003938648
5	0x3c903f0a	0.017608184
6	0xbc1841f7	-0.009293071
7	0xbb01b138	-0.0019789468
8	0x3c8fcf65	0.017554948
9	0x3adb7deb	0.00167459
10	0x3c261193	0.010136026
11	0x3c461b38	0.01209145
12	0x3b378aa4	0.002800622
13	0x3ba0ac7e	0.004903375
14	0x39c20410	0.0003700559
15	0x3b8348a3	0.0040064617
16	0xba8c468b	-0.0010702176
17	0xbc5a8c3d	-0.0133390995
18	0xbc134639	-0.00898891
19	0x3c1a6e9b	0.009425784
20	0xbccae2e6	-0.024766397
21	0xbc26a3e3	-0.01017091
22	0x3b80671d	0.003918542
23	0x3aca9608	0.001545609
24	0x3b862813	0.0040941327
25	0x3bba86ae	0.0056923246
26	0x397eee3d	0.00024312078
27	0x3c17b4b1	0.009259389
28	0x3bb07091	0.0053845127
29	0xbbd55d1b	-0.006511343
30	0x3c597bda	0.013274157
31	0xbbb5825a	-0.0055392208
32	0x3c0936ba	0.008374864
33	0x3b72dbe0	0.0037057325
34	0x3c7076f7	0.014676801
35	0xba2b9f31	-0.00065468537
36	0x3b9394a3	0.004503803
37	0xbc768c25	-0.0150480615
38	0x3c57c060	0.013168424
39	0x3c5c907b	0.013462181
40	0x3c5c1897	0.013433597
41	0xbba141d0	-0.0049211755
42	0x3c0bc9c7	0.008531994
43	0xbb756248	-0.0037442613
44	0x3b85fca3	0.0040889545
45	0x3c8cd25b	0.017190149
46	0xbb2ec012	-0.0026664776
47	0xbbb62ad3	-0.0055593043
48	0xbb927bdf	-0.004470333
49	0x3c05f708	0.008176573
50	0x3be8fae0	0.0071099848
51	0x3b803cc7	0.003913495
52	0x3c71a788	0.014749415
53	0x3ae08f5a	0.0017132566
54	0x3c6b0d4a	0.01434643
55	0xbc14ca5d	-0.00908145
56	0xbab9a625	-0.0014163895
57	0xbb0c51ed	-0.0021411136
58	0xbb582423	-0.0032980524
59	0xbc8aa57c	-0.016924612
60	0xbbf18342	-0.0073703835
61	0x3bd3a3d7	0.00645874
62	0xbb7cb52a	-0.003856013
63	0xbc059313	-0.008152741
64	0xbbca10b5	-0.0061665424
65	0x3b001070	0.0019541048
66	0x3c8a1415	0.016855279
67	0x3c23837c	0.009980079
68	0x3a2bcf44	0.00065540173
69	0x3bed9d93	0.0072514503
70	0xbbe17fed	-0.006881705
71	0x3b322fd7	0.002718916
72	0xbb683f73	-0.003543821
73	0xbc23b448	-0.009991713
74	0xbb92a5e2	-0.004475341
75	0xbb282c05	-0.0025661003
76	0xbbe00155	-0.0068360963
77	0xbc3095fb	-0.010777946
78	0xbc2c7eab	-0.010528247
79	0xbc1301e1	-0.008972616
80	0xba192c4c	-0.00058430876
81	0x39e86e73	0.0004433278
82	0x3c13b50a	0.009015331
83	0xba786fdd	-0.0009477118
84	0x3c3ed498	0.011647366
85	0x3be7c3fa	0.007072923
86	0xbb1219d3	-0.0022293224
87	0xbafe9e57	-0.0019425851
88	0xbb361f10	-0.002778951
89	0x3c31d978	0.010855071
90	0xbbf32abf	-0.007420867
91	0xbb5a036b	-0.0033266197
92	0x3a8df2eb	0.0010829841
93	0x3c01cad5	0.007921894
94	0x3aea109b	0.0017857732
95	0x3bc70f0c	0.006074792
96	0xbb2f93e8	-0.002679104
97	0xbb943295	-0.0045226314
98	0xbaa0d4c1	-0.0012270437
99	0x3c717643	0.014737668
100	0x3ba45718	0.005015265
101	0xbc158dd7	-0.009128056
102	0x3a00042d	0.0004883435
103	0x3c0b5ce3	0.008506033
104	0x3be55c6d	0.0069995434
105	0xb9574ff5	-0.00020533784
106	0x3ba06a4a	0.004895483
107	0x3be23fdd	0.0069045858
108	0x3cae9505	0.021311292
109	0xbb065657	-0.002049824
110	0xbc0c83f8	-0.008576386
111	0x3b1deefb	0.0024098742
112	0xbba1ab77	-0.0049337703
113	0xbb470d8f	-0.0030373072
114	0xbc108221	-0.008820088
115	0x3bd259df	0.006419405
116	0xbb1e26b6	-0.002413196
117	0x3c1eb0c8	0.009685703
118	0x3ca8c8ce	0.020603564
119	0x3b672a15	0.0035272886
120	0x3b8c7f00	0.0042876005
121	0x3bcb2cf3	0.0062004267
122	0xbc25058f	-0.010072126
123	0x3c262d38	0.010142617
124	0x3c0e4135	0.008682539
125	0xbb1f9e50	-0.0024355836
126	0xb88d6fb8	-6.744213e-05
127	0x3bb1b2fa	0.005422947

exp_avg f4 [128, 78]
0	0x37122154	8.710038e-06
1	0x37122154	8.710038e-06
2	0x37122154	8.710038e-06
3	0x394c08d6	0.00019458248
4	0xb60ffdbb	-2.145635e-06
5	0xb90b1781	-0.00013264829
6	0xb8a538b2	-7.8783734e-05
7	0xb77854ef	-1.4801727e-05
8	0x38c13554	9.21289e-05
9	0x38b044f3	8.405177e-05
10	0x37874168	1.6123711e-05
11	0x394676c1	0.00018926991
12	0x396aec1c	0.00022403937
13	0x37c7a572	2.379969e-05
14	0x38e3beff	0.00010859779
15	0x392c82c4	0.00016451912
16	0xb7acc923	-2.059766e-05
17	0x37bd6b51	2.2580529e-05
18	0x00000000	0.0
19	0x3469cf33	2.1775195e-07
20	0x00000000	0.0
21	0x3836a9a3	4.3550168e-05
22	0x3469cf33	2.1775195e-07
23	0xb836a9a3	-4.3550168e-05
24	0x3836a9a3	4.3550168e-05
25	0x3469cf33	2.1775195e-07
26	0x3836a9a3	4.3550168e-05
27	0xb836a9a3	-4.3550168e-05
28	0x3469cf33	2.1775195e-07
29	0x3836a9a3	4.3550168e-05
30	0xb836a9a3	-4.3550168e-05
31	0x3469cf33	2.1775195e-07
32	0xb836a9a3	-4.3550168e-05
33	0x3734d3e2	1.0778169e-05
34	0xb6d8369a	-6.443658e-06
35	0x35f44c65	1.820165e-06
36	0xb73ad446	-1.1135888e-05
37	0xb6d4a8e5	-6.3377543e-06
38	0xb4257428	-1.540908e-07
39	0x377ae16d	1.4953647e-05
40	0x377ae16d	1.4953647e-05
41	0x377ae16d	1.4953647e-05
42	0x392ed4e3	0.0001667324
43	0x370f2bc2	8.533652e-06
44	0xb8a20652	-7.725939e-05
45	0xb8a253be	-7.74036e-05
46	0xb7e8d9d3	-2.7757987e-05
47	0x38fd52ac	0.00012079379
48	0x38a4ed39	7.8643156e-05
49	0x37e14174	2.685257e-05
50	0x394199ac	0.00018463162
51	0x398d9c3c	0.0002701002
52	0x380c3936	3.3431883e-05
53	0x391db931	0.00015041676
54	0x39781410	0.00023658597
55	0xb8292fa6	-4.0337116e-05
56	0x38aeffcf	8.3446146e-05
57	0x00000000	0.0
58	0x34c8b47d	3.7384225e-07
59	0x00000000	0.0
60	0x389ccce9	7.476827e-05
61	0x34c8b47d	3.7384225e-07
62	0xb89ccce9	-7.476827e-05
63	0x389ccce9	7.476827e-05
64	0x34c8b47d	3.7384225e-07
65	0x389ccce9	7.476827e-05
66	0xb89ccce9	-7.476827e-05
67	0x34c8b47d	3.7384225e-07
68	0x389ccce9	7.476827e-05
69	0xb89ccce9	-7.476827e-05
70	0x34c8b47d	3.7384225e-07
71	0xb89ccce9	-7.476827e-05
72	0x37722eab	1.443519e-05
73	0xb6eb3b6a	-7.0104625e-06
74	0x37053625	7.940024e-06
75	0xb72262f5	-9.678993e-06
76	0xb6e1ba97	-6.7272445e-06
77	0x33b6c3ea	8.510672e-08
78	0x37b423cc	2.1474341e-05
79	0x37b423cc	2.1474341e-05
80	0x37b423cc	2.1474341e-05
81	0xb73c3b68	-1.1219505e-05
82	0x39b24963	0.00034005483
83	0xba40470b	-0.0007334805
84	0xb818f42e	-3.6467034e-05
85	0xb6a38d78	-4.8742477e-06
86	0x388adf40	6.621936e-05
87	0xb83e17bb	-4.532163e-05
88	0x37ca0a64	2.4085115e-05
89	0x39a0de74	0.0003068332
90	0x3a3f7b2a	0.00073044247
91	0x393a40e2	0.00017762513
92	0x395270c7	0.00020069173
93	0xb9b779ad	-0.00034995136
94	0x384af17a	4.8385446e-05
95	0xb831cd2b	-4.2391166e-05
96	0x00000000	0.0
97	0x35101c8d	5.3685727e-07
98	0x00000000	0.0
99	0x38e12c95	0.0001073714
100	0x35101c8d	5.3685727e-07
101	0xb8e12c95	-0.0001073714
102	0x38e12c95	0.0001073714
103	0x35101c8d	5.3685727e-07
104	0x38e12c95	0.0001073714
105	0xb8e12c95	-0.0001073714
106	0x35101c8d	5.3685727e-07
107	0x38e12c95	0.0001073714
108	0xb8e12c95	-0.0001073714
109	0x35101c8d	5.3685727e-07
110	0xb8e12c95	-0.0001073714
111	0xb803281c	-3.127019e-05
112	0xb6861e8b	-3.997067e-06
113	0x365c5ab9	3.2835362e-06
114	0x3679658e	3.7163004e-06
115	0xb6c01f5b	-5.725696e-06
116	0x3407392f	1.2593658e-07
117	0x37d2d75b	2.5134234e-05
118	0x37d2d75b	2.5134234e-05
119	0x37d2d75b	2.5134234e-05
120	0xb7e57a05	-2.7355747e-05
121	0x39d356e6	0.000403098
122	0xba80bbd1	-0.0009821599
123	0xb869d004	-5.574526e-05
124	0x3754f0ad	1.2692221e-05
125	0x388094d1	6.131235e-05
126	0xb8bcaa50	-8.996262e-05
127	0x37c04ec8	2.2924869e-05
128	0x395f927d	0.00021321508
129	0x3a43e3e1	0.0007472616
130	0x39396b39	0.00017682918
131	0x3978f5bd	0.00023742668
132	0xb9e62f8c	-0.00043904444
133	0x3872d206	5.7892896e-05
134	0xb80139a2	-3.080967e-05
135	0x00000000	0.0
136	0x3528ac23	6.283537e-07
137	0x00000000	0.0
138	0x3903c67f	0.00012567079
139	0x3528ac23	6.283537e-07
140	0xb903c67f	-0.00012567079
141	0x3903c67f	0.00012567079
142	0x3528ac23	6.283537e-07
143	0x3903c67f	0.00012567079
144	0xb903c67f	-0.00012567079
145	0x3528ac23	6.283537e-07
146	0x3903c67f	0.00012567079
147	0xb903c67f	-0.00012567079
148	0x3528ac23	6.283537e-07
149	0xb903c67f	-0.00012567079
150	0xb7a08d10	-1.9139174e-05
151	0xb6862440	-3.9977313e-06
152	0x35aeac69	1.3014188e-06
153	0x363ab62e	2.7822202e-06
154	0xb6cab2a8	-6.0408674e-06
155	0x34c9bc94	3.7576376e-07
156	0x364e993c	3.0785586e-06
157	0x364e993c	3.0785586e-06
158	0x364e993c	3.0785586e-06
159	0xb7a0b716	-1.9158742e-05
160	0x396023cb	0.00021375639
161	0xb9714188	-0.00023007963
162	0x39c63d83	0.00037811333
163	0xb710af9f	-8.623959e-06
164	0x38b032d3	8.401801e-05
165	0x39a2ebaa	0.0003107463
166	0xb61a8f58	-2.3031225e-06
167	0xb73614cd	-1.0852888e-05
168	0x39a920f7	0.00032258753
169	0x372f2c1b	1.0441082e-05
170	0x3817239b	3.6034366e-05
171	0x39caf5f8	0.00038711703
172	0xb78a2265	-1.6466898e-05
173	0x390002c8	0.00012208067
174	0x00000000	0.0
175	0x33a5476a	7.6964014e-08
176	0x00000000	0.0
177	0x37811f2e	1.5392518e-05
178	0x33a5476a	7.6964014e-08
179	0xb7811f2e	-1.5392518e-05
180	0x37811f2e	1.5392518e-05
181	0x33a5476a	7.6964014e-08
182	0x37811f2e	1.5392518e-05
183	0xb7811f2e	-1.5392518e-05
184	0x33a5476a	7.6964014e-08
185	0x37811f2e	1.5392518e-05
186	0xb7811f2e	-1.5392518e-05
187	0x33a5476a	7.6964014e-08
188	0xb7811f2e	-1.5392518e-05
189	0xb7b9922a	-2.2121782e-05
190	0xb7af81a5	-2.0921996e-05
191	0xb761fd53	-1.3470027e-05
192	0x37bcc554	2.2503235e-05
193	0xb70b30db	-8.296421e-06
194	0xb44ceaa2	-1.908434e-07
195	0x37559e73	1.2732681e-05
196	0x37559e73	1.2732681e-05
197	0x37559e73	1.2732681e-05
198	0xb8350d2f	-4.316604e-05
199	0x398e9678	0.00027196459
200	0xb9cb8b2e	-0.00038822874
201	0x39bff8e6	0.00036615803
202	0xb576c19e	-9.192389e-07
203	0x38624f52	5.395647e-05
204	0x39a0c9ed	0.00030668025
205	0x366c5f47	3.52222e-06
206	0xb79d9303	-1.8784316e-05
207	0x3962ee4e	0.00021641815
208	0x3707cee7	8.0948e-06
209	0x38176ae7	3.6100766e-05
210	0x3a046f96	0.0005052028
211	0xb7cd4701	-2.4470968e-05
212	0x391a26e3	0.00014701071
213	0x00000000	0.0
214	0x34aae53a	3.1831752e-07
215	0x00000000	0.0
216	0x388582e7	6.366317e-05
217	0x34aae53a	3.1831752e-07
218	0xb88582e7	-6.366317e-05
219	0x388582e7	6.366317e-05
220	0x34aae53a	3.1831752e-07
221	0x388582e7	6.366317e-05
222	0xb88582e7	-6.366317e-05
223	0x34aae53a	3.1831752e-07
224	0x388582e7	6.366317e-05
225	0xb88582e7	-6.366317e-05
226	0x34aae53a	3.1831752e-07
227	0xb88582e7	-6.366317e-05
228	0xb7ac6aa9	-2.0553665e-05
229	0xb7b067f6	-2.1029246e-05
230	0xb75fe2bd	-1.3344627e-05
231	0x37a8b561	2.0111622e-05
232	0xb6b2b42e	-5.325789e-06
233	0x34aeae6a	3.2536929e-07
234	0x37c542fa	2.3515418e-05
235	0x37c542fa	2.3515418e-05
236	0x37c542fa	2.3515418e-05
237	0x37da7bbf	2.6045249e-05
238	0x38f7d93d	0.000118183416
239	0xba45a0fb	-0.00075389416
240	0xb88acd5f	-6.618606e-05
241	0x37ee8f39	2.8438504e-05
242	0x38895a18	6.54945e-05
243	0xb9384071	-0.00017571614
244	0x36bdc889	5.6559843e-06
245	0x3927b3f4	0.00015993399
246	0x3a0dabca	0.0005404322
247	0x38cfeecb	9.915008e-05
248	0x39915a5e	0.00027723884
249	0xb980c04e	-0.0002455734
250	0x37fe4728	3.0312294e-05
251	0x37877958	1.614976e-05
252	0x00000000	0.0
253	0x351dcf36	5.878859e-07
254	0x00000000	0.0
255	0x38f693b9	0.000117577096

exp_avg_sq f4 [128, 78]
0	0x327ab46d	1.4592939e-08
1	0x327ab46d	1.4592939e-08
2	0x327ab46d	1.4592939e-08
3	0x34a6c0b7	3.1060128e-07
4	0x32cc530e	2.3786495e-08
5	0x3571e853	9.011757e-07
6	0x34da068b	4.0610425e-07
7	0x33192892	3.5659987e-08
8	0x34c0066e	3.5767465e-07
9	0x3519c687	5.7285837e-07
10	0x3300c5d0	2.9982232e-08
11	0x361ad9d5	2.3074583e-06
12	0x356ae4aa	8.7504543e-07
13	0x32dab529	2.5460922e-08
14	0x34cc839a	3.8093714e-07
15	0x35d04615	1.5517604e-06
16	0x332ef497	4.0734985e-08
17	0x348ffd24	2.682001e-07
18	0x00000000	0.0
19	0x2d207367	9.1205715e-12
20	0x00000000	0.0
21	0x34c3dcec	3.6482322e-07
22	0x2d207367	9.1205715e-12
23	0x34c3dcec	3.6482322e-07
24	0x34c3dcec	3.6482322e-07
25	0x2d207367	9.1205715e-12
26	0x34c3dcec	3.6482322e-07
27	0x34c3dcec	3.6482322e-07
28	0x2d207367	9.1205715e-12
29	0x34c3dcec	3.6482322e-07
30	0x34c3dcec	3.6482322e-07
31	0x2d207367	9.1205715e-12
32	0x34c3dcec	3.6482322e-07
33	0x31bc0a95	5.472723e-09
34	0x3189a835	4.0063477e-09
35	0x30e84df2	1.6902375e-09
36	0x318902b4	3.987532e-09
37	0x31d8c9c9	6.3093677e-09
38	0x2c814285	3.6737857e-12
39	0x3289bfb6	1.603608e-08
40	0x3289bfb6	1.603608e-08
41	0x3289bfb6	1.603608e-08
42	0x34b97713	3.4545573e-07
43	0x330799e0	3.1572085e-08
44	0x359ca521	1.1670965e-06
45	0x34f3bb60	4.539861e-07
46	0x333138b8	4.126261e-08
47	0x34d23e9c	3.9161102e-07
48	0x352d7236	6.461372e-07
49	0x333168ee	4.1306457e-08
50	0x3646d546	2.962844e-06
51	0x3597966e	1.1294158e-06
52	0x331e69d4	3.6883492e-08
53	0x34ef6c40	4.459598e-07
54	0x3602a92a	1.9469976e-06
55	0x335132e4	4.870789e-08
56	0x34a64c43	3.0975397e-07
57	0x00000000	0.0
58	0x2d305180	1.0022538e-11
59	0x00000000	0.0
60	0x34d73b7d	4.0090154e-07
61	0x2d305180	1.0022538e-11
62	0x34d73b7d	4.0090154e-07
63	0x34d73b7d	4.0090154e-07
64	0x2d305180	1.0022538e-11
65	0x34d73b7d	4.0090154e-07
66	0x34d73b7d	4.0090154e-07
67	0x2d305180	1.0022538e-11
68	0x34d73b7d	4.0090154e-07
69	0x34d73b7d	4.0090154e-07
70	0x2d305180	1.0022538e-11
71	0x34d73b7d	4.0090154e-07
72	0x31cd84ab	5.981368e-09
73	0x3196251d	4.369794e-09
74	0x31022bc1	1.894236e-09
75	0x31906f63	4.203615e-09
76	0x31e6279a	6.698383e-09
77	0x2c8671c2	3.8211387e-12
78	0x3300f6a6	3.0026648e-08
79	0x3300f6a6	3.0026648e-08
80	0x3300f6a6	3.0026648e-08
81	0x3559c981	8.1132026e-07
82	0x346198f1	2.1010398e-07
83	0x36a9da96	5.0620392e-06
84	0x35b220d9	1.3271593e-06
85	0x33a22462	7.550331e-08
86	0x35a520f2	1.2303046e-06
87	0x35aa3fa5	1.268451e-06
88	0x333d9c74	4.4147285e-08
89	0x36937d59	4.395534e-06
90	0x368cd3ef	4.1969975e-06
91	0x3490e8c2	2.6991444e-07
92	0x35a04dbb	1.1943551e-06
93	0x37028411	7.779353e-06
94	0x33c6129d	9.223479e-08
95	0x357cdb9c	9.419689e-07
96	0x00000000	0.0
97	0x2da512bb	1.8766646e-11
98	0x00000000	0.0
99	0x35498158	7.5066555e-07
100	0x2da512bb	1.8766646e-11
101	0x35498158	7.5066555e-07
102	0x35498158	7.5066555e-07
103	0x2da512bb	1.8766646e-11
104	0x35498158	7.5066555e-07
105	0x35498158	7.5066555e-07
106	0x2da512bb	1.8766646e-11
107	0x35498158	7.5066555e-07
108	0x35498158	7.5066555e-07
109	0x2da512bb	1.8766646e-11
110	0x35498158	7.5066555e-07
111	0x3231ad4b	1.0342158e-08
112	0x312f15aa	2.5478166e-09
113	0x310d3fdc	2.05545e-09
114	0x3203765a	7.652114e-09
115	0x31f76bab	7.2008866e-09
116	0x2cf74990	7.0283293e-12
117	0x33035132	3.057466e-08
118	0x33035132	3.057466e-08
119	0x33035132	3.057466e-08
120	0x356028d6	8.3505927e-07
121	0x346297d1	2.110312e-07
122	0x36b73736	5.4602524e-06
123	0x35b74c53	1.3656776e-06
124	0x339efafb	7.4031014e-08
125	0x35a8929d	1.2559645e-06
126	0x35af5b34	1.306506e-06
127	0x333d1e6d	4.4032664e-08
128	0x369ce34e	4.675624e-06
129	0x368f4047	4.269215e-06
130	0x34821c94	2.423518e-07
131	0x35a3e872	1.2212097e-06
132	0x3704a29f	7.905676e-06
133	0x33a9fab7	7.9152805e-08
134	0x358117ff	9.618233e-07
135	0x00000000	0.0
136	0x2da81608	1.9109173e-11
137	0x00000000	0.0
138	0x354d2ed5	7.64366e-07
139	0x2da81608	1.9109173e-11
140	0x354d2ed5	7.64366e-07
141	0x354d2ed5	7.64366e-07
142	0x2da81608	1.9109173e-11
143	0x354d2ed5	7.64366e-07
144	0x354d2ed5	7.64366e-07
145	0x2da81608	1.9109173e-11
146	0x354d2ed5	7.64366e-07
147	0x354d2ed5	7.64366e-07
148	0x2da81608	1.9109173e-11
149	0x354d2ed5	7.64366e-07
150	0x3235bc5d	1.05784155e-08
151	0x313312e5	2.6058669e-09
152	0x31117249	2.116524e-09
153	0x3205b9a9	7.783833e-09
154	0x31fc74b4	7.347433e-09
155	0x2cee9a20	6.781478e-12
156	0x3308de30	3.1867046e-08
157	0x3308de30	3.1867046e-08
158	0x3308de30	3.1867046e-08
159	0x35252ace	6.152958e-07
160	0x33ed9008	1.10623716e-07
161	0x3633997d	2.676242e-06
162	0x3544071a	7.3026024e-07
163	0x32e411ae	2.6550733e-08
164	0x35701fc5	8.94532e-07
165	0x354d5063	7.648543e-07
166	0x31894b5b	3.9957917e-09
167	0x35785b7a	9.2520315e-07
168	0x36091b95	2.0430646e-06
169	0x33e28923	1.054889e-07
170	0x3577de5f	9.2338263e-07
171	0x35a5da83	1.2357053e-06
172	0x3288c610	1.5922552e-08
173	0x3509d7f0	5.135071e-07
174	0x00000000	0.0
175	0x2daf30d0	1.9916874e-11
176	0x00000000	0.0
177	0x3555db23	7.966757e-07
178	0x2daf30d0	1.9916874e-11
179	0x3555db23	7.966757e-07
180	0x3555db23	7.966757e-07
181	0x2daf30d0	1.9916874e-11
182	0x3555db23	7.966757e-07
183	0x3555db23	7.966757e-07
184	0x2daf30d0	1.9916874e-11
185	0x3555db23	7.966757e-07
186	0x3555db23	7.966757e-07
187	0x2daf30d0	1.9916874e-11
188	0x3555db23	7.966757e-07
189	0x32661fe9	1.33950175e-08
190	0x31f8707c	7.230538e-09
191	0x320a53a4	8.051675e-09
192	0x32230210	9.488318e-09
193	0x328157a5	1.5057433e-08
194	0x2d1a26d3	8.762507e-12
195	0x3312d927	3.4190773e-08
196	0x3312d927	3.4190773e-08
197	0x3312d927	3.4190773e-08
198	0x352bcc5e	6.399986e-07
199	0x3400d7b0	1.1999396e-07
200	0x36502407	3.1015386e-06
201	0x35523090	7.8301764e-07
202	0x32fdf94c	2.9566444e-08
203	0x357fb908	9.526416e-07
204	0x355421d8	7.9025403e-07
205	0x31d2b4f6	6.1323773e-09
206	0x358f8a51	1.0694586e-06
207	0x3618577b	2.2700685e-06
208	0x33e439cb	1.062759e-07
209	0x35822617	9.69684e-07
210	0x35b9cecf	1.3843763e-06
211	0x32897f21	1.600671e-08
212	0x350e8fbd	5.310829e-07
213	0x00000000	0.0
214	0x2dbbf748	2.1369254e-11
215	0x00000000	0.0
216	0x35657349	8.547691e-07
217	0x2dbbf748	2.1369254e-11
218	0x35657349	8.547691e-07
219	0x35657349	8.547691e-07
220	0x2dbbf748	2.1369254e-11
221	0x35657349	8.547691e-07
222	0x35657349	8.547691e-07
223	0x2dbbf748	2.1369254e-11
224	0x35657349	8.547691e-07
225	0x35657349	8.547691e-07
226	0x2dbbf748	2.1369254e-11
227	0x35657349	8.547691e-07
228	0x3271c001	1.4071703e-08
229	0x3203be97	7.668539e-09
230	0x32194acf	8.922782e-09
231	0x32290c1e	9.83985e-09
232	0x328b026f	1.6182836e-08
233	0x2d202941	9.104107e-12
234	0x3228753e	9.805545e-09
235	0x3228753e	9.805545e-09
236	0x3228753e	9.805545e-09
237	0x349d6c30	2.9322246e-07
238	0x332d127a	4.0296506e-08
239	0x359aad72	1.1524373e-06
240	0x34dd6a40	4.1241765e-07
241	0x320566d6	7.765001e-09
242	0x34ddc780	4.1309613e-07
243	0x34d58bf7	3.977618e-07
244	0x31257134	2.4075009e-09
245	0x3511bbd1	5.429002e-07
246	0x3572157d	9.0183295e-07
247	0x33443ef4	4.569206e-08
248	0x34d69dc2	3.997539e-07
249	0x350a4093	5.1502974e-07
250	0x31434961	2.8417946e-09
251	0x34b06bee	3.2861084e-07
252	0x00000000	0.0
253	0x2cd7a052	6.1284667e-12
254	0x00000000	0.0
255	0x34839b98	2.451386e-07

exp_avg f4 [128]
0	0x377ae16f	1.4953649e-05
1	0x37d2d73b	2.5134175e-05
2	0x37559e63	1.2732667e-05
3	0x37bd22fc	2.2546847e-05
4	0xb84357d7	-4.657343e-05
5	0x382845b6	4.0119245e-05
6	0xb71842b9	-9.075441e-06
7	0xb49dbc7d	-2.9380672e-07
8	0x382c05ad	4.101328e-05
9	0x38575e24	5.134767e-05
10	0x380964e0	3.2757293e-05
11	0x366d3223	3.5344935e-06
12	0xb7c79755	-2.3793118e-05
13	0x35662a1e	8.5742965e-07
14	0xb6fe5b05	-7.580386e-06
15	0x36deae48	6.6364046e-06
16	0x37aff82c	2.097719e-05
17	0xb7e3f031	-2.7172357e-05
18	0x37989739	1.819023e-05
19	0xb7b66004	-2.1740801e-05
20	0x378d3ad9	1.6835913e-05
21	0x380bf6f3	3.3370172e-05
22	0xb805660d	-3.1804713e-05
23	0xb891d89f	-6.9544876e-05
24	0xb7da0065	-2.5987809e-05
25	0x35ffbb1b	1.9053435e-06
26	0xb7360926	-1.0850175e-05
27	0xb824cfe1	-3.929425e-05
28	0x37ae1c49	2.0755588e-05
29	0xb64ef344	-3.0837991e-06
30	0x37937e49	1.7582572e-05
31	0xb69625f0	-4.474765e-06
32	0x3628c858	2.5150566e-06
33	0x367a0f6a	3.7261875e-06
34	0x389322ea	7.0160095e-05
35	0x377c15fa	1.5025487e-05
36	0xb71e4243	-9.432962e-06
37	0x377a4c2e	1.4918898e-05
38	0xb7b0e0f5	-2.1085589e-05
39	0xb7fc4603	-3.0073343e-05
40	0xb7ca73ba	-2.4134166e-05
41	0xb6360181	-2.7120989e-06
42	0x375a9853	1.3029278e-05
43	0x3786e5f5	1.6081127e-05
44	0xb83135f7	-4.2250347e-05
45	0x37e28566	2.7003418e-05
46	0xb6d1dd1c	-6.254426e-06
47	0xb83d1c74	-4.508761e-05
48	0x38150bd3	3.553538e-05
49	0x36113faf	2.1643752e-06
50	0x382231d3	3.8670212e-05
51	0xb697e330	-4.526599e-06
52	0x38d2a3de	0.00010044103
53	0x383d81bc	4.5181936e-05
54	0x36d5411f	6.3554758e-06
55	0xb7d93084	-2.5891008e-05
56	0xb73b5512	-1.1165876e-05
57	0xb82aa2c6	-4.0682753e-05
58	0x370ffd06	8.582376e-06
59	0x382296b7	3.8764174e-05
60	0x36eb92ba	7.020627e-06
61	0xb7474fa3	-1.1879866e-05
62	0xb69da7a9	-4.698483e-06
63	0x3802b2b1	3.1160835e-05
64	0xb86c36a7	-5.6317684e-05
65	0x380f930a	3.4230798e-05
66	0x3786edfc	1.6084865e-05
67	0xb749bd33	-1.2024585e-05
68	0xb7991308	-1.8247883e-05
69	0xb7cba49a	-2.4276134e-05
70	0x362184a3	2.4068074e-06
71	0xb7eafca0	-2.8012611e-05
72	0xb88b3ae2	-6.639004e-05
73	0xb87dbec5	-6.049757e-05
74	0xb80a6252	-3.2993332e-05
75	0x38bba314	8.9472305e-05
76	0xb726e385	-9.947345e-06
77	0x375ca970	1.3152472e-05
78	0x388b8c52	6.654173e-05
79	0x376c4707	1.40832335e-05
80	0x3784a08b	1.5810385e-05
81	0x380a7898	3.3014076e-05
82	0x37905e0c	1.7209932e-05
83	0xb70ba03a	-8.322351e-06
84	0x3837b56e	4.379957e-05
85	0x3792f288	1.7517494e-05
86	0x360c5a85	2.0914315e-06
87	0xb7cca838	-2.4397028e-05
88	0xb893a105	-7.0394985e-05
89	0xb5644816	-8.504152e-07
90	0x37fcb7fa	3.0126412e-05
91	0xb576a600	-9.1883703e-07
92	0xb754bafa	-1.2679719e-05
93	0x36cfead4	6.1964183e-06
94	0xb78c6622	-1.673686e-05
95	0x377ef36b	1.5196255e-05
96	0xb80b430f	-3.3202636e-05
97	0x365727a0	3.2060561e-06
98	0x37c2d9f1	2.3228089e-05
99	0xb752ef7b	-1.2572734e-05
100	0xb85b03fa	-5.2217372e-05
101	0xb7d9e49f	-2.5974876e-05
102	0xb7a7209e	-1.992314e-05
103	0x369b0b14	4.6206496e-06
104	0x37bfa0b7	2.2843813e-05
105	0x3630f68c	2.6369553e-06
106	0xb72ffcb2	-1.0489648e-05
107	0x37c3ae51	2.3326984e-05
108	0xb78278ca	-1.5553454e-05
109	0xb81caa43	-3.7351867e-05
110	0xb7a02f97	-1.9095647e-05
111	0x375af3cd	1.3050577e-05
112	0x382e5262	4.1561558e-05
113	0x36beaf2f	5.6828353e-06
114	0x372d10a5	1.0315479e-05
115	0x3607c2fd	2.0230066e-06
116	0xb6f697d1	-7.349045e-06
117	0x37b014dc	2.0990548e-05
118	0x356c5f6d	8.8055714e-07
119	0xb907043b	-0.00012876179
120	0xb7288bbf	-1.00461175e-05
121	0x37099bfb	8.202153e-06
122	0x3856ae34	5.1183815e-05
123	0x37b95db4	2.2097352e-05
124	0xb87b7e93	-5.9960945e-05
125	0x383ba9ca	4.4742403e-05
126	0xb7156fd3	-8.907128e-06
127	0xb7a6c700	-1.9881409e-05
