results/ag17/PlatformRotate/PlatformRotate-474419.onnx (onnx, 112474 bytes, 8 tensors)

network_body._body_endoder.seq_layers.0.weight f4 [128, 78]
000000 41 fd 23 be 86 b7 c5 be 2a 91 fe bd 00 84 99 3d
       -0.16014577 -0.3861658 -0.124300316 0.0749588
000010 b3 eb a9 bc 68 19 20 3e a9 32 1c be a5 47 53 bd
       -0.020742273 0.15634692 -0.152537 -0.051581997
000020 ee 96 c5 bd 25 00 f0 3d 84 a7 89 bd bc 5a 16 bd
       -0.09647928 0.117187776 -0.06721404 -0.036707625
000030 00 cf 33 bd dc 49 d8 3d fb 86 65 be e7 96 d0 bd
       -0.043898582 0.105609626 -0.22414772 -0.10185032
000040 38 14 03 3e c0 0e 86 bd 04 f2 00 3c 87 b0 15 3d
       0.12800682 -0.06545782 0.007870201 0.036545303
000050 c7 36 0e 3e ec b7 0b 3e b6 db 9b 3c 21 8e 8b 3d
       0.13888083 0.1364438 0.019025665 0.06814218
000060 ba 2f 0a 3e b1 94 0d 3d a0 b7 6d bc f6 19 d5 bb
       0.13494769 0.03456563 -0.014509112 -0.006503339
000070 19 3d ad bd 2a d7 a3 3d 34 3a d9 bd c0 78 fa 3b
       -0.08458919 0.08000024 -0.106068045 0.007643789
000080 f8 17 83 be 1d c5 d7 bd e4 86 6c bd b1 4f ee bd
       -0.25604224 -0.10535643 -0.05774583 -0.11636294
000090 b5 4b 12 bd 18 2a 8f 3d 47 d6 29 bd 96 02 f5 bc
       -0.03571673 0.069904506 -0.041464116 -0.02990846
0000a0 2e 4a ad 3c ce c7 57 be 0e 65 aa 3c 5c 2b ff bd
       0.021153536 -0.21072313 0.02080014 -0.12459442
0000b0 47 e6 28 3d f4 31 e2 bd ae 40 e1 bb c0 b1 7d 3c
       0.041235235 -0.11044684 -0.0068741655 0.015484273
0000c0 e8 9e e4 3d 0a 59 0a be 21 bd d0 3d 8d 22 15 3d
       0.111631215 -0.13510528 0.101923235 0.036409903
0000d0 35 4a b2 bd dd 80 80 3e 8c 23 0f be 7b 68 e9 3d
       -0.0870556 0.25098315 -0.13978404 0.11396881
0000e0 c8 3b d6 3c 66 a1 02 3e 3b 3f 8c 3d fc a0 84 39
       0.026151553 0.12756881 0.06847998 0.00025296945
0000f0 8c 13 66 3e 27 0f 45 bd 33 9b 4b 3e f2 f0 48 3d
       0.22468394 -0.048110154 0.19883423 0.04905791
000100 29 9f 1e 3d 06 f2 36 3c e4 82 a9 bd 28 30 3e be
       0.038726006 0.011166101 -0.082769185 -0.18573058
000110 bb 30 af 3c fe f1 82 3d 05 71 d9 bd eb f0 4b 3d
       0.021385541 0.063938126 -0.1061726 0.049790304
000120 6f c9 e0 bd 62 10 14 3c b3 b2 59 bd 44 fa 92 3d
       -0.109759204 0.009037109 -0.053148936 0.07176641
000130 4b 4e ba bd 10 09 f6 bd c9 63 2c 3d dc a9 a8 3c
       -0.090969644 -0.12013447 0.04208735 0.020588808
000140 82 5b 02 3d c5 91 d2 bd 98 da f2 3d ee 07 dc bd
       0.03182555 -0.102817096 0.118581 -0.107437
000150 ed bf 78 bd 2b 6c 53 be 74 f3 ee 3d 75 6f d9 3c
       -0.06072991 -0.20646732 0.11667529 0.026542405
000160 4a 23 e6 bd ee 4c d6 3d ff cc de bd 85 ab 97 3e
       -0.112371996 0.10463892 -0.10878944 0.29623047
000170 7f ee 2f 3e ad 75 db bd 09 de 51 be 90 0d 8c bd
       0.17180823 -0.10715804 -0.20494856 -0.06838524
000180 9a b5 4f be 20 56 2b 3a 68 ad 07 3e 7f 51 1b 3e
       -0.20284119 0.0006535966 0.13249743 0.15167807
000190 95 95 8c bd 5e 14 ce 3d 1d 8c b2 bd d5 5d fa 3d
       -0.06864468 0.100624785 -0.08718131 0.12224928
0001a0 3c bd ce ba 37 86 a0 3d 0f 38 33 bc 73 54 06 3e
       -0.0015772949 0.078380994 -0.010938658 0.13118152
0001b0 8d 72 07 be 5a d3 bf 3d b7 93 19 3d 87 0f 54 bd
       -0.13227291 0.09366484 0.037494387 -0.05177262
0001c0 66 04 40 3e f4 8d 1e bc ca e8 93 bd 69 f2 89 bd
       0.18751678 -0.009677399 -0.07222135 -0.06735689
0001d0 eb 5f 03 bd 7d 15 a8 3d c2 80 aa 3d da 3f a2 bd
       -0.032073896 0.082072236 0.0832534 -0.07922335
0001e0 c7 10 8c 3d 08 e6 d3 bb 7b 92 96 bd 56 c1 69 bd
       0.068391375 -0.006466631 -0.07352158 -0.057069145
0001f0 48 e9 fb 3d 2e 6b 79 bc ab e3 af 3b ff 58 2f bd
       0.12300354 -0.015223308 0.0053677163 -0.042809483
000200 f3 57 d1 3c e5 20 80 bd 94 52 9b 3e 33 17 2a be
       0.025554633 -0.06256274 0.3033644 -0.16610412
000210 b5 b6 81 3d 28 7e 61 3c 20 b0 e5 3d 68 31 52 3e
       0.06333677 0.013762988 0.11215234 0.2052666
000220 e0 e0 36 be 5b 13 c4 3d bf 9b 08 3d 3a 23 7d 3d
       -0.1785922 0.09574004 0.033351656 0.061801173
000230 bf c6 08 3e e7 47 d8 bd e8 7b ea 3d 73 04 cf bc
       0.13357066 -0.10560589 0.114494145 -0.025270676
000240 a3 6f 73 bc 0f 3e 59 bd a2 bf db 3d 9c 6f 87 3d
       -0.014858159 -0.0530377 0.107299104 0.06613085
000250 04 7d db 3d 95 58 84 bd cc d2 c3 3c 1c e0 79 bb
       0.10717204 -0.06462208 0.023904227 -0.0038127964
000260 fa 05 30 be 58 38 34 bd e7 ab d0 ba 2d 34 e1 3d
       -0.1718978 -0.043999046 -0.0015920372 0.1099628
000270 89 d0 7f 3c 7a 27 af bd 19 66 e3 3b 56 55 82 bd
       0.0156136835 -0.085524514 0.006939661 -0.06363933
000280 a9 25 8d bc 8c 19 72 bd e7 4b 7b be 50 2e 8c 3d
       -0.017229872 -0.059106395 -0.24540673 0.06844771
000290 ab a2 f6 3d 2e d1 9d bd 0b d8 9e bd 4b fa 37 3c
       0.12042745 -0.077059135 -0.07756051 0.011229108
0002a0 35 af 0d 3c 04 64 56 be ec b1 1d 3e 04 57 51 3e
       0.00864773 -0.2093659 0.15399903 0.2044335
0002b0 93 51 82 bd 82 c1 12 3d 9a 20 ac bd 92 c5 1f 3e
       -0.06363215 0.035829075 -0.08404656 0.15602711
0002c0 70 c9 d8 bd 4f d0 6d 3d 66 09 e3 3d 37 7a a0 bc
       -0.10585296 0.058059987 0.11085777 -0.019589527
0002d0 ef e0 17 3e d3 4b 75 3d 8c 18 21 be e4 a6 5c be
       0.14831899 0.059886765 -0.1573202 -0.21548039
0002e0 05 b7 5a bd 9c e2 d6 bd cc b9 b5 3d 19 a0 a7 3c
       -0.053397197 -0.10492441 0.088733286 0.020462083
0002f0 cd f6 9b bd 64 88 11 bd ce b0 10 bd 14 64 48 bd
       -0.07615433 -0.035530463 -0.035324864 -0.048923567
000300 10 4d 4b be 1f 9a 7a bd 7e 1d dc 3d 82 8b 1f bc
       -0.19853616 -0.061182138 0.10747813 -0.009737851
000310 7b ac 0a 3e 24 c1 6b bd c4 45 eb 3d f2 05 d5 bd
       0.13542359 -0.05755724 0.11487916 -0.104015246
000320 1d 15 25 be 08 46 a1 bd c3 f0 92 be d2 fe 30 be
       -0.16121335 -0.078746855 -0.28699312 -0.17284706
000330 1c 9f a9 bb 1f eb bb bd 73 fe 47 be 6b a7 64 3e
       -0.005176438 -0.09175705 -0.19530658 0.2232949
000340 1f 98 6e 3d 4a 3e 2e be e0 aa 76 3d d3 2f 09 bd
       0.058250543 -0.17015949 0.060221553 -0.033492874
000350 b2 30 8b bd 6e d4 8f 3e 28 cf bf bd c9 4a 26 3e
       -0.06796397 0.28091758 -0.09365684 0.16239466
000360 e3 c2 3c be 2d a2 bf bc 1e 94 67 3d a0 aa 9b bd
       -0.18433718 -0.023392761 0.05653774 -0.076009035
000370 a1 75 52 be cd 84 c4 3b 1f 4f 72 be d8 9b f8 bc
       -0.20552684 0.0059972764 -0.23662995 -0.03034775
000380 87 a9 5d 3e 72 c7 82 3d 4a b8 4e 3d 2a 9f 6b 3d
       0.21646701 0.063856974 0.05046872 0.057524838
000390 b4 3d d8 bc 8d fb 14 3e f7 47 fa 3d 4f b1 38 bb
       -0.02639661 0.14549084 0.122207575 -0.0028181856
0003a0 63 b8 0f bd 41 26 cd 3b b5 5a c6 3d 97 f2 a9 bd
       -0.035087954 0.0062606637 0.0968527 -0.082982235
0003b0 f9 cb f3 bd 3a e5 34 bd d9 6c 55 bd db 0f ed bd
       -0.11904139 -0.04416392 -0.05210576 -0.1157529
0003c0 14 8f 32 3d ff 5b 67 3d c6 d2 1a 3d 7c 5b 42 bc
       0.04359348 0.05648422 0.037798665 -0.011862632
0003d0 57 3b ae 3d d1 9c 23 be 8b 05 15 3d 8e 9f 54 3d
       0.08507412 -0.1597779 0.03638224 0.051909976
0003e0 f8 25 0e bd ae 5c 36 3e 29 53 07 3d 4f 9a 16 3e
       -0.03470418 0.17808792 0.033038292 0.14707302
0003f0 64 12 2d be 77 f1 89 3e 4c d1 03 3d fb 7d df bb
       -0.16901547 0.26942036 0.032182023 -0.006820438

network_body._body_endoder.seq_layers.0.bias f4 [128]
000000 93 ec 29 bc c8 46 f2 3a f4 f2 4f bb 60 72 33 bc
       -0.010371345 0.0018484229 -0.0031730505 -0.010952562
000010 e1 3e 10 3c d7 58 a2 3b 4e e4 a3 39 03 dd 36 3a
       0.008804054 0.004954438 0.00031259883 0.00069756823
000020 e8 6f 5f 3b d2 f1 ec bb 03 c7 8f 3b 23 d4 0f bb
       0.00340938 -0.0072309757 0.0043877377 -0.0021946512
000030 bb bb 2c bc e6 5d e9 3a 61 cb 27 3d ec 45 04 bb
       -0.010542805 0.0017804473 0.04096544 -0.0020183278
000040 e4 26 9b 3c 30 2c 70 3b 9e 27 38 3c 92 86 1b 3c
       0.018939443 0.0036647432 0.011239914 0.009492533
000050 d1 d8 c9 3b bd 15 26 3b bd 23 53 3c 2f c5 56 3c
       0.0061598797 0.0025342547 0.012886939 0.013108536
000060 4e 77 8d bc 1e 4f d3 bb 6d e2 3d bc fe 20 21 bc
       -0.017268803 -0.0064486405 -0.011589629 -0.009834526
000070 26 da a7 3a fc 78 6a 3c ea 26 6f bb 8a 27 b2 bb
       0.0012806102 0.0143110715 -0.00364917 -0.0054368423
000080 37 04 0c bc 98 f7 8c 3c 8d 59 3c 3c a5 b8 67 3b
       -0.008545927 0.017207906 0.01149596 0.003535786
000090 48 66 b2 bb 6f 49 70 3c da ad 97 3a 24 df d0 3b
       -0.005444322 0.014665945 0.0011572198 0.0063742567
0000a0 4c e1 c3 3b 61 bd 4d bc db 24 72 bc ea 40 9c 3b
       0.005977785 -0.0125573585 -0.014779295 0.0047684805
0000b0 75 5f 70 bb 39 d9 35 3c 99 8c 2f 3c 40 51 4b bb
       -0.003667799 0.011099153 0.010714673 -0.003102377
0000c0 d0 30 5f 3b fd 96 76 bb 8a 2d 25 bc 1b f5 16 bb
       0.0034056194 -0.0037626617 -0.010081658 -0.0023034278
0000d0 a9 09 e4 bb ce ac 6a bc ab 1f 23 3c 7f 78 8b 3c
       -0.0069591594 -0.014323426 0.009956281 0.01702523
0000e0 f0 30 b0 bb 0e aa cc bb 16 30 9d bb d7 cc 0b bc
       -0.0053769276 -0.006245858 -0.004796992 -0.008532724
0000f0 94 9f a5 bc 5f 33 ef bb e3 0d e4 ba de 80 04 bc
       -0.020217694 -0.007299825 -0.0017399158 -0.008087365
000100 de 0e 8a bb e4 95 1a bc 35 08 32 bc ce 03 1b bc
       -0.004213198 -0.009435151 -0.0108662145 -0.009461356
000110 18 83 c2 3c d2 eb 8b bc 18 85 b9 bb 9c c4 18 39
       0.023744151 -0.017080221 -0.005661618 0.00014569092
000120 01 aa 40 3c 0e 0f 6e bb 93 54 2f 3c 50 db 2f ba
       0.011759282 -0.0036324891 0.010701316 -0.00067084003
000130 47 d8 77 3c f4 28 d5 bb 41 1d cc ba 2d 5b 85 3c
       0.015127248 -0.006505126 -0.0015572683 0.016278828
000140 32 92 78 bc 39 68 0f 3a 55 2b 36 3c bc 50 8d 39
       -0.015171574 0.00054705475 0.01111873 0.00026953768
000150 8e ac ca bb b5 f3 55 3c b7 eb 6f 3b 85 53 b4 bb
       -0.006185121 0.013058593 0.0036609003 -0.0055031204
000160 e6 6c 72 bb 79 f4 38 3c 93 4e 40 3c 72 c6 c2 bc
       -0.0036991178 0.011288756 0.011737484 -0.023776267
000170 fa d0 a8 bb a5 95 3e bb ac 39 8d bb 3d 4b aa bc
       -0.005151865 -0.0029080894 -0.0043098535 -0.02078783
000180 df fd 99 3c d2 09 a1 3c 50 d6 c8 3b b3 23 45 3c
       0.018797813 0.019658003 0.0061290637 0.012032437
000190 c3 a2 ff b9 c0 07 45 39 46 65 6d 3b 71 2e ba 3b
       -0.00048758657 0.00018790271 0.0036223694 0.005681806
0001a0 42 c3 af bc fb e5 8b 3b 03 b2 e6 bb f3 a6 82 3b
       -0.02145541 0.004269359 -0.0070402636 0.003987187
0001b0 46 e1 07 3b 0e 5e 26 bc bf 9e 87 bb f6 cc 5d bb
       0.0020733639 -0.01015426 -0.004138797 -0.003384409
0001c0 07 56 2f 3c 3c 1d 8f bb 31 96 d6 bb 49 e8 4f 3b
       0.010701663 -0.0043674987 -0.006548666 0.0031724146
0001d0 18 c4 4c bc fa ce bb b9 ba 68 9e bb c1 1f 85 3b
       -0.012497924 -0.0003582163 -0.0048342617 0.0040626233
0001e0 bf bb ac bc 51 bd b6 3b cc a9 0b bc f4 4d 3d 3c
       -0.021085618 0.0055767675 -0.008524369 0.01155423
0001f0 16 d8 04 bb 84 9d b4 ba 90 c7 87 bb 9f 98 1e 3c
       -0.0020270399 -0.0013779853 -0.0041436628 0.009679942

network_body._body_endoder.seq_layers.2.weight f4 [128, 128]
000000 ba 8e 50 be 37 36 d5 3d 49 52 f0 bb 34 db 39 3d
       -0.20366946 0.10410731 -0.007334028 0.045375064
000010 e1 48 bf 3d 10 59 ac bd ad 9b 99 bd a9 73 e9 38
       0.093400724 -0.08415425 -0.07500396 0.00011131849
000020 7a 2e d3 3b f9 9a 99 bd aa 0e 11 3d dc 4b a2 3c
       0.0064447494 -0.07500262 0.035414375 0.019811563
000030 e3 69 0f bd 96 c5 1d bd 34 2b 07 be 2b 9c cf bd
       -0.03501309 -0.03851851 -0.13200074 -0.101372086
000040 f1 9c 4b bb 69 f5 9b 3d cd 9e 8f bc 81 d4 4a 3d
       -0.0031068886 0.07615168 -0.017531777 0.049519066
000050 b2 78 fd 3a 8a b5 94 bd da d2 13 3e 99 79 13 3e
       0.0019338338 -0.07261188 0.14435902 0.14401855
000060 9e cb 16 3e 7d cc 06 bc b7 cf d3 3d ac da d3 bb
       0.14726111 -0.008227465 0.10342353 -0.0064652767
000070 f0 19 d8 3d c5 e4 52 bc 4c 81 53 bd 65 ee 30 be
       0.10551822 -0.012871926 -0.05163698 -0.1727844
000080 36 c0 83 bd cb 49 68 3d 68 72 8f bc 4d 5f 84 3d
       -0.06433146 0.056711 -0.017510608 0.0646349
000090 53 31 b0 bd f2 85 d5 3c ef 64 86 3d 5f f7 9b 3d
       -0.08603158 0.026064847 0.0656222 0.07615542
0000a0 3d da f1 bc 36 0d f7 bc 04 44 92 3d 09 2e 42 3d
       -0.02952301 -0.030157667 0.07141879 0.047407184
0000b0 fb 6f 85 bb 80 5e e1 3d 25 e4 66 3b 8b 11 b8 3c
       -0.004072187 0.110043526 0.00352312 0.022469303
0000c0 1a da 95 bd cb be d9 3c 9b 7e 4f 3d a5 b9 8b bd
       -0.0731699 0.026580235 0.05065785 -0.06822518
0000d0 45 99 0c 3e 09 8e 0b be cd 21 0a 3d 6f 56 19 bd
       0.13730343 -0.13628401 0.03372364 -0.037435945
0000e0 7c c3 45 bc 87 56 0e 3c 88 83 51 3c d1 35 39 be
       -0.012070533 0.008687622 0.012787707 -0.18086936
0000f0 bf d4 2c 3d 70 09 34 3d cf 44 c2 3d 31 69 71 3a
       0.042195078 0.043954313 0.094857804 0.0009209095
000100 b5 ff ca 3d 83 d5 ad bd 41 b4 d0 3d 8d e7 03 3e
       0.099120535 -0.0848799 0.10190631 0.12881298
000110 e7 17 73 3c 9f a5 40 3e 84 da 36 be bd 4c 37 bc
       0.014837242 0.1881318 -0.17856795 -0.011187729
000120 38 7c 21 be 5b 35 20 bd 36 6d a0 bd c2 1e 12 be
       -0.15770042 -0.039113384 -0.0783333 -0.14269546
000130 58 33 bf bd 4b 51 0e bc a9 a8 89 3c bb 2c a7 bd
       -0.09335965 -0.008686374 0.016804056 -0.081628285
000140 88 96 84 bd 74 a3 91 3d a7 fe c7 3d 0c f9 30 be
       -0.06474024 0.07111254 0.09765368 -0.17282504
000150 e1 d8 ba bd 96 f9 d5 3c c5 87 14 3b 44 f3 a9 bd
       -0.091233976 0.026119988 0.0022663933 -0.08298352
000160 89 db c0 bd 46 68 19 be ee 35 e4 bc a0 12 7d 3d
       -0.09416873 -0.14981183 -0.027857747 0.06178534
000170 42 dc 66 3d 87 1c 2e 3c c9 73 68 3d 3c f6 4e be
       0.056362398 0.010626919 0.056751046 -0.20211118
000180 dc d1 85 bc b8 c7 74 bc 8a 6f 0e 3d 5b 0a da bd
       -0.01633542 -0.014940195 0.03477434 -0.106465064
000190 ee 6a 22 be da cc 6c bd a2 23 e3 bd 02 07 17 3e
       -0.15861103 -0.05781255 -0.11090781 0.14748767
0001a0 fb 4e 8d 3d 03 7a 2e bc 02 f9 f4 3b 51 e8 83 bd
       0.0689983 -0.010649207 0.007475973 -0.06440795
0001b0 3c 3a b0 bd cf 7e 5b bd 30 ce 29 be 9f 5f d4 3d
       -0.08604857 -0.05358773 -0.1658256 0.10369801
0001c0 6b ac 1b 3e a6 d8 7c bd 76 18 72 bd 3d 61 ff ba
       0.15202491 -0.06173005 -0.05910536 -0.0019483935
0001d0 dd 3c a4 3c 42 19 11 3e 32 70 bf bc 59 bc 0a 3e
       0.020048553 0.14169791 -0.023368929 0.13548411
0001e0 f9 b9 28 3d 71 3c 66 bd 76 40 ba bc 70 af 4c bc
       0.041192982 -0.056209985 -0.022735815 -0.012492999
0001f0 10 43 81 3d 42 7c b2 3d 6e 6e be bd b2 a1 ee 3c
       0.06311619 0.087151065 -0.092984065 0.029129837
000200 37 a9 1c bd e6 9c 6d bd 28 ac d3 bd a7 6d aa bd
       -0.038247313 -0.058010958 -0.103355706 -0.08321696
000210 b2 c5 d1 bb 93 36 35 bd 24 3a fc 3d f1 ea d6 3d
       -0.006401741 -0.0442415 0.12315777 0.1049403
000220 2a f8 e3 bb df 15 b6 bd f3 18 59 3d 6d e7 82 3d
       -0.0069570737 -0.0889089 0.05300231 0.06391797
000230 05 fa 49 be fd 84 3c 3e ac d6 3b bd 8d 85 b7 bb
       -0.19724281 0.18410106 -0.045859024 -0.0056006373
000240 36 83 1c bd 1c 5c 1f 3d f3 7b c3 bd 3c 62 d1 bc
       -0.03821107 0.0389062 -0.09545126 -0.025559537
000250 0f 14 08 3e 8f 4c 10 bd a6 2c 82 bd ce be 22 be
       0.13288902 -0.035229262 -0.06356172 -0.15893099
000260 d1 f3 2f bd 85 0f ca bd c4 72 4b be b2 f7 bd 3d
       -0.04295713 -0.09866241 -0.19867998 0.0927576
000270 c0 8a 41 3d 5d 43 a2 bd a8 4e f2 bb 99 20 11 3c
       0.047251463 -0.07923005 -0.0073946305 0.00885787
000280 52 89 69 bd 02 a3 87 ba 00 33 2a 3a 08 93 03 bd
       -0.057015724 -0.0010348263 0.0006492585 -0.03212264
000290 de 77 da bd fc bd ef 3d 19 6e da bc 5e 70 cd 3c
       -0.10667394 0.117061585 -0.026663827 0.025077995
0002a0 78 08 4b 3d 53 f7 86 3d de 85 35 3d 18 68 ec 3c
       0.049568623 0.06590142 0.04431712 0.02885823
0002b0 27 0d 77 bd 7b 1d cb 3d ce ee 23 be 44 47 4e 3e
       -0.060315277 0.09917732 -0.16009066 0.20144373
0002c0 a0 bf 03 3b b4 12 0a 3e b6 56 4b bd f9 4e 29 be
       0.002010323 0.13483697 -0.04964324 -0.16534032
0002d0 a5 d3 33 3e 9a be 61 bd e0 50 e5 bd 25 6b de 3c
       0.17561205 -0.055113412 -0.11197066 0.0271507
0002e0 a0 7b e7 3d 51 21 8e bd ea 6b 8a 3d 82 b3 2f be
       0.113028765 -0.06939948 0.06758864 -0.1715832
0002f0 6c 1a 24 be 23 9e 06 3e db c1 7e bd d1 fb 43 3e
       -0.16025704 0.13146262 -0.062196594 0.19139029
000300 23 af 05 3c 56 d8 b2 bd 15 8b 10 3e cc 45 42 3e
       0.008159432 -0.08732669 0.14115556 0.18971938
000310 aa ea d6 3d 49 af 79 3d 61 9d 9f bc 70 c3 5a 3d
       0.10493977 0.06095818 -0.019484224 0.05340904
000320 81 e1 ba bc e2 34 1e bb c1 85 7e 3c 31 03 00 be
       -0.022812607 -0.0024140407 0.015534819 -0.12501217
000330 6b 7e b8 3c 57 5b 14 bd 59 44 29 3d 51 96 5f bd
       0.022521218 -0.03621992 0.041324947 -0.054586712
000340 42 01 3e 3d d1 89 22 3d 97 b9 a9 3d dd bb 41 be
       0.04638792 0.039682213 0.082873516 -0.1891932
000350 fd d6 d5 3c 54 0f 51 bd 44 87 68 3d d7 69 bb 3d
       0.026103491 -0.05104001 0.056769624 0.09151047
000360 e4 80 3b bd 85 80 45 3c fa c4 2a 3d 60 43 c7 bc
       -0.045777217 0.012054567 0.041691758 -0.02432412
000370 15 22 88 bd 96 19 ae bd 63 9e 88 3d d0 7e f7 3c
       -0.06647126 -0.08500974 0.06670835 0.030211836
000380 c4 75 bd 3d fb a4 2d bc 78 f9 27 bd f4 b2 71 be
       0.09250978 -0.010598416 -0.041009396 -0.23603421
000390 7e bd 0b 3e 3c ad 10 bc d9 d9 1c 3e 85 54 2b bc
       0.13646504 -0.008830365 0.15317477 -0.010457163
0003a0 9f b5 31 3d 74 45 2d 3e b9 26 0c be 75 c3 ca bd
       0.043386098 0.16921026 -0.13686647 -0.09900562
0003b0 00 32 89 bb a8 e4 80 3c e9 e1 19 be 72 40 8d 3e
       -0.0041868687 0.015734032 -0.15027584 0.2758823
0003c0 7f 8d 67 bd dc d7 5b be c7 03 59 3d ee 53 ee 3d
       -0.056531426 -0.21469063 0.052982118 0.11637102
0003d0 20 10 32 be dc cb 36 3d 2f dc 06 bd c3 69 66 bd
       -0.17388964 0.04462801 -0.032924827 -0.056253206
0003e0 69 0f 3c be b4 33 07 3d b3 c7 ab bd 6f 63 c4 bc
       -0.18365254 0.033008292 -0.08387699 -0.023973195
0003f0 ea c0 2b be 17 57 b2 bc 9d d8 9f 3d 38 47 e9 3d
       -0.1677281 -0.021770043 0.078049876 0.11390537

network_body._body_endoder.seq_layers.2.bias f4 [128]
000000 75 a3 6d 3b 00 69 1b bb fd e5 39 bc 25 86 35 bc
       0.0036260758 -0.0023713708 -0.011346337 -0.011079346
000010 43 8e a4 bb fe 16 9c bb e0 a5 22 3b c6 cc 4c ba
       -0.0050218417 -0.004763483 0.0024818107 -0.0007812496
000020 6e 8b 87 bb 66 7d 13 bc da af f5 bb e4 48 1b bb
       -0.0041364944 -0.009002065 -0.00749777 -0.002369457
000030 50 b5 17 bc f3 22 93 3c b3 5c fe bb 3f 9c e9 bb
       -0.009259537 0.017961001 -0.0077625155 -0.0071292217
000040 fa 2e 96 3b 32 79 6d 39 4a 82 f7 bb 17 a8 cf bb
       0.0045832368 0.0002264723 -0.0075533735 -0.0063371765
000050 bd 92 3c 3c 30 01 84 3b 23 ff 6e 3a 67 6e 8d 3c
       0.0115095945 0.004028462 0.0009116998 0.017264558
000060 c6 38 3a bc 8d 9e d6 3b c4 af 0b 3c 86 fa 23 3b
       -0.011366075 0.0065496624 0.0085257925 0.002502115
000070 b8 37 6c 3c 1e 63 e3 3b 66 30 62 bc d5 38 82 bc
       0.014417581 0.006939306 -0.013805484 -0.01589624
000080 5f c7 2b bc c7 f1 af 3a 7d c7 d5 3b d5 11 31 bc
       -0.0104845455 0.0013423496 0.006524025 -0.010807474
000090 f2 7f a5 bb d7 1c 32 bc 81 f2 b7 3b a8 da 52 ba
       -0.0050506527 -0.010871134 0.0056136255 -0.00080434466
0000a0 c0 ba 16 ba e7 d1 28 3b 1d c0 cd 3a 80 a4 bb 3b
       -0.0005749874 0.0025759877 0.0015697513 0.005726397
0000b0 1c 7b b2 3b d2 5d 85 bc a9 6d 31 3c 19 57 1b 3c
       0.0054468047 -0.016280089 0.010829368 0.009481215
0000c0 bd e3 7b bb ed d5 fb ba 4d 11 91 3b a0 88 1e bc
       -0.0038435303 -0.0019213535 0.0044271112 -0.009676129
0000d0 0f 26 f1 3a da 5c 5a bc 59 cf 62 3b 17 2f 06 3c
       0.0018398183 -0.013327802 0.0034608452 0.008189938
0000e0 dd 5c 4e 3b f8 3d 9d bc 7b 93 0f bb fc 9d ef 3a
       0.0031488456 -0.019194588 -0.0021907974 0.0018281336
0000f0 90 26 cc 3b 57 5b 64 ba 0d 74 8b ba fc 38 8c ba
       0.006230183 -0.00087111205 -0.0010639444 -0.0010698135
000100 37 f0 88 bc 8f c0 a2 bb aa 7c 37 bc 3b 05 92 3b
       -0.016716106 -0.0049668024 -0.011199156 0.00445619
000110 be 46 1c ba f5 ad 95 bb 6d bd be 3b 75 fa be bb
       -0.0005961469 -0.0045678564 0.005820921 -0.0058281966
000120 ad c7 22 3b 05 2b 90 3b 15 dd 22 bb 87 d4 b7 3b
       0.0024838254 0.0043996596 -0.0024851013 0.005610052
000130 7e af af 3c 49 f5 81 3c 1b 9b ae 3b 50 84 65 bb
       0.021445986 0.015864031 0.0053285486 -0.0035021491
000140 95 50 e8 bb 15 9b 64 3a fa 83 f7 3b 63 5e 9a 3b
       -0.0070896843 0.0008720619 0.0075535746 0.004710959
000150 cd dc 4e bc 6d f1 f1 3a 9c 83 76 bc cf ae 91 bb
       -0.012625885 0.0018458791 -0.015046027 -0.0044458876
000160 a6 4c 82 3b f2 86 18 bc 98 52 6b bb 0c f1 ff 38
       0.0039764224 -0.009309517 -0.0035907384 0.00012204246
000170 51 c7 f6 3b 35 ab e6 bb a6 5c 94 ba c5 f5 6d 3b
       0.0075310846 -0.0070394524 -0.0011319115 0.003630982
000180 a0 43 3b bb d6 22 ca bb f2 a4 42 bc a7 b1 16 bc
       -0.0028574243 -0.0061687035 -0.011880146 -0.009197629
000190 07 d8 f9 bb eb e1 2c 3b 99 a7 ce 3a 27 7d c3 3b
       -0.0076246294 0.0026379775 0.0015766501 0.005965847
0001a0 2b e2 8d b9 9c 94 b5 bb 36 8c be 39 6c 4f 6b bc
       -0.00027062124 -0.0055413973 0.0003634409 -0.014362197
0001b0 ff 75 bb b8 cb b6 50 ba ae 47 90 bb bc 49 81 bb
       -8.938833e-05 -0.00079618086 -0.004403076 -0.0039455574
0001c0 bc fa 5d bc fd 6b 87 3b ee ad 7a bc 4c 1c b1 bc
       -0.013548549 0.0041327463 -0.015300257 -0.021619938
0001d0 6b d0 81 3b 4b 65 76 ba 25 fd 08 bc ef 75 2f bb
       0.003961613 -0.0009399249 -0.008361136 -0.0026773175
0001e0 52 84 82 3b ce 30 5e bb bf 65 10 3c 47 39 f0 bb
       0.003983059 -0.0033903602 0.008813321 -0.0073310467
0001f0 36 3a c7 bb 15 84 45 bc 5f 92 61 ba 67 7f 34 ba
       -0.0060799373 -0.012055417 -0.000860488 -0.00068854395

action_model._continuous_distribution.log_sigma f4 [1, 2]
000000 82 92 d6 bc 0a 16 13 3d
       -0.026192907 0.03590969

action_model._continuous_distribution.mu.weight f4 [2, 128]
000000 43 e5 a3 3b 23 e4 e5 3c d0 d5 88 3c 44 d0 b8 3a
       0.0050016954 0.028062886 0.016703516 0.0014100154
000010 a3 1a 2b 3d 8b 83 ad 3c 1b 44 33 bc 8a f4 b1 3c
       0.04177345 0.021180889 -0.010941531 0.02172305
000020 f1 63 d8 bc 14 20 35 3c d4 90 ba ba 97 4f 0e bd
       -0.026414843 0.011055011 -0.0014233836 -0.03474387
000030 d8 b2 6a 3c ef 90 10 3d 4d ae 1f bc 3f 00 86 bb
       0.014324866 0.03529447 -0.009746146 -0.004089385
000040 8d 17 ee bb 1e 84 60 3c 67 8c 4b 3c d4 f8 1c 3c
       -0.007265991 0.013703374 0.012423611 0.00958081
000050 22 e6 04 bd ce f7 b9 bb 21 c3 e5 bb bc c9 03 bd
       -0.032446034 -0.0056752926 -0.0070117866 -0.03217481
000060 b9 a7 96 bc c9 db dc 3c 75 ac 20 3d 91 43 36 3d
       -0.018390523 0.02696027 0.039226968 0.04449803
000070 5f 8c c5 bc d7 0a 04 bd a7 9a ec 3c 36 2f 83 ba
       -0.024114786 -0.0322369 0.028882338 -0.0010008577
000080 d5 c5 92 39 6a 39 cd 3c 16 8a 48 3c c6 df 16 bc
       0.00027994686 0.025051791 0.0122399535 -0.009208625
000090 99 01 1a 3d 0a 8b 83 3c d3 03 b1 bb 71 66 d1 bb
       0.03759918 0.01605751 -0.005402067 -0.006390386
0000a0 ba 74 41 bc 21 0c c7 bb ca 33 45 bd 16 fa e5 bb
       -0.011807615 -0.006074444 -0.048145093 -0.007018338
0000b0 19 ce be bb 66 69 6c bb e5 00 ca 3c 86 a1 98 3c
       -0.0058229086 -0.0036073565 0.02465863 0.018631708
0000c0 f8 fd 44 bc 36 0e 8d bc 7e 8f 72 bc d3 4b e0 bc
       -0.0120234415 -0.01721869 -0.014804719 -0.027379906
0000d0 58 9d 43 3d 34 99 3d bc cd 1e bf 3a e7 c4 3e bc
       0.047757477 -0.011572171 0.0014581323 -0.011643625
0000e0 66 f9 62 bc 20 db 8a bc 03 f0 c9 bc c7 82 50 bb
       -0.0138534065 -0.01695019 -0.02465058 -0.003181623
0000f0 5b f2 e8 bc 53 dc 59 bc 89 68 d9 bc cc c2 8f 3c
       -0.028435877 -0.013297158 -0.026539104 0.017548941
000100 5f 6c 85 3b f0 9b 94 bc 69 93 72 3a 0f 27 91 bb
       0.0040717567 -0.018140763 0.0009253533 -0.004429705
000110 4e 91 9d bb 35 d4 3a 3c 96 12 27 3a 46 17 80 bb
       -0.0048085814 0.011403133 0.0006373314 -0.0039090244
000120 92 86 c9 bc b2 70 cd 3c 41 6f 8e 3b 51 17 13 3d
       -0.024600301 0.025078151 0.0043467586 0.035910908
000130 9a 30 e2 bc 0c 4b 8f 3c 98 99 d7 bc 42 b0 10 bd
       -0.027611066 0.01749184 -0.026318356 -0.035324343
000140 b2 c2 a5 bc cc e0 15 bd 8f 51 b3 3c eb 88 06 3d
       -0.02023444 -0.036591336 0.021889476 0.03284542
000150 16 ee e7 bc 9c 4f 66 3b 24 ee 70 b9 ff ed b6 bc
       -0.02831177 0.0035142666 -0.00022976898 -0.022330282
000160 d2 49 cf bb f0 17 ec bc 1b 3d ff 3c 05 b4 26 bb
       -0.0063259387 -0.028820008 0.031157067 -0.002543689
000170 ff ae 16 3d 8f 61 28 3c f0 41 93 bb 12 15 9c bb
       0.036787983 0.010277166 -0.0044939443 -0.004763254
000180 e8 08 ba bb 31 2f 28 bc a2 05 21 bb c6 09 b8 3b
       -0.0056773312 -0.010265158 -0.0024570008 0.0056163995
000190 1f e3 aa 3a bc 25 a9 bc c1 60 0e 3d 6a 30 fe bc
       0.0013037658 -0.020647876 0.03476024 -0.031028945
0001a0 03 0b ca bc 0f 7d b5 3c 3a 84 9b bb 6b 18 13 3b
       -0.024663454 0.02215436 -0.0047459872 0.0022444974
0001b0 13 ae 58 bc 2e 22 0a 3d 24 7d 97 3c 67 0c 01 bb
       -0.013225096 0.033724003 0.018492289 -0.001969123
0001c0 3f 93 77 3c 7a a5 2d 3c 85 15 24 3b 21 10 37 bc
       0.01511079 0.010598535 0.002503724 -0.011173279
0001d0 5d cd 81 bc 37 b7 9d bc ec 5c 89 3b 52 06 d1 bc
       -0.015844995 -0.019252403 0.0041919854 -0.02551571
0001e0 95 9b cd 3c 96 f1 b1 bc a5 b7 05 3c e4 cb 90 3c
       0.025098601 -0.021721642 0.00816146 0.017675348
0001f0 65 0b 78 3c ae c2 38 3c a5 70 57 3c 22 d8 f5 ba
       0.015139435 0.011276884 0.013149415 -0.0018756429
000200 cb 81 b3 bc a0 7c 9c bc fc 3e 58 ba a6 f6 3f 3b
       -0.021912476 -0.019102395 -0.00082491315 0.00292913
000210 c5 28 1f 3d 9d 3d 67 3c 24 5f fa bb 1d 03 42 3b
       0.03885724 0.014113811 -0.007640736 0.0029603906
000220 6a 44 20 3d 7b 59 24 3c e8 74 97 bb bc a0 ab 3b
       0.039127745 0.010031099 -0.0046220906 0.005237667
000230 8d 95 09 bc e5 53 0e bc 07 fa 27 3d b9 e6 c4 3a
       -0.008397472 -0.008686994 0.04100993 0.0015022374
000240 4c 5f cf bb e2 d1 83 3a 43 34 cd 3b 0a 84 cf 3b
       -0.006328499 0.0010057057 0.0062623336 0.006332879
000250 88 d1 26 bc 5e 63 6a 3d c0 a0 0d 3d 47 2c 29 3d
       -0.010181792 0.05722367 0.03457713 0.04130199
000260 7e 96 09 3c 01 a3 fe 3a a9 06 12 3c f7 32 86 bc
       0.008397697 0.0019427241 0.008912721 -0.016381724
000270 51 1e ab 3b 99 cf fd 3c a9 fc 68 3c 1e 82 8e 3b
       0.00522212 0.03098278 0.014220395 0.0043490073
000280 85 32 87 bc 6b 48 5d bc fa a3 ad bc 61 b1 85 3b
       -0.016503582 -0.013506035 -0.021196354 0.004079983
000290 79 15 af 3c 25 ee 4c 3c 85 fa c2 bc ab 0b cf 3c
       0.021372544 0.01250795 -0.023801098 0.025274118
0002a0 ea d3 9c bc 03 15 25 3d 34 8b 4a 3b be c2 b5 3a
       -0.019144017 0.04030324 0.0030905725 0.0013867242
0002b0 12 13 6d bc b2 4d 21 3b 19 52 51 3d 0e c3 e8 3c
       -0.014469879 0.002461296 0.051103685 0.028413322
0002c0 4e 26 12 3d 58 64 db 3c d9 f3 38 bd 00 16 70 3c
       0.03568106 0.026781246 -0.045154426 0.014653683
0002d0 32 18 66 bb 36 2d b4 3c 68 ae 4e bc 55 57 f3 bc
       -0.0035109636 0.021994215 -0.012614824 -0.02970473
0002e0 8e b2 a6 3b 45 01 8a bc 63 90 73 3d 91 65 e9 3c
       0.0050872033 -0.016846308 0.05946387 0.028490813
0002f0 db c6 01 bb a4 98 c8 3c 8c 2e 0e 3d 9e 85 1f bd
       -0.0019802365 0.024486847 0.03471236 -0.038945787
000300 16 bc 75 3a 77 b0 b1 3c 4e 35 a1 3c 5b fd ec bc
       0.0009374035 0.02169059 0.019678738 -0.028929403
000310 1b d3 06 bc 88 92 c2 3b ac 4a 84 bc 7c ad 72 3c
       -0.008229042 0.005937878 -0.016148888 0.01481187
000320 ee b6 af 39 65 b0 7b 3b ce a9 71 3c 05 0b c3 3b
       0.00033514894 0.00384047 0.014749957 0.0059522414
000330 de 37 7a bc 38 4f 97 3d a7 bc 0b bc cd 9d ac bc
       -0.015272109 0.07388157 -0.008528865 -0.021071339
000340 d9 e9 c3 bb b8 69 6f bc 81 d6 6e bd 85 d5 61 3c
       -0.0059788045 -0.014612608 -0.058310036 0.013783817
000350 94 59 a1 3d 90 0c c6 bc 55 7a cb bb b4 25 20 bc
       0.07878414 -0.024175912 -0.0062096515 -0.009774614
000360 ea dc 81 bc 55 6d 03 bd 05 26 db bb f4 f9 18 3a
       -0.01585241 -0.03208669 -0.006687882 0.0005835586
000370 fd ac 18 bd a3 c9 f1 3c 79 8e 83 bb 24 67 a4 3b
       -0.03727435 0.029515093 -0.004014787 0.005017178
000380 1e 85 52 3d e1 41 c2 3b ed 8b 75 3b 36 5d 94 3c
       0.05139648 0.0059282635 0.0037467435 0.018110853
000390 32 2b f8 3b 52 7b 9d 3b 6d 82 c8 bc 88 aa 5e bc
       0.0075735087 0.0048059607 -0.024476254 -0.0135904625
0003a0 5f 9c 29 3c 90 81 47 3a ca f7 25 ba c6 69 42 3c
       0.010352223 0.0007610554 -0.0006331174 0.011866039
0003b0 98 a5 02 3d b0 3f dc bb 05 f9 e5 bb f4 e8 ab 3c
       0.031896204 -0.0067214593 -0.007018211 0.020985104
0003c0 02 50 9b bb dc 26 f0 bb 6d 5e 12 3c b1 c2 7d 39
       -0.0047397623 -0.007328851 0.008933646 0.00024200488
0003d0 11 9c 3d bc a8 16 3b 3c 9f a7 65 3c 0c 4a 4f bb
       -0.011572854 0.011418976 0.014017015 -0.0031629829
0003e0 d3 e6 7e bc fc 53 09 bd 40 15 18 bd 1c e4 d9 3b
       -0.0155579625 -0.03352736 -0.03712964 0.006649507
0003f0 34 69 97 3c 30 8e 7b bc c9 01 d6 3b 34 27 a7 bc
       0.018482782 -0.015353724 0.0065309745 -0.020404436

action_model._continuous_distribution.mu.bias f4 [2]
000000 87 1f ba ba 65 65 cd bb
       -0.001420007 -0.0062681907

action_model._discrete_distribution.branches.0.weight f4 [1, 128]
000000 f7 f1 ba 3b f2 a4 4d 3c b3 c9 8d 3a 15 87 22 bc
       0.005705114 0.012551533 0.0010817557 -0.009919901
000010 c6 0f 81 3b 0a 3f 90 3c f7 41 18 bc 38 b1 01 bb
       0.003938648 0.017608184 -0.009293071 -0.0019789468
000020 65 cf 8f 3c eb 7d db 3a 93 11 26 3c 38 1b 46 3c
       0.017554948 0.00167459 0.010136026 0.01209145
000030 a4 8a 37 3b 7e ac a0 3b 10 04 c2 39 a3 48 83 3b
       0.002800622 0.004903375 0.0003700559 0.0040064617
000040 8b 46 8c ba 3d 8c 5a bc 39 46 13 bc 9b 6e 1a 3c
       -0.0010702176 -0.0133390995 -0.00898891 0.009425784
000050 e6 e2 ca bc e3 a3 26 bc 1d 67 80 3b 08 96 ca 3a
       -0.024766397 -0.01017091 0.003918542 0.001545609
000060 13 28 86 3b ae 86 ba 3b 3d ee 7e 39 b1 b4 17 3c
       0.0040941327 0.0056923246 0.00024312078 0.009259389
000070 91 70 b0 3b 1b 5d d5 bb da 7b 59 3c 5a 82 b5 bb
       0.0053845127 -0.006511343 0.013274157 -0.0055392208
000080 ba 36 09 3c e0 db 72 3b f7 76 70 3c 31 9f 2b ba
       0.008374864 0.0037057325 0.014676801 -0.00065468537
000090 a3 94 93 3b 25 8c 76 bc 60 c0 57 3c 7b 90 5c 3c
       0.004503803 -0.0150480615 0.013168424 0.013462181
0000a0 97 18 5c 3c d0 41 a1 bb c7 c9 0b 3c 48 62 75 bb
       0.013433597 -0.0049211755 0.008531994 -0.0037442613
0000b0 a3 fc 85 3b 5b d2 8c 3c 12 c0 2e bb d3 2a b6 bb
       0.0040889545 0.017190149 -0.0026664776 -0.0055593043
0000c0 df 7b 92 bb 08 f7 05 3c e0 fa e8 3b c7 3c 80 3b
       -0.004470333 0.008176573 0.0071099848 0.003913495
0000d0 88 a7 71 3c 5a 8f e0 3a 4a 0d 6b 3c 5d ca 14 bc
       0.014749415 0.0017132566 0.01434643 -0.00908145
0000e0 25 a6 b9 ba ed 51 0c bb 23 24 58 bb 7c a5 8a bc
       -0.0014163895 -0.0021411136 -0.0032980524 -0.016924612
0000f0 42 83 f1 bb d7 a3 d3 3b 2a b5 7c bb 13 93 05 bc
       -0.0073703835 0.00645874 -0.003856013 -0.008152741
000100 b5 10 ca bb 70 10 00 3b 15 14 8a 3c 7c 83 23 3c
       -0.0061665424 0.0019541048 0.016855279 0.009980079
000110 44 cf 2b 3a 93 9d ed 3b ed 7f e1 bb d7 2f 32 3b
       0.00065540173 0.0072514503 -0.006881705 0.002718916
000120 73 3f 68 bb 48 b4 23 bc e2 a5 92 bb 05 2c 28 bb
       -0.003543821 -0.009991713 -0.004475341 -0.0025661003
000130 55 01 e0 bb fb 95 30 bc ab 7e 2c bc e1 01 13 bc
       -0.0068360963 -0.010777946 -0.010528247 -0.008972616
000140 4c 2c 19 ba 73 6e e8 39 0a b5 13 3c dd 6f 78 ba
       -0.00058430876 0.0004433278 0.009015331 -0.0009477118
000150 98 d4 3e 3c fa c3 e7 3b d3 19 12 bb 57 9e fe ba
       0.011647366 0.007072923 -0.0022293224 -0.0019425851
000160 10 1f 36 bb 78 d9 31 3c bf 2a f3 bb 6b 03 5a bb
       -0.002778951 0.010855071 -0.007420867 -0.0033266197
000170 eb f2 8d 3a d5 ca 01 3c 9b 10 ea 3a 0c 0f c7 3b
       0.0010829841 0.007921894 0.0017857732 0.006074792
000180 e8 93 2f bb 95 32 94 bb c1 d4 a0 ba 43 76 71 3c
       -0.002679104 -0.0045226314 -0.0012270437 0.014737668
000190 18 57 a4 3b d7 8d 15 bc 2d 04 00 3a e3 5c 0b 3c
       0.005015265 -0.009128056 0.0004883435 0.008506033
0001a0 6d 5c e5 3b f5 4f 57 b9 4a 6a a0 3b dd 3f e2 3b
       0.0069995434 -0.00020533784 0.004895483 0.0069045858
0001b0 05 95 ae 3c 57 56 06 bb f8 83 0c bc fb ee 1d 3b
       0.021311292 -0.002049824 -0.008576386 0.0024098742
0001c0 77 ab a1 bb 8f 0d 47 bb 21 82 10 bc df 59 d2 3b
       -0.0049337703 -0.0030373072 -0.008820088 0.006419405
0001d0 b6 26 1e bb c8 b0 1e 3c ce c8 a8 3c 15 2a 67 3b
       -0.002413196 0.009685703 0.020603564 0.0035272886
0001e0 00 7f 8c 3b f3 2c cb 3b 8f 05 25 bc 38 2d 26 3c
       0.0042876005 0.0062004267 -0.010072126 0.010142617
0001f0 35 41 0e 3c 50 9e 1f bb b8 6f 8d b8 fa b2 b1 3b
       0.008682539 -0.0024355836 -6.744213e-05 0.005422947
