results/ag17/PlatformRotate/PlatformRotate-0.onnx (onnx, 112474 bytes, 8 tensors)

network_body._body_endoder.seq_layers.0.weight f4 [128, 78]
0	0xbd446942	-0.047951944
1	0x3d9ee916	0.07759301
2	0xbcd511c3	-0.026009446
3	0x3d96167a	0.07328506
4	0xbd59edee	-0.053205423
5	0xbde67df3	-0.11254492
6	0x3e234931	0.15945889
7	0xbddd303c	-0.108002156
8	0xbe18c640	-0.14919376
9	0xbe3e6c37	-0.18595968
10	0xbe9f8fda	-0.31164438
11	0x3e1114e6	0.14168128
12	0xbcdb2ac6	-0.026753794
13	0x3d9fec64	0.0780876
14	0x3e3868a2	0.18008664
15	0x3d56aa7a	0.052408673
16	0x3ddd2069	0.10797197
17	0x3e585e6d	0.2112977
18	0xbd0bd26f	-0.034136232
19	0x3d2f8102	0.04284764
20	0x3da904d6	0.082528755
21	0x3d8c57d0	0.068526864
22	0x3d520ec8	0.051283628
23	0xbe1b8365	-0.15186842
24	0x3c0764fd	0.008263824
25	0x3d24a8a4	0.04019989
26	0x3e1c95d7	0.15291534
27	0xbd97d374	-0.07413378
28	0x3d9fbd5a	0.07799788
29	0x3dec88f3	0.115495585
30	0xbe1a9f48	-0.15099823
31	0xbd163deb	-0.036680143
32	0xbc2ad442	-0.010426583
33	0x3d771425	0.060321946
34	0x3e11968c	0.14217585
35	0x3e30eabb	0.17277043
36	0xbd01a676	-0.03165289
37	0xba10064a	-0.0005494101
38	0xbd92b5b3	-0.071635626
39	0xbe549338	-0.20759284
40	0xbd816485	-0.06318001
41	0xbe0ed764	-0.13949353
42	0xbe04fb72	-0.12986544
43	0x3e1eacbf	0.15495585
44	0xbdcf0ab0	-0.1010946
45	0x3e11c2f1	0.1423452
46	0xbdba9c47	-0.09111839
47	0xbdb1a5d7	-0.086742096
48	0x3d9b3992	0.0757934
49	0xbb5e8393	-0.0033952936
50	0xbc45e103	-0.012077573
51	0x3e03e301	0.12879564
52	0xbdb6ee9b	-0.08932229
53	0xbe2988ee	-0.16556141
54	0xbe0e2e70	-0.13884902
55	0xbd99ec58	-0.07515782
56	0x3ddf1988	0.108935416
57	0xbea2895f	-0.3174543
58	0x3cb377fa	0.021907795
59	0xba93fcaf	-0.0011290516
60	0x3e050eaa	0.12993875
61	0xbe0a69a4	-0.13516861
62	0x3d46268f	0.048376616
63	0xbe0ae4d0	-0.13563848
64	0xbdf84c43	-0.12123921
65	0xbd1ebf06	-0.038756393
66	0xbc2fab78	-0.010722034
67	0xbdb1ce3f	-0.086819164
68	0xbe42a4ce	-0.1900818
69	0x3d8a1d72	0.067438975
70	0xbbdba54f	-0.006703056
71	0x3d3f1453	0.046650242
72	0x3d25e203	0.040498745
73	0x3d037b69	0.032100115
74	0x3e3e3994	0.18576652
75	0xbddf73e6	-0.10910778
76	0x3e088104	0.13330466
77	0x3ce5ff1a	0.028075743
78	0xbdebd3ab	-0.11514982
79	0xbbcb48aa	-0.0062037306
80	0xbd11edda	-0.035627224
81	0xbd4fc4af	-0.05072468
82	0x3ac442f6	0.0014973569
83	0x3d86e41a	0.06586476
84	0xbe018f18	-0.12652242
85	0x3ddf513f	0.10904168
86	0x3e65c16e	0.22437069
87	0xbda1a9eb	-0.078937374
88	0x3c9cad21	0.019125523
89	0xbe4a5804	-0.19760138
90	0x3d67d73a	0.05660174
91	0xbd766960	-0.060159087
92	0x3d6f9177	0.058488335
93	0x3ddf93ea	0.10916884
94	0x3c68a809	0.014200219
95	0x3e2643de	0.16236827
96	0x3dbeabf7	0.093101434
97	0xbd28d6a7	-0.041220333
98	0x3dd8be4d	0.10583172
99	0xbcd75d6a	-0.02628966
100	0xbe1d8392	-0.15382221
101	0xbd132ff3	-0.0359344
102	0xbd877b9e	-0.06615375
103	0x3e9a3a14	0.30122435
104	0x3d1d4e97	0.038405027
105	0xbe3024a1	-0.17201473
106	0xbdf7f166	-0.1210659
107	0xbe01fe8e	-0.12694761
108	0x3e23ceb2	0.15996817
109	0x3dd65cbb	0.10466906
110	0xbd61b344	-0.0551026
111	0x3e7fef8b	0.24993722
112	0x3e3fe8a8	0.18741095
113	0xbe25776d	-0.16158839
114	0xbd49284f	-0.049110707
115	0x3cc708a6	0.024296116
116	0xbba07689	-0.004896943
117	0xbd90cc92	-0.07070269
118	0xbd1bbb04	-0.03802015
119	0xbe3c4811	-0.18386866
120	0x3d4a0de2	0.049329646
121	0xbd14d061	-0.036331538
122	0xbc81cc8c	-0.015844606
123	0xbd203fa6	-0.0391232
124	0x3daa2508	0.083078444
125	0xbe0901a4	-0.13379532
126	0xbd9039ef	-0.070423
127	0x3d2e6f3d	0.042586554
128	0x3c96d470	0.018411845
129	0x3d0ec26e	0.03485339
130	0xbcbff6e1	-0.02343315
131	0x3a41c397	0.0007391511
132	0x3df8cb7f	0.12148189
133	0xbd02aeb8	-0.031904906
134	0x3df0f8e7	0.11766224
135	0x3d57bdad	0.052671123
136	0xbe167355	-0.14692433
137	0xbdad9bf9	-0.08477015
138	0xbd0dc61d	-0.034612764
139	0x3d8722c5	0.06598429
140	0x3ba9096a	0.005158593
141	0x3e742b98	0.23844755
142	0xbdc8abe2	-0.09798409
143	0x3c9a9eaf	0.018874494
144	0xbdb9ec93	-0.09078326
145	0x3df3b11e	0.11899017
146	0xbdbaa5bd	-0.09113643
147	0xbdb85dda	-0.09002276
148	0x3b12f08a	0.0022421204
149	0x3c82e921	0.015980305
150	0x3d5ad467	0.05342522
151	0x3d647145	0.055772085
152	0x3de15eb5	0.11004392
153	0xbc958b45	-0.018254885
154	0xbdf7d1a9	-0.121005364
155	0xbd25d0cc	-0.040482327
156	0x3dff5790	0.12467873
157	0x3d990ae7	0.074727826
158	0x3e1e4114	0.15454513
159	0xbc082f67	-0.008312083
160	0x3d89c169	0.06726343
161	0xbcd7d5e9	-0.026347117
162	0x3e4baf50	0.19891095
163	0xbd2c9a5c	-0.042139396
164	0xbe0a2f1f	-0.13494538
165	0xbe001a00	-0.12509918
166	0xbcfebd64	-0.031096168
167	0xbd88de5e	-0.06683038
168	0xbe2061de	-0.15662333
169	0xbcb09f50	-0.021560341
170	0xbd9171f9	-0.07101817
171	0x3ccb2763	0.024799054
172	0xbe29f0d7	-0.1659578
173	0xbe4ecf82	-0.20196345
174	0xbcdb1b29	-0.02674635
175	0x3bad60b5	0.0052910694
176	0xbe32192d	-0.17392416
177	0x3cee60e6	0.02909894
178	0xbd3a596b	-0.045495432
179	0x3dc432b3	0.095799826
180	0xbd7b9b1a	-0.061427213
181	0x3e002ed1	0.12517859
182	0xbe5a3a7f	-0.21311377
183	0x3d0b4bdc	0.034007892
184	0xbde4637f	-0.1115179
185	0x3a4339fc	0.00074473
186	0x3db27284	0.08713248
187	0x3e025d11	0.12730815
188	0xbd81e8a0	-0.06343198
189	0x3de8d0a3	0.11367919
190	0xbdc74b2d	-0.097311355
191	0xbdc73eb5	-0.09728757
192	0x3d8f7e2a	0.07006486
193	0x3c9f32c2	0.019433383
194	0xbe472feb	-0.19451873
195	0xbc5981b8	-0.013275556
196	0xbd4d5248	-0.050127298
197	0x3d38c4d9	0.045109604
198	0x3c8afe01	0.016966822
199	0xbe34fd8f	-0.1767485
200	0x3d821171	0.06350983
201	0x3d669599	0.05629501
202	0x3e417274	0.18891317
203	0x3df696d2	0.120404854
204	0xbdc5d130	-0.0965904
205	0xbdb7f911	-0.089830525
206	0xbddac7b2	-0.1068262
207	0x3cde2ea5	0.027121851
208	0x3c3a800e	0.01138307
209	0xbdc76a6d	-0.09737096
210	0x3e2ae7a7	0.16689931
211	0xbd9517cd	-0.0727993
212	0x3dcb6e04	0.09933093
213	0xbd3c8a41	-0.046030287
214	0xbe2b1511	-0.16707255
215	0xbdf16558	-0.11786908
216	0xbdf914bd	-0.12162159
217	0xbc1630d9	-0.00916692
218	0x3bd9dd0d	0.0066486658
219	0x3e0d4346	0.13795194
220	0x3da40445	0.08008627
221	0xbd57a9c5	-0.05265214
222	0x3cb0c547	0.021578444
223	0x3c3a8a64	0.011385534
224	0x3e36b21d	0.17841382
225	0xbca411f5	-0.020028094
226	0x3db6ee01	0.089321144
227	0x3cfa7ff6	0.030578595
228	0xbc98d875	-0.018657902
229	0x3d4fb566	0.050710104
230	0xbd265511	-0.04060847
231	0x3e1aacc5	0.15104969
232	0x3cdf7f76	0.027282458
233	0x3d3dc30f	0.0463286
234	0xbdd503ba	-0.104011014
235	0xbd3d87a8	-0.04627195
236	0xbd4b7423	-0.049671303
237	0x3da6614a	0.08124025
238	0xbe033268	-0.12812197
239	0xbe40b6d9	-0.18819751
240	0x3e163b11	0.1467097
241	0xbd3f2993	-0.046670508
242	0xbd405499	-0.04695568
243	0xbe050441	-0.12989904
244	0x3e697095	0.22796853
245	0xbdea0093	-0.11425891
246	0x3dab7387	0.083716445
247	0xbd0fefbd	-0.03514074
248	0x3d96fbef	0.07372271
249	0xbdbd3fac	-0.0924066
250	0xbda3589d	-0.07975886
251	0xbe46fc95	-0.1943229
252	0xbe0069ab	-0.12540309
253	0xbd498047	-0.0491946
254	0x3ca5fbdf	0.020261703
255	0x3de265b6	0.11054556

network_body._body_endoder.seq_layers.0.bias f4 [128]
0	0x00000000	0.0
1	0x00000000	0.0
2	0x00000000	0.0
3	0x00000000	0.0
4	0x00000000	0.0
5	0x00000000	0.0
6	0x00000000	0.0
7	0x00000000	0.0
8	0x00000000	0.0
9	0x00000000	0.0
10	0x00000000	0.0
11	0x00000000	0.0
12	0x00000000	0.0
13	0x00000000	0.0
14	0x00000000	0.0
15	0x00000000	0.0
16	0x00000000	0.0
17	0x00000000	0.0
18	0x00000000	0.0
19	0x00000000	0.0
20	0x00000000	0.0
21	0x00000000	0.0
22	0x00000000	0.0
23	0x00000000	0.0
24	0x00000000	0.0
25	0x00000000	0.0
26	0x00000000	0.0
27	0x00000000	0.0
28	0x00000000	0.0
29	0x00000000	0.0
30	0x00000000	0.0
31	0x00000000	0.0
32	0x00000000	0.0
33	0x00000000	0.0
34	0x00000000	0.0
35	0x00000000	0.0
36	0x00000000	0.0
37	0x00000000	0.0
38	0x00000000	0.0
39	0x00000000	0.0
40	0x00000000	0.0
41	0x00000000	0.0
42	0x00000000	0.0
43	0x00000000	0.0
44	0x00000000	0.0
45	0x00000000	0.0
46	0x00000000	0.0
47	0x00000000	0.0
48	0x00000000	0.0
49	0x00000000	0.0
50	0x00000000	0.0
51	0x00000000	0.0
52	0x00000000	0.0
53	0x00000000	0.0
54	0x00000000	0.0
55	0x00000000	0.0
56	0x00000000	0.0
57	0x00000000	0.0
58	0x00000000	0.0
59	0x00000000	0.0
60	0x00000000	0.0
61	0x00000000	0.0
62	0x00000000	0.0
63	0x00000000	0.0
64	0x00000000	0.0
65	0x00000000	0.0
66	0x00000000	0.0
67	0x00000000	0.0
68	0x00000000	0.0
69	0x00000000	0.0
70	0x00000000	0.0
71	0x00000000	0.0
72	0x00000000	0.0
73	0x00000000	0.0
74	0x00000000	0.0
75	0x00000000	0.0
76	0x00000000	0.0
77	0x00000000	0.0
78	0x00000000	0.0
79	0x00000000	0.0
80	0x00000000	0.0
81	0x00000000	0.0
82	0x00000000	0.0
83	0x00000000	0.0
84	0x00000000	0.0
85	0x00000000	0.0
86	0x00000000	0.0
87	0x00000000	0.0
88	0x00000000	0.0
89	0x00000000	0.0
90	0x00000000	0.0
91	0x00000000	0.0
92	0x00000000	0.0
93	0x00000000	0.0
94	0x00000000	0.0
95	0x00000000	0.0
96	0x00000000	0.0
97	0x00000000	0.0
98	0x00000000	0.0
99	0x00000000	0.0
100	0x00000000	0.0
101	0x00000000	0.0
102	0x00000000	0.0
103	0x00000000	0.0
104	0x00000000	0.0
105	0x00000000	0.0
106	0x00000000	0.0
107	0x00000000	0.0
108	0x00000000	0.0
109	0x00000000	0.0
110	0x00000000	0.0
111	0x00000000	0.0
112	0x00000000	0.0
113	0x00000000	0.0
114	0x00000000	0.0
115	0x00000000	0.0
116	0x00000000	0.0
117	0x00000000	0.0
118	0x00000000	0.0
119	0x00000000	0.0
120	0x00000000	0.0
121	0x00000000	0.0
122	0x00000000	0.0
123	0x00000000	0.0
124	0x00000000	0.0
125	0x00000000	0.0
126	0x00000000	0.0
127	0x00000000	0.0

network_body._body_endoder.seq_layers.2.weight f4 [128, 128]
0	0xbd2231bc	-0.03959821
1	0xbd0ad4f1	-0.033894483
2	0x3d0e2ebc	0.034712538
3	0xbd0753ae	-0.033038788
4	0x3cc8f66a	0.024531562
5	0x3bc3c9d1	0.005974986
6	0xbd6a097c	-0.05713795
7	0xbe035252	-0.12824371
8	0xbd2c5dda	-0.04208169
9	0xbd6583de	-0.05603396
10	0xbd8bc636	-0.06824915
11	0x3da6c106	0.08142285
12	0xbdeaaeab	-0.114590965
13	0xbb3ffb51	-0.0029294083
14	0xbdb8a08d	-0.09014998
15	0x3d9c33f7	0.07627099
16	0x3d5292f5	0.05140968
17	0xbdfe7e84	-0.12426475
18	0xbd366b12	-0.044535704
19	0x3d8de212	0.06927885
20	0x3da0e99b	0.07857057
21	0xbe3a0659	-0.18166484
22	0x3d80101e	0.06253074
23	0x3c438014	0.011932392
24	0xbd95fd1e	-0.07323669
25	0x3d986d6e	0.07442747
26	0xbd1a8015	-0.037719805
27	0xbd534d72	-0.05158753
28	0xbd407e6a	-0.046995558
29	0x3e1fa64d	0.15590782
30	0xbcfb2129	-0.03065546
31	0xbd5d746c	-0.054066107
32	0x3de5cb4e	0.11220418
33	0x3c81260b	0.01576521
34	0x3ddeafa3	0.10873344
35	0xbd9f704d	-0.077850915
36	0x3c05c3a4	0.00816432
37	0xbd89b93a	-0.06724782
38	0x3de26c9c	0.11055872
39	0x3deb6801	0.114944465
40	0x3cc9fd96	0.024657052
41	0x3ca4b701	0.020106794
42	0x3d911b76	0.07085316
43	0x3ace4c4f	0.0015739294
44	0x3dea56c2	0.11442329
45	0x3e02df48	0.12780488
46	0x3d550b0c	0.05201249
47	0xbdaa3bed	-0.08312211
48	0x3cf67564	0.030085273
49	0x3cc54128	0.02407892
50	0x3d074c5d	0.03303181
51	0x3dd47725	0.103742875
52	0x3db2e4ba	0.087350324
53	0x3d79df3b	0.061003905
54	0x3db62efd	0.08895681
55	0xbe18df94	-0.14929038
56	0x3d1164db	0.035496574
57	0x3d8543dc	0.06507084
58	0x3d956300	0.072942734
59	0xbb668c76	-0.0035178936
60	0xbd4d2544	-0.050084367
61	0x3c4b05e9	0.012391546
62	0x3dde0655	0.108410515
63	0xbc4d1901	-0.012518168
64	0x3d0b6cc6	0.03403928
65	0x3d18de0b	0.03732113
66	0xbdaeeb0f	-0.085409276
67	0xbc25a5bd	-0.010110316
68	0xbdcca38c	-0.099921316
69	0x3cee79b3	0.029110765
70	0xbdb66e96	-0.08907811
71	0x3d65d0c6	0.056107305
72	0x3d13418b	0.03595118
73	0xbd2474fe	-0.040150635
74	0x3daff4f5	0.08591644
75	0xbe171615	-0.14754517
76	0xbd5b0e49	-0.05348042
77	0x3ddef6f3	0.108869456
78	0x3d50ad7b	0.050946694
79	0x3de3b7a5	0.11119012
80	0x3d9172b3	0.07101955
81	0x3b864e5d	0.004098697
82	0xbe0715d2	-0.13191918
83	0x3da6f075	0.08151332
84	0x3cd1b745	0.025600085
85	0x3ccd55f4	0.0250654
86	0x3cf32bbc	0.02968394
87	0x3e06a601	0.13149263
88	0x3cb8703e	0.022514459
89	0xbce677de	-0.028133329
90	0x3db45605	0.088054694
91	0xbd2b5183	-0.041825783
92	0xbdf90269	-0.12158663
93	0xbc10831d	-0.008820322
94	0x3dc67175	0.09689609
95	0xbdd0dd5d	-0.10198472
96	0xbe0326a9	-0.12807716
97	0x3d1b4793	0.037910055
98	0xbdd73351	-0.10507835
99	0x3d058383	0.032596122
100	0xbdfe4341	-0.124151714
101	0x3c778357	0.015106997
102	0x3d0083d7	0.031375732
103	0xbda14260	-0.07873988
104	0xbcca2028	-0.024673536
105	0x3d6a3987	0.05718377
106	0x3d38175b	0.04494415
107	0x3d8effd6	0.069823906
108	0xbe0235f2	-0.12715891
109	0xbcd2c1c3	-0.025727158
110	0x3cb44586	0.022005808
111	0xbe72894e	-0.2368519
112	0xbc9f6bdc	-0.019460611
113	0x3bf63b26	0.0075143753
114	0x3d49e192	0.049287386
115	0x3bae35e7	0.0053164843
116	0xbd93854a	-0.07203157
117	0xbe5604e6	-0.20900306
118	0xbd3b211d	-0.045685876
119	0xbd5f56a9	-0.054526005
120	0x3d886300	0.06659508
121	0xbe585762	-0.21127084
122	0xbdaff528	-0.08591682
123	0xbd1c64c0	-0.03818202
124	0xbd906bc9	-0.070518084
125	0x3d938ab1	0.07204188
126	0xbc1a33bf	-0.009411751
127	0xbde56968	-0.11201745
128	0x3d863574	0.06553164
129	0xbc3ec164	-0.011642788
130	0xbd8d1c72	-0.06890191
131	0x3d8ac564	0.067759305
132	0x3a5aa743	0.0008340964
133	0xbdf8ca69	-0.12147982
134	0x3d4e2b3a	0.050334193
135	0x3e838ab8	0.25691772
136	0xbc288673	-0.010285961
137	0x3cabb36c	0.020959578
138	0x3d9f4563	0.07776906
139	0x3e42c9e7	0.19022332
140	0xbd8bc5d1	-0.0682484
141	0x3dd1ff5b	0.10253783
142	0xbe33397e	-0.175024
143	0x3d6996dc	0.057028636
144	0x3d802db2	0.06258716
145	0xbd17eecd	-0.037092973
146	0x3ce60480	0.028078318
147	0xbd67ed2a	-0.05662266
148	0xbcdf82f7	-0.027284129
149	0x3e3e2626	0.1856924
150	0xbcb64e83	-0.022254234
151	0xbe02fe1e	-0.1279225
152	0x3dd1168a	0.10209377
153	0xbab69c89	-0.0013932149
154	0xbdeac7b3	-0.11463871
155	0x3d6b45e0	0.057439685
156	0x3d4bb92a	0.049737133
157	0xbe0a9cfc	-0.13536447
158	0x3c5e40f3	0.01356529
159	0xbd6bf31f	-0.057604905
160	0x3dc3d77c	0.09562585
161	0x3de13e78	0.10998243
162	0xbdc36f8e	-0.09542762
163	0xbd9f4a79	-0.077778764
164	0x3d09c744	0.0336373
165	0x3e0b9037	0.13629232
166	0x3cf15736	0.02946053
167	0x3da1c9dc	0.0789983
168	0x3c45542f	0.012043997
169	0xbd0b041a	-0.03393946
170	0xbd4759c2	-0.048669584
171	0xbdb3bb13	-0.08775916
172	0x3e1a5473	0.15071277
173	0x3e2dc409	0.16969313
174	0xbd44da19	-0.048059557
175	0xbe6619f0	-0.22470832
176	0x3d5952d3	0.053057503
177	0xbde39c60	-0.111138105
178	0xbd0a41b9	-0.033754084
179	0x3de4879f	0.1115868
180	0x3d86fe07	0.065914206
181	0x3cebc7e2	0.028781835
182	0x3d998184	0.07495406
183	0x3e91933e	0.2843265
184	0xbdb2ba9a	-0.08726998
185	0x3c6ae1ee	0.014336092
186	0x3c4a383f	0.012342512
187	0xbc1cf5c0	-0.009580076
188	0xbda5afda	-0.08090182
189	0x3dff9089	0.1247874
190	0xbe17f35c	-0.14838928
191	0xbe6a3792	-0.22872761
192	0xbb09dd52	-0.0021036458
193	0xbd508d23	-0.05091585
194	0x3d03fbd0	0.03222257
195	0x3cf667d6	0.03007881
196	0x3e0434f3	0.12910824
197	0xbc3a96b0	-0.011388466
198	0x3c141d33	0.009040165
199	0x3d98630b	0.07440766
200	0x3a8ee88d	0.0010903046
201	0x3e20159b	0.15633242
202	0xbd103509	-0.03520683
203	0xbcae9a3b	-0.021313777
204	0x3de3aa9e	0.11116527
205	0xbd45b4b1	-0.048268024
206	0x3afa257f	0.0019084661
207	0xbd25222a	-0.040315785
208	0x3e0d77f8	0.13815296
209	0xbd62c5f5	-0.055364568
210	0x3bd7a00c	0.0065803584
211	0xbda45931	-0.080248244
212	0x3d620182	0.05517722
213	0x3e00e0e4	0.12585789
214	0x3d8684b4	0.0656828
215	0xbdbc1e75	-0.09185497
216	0x3bd9199d	0.006625368
217	0x3d5b2365	0.05350055
218	0xbdce2d95	-0.10067288
219	0x3cb928b7	0.022602422
220	0xbde47fe1	-0.111572035
221	0xbe05fcb9	-0.13084687
222	0xbcb27f26	-0.021789145
223	0x3dcbc20e	0.09949122
224	0x3b1824c0	0.0023215264
225	0x3d64f4be	0.055897467
226	0x3d70d84f	0.058800038
227	0xbdd3e106	-0.10345654
228	0xbd708c1f	-0.05872738
229	0x3e1e97ca	0.1548759
230	0x3d563fd0	0.05230695
231	0xbc25c750	-0.010118321
232	0xbe21ab60	-0.1578803
233	0x3d7ba2a0	0.06143439
234	0xbc91cf89	-0.017799156
235	0x3e00868e	0.12551329
236	0xbdd8dbf7	-0.1058883
237	0x3e4e436d	0.20142908
238	0xbd4a246c	-0.04935114
239	0x3cc57568	0.024103835
240	0x3c2bac20	0.0104780495
241	0x3c420006	0.011840826
242	0x3dafaed3	0.08578267
243	0x3dbbcd0c	0.09169969
244	0xbd7763ed	-0.06039803
245	0xbe0a2bd3	-0.1349328
246	0xbd44b444	-0.048023477
247	0x3e05f7a4	0.13082749
248	0x3d12ea27	0.035867836
249	0xbdc69860	-0.09697032
250	0xbdfa444b	-0.12220057
251	0xbd21300c	-0.03935246
252	0x3b2cca04	0.0026365528
253	0x3e0546d4	0.130153
254	0xbd2f47e5	-0.042793173
255	0xbd4b6548	-0.049657136

network_body._body_endoder.seq_layers.2.bias f4 [128]
0	0x00000000	0.0
1	0x00000000	0.0
2	0x00000000	0.0
3	0x00000000	0.0
4	0x00000000	0.0
5	0x00000000	0.0
6	0x00000000	0.0
7	0x00000000	0.0
8	0x00000000	0.0
9	0x00000000	0.0
10	0x00000000	0.0
11	0x00000000	0.0
12	0x00000000	0.0
13	0x00000000	0.0
14	0x00000000	0.0
15	0x00000000	0.0
16	0x00000000	0.0
17	0x00000000	0.0
18	0x00000000	0.0
19	0x00000000	0.0
20	0x00000000	0.0
21	0x00000000	0.0
22	0x00000000	0.0
23	0x00000000	0.0
24	0x00000000	0.0
25	0x00000000	0.0
26	0x00000000	0.0
27	0x00000000	0.0
28	0x00000000	0.0
29	0x00000000	0.0
30	0x00000000	0.0
31	0x00000000	0.0
32	0x00000000	0.0
33	0x00000000	0.0
34	0x00000000	0.0
35	0x00000000	0.0
36	0x00000000	0.0
37	0x00000000	0.0
38	0x00000000	0.0
39	0x00000000	0.0
40	0x00000000	0.0
41	0x00000000	0.0
42	0x00000000	0.0
43	0x00000000	0.0
44	0x00000000	0.0
45	0x00000000	0.0
46	0x00000000	0.0
47	0x00000000	0.0
48	0x00000000	0.0
49	0x00000000	0.0
50	0x00000000	0.0
51	0x00000000	0.0
52	0x00000000	0.0
53	0x00000000	0.0
54	0x00000000	0.0
55	0x00000000	0.0
56	0x00000000	0.0
57	0x00000000	0.0
58	0x00000000	0.0
59	0x00000000	0.0
60	0x00000000	0.0
61	0x00000000	0.0
62	0x00000000	0.0
63	0x00000000	0.0
64	0x00000000	0.0
65	0x00000000	0.0
66	0x00000000	0.0
67	0x00000000	0.0
68	0x00000000	0.0
69	0x00000000	0.0
70	0x00000000	0.0
71	0x00000000	0.0
72	0x00000000	0.0
73	0x00000000	0.0
74	0x00000000	0.0
75	0x00000000	0.0
76	0x00000000	0.0
77	0x00000000	0.0
78	0x00000000	0.0
79	0x00000000	0.0
80	0x00000000	0.0
81	0x00000000	0.0
82	0x00000000	0.0
83	0x00000000	0.0
84	0x00000000	0.0
85	0x00000000	0.0
86	0x00000000	0.0
87	0x00000000	0.0
88	0x00000000	0.0
89	0x00000000	0.0
90	0x00000000	0.0
91	0x00000000	0.0
92	0x00000000	0.0
93	0x00000000	0.0
94	0x00000000	0.0
95	0x00000000	0.0
96	0x00000000	0.0
97	0x00000000	0.0
98	0x00000000	0.0
99	0x00000000	0.0
100	0x00000000	0.0
101	0x00000000	0.0
102	0x00000000	0.0
103	0x00000000	0.0
104	0x00000000	0.0
105	0x00000000	0.0
106	0x00000000	0.0
107	0x00000000	0.0
108	0x00000000	0.0
109	0x00000000	0.0
110	0x00000000	0.0
111	0x00000000	0.0
112	0x00000000	0.0
113	0x00000000	0.0
114	0x00000000	0.0
115	0x00000000	0.0
116	0x00000000	0.0
117	0x00000000	0.0
118	0x00000000	0.0
119	0x00000000	0.0
120	0x00000000	0.0
121	0x00000000	0.0
122	0x00000000	0.0
123	0x00000000	0.0
124	0x00000000	0.0
125	0x00000000	0.0
126	0x00000000	0.0
127	0x00000000	0.0

action_model._continuous_distribution.log_sigma f4 [1, 2]
0	0x00000000	0.0
1	0x00000000	0.0

action_model._continuous_distribution.mu.weight f4 [2, 128]
0	0xbcce1610	-0.025157005
1	0x3be3b34a	0.006948863
2	0xbca7b690	-0.020472795
3	0x3b8923d7	0.0041851806
4	0xb9c41ba8	-0.0003740464
5	0xbc02548e	-0.00795473
6	0x374d2b2f	1.2229007e-05
7	0x3c7551d8	0.014973126
8	0xbcf1396a	-0.029446322
9	0x3c2be0a6	0.010490572
10	0x3cabe6ec	0.020984136
11	0xbc86aac3	-0.016438847
12	0xbb85bd87	-0.0040814313
13	0xbd0d5cef	-0.034512457
14	0x3d27a120	0.040925145
15	0xbc8ba48f	-0.017046241
16	0x3c249b0a	0.01004673
17	0x3c9ad438	0.018900022
18	0x39d40cd2	0.00040445343
19	0xbc4c7460	-0.012478918
20	0x3bf9be8f	0.0076215933
21	0x392b1942	0.0001631724
22	0x3d21243c	0.039341196
23	0x3cd720af	0.026260702
24	0x3af1f493	0.001845973
25	0x3caaae8e	0.020835187
26	0x3cb0ff83	0.021606212
27	0xbc848cd1	-0.016180428
28	0x3cdb7ab0	0.0267919
29	0x3ce44c40	0.02786839
30	0x3b3266b7	0.0027221867
31	0x3b1da681	0.0024055543
32	0xb99b6784	-0.0002964103
33	0xbcba1bf7	-0.022718413
34	0x3ca6f071	0.020378323
35	0x3c1bab0c	0.00950123
36	0x3b46a69b	0.0030311707
37	0x3c13933d	0.009007272
38	0xbbcf66b8	-0.0063293837
39	0x3cbb0b9b	0.022832682
40	0xb92405cd	-0.0001564242
41	0x3c6ccfc5	0.014453833
42	0xbc32c71f	-0.010911732
43	0xbab8e047	-0.0014104926
44	0x3d0ae151	0.033906285
45	0xbc1807fb	-0.009279246
46	0x3bc096c6	0.0058773486
47	0x3cbea937	0.023274047
48	0x3cf85138	0.030312166
49	0x3cab2f96	0.020896714
50	0xbb3046e7	-0.002689773
51	0xbc8ed875	-0.0174372
52	0xbcc04fb4	-0.023475505
53	0x3d00f3d6	0.03148254
54	0x3c0add47	0.008475608
55	0x3c214c00	0.00984478
56	0x3b8c9643	0.0042903735
57	0x3c0d739e	0.008633522
58	0xbb8c8cf5	-0.0042892643
59	0xbb80e69f	-0.003933742
60	0xbd07dc6b	-0.03316919
61	0xbcd39868	-0.025829509
62	0x3a3d732d	0.00072269404
63	0xbc7a3d53	-0.01527341
64	0x3b751a6d	0.0037399784
65	0x3d03f46f	0.032215532
66	0x3be8969d	0.0070980326
67	0x3c5a848f	0.0133372685
68	0x3c8f59e2	0.017498914
69	0x3cf37e73	0.029723382
70	0x3b9e7b14	0.0048364494
71	0xbc0fa9b3	-0.008768487
72	0x3b5411b8	0.0032359194
73	0xbc8a74b6	-0.016901355
74	0x3cf816a2	0.03028423
75	0xbb879556	-0.0041376753
76	0x3acae297	0.0015478906
77	0xbbe0269a	-0.006840539
78	0xbb666088	-0.0035152752
79	0xbb938080	-0.0045014024
80	0x3c1b890b	0.009493123
81	0x3ca44694	0.020053186
82	0xbce899b2	-0.0283936
83	0xbce5c962	-0.028050128
84	0xbc6e1ba5	-0.014532958
85	0xbbabd6f6	-0.005244131
86	0x3c13073c	0.008973893
87	0x3cf056f7	0.029338343
88	0x3c6e1f13	0.014533776
89	0x3c3a9911	0.011389033
90	0xbce0b1c5	-0.027428517
91	0x3cc5214a	0.024063725
92	0x3c3a470f	0.011369481
93	0x3c3fe48a	0.011712203
94	0xbc714d03	-0.014727834
95	0x3c2c60df	0.010521143
96	0xbc4c7031	-0.01247792
97	0x3cccf858	0.025020763
98	0x3d2b3dfb	0.041807156
99	0xb96da3bd	-0.00022663079
100	0xbbbab4b0	-0.005697809
101	0x3c517513	0.01278426
102	0x3c423dc6	0.011855548
103	0xbc7c6e25	-0.01540712
104	0x3cac7b7b	0.021054974
105	0xbcb78cdf	-0.02240604
106	0x3c74c612	0.014939802
107	0x3bdd4f7d	0.0067538605
108	0x3caf6113	0.021408593
109	0x3d0c422c	0.034242794
110	0xbbb39773	-0.0054807006
111	0x3c80e0e0	0.015732229
112	0x3ce35275	0.02774928
113	0x3c129468	0.008946516
114	0x3c689fad	0.014198226
115	0xbc8450d3	-0.016151821
116	0x3bc9c4b8	0.006157484
117	0xbc96a06b	-0.01838704
118	0x3b2bafba	0.002619727
119	0xbc81599d	-0.015789801
120	0xbd088505	-0.033329982
121	0xbba00ab7	-0.00488409
122	0xbc2b8e5b	-0.010470952
123	0x3c668e7d	0.014072058
124	0xbc69cb7a	-0.014269704
125	0xbc866cce	-0.016409304
126	0x3be52c00	0.0069937706
127	0xbbeb03bf	-0.0071720774
128	0xbc85984e	-0.016307976
129	0x3cb29c71	0.021803113
130	0x3ca22d94	0.019797124
131	0xbb8a83ef	-0.0042271535
132	0xbcc0b066	-0.023521613
133	0xbd376683	-0.044775497
134	0xbcb800ef	-0.022461383
135	0x3cc4e993	0.024037158
136	0x3b75a7a0	0.0037483945
137	0xbc22b70c	-0.009931337
138	0x3be39682	0.006945432
139	0x3b57b6d8	0.003291538
140	0x3bb6e45d	0.0055814222
141	0xbcdcfd13	-0.026976144
142	0x3a18a1d1	0.00058224524
143	0xbc5ea1b0	-0.013588354
144	0x3d1db7f6	0.038505517
145	0xbb0426fd	-0.002016484
146	0x3cccba54	0.024991192
147	0x3cb81988	0.022473112
148	0xbc52ea3a	-0.012873227
149	0xbd09df63	-0.033660304
150	0x3cde69b7	0.027150018
151	0x3c8f0154	0.017456688
152	0xbc0d63f6	-0.00862979
153	0x3c04cd22	0.008105548
154	0xbc57854a	-0.013154337
155	0x39e4c817	0.00043636627
156	0xbb6cd7fb	-0.0036139477
157	0xbcb34590	-0.021883756
158	0x3c381c60	0.011237234
159	0xbc28b92d	-0.010298056
160	0x3c8eee48	0.017447606
161	0xbc0edab0	-0.008719131
162	0x3c3daea2	0.01157728
163	0xbd03eed0	-0.03221017
164	0xbc9f9913	-0.019482171
165	0x3c9199ef	0.017773597
166	0x3c3aeedb	0.011409487
167	0xbad6f2ad	-0.0016399227
168	0x3c1bb8b3	0.009504485
169	0x3b89a273	0.0042002737
170	0xbb8bab1f	-0.0042623426
171	0xbbeb7eef	-0.0071867625
172	0x3b9328ca	0.0044909464
173	0xbc192336	-0.009346774
174	0xbce98bdf	-0.028509079
175	0xbcd8e48d	-0.026476169
176	0xbd05ab6f	-0.032634195
177	0x3d369a59	0.04458079
178	0x3bab1d7a	0.0052220197
179	0x3c56fc3f	0.013121664
180	0x3c66c2e5	0.014084552
181	0x3c2a9291	0.010410921
182	0x3ad80722	0.0016481618
183	0x3d111d04	0.035428062
184	0x3c4ba85e	0.012430279
185	0xbcf01662	-0.029307548
186	0xba11c6a9	-0.00055609137
187	0xbbadc9b2	-0.005303585
188	0x3b59a2fb	0.0033208716
189	0xbb803a54	-0.0039132033
190	0xbc8c1b00	-0.017102718
191	0x3c566dd2	0.013087707
192	0x3bc9a864	0.006154107
193	0xbc8fad11	-0.01753858
194	0xbc82ee27	-0.0159827
195	0xbd098719	-0.033576105
196	0x3c9d1f42	0.019179944
197	0x3c06d453	0.008229333
198	0x3c5e5985	0.013571148
199	0x3c9e176b	0.019298276
200	0xbbdf0dc0	-0.006807059
201	0x3b38d3f5	0.0028202508
202	0xbbae3a1f	-0.005316987
203	0xbcaf25ff	-0.021380423
204	0xbcc740df	-0.024322925
205	0x3c89283b	0.016742816
206	0xbd15fc7b	-0.036617737
207	0x3a31daf3	0.000678464
208	0xbb026e27	-0.0019902082
209	0x3c96745d	0.018366033
210	0x3cebf958	0.02880542
211	0xbc8d1ad9	-0.017224716
212	0xbcdf6ec0	-0.02727449
213	0x3c0a6a6d	0.008448225
214	0x3c8b79d7	0.017025871
215	0x3c451e6f	0.012031182
216	0xbc800c4a	-0.01563086
217	0xbc14bcd1	-0.00907822
218	0x3b4a22a7	0.0030843408
219	0x3c99d44d	0.01877799
220	0x3c402cad	0.011729402
221	0x3d58a9fa	0.052896477
222	0xbce4ec5b	-0.027944734
223	0x3c066169	0.008201935
224	0x3ca78629	0.020449715
225	0xbc78590a	-0.015157947
226	0x3b8bf829	0.0042715264
227	0x3c62c55d	0.013841
228	0xbcdbc2b2	-0.026826236
229	0x3ba8732c	0.0051406827
230	0x3c2f8f6c	0.010715347
231	0x3cfb8960	0.030705154
232	0xbc5a5605	-0.013326173
233	0xbc4fac67	-0.012675381
234	0xbbaff6e2	-0.005370007
235	0x3b37ff79	0.0028075858
236	0x3b599927	0.0033202858
237	0xb971dc53	-0.00023065628
238	0x3ab7ecbe	0.0014032347
239	0x3bed67c5	0.0072450363
240	0x3c882ed2	0.016623888
241	0x3c3cc8d1	0.011522488
242	0xbbb01b80	-0.005374372
243	0xbbdf1a02	-0.0068085203
244	0x3c0e63e6	0.00869081
245	0x3bff1fbd	0.007785766
246	0x3c037bff	0.008025168
247	0xbc3f5367	-0.0116775995
248	0x3c953e2d	0.018218124
249	0xbc793a0b	-0.015211592
250	0x3baebbe3	0.0053324564
251	0xbc984a86	-0.018590223
252	0x3b82401c	0.0039749276
253	0x3b9f85f9	0.0048682657
254	0x3cebdce3	0.02879185
255	0x3b84df01	0.0040549044

action_model._continuous_distribution.mu.bias f4 [2]
0	0x00000000	0.0
1	0x00000000	0.0

action_model._discrete_distribution.branches.0.weight f4 [1, 128]
0	0x38c77df5	9.512521e-05
1	0xbb262474	-0.0025351318
2	0x3c3958ca	0.011312673
3	0xbc7f7e95	-0.015594144
4	0xbc7636e3	-0.015027734
5	0x3bf2f370	0.007414274
6	0x3c1bc9ec	0.009508591
7	0x3ba26dfc	0.004956959
8	0x3b89b52f	0.004202507
9	0x3c2fdb1c	0.010733392
10	0x3b44d5c1	0.0030034634
11	0x3c157279	0.009121531
12	0xbc2fa74a	-0.010721037
13	0xbca0bba8	-0.019620731
14	0x3b24cc8b	0.0025146331
15	0x3bbbdfc1	0.0057334607
16	0xbb61b187	-0.003443809
17	0x3ae9dec3	0.0017842877
18	0x3c48a6cd	0.0122468
19	0xbb6ff647	-0.0036615299
20	0x3c06b373	0.008221495
21	0x3b26dc93	0.0025461062
22	0x3c0bf395	0.008541961
23	0xba5067aa	-0.00079500175
24	0x3c4ffe73	0.012694943
25	0x3ca1ff2f	0.019775001
26	0x3b8ec33b	0.0043567694
27	0xbbe4bc28	-0.006980438
28	0x3b090bd7	0.0020911598
29	0xbbdc7f93	-0.006729075
30	0x3b08ccce	0.0020874026
31	0xbad3f18f	-0.0016170013
32	0x3c1f7756	0.009733042
33	0x3a82eca2	0.0009988735
34	0x3b39918b	0.002831551
35	0xbc1862c4	-0.009300891
36	0xbc97c0c8	-0.018524542
37	0x3b57d3cb	0.0032932635
38	0x3c5eb942	0.013593974
39	0xbc237d67	-0.009978629
40	0xbc06718d	-0.008205784
41	0x3bb5f173	0.0055524646
42	0x3c0ffa04	0.008787636
43	0x3bd146f2	0.006386631
44	0xbb13d854	-0.0022559362
45	0x3c09fcca	0.008422086
46	0x3bd7e088	0.0065880455
47	0x3bc70e27	0.006074685
48	0x3b89878d	0.004197067
49	0xbabff999	-0.001464653
50	0xbb9f9827	-0.004870433
51	0xbc0e2ecd	-0.00867815
52	0x3c71df5f	0.0147627285
53	0xbc3e5c73	-0.011618721
54	0xba436a0b	-0.00074544613
55	0xbbbcacab	-0.0057578883
56	0xbb7cb167	-0.0038557888
57	0xbbb799ce	-0.0056030517
58	0x3c0225b6	0.007943561
59	0xbc65edd5	-0.014033754
60	0xba74b7cf	-0.0009335251
61	0xbc124b21	-0.008929045
62	0xbc425b61	-0.011862607
63	0xbba30382	-0.0049747834
64	0xbadbb337	-0.0016761784
65	0xb7ab592f	-2.0426318e-05
66	0x3c155233	0.009113836
67	0x3b8adaa0	0.004237488
68	0x3c52c948	0.012865372
69	0xbc4ff2b7	-0.012692145
70	0x3b02a636	0.0019935495
71	0xbc72ba65	-0.014814948
72	0xbc23eada	-0.010004723
73	0x3b6219af	0.0034500172
74	0x3bb5c595	0.0055472353
75	0x3c022cd4	0.007945258
76	0xbba87fa8	-0.005142171
77	0xbbc69b54	-0.006060997
78	0xb9925c41	-0.00027916025
79	0x3bc22e46	0.0059259264
80	0x3bf9320b	0.0076048425
81	0xbc39f30f	-0.011349454
82	0x3b6ac2a7	0.0035821588
83	0xbb53ed5d	-0.0032337524
84	0xbb8d7904	-0.0043174047
85	0x3c99c3f9	0.018770205
86	0x3c24c523	0.010056767
87	0x3c14d5b8	0.009084158
88	0xbac1dbc9	-0.0014790233
89	0xbbbe690f	-0.005810864
90	0x3b6880b3	0.0035477101
91	0x3b825138	0.003976967
92	0x3c672420	0.014107734
93	0x3c5fe9c0	0.01366657
94	0xbb14c48e	-0.0022700164
95	0x3adae300	0.0016699731
96	0x3c3c0874	0.011476625
97	0x3b9133bd	0.0044312165
98	0x3b9ccc6e	0.004785112
99	0x3c2dc16f	0.0106052
100	0x3c69f745	0.014280145
101	0xbb3d7765	-0.0028910276
102	0xbca16c10	-0.019704849
103	0x3b4170eb	0.0029516767
104	0xbaa8ce61	-0.0012878889
105	0xbc2ae899	-0.010431432
106	0x3a669edb	0.0008797475
107	0x39db4daf	0.00041828814
108	0x3af39efa	0.0018586807
109	0x3c10e1f8	0.008842938
110	0xba31251f	-0.00067575456
111	0x3c3d8253	0.011566716
112	0x3bb1612e	0.005413196
113	0x3c5d57d5	0.01350971
114	0xbc24f6de	-0.010068623
115	0xbc2c08ff	-0.010500192
116	0x3b24e5a3	0.0025161288
117	0x3b8033ef	0.003912441
118	0xbb01f05b	-0.00198271
119	0x3b84c324	0.004051583
120	0xbbb7b32a	-0.005606075
121	0x386dee68	5.6727236e-05
122	0xbb19c374	-0.0023462446
123	0x3b5a1d2a	0.0033281543
124	0xbc0a41b8	-0.00843852
125	0x3bfebd50	0.0077740327
126	0xbb529215	-0.0032130529
127	0x3998074c	0.00028997136
