results/ag17/PlatformRotate/PlatformRotate-306876.pt (torch, 661833 bytes, 39 tensors)

network_body._body_endoder.seq_layers.0.weight f4 [128, 78]
0	0xbe1cada3	-0.15300612
1	0xbec20fbb	-0.37902626
2	0xbdeff1f8	-0.11716074
3	0x3db25b12	0.087087765
4	0xbcb853fd	-0.022500986
5	0x3e170b91	0.14750506
6	0xbe078f80	-0.13238335
7	0xbd49a871	-0.049232904
8	0xbdbd1d81	-0.09234143
9	0x3e01da41	0.12680914
10	0xbd9543ac	-0.07288298
11	0xbd08ea4c	-0.033426568
12	0xbcc42ee6	-0.023948144
13	0x3de5b5da	0.11216326
14	0xbe57dc05	-0.21080025
15	0xbde2e6a6	-0.11079149
16	0x3e09893e	0.1343126
17	0xbd81859a	-0.063243106
18	0x3c00f204	0.007870201
19	0x3d32d8e5	0.043663878
20	0x3e0e36c7	0.13888083
21	0x3e13079d	0.14358373
22	0x3cd62c80	0.026144266
23	0x3d79dd58	0.061002105
24	0x3e117f6b	0.14208762
25	0x3d2abd0f	0.041684207
26	0xbbf17842	-0.007369072
27	0xbc5f8878	-0.0136433765
28	0xbd9ea8d9	-0.07747049
29	0x3db276a1	0.08714033
30	0xbde7d9ab	-0.11320814
31	0x3c71ddf8	0.014762394
32	0xbe86bfd7	-0.26318237
33	0xbdcad43a	-0.0990376
34	0xbd615511	-0.055012766
35	0xbdf08d7f	-0.11745738
36	0xbcf47896	-0.029842656
37	0x3d8667db	0.065627776
38	0xbcecd30a	-0.028909225
39	0xbcb9256c	-0.022600852
40	0x3ce92758	0.028461143
41	0xbe504c39	-0.20341577
42	0x3d0814e5	0.03322305
43	0xbe04f4c9	-0.12984003
44	0x3d0cbf7e	0.03436231
45	0xbdbb9fd3	-0.091613434
46	0xbc852a62	-0.016255561
47	0x3ccbce5e	0.024878677
48	0x3dfb3ff0	0.122680545
49	0xbe13a3b8	-0.14417922
50	0x3dd77dcf	0.10522043
51	0x3d4e7e3a	0.050413348
52	0xbdb94158	-0.090456665
53	0x3e88fa25	0.26753345
54	0xbe11780b	-0.14205949
55	0x3ddf047d	0.10889528
56	0x3d151a49	0.03640202
57	0x3e02a166	0.12756881
58	0x3d9b2bdc	0.07576725
59	0x3984a0fc	0.00025296945
60	0x3e6d8f45	0.23199184
61	0xbd2735f3	-0.040822934
62	0x3e441f7a	0.19152632
63	0x3d66dffd	0.056365956
64	0x3d3c785d	0.046013225
65	0x3c975703	0.018474108
66	0xbdb87a66	-0.09007721
67	0xbe36b9d3	-0.17844324
68	0x3ceb0ebb	0.028693547
69	0x3d67f4f7	0.0566301
70	0xbdca8464	-0.09888533
71	0x3d2e01e0	0.042482257
72	0xbdc615a7	-0.096720986
73	0x3c845f2a	0.016158659
74	0xbd6403a6	-0.055667542
75	0x3da72af9	0.08162493
76	0xbdbe34e0	-0.09287429
77	0xbdf4e39a	-0.11957474
78	0x3d1a8ba1	0.037730817
79	0x3c84f9a2	0.016232315
80	0x3ce106b2	0.027469013
81	0xbdd33cc4	-0.103143245
82	0x3dfb1462	0.12259747
83	0xbddcb1d9	-0.10776109
84	0xbd636de3	-0.055524718
85	0xbe5324a3	-0.20619445
86	0x3df2d55b	0.118571006
87	0x3cf6ad10	0.03011182
88	0xbdf53a7b	-0.11974045
89	0x3dd4ffb5	0.10400335
90	0xbde9be19	-0.114132114
91	0x3e91cbc5	0.28475776
92	0x3e2b9266	0.16755065
93	0xbdd7fb17	-0.105459385
94	0xbe512f8a	-0.20428291
95	0xbd802b07	-0.06258207
96	0xbe4fb59a	-0.20284119
97	0xbb7220a3	-0.0036945723
98	0x3e07ad68	0.13249743
99	0x3e16db6f	0.14732145
100	0xbd957d41	-0.07299281
101	0x3dd70081	0.10498143
102	0xbdbb7840	-0.09153795
103	0x3df17629	0.117901154
104	0xbbc271b9	-0.005933967
105	0x3da9725a	0.08273764
106	0xbc7a759c	-0.015286829
107	0x3e01de63	0.1268249
108	0xbe02fc7d	-0.12791629
109	0x3db6ebae	0.08931671
110	0x3d2b6c0b	0.041851085
111	0xbd618f81	-0.055068497
112	0x3e3ea876	0.1861895
113	0xbc0f538f	-0.008747949
114	0xbd8d0d24	-0.06887272
115	0xbd93b0bb	-0.07211443
116	0xbd16aaef	-0.03678411
117	0x3d9fedb2	0.07809009
118	0x3da258f7	0.07927125
119	0xbdaa67a5	-0.0832055
120	0x3d88f721	0.06687761
121	0x3b253b88	0.0025212485
122	0xbd9904e0	-0.07471633
123	0xbd528e5b	-0.051405292
124	0x3df8dc96	0.121514484
125	0xbc837461	-0.016046705
126	0x3c25888d	0.010103357
127	0xbd48b4cc	-0.049000546
128	0x3cc2e307	0.023789896
129	0xbd8b9502	-0.0681553
130	0x3e956292	0.29176766
131	0xbe2dfcb8	-0.16990936
132	0x3d88d16b	0.06680568
133	0x3c3f7856	0.011686405
134	0x3deecd83	0.11660292
135	0x3e523168	0.2052666
136	0xbe3af2d5	-0.18256696
137	0x3dc4135b	0.09574004
138	0x3cf097c0	0.029369235
139	0x3d6cdb7c	0.057826504
140	0x3e0cdabe	0.13755319
141	0xbde06fcc	-0.109588236
142	0x3de2580c	0.1105195
143	0xbcefa439	-0.029253112
144	0xbc32302e	-0.010875745
145	0xbd6985cd	-0.057012368
146	0x3dd397bd	0.10331676
147	0x3d8f9781	0.07011319
148	0x3dd35928	0.103197396
149	0xbd786153	-0.06063969
150	0x3c9aadf1	0.01888177
151	0xbbe89a96	-0.007098506
152	0xbe2c74be	-0.16841409
153	0xbd2edd8c	-0.042691752
154	0xbae02cae	-0.0017103159
155	0x3dda8319	0.10669536
156	0x3ca0c43b	0.01962482
157	0xbda6f076	-0.08151333
158	0x3c336afa	0.010950798
159	0xbd81c5a4	-0.06336525
160	0xbc4606a7	-0.012086547
161	0xbd84bea4	-0.06481674
162	0xbe77de37	-0.24205862
163	0x3d92c84a	0.07167108
164	0x3e046b3c	0.12931532
165	0xbd839628	-0.064251244
166	0xbd955cdb	-0.072931014
167	0x3c70dc82	0.014701011
168	0x3c888fae	0.016670074
169	0xbe5901ad	-0.21192046
170	0x3e1fb809	0.15597548
171	0x3e492dc4	0.19646364
172	0xbd715b52	-0.05892498
173	0x3d13516e	0.03596633
174	0xbdac209a	-0.08404656
175	0x3e23de68	0.1600281
176	0xbdd8c970	-0.10585296
177	0x3d7e3e85	0.062071342
178	0x3deb3b0d	0.114858724
179	0xbcc15694	-0.023600854
180	0x3e1bfc77	0.15233026
181	0x3d82d793	0.06388774
182	0xbe1cfd04	-0.15330893
183	0xbe60c26c	-0.21949166
184	0xbd4a53b1	-0.04939622
185	0xbdceab86	-0.10091309
186	0x3dad82b6	0.08472197
187	0x3cc866bf	0.024463056
188	0xbda42de3	-0.08016565
189	0xbd4fd894	-0.050743654
190	0xbd0cc610	-0.034368575
191	0xbd61eec4	-0.055159345
192	0xbe45cdb5	-0.19316752
193	0xbd828ca7	-0.063744836
194	0x3deee53b	0.11664816
195	0xbb3ce0bc	-0.0028820476
196	0x3e11b1b0	0.14227939
197	0xbd4fac4f	-0.050701436
198	0x3dea3ad7	0.11437004
199	0xbdd74722	-0.105116144
200	0xbe2900d2	-0.16504219
201	0xbdaa14cc	-0.08304748
202	0xbe960a21	-0.29304603
203	0xbe2aa64a	-0.16664997
204	0x3bdcdb94	0.006740043
205	0xbdb2b90d	-0.08726702
206	0xbe457b57	-0.19285332
207	0x3e6abb57	0.22923027
208	0x3d4c4064	0.049866095
209	0xbe2f1413	-0.17097501
210	0x3d623a68	0.05523148
211	0xbd11fe46	-0.035642885
212	0xbd8f4c84	-0.06997016
213	0x3e8fd46e	0.28091758
214	0xbdb1ccc8	-0.08681637
215	0x3e264ac9	0.16239466
216	0xbe35bd9a	-0.17748109
217	0xbc879899	-0.016552256
218	0x3d4b7ef5	0.049681623
219	0xbd8da011	-0.06915296
220	0xbe4b746f	-0.19868635
221	0x3c529719	0.012853407
222	0xbe795468	-0.24348605
223	0xbcc09248	-0.023507252
224	0x3e64aed0	0.2233231
225	0x3d6979bc	0.05700086
226	0x3d6abd0c	0.057309195
227	0x3d4f8a01	0.05066872
228	0xbd1f76b3	-0.03893156
229	0x3e19bd0f	0.15013526
230	0x3dfb0967	0.12257653
231	0x3c1fd9ae	0.009756489
232	0xbcf798b1	-0.030224176
233	0x3bfc7442	0.0077042887
234	0x3dd3b785	0.10337738
235	0xbd9c95c7	-0.07645755
236	0xbde66f29	-0.11251671
237	0xbd3c7761	-0.046012286
238	0xbd66de4a	-0.056364335
239	0xbde5ea96	-0.11226384
240	0x3d22b1f1	0.03972048
241	0x3d844e39	0.06460232
242	0x3d1e5433	0.038654517
243	0xbc3c90a2	-0.0115090925
244	0x3da9163c	0.08256194
245	0xbe2325a6	-0.1593233
246	0x3d14d4f0	0.036335886
247	0x3d63acf7	0.055584874
248	0xbcf5b111	-0.029991658
249	0x3e389b49	0.18027987
250	0x3cd29008	0.025703445
251	0x3e1aa25f	0.15101002
252	0xbe2d1264	-0.16901547
253	0x3e8d45ee	0.27592415
254	0x3d03d14c	0.032182023
255	0xb99ad3b1	-0.0002953089

network_body._body_endoder.seq_layers.0.bias f4 [128]
0	0xbb48c91c	-0.0030637449
1	0xbb0bd7da	-0.0021338374
2	0x3b715a50	0.0036827512
3	0xbba71a43	-0.005099566
4	0x3c38eb25	0.011286532
5	0x3a8b9c26	0.0010651394
6	0x3b78544a	0.0037892037
7	0xbb985f8a	-0.004650061
8	0x3b742118	0.003725117
9	0xbc4f8ddb	-0.012668098
10	0xbbaa7d76	-0.0052029444
11	0x3b227355	0.0024787982
12	0xbc287422	-0.0102815945
13	0xbbd0a465	-0.0063672536
14	0x3d0e431b	0.034731966
15	0xb9b4c65a	-0.0003448006
16	0x3c6b394b	0.014356921
17	0x3b33fe05	0.002746464
18	0xb92ddcec	-0.00016580865
19	0x3c05a8ef	0.008157953
20	0x3bb025f4	0.005375618
21	0xbc5bd4d6	-0.013417443
22	0x3c60cebc	0.013721164
23	0x3c375fb6	0.011192253
24	0xbc7c6ea4	-0.015407238
25	0xbb018ade	-0.001976661
26	0xbba9bfaa	-0.005180319
27	0xbc3b943c	-0.011448916
28	0x3bc08373	0.005875045
29	0x3c92adcb	0.017905137
30	0xbc3d382b	-0.011549036
31	0x3aeb3ccf	0.00179472
32	0xbb6ce4e4	-0.0036147172
33	0x3c5ed24d	0.013599944
34	0x3c165c1d	0.009177235
35	0xbab0429c	-0.0013447586
36	0xbb8f1084	-0.0043659825
37	0x3c38fc86	0.011290675
38	0xbb71fdf8	-0.0036925059
39	0xbade1653	-0.0016943909
40	0xbaa6d780	-0.0012729019
41	0xbc0b9d60	-0.008521408
42	0xbbe0aabf	-0.006856292
43	0x3c172596	0.00922527
44	0xbb9f7950	-0.0048667565
45	0xbac27b63	-0.0014837797
46	0x3b80af09	0.003927116
47	0xbad35f07	-0.0016126343
48	0x3bb8fb22	0.0056451717
49	0xbb6dfc19	-0.0036313592
50	0xbb1a1460	-0.002351068
51	0x3a4d9d0e	0.00078435324
52	0xbbbe8d9b	-0.0058152205
53	0xbc1d407b	-0.009597893
54	0x3c5bf71c	0.013425615
55	0x3c6699af	0.014074727
56	0xbbb9d5bd	-0.0056712315
57	0xbbe4166d	-0.006960681
58	0xbab7bdfc	-0.0014018412
59	0xbb49bc5f	-0.0030782444
60	0xbc32ec07	-0.010920531
61	0xbb913878	-0.0044317804
62	0xba0aab7a	-0.0005289834
63	0xbc03e00d	-0.008049023
64	0xbbb50d22	-0.005525247
65	0xbbd4ed4c	-0.0064980146
66	0xbc1b587b	-0.009481545
67	0xbbf7daed	-0.00756394
68	0x3c558f3c	0.013034638
69	0xbc23b814	-0.009992618
70	0xb9975b4a	-0.0002886898
71	0xbb4d5249	-0.0031329563
72	0x3b96d804	0.004603388
73	0xbc477c7a	-0.012175674
74	0xbb836e72	-0.004010969
75	0x3a89aea6	0.001050432
76	0x3c4b381c	0.012403514
77	0xbb8409f0	-0.004029505
78	0xbacfcc4b	-0.0015853731
79	0x3b9a4dbf	0.004708975
80	0xbc5a51df	-0.013325184
81	0x3b0d4564	0.0021556253
82	0x3b06cecb	0.0020570036
83	0x3ad34b4e	0.0016120465
84	0x3894944e	7.084814e-05
85	0x3c720014	0.014770526
86	0x39f5106c	0.00046742277
87	0xbbbbcc5f	-0.00573115
88	0xbc2333e6	-0.009961104
89	0x3bf76e9a	0.0075510265
90	0x3c6f6b17	0.014612935
91	0xbcd60a22	-0.026127879
92	0xbb749259	-0.0037318675
93	0xbb290e1f	-0.002579577
94	0x3a718493	0.00092131755
95	0xbc95bd46	-0.01827873
96	0x3bc3e654	0.005978385
97	0x3c8afd30	0.016966432
98	0x3ba987fe	0.0051736822
99	0x3c865fe5	0.016403148
100	0xba701579	-0.0009158473
101	0x3b7ea5b1	0.0038856084
102	0xbbc5e0eb	-0.006038775
103	0x3c4e2fd5	0.012584646
104	0xbcb1df5c	-0.021712951
105	0x3b4a0d64	0.0030830735
106	0x39abc228	0.0003276032
107	0x3b694790	0.0035595633
108	0x3a883822	0.0010392705
109	0xbc46e1d3	-0.012138802
110	0xbbadf794	-0.0053090546
111	0x3b453250	0.0030089803
112	0x3c79854b	0.015229533
113	0xbab192b9	-0.0013547755
114	0xbbf3e869	-0.007443477
115	0x3b902079	0.0043984023
116	0xbb870671	-0.004120641
117	0xbc004d0b	-0.0078308685
118	0xbbf16a8b	-0.0073674372
119	0xb9a21eae	-0.00030921906
120	0xbc338a77	-0.010958306
121	0x3bce963e	0.0063045314
122	0xbb96759c	-0.004591657
123	0x3c24497a	0.010027284
124	0x3ae00990	0.0017092694
125	0x3b2e72dc	0.0026618754
126	0x3a9f1dfe	0.0012139676
127	0x3b82174e	0.0039700633

network_body._body_endoder.seq_layers.2.weight f4 [128, 128]
0	0xbe51d7d3	-0.20492487
1	0x3ddb2c0b	0.1070176
2	0xbb7cf2f3	-0.0038596957
3	0x3d2be1fb	0.04196356
4	0x3dbf4709	0.09339721
5	0xbdb47f70	-0.08813369
6	0xbd820f95	-0.06350628
7	0x3ac5f06c	0.0015101559
8	0x3b248377	0.0025102773
9	0xbd8283f2	-0.06372823
10	0x3d319653	0.04335625
11	0x3c53cafd	0.012926814
12	0xbd142bc9	-0.03617457
13	0xbd3a7c09	-0.045528445
14	0xbe00d7b2	-0.12582281
15	0xbdd54fe6	-0.1041563
16	0xb9562946	-0.00020424006
17	0x3d967032	0.07345618
18	0x3b1affc7	0.002365099
19	0x3d3aa195	0.045564253
20	0x3baa6932	0.0052005285
21	0xbdb7fada	-0.08983393
22	0x3e139ba3	0.1441484
23	0x3e0f4340	0.13990498
24	0x3e1a5617	0.15071903
25	0xbba535d0	-0.0050418153
26	0x3dd05789	0.10172946
27	0xbb8d27c7	-0.0043077203
28	0x3dc52cd6	0.096276924
29	0xbc4e03a3	-0.012574109
30	0xbd3cc18c	-0.04608302
31	0xbe2ea456	-0.17054877
32	0xbd88c0ac	-0.06677374
33	0x3d79629a	0.06088505
34	0xbc83008b	-0.01599147
35	0x3d963404	0.0733414
36	0xbdac4fe9	-0.08413679
37	0x3d0c250e	0.034215026
38	0x3d84b840	0.064804554
39	0x3d9f1029	0.07766754
40	0xbccf6b51	-0.025319727
41	0xbcfcf1af	-0.030876962
42	0x3d8f2d0f	0.06991016
43	0x3d4f1213	0.050554346
44	0xbb5e9a1f	-0.0033966375
45	0x3ddc55a4	0.10758522
46	0x3b8f28e2	0.0043688873
47	0x3ce6ca07	0.028172506
48	0xbd995609	-0.07487113
49	0x3cc4fc0a	0.024045963
50	0x3d4f465b	0.050604206
51	0xbd78b8aa	-0.060722984
52	0x3e0cadfb	0.13738243
53	0xbe08754a	-0.13325992
54	0x3d344b1d	0.044016946
55	0xbd14e4c6	-0.036350988
56	0xbc812e2d	-0.015769089
57	0x3bc786fa	0.0060890885
58	0x3cdb6fc1	0.026786687
59	0xbe369917	-0.17831837
60	0x3d31e771	0.04343361
61	0x3d3bee3e	0.045881502
62	0x3dcb920a	0.09939964
63	0xba922302	-0.0011149349
64	0x3dd31899	0.10307426
65	0xbdaaf902	-0.08348276
66	0x3dcd102d	0.10012851
67	0x3e0dc43e	0.13844392
68	0x3ca83e67	0.020537568
69	0x3e40676d	0.18789454
70	0xbe35b09f	-0.17743157
71	0xbc471a88	-0.012152322
72	0xbe1ff6bf	-0.1562147
73	0xbd1f1979	-0.038842652
74	0xbd9ba8f1	-0.076005824
75	0xbe1aae67	-0.15105592
76	0xbdb722e7	-0.08942204
77	0xba80ba56	-0.0009821157
78	0x3c7ea378	0.015541904
79	0xbd944682	-0.07240011
80	0xbd804081	-0.06262303
81	0x3d9c57c5	0.07633928
82	0x3dd7ed9c	0.10543367
83	0xbe2c5b16	-0.16831622
84	0xbdbb08d3	-0.091325425
85	0x3cc7ffd6	0.024413984
86	0x3b3e1a1c	0.0029007262
87	0xbda9e4e4	-0.082956105
88	0xbdc1f93d	-0.094713666
89	0xbe0b48af	-0.13601945
90	0xbcf3cb42	-0.029760007
91	0x3d79d301	0.060992245
92	0x3d40c4fe	0.047062866
93	0x3c447695	0.011991163
94	0x3d6f9efd	0.058501232
95	0xbe51b3b1	-0.20478703
96	0xbc3304bd	-0.010926423
97	0xbc795026	-0.015216863
98	0x3ceeac99	0.029135035
99	0xbdb81638	-0.08988613
100	0xbe20e7a5	-0.15713365
101	0xbd611d6b	-0.054959696
102	0xbdd3ecd7	-0.10347908
103	0x3e178729	0.14797653
104	0x3d8a6393	0.067572735
105	0xbc11b065	-0.008892153
106	0x3ccf8fed	0.025337184
107	0xbd6ed362	-0.05830706
108	0xbda57272	-0.08078469
109	0xbd61017c	-0.054933056
110	0xbe2b0011	-0.16699244
111	0x3de28b5c	0.11061737
112	0x3e239176	0.15973458
113	0xbd81ef88	-0.06344515
114	0xbd7528d4	-0.05985339
115	0x3b869d3a	0.0041080983
116	0x3cabfc2f	0.020994274
117	0x3e137d82	0.14403346
118	0xbc9d0954	-0.019169487
119	0x3e103d62	0.14085916
120	0x3d2b11f2	0.04176516
121	0xbd4ea764	-0.050452605
122	0xbcba0852	-0.022709046
123	0x3ba5d1bf	0.005060404
124	0x3d7ceb87	0.061748054
125	0x3db64649	0.089001246
126	0xbdba43bc	-0.090949506
127	0x3cf9eda3	0.030508822
128	0xbd226834	-0.039650157
129	0xbd74b09e	-0.059738748
130	0xbdcc018b	-0.09961232
131	0xbda8bfb8	-0.082396924
132	0xbc1eb50d	-0.009686721
133	0xbd3c3f6b	-0.045958918
134	0x3df51a8a	0.119679525
135	0x3dd5740f	0.10422527
136	0xbc62062d	-0.013795418
137	0xbdc014a7	-0.09378939
138	0x3d6c5954	0.057702377
139	0x3d87117c	0.06595132
140	0xbe4b5a66	-0.19858703
141	0x3e2ee5c1	0.17079832
142	0xbd3e77fd	-0.04650115
143	0xbb918c28	-0.0044417568
144	0xbd0773f6	-0.033069573
145	0x3d2b7a04	0.04186441
146	0xbdb5d401	-0.08878327
147	0xbd0124c8	-0.031529218
148	0x3e08c6e0	0.13357115
149	0xbd5bf552	-0.053700753
150	0xbd7ec2a8	-0.062197357
151	0xbe1821be	-0.14856622
152	0xbd2627e5	-0.04056539
153	0xbdc911eb	-0.09817871
154	0xbe4d8478	-0.20070064
155	0x3dc101a3	0.0942414
156	0x3d32f440	0.043689966
157	0xbd9867dd	-0.07441685
158	0xbb798670	-0.0038074516
159	0x3bcccbe0	0.0062498897
160	0xbd64218e	-0.055696063
161	0x3b88a513	0.004170069
162	0x3b4651d1	0.0030261169
163	0xbcf04669	-0.02933045
164	0xbdd8edd2	-0.105922356
165	0x3dffb081	0.12484837
166	0xbce79b97	-0.028272433
167	0x3ce9f222	0.02855784
168	0x3d61f8e7	0.055169012
169	0x3d79e69f	0.061010953
170	0x3d314c90	0.043285906
171	0x3d057287	0.032579925
172	0xbd6f6c8b	-0.058453124
173	0x3dc494a1	0.09598661
174	0xbe20ec62	-0.15715173
175	0x3e53f0e2	0.20697358
176	0xb9e87a6d	-0.00044341703
177	0x3e043d83	0.1291409
178	0xbd40a5a9	-0.047032986
179	0xbe252d33	-0.16130523
180	0x3e3573c1	0.17719938
181	0xbd840b48	-0.06447464
182	0xbddd85d1	-0.10816539
183	0x3ceed763	0.029155439
184	0x3de47f65	0.11157111
185	0xbd9725a9	-0.0738023
186	0x3d8701ad	0.065921165
187	0xbe2d995b	-0.16953032
188	0xbe27dc73	-0.16392688
189	0x3e05d68e	0.13070127
190	0xbd795143	-0.060868513
191	0x3e4490fe	0.19195935
192	0x3c2f3b59	0.010695302
193	0xbdb4d010	-0.08828747
194	0x3e0c1a88	0.13681996
195	0x3e4531b4	0.19257241
196	0x3de1a945	0.11018614
197	0x3d800a5a	0.062519744
198	0xbc0efc37	-0.008727125
199	0x3d581df7	0.05276295
200	0xbc92581d	-0.017864281
201	0xb834988e	-4.3057422e-05
202	0x3c978f04	0.018500812
203	0xbe0188aa	-0.1264979
204	0x3cc5ef29	0.024161892
205	0xbd158b71	-0.036509935
206	0x3d232a87	0.03983548
207	0xbd8a1273	-0.067418
208	0x3d2d1e7f	0.04226541
209	0x3d2e368e	0.042532496
210	0x3d8c1af1	0.06841076
211	0xbe3bf23d	-0.18354125
212	0x3cc5630c	0.02409508
213	0xbd4c2d78	-0.04984805
214	0x3d61ed58	0.05515799
215	0x3dc6c330	0.09705198
216	0xbd3f5ef4	-0.046721414
217	0x3ca9d771	0.020732613
218	0x3d28d0bb	0.041214686
219	0xbc8ad69a	-0.016948033
220	0xbd8ec3da	-0.069709495
221	0xbdb3a232	-0.08771171
222	0x3d8b31c2	0.067966
223	0x3cda3a3e	0.0266391
224	0x3dcab560	0.09897876
225	0xbcbf13d1	-0.023324879
226	0xbd3af105	-0.04564001
227	0xbe6cafe9	-0.2311398
228	0x3e086d58	0.13322961
229	0xbc601ea2	-0.013679178
230	0x3e27bb3e	0.16380021
231	0xbc133698	-0.008985184
232	0x3d19f5fa	0.037588097
233	0x3e2be709	0.16787352
234	0xbe00fd87	-0.12596713
235	0xbdcdc3d6	-0.10047118
236	0x3acdb170	0.0015693139
237	0x3c45e2c5	0.012077992
238	0xbe193662	-0.14962152
239	0x3e8d7c1c	0.2763375
240	0xbd63ac90	-0.05558449
241	0xbe59f287	-0.21283923
242	0x3d3f6ebe	0.04673647
243	0x3dfa0017	0.122070484
244	0xbe2e1888	-0.17001545
245	0x3d3d4a21	0.046213273
246	0xbd00784e	-0.03136473
247	0xbd5250a2	-0.05134643
248	0xbe41f69f	-0.18941735
249	0x3d1f4205	0.03888132
250	0xbda4ace6	-0.0804079
251	0xbd344a55	-0.0440162
252	0xbe2e31f7	-0.17011248
253	0xbca7b68f	-0.020472793
254	0x3da8bef6	0.08239548
255	0x3df28c5b	0.11843177

network_body._body_endoder.seq_layers.2.bias f4 [128]
0	0x3bb031fc	0.0053770524
1	0x3aef3289	0.0018249314
2	0xbc3dad9e	-0.011577038
3	0xbbce795a	-0.0063010873
4	0xb9fa5944	-0.00047750224
5	0xbb3b4c63	-0.0028579466
6	0x3b6f6e2f	0.003653418
7	0xbba7325e	-0.00510244
8	0xbba0d40b	-0.00490809
9	0xbbe3282f	-0.0069322805
10	0xbbe59b6b	-0.0070070527
11	0x3a3f28a4	0.00072921277
12	0xbbdb8dcf	-0.0067002545
13	0x3c491fec	0.012275677
14	0xbc02ab63	-0.007975432
15	0xbbd3cc3e	-0.0064635566
16	0xb99aea69	-0.00029547818
17	0x3bd6ea19	0.0065586683
18	0xbbc4dccc	-0.0060077664
19	0xbb094810	-0.0020947494
20	0x3bc48109	0.0059968275
21	0x3bcb9f31	0.0062140455
22	0x3c029d07	0.007972009
23	0x3bed79b3	0.0072471737
24	0xbbd3f790	-0.0064687207
25	0x3c0b6160	0.008507103
26	0x3b138d0c	0.002251449
27	0x3b4fe7f1	0.0031723941
28	0xbafeedb8	-0.0019449508
29	0x3c56d827	0.013113058
30	0xbc298bdf	-0.010348289
31	0xbc488dfa	-0.012240881
32	0xbbcb8d8b	-0.0062119416
33	0xb8af5f0d	-8.362355e-05
34	0x3ba1d56a	0.004938771
35	0xbb8dfde7	-0.004333246
36	0xbab462ae	-0.0013762319
37	0xbb9509f4	-0.0045483056
38	0xbb79f2d1	-0.0038139115
39	0x3a9147e7	0.0011084051
40	0xba61f981	-0.0008620248
41	0x3b9048eb	0.0044032237
42	0xb9b6bb43	-0.00034853266
43	0x3ba77e36	0.005111481
44	0x3a844d4d	0.0010093838
45	0xbc40c075	-0.011764635
46	0x3c0ad74e	0.008474184
47	0x3c51d08f	0.012806072
48	0xbb48cb86	-0.0030638888
49	0xbb956eb0	-0.004560314
50	0x3bb9714f	0.0056592594
51	0xbc080a98	-0.008303307
52	0x3c120c91	0.008914129
53	0xbc08ce6a	-0.008349994
54	0x3b664635	0.0035137061
55	0x3bc8c8bf	0.0061274464
56	0x3ad19d9f	0.0015992409
57	0xbc8d8d6b	-0.017279347
58	0xbae7a179	-0.0017672024
59	0x3c25bf67	0.010116435
60	0x39d2904a	0.00040161825
61	0xbb20bb2e	-0.002452563
62	0xbb483ba3	-0.0030553124
63	0xba9a7dc2	-0.0011786746
64	0xbc367526	-0.011136329
65	0xbb8e9a5b	-0.0043518967
66	0xbbbe5e95	-0.005809615
67	0x3b2ffac8	0.0026852358
68	0xb8b0b77e	-8.426512e-05
69	0x3a7faa0f	0.0009752819
70	0xbac30e6f	-0.0014881621
71	0x3a7fb727	0.000975477
72	0x384772e7	4.755231e-05
73	0x3ba999da	0.0051758112
74	0x3a272508	0.00063760625
75	0x3c6b8e15	0.014377137
76	0x3ca0b0ca	0.01961555
77	0x3c606d6c	0.013697963
78	0xbbc5ae15	-0.006032715
79	0x39397f25	0.0001769034
80	0xbbb6c670	-0.005577855
81	0xbb02164c	-0.0019849716
82	0xbba74e61	-0.005105779
83	0x3c38513e	0.011249838
84	0xbbefa7fc	-0.0073137265
85	0xbbe71223	-0.0070517226
86	0xbc16d97c	-0.009207126
87	0xbbc47065	-0.005994844
88	0x3b64ef02	0.0034932499
89	0xbbdeec40	-0.0068030655
90	0xbb5f6f7c	-0.003409355
91	0x3b661f36	0.0035113818
92	0x3bee6318	0.0072749965
93	0xbb0b4a37	-0.0021253952
94	0x3b2bbf64	0.0026206607
95	0x3bbfc748	0.0058526136
96	0xb8c5d9cc	-9.43426e-05
97	0xbaee0968	-0.0018160762
98	0xbc16fc84	-0.009215478
99	0xbb7dfe06	-0.0038756146
100	0xbb933f20	-0.004493609
101	0x3a521a13	0.00080147496
102	0x3b45f435	0.0030205373
103	0x3abf75b4	0.0014607222
104	0x39bf6e15	0.00036512376
105	0xbacbf8d9	-0.0015561833
106	0x3a2e0a08	0.0006639068
107	0xbbfd1b53	-0.0077242046
108	0xbb2f7181	-0.0026770534
109	0x3b754635	0.003742588
110	0xbb7da266	-0.0038701533
111	0xbb89a4b8	-0.004200544
112	0xbbb869e3	-0.005627857
113	0xbbad31e0	-0.0052854866
114	0xbc2f2e55	-0.010692199
115	0xbc72fde0	-0.014831036
116	0x3b1794b3	0.0023129403
117	0xbb969eec	-0.0045965817
118	0xbbb16866	-0.0054140566
119	0xbb51ec1d	-0.0032031604
120	0x3b142c5a	0.0022609443
121	0xbc18d200	-0.009327412
122	0x3c1ef244	0.009701315
123	0xbb6ed0bd	-0.0036440336
124	0xbb4709af	-0.0030370762
125	0xbc5dab41	-0.0135296
126	0x3b8d2daf	0.0043084244
127	0x3b907c38	0.0044093393

action_model._continuous_distribution.log_sigma f4 [1, 2]
0	0xbca64f99	-0.020301627
1	0x3cd36bc4	0.025808223

action_model._continuous_distribution.mu.weight f4 [2, 128]
0	0x3bbb64bf	0.005718797
1	0x3d06b34e	0.032885842
2	0x3c09e46b	0.0084162755
3	0xb91a463a	-0.00014712746
4	0x3d0f66cb	0.03501014
5	0x3c81724b	0.01580157
6	0xbc6ed1ee	-0.014576418
7	0x3c9069df	0.017628608
8	0xbcd83015	-0.026390115
9	0x3bf0ef2a	0.0073527293
10	0xbbd6a9c1	-0.006550998
11	0xbd217010	-0.03941351
12	0x3bc72e89	0.0060785455
13	0x3ce8bb12	0.028409515
14	0xbc14fdfe	-0.00909376
15	0xbbccda73	-0.006251627
16	0xbb4117df	-0.0029463691
17	0x3c7fbbf5	0.015608777
18	0x3c61bb97	0.013777635
19	0x3c057dc0	0.008147657
20	0xbd067a20	-0.03283131
21	0xbbc2587c	-0.0059309583
22	0xbc4c4d74	-0.012469638
23	0xbc46f403	-0.012143138
24	0xbcb3f545	-0.02196754
25	0x3cd193b6	0.02558313
26	0x3d01d786	0.03169968
27	0x3d15ccc6	0.03657224
28	0xbc92359f	-0.017847834
29	0xbd015c8d	-0.031582404
30	0x3ceae4ac	0.028673492
31	0xb9da979e	-0.00041693164
32	0x38cc0c3d	9.7297576e-05
33	0x3cab75e4	0.020930238
34	0x3c2d4142	0.010574641
35	0xbc19279b	-0.009347822
36	0x3d25671b	0.040381532
37	0x3c62d07f	0.013843655
38	0xbc1df645	-0.009641235
39	0xbbbb40d5	-0.0057145157
40	0xbc12c7dd	-0.008958784
41	0xbc1e9806	-0.0096798
42	0xbd3742ca	-0.04474143
43	0xbbba7430	-0.00569012
44	0xbbbb9dd9	-0.005725604
45	0xbc0f4432	-0.008744286
46	0x3c8dc8e9	0.017307715
47	0x3ca7cf83	0.020484691
48	0xbc7deb24	-0.015497956
49	0xbc9fa75e	-0.019488987
50	0xbc845efa	-0.01615857
51	0xbcd5f2d3	-0.026116764
52	0x3d2e7966	0.042596243
53	0xbd1af68b	-0.037832778
54	0x3b12fe7e	0.0022429521
55	0xbc161d3c	-0.009162243
56	0xbc5a3dd2	-0.013320403
57	0xbc830668	-0.015994266
58	0xbcc7f3f8	-0.024408326
59	0xbb4d0939	-0.0031286015
60	0xbcbd9030	-0.023140043
61	0xbc861f86	-0.016372453
62	0xbcb5986b	-0.022167405
63	0x3c9771c8	0.018486872
64	0xbb0bd90b	-0.0021339084
65	0xbc9aaf47	-0.018882407
66	0x3a405133	0.00073363184
67	0xbb452ffb	-0.0030088413
68	0xbb9c104f	-0.0047626863
69	0x3bd0aaf7	0.006368037
70	0xba34e420	-0.00069004484
71	0xbb87aae4	-0.004140245
72	0xbcc34cb6	-0.02384029
73	0x3cb904ab	0.022585234
74	0x3c12d3a7	0.008961595
75	0x3d020d57	0.031751003
76	0xbcc8b594	-0.024500646
77	0x3ccb8172	0.024841998
78	0xbc919751	-0.017772349
79	0xbd1840f2	-0.03717131
80	0xbcb0cac3	-0.02158106
81	0xbd0fb591	-0.035085265
82	0x3c41e977	0.0118354475
83	0x3cf35e56	0.029708069
84	0xbcedb85a	-0.02901857
85	0xbae0394a	-0.0017106917
86	0xbc30f37c	-0.010800239
87	0xbcad140d	-0.021127725
88	0xbbce17a2	-0.0062894383
89	0xbcaee32a	-0.021348555
90	0x3c8bd69d	0.017070109
91	0xbad28c74	-0.0016063587
92	0x3ce80b4b	0.028325697
93	0x3b065003	0.0020494468
94	0xbb8afaf1	-0.0042413403
95	0xbb8a589d	-0.0042219893
96	0xbbea41f6	-0.0071489764
97	0xbc1f7417	-0.009732268
98	0xbb01c273	-0.0019799739
99	0x3b9e8c6c	0.004838517
100	0x3a52b696	0.00080380717
101	0xbc9e8997	-0.019352717
102	0x3cf6a9fc	0.030110352
103	0xbcf91e76	-0.030410033
104	0xbcb656e8	-0.022258237
105	0x3c9fc2fe	0.01950216
106	0xbbdff7dc	-0.006834967
107	0xba82182c	-0.0009925417
108	0xbc86dc48	-0.01646246
109	0x3d07af1e	0.03312599
110	0x3c963adf	0.018338619
111	0xbb4aadad	-0.0030926273
112	0x3c0868a3	0.008325729
113	0x3b4afc58	0.0030973163
114	0x3b4c988f	0.0031218862
115	0xbc5ead4b	-0.013591121
116	0xbc701341	-0.014653028
117	0xbc91b809	-0.01778795
118	0x3ba5b8e2	0.00505744
119	0xbcd15359	-0.025552439
120	0x3cd2e4ea	0.02574392
121	0xbcc5c92c	-0.024143778
122	0x3bb7342c	0.005590936
123	0x3cadbf2c	0.021209322
124	0x3c716e7e	0.014735816
125	0x3c009511	0.00784804
126	0x3c62ebf5	0.013850202
127	0x3a0f8977	0.0005475501
128	0xbcbc3967	-0.02297659
129	0xbc901eeb	-0.017592868
130	0xbc2deb7d	-0.010615227
131	0x3bc4c41f	0.006004825
132	0x3d1c0adb	0.03809629
133	0x3c3c6288	0.011498101
134	0xbc029204	-0.007969383
135	0x3b7ee794	0.0038895356
136	0x3d09783c	0.03356193
137	0x3c4f9d16	0.01267173
138	0xba7d0596	-0.00096520165
139	0x3c13a8b1	0.009012387
140	0xbc0f90c9	-0.008762547
141	0xbba56c1e	-0.005048289
142	0x3d2fa8be	0.042885534
143	0x3ad2196d	0.0016029306
144	0xbbef3892	-0.007300445
145	0x3b8a0b2a	0.0042127566
146	0x3bdbaba6	0.0067038117
147	0x3c1f205a	0.009712303
148	0xbc3814fe	-0.011235474
149	0x3d5d648a	0.05405096
150	0x3cbf364a	0.023341317
151	0x3ccaf443	0.024774676
152	0x3c199993	0.009374994
153	0xbb8a1144	-0.004213484
154	0x3bf1b35d	0.007376118
155	0xbc8d5f6b	-0.017257413
156	0x3afb931f	0.0019193626
157	0x3ce06b6e	0.027394976
158	0x3c47d021	0.012195618
159	0x3bc1336e	0.0058960235
160	0xbc9b6fb3	-0.01897416
161	0xbc12b02c	-0.008953135
162	0xbc94ca1a	-0.018162776
163	0x3b338646	0.0027393266
164	0x3caa16e1	0.020762863
165	0x3c52656e	0.012841566
166	0xbc79e329	-0.015251913
167	0x3cbe4463	0.023225969
168	0xbca6cdc7	-0.020361794
169	0x3d0fee45	0.03513934
170	0x3b8dca7f	0.004327118
171	0xbbc06048	-0.0058708526
172	0xbc71ef13	-0.014766472
173	0x3b4e5cd2	0.003148843
174	0x3d26dbc2	0.04073692
175	0x3cd5f45a	0.026117492
176	0x3ce45793	0.02787379
177	0x3cd7a4c1	0.026323678
178	0xbd2b0cdc	-0.04176031
179	0x3c500d51	0.012698487
180	0xbbbe82a3	-0.005813913
181	0xbaa9863c	-0.0012933682
182	0xbc475939	-0.012167268
183	0xbce53dbe	-0.027983543
184	0xbae89ed2	-0.0017747527
185	0xbca8e606	-0.020617496
186	0x3d74fbb5	0.05981036
187	0x3cf640f5	0.03006027
188	0xbb140c63	-0.002259039
189	0x3cd8bcf6	0.026457291
190	0x3cedb451	0.029016646
191	0xbd1bee12	-0.03806884
192	0xbb18e766	-0.0023331284
193	0x3cb05c3f	0.021528361
194	0x3c8f5e7c	0.017501108
195	0xbce1dddf	-0.027571617
196	0xbc241776	-0.010015359
197	0x3be11b7a	0.0068697305
198	0xbc5beb06	-0.013422733
199	0x3c874d71	0.01651642
200	0x3b6b3e32	0.0035895226
201	0xbbbaaa05	-0.0056965374
202	0xbb1ac1e4	-0.0023614103
203	0x3bd7573c	0.0065716784
204	0xbcdcfcbc	-0.026975982
205	0x3d8aed08	0.067834914
206	0xbc369d0a	-0.0111458395
207	0xbca59d77	-0.020216687
208	0xbbbd7e13	-0.0057828515
209	0xbc697c95	-0.014250894
210	0xbd49cec6	-0.04926946
211	0x3c11f09d	0.008907464
212	0x3d9dbe35	0.07702295
213	0xbcd496cd	-0.025950814
214	0xbc628af1	-0.0138270715
215	0xbbcdbf1f	-0.006278887
216	0xbc853a69	-0.016263204
217	0xbd2d1a67	-0.042261507
218	0x3b4e709e	0.003150023
219	0xbb125d82	-0.0022333567
220	0xbd1124e9	-0.03543559
221	0x3ca71073	0.020393586
222	0xbb35e07c	-0.0027752211
223	0x3b90cf86	0.00441927
224	0x3d49ac11	0.04923636
225	0x3c01683f	0.007898389
226	0x3aa5d20f	0.0012651103
227	0x3cac62a5	0.021043131
228	0x3c1be65f	0.009515374
229	0x3baf9438	0.005358245
230	0xbccdc907	-0.025120271
231	0xbc23146a	-0.009953598
232	0x3c0c468e	0.008561743
233	0x3afc9954	0.001927177
234	0x384e9570	4.92534e-05
235	0x3c6905b0	0.014222547
236	0x3cd8b9a1	0.026455702
237	0x3830b908	4.2133994e-05
238	0xbbaa5b36	-0.0051988615
239	0x3c500411	0.012696282
240	0xbb835e5c	-0.0040090512
241	0xbb955d0f	-0.0045582126
242	0x3c2e8169	0.010650971
243	0xbb1c9cf1	-0.0023897255
244	0xbc0a84f8	-0.008454554
245	0x3c78c30f	0.015183224
246	0x3c848723	0.01617772
247	0xbb3a8dad	-0.0028465793
248	0xbc6ab616	-0.014325639
249	0xbd10f2a7	-0.03538766
250	0xbce86cf6	-0.02837227
251	0x3bdf2c02	0.006810666
252	0x3c91885d	0.017765218
253	0xbc3e4b70	-0.011614665
254	0x3b6d181c	0.00361777
255	0xbcad28ba	-0.021137584

action_model._continuous_distribution.mu.bias f4 [2]
0	0x3b0b1596	0.0021222583
1	0xbb99f5c0	-0.004698485

action_model._discrete_distribution.branches.0.weight f4 [1, 128]
0	0x3bbaf1f7	0.005705114
1	0x3c4da4f2	0.012551533
2	0x3a8dc9b3	0.0010817557
3	0xbc228715	-0.009919901
4	0x3b810fc6	0.003938648
5	0x3c903f0a	0.017608184
6	0xbc1841f7	-0.009293071
7	0xbb01b138	-0.0019789468
8	0x3c8fcf65	0.017554948
9	0x3adb7deb	0.00167459
10	0x3c261193	0.010136026
11	0x3c461b38	0.01209145
12	0x3b378aa4	0.002800622
13	0x3ba0ac7e	0.004903375
14	0x39c20410	0.0003700559
15	0x3b8348a3	0.0040064617
16	0xba8c468b	-0.0010702176
17	0xbc5a8c3d	-0.0133390995
18	0xbc134639	-0.00898891
19	0x3c1a6e9b	0.009425784
20	0xbccae2e6	-0.024766397
21	0xbc26a3e3	-0.01017091
22	0x3b80671d	0.003918542
23	0x3aca9608	0.001545609
24	0x3b862813	0.0040941327
25	0x3bba86ae	0.0056923246
26	0x397eee3d	0.00024312078
27	0x3c17b4b1	0.009259389
28	0x3bb07091	0.0053845127
29	0xbbd55d1b	-0.006511343
30	0x3c597bda	0.013274157
31	0xbbb5825a	-0.0055392208
32	0x3c0936ba	0.008374864
33	0x3b72dbe0	0.0037057325
34	0x3c7076f7	0.014676801
35	0xba2b9f31	-0.00065468537
36	0x3b9394a3	0.004503803
37	0xbc768c25	-0.0150480615
38	0x3c57c060	0.013168424
39	0x3c5c907b	0.013462181
40	0x3c5c1897	0.013433597
41	0xbba141d0	-0.0049211755
42	0x3c0bc9c7	0.008531994
43	0xbb756248	-0.0037442613
44	0x3b85fca3	0.0040889545
45	0x3c8cd25b	0.017190149
46	0xbb2ec012	-0.0026664776
47	0xbbb62ad3	-0.0055593043
48	0xbb927bdf	-0.004470333
49	0x3c05f708	0.008176573
50	0x3be8fae0	0.0071099848
51	0x3b803cc7	0.003913495
52	0x3c71a788	0.014749415
53	0x3ae08f5a	0.0017132566
54	0x3c6b0d4a	0.01434643
55	0xbc14ca5d	-0.00908145
56	0xbab9a625	-0.0014163895
57	0xbb0c51ed	-0.0021411136
58	0xbb582423	-0.0032980524
59	0xbc8aa57c	-0.016924612
60	0xbbf18342	-0.0073703835
61	0x3bd3a3d7	0.00645874
62	0xbb7cb52a	-0.003856013
63	0xbc059313	-0.008152741
64	0xbbca10b5	-0.0061665424
65	0x3b001070	0.0019541048
66	0x3c8a1415	0.016855279
67	0x3c23837c	0.009980079
68	0x3a2bcf44	0.00065540173
69	0x3bed9d93	0.0072514503
70	0xbbe17fed	-0.006881705
71	0x3b322fd7	0.002718916
72	0xbb683f73	-0.003543821
73	0xbc23b448	-0.009991713
74	0xbb92a5e2	-0.004475341
75	0xbb282c05	-0.0025661003
76	0xbbe00155	-0.0068360963
77	0xbc3095fb	-0.010777946
78	0xbc2c7eab	-0.010528247
79	0xbc1301e1	-0.008972616
80	0xba192c4c	-0.00058430876
81	0x39e86e73	0.0004433278
82	0x3c13b50a	0.009015331
83	0xba786fdd	-0.0009477118
84	0x3c3ed498	0.011647366
85	0x3be7c3fa	0.007072923
86	0xbb1219d3	-0.0022293224
87	0xbafe9e57	-0.0019425851
88	0xbb361f10	-0.002778951
89	0x3c31d978	0.010855071
90	0xbbf32abf	-0.007420867
91	0xbb5a036b	-0.0033266197
92	0x3a8df2eb	0.0010829841
93	0x3c01cad5	0.007921894
94	0x3aea109b	0.0017857732
95	0x3bc70f0c	0.006074792
96	0xbb2f93e8	-0.002679104
97	0xbb943295	-0.0045226314
98	0xbaa0d4c1	-0.0012270437
99	0x3c717643	0.014737668
100	0x3ba45718	0.005015265
101	0xbc158dd7	-0.009128056
102	0x3a00042d	0.0004883435
103	0x3c0b5ce3	0.008506033
104	0x3be55c6d	0.0069995434
105	0xb9574ff5	-0.00020533784
106	0x3ba06a4a	0.004895483
107	0x3be23fdd	0.0069045858
108	0x3cae9505	0.021311292
109	0xbb065657	-0.002049824
110	0xbc0c83f8	-0.008576386
111	0x3b1deefb	0.0024098742
112	0xbba1ab77	-0.0049337703
113	0xbb470d8f	-0.0030373072
114	0xbc108221	-0.008820088
115	0x3bd259df	0.006419405
116	0xbb1e26b6	-0.002413196
117	0x3c1eb0c8	0.009685703
118	0x3ca8c8ce	0.020603564
119	0x3b672a15	0.0035272886
120	0x3b8c7f00	0.0042876005
121	0x3bcb2cf3	0.0062004267
122	0xbc25058f	-0.010072126
123	0x3c262d38	0.010142617
124	0x3c0e4135	0.008682539
125	0xbb1f9e50	-0.0024355836
126	0xb88d6fb8	-6.744213e-05
127	0x3bb1b2fa	0.005422947

exp_avg f4 [128, 78]
0	0x34f716ce	4.6023928e-07
1	0x34f716ce	4.6023928e-07
2	0x34f716ce	4.6023928e-07
3	0x3916718f	0.00014347419
4	0xb8a9b70a	-8.092642e-05
5	0x390a2e3f	0.00013177934
6	0x394520f5	0.00018799661
7	0xb720cb77	-9.584116e-06
8	0x38c60990	9.443157e-05
9	0xb8641d00	-5.4386444e-05
10	0xb8cc1fa2	-9.73337e-05
11	0xb94bd49e	-0.00019438795
12	0x395f4a20	0.00021294551
13	0x365c7005	3.2847759e-06
14	0x394dcf7f	0.00019627622
15	0xb8087dd3	-3.254211e-05
16	0xb730750d	-1.05176705e-05
17	0x380b7f41	3.3258697e-05
18	0x00000000	0.0
19	0x3245acd0	1.1506202e-08
20	0x00000000	0.0
21	0x361a6ed2	2.3012294e-06
22	0x3245acd0	1.1506202e-08
23	0xb61a6ed2	-2.3012294e-06
24	0x361a6ed2	2.3012294e-06
25	0x3245acd0	1.1506202e-08
26	0x361a6ed2	2.3012294e-06
27	0xb61a6ed2	-2.3012294e-06
28	0x3245acd0	1.1506202e-08
29	0x361a6ed2	2.3012294e-06
30	0xb61a6ed2	-2.3012294e-06
31	0x3245acd0	1.1506202e-08
32	0xb61a6ed2	-2.3012294e-06
33	0xb64327f5	-2.9080522e-06
34	0x34ed9f01	4.426038e-07
35	0x371dc07a	9.402744e-06
36	0xb71765d9	-9.024015e-06
37	0x37371eab	1.091479e-05
38	0x34092caf	1.2775375e-07
39	0xb6f8f2fe	-7.419264e-06
40	0xb6f8f2fe	-7.419264e-06
41	0xb6f8f2fe	-7.419264e-06
42	0x389ff1f1	7.626776e-05
43	0xb8d8d117	-0.000103386286
44	0x38e8dea4	0.00011104092
45	0x392ae594	0.00016297988
46	0xb7091ba8	-8.172276e-06
47	0x38fed9c0	0.00012152223
48	0xb8c492b1	-9.373332e-05
49	0xb8ea3094	-0.00011167038
50	0xb97d2054	-0.00024140003
51	0x38d6099c	0.00010206105
52	0x3511feb4	5.438735e-07
53	0x3952ce89	0.00020104101
54	0xb7e68c4d	-2.748347e-05
55	0xb7058b1c	-7.959807e-06
56	0x386177cc	5.375575e-05
57	0x00000000	0.0
58	0xb4472872	-1.8548033e-07
59	0x00000000	0.0
60	0xb81b97a0	-3.709609e-05
61	0xb4472872	-1.8548033e-07
62	0x381b97a0	3.709609e-05
63	0xb81b97a0	-3.709609e-05
64	0xb4472872	-1.8548033e-07
65	0xb81b97a0	-3.709609e-05
66	0x381b97a0	3.709609e-05
67	0xb4472872	-1.8548033e-07
68	0xb81b97a0	-3.709609e-05
69	0x381b97a0	3.709609e-05
70	0xb4472872	-1.8548033e-07
71	0x381b97a0	3.709609e-05
72	0xb67f0ec1	-3.800655e-06
73	0xb5d11d56	-1.5580251e-06
74	0x37501f1a	1.24050075e-05
75	0xb75e64e7	-1.3255724e-05
76	0x371e6167	9.440212e-06
77	0xb5079c4c	-5.051886e-07
78	0xb828ae4a	-4.021664e-05
79	0xb828ae4a	-4.021664e-05
80	0xb828ae4a	-4.021664e-05
81	0x3891e4f5	6.9567854e-05
82	0xb8b2c036	-8.5235035e-05
83	0x39fdf0ab	0.00048435232
84	0x39a43d75	0.00031326307
85	0xb6e1cef5	-6.7296155e-06
86	0xb7f57025	-2.9258497e-05
87	0x3994e3ab	0.00028398386
88	0xb7f7a948	-2.9523522e-05
89	0xb9dc4b66	-0.00042017846
90	0xb8ee25ab	-0.000113557406
91	0x38189049	3.6374e-05
92	0x38c0652a	9.174117e-05
93	0x3a306ca7	0.00067300576
94	0xb751b37b	-1.2499159e-05
95	0xb81411a8	-3.5302393e-05
96	0x00000000	0.0
97	0xb586f1db	-1.0054167e-06
98	0x00000000	0.0
99	0xb952d9d6	-0.00020108311
100	0xb586f1db	-1.0054167e-06
101	0x3952d9d6	0.00020108311
102	0xb952d9d6	-0.00020108311
103	0xb586f1db	-1.0054167e-06
104	0xb952d9d6	-0.00020108311
105	0x3952d9d6	0.00020108311
106	0xb586f1db	-1.0054167e-06
107	0xb952d9d6	-0.00020108311
108	0x3952d9d6	0.00020108311
109	0xb586f1db	-1.0054167e-06
110	0x3952d9d6	0.00020108311
111	0xb8342d0b	-4.2957294e-05
112	0xb7b2d034	-2.1316206e-05
113	0xb5c9bf14	-1.5031278e-06
114	0xb81d4662	-3.7497266e-05
115	0xb7a5eae5	-1.9778914e-05
116	0xb4a02e12	-2.9835843e-07
117	0xb813d15c	-3.5242512e-05
118	0xb813d15c	-3.5242512e-05
119	0xb813d15c	-3.5242512e-05
120	0x38674d1d	5.514651e-05
121	0xb7eebaaf	-2.8458742e-05
122	0x39b7298c	0.00034935435
123	0x39999fc7	0.00029301477
124	0x38245011	3.9175215e-05
125	0x3674d08b	3.6480221e-06
126	0x3981bd5c	0.0002474588
127	0x367fa85d	3.8095961e-06
128	0xb96618cf	-0.00021943751
129	0xb844f615	-4.6959223e-05
130	0x3871506a	5.753377e-05
131	0x38041603	3.1491752e-05
132	0x39f31df9	0.00046370903
133	0x37e261a4	2.6986767e-05
134	0xb75c4c9e	-1.3130861e-05
135	0x00000000	0.0
136	0xb56c8236	-8.8106333e-07
137	0x00000000	0.0
138	0xb938c5aa	-0.00017621243
139	0xb56c8236	-8.8106333e-07
140	0x3938c5aa	0.00017621243
141	0xb938c5aa	-0.00017621243
142	0xb56c8236	-8.8106333e-07
143	0xb938c5aa	-0.00017621243
144	0x3938c5aa	0.00017621243
145	0xb56c8236	-8.8106333e-07
146	0xb938c5aa	-0.00017621243
147	0x3938c5aa	0.00017621243
148	0xb56c8236	-8.8106333e-07
149	0x3938c5aa	0.00017621243
150	0xb8026db6	-3.109659e-05
151	0xb7bdf44a	-2.2644312e-05
152	0xb602361a	-1.9403e-06
153	0xb7c557ed	-2.3525174e-05
154	0xb7a488b8	-1.9613988e-05
155	0xb48bc217	-2.6031987e-07
156	0x37da8faf	2.6054533e-05
157	0x37da8faf	2.6054533e-05
158	0x37da8faf	2.6054533e-05
159	0x394d04e4	0.00019552145
160	0x35bd51ac	1.4105367e-06
161	0xb983dcb4	-0.00025150704
162	0x37c9fcf5	2.407886e-05
163	0x377eb5f5	1.5181945e-05
164	0x386f7a13	5.709573e-05
165	0x3923631b	0.00015581811
166	0x380349f7	3.130172e-05
167	0x39f6fc98	0.00047108973
168	0x383654e9	4.347126e-05
169	0x380488a3	3.1598505e-05
170	0x3937d730	0.00017532404
171	0xb8a06a2b	-7.64917e-05
172	0x37391931	1.1032725e-05
173	0x37a18fa0	1.9259576e-05
174	0x00000000	0.0
175	0x352ed94c	6.513626e-07
176	0x00000000	0.0
177	0x390899c3	0.00013027251
178	0x352ed94c	6.513626e-07
179	0xb90899c3	-0.00013027251
180	0x390899c3	0.00013027251
181	0x352ed94c	6.513626e-07
182	0x390899c3	0.00013027251
183	0xb90899c3	-0.00013027251
184	0x352ed94c	6.513626e-07
185	0x390899c3	0.00013027251
186	0xb90899c3	-0.00013027251
187	0x352ed94c	6.513626e-07
188	0xb90899c3	-0.00013027251
189	0x37fc6279	3.0086596e-05
190	0x3852033c	5.0070914e-05
191	0x37b184db	2.116191e-05
192	0x37a49800	1.9621104e-05
193	0x383c1cd3	4.4849538e-05
194	0x3539207f	6.896516e-07
195	0x378befc4	1.668174e-05
196	0x378befc4	1.668174e-05
197	0x378befc4	1.668174e-05
198	0x3920b711	0.00015326987
199	0x372830fd	1.0024986e-05
200	0xb9b57e6b	-0.000346172
201	0xb7af57dc	-2.0902538e-05
202	0x37bffcbe	2.2886667e-05
203	0x37e34551	2.7092787e-05
204	0x3930005a	0.00016784799
205	0x37aceb62	2.0613606e-05
206	0x39f33968	0.00046391343
207	0xb894928f	-7.0844886e-05
208	0x382caef7	4.1170944e-05
209	0x38d60996	0.00010206101
210	0x370db2cd	8.445885e-06
211	0x37aeefa2	2.0854004e-05
212	0xb782a79a	-1.5575253e-05
213	0x00000000	0.0
214	0x34dfe5eb	4.1704274e-07
215	0x00000000	0.0
216	0x38aeeb9c	8.340852e-05
217	0x34dfe5eb	4.1704274e-07
218	0xb8aeeb9c	-8.340852e-05
219	0x38aeeb9c	8.340852e-05
220	0x34dfe5eb	4.1704274e-07
221	0x38aeeb9c	8.340852e-05
222	0xb8aeeb9c	-8.340852e-05
223	0x34dfe5eb	4.1704274e-07
224	0x38aeeb9c	8.340852e-05
225	0xb8aeeb9c	-8.340852e-05
226	0x34dfe5eb	4.1704274e-07
227	0xb8aeeb9c	-8.340852e-05
228	0x37d19dc6	2.498821e-05
229	0x38585b24	5.1583294e-05
230	0x37ac79dc	2.0560743e-05
231	0x37ba8a22	2.2237251e-05
232	0x383a8888	4.447301e-05
233	0x341df29b	1.4710024e-07
234	0x379f2b02	1.8974304e-05
235	0x379f2b02	1.8974304e-05
236	0x379f2b02	1.8974304e-05
237	0x37bf9df8	2.2842534e-05
238	0x35bb2e21	1.3946011e-06
239	0x377f3a01	1.52126895e-05
240	0xb85321f2	-5.0337934e-05
241	0xb706538c	-8.006475e-06
242	0xb849b1b2	-4.8087626e-05
243	0x38c8e75a	9.579836e-05
244	0xb66372a8	-3.3892375e-06
245	0xb8a1a37e	-7.707531e-05
246	0x3798f81e	1.823535e-05
247	0xb71c5fff	-9.320675e-06
248	0xb8c7cfd5	-9.527771e-05
249	0x37beb608	2.273453e-05
250	0xb6ab201a	-5.0999342e-06
251	0x37df3d69	2.6612268e-05
252	0x00000000	0.0
253	0x34feab32	4.7435748e-07
254	0x00000000	0.0
255	0x38c6f5cf	9.487161e-05

exp_avg_sq f4 [128, 78]
0	0x3222c8b9	9.47528e-09
1	0x3222c8b9	9.47528e-09
2	0x3222c8b9	9.47528e-09
3	0x3455206b	1.9848964e-07
4	0x31d8c00b	6.30826e-09
5	0x34d65cff	3.992827e-07
6	0x34896171	2.5589136e-07
7	0x32a8bca8	1.9643565e-08
8	0x348a4abf	2.5758888e-07
9	0x34aac58d	3.1808705e-07
10	0x324cb890	1.19163275e-08
11	0x35a9656e	1.2621001e-06
12	0x35021cef	4.847088e-07
13	0x326b9741	1.37131915e-08
14	0x348c4e82	2.6134154e-07
15	0x35828fda	9.727621e-07
16	0x32555f2d	1.2419872e-08
17	0x3443a508	1.8220828e-07
18	0x00000000	0.0
19	0x2cd05d13	5.922049e-12
20	0x00000000	0.0
21	0x347e59a2	2.3688202e-07
22	0x2cd05d13	5.922049e-12
23	0x347e59a2	2.3688202e-07
24	0x347e59a2	2.3688202e-07
25	0x2cd05d13	5.922049e-12
26	0x347e59a2	2.3688202e-07
27	0x347e59a2	2.3688202e-07
28	0x2cd05d13	5.922049e-12
29	0x347e59a2	2.3688202e-07
30	0x347e59a2	2.3688202e-07
31	0x2cd05d13	5.922049e-12
32	0x347e59a2	2.3688202e-07
33	0x3146e3a6	2.8942195e-09
34	0x30d8910e	1.5757295e-09
35	0x30591dd3	7.8986523e-10
36	0x30c70210	1.4479742e-09
37	0x3159c6f8	3.1690757e-09
38	0x2bed8af3	1.6878429e-12
39	0x322a411f	9.910109e-09
40	0x322a411f	9.910109e-09
41	0x322a411f	9.910109e-09
42	0x3464db92	2.1314034e-07
43	0x322f024d	1.0186864e-08
44	0x3505fd98	4.991539e-07
45	0x3490b55c	2.6954046e-07
46	0x32a1034f	1.8744371e-08
47	0x34936876	2.745689e-07
48	0x34b9c16f	3.4599677e-07
49	0x327990c2	1.4526622e-08
50	0x35c53859	1.4694043e-06
51	0x35218904	6.017656e-07
52	0x32aaec7d	1.9898147e-08
53	0x34a5c402	3.087626e-07
54	0x35934a8a	1.0974047e-06
55	0x327a5645	1.4571531e-08
56	0x34588369	2.0164374e-07
57	0x00000000	0.0
58	0x2cd9ecf5	6.1938185e-12
59	0x00000000	0.0
60	0x348502e9	2.4775298e-07
61	0x2cd9ecf5	6.1938185e-12
62	0x348502e9	2.4775298e-07
63	0x348502e9	2.4775298e-07
64	0x2cd9ecf5	6.1938185e-12
65	0x348502e9	2.4775298e-07
66	0x348502e9	2.4775298e-07
67	0x2cd9ecf5	6.1938185e-12
68	0x348502e9	2.4775298e-07
69	0x348502e9	2.4775298e-07
70	0x2cd9ecf5	6.1938185e-12
71	0x348502e9	2.4775298e-07
72	0x31521261	3.056947e-09
73	0x30ef25ed	1.7400318e-09
74	0x3071ecfe	8.8012075e-10
75	0x30cc63a1	1.487127e-09
76	0x3165927b	3.340715e-09
77	0x2beaf562	1.6694807e-12
78	0x32f2bbbb	2.8257878e-08
79	0x32f2bbbb	2.8257878e-08
80	0x32f2bbbb	2.8257878e-08
81	0x35773eb8	9.210594e-07
82	0x342780ee	1.5599991e-07
83	0x36817b82	3.858878e-06
84	0x35c45171	1.462684e-06
85	0x333adf88	4.35098e-08
86	0x35b930c6	1.3797769e-06
87	0x35c0b3f0	1.4357483e-06
88	0x330e688e	3.3157043e-08
89	0x36841c59	3.9372067e-06
90	0x364df332	3.0688939e-06
91	0x3438ecfc	1.722255e-07
92	0x35bf6cd2	1.426228e-06
93	0x371a8624	9.210347e-06
94	0x333177c2	4.1319943e-08
95	0x359a3701	1.1489902e-06
96	0x00000000	0.0
97	0x2d9b5958	1.7661136e-11
98	0x00000000	0.0
99	0x353da294	7.064457e-07
100	0x2d9b5958	1.7661136e-11
101	0x353da294	7.064457e-07
102	0x353da294	7.064457e-07
103	0x2d9b5958	1.7661136e-11
104	0x353da294	7.064457e-07
105	0x353da294	7.064457e-07
106	0x2d9b5958	1.7661136e-11
107	0x353da294	7.064457e-07
108	0x353da294	7.064457e-07
109	0x2d9b5958	1.7661136e-11
110	0x353da294	7.064457e-07
111	0x32103de5	8.395976e-09
112	0x30739b63	8.8623703e-10
113	0x30014c72	4.703856e-10
114	0x319744ad	4.402486e-09
115	0x3189273d	3.9916856e-09
116	0x2ca89058	4.7908726e-12
117	0x32f5d0a7	2.8616638e-08
118	0x32f5d0a7	2.8616638e-08
119	0x32f5d0a7	2.8616638e-08
120	0x3580953e	9.580178e-07
121	0x342b25cd	1.5939368e-07
122	0x368a443f	4.1206654e-06
123	0x35c73aa3	1.4843721e-06
124	0x333e19d6	4.426132e-08
125	0x35bc7b9b	1.4043065e-06
126	0x35c439db	1.4619976e-06
127	0x330f2367	3.332698e-08
128	0x36830592	3.9047527e-06
129	0x364e388c	3.0729307e-06
130	0x3425b9b8	1.5434387e-07
131	0x35c28a17	1.4494316e-06
132	0x371c2b09	9.3083445e-06
133	0x331b8ece	3.621863e-08
134	0x359cad07	1.1673263e-06
135	0x00000000	0.0
136	0x2d9d5253	1.7885393e-11
137	0x00000000	0.0
138	0x35400afb	7.154155e-07
139	0x2d9d5253	1.7885393e-11
140	0x35400afb	7.154155e-07
141	0x35400afb	7.154155e-07
142	0x2d9d5253	1.7885393e-11
143	0x35400afb	7.154155e-07
144	0x35400afb	7.154155e-07
145	0x2d9d5253	1.7885393e-11
146	0x35400afb	7.154155e-07
147	0x35400afb	7.154155e-07
148	0x2d9d5253	1.7885393e-11
149	0x35400afb	7.154155e-07
150	0x321043c2	8.3973095e-09
151	0x3083e0d0	9.5954e-10
152	0x30288a88	6.131491e-10
153	0x31987304	4.436858e-09
154	0x3190a6c1	4.2099093e-09
155	0x2ca0d08c	4.570627e-12
156	0x32518c59	1.21973125e-08
157	0x32518c59	1.21973125e-08
158	0x32518c59	1.21973125e-08
159	0x34748451	2.2772407e-07
160	0x3347db26	4.6532612e-08
161	0x35be7fed	1.4193334e-06
162	0x349eeeb8	2.9603484e-07
163	0x324dc6d8	1.1977782e-08
164	0x34d46a9b	3.9565643e-07
165	0x34bf5a2b	3.5642128e-07
166	0x312a37e3	2.4770024e-09
167	0x351ace2f	5.766951e-07
168	0x35761a28	9.1680204e-07
169	0x3321b9a9	3.765459e-08
170	0x34f239a9	4.5117966e-07
171	0x34ff8018	4.7590652e-07
172	0x3140e5ba	2.8070262e-09
173	0x34822143	2.4238588e-07
174	0x00000000	0.0
175	0x2d061c57	7.623311e-12
176	0x00000000	0.0
177	0x34a3b5a2	3.049327e-07
178	0x2d061c57	7.623311e-12
179	0x34a3b5a2	3.049327e-07
180	0x34a3b5a2	3.049327e-07
181	0x2d061c57	7.623311e-12
182	0x34a3b5a2	3.049327e-07
183	0x34a3b5a2	3.049327e-07
184	0x2d061c57	7.623311e-12
185	0x34a3b5a2	3.049327e-07
186	0x34a3b5a2	3.049327e-07
187	0x2d061c57	7.623311e-12
188	0x34a3b5a2	3.049327e-07
189	0x31a799dc	4.8778315e-09
190	0x312362cb	2.377578e-09
191	0x30bf75db	1.3930576e-09
192	0x30fbb0c0	1.8312889e-09
193	0x3197c455	4.4169988e-09
194	0x2c106591	2.0520011e-12
195	0x32599d80	1.2666874e-08
196	0x32599d80	1.2666874e-08
197	0x32599d80	1.2666874e-08
198	0x3482068b	2.4219148e-07
199	0x334ef1ea	4.8183132e-08
200	0x35d12074	1.5581159e-06
201	0x34a9c1ea	3.1619794e-07
202	0x324c1219	1.1878478e-08
203	0x34dbd2e9	4.0945386e-07
204	0x34ca4e0a	3.7682213e-07
205	0x318171c5	3.7673282e-09
206	0x3529d2d4	6.32642e-07
207	0x3586e994	1.0051758e-06
208	0x33231455	3.7969887e-08
209	0x34fd0ae4	4.7132846e-07
210	0x350953be	5.115834e-07
211	0x317395a1	3.5446208e-09
212	0x3485ee96	2.4946775e-07
213	0x00000000	0.0
214	0x2d0b4615	7.9167966e-12
215	0x00000000	0.0
216	0x34aa0310	3.1667196e-07
217	0x2d0b4615	7.9167966e-12
218	0x34aa0310	3.1667196e-07
219	0x34aa0310	3.1667196e-07
220	0x2d0b4615	7.9167966e-12
221	0x34aa0310	3.1667196e-07
222	0x34aa0310	3.1667196e-07
223	0x2d0b4615	7.9167966e-12
224	0x34aa0310	3.1667196e-07
225	0x34aa0310	3.1667196e-07
226	0x2d0b4615	7.9167966e-12
227	0x34aa0310	3.1667196e-07
228	0x31abb7e2	4.99766e-09
229	0x31393ee2	2.6956788e-09
230	0x30cbcace	1.4827835e-09
231	0x30fd174a	1.8414792e-09
232	0x319ee9e3	4.624995e-09
233	0x2c0fbc0e	2.0425914e-12
234	0x3231e0c3	1.0353861e-08
235	0x3231e0c3	1.0353861e-08
236	0x3231e0c3	1.0353861e-08
237	0x34b5cafd	3.386157e-07
238	0x33323144	4.148866e-08
239	0x35a01b80	1.1928933e-06
240	0x3506dc68	5.0239623e-07
241	0x31b672aa	5.309933e-09
242	0x350c3dd1	5.224402e-07
243	0x34fbf60a	4.693141e-07
244	0x31373086	2.6657587e-09
245	0x352fb2a2	6.5452525e-07
246	0x3540ae87	7.1779544e-07
247	0x3308de64	3.186723e-08
248	0x3507862a	5.0486653e-07
249	0x3517da61	5.6569667e-07
250	0x3106993a	1.9586666e-09
251	0x34e15aef	4.197568e-07
252	0x00000000	0.0
253	0x2ce3af10	6.471164e-12
254	0x00000000	0.0
255	0x348af79e	2.5884668e-07

exp_avg f4 [128]
0	0xb6f8f2b9	-7.4192326e-06
1	0xb813d15f	-3.5242523e-05
2	0x378befad	1.6681699e-05
3	0x37779a67	1.4758297e-05
4	0xb78cf6b4	-1.680418e-05
5	0x37c1fc24	2.3124805e-05
6	0xb6f5fde5	-7.331126e-06
7	0xb7c5ca3c	-2.3578403e-05
8	0xb665b79c	-3.4230534e-06
9	0x3593ca4c	1.101123e-06
10	0xb84369bd	-4.65901e-05
11	0x3787dcde	1.6196103e-05
12	0x3824fa1f	3.933359e-05
13	0xb4369e0e	-1.7007571e-07
14	0x37e12433	2.6838947e-05
15	0x379767d9	1.804896e-05
16	0xb88b6d46	-6.64839e-05
17	0xb7ab1130	-2.0392792e-05
18	0x38108959	3.446019e-05
19	0xb7928b22	-1.7469345e-05
20	0xb87ca9a6	-6.023948e-05
21	0xb64dad1d	-3.0648146e-06
22	0x343b785f	1.7459523e-07
23	0xb790a2b5	-1.7241904e-05
24	0x378eaaf5	1.7007327e-05
25	0x383f9779	4.567902e-05
26	0xb6d0e1be	-6.225163e-06
27	0x37f56000	2.925098e-05
28	0xb60f4c9c	-2.1353253e-06
29	0x36e48732	6.8106683e-06
30	0x3709edcd	8.221204e-06
31	0x3839cf18	4.430031e-05
32	0x375c1c2b	1.311958e-05
33	0xb8a0a5c0	-7.660268e-05
34	0x3735340e	1.0800561e-05
35	0x3780e280	1.5364261e-05
36	0x376811fc	1.3832465e-05
37	0x35216c59	6.013484e-07
38	0xb615a529	-2.2298866e-06
39	0xb7f4e382	-2.9193008e-05
40	0xb7afacef	-2.0942154e-05
41	0xb68a381f	-4.119254e-06
42	0x36c4bea3	5.863448e-06
43	0xb88c599a	-6.69241e-05
44	0xb635fb32	-2.7117317e-06
45	0xb7a4e5f7	-1.965741e-05
46	0x37397552	1.1054175e-05
47	0x3703a531	7.84667e-06
48	0x37166244	8.963576e-06
49	0xb6054780	-1.9860163e-06
50	0x36abf4ba	5.124687e-06
51	0xb7abfe8e	-2.0503325e-05
52	0x37c93789	2.3986928e-05
53	0x3755a02f	1.2733085e-05
54	0x37c051b4	2.292623e-05
55	0x37a87fb4	2.0086627e-05
56	0x3800631b	3.0609877e-05
57	0xb6d5979b	-6.365544e-06
58	0x37b852ff	2.1973157e-05
59	0x380bc8d3	3.3327215e-05
60	0x37e81fd1	2.767137e-05
61	0xb773d0e4	-1.4532565e-05
62	0x38301155	4.197781e-05
63	0x38358e71	4.328642e-05
64	0x37c6328d	2.3626979e-05
65	0x3768b24b	1.386979e-05
66	0xb79fa632	-1.9031668e-05
67	0x37c3b576	2.333031e-05
68	0xb613a6ef	-2.2001875e-06
69	0x37faf6f4	2.9917319e-05
70	0x357a5a0f	9.326331e-07
71	0x376b841b	1.403785e-05
72	0xb7a2e860	-1.9420113e-05
73	0x369af7d9	4.618411e-06
74	0xb7a6800d	-1.984837e-05
75	0x372382dc	9.746025e-06
76	0xb8518f89	-4.996316e-05
77	0x374f1d8b	1.234504e-05
78	0xb78c874a	-1.67523e-05
79	0x3586757f	1.0017974e-06
80	0x36af4811	5.223796e-06
81	0x36a95128	5.0460403e-06
82	0xb69f120d	-4.7406706e-06
83	0xb845c67e	-4.715332e-05
84	0xb79a587b	-1.8399433e-05
85	0x365c8db8	3.2865046e-06
86	0x37c6ba6b	2.3690247e-05
87	0x3803a5ac	3.1387128e-05
88	0x366ae51f	3.5002083e-06
89	0xb758d669	-1.29245245e-05
90	0xb7bf6e13	-2.2820232e-05
91	0xb76be8c8	-1.406129e-05
92	0xb7432e5a	-1.1633698e-05
93	0x3605477b	1.9860151e-06
94	0xb6db637c	-6.53829e-06
95	0x37aac007	2.0354999e-05
96	0x36941e59	4.4142766e-06
97	0xb708c9c0	-8.153205e-06
98	0xb7cde6ee	-2.454544e-05
99	0xb7d699c0	-2.5582383e-05
100	0xb83b6c9e	-4.4685432e-05
101	0xb714486a	-8.838348e-06
102	0x37c1792c	2.3063818e-05
103	0xb71cf672	-9.355705e-06
104	0x37e02e3a	2.6724407e-05
105	0x364a4fad	3.0146723e-06
106	0x36b3466f	5.3428153e-06
107	0x3734879b	1.0760409e-05
108	0x378a5283	1.6489304e-05
109	0x3768f726	1.3885821e-05
110	0x383f564f	4.561833e-05
111	0xb843e793	-4.6707293e-05
112	0x3514f67a	5.5492967e-07
113	0x36814086	3.852011e-06
114	0x364978aa	3.002157e-06
115	0xb8082361	-3.2457876e-05
116	0xb506f23e	-5.02714e-07
117	0x373c5126	1.1224567e-05
118	0x35d1048d	1.5573038e-06
119	0x384bb494	4.8567148e-05
120	0x37e96aab	2.7825436e-05
121	0x373174af	1.057719e-05
122	0x36835c82	3.9148736e-06
123	0xb736c2d8	-1.0893411e-05
124	0xb6a19f43	-4.8167144e-06
125	0x37bbe8af	2.2400489e-05
126	0x37fa8eed	2.9868877e-05
127	0x38563208	5.106817e-05
