results/ag08/PlatformRotate/PlatformRotate-1999989.onnx (onnx, 130906 bytes, 8 tensors)

network_body._body_endoder.seq_layers.0.weight f4 [128, 114]
00000000: da4d 793d 1957 4fbd ef0c c1bd 6b58 023e
00000010: 5d0a cf3d 1ff0 763e 7ce3 353e bc45 c63d
00000020: a90f 3d3e a46f aa3d d86f d53d f873 d43c
00000030: 4d4c ee3d 82b7 e33d 41b7 d4bc b331 9b3d
00000040: 70c6 bb3c 1777 083c bd03 fabc 6627 153e
00000050: 8440 a83c d5e3 273d c61a 4f3d 5dee debc
00000060: 2b80 083d b47d 17be 0beb 43bc 9144 63bd
00000070: be4b 503d 9b62 7c3d 30e1 45bd de3c 0fbd
00000080: 5f16 743e 266a bb3b 8f98 e23c 1df8 943c
00000090: 69fc 46bc c873 f9b9 8938 0abd f7df 113d
000000a0: 6090 fe3d e66b f13d 075f 2dbe bf09 9a3e
000000b0: 874f d83c f75f 9e3d 4e15 ca3c 8b57 5e3d
000000c0: d971 02be bd86 913c a0a0 e53d 2e8b 153e
000000d0: ac52 7e3d 456e 243e 0a8a da3d 9273 a93d
000000e0: c913 39bd a376 ddbc 57ec 7e3d 0023 95bd
000000f0: 7dc8 0dbd 84a7 39be d692 d6bc fddf c93d
00000100: e329 663e 859f 76bd e282 333c 3666 8dbd
00000110: a5dd 0f3e 31c3 4abd 7295 98bd 42fd c7bc
00000120: a9b5 483d fc8c adbd b34f 03bd 1fa2 313e
00000130: ea21 3a3e 3da4 843c 8e99 8e3b 8a1e ea3b
00000140: 706d c63d 7765 da3b e782 343e 26f9 f63c
00000150: 01b7 f4bc 6204 dc3d b7f2 73be 79f9 8d3d
00000160: 7b7b 433e 3b43 adbc 4e64 69bd 143d 0f3e
00000170: 5b92 9b3d d851 473c 5f9a aabd d765 223c
00000180: 9a90 84bc 5586 2e3e 19d3 123e 158d a83d
00000190: 17ce fdbd aa19 853e 49c7 e33d 80f8 c73b
000001a0: e861 4dbd 5180 3f3e 7c17 1dbd 434a f9bd
000001b0: e82e 3a3d d5f7 8a3d fb62 2b3d d30b 223d
000001c0: 75c6 d8bd 22cb 73ba fb94 ba3a 794a 613e
000001d0: 2d7b ba3d d6ab 98bc 9b17 383d 1fc2 e63d
000001e0: 60bc 7a3c 4416 46be 75ee 863d 8389 0d3d
000001f0: b2bf ddbc 644d 46be d67e c23d 6f11 81bd
00000200: b2a4 0bbe 1278 8bbd aec6 063e 1616 53bd
00000210: b52d f63b 478a f8bc 3d13 babd 754b 2939
00000220: f68a 15bd bf0b 133d f9c6 8ebd 3dcf 913d
00000230: 5453 e5ba 5f67 34bd 6a2d 593d e471 3c3e
00000240: fe3e 463d b32b f13d d9f4 ddbd 1c48 623e
00000250: 55bb d4b9 8cb7 ddbd 01c0 c73d 01f0 b1bc
00000260: 35c0 27bd bb76 2cbd 1c1c 25be 52f5 e23d
00000270: a0a8 503e 852a 893b 7215 99ba de74 c93d
00000280: d874 d4bd eae8 f13d dfbe 853e 22dd 31be
00000290: d5c8 583e b3e0 00be 1d2e 593d 2775 e23b
000002a0: 96d8 b23d c37e 34be f37b 0abe e760 e93d
000002b0: 629b 473d 7ecb 8dbd 7751 813c d8f6 f0bc
000002c0: e05f 293d 1575 39bd 62c2 3b3e b0bc 12bd
000002d0: 5ccc 483e 8648 493e dfcd a1bd bc11 213b
000002e0: e7c5 f9bd 3487 2b3e 10db fbbd ec31 633d
000002f0: 1d33 a33d e7f6 babd 315a ab3d e95e 263d
00000300: 2238 82bb 456a 183e 3170 f83d 4691 4ebc
00000310: e539 b53d 16f0 20be 2d52 80bc 5160 65bc
00000320: 07e1 963d d673 f9bc 6a85 873d 04df 82bd
00000330: 1dbd 7e3d a143 b7bd d322 f93c cbe7 ddbd
00000340: 9b32 433d c8dd 0cbe 8eb3 b3bd 9cbb 8d3d
00000350: 0ad9 87bc 947a a9bc 73b4 c23d 481d d3bd
00000360: e0c7 3dbe 072a 28be 963c f33d 08e2 96bd
00000370: 9b04 e13d 24e9 f3bc 9e18 fe3b 95e2 abbd
00000380: 8e6e ccbd 025c 7e3c 7843 b93d 7637 703d
00000390: 4e21 423e e65e fdbd c00f 573e 0874 fbbc
000003a0: cf02 903c ce7d 073d 562e 95bd 1f42 a93c
000003b0: 0704 f83a 369d 1ebc 01fa d0bd fde9 e93d
000003c0: fe43 363b cd1d c0bd c7b4 333e cc79 7cbd
000003d0: bdcb 54bd 35c8 abbd 233f ed3d 7a97 c5bd
000003e0: 0928 2f3d 1cd0 c93d 1390 d1bc 7e88 abbd
000003f0: e477 913d 45c8 d0bc 2a47 443c c299 eb3d
0.06086526 -0.050620172 -0.09426295 0.12729041 0.101093985 0.24115036 0.1776256 0.096812695
0.18463005 0.08322075 0.10421723 0.025934204 0.11635647 0.11118986 -0.025966289 0.07577839
0.02292177 0.0083291745 -0.03051936 0.1456581 0.020538576 0.040988762 0.050562643 -0.02721327
0.033325355 -0.14794046 -0.011957894 -0.055485312 0.050853483 0.061617475 -0.04831046 -0.034970157
0.23836659 0.005719441 0.027660636 0.018184716 -0.01214514 -0.00047579245 -0.033745322 0.03561398
0.12429881 0.11788158 -0.16930781 0.3008556 0.02640511 0.077331476 0.024668362 0.054282706
-0.12738742 0.017764444 0.112122774 0.14603874 0.06209056 0.1605769 0.1067086 0.082739964
-0.045184884 -0.02703411 0.06223711 -0.07282066 -0.03461503 -0.18130308 -0.026193064 0.098571755
0.22476916 -0.060210723 0.010956498 -0.06904261 0.14049394 -0.049502555 -0.074503794 -0.024412755
0.04900137 -0.08474156 -0.03205843 0.17347 0.18177 0.016191596 0.0043518012 0.007144754
0.09688842 0.0066649276 0.1762806 0.0301481 -0.02987242 0.107430235 -0.23823057 0.06932349
0.19090073 -0.021150222 -0.056980424 0.13988143 0.075962745 0.012165509 -0.08330225 0.009911976
-0.016182233 0.17043431 0.1433834 0.08230034 -0.12392824 0.25996143 0.11121995 0.0061026216
-0.0501422 0.18701293 -0.038352475 -0.121723674 0.04545489 0.067855515 0.041842442 0.039562058
-0.10584728 -0.00092999835 0.0014235073 0.22001065 0.09105525 -0.018636625 0.044944387 0.112674944
0.015303701 -0.19344431 0.06588451 0.03455497 -0.027068947 -0.1936546 0.09496848 -0.06302153
-0.13637045 -0.06810011 0.13161728 -0.051534735 0.007512773 -0.030339373 -0.09085701 0.00016145206
-0.036509477 0.035899874 -0.06971545 0.07119606 -0.0017496147 -0.044043895 0.053021826 0.18402821
0.048399918 0.11775913 -0.108377166 0.2209782 -0.00040575364 -0.108260244 0.09753419 -0.021720888
-0.040954787 -0.042105418 -0.16124004 0.110819474 0.20376825 0.004185977 -0.0011679365 0.09836744
-0.10373849 0.11812003 0.26122186 -0.17369512 0.21170361 -0.12585716 0.053022493 0.0069109383
0.08732717 -0.17626481 -0.13523845 0.11395436 0.04873217 -0.06923579 0.015785916 -0.02941458
0.0413512 -0.045277674 0.1833587 -0.035824478 0.19609207 0.19656572 -0.07900595 0.002457722
-0.1219595 0.16750795 -0.12297642 0.05546753 0.079687335 -0.09129124 0.08366812 0.040617857
-0.0039739767 0.14884289 0.12130774 -0.012607878 0.08848933 -0.15716586 -0.015664184 -0.014000014
0.07367139 -0.030450743 0.066172436 -0.06390193 0.06219207 -0.08948446 0.030412113 -0.108352266
0.047655683 -0.13756478 -0.08774482 0.06920549 -0.016582984 -0.020688333 0.09507074 -0.10308319
-0.18533278 -0.16422282 0.1187679 -0.07367331 0.109872065 -0.029774256 0.0077543994 -0.083928265
-0.09982024 0.015524866 0.09046072 0.05864664 0.18958017 -0.12371616 0.21002102 -0.030694976
0.017579464 0.03307896 -0.072842285 0.020661412 0.0018922099 -0.009681037 -0.102039345 0.11421583
0.0027811523 -0.09380684 0.1754943 -0.061639592 -0.051952112 -0.08387796 0.11584308 -0.096480325
0.04276279 0.09854147 -0.025581395 -0.08375643 0.071029454 -0.025486121 0.011979857 0.11503936

network_body._body_endoder.seq_layers.0.bias f4 [128]
00000000: b3ce e53c 6afd f93b ff26 2b3c 0fd0 5f3c
00000010: 78dc a6bc e3a7 19bc d299 273d 04a5 2e3b
00000020: 598e 9f3c d443 9f3c 1f38 20bc 618a 553c
00000030: 4135 313d 1511 693c 025a aabc cec7 a93b
00000040: 0e6f a73c 955f 66bc 97c7 b1bc 0882 b2bc
00000050: ef88 c83b b028 603c 6343 753c a8a0 173d
00000060: 60a4 85bc 0a8c 1dbb 35f4 cebc bb98 b83c
00000070: 4f74 31bb f8f3 14bc 3524 bfbc 826d 76bc
00000080: 3d07 f7bc 6b44 fabc 79bc 15bd a6b6 98b8
00000090: 6c59 623c 6b16 66bc 968f 8bba afb9 69ba
000000a0: 1f40 b43c ec0f dc3a 9cba e13b 02e1 0fbc
000000b0: 07a3 a63b 21a0 e63a 8dd2 b7bb f86c 153b
000000c0: b315 dbbb 8fbd a53c 83ab 333c 8346 373d
000000d0: 3279 93bc 98c6 babb a389 93bc af6c 0dbd
000000e0: 3431 5b3d 2a8a 6b3c 6250 703b 0124 d63b
000000f0: f03f 023c d778 c33c b4ff 9bbc 7958 623b
00000100: 18fe b9b9 be31 1e3c 30e3 ac3c c9f8 82bc
00000110: cb6c 193c 9425 123c a307 1abd 49a1 243d
00000120: 2eb1 5fbc 441a f2ba c7b1 74bc c479 a6bc
00000130: 3674 eaba a35d edbb 2ee9 d63c 9082 653a
00000140: 0ea0 fabb 42af 9bbb 9b35 993c b96a a03c
00000150: 816e 553b 3cc3 f53c 355f 61bb 4eb1 053d
00000160: 3944 813b c6f0 f2bb 7076 98ba 4b4a dbba
00000170: 8dcb be3b 6365 5d3b 8deb 12bc 17c0 beba
00000180: 66c6 6a3c 8f2e bf3c 2fce 61bd 4e8e 803c
00000190: 6843 d73c 7da7 48bc cb4e 313c f930 6c3c
000001a0: 1bbe ca3b 7065 103c ae67 32bc 785d f43c
000001b0: 49da f4bc 6db6 cb3c 6c3b 963c ee9e a4bc
000001c0: bb22 44bd 2f45 21bc ff2c 3e39 0f8f bdba
000001d0: df13 c0bc bdbe 5cbc 79c4 6dbc d857 093d
000001e0: ae87 cc3b 74cd 40bc e407 9eb8 9bbe 173d
000001f0: eb45 bc3c 44f0 a63c 5f90 c1bc 5cf8 4bbc
0.028052663 0.0076290863 0.010446309 0.013660445 -0.0203688 -0.009378406 0.04091818 0.002664865
0.019477056 0.019441523 -0.009779005 0.01303348 0.043263678 0.014225264 -0.020794872 0.0051812893
0.020438697 -0.0140608745 -0.021701617 -0.02179052 0.0061198394 0.013681576 0.0149696795 0.037018448
-0.016313732 -0.0024039769 -0.025262931 0.022533765 -0.0027077382 -0.00909137 -0.023332695 -0.015040757
-0.030154819 -0.030550202 -0.036556695 -7.281946e-05 0.013815265 -0.014043431 -0.001064765 -0.00089159136
0.022003232 0.0016789413 0.0068887006 -0.008781673 0.0050853523 0.001759533 -0.0056098164 0.0022800546
-0.0066859364 0.02023199 0.010966185 0.04474498 -0.018002126 -0.0056999438 -0.018009966 -0.034527477
0.05351372 0.014376203 0.0036669006 0.0065350537 0.007949814 0.023861332 -0.019042827 0.0034537597
-0.00035475264 0.009655414 0.021104425 -0.01598777 0.009364317 0.008920092 -0.03760494 0.040192876
-0.013653083 -0.0018470963 -0.014934964 -0.020321734 -0.0017887417 -0.0072438284 0.026234236 0.0008755112
-0.0076484745 -0.004751117 0.018702319 0.01958214 0.0032567086 0.030000322 -0.0034389023 0.032639794
0.0039449004 -0.0074139563 -0.0011631977 -0.0016730515 0.005822605 0.0033782355 -0.0089672925 -0.0014553097
0.014329528 0.02333763 -0.055128273 0.015692856 0.026277259 -0.012246964 0.010822008 0.014415973
0.006187213 0.008813247 -0.010888977 0.029829726 -0.029889243 0.02486726 0.018338881 -0.020095315
-0.047884684 -0.009843155 0.00018136574 -0.001446219 -0.023446975 -0.01347321 -0.014512175 0.03353104
0.00624176 -0.011767734 -7.535497e-05 0.03704701 0.022982558 0.02037824 -0.023628412 -0.01244935

network_body._body_endoder.seq_layers.2.weight f4 [128, 128]
00000000: 6378 023e 43c1 c83c 0bc8 303e 0572 403d
00000010: 54e0 d3bd 0e71 20bd e2d1 6dbe 22e6 d73d
00000020: 446b 873d d6e7 09be 3702 003c 6635 8cbd
00000030: ce12 5e3d eb2f 39be cdfc 6ebd a733 353d
00000040: f367 11bd e1ce 93bd 27fb 75be 2568 26bd
00000050: fd3e 2d3d 7b2b 7cbc 1687 65bd 5760 05bd
00000060: e80e e13c 80e3 05be 4829 883c 0673 03be
00000070: a2e3 a03d 5a37 d43b a9d5 acbc 4664 febc
00000080: 2e62 963d f40c 91bd 6ec5 91bb 256f 9abd
00000090: bb81 99bd 19de 22be 0800 2d3d 93a3 39bd
000000a0: b7c7 5f3e 1e39 4abe e544 9a3d c126 033e
000000b0: 1ace 343d 0e2b 533d 3eac a5bc 785b 4dbd
000000c0: 33ba fd3c f9eb a7bb a6a4 d63d c435 2e3e
000000d0: e8e9 1ebe 78ff 12bd a570 ccbd a834 e23d
000000e0: 6e73 93bc 1936 64bb a06d b4bb 353b 06bd
000000f0: 1cca 0dbd 0b56 20be f1fd 91bc 689d 2d3d
00000100: ebb0 bebd c740 b83d 1f3e 12bc edd8 00bd
00000110: 2fe9 373c a587 f4bd f872 363e ad2f 543e
00000120: 438d 8fbd 62cc 8e3d 3482 6b3d b81a ebbd
00000130: effd da3c 2ac2 cabd c280 2abd 7ec5 ce3d
00000140: cd64 063e 992b 4abd 610b dd3d 4961 9abc
00000150: 3d1a 24bd 1af3 543c 621f aabc eca3 c93d
00000160: 662f 01be fdf8 a7bd e8d4 8b3e c3b9 1a3e
00000170: b569 b6bc e813 a13d 0372 9c3d 8e05 38be
00000180: 8533 113c 38e5 5bbd bba4 5cbd 8ecb ce3b
00000190: 7f76 0bbe 9d6e 043d 8e59 ab3c e00c 833c
000001a0: 6ace 993d 2f46 0fbd 0bb0 0dbd a32b 3bbd
000001b0: fb40 8d3d d48d 2a3e e5c4 3bbe f7e8 d5bb
000001c0: 655a a2bd f035 b23d d9b9 40bc 801f 47bd
000001d0: 6bda 0ebd 27cf e63a d516 0f3e 5c17 b13d
000001e0: daf2 16be e61a c93d 08e8 47bd 7e21 543e
000001f0: 0089 a33b 0832 ebbc ab8b 73be 9f46 80bd
00000200: 9934 92bc 6cb0 2b3d b1c7 b8bd cb42 b1bd
00000210: 47cc 51be 09e9 22bd 838c 09be e71e 9b3d
00000220: 6f7e 443c e144 06be 8dfb 24bd 6889 fd3c
00000230: 261f 68bd c33f 80bd 9602 3cbd 4eef f33d
00000240: 0214 4dbc b929 49bd 17e7 b7bb c5ad 98bd
00000250: b419 933c 7fd3 b83d e416 a0bd 4554 c3bb
00000260: edad 7abd fc01 c63d 4871 55bd 37ef 053e
00000270: e626 463c 3c57 e9bd c018 efbd d72e ae3d
00000280: c0ad 92bd 6091 3cbc 9fce 163d 2e55 0a3d
00000290: 7639 9c3c 2972 6fbc bc28 58bd 6d74 13bd
000002a0: a6e5 b13c e130 453d 4a5b e8bd 9914 b93d
000002b0: b598 b6bd 9265 473c 82ad bfbd 8151 12bd
000002c0: d11f c1bc 39e4 2e3e a058 80bd c09f 173e
000002d0: b02b b13c c1ea bcbc d705 bdbc 48e3 49bd
000002e0: 338e 733d 1705 d6bd 3c94 c6bc 25d4 d13d
000002f0: c6ae 6abb b764 ecbd 107f 333c e3b1 8dbd
00000300: 5745 8b3c 3e4c fabc 58b8 02bd e157 5fbd
00000310: 45ee 13be ce72 18bd 21f6 debb 9306 12bd
00000320: 5ddc f13c d582 9cbd 3e70 1ab9 302f 0b3e
00000330: 27c1 9c3b 0fac 5c3c 3017 1abd 5a95 afbd
00000340: 4b17 7bbd a072 44bd e09b c23d e44b 48bd
00000350: 06f1 ef3c 169a 8d3d 2aaa 9cbd 0ada 223c
00000360: bd00 013d 3af5 8a3b c8cf a1bd ddab 043e
00000370: 8015 c43d 2b42 e53d 51a0 0dbe 5f1c fdbd
00000380: ffd1 eb3d 2c89 993d 8f05 423d f94c b13d
00000390: a7be b13d 3a64 07bd ed63 c8bd 8c28 a73a
000003a0: b7c9 cc3d 93fa 093e b74c 953d 9a58 7f3d
000003b0: e55e 8f3d cf9d 003e 7ab9 a3bd 1857 663d
000003c0: 0382 f8bd f1b2 913d 201a b7bd 110f 533c
000003d0: 6ce8 f83d 2beb 74be 9055 c6bd 28ae b83d
000003e0: b012 5abd d7cb bb3d e26a b63c 3541 913c
000003f0: 41ce cabd da71 8ebd b16d a3bc 76be 8dbd
0.12741236 0.024506217 0.1726381 0.046983737 -0.103455216 -0.039170317 -0.23224595 0.10541941
0.06612256 -0.13467345 0.007813028 -0.068461224 0.054217152 -0.18084686 -0.05834656 0.044238713
-0.035499524 -0.072171934 -0.24021588 -0.040626664 0.0422964 -0.015391226 -0.05603703 -0.03256258
0.027472928 -0.13075066 0.016621247 -0.12836847 0.078559175 0.006476325 -0.021097975 -0.031053673
0.07342945 -0.07082549 -0.0044485843 -0.075407304 -0.07495447 -0.15905036 0.042236358 -0.045322012
0.21853529 -0.19748351 0.07532672 0.12807752 0.044141866 0.051554732 -0.020223733 -0.05013606
0.030972576 -0.0051245657 0.10480623 0.17012697 -0.15518916 -0.035888165 -0.09982423 0.110452
-0.017999377 -0.0034822284 -0.0055062324 -0.032771308 -0.034616575 -0.15657823 -0.017821284 0.042386442
-0.09311088 0.0899673 -0.008925944 -0.031456877 0.011225029 -0.11939935 0.17817295 0.20721312
-0.070093654 0.06972577 0.05749722 -0.114797056 0.026732413 -0.09900315 -0.0416267 0.100962624
0.1312439 -0.049357984 0.10793186 -0.018845217 -0.040064085 0.012997413 -0.020766918 0.09845719
-0.12615737 -0.082017876 0.27310872 0.15109925 -0.022267202 0.07865125 0.076389335 -0.17970869
0.008862381 -0.053685397 -0.053868037 0.0063108867 -0.13619421 0.03233205 0.020916726 0.01599735
0.075100735 -0.03497904 -0.034591716 -0.045695912 0.0689716 0.16655666 -0.18336828 -0.0065280157
-0.07927398 0.08701694 -0.0117630595 -0.048614025 -0.03487627 0.0017609344 0.13973553 0.086470336
-0.14741078 0.098195836 -0.048805267 0.20715901 0.004990697 -0.02871038 -0.23783748 -0.0626347
-0.017847346 0.041916296 -0.09022463 -0.08655318 -0.20488082 -0.03977302 -0.13432507 0.075742535
0.011993035 -0.13112213 -0.04027896 0.03094931 -0.05667033 -0.062621616 -0.045900904 0.11910878
-0.012516977 -0.049112055 -0.005612265 -0.07455019 0.017956592 0.09024715 -0.07816866 -0.0059609734
-0.061201025 0.09668347 -0.052109987 0.13079534 0.012094235 -0.11393592 -0.116746426 0.08505028
-0.071620464 -0.0115092695 0.036818143 0.03377264 0.019070368 -0.01461462 -0.052773222 -0.035999704
0.02171595 0.048142318 -0.11345537 0.09037132 -0.08915845 0.012170212 -0.09359266 -0.03572226
-0.023574742 0.17079248 -0.06266904 0.14807034 0.021627277 -0.023061158 -0.023074074 -0.049289018
0.059461784 -0.104501896 -0.024240606 0.102455415 -0.003580974 -0.11542647 0.010955587 -0.06918695
0.017000837 -0.030553933 -0.031914085 -0.054527167 -0.14446361 -0.03721886 -0.006804243 -0.0356508
0.029524023 -0.07642142 -0.00014728398 0.1359222 0.0047837677 0.013468756 -0.03761977 -0.085734084
-0.06130151 -0.047960877 0.09502387 -0.0489005 0.029289734 0.06914155 -0.07649644 0.00993968
0.031494845 0.004240659 -0.07900959 0.12956186 0.09574413 0.11194261 -0.13830687 -0.12358927
0.11514663 0.074968666 0.047368582 0.086572595 0.08678942 -0.033054568 -0.09784684 0.0012753173
0.099994116 0.13474493 0.07290023 0.062340356 0.070005216 0.12560199 -0.07994361 0.056235403
-0.12134173 0.071142085 -0.0894053 0.01288201 0.12153706 -0.23917834 -0.096842885 0.09017593
-0.053240478 0.09169739 0.022267763 0.017731288 -0.09902621 -0.06955309 -0.019949766 -0.06921093

network_body._body_endoder.seq_layers.2.bias f4 [128]
00000000: 43ae d33c 88dc 093c a3a4 0f3b 0268 093c
00000010: d182 87bc 5a8b 5ebc c7fb b3bc 6ebd 8bbc
00000020: 1e22 873b 74a5 823c 48ad 1d3b becf bd3b
00000030: 5820 8238 2be2 1ebb 5d42 b1bb 0477 6dbc
00000040: 9c87 5c3b 50f9 78ba cced 08bd e2d7 8bba
00000050: 92ed 2b3c 52cc 1abc bd50 2839 69c8 b13c
00000060: 44cd 40bc fe61 d03a 531d 34bb d0df eb3b
00000070: b773 c0bb ee25 7f3c 25e7 263c bfe9 d7bc
00000080: fe5e 463c 8f9c b6ba 184b 803c a508 51bd
00000090: 7afe bdbc af0e 8bbc cada 463c 03f5 d43b
000000a0: 11ec 7d3c 03fa 5c3c f1fe ccbc df17 88bc
000000b0: 30fb f2bc 5f7a a73c 72a6 42bb 9430 be3b
000000c0: 36be 063c 3214 903c 45e8 c6bb 83db 73bc
000000d0: 3cdd bdbb 2dd8 5e3c df15 683b 9547 043d
000000e0: 00c4 f6bc 00d0 b33c b5c2 3d3c d515 cc3b
000000f0: d935 0c3d 30a1 adbb 328b 5e3c a778 d8bc
00000100: 9a8b d8bc f74a 8fbd 9852 063c bae2 663c
00000110: 8869 6abc 04a8 5c3b d6c7 23ba fd78 7a3b
00000120: 7a50 963c 8c15 c43b 8d0e 33bb a64e 333c
00000130: 0141 d23b 3e72 2f3b 7920 ad3c 7773 053c
00000140: e0b5 5bbc f774 2cbc 9540 9f3b 324c ae3b
00000150: d6df 68bc 4e03 48bc 3901 17b9 c629 d73c
00000160: f2e8 32bc 5760 363c 3c38 303c 4f98 2a3b
00000170: 4110 f8bc bea1 dfb9 813f 8abb a031 a23b
00000180: 4dad 7fbb 6393 cebc 5408 803c 743b 27bc
00000190: 181e ec3a 3f5b 0cbd 3cdc 9d3c 6465 b13c
000001a0: 5b76 783c 74c9 10bb 7651 253c dc52 9dba
000001b0: 48f6 033c cfec 483c 90df 80bc b100 92bc
000001c0: da8e 8a3c cb2b 0a3c bbf2 8ebc 1d98 893c
000001d0: a3f2 f6bb a61d b3bc a8d3 033d f3fd 24bd
000001e0: bc23 8b3c fbd0 753c 2d4e 1d3c f9a5 18bc
000001f0: eb61 7b3c 765c 823c 11a8 5fbc 7ee5 23bd
0.02583993 0.008414395 0.00219182 0.008386614 -0.01654187 -0.013583029 -0.021970643 -0.0170581
0.00412394 0.015948035 0.0024059583 0.005792587 6.2049075e-05 -0.0024243693 -0.0054095224 -0.014493708
0.0033650165 -0.00094975997 -0.033429906 -0.0010669196 0.010493653 -0.009448128 0.00016051806 0.021702008
-0.011767689 0.0015898345 -0.00274833 0.0071983114 -0.0058731693 0.015573008 0.010186945 -0.026356576
0.012107609 -0.0013932156 0.015660807 -0.051033635 -0.023192633 -0.016974775 0.012137124 0.0064989342
0.015498177 0.013487342 -0.02502391 -0.016612945 -0.029660791 0.020444093 -0.002970126 0.005804131
0.008224061 0.017587755 -0.006070169 -0.014883879 -0.0057941955 0.013601345 0.0035413427 0.03229483
-0.030122757 0.021949768 0.011582066 0.0062281885 0.03423104 -0.005298756 0.013582991 -0.026424719
-0.026433755 -0.0699672 0.008198403 0.014092142 -0.014307387 0.003366948 -0.00062477344 0.0038219087
0.018348921 0.005984014 -0.0027321905 0.010944044 0.0064164405 0.0026770975 0.021133648 0.008145205
-0.013410062 -0.0105259335 0.0048599937 0.005319142 -0.014213523 -0.012207819 -0.00014400938 0.026265036
-0.010919796 0.011131368 0.010755595 0.0026030724 -0.030281188 -0.00042654382 -0.004218996 0.0049497634
-0.0039013207 -0.025216764 0.015628971 -0.010207046 0.001801434 -0.034266707 0.019270055 0.021654792
0.015164937 -0.0022092732 0.010090223 -0.0012002843 0.0080543235 0.012263491 -0.015731603 -0.017822595
0.01691382 0.008433293 -0.017449727 0.016796166 -0.007536249 -0.021864723 0.032184273 -0.040281247
0.016984813 0.015003438 0.009601158 -0.009316915 0.01534317 0.01591323 -0.01365091 -0.040013783

action_model._continuous_distribution.log_sigma f4 [1, 2]
00000000: 0273 563e 1791 473e
0.2094231 0.19488941

action_model._continuous_distribution.mu.weight f4 [2, 128]
00000000: 74a0 2f3c 2a5a c53c e386 7b39 3fd3 273a
00000010: 1d7e b9bb 1f32 21b9 c56f 4d3c 4399 833a
00000020: fc7f 673c 07a0 71bd c80d 17bc f839 e1bb
00000030: bba9 1fbd 8a1a 333d bcf0 813b a697 72ba
00000040: 8e80 a9bc 2a51 113c fe98 413c a1f9 693c
00000050: 453e 9bbc 8549 96bb 1f0d 9bbc cce8 43bd
00000060: 2807 73ba fc72 f6bb e098 82bc d0e7 a0bc
00000070: 97a8 0bbc da52 d43a 727b efbc 1d70 6dba
00000080: d1ef 4d3c bc5e 33bd a9df 44bc bc76 bd3c
00000090: 22fc 3c3a 259c f1bb eb75 f3bc b007 133d
000000a0: fbba 1bbc 1335 bb3b faab 0cbd 9749 103b
000000b0: 1958 333a 4677 83bd e2fb 323d 72b0 9f3b
000000c0: c753 b63c f16a 90bd a039 c93c 2649 a03b
000000d0: 20e0 d43c 0eff 263d 06a7 ce3c 432b ebbc
000000e0: 3c03 953a ad07 623d 3722 3c3c 84fd e13c
000000f0: 3c01 35bd 9438 b6bb 6815 bebc f196 7a3a
00000100: 26fc 55bb 02a4 0a3c 3108 313d 8a98 173c
00000110: 569e 643c 6fda 263d a88a 74bc 8f16 0cba
00000120: e437 8eba 0df8 213c a291 a73b 5283 cc3b
00000130: 84bc a83a 3cea a53c 4e57 693c 7317 72bc
00000140: a0f2 f53c 675f 9b39 c5c9 49bd 6aab 6339
00000150: 766f 333c 8136 67bb f803 7d3d 7871 46bd
00000160: 9beb 1f3c d6cd 893c ea73 b7bb 44de 6abc
00000170: 4461 e1bb cb80 1abc eab1 9c3b 9e10 903b
00000180: 39c1 4a3c dc20 01bc c83b 2f3d 6179 27bc
00000190: dd08 d9bc 9140 2ebb d8e0 0abc a26a 00bd
000001a0: f5d1 29bb 16e7 64ba 8507 acbb 2631 e3bc
000001b0: 5f1c a83b 1655 863d b56e 3dbc 5006 e0bb
000001c0: 73db 883c af73 193c c71f 6c3b 228b 5dbd
000001d0: 53c2 74bb 03f1 dd3c e3e8 5abd 7e0a 953c
000001e0: 6744 8dbd a5fc dfbc 37a3 973b 1308 9abc
000001f0: 7189 77bc d669 35bd 5afc c8bc 8a68 df3c
00000200: 54b6 46bc c3d8 e0bc 4f75 bc3c 115e 8f3c
00000210: 0e83 843a 9b4d 8f3c 1fcd 133d 689a ea3b
00000220: a36c 023b 4de8 86bb 1c92 b53c 67de 203d
00000230: 9acd 173c e56e 4dbc cb08 a53c ca5f 7fbd
00000240: 5a07 113b 7441 1fbc 38d8 823b 2ebe fcbc
00000250: 4405 943b a496 863b 49f9 e43c c971 b53c
00000260: d6c0 24bc 6c10 c43c 919a 19bb 8b12 843d
00000270: b1e9 d8bc b0e6 ae3c 985f 4a3c 7c2a 29bc
00000280: 7c8a 663d b334 5e3c eae5 023d 8234 1dbd
00000290: 625a 8d3a 3125 48bc 0085 013d c0b7 9bbb
000002a0: 99d9 31bc a037 d13c 00c5 43bc c6bd 11bb
000002b0: d951 043b db90 0abd de3f 99bc ed51 d6bc
000002c0: a9bf 523d b47b df3c d07e c13a afd2 93bc
000002d0: 3950 bc3c 8e31 f0bc 612d 1fbc 1113 21bd
000002e0: ec40 ad3c c457 9d3c 20a6 34bd 0233 bbbc
000002f0: 9880 efbc 0b47 3d3c f88b 843c 68c5 353b
00000300: f88b ea3b 65c5 60bd f292 fcbc b91d 39bc
00000310: 2fc5 febc 36c0 743d 5ebd 3038 b880 0c3c
00000320: 09f7 863d 2914 77bc edc2 fa3b 6bc6 35bd
00000330: 6839 213d 365e c7bc d50a ff3c 04b1 07bd
00000340: 870e 43bd a1f1 f13b e7a8 8abd eb1e 7d3c
00000350: 1d8f d8bb 909f 75bb bf5c 023c f5b8 253d
00000360: 29fd 97bc 7922 f33c 5dfd c23b 72ed e3bc
00000370: 1fb7 94bb 56fa 38bc c212 3ebb e5ec a3bc
00000380: 9979 bfbc 9be5 53bc 59be 323b d869 e6bb
00000390: 4a0c 123c 7da5 c83b aab9 8b3d 25bd 023d
000003a0: 0676 90bb 3b28 d83c cb23 ce3c 95ef bdba
000003b0: 0eb1 393d 93e9 bc3b 625a 9e3b 19d9 403c
000003c0: 2a09 2d3d 62ed 673d d83a 3e3b 4c0f 1bbd
000003d0: 5070 9cbc 905b f0bc b667 a43b 3473 f0bb
000003e0: e9c6 84ba 63de a43c bec6 5d3d 6854 e8bb
000003f0: e2b1 553d fcbe 393d 6301 abbc dac9 a3bc
0.010719407 0.024090845 0.00023987475 0.00064020226 -0.005660786 -0.00015372828 0.012538855 0.0010040182
0.014129635 -0.058990505 -0.009219594 -0.0068733655 -0.038980227 0.04372648 0.0039654654 -0.0009254165
-0.020691182 0.008869449 0.011816261 0.014280708 -0.01895059 -0.004586401 -0.018927155 -0.047829434
-0.0009270781 -0.0075210314 -0.015942037 -0.019641787 -0.008524082 0.0016199008 -0.029233668 -0.00090575387
0.012569384 -0.043791518 -0.012016215 0.023127906 0.00072092016 -0.00737335 -0.029719314 0.035896003
-0.009505029 0.005713114 -0.034343697 0.002201652 0.00068414357 -0.06419234 0.043697245 0.004873329
0.022256745 -0.070516475 0.02456361 0.0048915325 0.025985777 0.040770583 0.025226127 -0.028707152
0.0011368762 0.0551831 0.011482767 0.027586706 -0.04419063 -0.005560944 -0.023203567 0.0009559235
-0.0032651513 0.008461954 0.043220703 0.009252677 0.013953766 0.04073566 -0.014925636 -0.00053439377
-0.0010850397 0.0098858 0.0051137963 0.0062412405 0.0012873565 0.020253293 0.0142420065 -0.014776099
0.03002292 0.00029634984 -0.049264688 0.00021712264 0.010951867 -0.003528029 0.061771363 -0.048448056
0.009760763 0.016821783 -0.005598535 -0.014335219 -0.00687805 -0.009430121 0.004781951 0.004396512
0.012375169 -0.007881369 0.04278162 -0.01022181 -0.026493484 -0.0026588778 -0.0084764585 -0.031351693
-0.0025912498 -0.0008731944 -0.00524992 -0.027733397 0.005130335 0.065591976 -0.011562039 -0.00683669
0.016706204 0.00936596 0.0036029683 -0.054087766 -0.0037347272 0.027092462 -0.053444754 0.01819348
-0.06897812 -0.02734215 0.004627611 -0.018802678 -0.015108452 -0.044290386 -0.024534393 0.027271528
-0.012128431 -0.02744711 0.023005156 0.017500909 0.0010109858 0.01749306 0.03608429 0.00715952
0.0019901178 -0.004117048 0.022164397 0.0392746 0.009265328 -0.012538646 0.020145794 -0.06234721
0.0022129626 -0.009720195 0.0039930604 -0.030852403 0.0045172293 0.004107313 0.0279509 0.022148984
-0.010055741 0.023933612 -0.0023438076 0.06448849 -0.02647862 0.021350235 0.012351893 -0.0103250705
0.056284413 0.013562369 0.031957544 -0.038380153 0.0010784382 -0.012215898 0.03162098 -0.0047521293
-0.010855102 0.02553922 -0.011948824 -0.0022238358 0.0020190387 -0.03382955 -0.018707212 -0.026162112
0.051452313 0.027280666 0.0014762525 -0.018044798 0.022987472 -0.029320505 -0.009715409 -0.039324824
0.021149121 0.019206889 -0.04410374 -0.02285147 -0.029236123 0.0115525825 0.016180024 0.0027736071
0.007157799 -0.05487575 -0.030831788 -0.01129859 -0.031099884 0.05975362 4.2138032e-05 0.008575611
0.06590087 -0.01508049 0.0076526315 -0.04437868 0.039361387 -0.024336915 0.031133095 -0.0331278
-0.047621276 0.0073835407 -0.06770497 0.015449266 -0.0066088573 -0.003747914 0.007956683 0.040459592
-0.018553333 0.029679524 0.0059506134 -0.027823184 -0.0045384313 -0.0112901535 -0.002900288 -0.020010421
-0.023373412 -0.01293316 0.00272741 -0.0070316605 0.008914063 0.0061232434 0.06822522 0.031918664
-0.0044086007 0.02638637 0.025163552 -0.0014490957 0.045334868 0.005765149 0.004832552 0.01177051
0.042245068 0.05662287 0.0029026773 -0.037856385 -0.019096524 -0.029340535 0.005017246 -0.007337952
-0.0010130081 0.020125574 0.054144613 -0.00709014 0.052171595 0.045348153 -0.020874685 -0.019993711

action_model._continuous_distribution.mu.bias f4 [2]
00000000: 43cd 0dbb 3a80 c63c
-0.0021637238 0.024231065

action_model._discrete_distribution.branches.0.weight f4 [1, 128]
00000000: 0498 10bc 671f 4abb c70f 553c d749 20bb
00000010: b89d 75bc 6b6b 8ebb 230e f7bb 6da2 74bc
00000020: 82b3 f23b c7fc edbb 6b17 a33b e371 1d3b
00000030: 1caa b3ba ef63 533b b47e 413b 0fb4 b0bc
00000040: 67ba 923b bbe5 41bc 87c2 7fba 401b aaba
00000050: 2df8 f23b 3f1e c3bb 1333 5bbc 1b1e 3ebc
00000060: 43dc a53b 95e2 89bb 51bf 043b 0a56 fc3b
00000070: 3235 7bbc 7479 04bc d747 b23b 6d0d 83ba
00000080: c305 3d3c 0a13 11bc 8a7e 5bbb 5eaf a2bc
00000090: 9883 0c3b 7150 42bb 83e5 aa3b 1b90 2b3c
000000a0: 472e 84bc 58c3 2d3c 4876 fcbb 7a59 51bb
000000b0: 4b07 36bc 6641 0a3b 2fd7 3bbc c763 073c
000000c0: 58a4 f3ba dae0 20bc 8447 be3b 9260 343b
000000d0: 1268 85bc cf4a a03a bfd6 edbb 329b 5abc
000000e0: f76d 3ebb 26d4 a13c 81dd 8e3b a33e 0d3b
000000f0: 9d5f 16bc 4d84 68ba c5c8 6c3c cfac e73b
00000100: 8a76 0f38 816d 8f3b 0301 393b 9b67 92bb
00000110: 178a 163c 30e5 5a3b e3f1 86bb 837f 10bc
00000120: 2a86 02bc d7ab a23b 6d1e 42bb e308 aebc
00000130: 3de0 72bc 6399 e8bb 3bf6 153c c31c 593c
00000140: 0081 0ebc 2ce5 27bc 5ff4 373c fc84 493c
00000150: f590 57bc 5e76 283c 6cb8 c63b f242 e3bb
00000160: 8471 17bc 824b 8bbc dad8 fa3b 3bca 723a
00000170: a479 2f3c edf3 303c 9a08 7cbb ca5f 2f3b
00000180: d510 08bc c5e1 913c 9bfd 123b 5fa2 783b
00000190: 8949 b3bb 211f a63b 951a 6fbc 0049 bb3b
000001a0: 56a7 433b 7834 04bb b343 153c 5530 4abb
000001b0: a71c 9939 ff23 c4bb cb2c 643c 0339 533c
000001c0: c8b5 f5b9 2f48 1cbc bb6e 4d3c d2ff febb
000001d0: 27b1 4f3b 6d65 04bc b37d 71bb f0b2 9f3b
000001e0: a843 253b a2d3 043c a20e f53b 7b11 b2ba
000001f0: 9b32 2f3c 67bf 8cbb 3758 243c ec1f 9fbc
-0.008825306 -0.003084147 0.01300425 -0.0024458074 -0.014991216 -0.0043463013 -0.007539527 -0.014931303
0.007406653 -0.0072627994 0.004977157 0.002402418 -0.0013707313 0.003225561 0.0029524984 -0.021570234
0.0044777873 -0.011834557 -0.0009756465 -0.0012978092 0.0074148388 -0.0059545333 -0.013378876 -0.011603857
0.0050616576 -0.004207919 0.0020255635 0.0077006863 -0.015332507 -0.008085597 0.005440693 -0.0009998508
0.011537018 -0.008854637 -0.0033492171 -0.019859012 0.002144074 -0.0029649998 0.005215348 0.010471369
-0.016135348 0.010605656 -0.00770453 -0.0031944201 -0.011110137 0.002109611 -0.011464878 0.008263535
-0.0018588407 -0.009819234 0.005806865 0.002752338 -0.016284976 0.0012229326 -0.0072582657 -0.0133426655
-0.0029057243 0.01975448 0.0043599014 0.0021552227 -0.009178069 -0.0008869812 0.014452164 0.007070161
3.4204255e-05 0.0043770676 0.0028229363 -0.004467917 0.009188197 0.0033400767 -0.0041181906 -0.008819464
-0.0079665575 0.0049643326 -0.0029620186 -0.021244472 -0.01482397 -0.0070983632 0.009152944 0.013251486
-0.008697748 -0.01024751 0.011227696 0.012299772 -0.013157119 0.010282127 0.0060644653 -0.0069354707
-0.009243373 -0.017003778 0.0076552453 0.0009261702 0.010710154 0.010800344 -0.0038457275 0.0026759976
-0.008304794 0.01780785 0.0022428993 0.0037938578 -0.0054714126 0.005069629 -0.01459374 0.0057154894
0.0029854379 -0.0020172875 0.009110379 -0.0030851562 0.00029203782 -0.0059857364 0.013926695 0.012892011
-0.0004686548 -0.009538694 0.012538607 -0.007781961 0.0031691284 -0.008080822 -0.0036848604 0.004873626
0.0025217328 0.008107098 0.007478551 -0.0013585532 0.010693218 -0.004295278 0.010030798 -0.019424401
