results/ag08/PlatformRotate/PlatformRotate-1861631.onnx (onnx, 130906 bytes, 8 tensors)

network_body._body_endoder.seq_layers.0.weight f4 [128, 114]
0.052448485 -0.059036948 -0.102679774 0.13014309 0.1000282 0.22860108 0.16116294 0.09232337
0.17353818 0.08362423 0.10519667 0.02288224 0.10128046 0.10719268 -0.040384542 0.062981434
0.022103464 0.004224748 -0.03051936 0.13725033 0.020538576 0.032572202 0.04215499 -0.018796718
0.024908794 -0.15634823 -0.020374449 -0.047068756 0.04244583 0.053200934 -0.04831046 -0.04337781
0.23836659 0.0004016354 0.030785795 0.018702323 -0.020303449 0.0028247186 -0.041677892 0.027681423
0.11636626 0.11978228 -0.16987449 0.28974104 0.0107892975 0.07352071 0.014170615 0.054632947
-0.12640636 0.014642091 0.09777504 0.14241855 0.047866914 0.14758435 0.10627752 0.07913406
-0.045184884 -0.034958087 0.06223711 -0.08075302 -0.042539008 -0.17337069 -0.034125414 0.090647765
0.21683677 -0.052278373 0.0030325335 -0.076974966 0.14049394 -0.05742653 -0.074503794 -0.029961482
0.052075222 -0.084522635 -0.039945908 0.17820932 0.17414601 0.008567508 -0.0032722922 0.008446215
0.09634171 -0.0035338402 0.16121696 0.026778279 -0.039967097 0.10772651 -0.23724781 0.0661576
0.1771229 -0.02463845 -0.07109346 0.1265982 0.076048836 0.008766315 -0.08330225 0.0022961434
-0.016182233 0.16281046 0.13576755 0.08992421 -0.13155206 0.2523458 0.103596084 0.013726507
-0.05775801 0.17938907 -0.038352475 -0.12933952 0.04545489 0.06266083 0.044942573 0.039336834
-0.11366946 0.004024366 -0.0026652282 0.21592188 0.08696649 -0.015421004 0.048465878 0.12357008
0.009058974 -0.19207829 0.06180407 0.023281498 -0.03689405 -0.19502027 0.0937301 -0.06411701
-0.13846841 -0.07019933 0.12810265 -0.042732827 0.007512773 -0.03442733 -0.09085701 -0.0039272634
-0.04059745 0.03998857 -0.07380414 0.06710805 -0.0058383313 -0.0399552 0.048933852 0.17993943
0.048399918 0.113671124 -0.108377166 0.22980715 0.004123348 -0.11694471 0.089802444 -0.01759525
-0.045021288 -0.04617192 -0.1653067 0.11395611 0.20714012 0.015145049 -0.007403659 0.099730045
-0.10774962 0.10690977 0.25142184 -0.17503285 0.21047638 -0.12695257 0.05094146 0.0047343564
0.08385075 -0.16735633 -0.13523845 0.10988867 0.04873217 -0.07330231 0.011720129 -0.025348062
0.037284717 -0.049343463 0.17929204 -0.031757973 0.19202624 0.19249906 -0.07900595 -0.0016080702
-0.1219595 0.17643571 -0.11867487 0.046828568 0.07199646 -0.087396234 0.07957608 0.03652581
-0.008066044 0.15192404 0.124456875 -0.001632949 0.082197614 -0.15580691 -0.01965231 -0.02513387
0.06385463 -0.031736527 0.0649265 -0.064996995 0.06013428 -0.091665395 0.02697953 -0.0993695
0.047655683 -0.1416561 -0.08774482 0.06511345 -0.02067431 -0.016596299 0.0909787 -0.10717457
-0.18942484 -0.16013075 0.11467653 -0.07776535 0.109872065 -0.03386557 0.0077543994 -0.07460711
-0.09522509 0.0067787003 0.08243126 0.062314533 0.1909836 -0.12231265 0.21142444 -0.03385122
0.01745416 0.034813657 -0.06690045 0.021146562 0.0036225321 -0.015426774 -0.10764658 0.11935573
0.0075247204 -0.09151218 0.17943303 -0.054923333 -0.044349823 -0.0809231 0.11584308 -0.09507991
0.04276279 0.099944845 -0.024181038 -0.08515981 0.07243283 -0.024085764 0.013383282 0.11363599
00000000: 39d4 563d bad0 71bd c649 d2bd 3b44 053e
00000010: 96db cc3d 6716 6a3e e607 253e 0914 bd3d
00000020: feb3 313e 2e43 ab3d 5a71 d73d 8973 bb3c
00000030: 216c cf3d d687 db3d 436a 25bd 69fc 803d
00000040: 5312 b53c c16f 8a3b bd03 fabc 5a8b 0c3e
00000050: 8440 a83c 6e6a 053d b6aa 2c3d 93fb 99bc
00000060: 870d cc3c c019 20be 51e8 a6bc 2bcb 40bd
00000070: aedb 2d3d 39e9 593d 30e1 45bd eeac 31bd
00000080: 5f16 743e 9792 d239 7e32 fc3c 9d35 993c
00000090: 6b53 a6bc ea1e 393b 70b6 2abd 27c4 e23c
000000a0: 6f51 ee3d 6950 f53d 94f3 2dbe f058 943e
000000b0: 98c5 303c 0792 963d de2b 683c ccc6 5f3d
000000c0: ab70 01be 61e5 6f3c 483e c83d 2bd6 113e
000000d0: 1910 443d 5a20 173e 07a8 d93d 0a11 a23d
000000e0: c913 39bd 3630 0fbd 57ec 7e3d d761 a5bd
000000f0: 623d 2ebd 1688 31be 17c7 0bbd 89a5 b93d
00000100: 750a 5e3e d921 56bd 78bd 463b 0da5 9dbd
00000110: a5dd 0f3e 1538 6bbd 7295 98bd c871 f5bc
00000120: d44c 553d 341a adbd 529e 23bd 817c 363e
00000130: 5553 323e bc5e 0c3c f473 56bb fe61 0a3c
00000140: cd4e c53d 0098 67bb 0f16 253e 1f5e db3c
00000150: 8ab4 23bd b79f dc3d 17f1 72be a37d 873d
00000160: b55f 353e 93d6 c9bc 7399 91bd f5a2 013e
00000170: 7ebf 9b3d 97a0 0f3c 5f9a aabd e57a 163b
00000180: 9a90 84bc c9b7 263e a606 0b3e 2f2a b83d
00000190: 95b5 06be 7833 813e 2f2a d43d 25e5 603c
000001a0: aa93 6cbd c5b1 373e 7c17 1dbd 9471 04be
000001b0: e82e 3a3d 5254 803d b415 383d a91f 213d
000001c0: 89cb e8bd d4de 833b 1cab 2ebb a01a 5d3e
000001d0: 7d1b b23d 61a8 7cbc 2884 463d 4f12 fd3d
000001e0: 176c 143c 2cb0 44be 4426 7d3d d7b8 be3c
000001f0: 371e 17bd 65b3 47be 91f5 bf3d c74f 83bd
00000200: aaca 0dbe abc4 8fbd 572d 033e 9e08 2fbd
00000210: b52d f63b ac03 0dbd 3d13 babd 46b0 80bb
00000220: 8349 26bd 0ecb 233d a026 97bd f26f 893d
00000230: 794f bfbb 10a8 23bd dd6e 483d 0b42 383e
00000240: fe3e 463d 68cc e83d d9f4 ddbd 9152 6b3e
00000250: 261d 873b b580 efbd 58ea b73d ea23 90bc
00000260: 3e68 38bd c41e 3dbd 2946 29be d261 e93d
00000270: 8a1c 543e f122 783c 659a f2bb 443f cc3d
00000280: d5ab dcbd 82f3 da3d 5dba 803e d03b 33be
00000290: 1f87 573e dbff 01be fea7 503d a922 9b3b
000002a0: f1b9 ab3d 755f 2bbe f37b 0abe 500d e13d
000002b0: 629b 473d 861f 96bd c905 403c bda6 cfbc
000002c0: dcb7 183d 5f1c 4abd 5598 373e a614 02bd
000002d0: 87a2 443e 791e 453e dfcd a1bd e2c5 d2ba
000002e0: e7c5 f9bd 90ab 343e cf0b f3bd 50cf 3f3d
000002f0: e172 933d ccfc b2bd c9f8 a23d 169c 153d
00000300: 7127 04bc fa91 1b3e 3fe3 fe3d ad08 d6ba
00000310: 3957 a83d d98b 1fbe e2fd a0bc 8ce5 cdbc
00000320: 37c6 823d 29fe 01bd 2ff8 843d 251d 85bd
00000330: 5d4f 763d 11bb bbbd 2d04 dd3c 3d82 cbbd
00000340: 9b32 433d 4c0e 11be 8eb3 b3bd 335a 853d
00000350: 2c5d a9bc f6f4 87bc 0a53 ba3d 577e dbbd
00000360: 96f8 41be 51f9 23be 87db ea3d 7143 9fbd
00000370: 9b04 e13d a0b6 0abd 9e18 fe3b 9dcb 98bd
00000380: 5f05 c3bd dc1f de3b b8d1 a83d 863d 7f3d
00000390: 3491 433e 0e7f fabd a67f 583e 94a7 0abd
000003a0: 07fc 8e3c c498 0e3d 1a03 89bd 8e3b ad3c
000003b0: 0168 6d3b 94c0 7cbc cf75 dcbd c770 f43d
000003c0: ee91 f63b bd6a bbbd 4bbd 373e 4af7 60bd
000003d0: 29a8 35bd 03bb a5bd 233f ed3d 41b9 c2bd
000003e0: 0928 2f3d e2af cc3d 5017 c6bc 4468 aebd
000003f0: aa57 943d 824f c5bc 8e45 5b3c fcb9 e83d

network_body._body_endoder.seq_layers.0.bias f4 [128]
0.020428574 0.0035370232 0.011778069 0.010852203 -0.026406517 -0.0032792932 0.04142677 -0.0040855817
0.018443957 0.014792996 -0.011333058 0.017948706 0.03129223 0.015141547 -0.023813942 0.0020892778
0.018233743 -0.014107997 -0.018399417 -0.02470652 0.0059030144 0.017010748 0.018494282 0.032239806
-0.016576214 0.0024458866 -0.022014027 0.020872641 -0.0025557429 -0.004333632 -0.017473517 -0.006812328
-0.029349262 -0.027190406 -0.039776564 4.9311246e-05 0.009330347 -0.005372552 0.00037522262 -0.0004775045
0.021599995 -0.0037092918 0.0092000365 -0.009162926 0.0060427114 0.003604897 -0.008016803 0.003914042
-0.0058183516 0.019235473 0.0104723815 0.042486098 -0.01767655 -0.0033854865 -0.016479403 -0.039170116
0.049608316 0.014060963 0.0064821825 0.0054720994 0.016095858 0.024606658 -0.021310128 0.0078345835
0.007905832 0.01208151 0.021723336 -0.016383147 0.010216655 0.0077181086 -0.03938345 0.033687055
-0.012875596 -0.0031103427 -0.013221284 -0.014580474 -0.0010630471 -0.00048709346 0.021424934 0.0053047403
-0.001310185 -0.008238564 0.025756905 0.009765771 -0.0007716173 0.020547839 -0.0028442235 0.035587877
0.0047301976 -0.007224543 -0.0016331477 -0.006140505 0.00553317 0.0037138797 -0.008078383 -0.011237845
0.014150181 0.016708842 -0.058347512 0.014559844 0.02257279 -0.005814929 0.018940937 0.0098501565
0.003105977 0.0077862255 -0.013594893 0.026805233 -0.020568073 0.024180856 0.011003297 -0.024672654
-0.04495745 -0.008244184 0.0028897745 -0.0027625689 -0.021495936 -0.014830356 -0.014221988 0.032116286
0.007114229 -0.013512236 -0.0022769156 0.035179418 0.025973512 0.018003939 -0.017533978 -0.016425109
00000000: d359 a73c 67cd 673b cdf8 403c 70cd 313c
00000010: 7b52 d8bc 69e9 56bb 1eaf 293d 58e0 85bb
00000020: c817 973c 535e 723c 4aae 39bc 2a09 933c
00000030: 482c 003d 4014 783c 7515 c3bc 44ec 083b
00000040: ee5e 953c 3a25 67bc 60ba 96bc 5465 cabc
00000050: 136e c13b 205a 8b3c 5281 973c e30d 043d
00000060: d7ca 87bc 2b4b 203b c356 b4bc 1afd aa3c
00000070: 407e 27bb 2401 8ebb 9f24 8fbc f339 dfbb
00000080: dd6d f0bc 6abe debc c0ec 22bd 8cd3 4e38
00000090: 50de 183c 3c0c b0bb 87b9 c439 9259 fab9
000000a0: 79f2 b03c 9717 73bb c0bb 163c 1920 16bc
000000b0: f001 c63b 2340 6c3b e958 03bc 5d41 803b
000000c0: dfa7 bebb b693 9d3c 5a94 2b3c e705 2e3d
000000d0: 6ace 90bc 0adf 5dbb d0ff 86bc d870 20bd
000000e0: 1732 4b3d f45f 663c 7d68 d43b 4c4f b33b
000000f0: 76db 833c e793 c93c 9492 aebc a05c 003c
00000100: 7687 013c 87f1 453c 23f5 b13c f335 86bc
00000110: c263 273c 30e8 fc3b 8a50 21bd 70fb 093d
00000120: 2af4 52bc e4d6 4bbb 169e 58bc f1e2 6ebc
00000130: f155 8bba 9460 ffb9 5883 af3c 63d3 ad3b
00000140: 83ba abba 0bfb 06bc 2500 d33c 9d00 203c
00000150: 5c46 4aba f153 a83c 2766 3abb 98c4 113d
00000160: c6ff 9a3b dcbb ecbb 580f d6ba 4a36 c9bb
00000170: 984f b53b 9064 733b 325b 04bc f01e 38bc
00000180: 29d6 673c fbe0 883c cdfd 6ebd 698c 6e3c
00000190: 92ea b83c 298b bebb 062a 9b3c 8d62 213c
000001a0: a68d 4b3b 9823 ff3b 1dbd 5ebc a696 db3c
000001b0: 607e a8bc ee16 c63c 2c47 343c 4e1e cabc
000001c0: 4e25 38bd 9d12 07bc 5f62 3d3b 370c 35bb
000001d0: 3f18 b0bc 06fb 72bc 5703 69bc 5e8c 033d
000001e0: 7a1e e93b 6d62 5dbc 4e38 15bb 4b18 103d
000001f0: 67c6 d43c ff7c 933c 6ba3 8fbc f38d 86bc

network_body._body_endoder.seq_layers.2.weight f4 [128, 128]
0.1335106 0.023927422 0.17555952 0.04328794 -0.10343658 -0.038281016 -0.23130894 0.103404395
0.07106322 -0.13379428 0.0089936545 -0.06846086 0.059806537 -0.18136817 -0.05543053 0.036345575
-0.029644009 -0.07298948 -0.23602235 -0.04188677 0.03497111 -0.023488935 -0.05091578 -0.026375784
0.02427767 -0.12568411 0.016281994 -0.12439984 0.078418255 0.002953099 -0.016854052 -0.031045074
0.077600375 -0.07069962 -0.011568711 -0.075798035 -0.07424928 -0.1593268 0.048049275 -0.043462947
0.22001842 -0.1960249 0.07542163 0.12577619 0.045354772 0.053343404 -0.020212898 -0.05291781
0.027175657 -0.004434703 0.10529964 0.16641143 -0.15329953 -0.03620663 -0.0935255 0.1029003
-0.018229838 -0.0036597396 -0.0074406555 -0.03494014 -0.02886467 -0.15569076 -0.018091025 0.048184726
-0.09563856 0.088280685 -0.010171391 -0.030427186 0.01537683 -0.11382894 0.17811796 0.20299612
-0.07608801 0.07184292 0.057535138 -0.110451475 0.03082078 -0.102680266 -0.04551086 0.1071411
0.12785916 -0.05196971 0.10932086 -0.02475669 -0.040359855 0.013002668 -0.022017632 0.098120674
-0.13251519 -0.08880549 0.26582277 0.15154709 -0.025220087 0.08057216 0.074937165 -0.17379771
0.008818649 -0.056291018 -0.056968305 0.004698673 -0.13918875 0.035390053 0.02667267 0.015403413
0.0674954 -0.030406484 -0.03060614 -0.0405965 0.07349611 0.17008768 -0.17856258 -0.004319521
-0.07313982 0.08703042 -0.006128254 -0.043540895 -0.03518135 -0.002961829 0.14425422 0.08530583
-0.1509951 0.09183764 -0.051580917 0.20558369 0.006804699 -0.028367251 -0.24497412 -0.06298287
-0.017822523 0.041450676 -0.09589286 -0.09131203 -0.20063712 -0.046822295 -0.13284428 0.07232422
0.018139945 -0.13554804 -0.043638878 0.027446436 -0.05627108 -0.06284858 -0.053210862 0.11109056
-0.012242478 -0.054033533 -0.009184114 -0.076359674 0.010856704 0.08158134 -0.08485141 -0.00594275
-0.06662187 0.09135486 -0.051883966 0.12409982 0.011742311 -0.11818974 -0.11666903 0.08897677
-0.07773061 -0.007942917 0.029322468 0.029542927 0.02379178 -0.014524032 -0.05248866 -0.035963666
0.018082554 0.042892102 -0.11019774 0.087555476 -0.088245004 0.009826558 -0.08899605 -0.04072509
-0.028052114 0.1677566 -0.0709598 0.1428316 0.02386307 -0.022763066 -0.022183279 -0.055764854
0.05971684 -0.10481054 -0.02868805 0.09786865 -0.0033187985 -0.116242565 0.010712502 -0.06804403
0.013131172 -0.03237037 -0.03557241 -0.0601602 -0.14856498 -0.0372792 -0.0054084077 -0.040774565
0.023148574 -0.074899524 0.00056830334 0.13622567 -0.0023962893 0.006944525 -0.04337112 -0.08589332
-0.06796911 -0.052716374 0.08839391 -0.05097853 0.029571187 0.065449424 -0.07904185 0.0055624302
0.024989497 -0.0025575594 -0.08276231 0.13119055 0.09225342 0.10628227 -0.13984601 -0.12347482
0.1124594 0.07061788 0.04357799 0.08344752 0.082233794 -0.037575398 -0.09786392 -0.0020407664
0.09209224 0.13516754 0.065371946 0.06179984 0.06283287 0.11920901 -0.08729758 0.056623176
-0.12121453 0.071716 -0.08951692 0.013141454 0.12188772 -0.2447955 -0.10065127 0.08735076
-0.057841048 0.08466076 0.018225705 0.010839179 -0.09876336 -0.07346869 -0.027171949 -0.068955995
00000000: 01b7 083e 7103 c43c e0c5 333e b24e 313d
00000010: 8fd6 d3bd 8ecc 1cbd 40dc 6cbe afc5 d33d
00000020: 9889 913d 5e01 09be 1f5a 133c 3535 8cbd
00000030: b3f7 743d 94b8 39be 200b 63bd 19df 143d
00000040: fed7 f2bc 827b 95bd d8af 71be 7691 2bbd
00000050: de3d 0f3d de6b c0bc 118d 50bd 0712 d8bc
00000060: f7e1 c63c 56b3 00be d161 853c 58c5 febd
00000070: c099 a03d c888 413b 8211 8abc 3d52 febc
00000080: f2ec 9e3d f6ca 90bd b18a 3dbc 003c 9bbd
00000090: 0210 98bd 9126 23be 51cf 443d 3406 32bd
000000a0: 824c 613e c0ba 48be a876 9a3d 79cb 003e
000000b0: edc5 393d 9d7e 5a3d 8595 a5bc 58c0 58bd
000000c0: 7c9f de3c fc50 91bb 56a7 d73d c267 2a3e
000000d0: 8dfa 1cbe 674d 14bd 4c8a bfbd 64bd d23d
000000e0: be56 95bc 3ed8 6fbb bed0 f3bb 641d 0fbd
000000f0: 9a75 ecbc 666d 1fbe a133 94bc 595d 453d
00000100: 26de c3bd 81cc b43d e8a5 26bc 6f42 f9bc
00000110: 19ef 7b3c 261f e9bd 8e64 363e 37de 4f3e
00000120: 08d4 9bbd 6122 933d f7a9 6b3d 6234 e2bd
00000130: dc7b fc3c 084a d2bd 9869 3abd cb6c db3d
00000140: 83ed 023e 31de 54bd 9de3 df3d 8bce cabc
00000150: 6050 25bd 2409 553c 525e b4bc 7ef3 c83d
00000160: 10b2 07be a7df b5bd ec19 883e 292f 1b3e
00000170: 5b9a cebc 0403 a53d a878 993d 07f8 31be
00000180: 187c 103c 6991 66bd 9957 69bd 53f7 993b
00000190: 7f87 0ebe 29f5 103d a580 da3c 995e 7c3c
000001a0: 073b 8a3d 0517 f9bc bab9 fabc 8448 26bd
000001b0: 2185 963d 772b 2e3e 1cd9 36be c58a 8dbb
000001c0: 54ca 95bd 013d b23d 85cf c8bb f057 32bd
000001d0: 521a 10bd 3f1b 42bb 61b7 133e d3b4 ae3d
000001e0: 769e 1abe 5f15 bc3d 8346 53bd 8884 523e
000001f0: f4f9 de3b 7062 e8bc 7fda 7abe 2afd 80bd
00000200: 8a00 92bc 2fc8 293d 7a63 c4bd cd01 bbbd
00000210: d173 4dbe bcc8 3fbd 5508 08be b81e 943d
00000220: 399a 943c 1bcd 0abe aebe 32bd 59d7 e03c
00000230: 817c 66bd c2b6 80bd a2f3 59bd 7383 e33d
00000240: ad94 48bc 4452 5dbd f778 16bc 7662 9cbd
00000250: 51e0 313c 1e14 a73d 93c6 adbd 66bb c2bb
00000260: 0c71 88bd 4218 bb3d 4884 54bd 0c28 fe3d
00000270: d262 403c 760d f2bd 2cf0 eebd 7439 b63d
00000280: 3a31 9fbd 0223 02bc ac35 f03c 0204 f23c
00000290: fbe6 c23c 35f6 6dbc 59fe 56bd a34e 13bd
000002a0: dd21 943c a1af 2f3d 5aaf e1bd 4950 b33d
000002b0: ccb9 b4bd 92ff 203c 9043 b6bd 5acf 26bd
000002c0: 8ccd e5bc 63c8 2b3e 5f53 91bd 7242 123e
000002d0: 7c7c c33c 9c79 babc b5b9 b5bc b069 64bd
000002e0: a599 743d e9a6 d6bd 3403 ebbc 5c6f c83d
000002f0: 3380 59bb 9510 eebd 7d83 2f3c ab5a 8bbd
00000300: 2124 573c cb96 04bd 60b4 11bd 8b6a 76bd
00000310: 6b21 18be 13b2 18bd 0339 b1bb 3b03 27bd
00000320: 14a2 bd3c ec64 99bd 31fa 143a be7e 0b3e
00000330: 100b 1dbb e68e e33b eaa5 31bd d6e8 afbd
00000340: 6433 8bbd 20ed 57bd de07 b53d ddce 50bd
00000350: 463f f23c 590a 863d b2e0 a1bd 0c45 b63b
00000360: c6b6 cc3c ba9c 27bb 497f a9bd d156 063e
00000370: 5cef bc3d 85aa d93d cb33 0fbe 5ee0 fcbd
00000380: 1d51 e63d 1ba0 903d d67e 323d 89e6 aa3d
00000390: 316a a83d a9e8 19bd e16c c8bd 61be 05bb
000003a0: db9a bc3d 5c69 0a3e bae1 853d d421 7d3d
000003b0: 85ae 803d da23 f43d 13c9 b2bd b4ed 673d
000003c0: 533f f8bd d7df 923d a654 b7bd 414f 573c
000003d0: 45a0 f93d acab 7abe 4122 cebd f5e4 b23d
000003e0: bcea 6cbd 9f62 ad3d 134e 953c d096 313c
000003f0: 7244 cabd c176 96bd b597 debc cd38 8dbd

network_body._body_endoder.seq_layers.2.bias f4 [128]
0.026450042 0.006473789 -4.634775e-05 0.009895822 -0.014406681 -0.014516915 -0.021110535 -0.014747961
0.006263942 0.012519933 0.0013191354 0.0060997824 -0.0011940746 -0.003978414 -0.004985259 -0.014909132
0.0023506628 -0.0012054484 -0.031862825 -0.0014165065 0.008145718 -0.010454774 0.0012478405 0.020679865
-0.012210618 0.004983416 -0.0056545176 0.007382166 -0.0144500695 0.0149777215 0.008963424 -0.027934916
0.008572155 -0.0029379397 0.016703807 -0.06888104 -0.023344642 -0.018993039 0.007544846 0.006695732
0.01431249 0.00992193 -0.018365642 -0.016519073 -0.022038668 0.016703183 -0.004108966 0.0047401115
0.0081706 0.016938534 -0.007885919 -0.015728686 -0.005741168 0.012658451 0.0017294339 0.02964074
-0.027773125 0.022270957 0.010055895 0.006441069 0.029799594 -0.0052131168 0.009867893 -0.018124409
-0.025612062 -0.06590324 0.007940736 0.013502258 -0.014535641 0.00285336 -0.0036630589 0.0043593138
0.015849462 0.00643013 -0.0012668633 0.009830265 0.0075038243 0.0006609668 0.015826676 0.006105378
-0.018359417 -0.010061239 0.00029748358 0.008156585 -0.014690223 -0.013188251 -3.4906865e-05 0.020989263
-0.010686752 0.011138378 0.011027825 -0.0015003525 -0.026538046 -0.0026532852 -0.004578801 0.0057538063
-0.0037682652 -0.024798555 0.014293581 -0.011496372 0.0004436162 -0.03411287 0.019746313 0.02182674
0.014193342 0.0014485705 0.010269795 -0.0020376118 0.0055062976 0.010822756 -0.016302055 -0.017010212
0.017774254 0.013913009 -0.016297026 0.019616775 -0.008714792 -0.021310002 0.030012745 -0.0399426
0.013093849 0.015498972 0.017319085 -0.009835449 0.014604608 0.016643481 -0.018153233 -0.03498371
00000000: c2ad d83c 1422 d43b 8565 42b8 1622 223c
00000010: 000a 6cbc 5bd8 6dbc 00f0 acbc 6fa1 71bc
00000020: c141 cd3b 6820 4d3c d7e6 ac3a afe0 c73b
00000030: 7f82 9cba 5b5d 82bb 625b a3bb 6f45 74bc
00000040: 940d 1a3b 2300 9eba 9882 02bd 12aa b9ba
00000050: 9e75 053c 804a 2bbc 948e a33a d268 a93c
00000060: 0b0f 48bc ec4b a33b 8849 b9bb 19e6 f13b
00000070: fcbf 6cbc 1e65 753c 53db 123c c4d7 e4bc
00000080: 3972 0c3c 738a 40bb 6cd6 883c 8111 8dbd
00000090: 433d bfbc 4a97 9bbc c13a f73b df67 db3b
000000a0: ef7e 6a3c 978f 223c 8b73 96bc 0253 87bc
000000b0: 708a b4bc 1dd5 883c 81a4 86bb f052 9b3b
000000c0: fbdd 053c aec2 8a3c f133 01bc 72d9 80bc
000000d0: 6820 bcbb 6465 4f3c 2cae e23a 23d1 f23c
000000e0: 7784 e3bc 9571 b63c 7bc1 243c 9a0f d33b
000000f0: 471e f43c cbd2 aabb f1ac 213c a479 94bc
00000100: 63d0 d1bc 47f8 86bd dc19 023c 9338 5d3c
00000110: e626 6ebc 70ff 3a3b ee0f 70bb 93d8 8e3b
00000120: bbd6 813c d7b3 d23b e10c a6ba 1f0f 213c
00000130: a4e2 f53b bb44 2d3a f2a6 813c 9f0f c83b
00000140: 7d66 96bc e5d7 24bc 92f7 9b39 32a3 053c
00000150: 43af 70bc 8913 58bc f668 12b8 adf1 ab3c
00000160: 7d17 2fbc be7d 363c 0dae 343c 7aa7 c4ba
00000170: 5166 d9bc bde2 2dbb c409 96bb 6d8a bc3b
00000180: 00f5 76bb 5726 cbbc a02f 6a3c 475b 3cbc
00000190: 2995 e839 f0b9 0bbd 05c3 a13c fecd b23c
000001a0: 318b 683c f6dd bd3a a442 283c 7489 05bb
000001b0: 2c6e b43b ee51 313c e38b 85bc 0059 8bbc
000001c0: 509b 913c 64f3 633c 5781 85bc 5cb3 a03c
000001d0: 7dc8 0ebc 5092 aebc 4add f53c da9a 23bd
000001e0: 9587 563c 66ef 7d3c c1e0 8d3c dd24 21bc
000001f0: 2a48 6f3c e957 883c 17b6 94bc 144b 0fbd

action_model._continuous_distribution.log_sigma f4 [1, 2]
0.17976226 0.18073152
00000000: 9913 383e af11 393e

action_model._continuous_distribution.mu.weight f4 [2, 128]
0.009338836 0.021657467 0.0030152476 0.0006677879 -0.0073258784 0.0048642433 0.016329346 0.0009788336
0.013678147 -0.051104434 -0.0054145902 -0.0018225143 -0.0350991 0.0417464 0.006883922 -0.00065492134
-0.0166815 0.012886519 0.01185985 0.018730594 -0.018706772 -0.002130586 -0.016818082 -0.04375097
-0.0009799713 -0.0046946565 -0.015674565 -0.016739938 -0.007256755 0.0031442621 -0.028891977 0.0014447059
0.014184988 -0.04147133 -0.009632612 0.017394884 0.00073492323 -0.0041179145 -0.025503764 0.040387962
-0.005497651 0.008430734 -0.028454755 0.0022778038 0.0056102085 -0.058024246 0.04549785 0.0090102935
0.025025042 -0.06813404 0.019937271 0.009440943 0.026339985 0.040821467 0.025152847 -0.024343353
0.0064186417 0.05775037 0.016200872 0.031938538 -0.04049655 -0.0055384943 -0.02065202 -2.3297735e-05
0.0024581442 0.008309519 0.04655077 0.00154063 0.012902308 0.0440874 -0.014707514 -0.0005191292
-0.00042677723 0.014653925 0.008373662 0.008482073 0.004487897 0.024097297 0.017506683 -0.011412378
0.022510815 0.0022191028 -0.04369069 0.0017294462 0.0068701506 -0.0015904962 0.06588526 -0.03669327
0.014204172 0.018124381 -0.0063975686 -0.014273464 -0.003209999 -0.0059166523 0.004816211 0.007380645
0.014138357 -0.008380585 0.04442052 -0.009203156 -0.025544792 -0.0032038304 -0.009539536 -0.030526007
-0.0025834148 0.0008142436 -0.00421421 -0.028024197 0.009648867 0.06819899 -0.011531179 -0.0029710126
0.009637287 0.012020641 0.005256009 -0.046985094 -0.0037724227 0.02884268 -0.04345 0.013066515
-0.06870071 -0.02755032 0.008847827 -0.018794453 -0.011342662 -0.04269099 -0.023175227 0.03125211
-0.012556224 -0.026337052 0.014246206 0.01752737 0.0004458388 0.014700302 0.03481433 0.007411779
0.0018098553 -0.0021913429 0.021050276 0.037152514 0.0034967838 -0.011512784 0.018515745 -0.06490182
-0.004624232 -0.015372552 0.0040062587 -0.036555175 0.0047544288 -0.0003804063 0.028908743 0.02297341
-0.010106923 0.02200387 -0.0024260252 0.061249416 -0.02607781 0.021098029 0.012419776 -0.018070819
0.048845597 0.009702151 0.033911258 -0.03405471 0.0010028377 -0.018114367 0.025945842 -0.009848818
-0.017220305 0.01825038 -0.016802311 -0.0022266556 -0.0042535495 -0.02919066 -0.02171551 -0.031954233
0.050742935 0.02784315 0.005815436 -0.023935938 0.024028393 -0.0309946 -0.009699845 -0.046095137
0.01727785 0.01666629 -0.050915085 -0.028696759 -0.02646627 0.01152338 0.01462652 -0.0068333023
0.0065459837 -0.05606655 -0.035795353 -0.0036777928 -0.032352783 0.057293747 4.714769e-05 0.008578501
0.061056104 -0.021697566 0.0042972406 -0.049117338 0.03602467 -0.029497076 0.029095499 -0.03838241
-0.039580073 0.0048602326 -0.061411973 0.01488797 -0.0047307005 -0.0072129 0.0045775687 0.040179923
-0.024618661 0.030701363 0.0059132264 -0.027690977 -0.010261728 -0.017464496 -0.002903207 -0.024997689
-0.027155124 -0.014011753 0.0014311484 -0.0073616193 0.005155996 0.0041641826 0.06834266 0.032902747
-0.004365301 0.025519919 0.024493905 -0.0016493449 0.035795774 0.0013022453 0.004732799 0.011437486
0.04861891 0.055632286 0.003855514 -0.046116423 -0.020055303 -0.03144248 0.0025485847 -0.004122899
-0.00086575985 0.02046257 0.05140348 -0.007111575 0.04991176 0.044719364 -0.025164207 -0.024776168
00000000: eb01 193c 006b b13c 769b 453b 7d0e 2f3a
00000010: ec0d f0bb 3b64 9f3b 1fc5 853c 354c 803a
00000020: 4f1a 603c e252 51bd e06c b1bb 6fe1 eeba
00000030: 13c4 0fbd 46fe 2a3d 8692 e13b 07af 2bba
00000040: a4a7 88bc fa21 533c d14f 423c e770 993c
00000050: f23e 99bc 4da1 0bbb 13c6 89bc 3834 33bd
00000060: 6172 80ba a2d5 99bb f267 80bc 3222 89bc
00000070: 13ca edbb f70f 4e3b deae ecbc 495c bd3a
00000080: 2768 683c d7dd 29bd 1ad2 1dbc b77f 8e3c
00000090: dda7 403a 92ef 86bb 45ed d0bc d96d 253d
000000a0: a425 b4bb 1021 0a3c f219 e9bc 3547 153b
000000b0: d7d5 b73b d5aa 6dbd f45b 3a3d e99f 133c
000000c0: 5101 cd3c dc89 8bbd 7d53 a33c 2fae 1a3c
000000d0: f4c6 d73c 6934 273d 580d ce3c b66b c7bc
000000e0: 7853 d23b a78b 6c3d b1b7 843c fcd1 023d
000000f0: b6df 25bd 427c b5bb 6d2e a9bc 816f c3b7
00000100: d118 213b a624 083c 05ac 3e3d f7ee c93a
00000110: 3464 533c fd94 343d c9f7 70bc 2c16 08ba
00000120: 12c1 dfb9 0417 703c af31 093c 65f8 0a3c
00000130: 350f 933b b267 c53c 2d6a 8f3c fcfa 3abc
00000140: 9a68 b83c 5e6e 113b 02f5 32bd 96ae e23a
00000150: 001f e13b 3278 d0ba daee 863d af4b 16bd
00000160: 9eb8 683c 9579 943c b2a2 d1bb 3fdb 69bc
00000170: d95e 52bb 7ae0 c1bb 4ed1 9d3b 56d9 f13b
00000180: 91a4 673c b94e 09bc 4bf2 353d d6c8 16bc
00000190: 5043 d1bc 5bf7 51bb b74b 1cbc ad11 fabc
000001a0: 824e 29bb f772 553a 5b17 8abb 0093 e5bc
000001b0: 4816 1e3c e9ab 8b3d 45ed 3cbc 52b5 42bb
000001c0: b6e5 1d3c 39f2 443c 993a ac3b 7173 40bd
000001d0: c03a 77bb 7c47 ec3c a1f8 31bd f014 563c
000001e0: f5b2 8cbd 35b1 e1bc 7af6 103c d3f6 99bc
000001f0: 93d6 39bc bfdc 2ebd f9d9 bdbc 3602 003d
00000200: 9fb8 4dbc cdc0 d7bc eb68 693c 8f95 8f3c
00000210: 79bf e939 89d9 703c 7999 0e3d 82de f23b
00000220: ab38 ed3a a29c 0fbb a171 ac3c 3c2d 183d
00000230: 4c2a 653b 1ea0 3cbc 55ae 973c 3feb 84bd
00000240: df86 97bb 28dd 7bbc ef46 833b e1ba 15bd
00000250: 0acb 9b3b 4571 c7b9 07d2 ec3c bc32 bc3c
00000260: 8297 25bc 7641 b43c f3fd 1ebb abe0 7a3d
00000270: 22a1 d5bc c6d5 ac3c 517c 4b3c 4109 94bc
00000280: 5212 483d c5f5 1e3c 88e6 0a3d f47c 0bbd
00000290: a671 833a 9564 94bc 608c d43c f05c 21bc
000002a0: 9911 8dbc d281 953c 00a5 89bc 15ed 11bb
000002b0: 5c61 8bbb 4021 efbc bae4 b1bc 71e2 02bd
000002c0: d3d7 4f3d 5117 e43c 6a8f be3b 4d15 c4bc
000002d0: 31d7 c43c 63e8 fdbc 19ec 1ebc 41ce 3cbd
000002e0: 478a 8d3c be87 883c 568c 50bd 7715 ebbc
000002f0: cbcf d8bc 8fcc 3c3c 12a4 6f3c e5e9 dfbb
00000300: b17f d63b 0aa6 65bd 269e 12bd 2007 71bb
00000310: 5a84 04bd d9ac 6a3d 72c0 4538 d78c 0c3c
00000320: f715 7a3d 18bf b1bc decf 8c3b 432f 49bd
00000330: 9b8e 133d daa3 f1bc af59 ee3c e036 1dbd
00000340: b71e 22bd 9642 9f3b 1f8b 7bbd acec 733c
00000350: fe03 9bbb 315a ecbb 6eff 953b b493 243d
00000360: 13ad c9bc 6d81 fb3c bdc3 c13b 30d8 e2bc
00000370: cf20 28bc b411 8fbc bb43 3ebb f4c7 ccbc
00000380: 6c74 debc 8d91 65bc 5f95 bb3a bd39 f1bb
00000390: a1f3 a83b b273 883b 3df7 8b3d 08c5 063d
000003a0: cd0a 8fbb 260f d13c 71a7 c83c d52e d8ba
000003b0: 979e 123d 1ab0 aa3a 9815 9b3b 4b64 3b3c
000003c0: 9f24 473d aede 633d cbac 7c3b 93e4 3cbd
000003d0: 054b a4bc d4c9 00bd 2806 273b 6219 87bb
000003e0: 29f4 62ba 1fa1 a73c 758c 523d 3708 e9bb
000003f0: 4670 4c3d a72b 373d 2b25 cebc 64f7 cabc

action_model._continuous_distribution.mu.bias f4 [2]
-0.0024260096 0.020026723
00000000: b0fd 1ebb 150f a43c

action_model._discrete_distribution.branches.0.weight f4 [1, 128]
-0.008825306 -0.003084147 0.01300425 -0.0024458074 -0.014991216 -0.0043463013 -0.007539527 -0.014931303
0.007406653 -0.0072627994 0.004977157 0.002402418 -0.0013707313 0.003225561 0.0029524984 -0.021570234
0.0044777873 -0.011834557 -0.0009756465 -0.0012978092 0.0074148388 -0.0059545333 -0.013378876 -0.011603857
0.0050616576 -0.004207919 0.0020255635 0.0077006863 -0.015332507 -0.008085597 0.005440693 -0.0009998508
0.011537018 -0.008854637 -0.0033492171 -0.019859012 0.002144074 -0.0029649998 0.005215348 0.010471369
-0.016135348 0.010605656 -0.00770453 -0.0031944201 -0.011110137 0.002109611 -0.011464878 0.008263535
-0.0018588407 -0.009819234 0.005806865 0.002752338 -0.016284976 0.0012229326 -0.0072582657 -0.0133426655
-0.0029057243 0.01975448 0.0043599014 0.0021552227 -0.009178069 -0.0008869812 0.014452164 0.007070161
3.4204255e-05 0.0043770676 0.0028229363 -0.004467917 0.009188197 0.0033400767 -0.0041181906 -0.008819464
-0.0079665575 0.0049643326 -0.0029620186 -0.021244472 -0.01482397 -0.0070983632 0.009152944 0.013251486
-0.008697748 -0.01024751 0.011227696 0.012299772 -0.013157119 0.010282127 0.0060644653 -0.0069354707
-0.009243373 -0.017003778 0.0076552453 0.0009261702 0.010710154 0.010800344 -0.0038457275 0.0026759976
-0.008304794 0.01780785 0.0022428993 0.0037938578 -0.0054714126 0.005069629 -0.01459374 0.0057154894
0.0029854379 -0.0020172875 0.009110379 -0.0030851562 0.00029203782 -0.0059857364 0.013926695 0.012892011
-0.0004686548 -0.009538694 0.012538607 -0.007781961 0.0031691284 -0.008080822 -0.0036848604 0.004873626
0.0025217328 0.008107098 0.007478551 -0.0013585532 0.010693218 -0.004295278 0.010030798 -0.019424401
00000000: 0498 10bc 671f 4abb c70f 553c d749 20bb
00000010: b89d 75bc 6b6b 8ebb 230e f7bb 6da2 74bc
00000020: 82b3 f23b c7fc edbb 6b17 a33b e371 1d3b
00000030: 1caa b3ba ef63 533b b47e 413b 0fb4 b0bc
00000040: 67ba 923b bbe5 41bc 87c2 7fba 401b aaba
00000050: 2df8 f23b 3f1e c3bb 1333 5bbc 1b1e 3ebc
00000060: 43dc a53b 95e2 89bb 51bf 043b 0a56 fc3b
00000070: 3235 7bbc 7479 04bc d747 b23b 6d0d 83ba
00000080: c305 3d3c 0a13 11bc 8a7e 5bbb 5eaf a2bc
00000090: 9883 0c3b 7150 42bb 83e5 aa3b 1b90 2b3c
000000a0: 472e 84bc 58c3 2d3c 4876 fcbb 7a59 51bb
000000b0: 4b07 36bc 6641 0a3b 2fd7 3bbc c763 073c
000000c0: 58a4 f3ba dae0 20bc 8447 be3b 9260 343b
000000d0: 1268 85bc cf4a a03a bfd6 edbb 329b 5abc
000000e0: f76d 3ebb 26d4 a13c 81dd 8e3b a33e 0d3b
000000f0: 9d5f 16bc 4d84 68ba c5c8 6c3c cfac e73b
00000100: 8a76 0f38 816d 8f3b 0301 393b 9b67 92bb
00000110: 178a 163c 30e5 5a3b e3f1 86bb 837f 10bc
00000120: 2a86 02bc d7ab a23b 6d1e 42bb e308 aebc
00000130: 3de0 72bc 6399 e8bb 3bf6 153c c31c 593c
00000140: 0081 0ebc 2ce5 27bc 5ff4 373c fc84 493c
00000150: f590 57bc 5e76 283c 6cb8 c63b f242 e3bb
00000160: 8471 17bc 824b 8bbc dad8 fa3b 3bca 723a
00000170: a479 2f3c edf3 303c 9a08 7cbb ca5f 2f3b
00000180: d510 08bc c5e1 913c 9bfd 123b 5fa2 783b
00000190: 8949 b3bb 211f a63b 951a 6fbc 0049 bb3b
000001a0: 56a7 433b 7834 04bb b343 153c 5530 4abb
000001b0: a71c 9939 ff23 c4bb cb2c 643c 0339 533c
000001c0: c8b5 f5b9 2f48 1cbc bb6e 4d3c d2ff febb
000001d0: 27b1 4f3b 6d65 04bc b37d 71bb f0b2 9f3b
000001e0: a843 253b a2d3 043c a20e f53b 7b11 b2ba
000001f0: 9b32 2f3c 67bf 8cbb 3758 243c ec1f 9fbc
