results/ag08/PlatformRotate/PlatformRotate-3348815.pt (torch, 772425 bytes, 39 tensors)

network_body._body_endoder.seq_layers.0.weight f4 [128, 114]
000000 03 f0 7c 3d f9 b4 4b bd f8 3b bf bd ea d2 48 3e
       0.06175233 -0.049733136 -0.0933761 0.19611707
000010 58 80 6a 3d d5 05 75 3e 34 ed 4a 3e 7f 20 c3 3d
       0.057251304 0.23928006 0.19817048 0.095276825
000020 d9 38 2f 3e 4e 12 d1 3d 04 45 ee 3d 01 6b 2e 3d
       0.1711153 0.102085695 0.116342574 0.042582516
000030 5f fb 07 3e 2e 1a b5 3d 49 aa 17 bc fe 49 d6 3d
       0.13279484 0.08842884 -0.009256908 0.10463332
000040 75 c2 a4 bb 6e de d4 3b bd 03 fa bc 08 10 16 3e
       -0.005028064 0.0064962422 -0.03051936 0.14654553
000050 84 40 a8 3c d2 85 2b 3d 9c bd 52 3d 75 32 e6 bc
       0.020538576 0.041875668 0.051450357 -0.028100232
000060 38 22 0c 3d 12 95 16 be ec 62 35 bc 91 e6 66 bd
       0.03421232 -0.14705303 -0.011070948 -0.05637223
000070 94 ee 53 3d 56 02 80 3d 30 e1 45 bd 08 9a 0b bd
       0.051741198 0.062504455 -0.04831046 -0.034082443
000080 5f 16 74 3e 9c ec 11 3d df f5 d8 3c ef 64 ee 3c
       0.23836659 0.03562604 0.026484428 0.029100863
000090 be 78 f5 3b e4 23 03 3d 62 f6 08 bd 16 22 13 3d
       0.0074912 0.03201665 -0.033438094 0.03592118
0000a0 7d 31 ff 3d ec 52 43 3e 7f 6f 5a be da 98 98 3e
       0.12460611 0.19074601 -0.21331595 0.29804116
0000b0 c7 d7 41 3d f7 cd 9a 3d a1 7e 32 3c b0 46 96 3d
       0.047324922 0.07558816 0.0108944485 0.07337701
0000c0 0f 0e ec bd e7 90 0d 3d f2 1d 04 3e 7f 27 fb 3d
       -0.11526119 0.034562018 0.12902048 0.12263393
0000d0 38 40 a1 3d 06 a9 43 3e 0b 60 a0 3d 81 42 a6 3d
       0.07873577 0.19107446 0.07830819 0.08118153
0000e0 c9 13 39 bd bf ef da bc 57 ec 7e 3d ca 81 94 bd
       -0.045184884 -0.026725648 0.06223711 -0.07251318
0000f0 fb 84 0c bd 07 f8 39 be 6f 0e d4 bc d9 81 ca 3d
       -0.034306508 -0.18161021 -0.025885789 0.09888048
000100 67 7a 66 3e b4 e1 77 bd c5 90 38 3c 00 c5 8c bd
       0.2250763 -0.06051798 0.0112649845 -0.06873512
000110 a5 dd 0f 3e af 7f 49 bd 72 95 98 bd 5b c7 c8 3b
       0.14049394 -0.049194034 -0.074503794 0.0061272806
000120 97 a7 41 3d 44 0f 98 bd 56 db 4c bc e5 03 53 3e
       0.047278967 -0.07424787 -0.012503466 0.20606954
000130 ee 51 3a 3e 29 24 86 3c 16 99 94 3b c9 75 a8 3d
       0.18195316 0.016374664 0.004534851 0.08225591
000140 7b e3 5c 3d 7f 65 99 3b 0f 61 4a 3e f6 b0 eb 3c
       0.05392788 0.0046812887 0.19763587 0.028770905
000150 ac a5 32 bd 4f ab 01 3e 2f 87 67 be 20 a8 b0 3d
       -0.04361503 0.12663005 -0.22610162 0.08625817
000160 6c 7a 55 3e 97 11 3a bd a8 6e 25 bd e7 6d 2f 3e
       0.20847481 -0.04542693 -0.040388733 0.17131768
000170 f6 3b 43 3d df ad 2f 3c 5f 9a aa bd 42 6b 25 3c
       0.047664605 0.010722606 -0.08330225 0.010096373
000180 9a 90 84 bc 55 b6 2e 3e 63 03 13 3e 12 2d a8 3d
       -0.016182233 0.17061742 0.1435676 0.082117215
000190 06 6e fd bd da 31 85 3e 4c 27 e4 3d a5 f8 c1 3b
       -0.12374501 0.26014596 0.11140308 0.0059195333
0001a0 7b a0 4c bd 51 b0 3f 3e 7c 17 1d bd 8f e9 f8 bd
       -0.049957734 0.18719603 -0.038352475 -0.12153923
0001b0 e8 2e 3a 3d 0b d5 ca 3d 1d 26 22 3d 49 56 4c 3d
       0.04545489 0.09903916 0.03958713 0.049886975
0001c0 84 2d b3 bd 4e 27 04 3d bf c6 08 3c d4 61 68 3e
       -0.08748916 0.032264046 0.008348166 0.22693568
0001d0 b5 a9 c8 3d 76 03 ed bc 9d 4c 1c 3d 3b 12 ef 3d
       0.09797994 -0.028932314 0.038159 0.11673399
0001e0 ea 7d af 3c 81 d4 4c be fe 8a 5b 3d 8a 83 d4 3c
       0.021422345 -0.20002939 0.05359935 0.025941629
0001f0 71 7a ff bc 00 99 48 be 58 a2 d1 3d d1 e2 88 bd
       -0.031186314 -0.19589615 0.10236043 -0.06683887
000200 1a 3f 18 be ae 37 98 bd f3 06 15 3e d0 5b 80 bd
       -0.14867821 -0.07432495 0.14553432 -0.06267512
000210 b5 2d f6 3b 86 dc bf bc 3d 13 ba bd 4e 31 e8 3b
       0.007512773 -0.023420583 -0.09085701 0.0070859557
000220 46 68 f2 bc ee 5d ed 3c 67 98 80 bd c2 fa 9f 3d
       -0.029590737 0.028975453 -0.062790684 0.078115
000230 22 92 a9 3b 2c c4 50 bd 46 84 75 3d 10 89 43 3e
       0.005174891 -0.050968334 0.0599406 0.19095254
000240 fe 3e 46 3d 2d 57 ff 3d d9 f4 dd bd 48 e2 57 3e
       0.048399918 0.12467799 -0.108377166 0.21082413
000250 51 7e 0b ba 53 f5 e3 bd 93 aa ca 3d 5b d5 fc bc
       -0.0005321252 -0.11130776 0.09895816 -0.030863455
000260 c9 81 0d bd 4f 38 12 bd 70 8c 1e be cf ce cf 3d
       -0.0345476 -0.03569823 -0.1548326 0.101468675
000270 97 3e 48 3e 92 74 f7 3b 55 01 9b 3b bc f7 bb 3d
       0.19555126 0.007551738 0.0047303834 0.09178111
000280 17 26 ee bd f2 ee df 3d 2f 9c 83 3e f6 d3 33 be
       -0.11628359 0.10934247 0.25705096 -0.17561325
000290 d9 29 60 3e e9 c5 04 be 1c 4b 26 3d 28 c0 b2 3a
       0.21890964 -0.12966122 0.040598974 0.0013637589
0002a0 05 57 cf 3d a0 09 40 be f3 7b 0a be 2f 7d f6 3d
       0.101240195 -0.18753672 -0.13523845 0.120355956
0002b0 62 9b 47 3d 84 ac 80 bd 0a c3 b5 3c b1 b9 12 bd
       0.04873217 -0.06282905 0.022187728 -0.03582162
0002c0 21 9e 43 3d 48 3c 1f bd 08 52 42 3e f1 fa 2c bd
       0.047758225 -0.038875848 0.18976605 -0.042231504
0002d0 9b 5a 4f 3e 2c d8 4f 3e df cd a1 bd 4e 27 11 3c
       0.20249407 0.20297307 -0.07900595 0.008859469
0002e0 e7 c5 f9 bd 55 fa 22 3e 18 49 fe bd d3 25 57 3d
       -0.1219595 0.15915807 -0.12416285 0.052526306
0002f0 f0 8e a4 3d 09 4c cd bd d0 13 b9 3d 55 d2 41 3d
       0.08035076 -0.10024268 0.09036982 0.04731973
000300 4b c6 32 3b 21 e2 0e 3e 50 8b e6 3d 52 91 11 bc
       0.0027278836 0.13953449 0.112570405 -0.008884745
000310 88 8f c2 3d bc ae 27 be 49 c0 e4 bc 7b 47 bb bc
       0.09500033 -0.1637525 -0.02792372 -0.022861233
000320 c6 55 8f 3d e9 5d 06 bd ce a0 96 3d 5c a1 8a bd
       0.06998782 -0.032804403 0.0735489 -0.06769058
000330 dc 89 4b 3d 79 04 c3 bd f9 97 35 3d 74 1e f5 bd
       0.04969202 -0.095223375 0.044334386 -0.11968699
000340 9b 32 43 3d 76 02 06 be 8e b3 b3 bd 0b 75 9b 3d
       0.047655683 -0.13086876 -0.08774482 0.075906835
000350 18 fc 21 bc 29 61 e0 bc e1 6d d0 3d 62 66 c5 bd
       -0.009886764 -0.02739008 0.10177208 -0.096386686
000360 04 eb 36 be e3 06 2f be b8 79 00 3e 99 28 89 bd
       -0.17863089 -0.17092471 0.12546432 -0.066971965
000370 9b 04 e1 3d 4f 0e bd bc 9e 18 fe 3b d6 82 bc bd
       0.109872065 -0.023078112 0.0077543994 -0.092046425
000380 4f 46 d1 bd 0b 55 4f 3c d0 d7 ba 3d 16 d6 4c 3d
       -0.102184884 0.012654553 0.09123194 0.050008856
000390 c1 48 2e 3e f7 87 12 be 33 37 43 3e 26 35 88 bd
       0.17019941 -0.14309679 0.19064026 -0.06650762
0003a0 4c 10 4e 3d 01 8f 94 3c 03 2f 98 bd d0 dd 24 3d
       0.05030851 0.018134596 -0.07430842 0.0402506
0003b0 de b5 9a bc 76 c0 ff bb 8d 48 af bd 9e 3c fd 3d
       -0.01888555 -0.0078049256 -0.0855876 0.123650774
0003c0 c0 6f 66 bc c7 5e a2 bd 07 9c 3a 3e 6a 61 c0 bd
       -0.014064729 -0.079282336 0.18223582 -0.0939358
0003d0 05 7c 3b bd 45 b8 e2 bd 23 3f ed 3d a3 2e ed bd
       -0.04577257 -0.11070303 0.11584308 -0.11581161
0003e0 09 28 2f 3d e2 1f a2 3d 06 f6 37 bd 2c d8 83 bd
       0.04276279 0.079162374 -0.04491236 -0.06437716
0003f0 38 8f 53 3d 1e 92 37 bd e1 75 f2 bb fe a4 09 3e
       0.051650256 -0.044817083 -0.007399306 0.13441846

network_body._body_endoder.seq_layers.0.bias f4 [128]
000000 82 4e e7 3c 69 cc 6a 3c 18 45 14 bc 80 e1 ad 3c
       0.028235678 0.014330962 -0.009049676 0.02122569
000010 8d 8a 45 bc d4 f7 59 3a a7 23 60 3d 65 8f 15 3c
       -0.012056959 0.00083148223 0.0547215 0.009128426
000020 b2 66 00 3d f8 fe 77 3c c7 2e 80 bb ff ef b2 3c
       0.031347938 0.015136473 -0.0039118263 0.021842955
000030 ca 7d 3e 3d 07 51 34 3c 0e 88 76 ba a1 70 18 3c
       0.04650668 0.011005647 -0.0009404429 0.009304197
000040 4b 55 1d 3d e3 46 f3 bb d4 0e 29 bc 71 e1 ca bc
       0.03841142 -0.007424222 -0.010318477 -0.024765702
000050 f7 8a 5a 3c 78 49 b8 3c dc 57 3c 3c 3a 5b 06 3d
       0.013338796 0.02249597 0.011495557 0.032801844
000060 dc 7d 85 bc 5f c4 c4 bb f7 b1 3f bd f3 7c 02 3d
       -0.016295366 -0.0060048546 -0.04680058 0.031857442
000070 7a 6c 48 3c 39 d5 92 bc dd 02 ef bc 06 79 69 bc
       0.012232894 -0.017923938 -0.02917617 -0.014250046
000080 33 a5 d1 bc 03 9b f4 bc bd 2f 56 bd 3e 81 8d bc
       -0.025591468 -0.029859072 -0.05229162 -0.017273542
000090 20 d5 01 3d 23 87 c1 bc 6a da 1b bc 8b fb 9b 3c
       0.031697392 -0.023624009 -0.009512523 0.019040843
0000a0 26 76 e1 3c 82 b4 39 3c b2 ad 4f 3c c0 b7 0c bd
       0.027522158 0.01133454 0.0126756895 -0.034354925
0000b0 cc 3f 9e 3c 56 03 f3 bb bd fd 69 3c a3 4e 0d bb
       0.01931753 -0.007416169 0.014281687 -0.0021561764
0000c0 e4 8f bc bb ef c0 c8 3c 2e 5a b5 3c 72 17 54 3d
       -0.005754458 0.02450606 0.022137728 0.05178017
0000d0 ed 4f a1 bb 17 83 ff bb 70 43 d9 bc dd 4e 38 bd
       -0.004922858 -0.0077976095 -0.026521415 -0.044997085
0000e0 05 ca 5d 3d db c0 68 3c 25 4f b2 3c f8 00 c8 3c
       0.05414774 0.014206137 0.021766255 0.024414524
0000f0 a7 1b 0f 3c c5 07 4f 3c 9c 03 c4 bc 03 53 37 3b
       0.00873462 0.01263613 -0.023927502 0.0027973063
000100 94 9a 18 bc da 3c e7 3a fd 26 e3 bb fe 83 73 bc
       -0.009314198 0.0017642037 -0.006932138 -0.014863012
000110 c1 9a 40 bc 0c b9 16 3c 22 cf 0b bd c5 63 4a 3d
       -0.011755646 0.009199392 -0.034133084 0.049411554
000120 4f 05 6c bc eb bf 34 3c 45 fe 21 bc 34 32 ea bb
       -0.014405563 0.011032085 -0.009887283 -0.007147098
000130 fe db b8 3c 69 9f 83 bb 2a 8c 0b 3d 02 14 43 bc
       0.022565838 -0.004016806 0.034069218 -0.011906626
000140 7f e7 c7 3b 40 c4 7c b7 40 bc c2 3c 70 fc 17 3d
       0.0061005945 -1.50660635e-05 0.023771405 0.037105978
000150 66 05 2e 3b 68 43 2a 3d 06 78 4b 3b a2 d5 e3 3c
       0.002655351 0.04156819 0.0031046881 0.027811829
000160 10 78 3f 3c b7 25 a3 bc 82 19 75 bb 24 a2 da 3b
       0.01168634 -0.019915445 -0.0037399237 0.0066721607
000170 d7 5f cd 3b 73 a8 47 3c 2f 80 d9 bc 60 0b b7 3b
       0.0062675285 0.0121861575 -0.02655038 0.005586073
000180 19 74 51 3c 7c ca ee 3c 82 cf 54 bd 61 e2 4e 3c
       0.0127840275 0.029149286 -0.051955707 0.012627215
000190 68 7b dd 3c e6 52 13 3c ab a1 4c 3c f7 b5 cb 3c
       0.027036384 0.0089919325 0.0124897165 0.024867041
0001a0 07 36 29 3d 0a 9f 74 3c db e6 59 bc d9 48 13 3d
       0.04131129 0.014930496 -0.013299669 0.035958145
0001b0 c7 51 eb bc 74 3b da 3c 8f 8e e5 3c 11 d5 90 bc
       -0.028725518 0.026639678 0.028022079 -0.017679723
0001c0 69 92 8f bd 3c 39 8a bc 0c e7 48 3b 62 69 23 3c
       -0.070103474 -0.016872995 0.0030655293 0.009973856
0001d0 d1 77 14 bd b1 4c d2 bc 91 f4 2b bd 95 6a f9 3c
       -0.03624708 -0.025671335 -0.041981284 0.03044633
0001e0 0f 5a e8 bb 24 9c f0 bb 3a e7 1f bc c4 d1 3c 3d
       -0.007090814 -0.007342832 -0.009759719 0.046098486
0001f0 9d 65 e4 3c 8b 65 d2 3c bf 15 f3 bc 67 ec 31 bc
       0.027880484 0.025683185 -0.029673455 -0.010859585

network_body._body_endoder.seq_layers.2.weight f4 [128, 128]
000000 16 b5 01 3e c8 20 f9 3c 58 c9 2c 3e 25 cf 54 3d
       0.12666735 0.03041114 0.16873682 0.05195536
000010 d7 ea b7 bd 5f 26 23 bd a1 68 81 be 26 1d ed 3d
       -0.08980339 -0.039831515 -0.25275138 0.11577825
000020 a4 25 6a 3d 99 05 07 be 09 bb 68 3c a8 6d 89 bd
       0.057164803 -0.13185729 0.014204749 -0.067103684
000030 df e2 5e 3d cb f8 42 be 2c 0e 6b bd 2b d2 66 3d
       0.05441558 -0.1904022 -0.057386562 0.056352776
000040 0c c6 30 bd e8 81 88 bd c0 07 71 be 4e 43 02 bd
       -0.043157622 -0.06665403 -0.23538113 -0.031802468
000050 19 d8 42 3d 24 49 6c bc 2f b4 7d bd 07 7f 1f bd
       0.047569368 -0.014421735 -0.061939415 -0.038939502
000060 14 f4 1c 3d f0 54 09 be 97 ab 5e 3c de 3d 0a be
       0.03831871 -0.13411307 0.013590715 -0.13500163
000070 bf 25 94 3d 52 d0 1d 3c 9c 9f a7 bc 2d 68 ec bc
       0.07233762 0.009632187 -0.02046185 -0.028858269
000080 db cd 8c 3d 51 73 96 bd 83 26 b7 3b 8f 34 8f bd
       0.06875201 -0.073462136 0.0055893078 -0.06992447
000090 20 4b 8b bd 26 13 1d be 0b 5b 03 3d 09 6f 02 bd
       -0.06801438 -0.15339336 0.032069247 -0.031844173
0000a0 92 03 63 3e 14 3d 44 be b9 2e aa 3d 0e f6 01 3e
       0.2216933 -0.19163924 0.08309693 0.12691519
0000b0 c6 6c 41 3d 90 cd 58 3d e9 40 44 bc 09 c8 12 bd
       0.047222875 0.052930415 -0.011978366 -0.0358353
0000c0 81 4a 10 3d 4e 49 79 bb 76 9e e4 3d 8d 54 32 3e
       0.035227302 -0.0038038078 0.111630365 0.17415066
0000d0 ad e3 24 be 40 6d 26 bd 1d 90 cc bd e4 04 fd 3d
       -0.16102476 -0.040631533 -0.09988425 0.123544484
0000e0 bf 6e b1 bc 07 7a be bb 20 47 6b 3a 71 f5 04 bd
       -0.021659253 -0.0058128866 0.0008975137 -0.032460634
0000f0 ad 3a 2f bd 7d c9 1b be a8 44 81 bc ae 81 11 3d
       -0.042780567 -0.1521358 -0.015779808 0.035524063
000100 05 5b af bd f9 ce b1 3d f5 0d c3 bb 3d 93 dc bc
       -0.085622825 0.08682055 -0.0059525915 -0.026925677
000110 7a d8 00 3c 77 36 04 be 57 c0 3a 3e 26 27 51 3e
       0.007864112 -0.12911402 0.18237434 0.2042509
000120 3a 89 91 bd 5a 57 bb 3d 09 96 55 3d 9a 31 ed bd
       -0.07106252 0.0914752 0.052145038 -0.11581726
000130 6c 58 a3 3c 94 b9 ac bd ef d2 ec bc ff a5 b8 3d
       0.019939624 -0.08433834 -0.028909175 0.09016036
000140 a1 0e 12 3e f2 75 21 bd e6 f0 d8 3d 1b 0d d4 bb
       0.14263393 -0.039419122 0.10592823 -0.006471289
000150 b0 12 24 bd 2c 2a b4 3c 18 4a f9 bc 46 76 d9 3d
       -0.040056884 0.021992765 -0.030430838 0.10618262
000160 12 94 fa bd 34 1f 96 bd 17 f5 8e 3e 63 85 2d 3e
       -0.122352734 -0.0733017 0.27921364 0.16945414
000170 d6 9d cb bc 03 64 96 3d 21 71 98 3d 61 ca 38 be
       -0.024855535 0.073432945 0.074434526 -0.18045951
000180 6c 7a 03 3d 2e fd 34 bd 3d 4a 65 bd c2 33 0a 3c
       0.032099172 -0.044186763 -0.055979002 0.008435192
000190 56 52 01 be cb 7f 08 3d 82 0a 60 3c f7 86 cc 3c
       -0.12629065 0.033324998 0.01367438 0.0249667
0001a0 95 0c 9a 3d 68 f7 23 bd 1b 8e 2a bd 03 12 46 bd
       0.07521931 -0.040030867 -0.04163943 -0.04835702
0001b0 47 b0 87 3d 1d 87 21 3e 15 ab 3d be f7 d8 de bb
       0.06625419 0.15774198 -0.18522294 -0.0068007666
0001c0 e5 c6 ac bd 80 ad a6 3d 8c fe a2 bc f4 4e 5d bd
       -0.084363736 0.08138561 -0.019896768 -0.054030374
0001d0 aa 9c 1c bd 5e 4c 13 3c 57 0d 12 3e c7 87 af 3d
       -0.038235344 0.008990375 0.14262901 0.08570819
0001e0 cf 43 19 be 8b 0b ea 3d 8c 09 34 bd 8f 69 53 3e
       -0.14967273 0.11427983 -0.043954417 0.20645736
0001f0 b1 90 3a 3b fa 71 6d bb 55 44 66 be c2 cc 81 bd
       0.002846759 -0.0036231265 -0.22487004 -0.063378826
000200 bc ca 55 bc 3f f6 c0 3c 6c 86 e3 bd da dc e4 bd
       -0.013048824 0.02355492 -0.11109623 -0.111749366
000210 87 ab 51 be dd 26 43 bd ea 3c 27 be b6 8e 65 3d
       -0.20475589 -0.047644485 -0.1633183 0.056044303
000220 8d a7 ea bb 2a 79 17 be 8c 08 66 bd 4d f3 01 3d
       -0.007161087 -0.14792314 -0.056160495 0.03172617
000230 e7 36 8e bd 61 05 ae bd f0 2b 63 bd d2 98 f9 3d
       -0.069440655 -0.0849712 -0.055461824 0.12187351
000240 33 f6 e2 bb 3d 23 8b bd 18 a9 97 bc 09 48 bc bd
       -0.006926322 -0.067938305 -0.018513247 -0.09193427
000250 11 1f cc 3b 1c a1 a5 3d 34 85 9f bd 7b 1c 8c 3b
       0.0062292893 0.0808737 -0.07789078 0.004275856
000260 3d 62 b6 bd ce dc d1 3d 92 d6 97 bd 55 84 ec 3d
       -0.08905456 0.10247193 -0.07413973 0.11548678
000270 c4 5c 47 bc 23 f5 08 be d2 39 e6 bd a8 1f 2a 3d
       -0.012168113 -0.13374762 -0.11241497 0.041534096
000280 4a ae a9 bd d9 7a ac bc f8 af 0f 3d 77 1b 6c 3c
       -0.08285196 -0.021054672 0.035079926 0.014410845
000290 88 d2 4e 3c 0b 2f 1d bd da d6 85 bd 5a 43 22 bd
       0.012623437 -0.03837494 -0.0653512 -0.039615013
0002a0 af db b7 3a 87 47 11 3d 24 36 2c be 39 9f 8e 3d
       0.0014027263 0.035468604 -0.16817528 0.06963963
0002b0 03 c1 c4 bd 40 35 40 bb 4a cc b7 bd 0a 31 e8 bc
       -0.096071266 -0.0029328614 -0.08974512 -0.028343696
0002c0 a8 98 2b bd 48 aa 1b 3e 31 5c 82 bd da 8c fa 3d
       -0.04189363 0.15201676 -0.0636524 0.122338966
0002d0 b2 35 ea 3b 07 05 34 bd a5 47 d9 bc d7 54 48 bd
       0.0071475143 -0.043950107 -0.02652342 -0.048909035
0002e0 fb 5b 2f 3d d6 5e f4 bd 0a db 8c bc bb c7 9f 3d
       0.04281233 -0.11932151 -0.01719429 0.078017674
0002f0 f2 d5 80 bc 65 a4 e7 bd ad 4a 88 bb 10 c7 95 bd
       -0.015727017 -0.11310653 -0.0041592927 -0.07313359
000300 53 f9 cf b7 01 b4 4e bd f1 ae 42 bd 37 9e 90 bd
       -2.4792424e-05 -0.050464634 -0.04753012 -0.07061427
000310 c4 ed 20 be 02 43 39 bd 6c 2b 56 bc 72 37 79 bd
       -0.157157 -0.04522992 -0.013071876 -0.060843892
000320 a8 c1 f5 3b 4a 03 83 bd c5 9a ee bb b7 72 07 3e
       0.0074998923 -0.06397112 -0.0072816336 0.13227354
000330 5f c3 bd bb f6 0c 2e 3c fc 09 70 bd 4c 41 b6 bd
       -0.0057911123 0.010623207 -0.05860327 -0.08899173
000340 ef c4 a0 bd 1d ce 84 bd 38 8a a4 3d ed ab 49 bd
       -0.07850062 -0.064846255 0.08034176 -0.049236227
000350 9f 94 14 3c e2 98 83 3d 6c 8a ba bd aa 8f db 3c
       0.009068637 0.064256445 -0.09108433 0.026801903
000360 45 95 10 3c 61 59 8f bc 7c 6c b0 bd 54 aa 10 3e
       0.008824651 -0.017498674 -0.08614442 0.14127475
000370 3a 46 9a 3d 04 d5 b3 3d 9a c8 21 be fe 1e f4 bd
       0.07532926 0.08780864 -0.1579918 -0.11919974
000380 7f 0a d3 3d 57 13 49 3d fc d6 af 3c 4e f9 89 3d
       0.10304736 0.04909071 0.021464817 0.06737004
000390 08 af 8b 3d 42 70 5d bd e7 2c c8 bd 24 a9 c1 3a
       0.06820494 -0.054062136 -0.097741894 0.0014775139
0003a0 69 b9 bc 3d 31 52 f6 3d e2 0a 8b 3d d4 f4 4b 3d
       0.09215052 0.120273955 0.06789185 0.049794033
0003b0 ff 6e 8c 3d 96 62 dd 3d e4 99 b7 bd eb 14 16 3d
       0.06857108 0.108098194 -0.08964899 0.036641043
0003c0 00 61 f8 bd 4c 60 70 3d c5 0b b9 bd 91 bf f3 bb
       -0.12127876 0.058685586 -0.09035448 -0.007438608
0003d0 dd af cf 3d e5 84 87 be 3d 3d db bd c2 80 90 3d
       0.10140965 -0.26468578 -0.1070504 0.070558086
0003e0 5b 00 8c bd 1b 24 b2 3d e4 53 2c bb 27 5a 72 3b
       -0.06836005 0.08698293 -0.002629512 0.0036980005
0003f0 a3 e9 f6 bd d5 38 91 bd 7b 6e fd bc e6 de b9 bd
       -0.120562814 -0.07090918 -0.03093647 -0.09075718

network_body._body_endoder.seq_layers.2.bias f4 [128]
000000 c8 b7 f1 3c e0 03 bb 3c d6 71 75 3c d0 3e 95 3c
       0.029506579 0.022828996 0.014980754 0.018218428
000010 77 86 c1 bc 7e da 10 bd b9 46 08 bd 63 28 e1 bc
       -0.023623688 -0.03536462 -0.03327057 -0.027485078
000020 52 6f 8f 3c ff 8d 99 3c a3 60 07 bc 06 2c 84 3b
       0.017509136 0.018744467 -0.008262786 0.0040335683
000030 64 b5 7f bb 94 8a 26 3c 72 b9 89 bc 54 fc b2 39
       -0.003901803 0.010164876 -0.01681206 0.00034138805
000040 f2 bb 45 bc 6f ae 7d ba 0a 09 5f bc cf d4 71 3c
       -0.012068735 -0.0009677177 -0.013612995 0.01476021
000050 e6 cd 79 3c 10 04 71 bc de bd e8 3c a1 84 ba 3c
       0.015246844 -0.014710441 0.028410848 0.02276832
000060 e9 33 90 bc a4 78 80 bb 39 47 15 bc 32 2c e3 3b
       -0.017602878 -0.0039206315 -0.009111219 0.0069327587
000070 c2 2f 96 3c 1c 81 ca 3c 65 07 c3 3c b8 ee 16 bd
       0.01833332 0.024719767 0.023807237 -0.036848754
000080 f2 16 ad 3c 99 5a 84 bb 0b 2b 0d 3d 22 e3 59 bd
       0.021129105 -0.0040391204 0.034464877 -0.053195126
000090 9a fa a1 bc 2f 43 a8 bc 98 22 98 3c 68 d9 b1 3c
       -0.019772816 -0.020539848 0.018571183 0.021710113
0000a0 4d 60 2d 3c 5b d2 c1 3c a9 2b 13 bd 0a e6 ba bc
       0.010582042 0.023659876 -0.03593031 -0.02281477
0000b0 be 4b e7 bc 86 7b 9c 3c f4 cd 33 3c fa 6f c3 3c
       -0.028234359 0.01910187 0.010974396 0.023857106
0000c0 ac 78 50 3c c2 bd a3 3c 1b e3 38 3c 9c c6 6a bc
       0.012724083 0.019987945 0.011284615 -0.014329579
0000d0 1e c6 6b bc bf 31 c8 3c 88 53 02 3d 43 8d b2 3c
       -0.014390497 0.024437783 0.031817943 0.021795874
0000e0 72 0d 3c bd 39 fc 07 3d 85 2b ea 3c 79 22 a0 3c
       -0.04591126 0.033199523 0.028585205 0.019547688
0000f0 db 4c 02 3d 7c 94 f7 3b 4d 89 bb 3c 42 da db bc
       0.031811576 0.0075555425 0.022892619 -0.026837472
000100 be 9d 88 bd 10 a7 bd bd 1e 60 ae 3c da b3 5b 3c
       -0.06670712 -0.0926038 0.021286067 0.013409579
000110 58 1f fa 3b 88 dd b5 3b 46 d0 08 bb 96 5f b7 3c
       0.007633131 0.00555009 -0.0020876094 0.022384446
000120 9b 75 c8 3c 7a b6 30 3c c4 90 59 bb 5e 4e 9a 3c
       0.024470141 0.010785693 -0.003319786 0.018836197
000130 60 db 05 3a 55 72 fc 3b 2f 8f 29 3d fe 00 4c 3c
       0.0005106237 0.007704059 0.041396316 0.012451408
000140 0c 5f 13 3b 18 2b 38 bc 69 cf 97 3b 34 0c ae 3b
       0.0022487072 -0.011240743 0.0046328795 0.0053115133
000150 58 6a 6c bc 02 55 8d bc 5b 74 39 3c e4 34 40 3d
       -0.014429651 -0.017252449 0.011319245 0.04692544
000160 cb 4b 34 bb 89 47 0e 3a 44 c4 54 bb bd 0b 85 bb
       -0.0027510996 0.00054275297 -0.0032465616 -0.004060237
000170 3f 76 f2 bc 70 e4 42 bc 51 4a 1b 3c 44 60 18 bb
       -0.0295974 -0.011895284 0.009478168 -0.0023250738
000180 d9 65 32 3b 8f df 82 bc 34 10 dd 3c 9e e8 72 bc
       0.002722135 -0.015975742 0.026985265 -0.014825968
000190 95 b2 5a bb 99 66 1c bd 22 83 36 3d d9 bd 16 3d
       -0.0033370603 -0.038183782 0.04455865 0.036802147
0001a0 2e ad da 3c a7 8b 50 bc 1a 5c 07 3d 4f d8 1e 39
       0.026693907 -0.012728608 0.03304682 0.00015148635
0001b0 81 f5 8d 3c 6d f1 fe 3c 56 98 92 bc a3 0a 4a bd
       0.01732898 0.03112098 -0.017894905 -0.04932655
0001c0 e1 83 2f 3d fd 54 9e 3c e9 cf c3 bc 4f 7f 17 3c
       0.04285038 0.019327635 -0.02390285 0.009246661
0001d0 36 5b e3 3b 01 56 e6 bc 99 88 03 3d 95 8d 34 bd
       0.0069383634 -0.028117182 0.03211269 -0.044080336
0001e0 00 42 a1 3c 18 c1 26 3c fa bf 99 3c d8 59 a5 bc
       0.019684792 0.010177873 0.0187683 -0.020184442
0001f0 8a cf 88 3c 4c 78 f6 3c c0 d9 8b bc 9e df 23 bd
       0.016700525 0.030086659 -0.017071605 -0.04000818

action_model._continuous_distribution.log_sigma f4 [1, 2]
000000 0a 77 c7 3e ad a0 81 3e
       0.38958007 0.25317898

action_model._continuous_distribution.mu.weight f4 [2, 128]
000000 b1 22 3d 3b 7c b8 46 3c b4 5c d1 ba c7 62 94 3a
       0.002885979 0.012128945 -0.0015973062 0.0011320942
000010 46 80 a2 bb 0f 74 8d 3a c6 38 5d 3a 02 4b a4 bb
       -0.004959139 0.0010792034 0.0008438941 -0.0050138244
000020 e0 36 21 3b 3b a8 b0 bd 7a bc 44 bc d7 c8 75 bc
       0.0024599358 -0.086258374 -0.012007827 -0.015001497
000030 9a a3 fc bc e2 73 02 3d e2 95 b6 ba e4 1b 65 bc
       -0.03083973 0.031848796 -0.0013930167 -0.0139837
000040 4d f4 ff bb e2 8e 05 3c a1 29 85 3c 7a 7e 89 3c
       -0.0078111053 0.008151742 0.016255202 0.016783942
000050 b4 5a 20 bc 33 7d 8d ba 64 53 f7 bc b2 55 83 bd
       -0.00978725 -0.0010794759 -0.030191131 -0.064128295
000060 70 78 97 3b 3f 20 84 bc 4c 4c 7b bb 05 09 e9 bc
       0.0046225116 -0.016128657 -0.0038345037 -0.028446684
000070 52 88 5a bc 98 81 77 3a 4b cc f4 bc 72 14 2d bc
       -0.013338165 0.0009441613 -0.02988257 -0.010563957
000080 ae 84 0c 3c 1f e0 0a bd 6c ea 85 bc bf 7f 2f 3c
       0.008576555 -0.033905145 -0.016347133 0.010711609
000090 93 83 ad b9 f7 07 92 ba ff 66 cb bc d2 72 ea 3c
       -0.00033095162 -0.001114129 -0.024829386 0.028619204
0000a0 c3 99 4f 3b 3c 9a 38 3b 78 bf 9a bc 83 11 e7 bb
       0.0031677342 0.0028168103 -0.018890128 -0.007051648
0000b0 1f 03 23 3a 9c ff 9c bd 93 48 09 3d 7a 05 8c 3b
       0.00062184216 -0.07665941 0.033516478 0.004273114
0000c0 e8 8e 45 3c 21 9e af bd 63 4d 40 3c c2 fd bd 3b
       0.012057997 -0.085750826 0.0117372 0.0057980726
0000d0 dd 46 5e 3c 06 76 d4 3c 57 16 a0 3c e4 ff 97 bc
       0.0135667 0.025935184 0.019541902 -0.018554635
0000e0 97 22 a5 3a 1d 4f 14 3d 60 d1 8f 3c dc fd 85 3c
       0.001259881 0.03620826 0.017555892 0.016356401
0000f0 8d 48 59 bd 6a 4a e3 bb a4 9a 65 bc 61 26 27 3a
       -0.053047705 -0.006936361 -0.01401392 0.00063762633
000100 e2 4f ff bb 61 95 eb 3b 1e 57 25 3d 83 3e ab 3b
       -0.007791505 0.007189438 0.040366285 0.005225958
000110 64 ef 3f 3b 53 8b ed 3c cf a9 8b bc 32 a0 b8 39
       0.0029286975 0.028997099 -0.017048744 0.0003521457
000120 a8 15 c5 bb 4e 35 a2 ba 72 ce ab 3b 66 27 11 3b
       -0.0060145445 -0.0012375505 0.005243116 0.0022148727
000130 c6 09 ab bb 5a b0 79 3c 23 01 e8 3b ac 96 19 bc
       -0.005219671 0.015239799 0.0070802136 -0.009374302
000140 40 90 8b 3c 32 7a 60 ba aa 62 74 bd 49 a3 94 ba
       0.017036557 -0.00085631304 -0.059664406 -0.0011340167
000150 ba 99 e9 bb fd 05 98 3a 27 9f 48 3d 67 ef ae bd
       -0.0071289213 0.0011598464 0.048979905 -0.08541756
000160 d8 19 2e 3c e3 0c 8e 3b 6b 3a c5 bb e2 eb c5 bc
       0.010626279 0.0043350323 -0.006018927 -0.02416033
000170 b3 ad db bb fc 4e 7c bb 29 51 90 3b 1a 0e 50 3a
       -0.006704056 -0.0038499227 0.0044042063 0.00079366716
000180 49 b6 69 3b b2 f4 03 bc 24 61 eb 3c 67 73 cb bc
       0.003566163 -0.008053945 0.028732844 -0.024835302
000190 28 23 73 bc 36 80 9f 39 32 d6 ba bb 09 20 1a bd
       -0.014839925 0.00030422368 -0.0057018036 -0.037628207
0001a0 dc 9c 7e ba df ff 27 bc e9 8b a1 39 d1 50 41 bd
       -0.0009712705 -0.0102538755 0.00030812554 -0.047196213
0001b0 8d e9 1a 3b 5b c7 5a 3d b0 18 5a bc 51 d9 5b bc
       0.0023637742 0.053412776 -0.01331155 -0.0134185115
0001c0 68 13 98 3c e7 bc ff b8 ab f1 8f b9 55 ec 3b bd
       0.018563941 -0.00012194533 -0.00027455142 -0.04587968
0001d0 7b 39 86 bb 4d f5 3d 3c da 65 84 bd a1 93 66 3b
       -0.0040962077 0.011594129 -0.06464739 0.0035183209
0001e0 ad 1b 92 bd 9d 1a bd bc e8 38 7d bb 44 48 65 bc
       -0.07134185 -0.02308398 -0.0038638655 -0.01399428
0001f0 1f c0 ca bc 4e bc 77 bd 4b 35 c9 bc 70 80 02 3d
       -0.024749814 -0.060482316 -0.024561545 0.03186077
000200 fa 1b 4c bc 4a 29 c7 bc 7f 11 14 3d 37 aa 99 3c
       -0.012457842 -0.02431168 0.036149498 0.018757923
000210 47 bb af bb ee 4c 33 3c fa f0 0b 3d 37 5a b8 3a
       -0.0053629014 0.010943634 0.03416536 0.0014064972
000220 3b e2 d3 bb dd 49 9b 3c 59 ec cd 3b da 53 20 3d
       -0.0064661778 0.01895612 0.0062842784 0.039142467
000230 f4 6c 24 3c 6c a5 be bb 50 9c e9 3c 53 67 84 bd
       0.010035742 -0.0058180597 0.028516918 -0.0646502
000240 82 89 23 3b c6 60 86 38 11 d9 13 3c 6f 5a 7b bc
       0.0024953787 6.4076434e-05 0.009023921 -0.015341385
000250 fc 47 f8 3c 7e b0 36 3a 12 31 7d 3d e4 ed f0 3c
       0.030307762 0.00069690484 0.061814375 0.02941031
000260 63 46 28 bb f2 88 a9 3c 7a dd 2d 3b 3d 71 4a 3d
       -0.002567672 0.020695183 0.0026529715 0.0494244
000270 33 4b 84 bd c4 5c 21 3d 0a 31 d6 3c 23 3b 43 bb
       -0.064596556 0.03939511 0.02614643 -0.0029789887
000280 51 b8 8c 3d 29 62 81 3c 6f 79 d1 3c 11 fc cb bc
       0.06871093 0.015793877 0.0255706 -0.024900468
000290 34 1b 43 37 76 75 f1 bb 4a 7e 1f 3d 21 14 48 3c
       1.1629239e-05 -0.0073687388 0.038938798 0.01221183
0002a0 2b c4 0f bc c6 dc 24 3d a1 ea 13 bc 95 63 88 3b
       -0.008774797 0.04024961 -0.009028108 0.0041622617
0002b0 de 0e 66 3b 35 0c 13 bd 90 2c 52 bc 23 3e bd bc
       0.0035104076 -0.035900313 -0.012828007 -0.023100918
0002c0 ac cc 50 3d 6b c7 28 3d af 88 ad 3b 29 01 60 bb
       0.05097644 0.041205805 0.005295835 -0.003418038
0002d0 8b 75 f8 3c be 5e 84 bc 3e e5 a0 bc ec ac fc bc
       0.030329486 -0.016158458 -0.019640561 -0.030844174
0002e0 cb 57 dd 3c ce ca 08 3d fa a1 20 bd 31 f9 97 bc
       0.027019402 0.033396535 -0.039216973 -0.01855144
0002f0 63 18 3e bd 9c 89 49 3c f1 08 c4 3c f2 ef 37 3b
       -0.046409976 0.012300875 0.023930045 0.0028066603
000300 b0 df 20 3c 9e b7 9b bd 5a 54 99 bc 44 88 38 bc
       0.009818956 -0.076033816 -0.01871698 -0.011262957
000310 25 e7 0f bd 7f b9 87 3d b1 f4 a8 39 30 57 cc 3c
       -0.035132546 0.066271774 0.00032225766 0.024943918
000320 f9 65 a3 3d 32 78 03 bc 87 2a 7b 3b 24 1a 0c bd
       0.07978434 -0.008024262 0.0038324909 -0.034204617
000330 63 37 38 3d 2e ed cb bb 5c 76 48 3d f7 40 e6 bc
       0.044974696 -0.0062233424 0.048941 -0.02810715
000340 05 d4 67 bd 03 06 a7 3b b7 98 8a bd db 92 b4 3c
       -0.056598682 0.005097152 -0.06767409 0.022042682
000350 e9 93 b4 bb f0 ff 21 ba a6 61 c5 3c c8 26 b7 3d
       -0.0055107963 -0.00061798 0.024094414 0.08942944
000360 71 e9 18 bc 87 e6 d8 3c 12 cd 2c 3c c3 25 d1 bc
       -0.0093330005 0.026477112 0.010546939 -0.025530702
000370 a5 1e 95 bb 61 6e b5 bb 2c f7 67 bb 66 4b 15 bc
       -0.0045507723 -0.00553684 -0.0035395129 -0.009112215
000380 67 bd 37 bc e5 96 50 bc 04 96 78 3c 9f 62 a9 bb
       -0.011214591 -0.012731289 0.015172485 -0.0051692273
000390 8d f7 6d 3c ff 56 11 3c 06 ed ac 3d 1e d6 6e 3d
       0.014524353 0.008870839 0.08443646 0.058309667
0003a0 2a 75 e4 bb b0 c6 ce 3c 2a e1 00 3d c6 27 09 3c
       -0.006971975 0.025241226 0.031464733 0.008371299
0003b0 8f b5 64 3d 92 18 b0 3b ad 02 dc 3b f8 34 b9 3c
       0.05583721 0.0053740228 0.006714186 0.022608265
0003c0 98 6c 3e 3d d6 fb 67 3d be 5d 64 3a f9 1b 08 bd
       0.04649028 0.056636654 0.00087114784 -0.0332298
0003d0 8b ba bd bc e4 79 e2 bc 59 0d b7 3b 79 c3 54 bc
       -0.02316024 -0.027646013 0.005586308 -0.012986057
0003e0 6a d4 04 bb 4c 8f d0 3c 96 d1 6d 3d df dd 4b bb
       -0.002026821 0.025458954 0.058061205 -0.0031107587
0003f0 7a ac 43 3d 64 55 b2 3d d1 ce 1c bc 47 c8 92 bc
       0.04777191 0.08707693 -0.009570793 -0.017917765

action_model._continuous_distribution.mu.bias f4 [2]
000000 7a 28 31 3c 65 47 00 3d
       0.010812873 0.031318087

action_model._discrete_distribution.branches.0.weight f4 [1, 128]
000000 04 98 10 bc 67 1f 4a bb c7 0f 55 3c d7 49 20 bb
       -0.008825306 -0.003084147 0.01300425 -0.0024458074
000010 b8 9d 75 bc 6b 6b 8e bb 23 0e f7 bb 6d a2 74 bc
       -0.014991216 -0.0043463013 -0.007539527 -0.014931303
000020 82 b3 f2 3b c7 fc ed bb 6b 17 a3 3b e3 71 1d 3b
       0.007406653 -0.0072627994 0.004977157 0.002402418
000030 1c aa b3 ba ef 63 53 3b b4 7e 41 3b 0f b4 b0 bc
       -0.0013707313 0.003225561 0.0029524984 -0.021570234
000040 67 ba 92 3b bb e5 41 bc 87 c2 7f ba 40 1b aa ba
       0.0044777873 -0.011834557 -0.0009756465 -0.0012978092
000050 2d f8 f2 3b 3f 1e c3 bb 13 33 5b bc 1b 1e 3e bc
       0.0074148388 -0.0059545333 -0.013378876 -0.011603857
000060 43 dc a5 3b 95 e2 89 bb 51 bf 04 3b 0a 56 fc 3b
       0.0050616576 -0.004207919 0.0020255635 0.0077006863
000070 32 35 7b bc 74 79 04 bc d7 47 b2 3b 6d 0d 83 ba
       -0.015332507 -0.008085597 0.005440693 -0.0009998508
000080 c3 05 3d 3c 0a 13 11 bc 8a 7e 5b bb 5e af a2 bc
       0.011537018 -0.008854637 -0.0033492171 -0.019859012
000090 98 83 0c 3b 71 50 42 bb 83 e5 aa 3b 1b 90 2b 3c
       0.002144074 -0.0029649998 0.005215348 0.010471369
0000a0 47 2e 84 bc 58 c3 2d 3c 48 76 fc bb 7a 59 51 bb
       -0.016135348 0.010605656 -0.00770453 -0.0031944201
0000b0 4b 07 36 bc 66 41 0a 3b 2f d7 3b bc c7 63 07 3c
       -0.011110137 0.002109611 -0.011464878 0.008263535
0000c0 58 a4 f3 ba da e0 20 bc 84 47 be 3b 92 60 34 3b
       -0.0018588407 -0.009819234 0.005806865 0.002752338
0000d0 12 68 85 bc cf 4a a0 3a bf d6 ed bb 32 9b 5a bc
       -0.016284976 0.0012229326 -0.0072582657 -0.0133426655
0000e0 f7 6d 3e bb 26 d4 a1 3c 81 dd 8e 3b a3 3e 0d 3b
       -0.0029057243 0.01975448 0.0043599014 0.0021552227
0000f0 9d 5f 16 bc 4d 84 68 ba c5 c8 6c 3c cf ac e7 3b
       -0.009178069 -0.0008869812 0.014452164 0.007070161
000100 8a 76 0f 38 81 6d 8f 3b 03 01 39 3b 9b 67 92 bb
       3.4204255e-05 0.0043770676 0.0028229363 -0.004467917
000110 17 8a 16 3c 30 e5 5a 3b e3 f1 86 bb 83 7f 10 bc
       0.009188197 0.0033400767 -0.0041181906 -0.008819464
000120 2a 86 02 bc d7 ab a2 3b 6d 1e 42 bb e3 08 ae bc
       -0.0079665575 0.0049643326 -0.0029620186 -0.021244472
000130 3d e0 72 bc 63 99 e8 bb 3b f6 15 3c c3 1c 59 3c
       -0.01482397 -0.0070983632 0.009152944 0.013251486
000140 00 81 0e bc 2c e5 27 bc 5f f4 37 3c fc 84 49 3c
       -0.008697748 -0.01024751 0.011227696 0.012299772
000150 f5 90 57 bc 5e 76 28 3c 6c b8 c6 3b f2 42 e3 bb
       -0.013157119 0.010282127 0.0060644653 -0.0069354707
000160 84 71 17 bc 82 4b 8b bc da d8 fa 3b 3b ca 72 3a
       -0.009243373 -0.017003778 0.0076552453 0.0009261702
000170 a4 79 2f 3c ed f3 30 3c 9a 08 7c bb ca 5f 2f 3b
       0.010710154 0.010800344 -0.0038457275 0.0026759976
000180 d5 10 08 bc c5 e1 91 3c 9b fd 12 3b 5f a2 78 3b
       -0.008304794 0.01780785 0.0022428993 0.0037938578
000190 89 49 b3 bb 21 1f a6 3b 95 1a 6f bc 00 49 bb 3b
       -0.0054714126 0.005069629 -0.01459374 0.0057154894
0001a0 56 a7 43 3b 78 34 04 bb b3 43 15 3c 55 30 4a bb
       0.0029854379 -0.0020172875 0.009110379 -0.0030851562
0001b0 a7 1c 99 39 ff 23 c4 bb cb 2c 64 3c 03 39 53 3c
       0.00029203782 -0.0059857364 0.013926695 0.012892011
0001c0 c8 b5 f5 b9 2f 48 1c bc bb 6e 4d 3c d2 ff fe bb
       -0.0004686548 -0.009538694 0.012538607 -0.007781961
0001d0 27 b1 4f 3b 6d 65 04 bc b3 7d 71 bb f0 b2 9f 3b
       0.0031691284 -0.008080822 -0.0036848604 0.004873626
0001e0 a8 43 25 3b a2 d3 04 3c a2 0e f5 3b 7b 11 b2 ba
       0.0025217328 0.008107098 0.007478551 -0.0013585532
0001f0 9b 32 2f 3c 67 bf 8c bb 37 58 24 3c ec 1f 9f bc
       0.010693218 -0.004295278 0.010030798 -0.019424401

exp_avg f4 [128, 114]
000000 42 63 6f b8 42 63 6f b8 42 63 6f b8 92 72 16 b8
       -5.707448e-05 -5.707448e-05 -5.707448e-05 -3.586949e-05
000010 cb 82 5e b6 79 47 b9 b7 da 53 98 b5 df 9e 9f b8
       -3.315671e-06 -2.2087e-05 -1.1349287e-06 -7.611303e-05
000020 e6 25 61 b7 de c9 97 37 7f 95 98 bc cf 4c 9c b9
       -1.3419869e-05 1.8094604e-05 -0.018625973 -0.00029811866
000030 3f 43 0d b8 7c 64 8e b8 16 38 1c b8 50 a1 a8 b7
       -3.3679647e-05 -6.789804e-05 -3.7245532e-05 -2.0102278e-05
000040 c0 d0 3a b8 c0 e9 39 b8 00 00 00 00 97 82 bf b5
       -4.454027e-05 -4.4325134e-05 0.0 -1.4268616e-06
000050 00 00 00 00 42 63 ef b7 97 82 bf b5 42 63 ef 37
       0.0 -2.853724e-05 -1.4268616e-06 2.853724e-05
000060 42 63 ef b7 97 82 bf b5 42 63 ef b7 42 63 ef 37
       -2.853724e-05 -1.4268616e-06 -2.853724e-05 2.853724e-05
000070 97 82 bf b5 42 63 ef b7 00 00 00 00 97 82 bf b5
       -1.4268616e-06 -2.853724e-05 0.0 -1.4268616e-06
000080 00 00 00 00 58 1f 92 b8 d1 8c 54 36 71 51 d2 b7
       0.0 -6.967661e-05 3.1672428e-06 -2.5071875e-05
000090 19 3c 53 37 6e 85 0c 36 58 1d 6f b8 58 1d 6f b8
       1.2590573e-05 2.0939292e-06 -5.700937e-05 -5.700937e-05
0000a0 58 1d 6f b8 6b 29 1c b8 32 52 8a b6 db 7c ab b7
       -5.700937e-05 -3.7231872e-05 -4.1222893e-06 -2.0442929e-05
0000b0 9a f5 cc b5 54 3d 9e b8 2e e8 51 b7 3b f7 92 37
       -1.5270664e-06 -7.54545e-05 -1.2511429e-05 1.7519682e-05
0000c0 e3 f6 98 bc c6 43 9c b9 46 4f 0c b8 7d c3 92 b8
       -0.018672412 -0.00029805134 -3.345243e-05 -6.998235e-05
0000d0 6a a5 11 b8 f8 0c ab b7 95 aa 3d b8 dc 58 3b b8
       -3.4724748e-05 -2.0390828e-05 -4.521998e-05 -4.466703e-05
0000e0 00 00 00 00 af 4a bf b5 00 00 00 00 58 1d ef b7
       0.0 -1.4252345e-06 0.0 -2.8504684e-05
0000f0 af 4a bf b5 58 1d ef 37 58 1d ef b7 af 4a bf b5
       -1.4252345e-06 2.8504684e-05 -2.8504684e-05 -1.4252345e-06
000100 58 1d ef b7 58 1d ef 37 af 4a bf b5 58 1d ef b7
       -2.8504684e-05 2.8504684e-05 -1.4252345e-06 -2.8504684e-05
000110 00 00 00 00 af 4a bf b5 00 00 00 00 bd d9 8f b8
       0.0 -1.4252345e-06 0.0 -6.859328e-05
000120 27 cd 94 35 de 83 ee b7 88 27 4c 37 e0 be d2 35
       1.1086566e-06 -2.8433216e-05 1.2168552e-05 1.5701771e-06
000130 08 46 69 b8 08 46 69 b8 08 46 69 b8 80 fd 20 b8
       -5.561675e-05 -5.561675e-05 -5.561675e-05 -3.8383063e-05
000140 be 6c 72 b6 bf 1a 95 b7 49 25 cc b5 7d e9 9b b8
       -3.6124106e-06 -1.7774639e-05 -1.5210036e-06 -7.4344665e-05
000150 f9 b9 2c b7 40 e9 8f 37 22 58 99 bc 65 73 9c b9
       -1.0295299e-05 1.7155544e-05 -0.018718783 -0.00029840614
000160 9e ae 07 b8 92 27 96 b8 af b8 07 b8 2b 0c b5 b7
       -3.2349133e-05 -7.159928e-05 -3.2358508e-05 -2.1582548e-05
000170 1d 87 39 b8 c1 86 3d b8 00 00 00 00 69 9e ba b5
       -4.423327e-05 -4.518661e-05 0.0 -1.3904183e-06
000180 00 00 00 00 08 46 e9 b7 69 9e ba b5 08 46 e9 37
       0.0 -2.7808375e-05 -1.3904183e-06 2.7808375e-05
000190 08 46 e9 b7 69 9e ba b5 08 46 e9 b7 08 46 e9 37
       -2.7808375e-05 -1.3904183e-06 -2.7808375e-05 2.7808375e-05
0001a0 69 9e ba b5 08 46 e9 b7 00 00 00 00 69 9e ba b5
       -1.3904183e-06 -2.7808375e-05 0.0 -1.3904183e-06
0001b0 00 00 00 00 0d 48 9c b8 fe 98 be 33 4d f3 f5 b7
       0.0 -7.45208e-05 8.8753936e-08 -2.9319572e-05
0001c0 cd d3 5a 37 98 cc b2 35 a3 23 c1 37 a3 23 c1 37
       1.3043126e-05 1.3321578e-06 2.3023988e-05 2.3023988e-05
0001d0 a3 23 c1 37 ab 95 68 b8 6d 58 65 b8 0f ae 03 38
       2.3023988e-05 -5.54525e-05 -5.4680208e-05 3.139494e-05
0001e0 f5 df 1c 37 72 ea 0f 3d 55 ba 2b 38 76 6f 17 b8
       9.350469e-06 0.035135694 4.0943112e-05 -3.610501e-05
0001f0 9a ac 93 37 c3 9f 08 b6 5e c5 c9 37 8c 4b b1 39
       1.760414e-05 -2.0358573e-06 2.4052973e-05 0.00033816358
000200 e0 da 4a 38 c9 03 6b b8 34 16 05 b8 8e 93 0e 38
       4.8364396e-05 -5.603189e-05 -3.173035e-05 3.399286e-05
000210 00 00 00 00 e6 82 1a 35 00 00 00 00 a3 23 41 37
       0.0 5.7559953e-07 0.0 1.1511994e-05
000220 e6 82 1a 35 a3 23 41 b7 a3 23 41 37 e6 82 1a 35
       5.7559953e-07 -1.1511994e-05 1.1511994e-05 5.7559953e-07
000230 a3 23 41 37 a3 23 41 b7 e6 82 1a 35 a3 23 41 37
       1.1511994e-05 -1.1511994e-05 5.7559953e-07 1.1511994e-05
000240 00 00 00 00 e6 82 1a 35 00 00 00 00 19 62 08 38
       0.0 5.7559953e-07 0.0 3.2516287e-05
000250 c2 fd 37 b6 ba 88 e7 b6 bc e4 c9 b7 9b 53 38 36
       -2.7416831e-06 -6.9002535e-06 -2.406758e-05 2.7466801e-06
000260 e2 d6 c1 37 e2 d6 c1 37 e2 d6 c1 37 8b a1 68 b8
       2.3107455e-05 2.3107455e-05 2.3107455e-05 -5.546356e-05
000270 1c 90 6d b8 fd 08 fe 37 f3 86 26 37 97 18 10 3d
       -5.6639416e-05 3.0283345e-05 9.925791e-06 0.0351797
000280 7b 39 2c 38 e4 3f 18 b8 0a c3 85 37 b5 c9 fb b4
       4.106153e-05 -3.6299127e-05 1.5945658e-05 -4.6899154e-07
000290 97 2a c5 37 0e 99 b0 39 d4 c5 4a 38 6f 6b 6a b8
       2.3504062e-05 0.0003368337 4.8344795e-05 -5.5890003e-05
0002a0 db 99 0c b8 63 4d 12 38 00 00 00 00 4a 12 1b 35
       -3.352189e-05 3.4881185e-05 0.0 5.7768614e-07
0002b0 00 00 00 00 e2 d6 41 37 4a 12 1b 35 e2 d6 41 b7
       0.0 1.1553728e-05 5.7768614e-07 -1.1553728e-05
0002c0 e2 d6 41 37 4a 12 1b 35 e2 d6 41 37 e2 d6 41 b7
       1.1553728e-05 5.7768614e-07 1.1553728e-05 -1.1553728e-05
0002d0 4a 12 1b 35 e2 d6 41 37 00 00 00 00 4a 12 1b 35
       5.7768614e-07 1.1553728e-05 0.0 5.7768614e-07
0002e0 00 00 00 00 81 97 03 38 92 d9 35 b6 6f c2 46 b7
       0.0 3.1373933e-05 -2.7097744e-06 -1.184699e-05
0002f0 37 32 cb b7 6b 57 2f 36 8c 79 cf 37 8c 79 cf 37
       -2.4222869e-05 2.6127916e-06 2.4732923e-05 2.4732923e-05
000300 8c 79 cf 37 5d ab 6d b8 27 48 71 b8 27 27 fd 37
       2.4732923e-05 -5.6664798e-05 -5.7526075e-05 3.0178182e-05
000310 49 60 3c 37 16 48 10 3d eb d6 30 38 59 81 16 b8
       1.1228091e-05 0.035224997 4.2161828e-05 -3.588325e-05
000320 27 77 6f 37 c2 f9 9e b5 74 bc c9 37 52 8f b0 39
       1.4273252e-05 -1.1844606e-06 2.4048823e-05 0.00033676118
000330 5e 1f 4a 38 22 a1 6e b8 91 c4 0c b8 26 c0 14 38
       4.8189766e-05 -5.689369e-05 -3.3561668e-05 3.5464902e-05
000340 00 00 00 00 d4 fa 25 35 00 00 00 00 8c 79 4f 37
       0.0 6.1832293e-07 0.0 1.2366461e-05
000350 d4 fa 25 35 8c 79 4f b7 8c 79 4f 37 d4 fa 25 35
       6.1832293e-07 -1.2366461e-05 1.2366461e-05 6.1832293e-07
000360 8c 79 4f 37 8c 79 4f b7 d4 fa 25 35 8c 79 4f 37
       1.2366461e-05 -1.2366461e-05 6.1832293e-07 1.2366461e-05
000370 00 00 00 00 d4 fa 25 35 00 00 00 00 13 e2 01 38
       0.0 6.1832293e-07 0.0 3.0966545e-05
000380 75 52 03 b6 3f b0 32 b7 5e 8f ca b7 53 25 34 36
       -1.9568517e-06 -1.0650662e-05 -2.4147037e-05 2.6843816e-06
000390 2e cb f5 b6 2e cb f5 b6 2e cb f5 b6 cc 29 f2 36
       -7.325222e-06 -7.325222e-06 -7.325222e-06 7.217028e-06
0003a0 0f 2b 80 b4 89 9e 7c 35 37 ea e8 b6 68 ac 14 39
       -2.3873187e-07 9.4108015e-07 -6.941405e-06 0.00014178606
0003b0 c8 b5 14 36 f0 0c 5d b6 73 24 60 3a 6c 8a 96 37
       2.215953e-06 -3.2939097e-06 0.0008550353 1.7945851e-05
0003c0 ec a6 cf 35 c3 70 59 39 a6 0a 98 b6 42 5a 11 37
       1.5471282e-06 0.0002073674 -4.5311926e-06 8.663688e-06
0003d0 ae 94 de 36 36 10 a8 36 00 00 00 00 86 a2 44 b4
       6.633424e-06 5.0086774e-06 0.0 -1.8313048e-07
0003e0 00 00 00 00 2e cb 75 b6 86 a2 44 b4 2e cb 75 36
       0.0 -3.662611e-06 -1.8313048e-07 3.662611e-06
0003f0 2e cb 75 b6 86 a2 44 b4 2e cb 75 b6 2e cb 75 36
       -3.662611e-06 -1.8313048e-07 -3.662611e-06 3.662611e-06

exp_avg_sq f4 [128, 114]
000000 2e 88 b5 34 2e 88 b5 34 2e 88 b5 34 e4 c6 18 33
       3.381296e-07 3.381296e-07 3.381296e-07 3.5571148e-08
000010 e1 69 5d 33 0e e8 33 33 4a e5 87 36 bb 98 80 3e
       5.155187e-08 4.1887738e-08 4.0500063e-06 0.25116524
000020 16 3c 25 37 b7 ae ed 36 11 02 de 3e c9 f4 ed 37
       9.848756e-06 7.08349e-06 0.43360952 2.8366589e-05
000030 64 d9 96 35 7d b4 87 3c 4a d3 d5 34 ca 54 f1 33
       1.123914e-06 0.016565556 3.9828075e-07 1.123786e-07
000040 32 de 05 34 41 92 02 34 00 00 00 00 78 5c 68 2f
       1.2467424e-07 1.21604e-07 0.0 2.1133129e-10
000050 00 00 00 00 2e 88 b5 33 78 5c 68 2f 2e 88 b5 33
       0.0 8.45324e-08 2.1133129e-10 8.45324e-08
000060 2e 88 b5 33 78 5c 68 2f 2e 88 b5 33 2e 88 b5 33
       8.45324e-08 2.1133129e-10 8.45324e-08 8.45324e-08
000070 78 5c 68 2f 2e 88 b5 33 00 00 00 00 78 5c 68 2f
       2.1133129e-10 8.45324e-08 0.0 2.1133129e-10
000080 00 00 00 00 1d 1a 6d 34 95 da 4d 34 f4 d6 64 34
       0.0 2.2081845e-07 1.9171632e-07 2.1312354e-07
000090 2f a8 3c 34 24 c7 2e 34 1c ac b5 34 1c ac b5 34
       1.7570049e-07 1.627746e-07 3.3839103e-07 3.3839103e-07
0000a0 1c ac b5 34 9e cd 17 33 cd 0d 58 33 17 56 32 33
       3.3839103e-07 3.5344435e-08 5.030397e-08 4.1522153e-08
0000b0 8a 25 88 36 55 13 81 3e 7c 90 25 37 b6 3b ee 36
       4.057486e-06 0.25210062 9.868407e-06 7.099904e-06
0000c0 16 db de 3e c9 72 ee 37 7d 17 97 35 9f 4d 88 3c
       0.43526524 2.8425262e-05 1.1257213e-06 0.016638575
0000d0 5a f8 d5 34 d9 4c f1 33 a3 9f 04 34 d6 41 02 34
       3.985504e-07 1.12364155e-07 1.2351533e-07 1.2131144e-07
0000e0 00 00 00 00 6d 8a 68 2f 00 00 00 00 1c ac b5 33
       0.0 2.1149456e-10 0.0 8.459776e-08
0000f0 6d 8a 68 2f 1c ac b5 33 1c ac b5 33 6d 8a 68 2f
       2.1149456e-10 8.459776e-08 8.459776e-08 2.1149456e-10
000100 1c ac b5 33 1c ac b5 33 6d 8a 68 2f 1c ac b5 33
       8.459776e-08 8.459776e-08 2.1149456e-10 8.459776e-08
000110 00 00 00 00 6d 8a 68 2f 00 00 00 00 aa c5 6c 34
       0.0 2.1149456e-10 0.0 2.2051123e-07
000120 32 7a 4e 34 5b 17 65 34 87 3c 3c 34 6f ee 2e 34
       1.92297e-07 2.1335784e-07 1.7530884e-07 1.6291754e-07
000130 c4 b1 b5 34 c4 b1 b5 34 c4 b1 b5 34 4f 86 16 33
       3.384322e-07 3.384322e-07 3.384322e-07 3.504675e-08
000140 1b 99 52 33 de ff 30 33 cd 64 88 36 50 8e 81 3e
       4.9033684e-08 4.1210903e-08 4.0648506e-06 0.25303888
000150 0d e6 25 37 02 c8 ee 36 f3 b4 df 3e 09 f2 ee 37
       9.888329e-06 7.1162367e-06 0.4369274 2.8484517e-05
000160 32 52 97 35 23 e7 88 3c d3 1a d6 34 af fe f0 33
       1.1274299e-06 0.016711777 3.9880123e-07 1.12221976e-07
000170 5b 66 03 34 24 e9 01 34 00 00 00 00 87 91 68 2f
       1.2237562e-07 1.2098877e-07 0.0 2.1151979e-10
000180 00 00 00 00 c4 b1 b5 33 87 91 68 2f c4 b1 b5 33
       0.0 8.460805e-08 2.1151979e-10 8.460805e-08
000190 c4 b1 b5 33 87 91 68 2f c4 b1 b5 33 c4 b1 b5 33
       8.460805e-08 2.1151979e-10 8.460805e-08 8.460805e-08
0001a0 87 91 68 2f c4 b1 b5 33 00 00 00 00 87 91 68 2f
       2.1151979e-10 8.460805e-08 0.0 2.1151979e-10
0001b0 00 00 00 00 c7 4a 6d 34 56 4e 4f 34 bd 31 66 34
       0.0 2.2099549e-07 1.9306876e-07 2.1438514e-07
0001c0 b3 85 3c 34 e8 0c 2f 34 9a a1 13 34 9a a1 13 34
       1.7557504e-07 1.630284e-07 1.3749232e-07 1.3749232e-07
0001d0 9a a1 13 34 55 3d 21 33 63 bd 38 33 75 af 30 33
       1.3749232e-07 3.7541515e-08 4.3013085e-08 4.113777e-08
0001e0 ed 85 74 34 c3 a1 9d 3e c5 fb 2f 35 7a 70 05 34
       2.2772993e-07 0.30787477 6.5558953e-07 1.2427509e-07
0001f0 0f c0 6d 3b bd 94 1d 35 cf 3b 44 35 04 cc 88 3d
       0.0036277806 5.87035e-07 7.310272e-07 0.06679538
000200 47 f3 12 36 b8 67 54 33 e6 0b b5 38 ae e2 93 33
       2.1897301e-06 4.9454428e-08 8.632969e-05 6.886454e-08
000210 00 00 00 00 b2 f7 bc 2e 00 00 00 00 9a a1 13 33
       0.0 8.59325e-11 0.0 3.437308e-08
000220 b2 f7 bc 2e 9a a1 13 33 9a a1 13 33 b2 f7 bc 2e
       8.59325e-11 3.437308e-08 3.437308e-08 8.59325e-11
000230 9a a1 13 33 9a a1 13 33 b2 f7 bc 2e 9a a1 13 33
       3.437308e-08 3.437308e-08 8.59325e-11 3.437308e-08
000240 00 00 00 00 b2 f7 bc 2e 00 00 00 00 c7 72 8c 33
       0.0 8.59325e-11 0.0 6.540136e-08
000250 f9 19 55 33 1d 75 bf 33 ae 90 89 33 3a 70 51 33
       4.961655e-08 8.9154334e-08 6.405877e-08 4.8763674e-08
000260 95 b6 13 34 95 b6 13 34 95 b6 13 34 d5 75 21 33
       1.3756865e-07 1.3756865e-07 1.3756865e-07 3.75929e-08
000270 5c 61 37 33 2b 48 30 33 79 5a 75 34 13 2a 9e 3e
       4.2696556e-08 4.104383e-08 2.2850317e-07 0.30891475
000280 ec 7a 30 35 74 ab 05 34 d6 96 6e 3b e5 d1 1d 35
       6.5743984e-07 1.2448965e-07 0.0036405823 5.8792494e-07
000290 48 c1 44 35 be 5e 89 3d 06 44 13 36 84 72 54 33
       7.329695e-07 0.06707524 2.1944302e-06 4.9464248e-08
0002a0 9e d3 b5 38 44 e4 93 33 00 00 00 00 92 12 bd 2e
       8.670169e-05 6.886742e-08 0.0 8.598024e-11
0002b0 00 00 00 00 95 b6 13 33 92 12 bd 2e 95 b6 13 33
       0.0 3.4392162e-08 8.598024e-11 3.4392162e-08
0002c0 95 b6 13 33 92 12 bd 2e 95 b6 13 33 95 b6 13 33
       3.4392162e-08 8.598024e-11 3.4392162e-08 3.4392162e-08
0002d0 92 12 bd 2e 95 b6 13 33 00 00 00 00 92 12 bd 2e
       8.598024e-11 3.4392162e-08 0.0 8.598024e-11
0002e0 00 00 00 00 72 6c 8c 33 a7 ad 54 33 fd 38 bf 33
       0.0 6.538984e-08 4.9518032e-08 8.904497e-08
0002f0 cc a9 89 33 55 9a 51 33 65 c5 13 34 65 c5 13 34
       6.4104455e-08 4.880197e-08 1.3762254e-07 1.3762254e-07
000300 65 c5 13 34 23 f4 20 33 80 29 36 33 f5 a9 2f 33
       1.3762254e-07 3.7474944e-08 4.241292e-08 4.0899938e-08
000310 cd dd 75 34 cb b2 9e 3e 98 d5 30 35 66 e4 05 34
       2.2898094e-07 0.30995783 6.587593e-07 1.2469681e-07
000320 26 6e 6f 3b dd 10 1e 35 7e 40 45 35 00 f2 89 3d
       0.003653416 5.8884126e-07 7.348207e-07 0.06735611
000330 f8 95 13 36 1a 48 54 33 12 9c b6 38 24 ea 93 33
       2.1992e-06 4.9425672e-08 8.707507e-05 6.887811e-08
000340 00 00 00 00 9d 25 bd 2e 00 00 00 00 65 c5 13 33
       0.0 8.6014064e-11 0.0 3.4405634e-08
000350 9d 25 bd 2e 65 c5 13 33 65 c5 13 33 9d 25 bd 2e
       8.6014064e-11 3.4405634e-08 3.4405634e-08 8.6014064e-11
000360 65 c5 13 33 65 c5 13 33 9d 25 bd 2e 65 c5 13 33
       3.4405634e-08 3.4405634e-08 8.6014064e-11 3.4405634e-08
000370 00 00 00 00 9d 25 bd 2e 00 00 00 00 44 8a 8c 33
       0.0 8.6014064e-11 0.0 6.5444084e-08
000380 45 92 54 33 9a 81 bf 33 c4 4b 89 33 6d 31 52 33
       4.9493128e-08 8.917705e-08 6.393341e-08 4.8939388e-08
000390 91 d0 8e 32 91 d0 8e 32 91 d0 8e 32 f0 fa 8b 31
       1.662582e-08 1.662582e-08 1.662582e-08 4.0739607e-09
0003a0 24 55 9b 31 45 ea a0 31 e1 ed 1a 34 30 89 b8 3c
       4.520773e-09 4.6832462e-09 1.4428907e-07 0.022526354
0003b0 63 bd fc 34 35 e5 f3 33 87 e0 e4 3b 10 f9 15 35
       4.7076455e-07 1.1357262e-07 0.0069847736 5.586926e-07
0003c0 a2 f2 0f 35 9b f9 68 3d 5f a3 07 36 f0 de c5 33
       5.362473e-07 0.056878667 2.0211662e-06 9.2140795e-08
0003d0 c4 be 90 3b 7d 9f af 34 00 00 00 00 78 cd 36 2d
       0.0044172723 3.2712333e-07 0.0 1.03911255e-11
0003e0 00 00 00 00 91 d0 8e 31 78 cd 36 2d 91 d0 8e 31
       0.0 4.156455e-09 1.03911255e-11 4.156455e-09
0003f0 91 d0 8e 31 78 cd 36 2d 91 d0 8e 31 91 d0 8e 31
       4.156455e-09 1.03911255e-11 4.156455e-09 4.156455e-09
