results/ag08/PlatformRotate/PlatformRotate-2689686.pt (torch, 772425 bytes, 39 tensors)

network_body._body_endoder.seq_layers.0.weight f4 [128, 114]
0	0x3d6de9cc	0.058084294
1	0xbd5abb33	-0.053401183
2	0xbdc6bf16	-0.097044155
3	0x3e3fea7e	0.18741795
4	0x3d80c920	0.062883615
5	0x3e7096f0	0.23495078
6	0x3e430c50	0.19047666
7	0x3dde63ef	0.108589046
8	0x3e31ff94	0.17382652
9	0x3dc29fa8	0.09503108
10	0x3dd5242f	0.10407292
11	0x3d0aaee9	0.033858214
12	0x3e0536d1	0.13009192
13	0x3db12750	0.086500764
14	0xbc1520cc	-0.009102058
15	0x3dc6087f	0.09669589
16	0xbbc0304c	-0.0058651324
17	0x3ca2e82a	0.019886095
18	0xbcfa03bd	-0.03051936
19	0x3e124f19	0.14287986
20	0x3ca84084	0.020538576
21	0x3d1c7fbb	0.03820775
22	0x3d43b9db	0.047784667
23	0xbcc8262c	-0.024432264
24	0x3cfa3820	0.03054434
25	0xbe1a5601	-0.1507187
26	0xbc717b8d	-0.014738929
27	0xbd57e077	-0.0527043
28	0x3d44ead3	0.04807551
29	0x3d70fe8a	0.058836497
30	0xbd45e130	-0.04831046
31	0xbd1a9dc9	-0.037748132
32	0x3e74165f	0.23836659
33	0x3d032a5e	0.032022826
34	0x3cf692a7	0.030099226
35	0x3c29a14a	0.010353396
36	0x3c0cd64f	0.008596017
37	0x3ca329bd	0.019917363
38	0xbd1723f2	-0.036899514
39	0x3d04f489	0.03245977
40	0x3df81aa5	0.12114457
41	0x3e387cc1	0.1801634
42	0xbe53a950	-0.20670056
43	0x3e9684ce	0.29398197
44	0x3d228382	0.039676197
45	0x3db74a37	0.08949702
46	0x3c60fb67	0.013731814
47	0x3d87c42e	0.06629215
48	0xbe029771	-0.12753083
49	0x3cd3c949	0.025852816
50	0x3e013c54	0.1262067
51	0x3df847e1	0.12123085
52	0x3da1afd2	0.07894863
53	0x3e3aec88	0.18254292
54	0x3d9f9f6d	0.0779408
55	0x3dc15862	0.09440686
56	0xbd3913c9	-0.045184884
57	0xbcf74644	-0.030184872
58	0x3d7eec57	0.06223711
59	0xbd9b98aa	-0.07597478
60	0xbd1ab050	-0.0377658
61	0xbe366cab	-0.17814891
62	0xbcf0697b	-0.029347172
63	0x3dc36c18	0.095421016
64	0x3e62ef0a	0.22161499
65	0xbd69b43f	-0.05705666
66	0x3bffc6fe	0.007805704
67	0xbd93dbe0	-0.07219672
68	0x3e0fdda5	0.14049394
69	0xbd57ab04	-0.052653328
70	0xbd989572	-0.074503794
71	0x3b22b5d1	0.002482761
72	0x3d51b086	0.051193736
73	0xbdbcc71a	-0.09217663
74	0xbc3c2d47	-0.011485404
75	0x3e46966e	0.19393322
76	0x3e369ce0	0.1783328
77	0x3c50f776	0.012754312
78	0x3a6fbba1	0.00091450854
79	0x3d918e9d	0.071072794
80	0x3d789054	0.060684517
81	0xb99c79f9	-0.00029845515
82	0x3e429a8f	0.19004272
83	0x3d3077d5	0.04308303
84	0xbd26e822	-0.040748723
85	0x3df4c723	0.11952045
86	0xbe74179c	-0.23837131
87	0x3d9ee554	0.077585846
88	0x3e525eab	0.20543925
89	0xbd3c4b8f	-0.045970496
90	0xbd249147	-0.04017761
91	0x3e26b3ae	0.1627948
92	0x3d41e93b	0.047341567
93	0x3cc42d39	0.023947345
94	0xbdaa9a5f	-0.08330225
95	0x3bd447fa	0.006478307
96	0xbc84909a	-0.016182233
97	0x3e2b0142	0.16699699
98	0x3e0f4ef6	0.13994965
99	0x3daf971d	0.085737444
100	0xbe026c17	-0.12736546
101	0x3e8357a0	0.2565279
102	0x3ddcbd41	0.10778285
103	0x3c1c4ce1	0.009539814
104	0xbd5b7265	-0.053575892
105	0x3e3bfb3e	0.1835756
106	0xbd1d177c	-0.038352475
107	0xbe00293d	-0.12515731
108	0x3d3a2ee8	0.04545489
109	0x3dc2c571	0.09510315
110	0x3d31ca2d	0.0434057
111	0x3d01c983	0.031686317
112	0xbdb0f2cf	-0.08640062
113	0x3ca4decb	0.020125767
114	0x3c014dde	0.0078921
115	0x3e67ea40	0.22647953
116	0x3dc7ba9d	0.097523905
117	0xbcbc9bbf	-0.023023484
118	0x3d31f7df	0.04344928
119	0x3deca861	0.11555553
120	0x3ce505fd	0.027956957
121	0xbe473c79	-0.19456662
122	0x3d8ab54c	0.06772861
123	0x3d0bc852	0.034126587
124	0xbcaa85ff	-0.020815847
125	0xbe49cb72	-0.19706514
126	0x3dcbd90c	0.09953508
127	0xbd817e8a	-0.063229635
128	0xbe19165f	-0.1494994
129	0xbd94538d	-0.072424985
130	0x3e15371f	0.14571808
131	0xbd4e7e41	-0.050413374
132	0x3bf62db5	0.007512773
133	0xbcc397ab	-0.023876032
134	0xbdba133d	-0.09085701
135	0x3bd93fab	0.0066299043
136	0xbcf62349	-0.030046122
137	0x3cf11a32	0.029431436
138	0xbd818794	-0.063246876
139	0x3d9f0be7	0.07765942
140	0x3b9aa07a	0.0047188373
141	0xbd4ee604	-0.05051233
142	0x3d73a6bf	0.059485193
143	0x3e431185	0.19049652
144	0x3d463efe	0.048399918
145	0x3dfe685d	0.124222495
146	0xbdddf4d9	-0.108377166
147	0x3e57be4d	0.21068688
148	0x39ea3813	0.00044673737
149	0xbdd6f24c	-0.10495433
150	0x3dd23574	0.102641016
151	0xbcd18045	-0.025573859
152	0xbd0deaa7	-0.03464761
153	0xbd12a12d	-0.03579824
154	0xbe1ea6a1	-0.15493251
155	0x3dda7dd2	0.106685296
156	0x3e4eae32	0.20183638
157	0x3be0ce80	0.006860554
158	0x3c38ee90	0.0112873465
159	0x3dc7288d	0.09724531
160	0xbdd11b4d	-0.10210285
161	0x3df0d525	0.11759404
162	0x3e88de60	0.2673216
163	0xbe351e90	-0.1768744
164	0x3e5d5241	0.21613409
165	0xbe01147b	-0.12605469
166	0x3d232f0d	0.039839793
167	0x3b4e017a	0.0031433986
168	0x3dcfb921	0.101427324
169	0xbe3375a8	-0.17525351
170	0xbe0a7bf3	-0.13523845
171	0x3df648e6	0.12025623
172	0x3d479b62	0.04873217
173	0xbd80e0f0	-0.062929034
174	0x3cb4f1ae	0.022087898
175	0xbd1250cd	-0.03572159
176	0x3d43353c	0.04765819
177	0xbd1fa4f4	-0.03897567
178	0x3e4237cb	0.18966596
179	0xbd2c920c	-0.04213147
180	0x3e4f4071	0.20239426
181	0x3e4fbdef	0.20287298
182	0xbda1cddf	-0.07900595
183	0x3c0f84d9	0.008759701
184	0xbdf9c5e7	-0.1219595
185	0x3e21f998	0.15817869
186	0xbdfb47bd	-0.12269542
187	0x3d70f67d	0.05882882
188	0x3dae13e3	0.08499887
189	0xbdc2ad0b	-0.095056616
190	0x3db878f3	0.09007444
191	0x3d409ca7	0.047024395
192	0x3b1f6a89	0.0024324975
193	0x3e142748	0.1446811
194	0x3df3e90c	0.119096845
195	0xbc210c45	-0.009829585
196	0x3dcf3260	0.1011703
197	0xbe22161f	-0.15828751
198	0xbc63f308	-0.013912924
199	0xbc6fa651	-0.014627055
200	0x3da39881	0.07988072
201	0xbd0a99e4	-0.033838168
202	0x3d90aec1	0.07064582
203	0xbd834035	-0.06408731
204	0x3d487a2f	0.04894465
205	0xbdbe4fdc	-0.09292576
206	0x3d365818	0.044517606
207	0xbddc21c2	-0.10748626
208	0x3d43329b	0.047655683
209	0xbe064fc7	-0.1311637
210	0xbdb3b38e	-0.08774482
211	0x3d9ada45	0.07561163
212	0xbc26d156	-0.0101817455
213	0xbcddf5b7	-0.027094705
214	0x3dcfd31b	0.10147687
215	0xbdc60114	-0.096681744
216	0xbe373873	-0.17892627
217	0xbe2eb974	-0.17062932
218	0x3e002c5c	0.12516922
219	0xbd89c35f	-0.06726717
220	0x3de1049b	0.109872065
221	0xbcbf78d8	-0.023373052
222	0x3bfe189e	0.0077543994
223	0xbdbe7c71	-0.09301079
224	0xbdce082e	-0.10060154
225	0x3c98a289	0.01863219
226	0x3dc39cb9	0.09551377
227	0x3d5f6ccf	0.054547127
228	0x3e31b322	0.1735349
229	0xbe0f1d96	-0.1397613
230	0x3e46a194	0.19397575
231	0xbd9059a9	-0.07048351
232	0x3d54ada3	0.051923405
233	0x3c3e3123	0.011608395
234	0xbda1348e	-0.07871352
235	0x3cf9da41	0.03049958
236	0xbc6d716a	-0.014492372
237	0xbc7dbbcb	-0.015486668
238	0xbdce24b9	-0.10065598
239	0x3deb9895	0.11503712
240	0xbc62c3b1	-0.013840602
241	0xbdb73626	-0.08945875
242	0x3e452dc9	0.19255747
243	0xbda400ba	-0.08007951
244	0xbd75cef8	-0.060011834
245	0xbdc74148	-0.09729248
246	0x3ded3f23	0.11584308
247	0xbde65e30	-0.112484336
248	0x3d2f2809	0.04276279
249	0x3da8f45d	0.082497336
250	0xbd2a553a	-0.041585185
251	0xbd8aacbf	-0.0677123
252	0x3d613860	0.054985404
253	0xbd29f153	-0.04148991
254	0xbb852d08	-0.004064206
255	0x3e063aae	0.13108322

network_body._body_endoder.seq_layers.0.bias f4 [128]
0	0x3cc9a629	0.024615364
1	0x3c65f570	0.014035568
2	0xbbb63d65	-0.005561518
3	0x3c94094e	0.018070843
4	0xbc947d5e	-0.018126186
5	0xbbafac3b	-0.0053611076
6	0x3d53ba7b	0.051691514
7	0x3c0d6694	0.008630414
8	0x3d0563d1	0.032565895
9	0x3bf1157a	0.0073572965
10	0xbc696623	-0.014245543
11	0x3c54a26f	0.01297818
12	0x3d4d9c9c	0.050198182
13	0x3c51e886	0.012811786
14	0xbc47d89e	-0.012197642
15	0x3bd763a7	0.006573159
16	0x3ca3e129	0.020004826
17	0xbc398f23	-0.01132563
18	0xbc94d20f	-0.01816657
19	0xbc90b8df	-0.017666278
20	0x3c246a0d	0.01003505
21	0x3ccdca68	0.025120929
22	0x3c614894	0.013750214
23	0x3cf2cc03	0.029638296
24	0xbcadcf05	-0.021216879
25	0xbc61fa6b	-0.013792614
26	0xbd4781e1	-0.048707847
27	0x3cd135c2	0.025538329
28	0x3c952ba8	0.018209293
29	0xbc727272	-0.014797794
30	0xbcbcd7ce	-0.023052122
31	0xbc7afa99	-0.015318536
32	0xbc94a1fc	-0.018143646
33	0xbd22963b	-0.039694052
34	0xbd3cda63	-0.046106707
35	0xbcb02d02	-0.021505836
36	0x3c6dd614	0.014516372
37	0xbc9ecd2f	-0.019384949
38	0xbc30f8dd	-0.010801521
39	0x3cbc1422	0.022958819
40	0x3ccaba2c	0.024746977
41	0x3b8255ff	0.0039775367
42	0x3c40a34c	0.011757683
43	0xbcdc92b8	-0.02692543
44	0x3cba74ed	0.022760833
45	0xbc32d23b	-0.010914381
46	0x3b225107	0.0024767534
47	0x3c0163e2	0.007897349
48	0xbc3ccfc1	-0.011524142
49	0x3c971ffc	0.018447869
50	0x3c65641d	0.01400092
51	0x3d30b2fe	0.04313945
52	0xbba9235f	-0.0051616873
53	0xbc7b72f8	-0.015347235
54	0xbcb437eb	-0.02199932
55	0xbd08832e	-0.033328228
56	0x3d34d33f	0.044146772
57	0x3c2b1151	0.01044114
58	0x3c4cbe17	0.012496493
59	0x3ccbc78e	0.024875429
60	0x3b9b48ad	0.0047388882
61	0x3c833957	0.016018553
62	0xbcc4ebfc	-0.024038307
63	0x3a54e5d7	0.0008121407
64	0xbb464eaf	-0.0030259301
65	0x3be77857	0.007063906
66	0xbb32c443	-0.0027277626
67	0xbc6f6944	-0.0146125
68	0xbc0f9c40	-0.00876528
69	0x3b620c66	0.0034492253
70	0xbd16821d	-0.03674518
71	0x3d42afdd	0.047530998
72	0xbc21f2bc	-0.009884533
73	0x3bc7f4b7	0.0061021703
74	0xbc48d45b	-0.012257661
75	0xbcd806b5	-0.026370386
76	0x3ca6f7ed	0.020381892
77	0xbc1d0827	-0.009584463
78	0x3cf8c0b1	0.03036532
79	0xbb9a94f1	-0.004717462
80	0xb986037e	-0.00025561074
81	0xbc0bb299	-0.008526468
82	0x3cc4313c	0.023949258
83	0x3cc7bf6a	0.024383266
84	0x3b96c859	0.00460152
85	0x3d03e384	0.032199398
86	0x3bd9bf8b	0.006645148
87	0x3ce2de38	0.027693853
88	0x3c26d26f	0.010182007
89	0xbc4958b4	-0.012289215
90	0x3bd3ffa6	0.0064696847
91	0x3b81d4a0	0.0039621145
92	0x3bcc8726	0.006241697
93	0x3c34352d	0.010999006
94	0xbc988dc1	-0.018622281
95	0x3b93841e	0.0045018336
96	0x3c6ebfab	0.014572064
97	0x3cd11e07	0.025527013
98	0xbd404dc2	-0.046949156
99	0x3bef63a1	0.007305578
100	0x3c9b80e9	0.018982368
101	0xbbfe5a59	-0.007762235
102	0x3c5c4ebf	0.013446509
103	0x3cc10a14	0.023564376
104	0x3cce8ae9	0.025212722
105	0x3bca957f	0.006182372
106	0x3b2269ee	0.0024782377
107	0x3cdc71df	0.026909767
108	0xbd003875	-0.03130384
109	0x3cec2546	0.028826367
110	0x3cedc0a9	0.029022532
111	0xbc9297d9	-0.017894672
112	0xbd57df64	-0.052703276
113	0xbc5c169a	-0.013433123
114	0x3beb1591	0.007174202
115	0x3c168b2b	0.009188454
116	0xbcdc7e0e	-0.026915576
117	0xbccb5735	-0.024821857
118	0xbd1da7e1	-0.03849018
119	0x3cd56f7c	0.026054136
120	0xbb234d03	-0.0024917729
121	0xbc3a90d3	-0.011387068
122	0xbc2f20b9	-0.010688954
123	0x3d2c703b	0.04209922
124	0x3c93edb1	0.018057676
125	0x3c9d6916	0.019215148
126	0xbcc5d802	-0.024150852
127	0xbc454e74	-0.01204263

network_body._body_endoder.seq_layers.2.weight f4 [128, 128]
0	0x3e06ea55	0.13175328
1	0x3cfe4a8e	0.03104141
2	0x3e45087e	0.19241521
3	0x3d8786c1	0.06617499
4	0xbdb2c88a	-0.08729656
5	0xbc65a3de	-0.01401612
6	0xbe6a687e	-0.22891423
7	0x3df727b9	0.12068123
8	0x3da98ec4	0.082791835
9	0xbdf5da41	-0.12004519
10	0x3cbe7585	0.023249397
11	0xbd8cf729	-0.068830796
12	0x3d801ab9	0.06255097
13	0xbe3a10ef	-0.18170522
14	0xbd2a1882	-0.04152728
15	0x3da877b3	0.08225956
16	0xbcf5880d	-0.0299721
17	0xbd635b0c	-0.05550675
18	0xbe6a7615	-0.22896607
19	0xbd008eeb	-0.031386297
20	0x3d95d784	0.07316497
21	0x3c0fec69	0.008784392
22	0xbd17724b	-0.036974233
23	0xbce72472	-0.02821562
24	0x3d437d99	0.0477272
25	0xbdf5cc7c	-0.12001893
26	0x3c95ff28	0.018310145
27	0xbde2757a	-0.11057563
28	0x3da263bf	0.07929181
29	0x3c7ba9e4	0.015360329
30	0xbc108a24	-0.008821998
31	0xbd00811e	-0.031373136
32	0x3dac983b	0.08427473
33	0xbd6db7f3	-0.058036756
34	0x3ce705f2	0.028201077
35	0xbd703f48	-0.0586541
36	0xbd574eac	-0.05256526
37	0xbe1ecac1	-0.15507032
38	0x3d44b5ab	0.048024815
39	0xbd35d8e8	-0.04439631
40	0x3e6fc561	0.23415138
41	0xbe388cfe	-0.18022534
42	0x3daccf1c	0.084379405
43	0x3e0a2fcd	0.13494797
44	0x3d7d9385	0.061908264
45	0x3d7cff2f	0.0617668
46	0xbbd88a4e	-0.006608284
47	0xbd10037e	-0.03515958
48	0x3d2bad9a	0.041913606
49	0x3be259f1	0.0069076945
50	0x3e0ac989	0.13553442
51	0x3e469e68	0.19396365
52	0xbe156f57	-0.14593254
53	0xbd0dfc4a	-0.03466443
54	0xbda8ebc3	-0.08248093
55	0x3e15a1cd	0.14612503
56	0xbc596ce1	-0.013270588
57	0x3b312fa2	0.0027036448
58	0x3c37141c	0.011174228
59	0xbc8faf19	-0.017539548
60	0xbcddb812	-0.02706531
61	0xbe24b04b	-0.16082875
62	0xbbee87f0	-0.0072793886
63	0x3d4f18cf	0.05056077
64	0xbdab0cce	-0.08352052
65	0x3dbd141b	0.092323504
66	0x3a815cd4	0.0009869584
67	0xbc8afdb5	-0.01696668
68	0x3cc0c38b	0.023530742
69	0xbdd80fed	-0.105499126
70	0x3e4e2c69	0.20134129
71	0x3e65841a	0.22413674
72	0xbd371469	-0.0446972
73	0x3db735b8	0.08945793
74	0x3d632dec	0.055463716
75	0xbde263c3	-0.11054184
76	0x3d2a1a6e	0.04152911
77	0xbd8e889c	-0.0695965
78	0xbc86d206	-0.016457569
79	0x3dddb6dc	0.10825893
80	0x3e24f534	0.16109163
81	0xbd040f2f	-0.032241043
82	0x3e088209	0.13330854
83	0x3c8b9615	0.017039338
84	0xbd1ae81f	-0.037819024
85	0x3c9e1a0f	0.019299535
86	0xbbccced6	-0.0062502427
87	0x3dfd44e9	0.12366659
88	0xbdd26b1a	-0.10274334
89	0xbd6af52c	-0.05736272
90	0x3e9af08c	0.30261648
91	0x3e422888	0.18960774
92	0xbc88b26f	-0.016686646
93	0x3dca0b69	0.098654576
94	0x3da2ca15	0.079487
95	0xbe3249cf	-0.17410968
96	0x3d1f9fc7	0.038970735
97	0xbd21d2ef	-0.039507803
98	0xbd235328	-0.039874226
99	0x3c840416	0.01611523
100	0xbdfe0235	-0.12402765
101	0x3d3e6aea	0.04648868
102	0x3ce0d30f	0.02744439
103	0x3d3ea26e	0.046541624
104	0x3dc04c92	0.09389605
105	0xbd0ba92e	-0.03409689
106	0xbc843eb5	-0.016143182
107	0xbd1eb6da	-0.0387486
108	0x3db5d12e	0.088777885
109	0x3e3e00e2	0.18555024
110	0xbe317152	-0.17328385
111	0xba10c854	-0.0005523015
112	0xbd8903b6	-0.06690161
113	0x3db12f57	0.086516075
114	0xbbdec74a	-0.0067986595
115	0xbd20ec12	-0.039287634
116	0xbd068048	-0.032837182
117	0x3cace8c7	0.02110709
118	0x3e19a61a	0.15004769
119	0x3dc483a6	0.095954224
120	0xbe10a1af	-0.14124177
121	0x3e034004	0.12817389
122	0xbd06a421	-0.03287137
123	0x3e6df18b	0.23236673
124	0x3c37b1ac	0.011211794
125	0xbcc30ebc	-0.023810737
126	0xbe55ad5e	-0.20866916
127	0xbd7d0d43	-0.061780225
128	0xbc91ab8b	-0.017781993
129	0x3ce5cde7	0.028052283
130	0xbdb01beb	-0.08599075
131	0xbdb8cf7d	-0.0902395
132	0xbe4760a5	-0.1947046
133	0xbcbd66cf	-0.023120312
134	0xbe0a13fa	-0.13484183
135	0x3d8d08d7	0.06886452
136	0x3cb61086	0.022224676
137	0xbe0dcef1	-0.13848473
138	0xbd447103	-0.04795934
139	0x3cbfd72c	0.023418032
140	0xbd724d2e	-0.059155636
141	0xbda4d04f	-0.08047544
142	0xbd083bed	-0.033260275
143	0x3e176e65	0.14788206
144	0xbc143905	-0.009046798
145	0xbd633f1b	-0.055480104
146	0xbc6cf26c	-0.014462095
147	0xbdb1400c	-0.08654794
148	0x3d0c0346	0.03418281
149	0x3ddc1b5b	0.10747405
150	0xbd54a0cc	-0.05191116
151	0xbb88cf6b	-0.004175117
152	0xbd82444a	-0.06360681
153	0x3dd948d9	0.10609598
154	0xbd8e37cf	-0.069442384
155	0x3e11562b	0.14193027
156	0xbbae7abe	-0.0053246906
157	0xbe005c49	-0.12535204
158	0xbdd29c89	-0.10283763
159	0x3d6e3aaa	0.058161415
160	0xbd839466	-0.06424789
161	0xbbba5faf	-0.005687676
162	0x3d797dc3	0.06091095
163	0x3cddc0fc	0.027069561
164	0x3cc037f0	0.023464173
165	0xbd0a2245	-0.03372409
166	0xbd777814	-0.06041725
167	0xbd2969d4	-0.04136069
168	0x3c734958	0.0148490295
169	0x3d351ddf	0.04421794
170	0xbe11b4ca	-0.14229122
171	0x3d9e761d	0.07737372
172	0xbd9fe0ab	-0.07806524
173	0x3a8d8935	0.0010798337
174	0xbda26ea5	-0.0793126
175	0xbcde4e67	-0.027136995
176	0xbd0605c0	-0.032720327
177	0x3e247ef6	0.16064057
178	0xbd14a044	-0.036285654
179	0x3e1981d6	0.14990935
180	0x3cd0054f	0.025393156
181	0xbd203baa	-0.0391194
182	0xbbca139e	-0.0061668893
183	0xbcbdedb9	-0.023184644
184	0x3d3d15b6	0.046163283
185	0xbdf26cc2	-0.1183715
186	0xbc2d5b94	-0.010580916
187	0x3dc40f51	0.09573234
188	0xbc414764	-0.011796806
189	0xbdfaea30	-0.12251699
190	0x39a23c86	0.0003094414
191	0xbd7a83ed	-0.06116097
192	0x3bc3c179	0.0059739915
193	0xbd3cb35e	-0.046069495
194	0xbd2e4845	-0.04254939
195	0xbd7de125	-0.061982293
196	0xbe189788	-0.14901555
197	0xbc91da47	-0.017804278
198	0x3c03761e	0.008023767
199	0xbd1f374e	-0.038871102
200	0x3d14a63b	0.036291342
201	0xbd72b7c8	-0.0592573
202	0xbb2f7dfa	-0.0026777969
203	0x3e06af6a	0.13152853
204	0x3c8cdcf7	0.017195208
205	0x3d05b200	0.032640457
206	0xbd090a59	-0.033457134
207	0xbd9fb216	-0.07797639
208	0xbd55a1ff	-0.052156445
209	0xbd543cee	-0.05181592
210	0x3ddcbf3f	0.10778665
211	0xbcb4c65e	-0.022067245
212	0x3c5dd568	0.01353965
213	0x3d9542b3	0.072881125
214	0xbd813f2e	-0.06310879
215	0x3d1a9f04	0.037749305
216	0x3d07c57a	0.033147313
217	0x3c08b3d2	0.008343654
218	0xbd736d4a	-0.059430398
219	0x3e281273	0.16413288
220	0x3da90054	0.08252016
221	0x3dead84b	0.11467036
222	0xbe1cf429	-0.15327515
223	0xbdf390be	-0.11892842
224	0x3ddc7430	0.107643485
225	0x3d899bf3	0.06719198
226	0x3d22a9db	0.039712768
227	0x3d9c64e7	0.07636433
228	0x3d9e7309	0.07736785
229	0xbd1eae2f	-0.038740333
230	0xbdbf65b9	-0.09345574
231	0x3cd7b8af	0.026333181
232	0x3de9568d	0.113934614
233	0x3dfc8823	0.123306535
234	0x3dc1696c	0.09443936
235	0x3d81ee62	0.06344296
236	0x3dc0e3aa	0.094184235
237	0x3e0ada66	0.13559875
238	0xbd8bdbed	-0.06829057
239	0x3d3abf6d	0.045592714
240	0xbdd49e73	-0.10381784
241	0x3d776c8e	0.06040626
242	0xbdb8add0	-0.09017527
243	0xba645555	-0.0008710225
244	0x3dd99548	0.10624176
245	0xbe78cad1	-0.24296118
246	0xbdd31f57	-0.10308712
247	0x3da29aac	0.079396576
248	0xbd8574c5	-0.06516413
249	0x3de2e33a	0.11078496
250	0x3c837cf3	0.016050791
251	0x3d009289	0.031389747
252	0xbded56cb	-0.1158882
253	0xbd9496e7	-0.07255345
254	0xbb96ffbf	-0.004608124
255	0xbdb0e6a2	-0.0863774

network_body._body_endoder.seq_layers.2.bias f4 [128]
0	0x3cfe9515	0.031076947
1	0x3c5869fb	0.013208861
2	0x3b584017	0.0032997185
3	0x3cabf2d4	0.020989813
4	0xbca42cd3	-0.020040905
5	0xbcf12748	-0.029437676
6	0xbce55c40	-0.02799809
7	0xbc30ca96	-0.010790488
8	0x3c360cf0	0.011111483
9	0x3c76103d	0.01501852
10	0xbc480913	-0.012209195
11	0x398de52b	0.0002706436
12	0x39e1b701	0.00043051693
13	0x3c044a31	0.008074329
14	0xbc896203	-0.016770368
15	0xbc32e437	-0.0109186685
16	0xbbb55b2b	-0.0055345497
17	0x3b41b0b2	0.0029554782
18	0xbcbca67b	-0.023028603
19	0xba7ead39	-0.0009715143
20	0x3c8cec67	0.01720257
21	0xbc648e78	-0.013949983
22	0x3c1740f6	0.0092317965
23	0x3cc3b61e	0.023890551
24	0xbc92748f	-0.017877845
25	0xbbfbcbf5	-0.0076842257
26	0xbbaaec95	-0.005216191
27	0xba89d9b9	-0.0010517157
28	0xbc08707d	-0.008327601
29	0x3c7a9835	0.015295078
30	0x3c8863d3	0.016649162
31	0xbcc403bf	-0.023927568
32	0x3c6960e5	0.014244293
33	0xbb2e0f96	-0.0026559583
34	0x3cfe426c	0.031037532
35	0xbd5aae96	-0.053389154
36	0xbc9ecf4f	-0.019385962
37	0xbcd96eca	-0.026542086
38	0x3c1a5f5e	0.009422151
39	0x3cb82555	0.022478739
40	0x3bbcd5c4	0.0057627875
41	0x3c820756	0.015872639
42	0xbcee05a5	-0.029055426
43	0xbc9a64a1	-0.018846812
44	0xbcecaf1b	-0.02889209
45	0x3c373e2c	0.0111842565
46	0x3c4bf583	0.012448671
47	0x3be4375a	0.0069646062
48	0x3c68f5ca	0.014218757
49	0x3ca68c12	0.020330463
50	0x3c2b39db	0.010450806
51	0xbc70cc13	-0.014697093
52	0xbbe89410	-0.0070977286
53	0x3cc95cfb	0.02458047
54	0x3c4cf20c	0.01250888
55	0x3cb59638	0.022166356
56	0xbd5e6e7a	-0.054304577
57	0x3d088a1c	0.033334836
58	0x3c304678	0.010758989
59	0x3c3b4a22	0.011431249
60	0x3ccfe817	0.025379224
61	0x3c0941ab	0.008377473
62	0x3c27be14	0.010238189
63	0xbcd5aa8c	-0.0260823
64	0xbd77444f	-0.06036788
65	0xbd802c1c	-0.06258413
66	0x3c897b77	0.016782505
67	0x3c82f583	0.01598621
68	0xbbb6c272	-0.005577379
69	0x3ba94d10	0.0051666573
70	0xbbb636e8	-0.0055607446
71	0x3c56960a	0.013097296
72	0x3c9eb796	0.01937465
73	0x3bf94328	0.0076068826
74	0x3b826f06	0.00398052
75	0x3c47fcc3	0.012206259
76	0xbc0cb8fc	-0.008589026
77	0x3c070117	0.008240006
78	0x3d00f461	0.031483058
79	0xbb0b1d0c	-0.002122703
80	0xbac8092c	-0.0015261522
81	0xbc0473ad	-0.00808422
82	0xbb97e42f	-0.004635356
83	0x3b141a5a	0.0022598715
84	0xbbe06bc8	-0.006848786
85	0xbc62898d	-0.01382674
86	0x3c5b8403	0.013398173
87	0x3d449aea	0.0479993
88	0xbc03b9f5	-0.008039941
89	0x3bc4d560	0.0060068816
90	0x3c16763a	0.009183461
91	0xbc2f23bb	-0.010689671
92	0xbcfafe45	-0.030638823
93	0xbc2f3d41	-0.010695756
94	0xbb52adce	-0.0032147053
95	0xbb20a2ab	-0.002451102
96	0x3b1707cd	0.002304542
97	0xbcecce3b	-0.028906932
98	0x3cf45ed2	0.02983037
99	0xbcb7017a	-0.022339571
100	0xb998f903	-0.00029177227
101	0xbd2a11dd	-0.041520942
102	0x3d398608	0.045293838
103	0x3d0da049	0.034576688
104	0x3bee06dd	0.0072640018
105	0xbc67ec97	-0.0141555285
106	0x3caa0157	0.020752592
107	0xbab5fa5b	-0.0013883816
108	0x3c09da78	0.008413903
109	0x3cc40cad	0.023931826
110	0xbc6d77ca	-0.014493892
111	0xbd50a0d2	-0.05093462
112	0x3d31a074	0.04336591
113	0x3c0cf39e	0.008603005
114	0xbca8b6f8	-0.020595059
115	0x3c5feb6e	0.013666971
116	0xbc4bbdf9	-0.01243543
117	0xbcc86c97	-0.024465842
118	0x3cfbf7ec	0.030757867
119	0xbd128d36	-0.0357792
120	0x3c89df69	0.016830163
121	0x3c904e53	0.017615473
122	0x3bb64fac	0.005563697
123	0xbc5f2e44	-0.01362187
124	0x3c329732	0.010900306
125	0x3cef796c	0.029232703
126	0xbc0f2039	-0.00873571
127	0xbd213aee	-0.03936284

action_model._continuous_distribution.log_sigma f4 [1, 2]
0	0x3e9ac8c6	0.30231303
1	0x3e589ef3	0.21154384

action_model._continuous_distribution.mu.weight f4 [2, 128]
0	0x3c8ab98e	0.016934182
1	0x3cb8db64	0.022565551
2	0x3b055c62	0.0020349254
3	0x3a2c2c4c	0.000656788
4	0xbc2ea955	-0.010660489
5	0xbb9544d2	-0.004555323
6	0x3c19796d	0.009367329
7	0xbbc44684	-0.0059898514
8	0x3c27ccee	0.01024173
9	0xbd98177d	-0.07426355
10	0xbc5320a9	-0.012886205
11	0xbc19cf8d	-0.009387863
12	0xbd1d3356	-0.038379036
13	0x3d24fc2b	0.04027955
14	0xbaa1167a	-0.0012290024
15	0xbb63f861	-0.0034785497
16	0xbc99c177	-0.018769009
17	0x3c86379d	0.01638394
18	0x3c31c0ec	0.010849219
19	0x3c4b6fb2	0.012416767
20	0xbc854f24	-0.016273089
21	0xbad0d930	-0.0015933868
22	0xbd1e3ffc	-0.03863524
23	0xbd633cd0	-0.055477917
24	0xba54c14e	-0.0008115963
25	0xbc131208	-0.008976467
26	0xbc831fe4	-0.016006418
27	0xbcc21341	-0.023690822
28	0xbc230c0c	-0.009951603
29	0x3a86fc6b	0.0010298615
30	0xbd019eec	-0.0316457
31	0xbb751b24	-0.003740021
32	0x3c65ab8a	0.014017949
33	0xbd31bb94	-0.04339178
34	0xbc37fb8e	-0.011229409
35	0x3cc74227	0.024323536
36	0x3a09b2cf	0.000525278
37	0xbb27f3fe	-0.0025627608
38	0xbcc92755	-0.024554888
39	0x3d0c2657	0.03421625
40	0xbbfe9360	-0.0077690333
41	0x3bf6662e	0.007519505
42	0xbcf0e3ca	-0.029405493
43	0x3ad92049	0.0016565408
44	0x3ba229ba	0.004948822
45	0xbd8e0be1	-0.069358595
46	0x3d2ff039	0.042953704
47	0x3bcf70ed	0.0063306005
48	0x3c9ea09d	0.019363696
49	0xbda1baf2	-0.07896985
50	0x3ca86000	0.020553589
51	0x3c00d4d1	0.007863239
52	0x3cbafe96	0.022826474
53	0x3d1e9c14	0.038723066
54	0x3ce9aef0	0.0285258
55	0xbce13d28	-0.027494982
56	0xbb2cb5eb	-0.0026353549
57	0x3d45c082	0.048279293
58	0x3c4e9b9a	0.0126103405
59	0x3cf38cf2	0.029730294
60	0xbd52dbca	-0.05147914
61	0xbbd303d9	-0.0064396677
62	0xbc9a1213	-0.018807447
63	0x3a3ce4e2	0.0007205737
64	0xbbe2f428	-0.0069260783
65	0xbbc89380	-0.006121099
66	0x3d2d5dd2	0.042325802
67	0x3c959a0c	0.018261932
68	0x3c60cc64	0.0137206055
69	0x3d17e3e6	0.037082575
70	0xbc7e5bf6	-0.015524855
71	0xba1176a9	-0.0005548993
72	0x3a7a1fc1	0.0009541475
73	0x3bc4eb0f	0.0060094665
74	0x3ba8799c	0.00514145
75	0x3c0f785c	0.008756723
76	0xbacf4f41	-0.0015816466
77	0x3cde10d1	0.027107628
78	0x3c591cb7	0.013251475
79	0xbc448ac2	-0.011995973
80	0x3d04e01c	0.03244029
81	0xbaa78b1d	-0.0012782548
82	0xbd6eb070	-0.058273733
83	0xb9cb0b0b	-0.00038727405
84	0x3c21c3c2	0.009873332
85	0xbb723dba	-0.0036963061
86	0x3d692ca4	0.05692734
87	0xbd9d33b0	-0.07675874
88	0x3c3b72bf	0.011440932
89	0x3c406b5c	0.0117443465
90	0xbb10c6e6	-0.002209121
91	0xbc7be455	-0.015374263
92	0xbbda9930	-0.0066710934
93	0xbb9660ce	-0.0045891767
94	0x3b981360	0.0046409816
95	0x3c0c17b2	0.008550571
96	0x3c8138f3	0.015774226
97	0xbbff73ef	-0.007795803
98	0x3d1f2f40	0.03886342
99	0xbc57f14a	-0.013180086
100	0xbcd4d098	-0.025978372
101	0xba49e7f6	-0.00077021064
102	0xbad3b96d	-0.0016153284
103	0xbd0f2184	-0.034944072
104	0xbaf5b4d5	-0.0018745909
105	0xbb4a04d5	-0.0030825634
106	0xbbdb6fc7	-0.0066966745
107	0xbd123e1f	-0.035703775
108	0x3bd1f702	0.0064076195
109	0x3d7ab844	0.061210886
110	0xbc478a46	-0.012178963
111	0xbc216e69	-0.009852984
112	0x3c8d9136	0.017281156
113	0x3be0c7d4	0.006859759
114	0x38773b60	5.8944686e-05
115	0xbd3d568c	-0.046225116
116	0xbb7668f0	-0.0037599169
117	0x3cc7d6d0	0.024394423
118	0xbd69b90d	-0.057061244
119	0x3c804f16	0.015662711
120	0xbd8fa130	-0.07013166
121	0xbcdd98b0	-0.027050346
122	0x3aea7cfd	0.0017890033
123	0xbc8840cc	-0.01663246
124	0xbc8d4b0b	-0.017247697
125	0xbd5629e6	-0.05228605
126	0xbcc5e0db	-0.024155071
127	0x3cedcfdb	0.029029777
128	0xbd16148c	-0.03664069
129	0xbd2dc7b4	-0.04242678
130	0x3cc133e1	0.023584308
131	0x3c9215b8	0.017832622
132	0xbc03a24a	-0.008034298
133	0x3c2563f6	0.010094633
134	0x3d12ae9f	0.035811063
135	0xbbc2b933	-0.0059424876
136	0xbc268c54	-0.010165293
137	0x3c553c4c	0.013014864
138	0x3c39cbd2	0.011340098
139	0x3d1cf63a	0.038320757
140	0x3bf7d7b5	0.007563556
141	0xbcc866ec	-0.02446314
142	0x3c788354	0.01516803
143	0xbdacea0e	-0.0844308
144	0xbb0c5b0f	-0.002141658
145	0xbc618203	-0.013763907
146	0x3ba1072c	0.004914185
147	0xbce5ee32	-0.028067682
148	0x3b6c9370	0.0036098622
149	0x394cf48b	0.00019546055
150	0x3d22738f	0.039660987
151	0x3cd3698d	0.025807166
152	0xbc31941a	-0.010838533
153	0x3cadcd5c	0.021216087
154	0xba8b8751	-0.0010645186
155	0x3d631434	0.05543919
156	0xbd58c252	-0.052919693
157	0x3cd5eef6	0.026114922
158	0x3c581cfb	0.013190503
159	0xbccbd555	-0.024881998
160	0x3d6ec49f	0.05829298
161	0x3c3fb1e8	0.011700131
162	0x3d029498	0.03187999
163	0xbd2156d6	-0.039389454
164	0x3a4ca60b	0.0007806725
165	0xbc58c90a	-0.013231525
166	0x3d058dfb	0.032606106
167	0x3a284020	0.0006418247
168	0xbc590ea5	-0.01324812
169	0x3ce987dc	0.028507166
170	0xbc3c574e	-0.011495424
171	0xbb156115	-0.002279346
172	0x3b202f02	0.0024442081
173	0xbce3d6bb	-0.027812352
174	0xbcb4c52d	-0.022066677
175	0xbcd6df41	-0.026229503
176	0x3d50c61a	0.050970174
177	0x3d0af864	0.03392829
178	0xbc5fec1d	-0.013667134
179	0xbc7e9514	-0.015538473
180	0x3cc7917c	0.024361365
181	0xbd1a3eea	-0.037657656
182	0xbcb76391	-0.022386344
183	0xbd2c550e	-0.042073302
184	0x3c970e65	0.018439481
185	0x3c370f2e	0.011173053
186	0xbd308a27	-0.043100502
187	0xbd0bc7f0	-0.034126222
188	0xbd0a125b	-0.03370891
189	0x3c3cfc91	0.011534826
190	0x3c8e3cd3	0.017362988
191	0x3b3410fa	0.002747594
192	0x3b8e2540	0.0043379366
193	0xbd951bba	-0.07280679
194	0xbd149dd3	-0.036283325
195	0xbd0cfb17	-0.034419145
196	0xbd651323	-0.055926453
197	0x3d698676	0.057012998
198	0x39061665	0.00012787578
199	0x3c120fda	0.008914912
200	0x3d8b3437	0.067970686
201	0xbd093fc4	-0.033508077
202	0x3bb0be9f	0.0053938176
203	0xbd64006a	-0.055664457
204	0x3d11b095	0.035568792
205	0xbcc89426	-0.024484705
206	0x3d03ecb6	0.032208167
207	0xbd001e59	-0.03127894
208	0xbda44596	-0.08021085
209	0x3b99ac5f	0.0046897377
210	0xbda7fab1	-0.082021125
211	0x3c37d9bb	0.011221345
212	0xbcaaab2f	-0.02083358
213	0xbb85ffb8	-0.004089322
214	0x3c43dd4d	0.011954618
215	0x3d9d3067	0.07675248
216	0xbc9e2cce	-0.019308474
217	0x3cdcca15	0.026951829
218	0xbc2e4e4a	-0.010638783
219	0xbd408853	-0.04700501
220	0xbb953004	-0.004552843
221	0xbc86fe38	-0.016478643
222	0xbb430eda	-0.002976349
223	0xbd0518ad	-0.032494236
224	0xbd0c24aa	-0.034214653
225	0xbc54a25a	-0.012978161
226	0x3b42084c	0.0029606996
227	0xbbcd18a5	-0.0062590414
228	0x3b3fe9ca	0.0029283636
229	0x3a1c73cd	0.00059681834
230	0x3db6f764	0.08933905
231	0x3d653aaf	0.05596417
232	0xbb8f9d13	-0.0043827384
233	0x3cca5d9d	0.024702841
234	0x3cc33676	0.02382968
235	0xbae0f316	-0.0017162289
236	0x3d3ee198	0.04660186
237	0xbc5c9f33	-0.01346569
238	0x3ba7d0e5	0.0051213377
239	0x3b4e4978	0.0031476896
240	0x3d3428b1	0.04398412
241	0x3d59f437	0.053211417
242	0x3a6fc17d	0.00091459585
243	0xbd19e2cf	-0.037569817
244	0xbca40152	-0.02002016
245	0xbd1194a8	-0.03554216
246	0x3af05c75	0.0018338101
247	0xbd0f7850	-0.03502685
248	0xbaa26c71	-0.0012391937
249	0x3cb5fefa	0.022216309
250	0x3d54bf8d	0.05194049
251	0xbc2c6ec9	-0.01052446
252	0x3d481599	0.048848722
253	0x3d8cf17f	0.06881999
254	0xbd047e88	-0.032347232
255	0xbca08ee0	-0.019599378

action_model._continuous_distribution.mu.bias f4 [2]
0	0x3c3eace9	0.011637905
1	0x3ccf8e87	0.025336517

action_model._discrete_distribution.branches.0.weight f4 [1, 128]
0	0xbc109804	-0.008825306
1	0xbb4a1f67	-0.003084147
2	0x3c550fc7	0.01300425
3	0xbb2049d7	-0.0024458074
4	0xbc759db8	-0.014991216
5	0xbb8e6b6b	-0.0043463013
6	0xbbf70e23	-0.007539527
7	0xbc74a26d	-0.014931303
8	0x3bf2b382	0.007406653
9	0xbbedfcc7	-0.0072627994
10	0x3ba3176b	0.004977157
11	0x3b1d71e3	0.002402418
12	0xbab3aa1c	-0.0013707313
13	0x3b5363ef	0.003225561
14	0x3b417eb4	0.0029524984
15	0xbcb0b40f	-0.021570234
16	0x3b92ba67	0.0044777873
17	0xbc41e5bb	-0.011834557
18	0xba7fc287	-0.0009756465
19	0xbaaa1b40	-0.0012978092
20	0x3bf2f82d	0.0074148388
21	0xbbc31e3f	-0.0059545333
22	0xbc5b3313	-0.013378876
23	0xbc3e1e1b	-0.011603857
24	0x3ba5dc43	0.0050616576
25	0xbb89e295	-0.004207919
26	0x3b04bf51	0.0020255635
27	0x3bfc560a	0.0077006863
28	0xbc7b3532	-0.015332507
29	0xbc047974	-0.008085597
30	0x3bb247d7	0.005440693
31	0xba830d6d	-0.0009998508
32	0x3c3d05c3	0.011537018
33	0xbc11130a	-0.008854637
34	0xbb5b7e8a	-0.0033492171
35	0xbca2af5e	-0.019859012
36	0x3b0c8398	0.002144074
37	0xbb425071	-0.0029649998
38	0x3baae583	0.005215348
39	0x3c2b901b	0.010471369
40	0xbc842e47	-0.016135348
41	0x3c2dc358	0.010605656
42	0xbbfc7648	-0.00770453
43	0xbb51597a	-0.0031944201
44	0xbc36074b	-0.011110137
45	0x3b0a4166	0.002109611
46	0xbc3bd72f	-0.011464878
47	0x3c0763c7	0.008263535
48	0xbaf3a458	-0.0018588407
49	0xbc20e0da	-0.009819234
50	0x3bbe4784	0.005806865
51	0x3b346092	0.002752338
52	0xbc856812	-0.016284976
53	0x3aa04acf	0.0012229326
54	0xbbedd6bf	-0.0072582657
55	0xbc5a9b32	-0.0133426655
56	0xbb3e6df7	-0.0029057243
57	0x3ca1d426	0.01975448
58	0x3b8edd81	0.0043599014
59	0x3b0d3ea3	0.0021552227
60	0xbc165f9d	-0.009178069
61	0xba68844d	-0.0008869812
62	0x3c6cc8c5	0.014452164
63	0x3be7accf	0.007070161
64	0x380f768a	3.4204255e-05
65	0x3b8f6d81	0.0043770676
66	0x3b390103	0.0028229363
67	0xbb92679b	-0.004467917
68	0x3c168a17	0.009188197
69	0x3b5ae530	0.0033400767
70	0xbb86f1e3	-0.0041181906
71	0xbc107f83	-0.008819464
72	0xbc02862a	-0.0079665575
73	0x3ba2abd7	0.0049643326
74	0xbb421e6d	-0.0029620186
75	0xbcae08e3	-0.021244472
76	0xbc72e03d	-0.01482397
77	0xbbe89963	-0.0070983632
78	0x3c15f63b	0.009152944
79	0x3c591cc3	0.013251486
80	0xbc0e8100	-0.008697748
81	0xbc27e52c	-0.01024751
82	0x3c37f45f	0.011227696
83	0x3c4984fc	0.012299772
84	0xbc5790f5	-0.013157119
85	0x3c28765e	0.010282127
86	0x3bc6b86c	0.0060644653
87	0xbbe342f2	-0.0069354707
88	0xbc177184	-0.009243373
89	0xbc8b4b82	-0.017003778
90	0x3bfad8da	0.0076552453
91	0x3a72ca3b	0.0009261702
92	0x3c2f79a4	0.010710154
93	0x3c30f3ed	0.010800344
94	0xbb7c089a	-0.0038457275
95	0x3b2f5fca	0.0026759976
96	0xbc0810d5	-0.008304794
97	0x3c91e1c5	0.01780785
98	0x3b12fd9b	0.0022428993
99	0x3b78a25f	0.0037938578
100	0xbbb34989	-0.0054714126
101	0x3ba61f21	0.005069629
102	0xbc6f1a95	-0.01459374
103	0x3bbb4900	0.0057154894
104	0x3b43a756	0.0029854379
105	0xbb043478	-0.0020172875
106	0x3c1543b3	0.009110379
107	0xbb4a3055	-0.0030851562
108	0x39991ca7	0.00029203782
109	0xbbc423ff	-0.0059857364
110	0x3c642ccb	0.013926695
111	0x3c533903	0.012892011
112	0xb9f5b5c8	-0.0004686548
113	0xbc1c482f	-0.009538694
114	0x3c4d6ebb	0.012538607
115	0xbbfeffd2	-0.007781961
116	0x3b4fb127	0.0031691284
117	0xbc04656d	-0.008080822
118	0xbb717db3	-0.0036848604
119	0x3b9fb2f0	0.004873626
120	0x3b2543a8	0.0025217328
121	0x3c04d3a2	0.008107098
122	0x3bf50ea2	0.007478551
123	0xbab2117b	-0.0013585532
124	0x3c2f329b	0.010693218
125	0xbb8cbf67	-0.004295278
126	0x3c245837	0.010030798
127	0xbc9f1fec	-0.019424401

exp_avg f4 [128, 114]
0	0xb8018e75	-3.088867e-05
1	0xb8018e75	-3.088867e-05
2	0xb8018e75	-3.088867e-05
3	0xb782b970	-1.5583559e-05
4	0xb85a8006	-5.209448e-05
5	0xb8143266	-3.5332887e-05
6	0x351a7a2b	5.754725e-07
7	0xb8908144	-6.890533e-05
8	0xb7e6a78c	-2.7496157e-05
9	0xb6f1e990	-7.20955e-06
10	0xb7ad9980	-2.0694686e-05
11	0xb81ee440	-3.788271e-05
12	0xb78dafa7	-1.6890304e-05
13	0xb7b5d4c8	-2.1675965e-05
14	0xb78422d0	-1.5751837e-05
15	0x3740342a	1.1456237e-05
16	0xb80ed4b4	-3.4053533e-05
17	0xb833ac52	-4.283741e-05
18	0x00000000	0.0
19	0xb54f4a63	-7.7221756e-07
20	0x00000000	0.0
21	0xb7818e75	-1.5444335e-05
22	0xb54f4a63	-7.7221756e-07
23	0x37818e75	1.5444335e-05
24	0xb7818e75	-1.5444335e-05
25	0xb54f4a63	-7.7221756e-07
26	0xb7818e75	-1.5444335e-05
27	0x37818e75	1.5444335e-05
28	0xb54f4a63	-7.7221756e-07
29	0xb7818e75	-1.5444335e-05
30	0x00000000	0.0
31	0xb54f4a63	-7.7221756e-07
32	0x00000000	0.0
33	0xb4df46a4	-4.1588385e-07
34	0xb813a2da	-3.51992e-05
35	0xb7eb61fa	-2.8059807e-05
36	0x34d2ea7c	3.9286158e-07
37	0xb6bdc09f	-5.655063e-06
38	0xb7fd0468	-3.0162002e-05
39	0xb7fd0468	-3.0162002e-05
40	0xb7fd0468	-3.0162002e-05
41	0xb784938b	-1.5804331e-05
42	0xb86c14e6	-5.6286248e-05
43	0xb80ba08f	-3.3289714e-05
44	0x36034779	1.9562124e-06
45	0xb89547d8	-7.1182556e-05
46	0xb7d7bb6f	-2.5717278e-05
47	0xb707a565	-8.085136e-06
48	0xb7a7c860	-2.0001258e-05
49	0xb81fd39e	-3.8105638e-05
50	0xb78251b3	-1.5535252e-05
51	0xb7bb97fb	-2.2362909e-05
52	0xb787a287	-1.6168937e-05
53	0x3745ea9c	1.1796739e-05
54	0xb8156c5d	-3.562529e-05
55	0xb831c10b	-4.2379874e-05
56	0x00000000	0.0
57	0xb54a69f9	-7.5405075e-07
58	0x00000000	0.0
59	0xb77d0468	-1.5081001e-05
60	0xb54a69f9	-7.5405075e-07
61	0x377d0468	1.5081001e-05
62	0xb77d0468	-1.5081001e-05
63	0xb54a69f9	-7.5405075e-07
64	0xb77d0468	-1.5081001e-05
65	0x377d0468	1.5081001e-05
66	0xb54a69f9	-7.5405075e-07
67	0xb77d0468	-1.5081001e-05
68	0x00000000	0.0
69	0xb54a69f9	-7.5405075e-07
70	0x00000000	0.0
71	0x36a22420	4.8321817e-06
72	0xb813af87	-3.5211004e-05
73	0xb7fd385c	-3.0186195e-05
74	0x34e55eb4	4.272348e-07
75	0xb672296f	-3.6084928e-06
76	0xb7f6d91a	-2.9426581e-05
77	0xb7f6d91a	-2.9426581e-05
78	0xb7f6d91a	-2.9426581e-05
79	0xb78b9fec	-1.664456e-05
80	0xb876bc79	-5.88265e-05
81	0xb8062cb7	-3.1989734e-05
82	0x366a6911	3.4929874e-06
83	0xb89c11e2	-7.4419906e-05
84	0xb7cecded	-2.4653005e-05
85	0xb7080e9d	-8.109634e-06
86	0xb7a9328f	-2.0169913e-05
87	0xb8224005	-3.8683433e-05
88	0xb76db27b	-1.41678565e-05
89	0xb7c333c3	-2.3269915e-05
90	0xb78d2b42	-1.6828653e-05
91	0x374e53cb	1.2298066e-05
92	0xb8184050	-3.629952e-05
93	0xb8318c9d	-4.2331045e-05
94	0x00000000	0.0
95	0xb5457a91	-7.3566576e-07
96	0x00000000	0.0
97	0xb776d91a	-1.47132905e-05
98	0xb5457a91	-7.3566576e-07
99	0x3776d91a	1.47132905e-05
100	0xb776d91a	-1.47132905e-05
101	0xb5457a91	-7.3566576e-07
102	0xb776d91a	-1.47132905e-05
103	0x3776d91a	1.47132905e-05
104	0xb5457a91	-7.3566576e-07
105	0xb776d91a	-1.47132905e-05
106	0x00000000	0.0
107	0xb5457a91	-7.3566576e-07
108	0x00000000	0.0
109	0x36851156	3.965727e-06
110	0xb8065706	-3.2029136e-05
111	0xb7f0d00f	-2.8707114e-05
112	0x35399f07	6.9149286e-07
113	0xb67870a8	-3.7020454e-06
114	0xb79afae6	-1.8475064e-05
115	0xb79afae6	-1.8475064e-05
116	0xb79afae6	-1.8475064e-05
117	0x36c52051	5.8748196e-06
118	0x36377f0d	2.7343078e-06
119	0x35cac9a3	1.5108857e-06
120	0xb8d643d9	-0.00010216953
121	0x3b8090f7	0.003923531
122	0x38cfd8d4	9.9109166e-05
123	0x36bc4e05	5.6119193e-06
124	0x3809edc5	3.2884785e-05
125	0xb6dcbe8e	-6.5786944e-06
126	0xb96209d7	-0.00021556705
127	0xbc85d328	-0.016336039
128	0x38be97bc	9.088169e-05
129	0xb6d3363e	-6.2946046e-06
130	0x39df1d8e	0.00042555894
131	0x381ad39d	3.691354e-05
132	0x00000000	0.0
133	0xb4f7f7fa	-4.6187762e-07
134	0x00000000	0.0
135	0xb71afae6	-9.237532e-06
136	0xb4f7f7fa	-4.6187762e-07
137	0x371afae6	9.237532e-06
138	0xb71afae6	-9.237532e-06
139	0xb4f7f7fa	-4.6187762e-07
140	0xb71afae6	-9.237532e-06
141	0x371afae6	9.237532e-06
142	0xb4f7f7fa	-4.6187762e-07
143	0xb71afae6	-9.237532e-06
144	0x00000000	0.0
145	0xb4f7f7fa	-4.6187762e-07
146	0x00000000	0.0
147	0xb7debcc2	-2.655236e-05
148	0xb859aa0d	-5.1895204e-05
149	0x36422fae	2.8936006e-06
150	0x37e8fed5	2.777522e-05
151	0xb7033d9f	-7.822556e-06
152	0xb792ffa5	-1.75236e-05
153	0xb792ffa5	-1.75236e-05
154	0xb792ffa5	-1.75236e-05
155	0x36a2357a	4.8342017e-06
156	0x36a082cc	4.7835983e-06
157	0x3615a66e	2.2299605e-06
158	0xb8d776fa	-0.0001027416
159	0x3b8151f6	0.003946538
160	0x38d02f4a	9.927021e-05
161	0x36ad6b8f	5.1683232e-06
162	0x38122fd4	3.4853656e-05
163	0xb6e22755	-6.7399037e-06
164	0xb9614905	-0.00021484874
165	0xbc864a64	-0.016392894
166	0x38bf5dac	9.1250375e-05
167	0xb702be16	-7.792862e-06
168	0x39e71aa6	0.00044079608
169	0x38159180	3.5659876e-05
170	0x00000000	0.0
171	0xb4eb32bd	-4.3809078e-07
172	0x00000000	0.0
173	0xb712ffa5	-8.7618e-06
174	0xb4eb32bd	-4.3809078e-07
175	0x3712ffa5	8.7618e-06
176	0xb712ffa5	-8.7618e-06
177	0xb4eb32bd	-4.3809078e-07
178	0xb712ffa5	-8.7618e-06
179	0x3712ffa5	8.7618e-06
180	0xb4eb32bd	-4.3809078e-07
181	0xb712ffa5	-8.7618e-06
182	0x00000000	0.0
183	0xb4eb32bd	-4.3809078e-07
184	0x00000000	0.0
185	0xb7e6606d	-2.7463038e-05
186	0xb8574731	-5.1326297e-05
187	0x35887209	1.0165978e-06
188	0x37e67f36	2.7477374e-05
189	0xb7220948	-9.658113e-06
190	0xb79266eb	-1.7452481e-05
191	0xb79266eb	-1.7452481e-05
192	0xb79266eb	-1.7452481e-05
193	0x369daceb	4.699095e-06
194	0x36cbc87d	6.0732114e-06
195	0x36398f25	2.765047e-06
196	0xb8d9d30f	-0.00010386679
197	0x3b8212a6	0.003969508
198	0x38cf3c2f	9.881739e-05
199	0x36a53780	4.9238442e-06
200	0x3817d3b3	3.6198366e-05
201	0xb6db0259	-6.526982e-06
202	0xb9612d2f	-0.00021474504
203	0xbc86c37f	-0.016450642
204	0x38c07503	9.1770686e-05
205	0xb714c3ef	-8.867107e-06
206	0x39eeae70	0.00045524864
207	0x38122fe3	3.485371e-05
208	0x00000000	0.0
209	0xb4ea3e59	-4.363126e-07
210	0x00000000	0.0
211	0xb71266eb	-8.726241e-06
212	0xb4ea3e59	-4.363126e-07
213	0x371266eb	8.726241e-06
214	0xb71266eb	-8.726241e-06
215	0xb4ea3e59	-4.363126e-07
216	0xb71266eb	-8.726241e-06
217	0x371266eb	8.726241e-06
218	0xb4ea3e59	-4.363126e-07
219	0xb71266eb	-8.726241e-06
220	0x00000000	0.0
221	0xb4ea3e59	-4.363126e-07
222	0x00000000	0.0
223	0xb7ec1e1b	-2.8147411e-05
224	0xb859cda9	-5.1928368e-05
225	0xb4633a6e	-2.1162279e-07
226	0x37e3dee9	2.716431e-05
227	0xb722eccb	-9.711085e-06
228	0xb64a09dd	-3.0106087e-06
229	0xb64a09dd	-3.0106087e-06
230	0xb64a09dd	-3.0106087e-06
231	0xb688db0a	-4.0786153e-06
232	0x351423dd	5.5186484e-07
233	0x35e5f639	1.713349e-06
234	0xb65feb67	-3.3366612e-06
235	0x3b09d15e	0.0021029334
236	0xb835d05f	-4.3347824e-05
237	0xb6c66910	-5.9130907e-06
238	0xb7607adf	-1.3380049e-05
239	0xb4ae7c88	-3.2500634e-07
240	0x3900971f	0.00012263328
241	0x3c3949ac	0.011309069
242	0xb8597afa	-5.1851363e-05
243	0xb7c02a1d	-2.2907794e-05
244	0x3b07b091	0.0020704607
245	0xb7dee1c6	-2.6569596e-05
246	0x00000000	0.0
247	0xb3a1a18e	-7.526533e-08
248	0x00000000	0.0
249	0xb5ca09dd	-1.5053043e-06
250	0xb3a1a18e	-7.526533e-08
251	0x35ca09dd	1.5053043e-06
252	0xb5ca09dd	-1.5053043e-06
253	0xb3a1a18e	-7.526533e-08
254	0xb5ca09dd	-1.5053043e-06
255	0x35ca09dd	1.5053043e-06

exp_avg_sq f4 [128, 114]
0	0x34a897be	3.1402845e-07
1	0x34a897be	3.1402845e-07
2	0x34a897be	3.1402845e-07
3	0x33046f97	3.0835135e-08
4	0x332eb384	4.06758e-08
5	0x330f5155	3.3368753e-08
6	0x33c90aa2	9.361726e-08
7	0x33c1aa02	9.018187e-08
8	0x33bfde55	8.9345725e-08
9	0x35367c56	6.7981216e-07
10	0x3d218e0c	0.039442107
11	0x35c1e848	1.4447223e-06
12	0x33c920f3	9.365785e-08
13	0x33df5828	1.0400282e-07
14	0x33bf0824	8.8956114e-08
15	0x33a72d71	7.784809e-08
16	0x339d8d84	7.336624e-08
17	0x33ad31fd	8.065033e-08
18	0x00000000	0.0
19	0x2f57cc62	1.9626747e-10
20	0x00000000	0.0
21	0x33a897be	7.8507114e-08
22	0x2f57cc62	1.9626747e-10
23	0x33a897be	7.8507114e-08
24	0x33a897be	7.8507114e-08
25	0x2f57cc62	1.9626747e-10
26	0x33a897be	7.8507114e-08
27	0x33a897be	7.8507114e-08
28	0x2f57cc62	1.9626747e-10
29	0x33a897be	7.8507114e-08
30	0x00000000	0.0
31	0x2f57cc62	1.9626747e-10
32	0x00000000	0.0
33	0x34520c4e	1.956225e-07
34	0x345d3995	2.0603177e-07
35	0x348cece9	2.6249407e-07
36	0x3418ec84	1.4242147e-07
37	0x3435ed94	1.6943369e-07
38	0x34a882c4	3.1387583e-07
39	0x34a882c4	3.1387583e-07
40	0x34a882c4	3.1387583e-07
41	0x3302b90f	3.0436293e-08
42	0x33292774	3.938426e-08
43	0x330cc530	3.277563e-08
44	0x33c8191c	9.317793e-08
45	0x33bec0e5	8.882652e-08
46	0x33bf24b4	8.900807e-08
47	0x3536cc64	6.809771e-07
48	0x3d222373	0.03958459
49	0x35c24734	1.4474849e-06
50	0x33c7f61a	9.311425e-08
51	0x33da4ae2	1.0165037e-07
52	0x33be24d2	8.854262e-08
53	0x33a74890	7.7897425e-08
54	0x3399fb01	7.170275e-08
55	0x33ad049e	8.05678e-08
56	0x00000000	0.0
57	0x2f57b198	1.961723e-10
58	0x00000000	0.0
59	0x33a882c4	7.846896e-08
60	0x2f57b198	1.961723e-10
61	0x33a882c4	7.846896e-08
62	0x33a882c4	7.846896e-08
63	0x2f57b198	1.961723e-10
64	0x33a882c4	7.846896e-08
65	0x33a882c4	7.846896e-08
66	0x2f57b198	1.961723e-10
67	0x33a882c4	7.846896e-08
68	0x00000000	0.0
69	0x2f57b198	1.961723e-10
70	0x00000000	0.0
71	0x3451b46c	1.9530279e-07
72	0x345d9821	2.0637573e-07
73	0x348d10d2	2.6275535e-07
74	0x34194988	1.4275986e-07
75	0x3436a774	1.701099e-07
76	0x34a893ab	3.139988e-07
77	0x34a893ab	3.139988e-07
78	0x34a893ab	3.139988e-07
79	0x33014239	3.0095382e-08
80	0x3324a866	3.8337383e-08
81	0x3309f3da	3.211958e-08
82	0x33c79528	9.293791e-08
83	0x33bcb944	8.788132e-08
84	0x33bde317	8.842306e-08
85	0x35371d10	6.8215104e-07
86	0x3d22b93a	0.039727427
87	0x35c2a48e	1.4502018e-06
88	0x33c750b3	9.281339e-08
89	0x33d55e1a	9.9357024e-08
90	0x33bd63e5	8.819169e-08
91	0x33a787cd	7.8012455e-08
92	0x3397308c	7.040316e-08
93	0x33ace718	8.05141e-08
94	0x00000000	0.0
95	0x2f57c742	1.9624927e-10
96	0x00000000	0.0
97	0x33a893ab	7.84997e-08
98	0x2f57c742	1.9624927e-10
99	0x33a893ab	7.84997e-08
100	0x33a893ab	7.84997e-08
101	0x2f57c742	1.9624927e-10
102	0x33a893ab	7.84997e-08
103	0x33a893ab	7.84997e-08
104	0x2f57c742	1.9624927e-10
105	0x33a893ab	7.84997e-08
106	0x00000000	0.0
107	0x2f57c742	1.9624927e-10
108	0x00000000	0.0
109	0x34514e9a	1.9493237e-07
110	0x345e40d5	2.0698947e-07
111	0x348d7654	2.6349392e-07
112	0x3419df13	1.433039e-07
113	0x34366e3d	1.6990175e-07
114	0x343a05bb	1.7324685e-07
115	0x343a05bb	1.7324685e-07
116	0x343a05bb	1.7324685e-07
117	0x338f7789	6.6807e-08
118	0x33a1bc3a	7.531385e-08
119	0x33990757	7.125953e-08
120	0x33e514b9	1.0667413e-07
121	0x3f9ab65f	1.2086905
122	0x3409f561	1.2848388e-07
123	0x3334ca0b	4.2093273e-08
124	0x332ec9a8	4.0695937e-08
125	0x333f30ff	4.4515215e-08
126	0x34fa1983	4.658469e-07
127	0x3cb7c5cd	0.022433186
128	0x353383cc	6.6874486e-07
129	0x33ac655b	8.0278106e-08
130	0x3a15da89	0.0005716463
131	0x3423a096	1.5238979e-07
132	0x00000000	0.0
133	0x2eee1bd4	1.082793e-10
134	0x00000000	0.0
135	0x333a05bb	4.331171e-08
136	0x2eee1bd4	1.082793e-10
137	0x333a05bb	4.331171e-08
138	0x333a05bb	4.331171e-08
139	0x2eee1bd4	1.082793e-10
140	0x333a05bb	4.331171e-08
141	0x333a05bb	4.331171e-08
142	0x2eee1bd4	1.082793e-10
143	0x333a05bb	4.331171e-08
144	0x00000000	0.0
145	0x2eee1bd4	1.082793e-10
146	0x00000000	0.0
147	0x338a045a	6.426917e-08
148	0x33781435	5.7760378e-08
149	0x3414ebd0	1.3869362e-07
150	0x33ec4428	1.1002004e-07
151	0x333695c0	4.2511374e-08
152	0x343a11bb	1.732905e-07
153	0x343a11bb	1.732905e-07
154	0x343a11bb	1.732905e-07
155	0x338f4a5e	6.672484e-08
156	0x33a10fb3	7.5000024e-08
157	0x3398e266	7.119233e-08
158	0x33e565e1	1.0682175e-07
159	0x3f9b2df9	1.2123405
160	0x340a22d5	1.2864923e-07
161	0x333505c9	4.2147608e-08
162	0x332e6927	4.0608167e-08
163	0x333f9f11	4.4615323e-08
164	0x34fa8dd1	4.6669314e-07
165	0x3cb85eb6	0.0225061
166	0x3533df98	6.700807e-07
167	0x33ac28e3	8.0168114e-08
168	0x3a168001	0.000574112
169	0x3423e746	1.5264695e-07
170	0x00000000	0.0
171	0x2eee2b15	1.083064e-10
172	0x00000000	0.0
173	0x333a11bb	4.3322625e-08
174	0x2eee2b15	1.083064e-10
175	0x333a11bb	4.3322625e-08
176	0x333a11bb	4.3322625e-08
177	0x2eee2b15	1.083064e-10
178	0x333a11bb	4.3322625e-08
179	0x333a11bb	4.3322625e-08
180	0x2eee2b15	1.083064e-10
181	0x333a11bb	4.3322625e-08
182	0x00000000	0.0
183	0x2eee2b15	1.083064e-10
184	0x00000000	0.0
185	0x338a120a	6.429407e-08
186	0x3378566e	5.7820607e-08
187	0x3415217f	1.3888892e-07
188	0x33ec87ea	1.1014329e-07
189	0x33371ca3	4.2634053e-08
190	0x343a24a0	1.7335924e-07
191	0x343a24a0	1.7335924e-07
192	0x343a24a0	1.7335924e-07
193	0x338f11d5	6.6622e-08
194	0x33a08913	7.475514e-08
195	0x3398b49d	7.110905e-08
196	0x33e5c602	1.0699661e-07
197	0x3f9ba5f0	1.2160015
198	0x340a3d35	1.2874519e-07
199	0x333545ab	4.220571e-08
200	0x332e04ad	4.0516785e-08
201	0x333fc122	4.4646306e-08
202	0x34fb0d32	4.6761994e-07
203	0x3cb8f801	0.022579195
204	0x35343b25	6.714129e-07
205	0x33abe788	8.004923e-08
206	0x3a172620	0.0005765874
207	0x342433c0	1.5292517e-07
208	0x00000000	0.0
209	0x2eee438f	1.0834988e-10
210	0x00000000	0.0
211	0x333a24a0	4.333981e-08
212	0x2eee438f	1.0834988e-10
213	0x333a24a0	4.333981e-08
214	0x333a24a0	4.333981e-08
215	0x2eee438f	1.0834988e-10
216	0x333a24a0	4.333981e-08
217	0x333a24a0	4.333981e-08
218	0x2eee438f	1.0834988e-10
219	0x333a24a0	4.333981e-08
220	0x00000000	0.0
221	0x2eee438f	1.0834988e-10
222	0x00000000	0.0
223	0x338a22d1	6.432459e-08
224	0x3378679d	5.7836235e-08
225	0x3415537a	1.3907075e-07
226	0x33ec5705	1.1005435e-07
227	0x3336cfd5	4.25642e-08
228	0x323e388b	1.1072312e-08
229	0x323e388b	1.1072312e-08
230	0x323e388b	1.1072312e-08
231	0x313228f3	2.5925686e-09
232	0x31481487	2.91155e-09
233	0x317a13b7	3.6390995e-09
234	0x328f3b74	1.6674427e-08
235	0x3c19c884	0.009386186
236	0x32734dae	1.4162124e-08
237	0x336c3f16	5.500541e-08
238	0x3b346807	0.0027527825
239	0x33d47fd4	9.895271e-08
240	0x34426f0c	1.8108057e-07
241	0x3c802847	0.015644206
242	0x34206e0c	1.4941196e-07
243	0x323fa136	1.1154318e-08
244	0x39ecfbd9	0.0004520107
245	0x333ce1e4	4.3977607e-08
246	0x00000000	0.0
247	0x2cf37bbb	6.9202122e-12
248	0x00000000	0.0
249	0x313e388b	2.768078e-09
250	0x2cf37bbb	6.9202122e-12
251	0x313e388b	2.768078e-09
252	0x313e388b	2.768078e-09
253	0x2cf37bbb	6.9202122e-12
254	0x313e388b	2.768078e-09
255	0x313e388b	2.768078e-09

exp_avg f4 [128]
0	0xb7f6d924	-2.94266e-05
1	0xb79266f1	-1.7452492e-05
2	0xb650ad8f	-3.109544e-06
3	0x380e5afc	3.3940174e-05
4	0xb7cb75cc	-2.425434e-05
5	0x36192a00	2.2823224e-06
6	0xb901cb7e	-0.00012378205
7	0x37ed5aaf	2.829483e-05
8	0xb7de5097	-2.650199e-05
9	0x38251065	3.9354334e-05
10	0x3718d4e9	9.109478e-06
11	0xb7aebaea	-2.0829455e-05
12	0xb841d4f6	-4.621312e-05
13	0x37a8409c	2.0057247e-05
14	0xb558e5a1	-8.0800424e-07
15	0x387a917f	5.974015e-05
16	0xb80ead71	-3.4016968e-05
17	0x3805fbda	3.1944226e-05
18	0x37eae631	2.8002165e-05
19	0x37e45551	2.7219447e-05
20	0x378da934	1.6887301e-05
21	0xb856e0b8	-5.123086e-05
22	0x38068b76	3.2077973e-05
23	0xb7ef5c57	-2.853402e-05
24	0xb764c584	-1.3635847e-05
25	0x37202e1a	9.547477e-06
26	0x37a818d4	2.0038722e-05
27	0x37d4d7db	2.5372885e-05
28	0x3784614c	1.5780934e-05
29	0x38428a9b	4.638229e-05
30	0xb5cfd6e7	-1.5485247e-06
31	0xb7796c90	-1.4866833e-05
32	0xb70e571e	-8.484143e-06
33	0xb77b5c82	-1.49823045e-05
34	0x370c3465	8.356849e-06
35	0x3835ca78	4.3342327e-05
36	0x378774b3	1.6147596e-05
37	0x38244d5c	3.9172694e-05
38	0x3700a6f0	7.668263e-06
39	0xb87da029	-6.046906e-05
40	0x371283a4	8.732928e-06
41	0x38054c2c	3.178061e-05
42	0xb7bfc8c4	-2.2862463e-05
43	0x378a1865	1.6462242e-05
44	0xb88b9601	-6.655977e-05
45	0x380c5358	3.345622e-05
46	0xb87f7d88	-6.0913648e-05
47	0xb79cdace	-1.8698538e-05
48	0x37f19d50	2.8802693e-05
49	0x369fb667	4.7598037e-06
50	0x38c93d67	9.595864e-05
51	0xb7fa6111	-2.9847522e-05
52	0xb7e413b1	-2.7188888e-05
53	0x38a01fb8	7.6353026e-05
54	0xb708c055	-8.1510125e-06
55	0x37ab91a2	2.0452604e-05
56	0xb795a440	-1.7838669e-05
57	0xb6f09d97	-7.1709032e-06
58	0xb83adb88	-4.455031e-05
59	0x375ec434	1.3277913e-05
60	0x3733483f	1.06860525e-05
61	0xb7bdeb05	-2.2639995e-05
62	0xb619dcf3	-2.2927386e-06
63	0x365a290a	3.250842e-06
64	0x38539044	5.0440678e-05
65	0x37fd65c8	3.0207346e-05
66	0x376d4f7a	1.4144805e-05
67	0x371c3376	9.310306e-06
68	0x378a214d	1.6466389e-05
69	0xb6b1ec0f	-5.302492e-06
70	0x36d3d6bf	6.3132898e-06
71	0xb6951a92	-4.443639e-06
72	0xb8085879	-3.2507323e-05
73	0xb7ce1e71	-2.4571289e-05
74	0xb639dd43	-2.769594e-06
75	0x375d12d9	1.3177015e-05
76	0x3741aff7	1.1544666e-05
77	0xb81ca566	-3.7347338e-05
78	0x3810c869	3.4518922e-05
79	0x36320718	2.6528196e-06
80	0x37eba432	2.8090642e-05
81	0x38094538	3.272781e-05
82	0x38866b81	6.409642e-05
83	0x37a817a5	2.0038171e-05
84	0x37a02405	1.909026e-05
85	0xb7c1efc2	-2.3119039e-05
86	0xb7eccd52	-2.8229002e-05
87	0x38768242	5.8772283e-05
88	0x37835d61	1.56599e-05
89	0x370fe546	8.576846e-06
90	0x364753b0	2.9702023e-06
91	0x380a4abd	3.297137e-05
92	0x384b4fd5	4.847332e-05
93	0x37a01a46	1.908572e-05
94	0x38719bdb	5.760403e-05
95	0xb8145923	-3.5368965e-05
96	0xb78c811a	-1.6749418e-05
97	0xb82c4e68	-4.1081017e-05
98	0xb7713d8e	-1.4379051e-05
99	0xb72b554a	-1.0212252e-05
100	0xb70d8676	-8.4355615e-06
101	0x37862ea1	1.5995758e-05
102	0xb579fc03	-9.3126454e-07
103	0xb7fa80f4	-2.986237e-05
104	0x374f1f8f	1.2345509e-05
105	0xb7e4e2b8	-2.7285292e-05
106	0x378a6043	1.6495707e-05
107	0xb7e18247	-2.6882755e-05
108	0x38120437	3.4813038e-05
109	0x3810ecdc	3.4552868e-05
110	0xb79361e7	-1.7569355e-05
111	0xb66bcb65	-3.513612e-06
112	0x37829427	1.5566196e-05
113	0xb691a0da	-4.3400623e-06
114	0xb66b5a97	-3.507046e-06
115	0x37f9443a	2.9714884e-05
116	0x381a8210	3.683759e-05
117	0x37af901d	2.0928734e-05
118	0x3793c766	1.7616618e-05
119	0xb797bc13	-1.8088182e-05
120	0x367964d1	3.7162574e-06
121	0xb6a74fa9	-4.9862615e-06
122	0x37b4c1c5	2.1547903e-05
123	0x36777544	3.6874126e-06
124	0x380dd663	3.3816683e-05
125	0xb82f6581	-4.1817784e-05
126	0xb5dc2199	-1.6401056e-06
127	0x37b32889	2.1357338e-05
