results/ag15/PlatformRotate/PlatformRotate-233179.onnx (onnx, 112474 bytes, 8 tensors)

network_body._body_endoder.seq_layers.0.weight f4 [128, 78]
000000 03 91 8c 3c 24 01 37 bd 86 34 d7 3d 5a 59 00 3e
       0.01715899 -0.044678822 0.10508065 0.12534085
000010 70 af 5f bc d9 30 1a 3d 3b 42 78 be d7 40 db 3d
       -0.013652667 0.03764424 -0.24244015 0.107057266
000020 f7 a6 8e 3c 4f 28 45 3b f4 8b af bb 41 6c 45 3e
       0.0174136 0.003008384 -0.00535726 0.19279577
000030 d0 0e ea bd 67 ff 05 be a8 ed 17 be 22 87 5f 3c
       -0.114286065 -0.1308571 -0.14836752 0.013643058
000040 2f 4e 56 3e ec ff 8f 3c 3e e9 05 be 95 d8 a3 3e
       0.20928262 0.017578088 -0.13077256 0.32001176
000050 1a 2a 32 bd 41 b8 63 be 04 c1 68 3d 9a 79 35 be
       -0.043497182 -0.22238256 0.0568247 -0.17722169
000060 b7 9d 4a be 69 fa 98 bd 9d bb 2e 3e a9 cf 34 be
       -0.19786726 -0.07469637 0.17063756 -0.17657341
000070 3d 20 b8 bd 1d 9b 6d bc 4b 07 67 bc a8 b2 5e be
       -0.08990524 -0.014502314 -0.01410086 -0.2174784
000080 6c f1 6d 3e 41 52 de 3d 5f 00 9e bc 10 f8 e7 3d
       0.23236626 0.108555324 -0.019287286 0.11326611
000090 dc 2f e1 3d f3 96 e8 bd b2 a0 1c 3e bc 72 98 bd
       0.109954566 -0.11356916 0.15295675 -0.07443759
0000a0 9b 89 93 bb 56 65 05 bd 62 82 54 3e 81 1b 8b be
       -0.004502488 -0.032567345 0.20752862 -0.2716942
0000b0 b5 9f e5 3b 88 36 f9 3c 00 42 39 3e a0 c6 58 bd
       0.007007564 0.03042151 0.18091583 -0.0529238
0000c0 41 d1 09 bd 6e fc 8b 3e 95 71 af bc d2 76 b3 3c
       -0.033646826 0.27341026 -0.021416465 0.021907244
0000d0 a5 d4 04 3d 1f 90 80 be af cc d9 3c cb 2f 3c 3d
       0.032429356 -0.25109956 0.026586859 0.045944016
0000e0 79 5b 85 3d dd b6 0c bd bc 2b c5 bd fa 9f 85 3e
       0.06511588 -0.03435408 -0.09627482 0.26098615
0000f0 ad 64 cf 3d a1 7c 6d be 4c d8 2a be b8 3b 70 3d
       0.10126624 -0.23192073 -0.16684073 0.058650702
000100 e8 71 32 be 41 7e 96 bc a4 99 48 bd e3 73 83 3d
       -0.17426264 -0.01837075 -0.048974648 0.06418588
000110 69 41 41 bd 46 ad ae 3d ba cf 9c 3d cc e7 05 be
       -0.04718152 0.08529143 0.07656808 -0.13076705
000120 00 16 20 3e 2f ab 0f be c2 4a a0 bd 5a 71 84 bd
       0.15633392 -0.14030145 -0.07826759 -0.064669326
000130 0c 7d 84 3d 07 81 60 3e 25 69 29 be c7 17 ae 3d
       0.06469163 0.2192422 -0.16544016 0.08500629
000140 e4 df 07 bd 78 a0 9a bd 3e 9f f4 bd e5 5b 9f bd
       -0.033172503 -0.07550138 -0.119444355 -0.07781199
000150 a4 b8 f1 3c d1 14 04 3c 67 96 af bc 6b 6c a2 be
       0.029506989 0.008061604 -0.021434022 -0.3172334
000160 33 84 46 bd 37 58 0a 3e 26 85 05 bd ed 6a fd bd
       -0.04846592 0.13510214 -0.032597683 -0.1237391
000170 5d 9c 66 3b b6 10 1a be cb fe 43 3d 07 56 03 be
       0.0035188415 -0.15045437 0.04785041 -0.12825786
000180 0f f4 29 be 49 27 e0 bd d8 aa ba 3d 95 8b c1 3d
       -0.16597007 -0.10944993 0.09114617 0.09450451
000190 a4 78 07 3e f1 d8 fd 3d 83 d0 c3 3d 53 57 40 3d
       0.13229614 0.12394894 0.09561255 0.04695828
0001a0 de 38 1b 3e a8 ca 0f 3d fc ac 31 3e 19 2d 21 3e
       0.15158412 0.035105377 0.17351145 0.1573986
0001b0 87 e1 07 bd 29 75 28 be ca 25 3b 3d 39 66 39 be
       -0.033174064 -0.16450943 0.045690335 -0.18105401
0001c0 28 cd b1 bd c8 75 b9 bd b8 47 ad 3d 2b 28 04 bd
       -0.086817086 -0.09055668 0.08460945 -0.03226487
0001d0 61 ac 96 3d ab 37 9f bd 43 46 27 3c a8 4a 85 3e
       0.073570974 -0.0777429 0.010209623 0.2603352
0001e0 9e 34 45 3d 23 2a 07 be 3a 0a 5a 3e 95 98 c6 3d
       0.048145883 -0.13199668 0.21292964 0.096970715
0001f0 3b 61 86 bd 01 7c 90 3d 0a e6 47 bd 0e ac 24 3e
       -0.06561514 0.07054902 -0.048803367 0.16081259
000200 2c 6d 18 be fa f1 21 3e e0 8e 30 be fd 35 4c be
       -0.14885396 0.15814963 -0.17242002 -0.1994247
000210 1f 7d a9 3c f8 64 1a bd e6 ee 08 3d 47 bc cc bc
       0.020689545 -0.037693948 0.033430956 -0.024992121
000220 5b 9f 26 3e c5 60 5b bc a7 18 8f bd 01 bc 89 bd
       0.16271727 -0.013389771 -0.06987124 -0.06725312
000230 63 d2 e4 3d d5 15 2a be 0d aa 2e 3d 30 99 51 be
       0.111729406 -0.16609891 0.04264264 -0.20468593
000240 7d e1 02 3e 19 a7 30 bd 47 64 e7 3d a4 39 40 3e
       0.1278133 -0.043128107 0.11298423 0.18771988
000250 48 99 fb bd 6b 5b e5 3d 94 ff 87 bd aa 6f 05 3e
       -0.122850955 0.11199077 -0.066405445 0.13030878
000260 a1 8e 43 bb 85 33 5b 3e 2d f8 9d 3d 25 55 a6 3d
       -0.0029839652 0.21406372 0.077133514 0.08121709
000270 b9 4c 82 3d bb 9f dc bd 14 61 74 3d d7 4b 14 be
       0.0636229 -0.10772654 0.059662893 -0.14482056
000280 e5 89 90 be 9c 44 bc bd 96 24 80 3e 1d 3d 25 3d
       -0.28230205 -0.09192774 0.25027913 0.040341485
000290 ef 39 50 bd aa aa e5 3d 53 d1 f6 3d 30 28 aa bd
       -0.0508365 0.11214192 0.12051644 -0.083084464
0002a0 8e 04 b9 bd a3 9d 9e bd 5c c8 4a 3e 43 2a 0a bd
       -0.09034072 -0.077449106 0.19802994 -0.03373171
0002b0 5d ab fe bd 46 08 2a bd a7 ba 62 3e be 2f 48 3e
       -0.12435029 -0.041511796 0.22141515 0.19549462
0002c0 a7 e6 13 3d 5a 99 b2 3c 0d 78 d2 bd f5 3b 79 bd
       0.03610864 0.02180164 -0.10276804 -0.060848195
0002d0 00 97 8b 3d da 13 80 be ee 61 99 3d 5c d7 e5 3c
       0.0681591 -0.25015146 0.07489382 0.028056793
0002e0 01 6f af 3d 90 ef fe 3c c5 b3 38 3e 0d 88 c8 bd
       0.08566094 0.031120092 0.18037327 -0.097915746
0002f0 40 f2 dc 3d 51 74 3d 3d 6f 29 1d 3d 39 4a 2c be
       0.10788393 0.046253506 0.038369592 -0.16825189
000300 b9 f4 67 3e b6 63 aa 3d 31 4e 18 3d b2 22 fd bd
       0.22651948 0.083197996 0.037183944 -0.12360133
000310 4a ae 64 be 88 15 37 be 5f 1a 55 3e 75 2b bd bd
       -0.22332111 -0.17879307 0.20810841 -0.092368044
000320 fa 0f 73 3c 49 c6 e4 bc 84 5d 32 3d 86 93 b2 3c
       0.014835352 -0.027926581 0.043546215 0.02179886
000330 f0 d4 89 3d cd a0 1a bd b7 ee a4 bc d0 17 3a 3d
       0.06730068 -0.037751008 -0.02013336 0.045432866
000340 03 6f db bc 59 91 8c bd f5 e8 14 3e 3c 69 8f be
       -0.026786333 -0.0686366 0.14541991 -0.28009975
000350 ae 14 81 3e 9e 77 86 bd 12 fb cb bd 7c 23 05 3e
       0.2521109 -0.06565784 -0.09959997 0.13001817
000360 28 5c 91 bc 97 5f f7 3d e5 ed 23 3e 01 46 5e 3d
       -0.017744139 0.12078779 0.16008718 0.05426598
000370 7a 03 3b 3e 8c e0 95 3c 7e 23 2b be 17 10 66 be
       0.18263045 0.018295549 -0.16712758 -0.22467075
000380 a5 e8 0d be 93 5b b4 bd 8a d6 40 bc 89 f6 11 3d
       -0.13858278 -0.08806529 -0.0117699 0.035635505
000390 ef 18 66 3a 6a 3e bb 3c d0 fc 47 3c ab 2d e7 3d
       0.0008777519 0.02285691 0.012206271 0.11288007
0003a0 04 c1 2e be 16 39 c7 3b cc 2c 80 be d4 c4 67 bd
       -0.17065817 0.006079803 -0.25034177 -0.056584194
0003b0 e4 fa 79 bd 08 01 12 3e b0 a3 88 3c 0d 3e 82 bd
       -0.061030284 0.14258206 0.016679615 -0.063594915
0003c0 99 ac 06 3d 36 0f 30 bd 1d ba 2f bd 3f fc e3 bc
       0.032879446 -0.042983256 -0.0429021 -0.027830241
0003d0 3c b3 15 be 37 ac 0e be 93 c8 e0 3d 3d 5f de 3d
       -0.14619154 -0.13932882 0.109757565 0.10858009
0003e0 1a 8b 1a be 48 7a a5 3d ba 58 f9 bc 2d 4f 8b 3d
       -0.15092126 0.08079964 -0.030437816 0.06802211
0003f0 a6 58 d1 3c ae ab dd bc 04 d7 f5 3c 09 aa 88 bd
       0.025554966 -0.027059402 0.030009754 -0.06673057

network_body._body_endoder.seq_layers.0.bias f4 [128]
000000 1c f2 3c bb 39 64 10 3b a0 58 ca 3b 15 f0 90 3c
       -0.0028830832 0.0022032394 0.0061751157 0.017692605
000010 12 39 fd bb 08 d7 f0 ba 0d 44 cc 39 16 6e ce 3b
       -0.0077277506 -0.0018374631 0.00038960614 0.0062997444
000020 ff 54 8e bb c3 0c cd b9 dc 83 e0 3b d8 20 1c 3a
       -0.0043436284 -0.00039110155 0.0068516564 0.0005955822
000030 40 61 cc 3b bb 30 f1 3b ed a8 a5 3b 2e 01 44 bb
       0.006237179 0.0073605455 0.005055538 -0.002990793
000040 da a1 ce ba 8c 24 0c bc c9 30 85 bb 4f 1f 55 3c
       -0.0015764788 -0.008553635 -0.0040646535 0.013007953
000050 f2 a9 46 bc f8 06 2f bc ff 81 ee 3b 53 e5 86 3c
       -0.012125479 -0.010682814 0.0072786803 0.016466772
000060 1c 2b ed bb e7 2e 08 bc cd a6 8f 3b ba b2 dc 3b
       -0.007237805 -0.008311964 0.004383898 0.006735173
000070 e5 cd 3e bc fa b6 75 bc d5 d8 71 bc 8c be 85 bc
       -0.011645769 -0.014997238 -0.014761169 -0.016326211
000080 2b 45 b2 bb 5c 5a 94 3b a5 e9 d5 bb d0 d8 d1 bb
       -0.0054403744 0.0045273732 -0.0065280967 -0.00640402
000090 36 a4 d3 bb 10 5d b5 ba b1 ef 6f 3a 65 df 46 bc
       -0.0064587845 -0.0013836939 0.0009152843 -0.012138222
0000a0 35 56 93 3b 95 31 97 3a 6b 37 12 3c 35 18 ad bb
       0.0044963607 0.0011535162 0.0089243455 -0.0052824267
0000b0 6c 67 42 bb 95 4e b7 3b 6e 80 07 bc 45 20 38 bc
       -0.0029663695 0.0055940845 -0.008270366 -0.011238162
0000c0 69 cb 05 bc 19 0f 05 3c 9f cc 1c bb e5 86 82 bb
       -0.008166173 0.008121275 -0.0023925675 -0.003983366
0000d0 e2 19 81 3b 01 70 ad 38 c0 fb bb ba ae f7 29 3b
       0.003939853 8.270145e-05 -0.0014341995 0.0025934982
0000e0 30 65 60 bb a5 48 a3 bb d9 46 52 bc 18 7e 42 3c
       -0.003424 -0.004983025 -0.012834274 0.011870883
0000f0 7c 52 25 3a 73 ff 85 bb ec be 21 3c 95 d6 00 bb
       0.00063065416 -0.00408929 0.0098721795 -0.001965915
000100 f9 47 33 3c 73 21 7b bc 7b 75 36 3b 5f 26 1f 3c
       0.010942453 -0.015327799 0.002784102 0.009713738
000110 db 44 38 ba 1b 1f 0a 3c e1 90 02 3c 70 ba 99 39
       -0.0007029303 0.008430268 0.007969112 0.0002932134
000120 5c b4 00 bc ac ba c3 ba 25 e4 a5 3b 00 5d 07 bc
       -0.007855501 -0.0014932952 0.0050625973 -0.008261919
000130 10 d8 1b 3c 1f 16 ea ba 4d e0 ca ba e4 eb 66 3c
       0.0095119625 -0.0017859376 -0.0015478224 0.014094327
000140 5a 16 a4 3b ce 63 ba bb ba 5b ae bb a7 0a 9a bb
       0.0050075473 -0.005688167 -0.0053209933 -0.004700977
000150 f0 a9 c9 bb 59 52 5b bc b7 a7 ff 3b 40 ee 7b 3b
       -0.0061542913 -0.013386332 0.0078019756 0.0038441569
000160 f6 9a 5a bc a9 97 63 bb 6f 52 b8 ba d2 f5 34 bc
       -0.01334261 -0.0034727848 -0.0014062653 -0.011044936
000170 5e 40 a5 bb f4 8f 65 3b 56 9f 35 bc 5b 15 93 bb
       -0.0050430736 0.003502843 -0.011085352 -0.0044886298
000180 1a ab 37 bc ef 66 99 39 ab 24 3c 3b 4a 09 67 bb
       -0.011210227 0.00029259126 0.002870838 -0.003525334
000190 fd e3 53 bc 85 5e 6c bc 92 fc ac bb b3 09 6f 3c
       -0.012932775 -0.014426832 -0.005279132 0.014589715
0001a0 76 65 50 bc db d9 ae 3b 51 77 fd bb 8d 91 24 bc
       -0.012719503 0.005336029 -0.007735171 -0.010044468
0001b0 71 2d e6 ba a7 51 52 3c 4f a1 9e 3b 23 ca cd 3a
       -0.001756115 0.01283685 0.004841007 0.00157005
0001c0 9c 3b 1f ba 84 b4 9f bb dc 8a 39 b9 ba 1b 40 3b
       -0.0006074251 -0.004873814 -0.00017694704 0.0029313401
0001d0 94 be 96 ba 95 cb 77 3b 0b 9d b4 3b 4c c9 63 3b
       -0.0011500889 0.0037810553 0.005511885 0.0034757433
0001e0 23 5d 93 bb 0a b2 c2 bb ab 98 8c 39 5d 8a 0c bc
       -0.0044971867 -0.005941634 0.00026816627 -0.00857791
0001f0 6a 37 01 bc dd 7a fa bb 4d cc 8e bb b3 e4 11 3c
       -0.007886747 -0.007644041 -0.0043578506 0.008904624

network_body._body_endoder.seq_layers.2.weight f4 [128, 128]
000000 5f 80 a1 bd 85 af b9 3d bd 65 91 3d 74 00 90 bc
       -0.07885813 0.09066681 0.07099483 -0.017578341
000010 42 9a ce bb f7 4b ff ba 16 a6 dd bd 86 86 f4 bd
       -0.00630501 -0.0019477595 -0.10822694 -0.11939721
000020 c2 5e e8 bb 0b ee 16 3c 78 85 30 3e 90 8a 84 3d
       -0.007091374 0.009212027 0.17238414 0.06471741
000030 b4 e1 36 3b 37 4f 5f 3d 9a e6 38 bd a1 a7 49 bd
       0.0027905526 0.054518905 -0.045141794 -0.04923213
000040 a2 66 8f bd 30 7c 20 3c 9d 7d 4a be 2c bd a1 3d
       -0.070019975 0.009795234 -0.1977448 0.0789741
000050 c5 27 6b 3d 42 34 9d 3d af 0e 6a bd 82 52 6c 3c
       0.057410974 0.07675983 -0.05714291 0.014423968
000060 af d7 87 bd e4 0a ce 3d 11 c6 c8 3d 2f 22 03 bd
       -0.06632935 0.10060671 0.09803403 -0.032015022
000070 84 7a 9a bd 54 79 9f bd 94 93 1d bd 9f 63 ce bc
       -0.07542899 -0.077868134 -0.03847082 -0.025193987
000080 9e 4b 99 3d 1b 7f 02 bd 43 b5 f4 3c d7 66 04 3e
       0.07485126 -0.0318595 0.029871589 0.12929855
000090 a0 39 01 3e 9a e7 c3 bc 05 3f c3 3d ca ea 89 bc
       0.12619638 -0.023914147 0.095335044 -0.016835589
0000a0 93 ea f1 3d 83 b0 36 bd 4c ba 37 be 54 27 b0 bc
       0.118123196 -0.04460193 -0.1794216 -0.021503128
0000b0 78 75 9c 3c e9 f0 dc bd 13 ba 47 3e 64 a0 01 3d
       0.019098982 -0.107881375 0.19504575 0.0316471
0000c0 d7 f0 ae bd ec fa 8e bd f9 4b 08 3e 1d 74 39 be
       -0.0854203 -0.06981453 0.13310231 -0.181107
0000d0 32 67 9e 3d d7 c7 96 3c 6a f8 20 be 91 89 83 3c
       0.07734527 0.018405838 -0.15719762 0.016056808
0000e0 32 11 fc 3d 68 25 0d be e2 72 dc 3d e7 ef d3 bd
       0.12307967 -0.137838 0.107641 -0.10348492
0000f0 ed 65 9c 3c 4c 49 28 bd c9 65 06 be 51 2a 01 3c
       0.01909157 -0.041085526 -0.13124765 0.007883624
000100 42 e5 3b 3d f0 ca 6a 3d 9a 7d 44 bd 54 f0 64 bd
       0.045872934 0.057322443 -0.047971345 -0.055893257
000110 97 fb 2d 3d ee bd dd bc d8 0a 83 3d 98 9f 7a bd
       0.042476263 -0.027068105 0.06398553 -0.061187357
000120 d5 51 31 3d 4a 5a 40 3e 45 75 95 3d 36 d3 91 3e
       0.04329093 0.18784443 0.07297758 0.28481454
000130 b8 40 e3 bd 99 b3 a7 3c 02 e2 c6 3c bd ce 15 be
       -0.110963285 0.020471381 0.02427769 -0.14629646
000140 cf 12 76 bd df fd b5 bd fe d8 0e bc 93 1c 1a bc
       -0.06007653 -0.08886313 -0.008718727 -0.009406227
000150 a9 91 b0 bc 81 7f a0 bd 96 54 cb bc 07 a9 7c bd
       -0.021553831 -0.078368194 -0.024820607 -0.061684635
000160 ba f7 2c 3d 8c e6 da 3d d8 8d 96 bd fb 75 2a 3e
       0.042228438 0.106885046 -0.07351273 0.16646568
000170 17 bf 0c 3e ef 36 8a 3c 8f 46 04 3c 32 83 36 bd
       0.1374477 0.016871898 0.008073463 -0.04455871
000180 4b 9d 89 bc 83 66 e1 bd 3a dd 94 bd ec b1 10 bd
       -0.016798636 -0.11005881 -0.07268758 -0.03532593
000190 49 98 3a be 3c d8 c7 bd 0e 21 63 3d 78 84 a5 bc
       -0.18222155 -0.0975804 0.055451445 -0.020204768
0001a0 67 55 73 3d b9 59 98 bd 0b 9f b6 bc ca a9 1c 3d
       0.059407618 -0.07438988 -0.022292634 0.03824786
0001b0 de ff 40 bd 1f b6 35 be 2d e8 dd bd a1 c6 3f 3e
       -0.047119014 -0.17745255 -0.108353 0.18728115
0001c0 22 ce 99 bd 71 20 8f 3d a5 e0 e0 bc b6 12 cc 3d
       -0.0751002 0.069886096 -0.027450869 0.09964506
0001d0 5d d2 b5 bd d8 d8 c5 bd a3 18 e6 3c 5b 54 06 bd
       -0.08878014 -0.096605 0.02808792 -0.03279529
0001e0 99 a5 08 be 84 8a 71 3e fa d7 92 bd ab 92 a8 bd
       -0.1334442 0.23587996 -0.071701005 -0.082311
0001f0 a2 a0 00 bd ea f2 40 3d d0 5b 20 3b 52 88 8a bd
       -0.03140319 0.04710666 0.0024468787 -0.06764282
000200 4a 01 d2 bc fa 10 99 3d d7 f9 24 be 5d b3 4a 3d
       -0.02563538 0.07473941 -0.16110931 0.04948746
000210 5c be 3a 3d 36 05 3c be fc b2 e2 bd 42 a7 2e be
       0.045591697 -0.18361363 -0.11069295 -0.17055991
000220 fc 80 ac 3d dc 21 fb 3d a6 67 7d 3d b8 1b 90 bd
       0.08423039 0.122623175 0.061866425 -0.07036537
000230 0a 3d 05 bd 67 1a bd 3d 25 a9 72 bd 95 48 cc 3d
       -0.032528915 0.092335515 -0.05924334 0.099747814
000240 04 d0 b5 bd 21 e0 82 ba 6e 0e db bd 2d c7 8d 3d
       -0.088775665 -0.0009985009 -0.106961116 0.069227554
000250 79 07 bc bd c1 b6 91 3d ae 07 cc bd 70 fe b0 3d
       -0.09181113 0.07114936 -0.09962402 0.0864228
000260 db fd 52 3c 1a 15 84 bd dd 46 cc bd e3 e4 20 bd
       0.012877907 -0.06449337 -0.099744536 -0.039280783
000270 66 89 3f 3e 69 8b c8 bb 56 79 84 be 2d 2d 7f 3d
       0.18704757 -0.0061201346 -0.25873822 0.062298942
000280 ae 2b d8 bd 0b 83 1b 3d f6 cf 1c 3e 7e fd 57 3d
       -0.10555206 0.03796677 0.15313706 0.052731983
000290 9b 45 df bd f6 64 3c 3d 74 7a 55 bc 80 a5 5e bd
       -0.10901948 0.04599472 -0.013029683 -0.05435705
0002a0 78 1d 27 bd 84 69 17 bd 21 d9 35 3c 42 63 3d 3d
       -0.040799588 -0.036965862 0.011099131 0.046237238
0002b0 1c 76 c0 bd db 7f ee bc b9 42 d8 bd cc 43 3f bd
       -0.093975276 -0.0291137 -0.10559601 -0.046695516
0002c0 a5 de e8 3d 2c 54 49 bc 02 f3 f3 bd d6 ba 85 3d
       0.11370591 -0.012288135 -0.119115844 0.06529777
0002d0 4e 4f 10 3d 31 d2 80 be c4 bb 7b 3c 38 0a 55 bd
       0.03523188 -0.25160363 0.015364591 -0.0520117
0002e0 14 ee 86 bd 8f 80 ef 3c ea cc e7 bd 5f cc 20 be
       -0.065883785 0.029236106 -0.11318381 -0.15702961
0002f0 84 99 82 3d 14 03 0e 3e d5 96 38 3d 27 7d 19 3e
       0.06376937 0.13868362 0.04506572 0.14989148
000300 2f 25 48 be b7 be 57 bd 08 43 8f 3d 82 ef ee bd
       -0.19545434 -0.052672114 0.06995207 -0.11666776
000310 3b ec de 3a 59 26 c9 3d ec a3 41 3e cd f1 84 bd
       0.0017007658 0.09821767 0.18910187 -0.06491432
000320 05 ad d5 3c 68 ca 4e 3d f7 4d bd 3a 3e 8a b6 bc
       0.026083479 0.050486 0.0014442791 -0.022282716
000330 ed 01 ac bd cd 55 97 bd 0d 40 9c 3d fc f2 9b bc
       -0.08398805 -0.07389412 0.07629404 -0.019036762
000340 9f 13 c0 3d 50 76 16 3d 18 5f 66 3c f5 ac 8a 3d
       0.093787424 0.036733925 0.014060758 0.0677127
000350 96 84 00 be 28 00 9a bc 94 6d df 3d 87 c9 af bc
       -0.12550578 -0.018798903 0.10909572 -0.0214584
000360 04 b5 b9 bd 36 b9 06 be 81 d1 18 3c 4f 85 82 3c
       -0.09067729 -0.1315659 0.009327293 0.015932707
000370 ed e8 b5 3d 38 f6 45 bd 0c ac 25 bd 2d 74 4c 3e
       0.08882318 -0.048330516 -0.04044728 0.19966193
000380 ba 63 53 3d 8a 75 a0 3d 8e 9a 1b bd 43 00 62 3c
       0.05160878 0.07834919 -0.03798919 0.013794008
000390 24 93 27 3d c2 db a1 bb 72 53 22 be 58 05 1b bd
       0.04091181 -0.0049395273 -0.15852144 -0.037846893
0003a0 df 14 8d 3c 1f dc 8d 3d 35 b2 bd bd ba 23 ce 3a
       0.017221866 0.069267504 -0.09262506 0.00157272
0003b0 d9 af 64 bd 98 dd b7 bc 9f 52 69 bd d2 11 e2 3c
       -0.055831764 -0.022444531 -0.05696356 0.027596388
0003c0 af f3 41 bd a1 d3 91 3d cd c6 27 bd bf 3e ec bd
       -0.047351535 0.07120443 -0.040961076 -0.11535405
0003d0 a0 1a 3b 3d e6 e3 05 be 23 ba 18 bd 20 51 fa 3c
       0.04567969 -0.13075218 -0.03728689 0.030556262
0003e0 b0 f6 e2 bd f8 93 12 3d dc ea 4e 3d c1 a9 87 bd
       -0.11082208 0.035785645 0.050516948 -0.06624175
0003f0 4c fd 93 3d ef a0 fe bc 4c 56 c1 bc 5e 79 b0 3d
       0.07226047 -0.031082598 -0.02360072 0.08616899

network_body._body_endoder.seq_layers.2.bias f4 [128]
000000 f0 5a 0f bc 26 09 68 ba 82 16 1f 3c b2 98 22 3a
       -0.0087497085 -0.0008851461 0.009709956 0.0006202563
000010 74 51 c8 ba 91 07 57 3c 36 14 a8 b9 d3 ad 9c 3b
       -0.0015283064 0.013124363 -0.00032058515 0.0047814636
000020 36 1e 9d bb 8f 05 a8 ba ab 7b 2b bc 0b 45 29 3c
       -0.004794861 -0.0012819039 -0.010466496 0.0103314025
000030 f2 ce 1c 3a 1d f1 85 3c 5b b3 bd ba 37 7b 3a b8
       0.0005981765 0.016350323 -0.0014473008 -4.446061e-05
000040 a1 e9 c5 3b f4 0c 8d 3c 4d a3 1f bb 91 3c 0d 3b
       0.0060398136 0.01721809 -0.002435881 0.0021550993
000050 0f 8b 59 bb 8a b2 ec 3a 84 46 04 3d f4 dc 51 bb
       -0.0033194458 0.001805858 0.03229381 -0.0032022567
000060 9a 6f 86 3c a3 c2 0b bc 4a 96 2e ba 12 4f 53 3b
       0.016410638 -0.008530292 -0.0006659968 0.0032243175
000070 a1 a1 0f bb 58 43 6a bb d1 c0 40 3c 3a 5e 3d 3b
       -0.0021916407 -0.0035745706 0.011764721 0.0028895275
000080 60 d4 8e ba ab 47 67 3a e2 f0 6b 3b 57 ba 32 3c
       -0.0010897033 0.000882263 0.0036001732 0.010908685
000090 6f 20 ea 3a f6 85 7a bb 10 1c 08 bc b1 45 3d 3a
       0.0017862449 -0.003822682 -0.008307472 0.00072201627
0000a0 d5 3f de b9 64 69 82 bb 9a 89 77 bb b1 dd 69 3a
       -0.00042390698 -0.0039798487 -0.0037771226 0.0008921279
0000b0 fc c7 0b 38 0c 1d d0 bb 30 ca 90 bb 5d 36 70 3c
       3.3326432e-05 -0.006351119 -0.004418634 0.014661399
0000c0 51 6f da bb 70 4b d7 bb 01 65 4b 3a d9 7d 5f bb
       -0.006666102 -0.006570272 0.0007758886 -0.003410211
0000d0 89 01 1d 3c af 18 3a bc 72 91 82 bb ab 5d 09 bc
       0.009582886 -0.011358424 -0.0039846236 -0.008384149
0000e0 d2 d4 19 bb 66 52 29 bc 6f 43 0f bc db bd 38 bb
       -0.0023472798 -0.010334587 -0.008744105 -0.0028189335
0000f0 c3 f9 08 3c 8c 77 55 bb 2e cc 72 3a 6f e9 9f bb
       0.008360329 -0.0032572476 0.00092619925 -0.0048801224
000100 1a e6 f1 bb da a2 48 3c 18 67 5f bc a4 68 89 3b
       -0.0073821666 0.012245858 -0.013635419 0.0041933823
000110 97 08 c2 b9 eb c6 15 bc 77 f6 c3 bb f5 f0 73 ba
       -0.00037008963 -0.009141664 -0.0059803086 -0.000930562
000120 a9 0b 22 bb 41 fd a3 3b 2c 41 a0 bb c7 73 79 bb
       -0.0024726188 0.0050045555 -0.0048905816 -0.0038063393
000130 b0 f1 94 3c 7c 92 62 3b cb 07 74 3b a3 74 66 bb
       0.018181652 0.0034572175 0.003723609 -0.0035164736
000140 e5 6a 04 bb 7c 54 a0 3b a7 b2 aa 3b 52 93 2d 3a
       -0.0020205316 0.004892884 0.0052092853 0.00066213787
000150 38 27 d8 bb c9 eb e8 bb 92 6d 07 bc bd d3 20 bc
       -0.006596472 -0.007108186 -0.00826587 -0.009816107
000160 37 11 47 39 05 b4 4f 3c ab c0 d8 bb c1 c3 3f 3b
       0.00018984532 0.012677197 -0.0066147647 0.0029260966
000170 85 61 e2 3b af a1 4b bc b8 c6 52 bb 9b 4a 88 b9
       0.006908598 -0.012428685 -0.0032161903 -0.00025995527
000180 a9 b6 df bb 52 4c 87 3b 4d 37 13 bc f8 6f 87 bb
       -0.0068271947 0.004128971 -0.008985353 -0.0041332208
000190 b5 e6 46 bc 0a e5 53 bb 58 79 21 3b a8 23 26 3c
       -0.012139966 -0.0032332563 0.0024638977 0.010140337
0001a0 2b fb 13 bc 95 c2 c9 3a b5 69 db bb 66 36 8d bb
       -0.009032051 0.0015393073 -0.006695951 -0.0043094633
0001b0 bf a5 00 3c 65 19 80 3b 02 1f 87 3b 96 87 fa 3c
       0.007852017 0.0039092773 0.0041235695 0.03058223
0001c0 d8 30 46 bb 80 43 a6 3b b3 e6 2f bc e6 a5 3b 3c
       -0.0030241515 0.0050739646 -0.010736155 0.0114531275
0001d0 8d 6e 32 ba 94 5d 7a bb 21 9c 15 3c c8 f7 0c bc
       -0.00068066345 -0.003820275 0.009131462 -0.0086039975
0001e0 40 82 20 bb 7d 76 19 3c de 12 ed ba 7c 3b 0c 3c
       -0.0024491698 0.009366629 -0.0018087288 0.008559104
0001f0 d7 e6 ac ba 0f c9 df 3c 30 77 de bb 71 09 54 ba
       -0.0013191354 0.027317552 -0.0067891106 -0.0008088565

action_model._continuous_distribution.log_sigma f4 [1, 2]
000000 e2 ec 5c 3a 60 a0 83 ba
       0.0008427632 -0.0010042302

action_model._continuous_distribution.mu.weight f4 [2, 128]
000000 44 cb 82 3a ae b8 c4 bb 8a 30 4f 3c 20 3f d0 3b
       0.0009978791 -0.006003461 0.01264585 0.0063551813
000010 be b5 e2 ba 56 d6 bb 3c 5c 07 cb 3a a8 31 65 39
       -0.0017296595 0.022929352 0.0015489864 0.0002185764
000020 65 e2 98 3b 43 09 82 bc ce b6 92 3a a8 48 a1 3c
       0.00466566 -0.015873557 0.0011193396 0.019687966
000030 1e 27 3c bc 1f bb b4 3c ec 2a 80 bc a0 30 4a 3d
       -0.011483936 0.022061883 -0.015645467 0.04936278
000040 47 c1 9b bb 69 6a 7f bb 89 ab 0f bc 0b 8a aa bc
       -0.004753265 -0.0038973338 -0.0087689245 -0.020817777
000050 25 45 a6 bc 7c 22 40 bd c5 15 f6 3a e0 2b 1e bd
       -0.020296643 -0.046907887 0.0018774798 -0.03861606
000060 2d 0f 6b ba 2d 40 7f 3c c2 cb 3f 3c 8e 8f 04 bb
       -0.00089668 0.015579266 0.0117062945 -0.0020227167
000070 c3 c4 95 3c 41 36 d9 3b 61 99 b4 3c e0 0a fe 3c
       0.0182823 0.006628782 0.022045793 0.031011045
000080 d5 df 35 3d db ba 33 bc 39 d8 cb 3c 73 08 74 bb
       0.044402916 -0.010969843 0.024883376 -0.0037236481
000090 b9 37 73 bc 67 6d 27 3c 6c f9 dc bc d8 4b 1f 3c
       -0.014844828 0.010218955 -0.026974402 0.009722672
0000a0 6e 74 ce 3b 86 63 00 bd d5 1f c0 bc be 6e 17 3c
       0.0063005006 -0.031344913 -0.023452679 0.009242712
0000b0 07 4e 87 bc 77 49 19 bc 35 26 f8 bc b8 de 0a 3c
       -0.016516699 -0.009355894 -0.030291656 0.008475952
0000c0 82 b2 29 ba 4d 38 14 3c 7a f4 99 ba 5f da aa bc
       -0.0006473438 0.009046626 -0.0011745833 -0.02085608
0000d0 32 fe e4 3c bb e7 10 bb 57 92 20 3c 8a aa ba 38
       0.027953241 -0.0022110778 0.009800515 8.9009365e-05
0000e0 ab 47 68 3c 57 be e1 bb 1f df 94 ba e6 81 6d 3a
       0.014177243 -0.0068891454 -0.0011357999 0.0009060189
0000f0 15 ba ed 3c 57 a5 e3 3c 0c 15 6d bc 10 d5 2b bc
       0.029019395 0.027788801 -0.01447035 -0.01048781
000100 01 32 0c bd f0 b8 08 3d a6 f9 50 ba bc 42 86 bc
       -0.034227375 0.033379495 -0.0007971771 -0.016389243
000110 7b b1 ee bc 86 93 19 3b bf a3 a8 bc fc 22 00 bd
       -0.029137364 0.0023433878 -0.020585893 -0.031283364
000120 1c c8 27 3c 61 81 6d 3b 03 2a 0f bc 9b 24 32 bc
       0.010240581 0.0036240446 -0.008738044 -0.010872985
000130 fe 23 5d 3b 80 db d1 3b 77 ca 69 bc 8c f3 e9 3a
       0.0033743377 0.0064043403 -0.014269463 0.0017849072
000140 5d b5 e7 bc c8 85 2d 3c c7 6d 1b 3c 2f 2f 31 3a
       -0.028284723 0.010590978 0.009486622 0.0006759045
000150 77 bf 9f 3b 25 11 25 bc 4a 4c 2d bc b3 4b 7e bc
       0.0048751193 -0.010074888 -0.010577271 -0.015520978
000160 e5 bb 2c bb 07 cb d1 3c 0f 48 e0 bb 8d 70 9e bc
       -0.002635711 0.025609506 -0.0068445276 -0.019340778
000170 47 bc 99 ba a8 d3 02 bc 74 1d e1 bb bb e1 f8 bb
       -0.0011729085 -0.007985033 -0.006869966 -0.0075952685
000180 45 73 44 bb 0b 94 1d bc 5c 92 40 3c ce c6 b2 3c
       -0.0029975933 -0.009617816 0.011753645 0.021823313
000190 1c 96 b9 bc 62 b9 af 3b 55 3f f0 3c 10 90 06 bc
       -0.022654586 0.0053626755 0.029327074 -0.008213058
0001a0 af 31 fa 39 e8 58 70 bc 8f 1d 15 3b f5 28 30 3b
       0.00047720733 -0.014669634 0.0022753214 0.002687988
0001b0 16 6e fe 3c 82 8a 2d bb a4 8b 90 bc 92 31 dd 3c
       0.031058352 -0.0026480262 -0.01764471 0.027001176
0001c0 76 23 41 3b 97 d7 d8 3c 5b 54 82 bc 99 f9 a0 bc
       0.00294706 0.026469989 -0.015909364 -0.019650267
0001d0 a5 59 7b bc b2 e0 fa 3a b2 86 42 3b 5d 1d d4 bb
       -0.015341197 0.0019140451 0.0029682335 -0.006473227
0001e0 df ac 98 bc 22 3d 4a 3c ed d1 00 bd 0a ab b3 3c
       -0.018637119 0.012343677 -0.0314502 0.021932144
0001f0 4d 23 79 bc 00 1f 15 3c 0b fe 31 3c 35 99 e6 bc
       -0.01520617 0.009101629 0.010863791 -0.028149227
000200 0a b1 78 bc 40 01 19 3b 4a 77 50 3c be b1 8d bc
       -0.015178928 0.0023346692 0.012723753 -0.017296668
000210 b6 bb cb 3b 7a cb e0 3b 6d 93 54 bc 8e 62 c0 3c
       0.0062174452 0.006860194 -0.012974602 0.023484495
000220 53 7b 68 3b 91 91 e7 3b 87 11 5c bb 7f 5b d8 3c
       0.0035473898 0.0070669134 -0.0033579783 0.026410816
000230 a9 ae 86 ba a9 53 d6 3c 27 d2 41 3c 8c 44 e7 bb
       -0.0010275441 0.02616294 0.011829889 -0.007057732
000240 66 5f 49 bc 8f e5 d0 3c 36 21 46 bc fb 7b d2 3c
       -0.012290811 0.025500087 -0.012092879 0.025693884
000250 3e 13 36 bd 0c 66 57 bd 05 4d 31 3d 9c 7b 8c 3b
       -0.044451945 -0.052587554 0.043286342 0.0042871963
000260 69 dc d9 bc 12 1b 30 bc ee db 18 bd 51 81 28 3c
       -0.026594358 -0.010748642 -0.037319116 0.010284738
000270 1a 46 4a bc b7 6b b9 bb 1d 93 d9 3c 79 43 54 b9
       -0.012345815 -0.0056585926 0.026559407 -0.00020243031
000280 f8 c5 b9 bc 1b 96 da bc 1d a7 17 bc 2c b4 05 3d
       -0.022677407 -0.026682904 -0.0092561515 0.03264253
000290 d9 5b 9f 3c 97 2d 0f 3c 01 b0 6b bc e3 d5 1d 3b
       0.019452976 0.008738897 -0.014385224 0.0024083785
0002a0 94 74 71 3b bd 35 ab bc 28 7b af bc c6 18 05 3c
       0.0036843168 -0.020899648 -0.02142103 0.008123582
0002b0 37 a4 68 3c 03 49 1b bb 7e 40 2c bc 9f ca 95 3c
       0.014199308 -0.0023694641 -0.010513423 0.018285094
0002c0 87 68 fb bc 78 49 af bb c5 de fb 3b 88 1c f7 bc
       -0.030689491 -0.0053493343 0.0076864683 -0.030164972
0002d0 88 5f 7c 3c bd 5e 8f bc db c0 37 bc 35 4b b5 bc
       0.015403636 -0.01750123 -0.011215414 -0.022130588
0002e0 9d 2b e9 bb c4 d3 03 bd 1a 71 bc bc 1a ce af bc
       -0.007115795 -0.032184377 -0.02300315 -0.021460582
0002f0 24 4c 3f 3c 9c 24 d8 bc 65 c1 17 ba 2e 0f 76 3b
       0.011675868 -0.026384644 -0.0005789011 0.003754567
000300 5f 07 eb bb ac d5 a5 3c d4 59 bb bc fe 23 61 3c
       -0.0071725096 0.020243488 -0.022869982 0.013741491
000310 78 d8 c8 bb 4f 0f a7 bc 78 84 e6 b9 12 38 d4 3c
       -0.0061293207 -0.020393042 -0.00043967715 0.025905643
000320 85 6e c9 3b 21 8d f3 bc f4 f0 e1 3a b8 a1 26 bc
       0.006147208 -0.029730381 0.0017237947 -0.010170393
000330 61 bf 39 3c dd 95 86 bc 6f 05 d0 bc cf b2 00 bd
       0.011337132 -0.016428882 -0.025393216 -0.031420525
000340 8c 26 20 bd d3 73 98 bb d5 b4 32 3c 02 57 a1 ba
       -0.03909926 -0.004652479 0.0109073715 -0.0012309256
000350 3d 2c 07 bc bb c8 1d 3c c5 7e b8 bb 30 0e cb bb
       -0.008250293 0.009630377 -0.0056303465 -0.0061967596
000360 b0 c5 0c bd 50 71 b0 3c f8 f4 04 bb e0 d6 88 3c
       -0.034368217 0.021538407 -0.0020287614 0.016704023
000370 24 6b b9 3b d8 d2 d8 bc 5f 16 30 bc 24 cf 5c bd
       0.005658524 -0.026467726 -0.010747521 -0.053908482
000380 07 0e 06 bd 61 08 27 3d 29 81 e3 bc 03 d7 5f 3c
       -0.03272822 0.040779475 -0.02777155 0.013662103
000390 9c c4 8b bc c0 c6 89 bb c3 0c 31 bc d1 e8 13 3d
       -0.017061524 -0.004204601 -0.010806265 0.036110703
0003a0 ed 62 5f bc 8c 45 87 3c 3f a9 6b bc 02 c7 22 bc
       -0.013634426 0.016512655 -0.014383613 -0.0099351425
0003b0 9f ea 84 bb 52 67 8e 3c 07 20 99 3b 02 6e 34 3d
       -0.0040562893 0.017383251 0.0046730074 0.044050224
0003c0 0d 9c c4 bb 65 14 c7 bc 53 63 f0 bc f7 7e 80 bc
       -0.006000048 -0.024301717 -0.029344236 -0.015685542
0003d0 7c 3f 9c 3c 94 fe 75 bc 87 28 7e 3c 51 f0 9d bc
       0.01907324 -0.015014309 0.015512592 -0.01927963
0003e0 c7 86 2e bb cc ba 5e 3b 2e 36 fe 3a 46 85 a7 ba
       -0.0026630627 0.0033985851 0.0019394809 -0.0012780807
0003f0 c5 a2 04 bd 84 98 d5 3c 2f c4 c0 bc 36 b5 ac bc
       -0.03238179 0.026073702 -0.023531048 -0.021082502

action_model._continuous_distribution.mu.bias f4 [2]
000000 fc 4b d4 3b 50 4a 0b 3c
       0.0064787846 0.008501604

action_model._discrete_distribution.branches.0.weight f4 [1, 128]
000000 4d ad 0a 3c e9 62 cc bb fb a2 64 bc 07 ce 19 bc
       0.00846417 -0.006237377 -0.013954873 -0.0093875
000010 83 09 a6 bc ab 9d 47 3c 3b 5e 63 bb c0 df 65 bb
       -0.020268207 0.012183587 -0.0034693617 -0.0035075992
000020 c7 4e 84 3b c0 ff 20 3a 90 0b 1a 3a 08 d2 de b9
       0.0040377113 0.00061416253 0.0005876357 -0.00042499625
000030 d0 37 fc bb 4d 96 cf 3a 12 af 5b bb a1 e9 06 3c
       -0.007697083 0.001583764 -0.0033521098 0.008234412
000040 17 77 28 3c 7b db 86 3b 83 a0 2d bc a4 03 37 bb
       0.0102822995 0.0041155196 -0.010597351 -0.0027925754
000050 4f 4a 9a bc c8 44 85 bb fe 8f 88 3c 41 b1 8c 3b
       -0.018834261 -0.0040670373 0.016670223 0.0042935912
000060 ba 73 51 3b f7 1a ca bb ba 56 35 3c f2 b0 73 bb
       0.0031959848 -0.0061677652 0.0110680405 -0.0037184325
000070 02 f2 63 39 87 bd 3d 3c 13 8d b1 3c 3f b5 f3 b9
       0.00021738562 0.011580831 0.021673715 -0.0004648361
000080 6f 73 a7 bb 88 7e 4f 3b ba 45 1a 3c 15 fe 72 3b
       -0.0051101963 0.0031661112 0.009416038 0.0037077714
000090 af ff 83 3b e8 62 65 bb 83 5a b7 3b b5 cc 21 bc
       0.0040282826 -0.003500158 0.0055955066 -0.009875466
0000a0 eb a5 e9 3b b3 df 59 3b 03 44 6d 3b 79 7e 0b bc
       0.0071303747 0.0033244907 0.0036203868 -0.00851404
0000b0 8d c8 63 b9 33 04 cf 3b ba 2b 34 bb 3f 07 e6 bb
       -0.00021723118 0.0063176393 -0.0027491883 -0.007019907
0000c0 20 2e cd bb 52 f1 00 bb 43 f4 05 bc b9 c2 46 bc
       -0.006261602 -0.0019675088 -0.008175912 -0.012131386
0000d0 bb 65 59 bb 16 3d 84 3a 6f dc 66 3a 00 f8 7b 3c
       -0.0033172208 0.0010089006 0.0008806651 0.015378952
0000e0 cb 43 b4 b9 b1 63 38 bc 67 12 59 3c 42 e2 2b bc
       -0.00034382785 -0.011254237 0.013249016 -0.010490956
0000f0 b3 73 12 3c c0 d2 f6 3b 27 36 5d bc 4d ac 48 3b
       0.008938718 0.0075324476 -0.01350168 0.0030620277
000100 c7 30 7a 3a 53 a2 b3 bb f8 19 71 39 3b 76 53 3b
       0.00095440116 -0.005481997 0.00022993225 0.0032266516
000110 8d 67 dd 3b a2 4f e5 3b ab 71 81 bb 5a c6 10 bc
       0.006756729 0.0069980184 -0.003950318 -0.008836353
000120 40 79 6d 3a ea 90 01 3a 87 e0 29 bc cf d4 d4 bb
       0.00090589 0.00049425534 -0.010368473 -0.0064950953
000130 d7 e5 2a bb 40 fb 31 bc 88 11 d6 3b cb 92 81 bb
       -0.0026076937 -0.010863125 0.0065328516 -0.0039542667
000140 b1 56 3b 3b 82 c5 b8 bb 63 83 86 3b 71 6b 29 3c
       0.0028585608 -0.005638779 0.004105018 0.010340557
000150 6d 46 75 3c bf 46 02 bc 54 84 49 ba 5b f0 61 3c
       0.014970404 -0.0079514375 -0.000768726 0.013790215
000160 6a c1 5a 3c 23 ef 02 3a a9 22 1d bc fc e7 ab bc
       0.013351778 0.00049947406 -0.009590783 -0.020984642
000170 5d 81 e7 ba 3b 0b 07 bc 73 a8 2f 3b 5a c3 8e 3b
       -0.0017662455 -0.008242424 0.0026803284 0.004356784
000180 0e ec bd 3b a8 78 47 3b d0 02 96 bc 48 66 8f 3c
       0.005795962 0.0030436907 -0.018311888 0.017504826
000190 1b 76 a6 bc 2d 7f 79 3c 9b 48 7f bc 03 bc 04 3c
       -0.020319989 0.015228075 -0.015581275 0.008101466
0001a0 92 ec 65 bc 1e 8a 1a 3b f3 2b c8 bb ab e6 f4 3b
       -0.014033454 0.002358086 -0.006108755 0.007473787
0001b0 c1 3e 47 bc 88 9d f9 3a 1f 84 1a bb 6f ec 88 bc
       -0.012160958 0.001904414 -0.0023577285 -0.016714303
0001c0 d8 61 76 3c b7 52 c1 bb d0 1f 48 3c aa ca b9 bb
       0.015037976 -0.005899753 0.012214616 -0.0056699114
0001d0 73 ad 8a 3a 1e b1 83 3c 87 4d 61 3b 4c fc 48 ba
       0.0010580256 0.016075667 0.0034378485 -0.00076669897
0001e0 95 90 4e bc 07 f3 9f 3b 03 17 c0 3a 2b df c4 3b
       -0.012607713 0.004881266 0.0014655296 0.006008049
0001f0 2b 3e 28 3b 4e 72 b5 3c 47 6a 11 bc 42 85 89 b9
       0.002567182 0.022149231 -0.008875436 -0.0002622996
