results/ag15/PlatformRotate/PlatformRotate-132137.pt (torch, 661833 bytes, 39 tensors)

network_body._body_endoder.seq_layers.0.weight f4 [128, 78]
0.08534274 -0.11883233 -0.110238805 0.014894841 0.21731079 0.091832645 -0.069432266 -0.040096153
0.019611 -0.015899258 -0.067474686 0.18746227 -0.10166438 -0.0032932558 -0.13158423 0.11625858
-0.12821594 0.04209559 0.07568674 -0.20557119 -0.054473124 -0.047063366 -0.053342707 0.12803861
0.034509473 -0.16602884 -0.12110974 -0.02259845 0.08659559 0.1877868 0.040950675 0.024398256
0.08970679 0.013675422 0.162775 -0.16212791 0.0921773 0.13154924 0.057458185 -0.091477245
0.016389776 -0.0015371969 0.05248583 0.19093254 0.004659244 -0.0006231087 -0.049091466 -0.024457002
0.10806968 0.08795694 0.072882935 -0.021452509 0.18333174 -0.034165647 0.117875785 0.07384181
0.020627603 0.053292222 -0.13968301 0.11628723 -0.09828397 0.06305528 0.19693111 0.061827272
0.0027467783 -0.059268117 -0.10367641 0.002399159 -0.09198247 0.008532277 0.11914606 -0.12952216
0.100809716 -0.05746231 0.12533247 -0.049384058 -0.025133627 0.046132118 -0.12696186 -0.08439047
0.058157634 0.037253305 -0.0039736903 -0.07366969 -0.020766336 0.14341319 0.13401534 -0.03152234
-0.096600264 0.13376194 -0.06562132 0.037045047 -0.017615287 -0.10230841 -0.21813942 -0.04251489
-0.3090445 -0.087629505 0.050743148 -0.061672684 -0.17565194 -0.07668662 0.015614563 0.10458281
-0.122307405 -0.02361124 -0.04619831 0.10885336 -0.070214115 -0.0013170117 0.07834639 0.13376865
0.27848387 0.023517348 -0.023758844 0.15713492 0.09004464 0.00924734 -0.1729123 0.038785506
0.13678998 -0.14154665 -0.023734082 0.120597124 -0.0038427121 0.009991303 -0.083353475 -0.12835242
0.009982975 -0.027173154 0.029281044 -0.2014698 -0.028752176 -0.15204789 0.020946853 -0.04829995
-0.009037799 0.101756625 0.106744625 0.039531555 -0.02024941 -0.053210635 -0.10849952 -0.033328526
-0.19943792 0.12959889 -0.11789965 -0.019332903 0.1760189 -0.22718656 -0.1311072 -0.05485339
0.09968078 -0.0989855 0.062448032 -0.025481489 -0.040664848 -0.14079872 0.069546156 -0.040555563
0.031915843 0.054480273 -0.0017612601 0.025863674 -0.10413576 -0.04833077 0.04336025 0.18716176
-0.011270199 -0.18732634 0.11443235 -0.08820019 -0.09303916 0.029476212 -0.18686041 0.053622786
-0.032602165 0.08249834 -0.11266675 -0.02047489 -0.035037655 -0.039718803 -0.09426115 -0.03212243
-0.103890456 -0.15288459 -0.0011943273 -0.111434855 0.15223606 0.01257469 0.091456644 -0.039766025
0.036554214 0.08268452 0.11188778 -0.116100036 -0.03151388 0.1139237 -0.083608784 0.0066722515
0.04672135 0.092481144 0.016578581 -0.13948539 -0.03648681 -0.08121011 0.03173334 0.09744573
-0.10658483 0.14858231 0.18681873 -0.08748779 -0.0970639 0.0006098084 -0.07646226 0.14165711
-0.019444034 -0.066434495 0.010266641 -0.031021267 0.068718344 -0.19632563 0.13243204 -0.11069853
0.06871401 -0.06777218 -0.022808636 0.117677204 0.12145844 0.11873281 -0.04335735 0.08002432
-0.17942417 -0.032081064 0.024611935 -0.0027962425 -0.013238002 -0.27962705 0.0013508762 0.15554817
0.10439671 -0.07135984 0.0391377 -0.04622576 -0.0043043224 -0.036265567 -0.012668407 0.08737311
-0.046749946 -0.012577718 -0.15488961 0.09053026 -0.10712439 -0.084239185 -0.13064767 -0.16895792
00000000: 2dc8 ae3d 5d5e f3bd e2c4 e1bd 7e09 743c
00000010: b886 5e3e c112 bc3d 8132 8ebd dd3b 24bd
00000020: 3fa7 a03c 293f 82bc 2b30 8abd 1cf6 3f3e
00000030: 6a35 d0bd aad3 57bb 04be 06be fa18 ee3d
00000040: 0a4b 03be 6d6c 2c3d a601 9b3d 4181 52be
00000050: 361f 5fbd 84c5 40bd e27d 5abd 8e1c 033e
00000060: ce59 0d3d 7703 2abe 6208 f8bd 6220 b9bc
00000070: 0759 b13d 2f4b 403e e5bb 273d dade c73c
00000080: 32b8 b73d e10e 603c 7dae 263e dc04 26be
00000090: 74c7 bc3d d8b4 063e 4659 6b3d 6c58 bbbd
000000a0: da43 863c c57b c9ba 62fb 563d d283 433e
000000b0: 92ac 983b 1e58 23ba 2214 49bd 0d5a c8bc
000000c0: a353 dd3d c522 b43d a643 953d 2cbd afbc
000000d0: 51bb 3b3e 47f1 0bbd dc68 f13d 603a 973d
000000e0: 38fb a83c f248 5a3d 1009 0fbe 0028 ee3d
000000f0: 1b49 c9bd 2023 813d 4fa8 493e 983e 7d3d
00000100: 4b03 343b 20c3 72bd 4c54 d4bd 353b 1d3b
00000110: 4e61 bcbd f7ca 0b3c d902 f43d 75a1 04be
00000120: 5375 ce3d 995d 6bbd 2857 003e f046 4abd
00000130: 09e5 cdbc 08f5 3c3d 4a02 02be e9d4 acbd
00000140: b336 6e3d ec96 183d bb35 82bb 22e0 96bd
00000150: 2a1e aabc e8da 123e 513b 093e 921d 01bd
00000160: 5cd6 c5bd e4f8 083e 7864 86bd 8cbc 173d
00000170: ef4d 90bc 1287 d1bd f15f 5fbe 1824 2ebd
00000180: 153b 9ebe 1977 b3bd 0cd8 4f3d 7f9c 7cbd
00000190: 1ade 33be e00d 9dbd 39d4 7f3c 832f d63d
000001a0: 4e7c fabd 5c6c c1bc 703a 3dbd 83ee de3d
000001b0: 6bcc 8fbd 949f acba 1274 a03d a6fa 083e
000001c0: 7095 8e3e 74a7 c03c e8a1 c2bc fae7 203e
000001d0: 5369 b83d 2882 173c ec0f 31be 8ddd 1e3d
000001e0: ac12 0c3e 9bf1 10be fa6d c2bc a0fb f63d
000001f0: 03d6 7bbb 90b2 233c 3ab5 aabd d16e 03be
00000200: a28f 233c 3c9a debc cdde ef3c 194e 4ebe
00000210: af89 ebbc 71b2 1bbe bc98 ab3c 2bd6 45bd
00000220: 4713 14bc c765 d03d ed9c da3d d7eb 213d
00000230: 17e2 a5bc 65f3 59bd ff34 debd 7e83 08bd
00000240: 7439 4cbe 92b5 043e 5f75 f1bd 0960 9ebc
00000250: 4c3e 343e 98a3 68be f740 06be f3ad 60bd
00000260: 7025 cc3d e9b8 cabd 82c9 7f3d 8ebe d0bc
00000270: 2f90 26bd 8a2d 10be 376e 8e3d 971d 26bd
00000280: 30ba 023d b526 5f3d 15da e6ba 0ee0 d33c
00000290: 2145 d5bd 7cf6 45bd 849a 313d 55a7 3f3e
000002a0: a4a6 38bc 7ad2 3fbe 825b ea3d 4da2 b4bd
000002b0: 518b bebd 1978 f13c 5658 3fbe 91a3 5b3d
000002c0: d989 05bd e4f4 a83d d3bd e6bd f5ba a7bc
000002d0: a583 0fbd 2fb0 22bd fd0b c1bd cf92 03bd
000002e0: 85c4 d4bd c78d 1cbe f98a 9cba f537 e4bd
000002f0: c5e3 1b3e 1306 4e3c 9f4d bb3d b3e1 22bd
00000300: dfb9 153d 8056 a93d 6c25 e53d dbc5 edbd
00000310: b314 01bd d450 e93d 153b abbd e7a2 da3b
00000320: e35e 3f3d c166 bd3d cecf 873c 42d5 0ebe
00000330: 3173 15bd 7c51 a6bd d2fa 013d a091 c73d
00000340: 2649 dabd f625 183e 694d 3f3e cc2c b3bd
00000350: 70c9 c6bd 8ddb 1f3a 3f98 9cbd 900e 113e
00000360: 1849 9fbc cf0e 88bd 6a35 283c 5020 febc
00000370: 34bc 8c3d 9609 49be 449c 073e e9b5 e2bd
00000380: eeb9 8c3d 24cc 8abd 2dd9 babc bf00 f13d
00000390: 34bf f83d 302a f33d 7a97 31bd cae3 a33d
000003a0: f8ba 37be 6f67 03bd f89e c93c 2a41 37bb
000003b0: 34e4 58bc 472b 8fbe e20f b13a 0548 1f3e
000003c0: f1cd d53d 1c25 92bd da4e 203d 3957 3dbd
000003d0: 460b 8dbb 348b 14bd 268f 4fbc acf0 b23d
000003e0: df7c 3fbd c612 4ebc 629b 1ebe ee67 b93d
000003f0: 0864 dbbd 9885 acbd 81c8 05be 4e03 2dbe

network_body._body_endoder.seq_layers.0.bias f4 [128]
0.0006476033 -0.00062138925 -0.0020896196 0.0049684756 -0.002671629 -0.0014198082 0.0064373882 -0.00062630314
0.0037850842 -0.0059909425 -0.006668488 0.00049020606 0.0056225657 -0.001107734 0.00020926741 0.0005081822
0.0014775591 0.0048952075 0.0025614765 -0.0018895939 -0.0033734706 0.00079589174 0.0014208658 0.0009640743
-0.0036419877 -0.0030773089 -0.006978254 -0.0013277791 -0.003282154 0.004818475 -0.006006015 -0.0033861473
-0.0007263913 -0.002256134 0.00072636467 -0.0044956743 0.0016784653 0.0046434407 -0.0020010993 -0.0012984091
-0.0062155533 -0.0068256343 0.007675321 -0.0058068675 -0.0033158923 0.008797089 -0.001936631 0.00062718295
-0.0010471534 -0.00024927384 -0.0048496467 -0.0043389294 0.005717538 0.0011060844 0.00056803756 0.003319501
-0.0030722853 -0.0075072795 0.0050478335 0.0023488624 -0.0055404054 0.0065159625 0.000536884 0.00087267684
0.005777356 -0.009061582 0.002481867 -0.0035428358 0.00030040136 0.0020007356 -0.0013948717 0.0053593386
-0.009476431 0.00057487853 -5.470872e-05 0.0013512092 -0.003279368 -0.0029631201 -0.006752485 0.005872774
-0.0016562719 0.0019494769 -5.6715755e-05 0.00089063717 -0.0015757775 0.00025480438 -0.0068025384 0.002294202
0.0019505151 -0.001754856 0.0039336286 -0.002835338 0.007328494 -0.0015376428 0.009470266 -0.0023291982
0.0026694054 0.002519996 0.0015421428 -0.002985829 -0.0009578426 2.845042e-05 -0.0012862404 -0.0015408932
-0.0049704653 -0.0059541534 0.001585245 0.00062186515 -0.004138763 -0.004985975 -0.002032861 0.00875152
-0.0050093625 0.0029057348 0.002530724 -0.002925875 -0.00078703347 -0.004471601 -0.00423706 0.0008989974
0.0065121674 0.0048785354 -0.005770388 0.011455198 -0.0021669322 0.009264825 0.0015374667 -0.0009999574
00000000: ecc3 293a bae4 22ba 00f2 08bb 98ce a23b
00000010: 7f16 2fbb dc18 baba baf0 d23b 7e2e 24ba
00000020: 2d0f 783b ab4f c4bb 5583 dabb 2c81 003a
00000030: 803d b83b 6331 91ba cb6e 5b39 8837 053a
00000040: a8aa c13a fa67 a03b 72de 273b 40ac f7ba
00000050: 7215 5dbb 64a3 503a 583c ba3a eeb9 7c3a
00000060: 6aae 6ebb adac 49bb d6a9 e4bb e008 aeba
00000070: 6819 57bb 4ce4 9d3b 1bce c4bb 20ea 5dbb
00000080: 4c6b 3eba a6db 13bb 8269 3e3a 7350 93bb
00000090: f3ff db3a 0128 983b e024 03bb 612f aaba
000000a0: d7ab cbbb 92a9 dfbb 4281 fb3b 8947 bebb
000000b0: 714f 59bb aa21 103c 8ed6 fdba 8969 243a
000000c0: a340 89ba f8b0 82b9 c9e9 9ebb 942d 8ebb
000000d0: 2f5a bb3b 09fa 903a 5be8 143a fc8b 593b
000000e0: 6558 49bb a0ff f5bb 4c68 a53b 5fef 193b
000000f0: 4a8c b5bb db83 d53b adbd 0c3a 5ac4 643a
00000100: fa4f bd3b 0877 14bc d2a6 223b ec2e 68bb
00000110: 307f 9d39 c61e 033b 21d4 b6ba 649d af3b
00000120: 0843 1bbc 72b3 163a 0a77 65b8 0f1b b13a
00000130: aaea 56bb e830 42bb f343 ddbb 6670 c03b
00000140: 4317 d9ba 9785 ff3a 14e2 6db8 a679 693a
00000150: 528a ceba 4497 8539 d4e7 debb 535a 163b
00000160: 6da8 ff3a 3203 e6ba abe5 803b 14d1 39bb
00000170: dd23 f03b bb8a c9ba 2d29 1b3c 76a5 18bb
00000180: 31f1 2e3b 8426 253b ba21 ca3a e6ad 43bb
00000190: bb17 7bba d0a8 ee37 1197 a8ba ccf7 c9ba
000001a0: 49df a2bb 0f1b c3bb ffc7 cf3a aa04 233a
000001b0: 769e 87bb 6461 a3bb c039 05bb 8962 0f3c
000001c0: 9425 a4bb 246e 3e3b 81da 253b 09c0 3fbb
000001d0: ec50 4eba 8286 92bb 09d7 8abb b2aa 6b3a
000001e0: 0564 d53b 1fdc 9f3b 8615 bdbb 95ae 3b3c
000001f0: 1703 0ebb 7ecb 173c d284 c93a 0111 83ba

network_body._body_endoder.seq_layers.2.weight f4 [128, 128]
-0.040848814 0.0043717325 -0.022722436 -0.07207689 0.039598513 0.03520776 -0.07847911 0.05670357
0.07617067 0.09881894 -0.07433585 0.017685888 -0.04082031 0.06479816 0.061072927 0.110448495
-0.118865766 -0.08161942 0.10803166 -0.15980566 0.0800299 -0.0050272266 -0.09078176 0.053590532
-0.06678858 -0.019454662 -0.07138894 0.1769134 0.037504792 -0.09707399 -0.06304016 0.03169942
0.034926977 -0.029621841 0.067143485 -0.052865908 0.026912604 -0.01664228 0.036566906 0.19911471
0.04300177 -0.05128484 0.11013191 0.09384281 0.13891588 0.032165203 0.06604854 -0.065230705
-0.17576987 0.006477606 0.04098278 -0.07502935 0.056516938 0.023986463 0.076485805 0.037357707
0.14544985 0.14231499 0.07899238 -0.009598571 0.1737963 -0.09277022 -0.036022812 -0.06894269
0.024832709 -0.079416946 -0.11185409 0.06388359 -0.023598043 0.039901778 -0.13920423 0.046557117
-0.15386908 -0.045440797 -0.003962523 0.012434103 -0.08886293 -0.050322667 -0.06489492 -0.04141357
0.16398028 0.01942165 -0.042087436 0.05644908 0.030583128 0.025729904 -0.0067159776 0.021517871
0.0968354 -0.11358115 -0.045796562 -0.054981228 -0.054980356 0.029284608 -0.06747969 -0.028269177
-0.02567911 -0.07922577 -0.045474507 -0.10142224 0.13967915 -0.13507603 0.08031687 0.020495685
0.018459935 -0.07783155 0.086192735 0.05399026 0.02828976 -0.12954706 -0.086871214 -0.020707304
0.079564765 0.06894799 0.047830187 0.09680506 -0.020430597 0.06820199 0.0120215 -0.03421463
-0.012238502 0.03699712 -0.08086872 -0.0761462 0.12902905 0.014608552 -0.037236728 -0.011719841
0.03438975 -0.064090885 -0.10067409 0.08383608 0.054648776 -0.13881585 0.11320162 0.09262803
-0.1231275 -0.047400586 0.07201562 0.17824088 0.055657987 0.07346772 -0.01630239 -0.027403027
0.15048821 0.05402235 0.0016038913 -0.05107791 -0.051112745 0.026773956 -0.1947222 -0.0040420103
-0.08646749 0.029613867 -0.10379391 -0.046500843 -0.038180023 0.2276855 0.005565108 0.111457236
-0.05021869 -0.02441427 -0.11905894 0.049348272 0.061913364 -0.033236273 0.06567707 0.08564065
-0.038290277 0.1743514 0.078118965 -0.016519133 -0.07877269 -0.04432829 -0.06886838 -0.060461123
-0.10114496 0.003987919 0.012359885 0.0021985755 0.022866663 -0.10399394 0.018741496 -0.1000391
0.052595295 0.0011449128 0.13639595 -0.13840434 -0.1039462 0.005714901 0.056152854 0.020476548
-0.049950995 0.10041172 0.0056765894 0.04645364 -0.0485534 -0.019969266 -0.06659697 0.027714258
-0.02539661 -0.07658304 -0.07478761 0.017806904 0.20376171 0.073225275 0.15865783 -0.14658046
-0.10206189 0.057379127 -0.08910532 -0.009710909 0.05547155 -0.07251948 -0.05661078 -0.06343419
-0.058918294 0.026840772 0.036049165 -0.04259445 -0.019568408 -0.035362687 0.032599762 0.22263087
-0.012899961 0.18352452 0.08286558 -0.043486647 0.044018477 0.093606785 -0.09419045 -0.078701854
0.013783669 0.06372326 -0.10107936 0.03954017 -0.01734186 0.022317357 0.029679243 -0.13985425
-0.062796466 -0.010599929 0.21336074 0.004177678 -0.24648936 -0.02101006 -0.03730116 0.1664986
0.071112484 0.114080444 0.0112928115 0.19052233 -0.011840275 -0.07409079 0.023723707 0.034872867
00000000: 1651 27bd c040 8f3b 6724 babc 0c9d 93bd
00000010: 0d32 223d 0336 103d a8b9 a0bd 0142 683d
00000020: 5eff 9b3d 9661 ca3d 653d 98bd ffe1 903c
00000030: 3333 27bd e6b4 843d 9b27 7a3d d232 e23d
00000040: e56f f3bd 1528 a7bd b43f dd3d 18a4 23be
00000050: b7e6 a33d 6fbb a4bb caeb b9bd bf81 5b3d
00000060: 73c8 88bd 625f 9fbc 5d34 92bd c928 353e
00000070: a09e 193d bace c6bd 331b 81bd 40d7 013d
00000080: 970f 0f3d 81a9 f2bc 8682 893d ec89 58bd
00000090: d277 dc3c 6455 88bc 2ec7 153d bae4 4b3e
000000a0: a022 303d 0d10 52bd d78c e13d a930 c03d
000000b0: f73f 0e3e a9bf 033d 7544 873d ad97 85bd
000000c0: 04fd 33be 1942 d43b 8fdd 273d fda8 99bd
000000d0: 4e7e 673d 427f c43c 97a4 9c3d 6504 193d
000000e0: cef0 143e 05bb 113e c2c6 a13d 5343 1dbc
000000f0: a8f7 313e 50fe bdbd a88c 13bd d331 8dbd
00000100: f76d cb3c 5aa5 a2bd c213 e5bd 66d5 823d
00000110: af50 c1bc 0c70 233d 8e8b 0ebe adb2 3e3d
00000120: db8f 1dbe 2120 3abd 0dd8 81bb 68b8 4b3c
00000130: c5fd b5bd 241f 4ebd a1e7 84bd 47a1 29bd
00000140: 72ea 273e 271a 9f3c e063 2cbd 2737 673d
00000150: 7889 fa3c 85c7 d23c b411 dcbb 3f46 b03c
00000160: a351 c63d 3c9d e8bd 2d95 3bbd ff33 61bd
00000170: 1533 61bd 46e6 ef3c cb32 8abd c394 e7bc
00000180: ff5c d2bc 1f41 a2bd 7a43 3abd 77b6 cfbd
00000190: 0d08 0f3e 5f51 0abe 2c7d a43d 91e6 a73c
000001a0: 4a39 973c 2666 9fbd d185 b03d e424 5d3d
000001b0: edbf e73c fca7 04be 89e9 b1bd 5da2 a9bc
000001c0: daf2 a23d 9b34 8d3d 96e9 433d bb41 c63d
000001d0: 115e a7bc 7cad 8b3d d3f5 443c a424 0cbd
000001e0: ff83 48bc 4b8a 173d 809e a5bd 8af2 9bbd
000001f0: 3120 043e b558 6f3c 8a85 18bd 9304 40bc
00000200: 44dc 0c3d 1542 83bd 382e cebd 40b2 ab3d
00000210: 65d7 5f3d be25 0ebe 40d6 e73d c4b3 bd3d
00000220: 452a fcbd 1e27 42bd ed7c 933d c784 363e
00000230: a1f9 633d 3e76 963d 978c 85bc 507c e0bc
00000240: 9519 1a3e 8a46 5d3d a939 d23a 1237 51bd
00000250: 995b 51bd 0e55 db3c 4265 47be d772 84bb
00000260: de15 b1bd c898 f23c e791 d4bd ab77 3ebd
00000270: a862 1cbd 6326 693e 825b b63b b143 e43d
00000280: 1db2 4dbd 6f00 c8bc 2cd5 f3bd 6a21 4a3d
00000290: de98 7d3d c222 08bd b381 863d 5d64 af3d
000002a0: 44d6 1cbd 2c89 323e d6fc 9f3d 2253 87bc
000002b0: 9353 a1bd 9591 35bd dd0a 8dbd 15a6 77bd
000002c0: 1725 cfbd 17ad 823b 1d81 4a3c fa15 103b
000002d0: de52 bb3c c6fa d4bd c487 993c 4de1 ccbd
000002e0: 2a6e 573d e610 963a 61ab 0b3e deb9 0dbe
000002f0: bfe1 d4bd 1044 bb3b 8900 663d 6fbe a73c
00000300: 6a99 4cbd a9a4 cd3d af02 ba3b 2c46 3e3d
00000310: eedf 46bd 9696 a3bc fe63 88bd 0309 e33c
00000320: 8d0c d0bc 92d7 9cbd 3f2a 99bd c9df 913c
00000330: e9a6 503e 22f7 953d 3377 223e 3019 16be
00000340: d305 d1bd 6006 6b3d da7c b6bd 811a 1fbc
00000350: 2336 633d 1885 94bd b5e0 67bd c9e9 81bd
00000360: 4f54 71bd 2ee1 db3c 4aa8 133d 8577 2ebd
00000370: ed4d a0bc 77d8 10bd 5487 053d 59f9 633e
00000380: 5c5a 53bc daed 3b3e 6eb5 a93d 0e1f 32bd
00000390: b84c 343d eab4 bf3d ece6 c0bd 702e a1bd
000003a0: e6d4 613c 5781 823d b202 cfbd e0f4 213d
000003b0: 8410 8ebc e4d2 b63c e221 f33c f435 0fbe
000003c0: 6f9b 80bd 53ab 2dbc 3d7b 5a3e e7e4 883b
000003d0: b567 7cbe 4a1d acbc 1ac9 18bd 9c7e 2a3e
000003e0: 6ca3 913d 02a3 e93d 7c05 393c 4918 433e
000003f0: b6fd 41bc e9bc 97bd 3858 c23c dad6 0e3d

network_body._body_endoder.seq_layers.2.bias f4 [128]
-0.0015587793 -0.002397878 -0.0076729856 -0.0014654835 0.0033685414 -0.00849775 0.0023914897 -0.010463778
-0.0039043364 -0.0049932725 0.00039859593 -0.0031052278 -0.006968577 0.0035154875 -0.002449155 -0.00077702885
0.0025694692 -0.0043260916 -0.0052561183 0.007970376 -0.0023790484 -0.0037874964 -0.0018241415 0.0006351648
-0.0060876715 0.0016321668 -0.0013313665 0.00521802 -0.005592162 -0.0060588373 0.00084797386 0.0052868365
-0.0008259013 0.0004497022 0.0030672138 -0.008107624 -0.007975698 -0.0017192365 0.003150414 -0.002411636
-0.001374918 -0.00059090013 -0.0019339569 -0.0012695143 -4.1027895e-05 -0.004017408 -0.008466366 -0.0024282706
0.003937268 3.3946442e-05 -0.019401148 0.0028828552 0.0006128449 -0.00013396761 -0.008802031 -0.002366227
-0.0015545308 -0.001473825 -0.0050859605 0.0010159627 -0.00037829173 -0.0039032872 0.00057675014 -0.0009961841
-6.4993066e-05 -0.010486777 0.0014547331 -0.0015462438 0.0009297577 -0.0057667866 -0.0011809728 0.0016620889
0.001153298 0.00036953887 -0.005197364 -0.0015265619 0.0043806448 -0.0037773 -0.0024280034 -0.0035329417
-0.001760094 -0.0037480171 0.0054114875 -0.0064133587 0.004244537 0.0055742282 -0.00044884405 -0.0032468643
-0.0023780214 0.015220623 -0.0012200106 -0.0024713762 0.0043045213 -0.002509292 -0.0019980087 -0.00039321595
0.0017361043 0.0002111277 0.0002287977 -0.0010549889 0.016138779 -0.00035588705 -0.0022683106 0.00022624453
-0.00024723937 0.005157786 -0.0006878277 0.00017186084 0.0017062018 0.00454928 -0.005067903 -0.00813372
0.005185808 -0.0005847698 0.000356589 0.002989824 -0.00045381024 0.0021591706 0.0015803627 0.0027041289
-0.00011215592 0.0006057215 0.0016407786 -0.0045054536 -0.007890069 -0.0036426648 -0.0053242845 -0.005703194
00000000: f44f ccba b825 1dbb ab6d fbbb 7715 c0ba
00000010: bfc2 5c3b 263a 0bbc 8aba 1c3b 4470 2bbc
00000020: e5df 7fbb 9b9e a3bb a4fa d039 1481 4bbb
00000030: a958 e4bb 1864 663b 0182 20bb 86b1 4bba
00000040: 8a64 283b e3c1 8dbb 843b acbb 2e96 023c
00000050: cfe9 1bbb a537 78bb 0818 efba 3081 263a
00000060: 177b c7bb 6eee d53a 3f81 aeba edfb aa3b
00000070: 743e b7bb 3689 c6bb 904a 5e3a 333d ad3b
00000080: 4c81 58ba 02c6 eb39 4f03 493b d7d5 04bc
00000090: 81ac 02bc 0158 e1ba 2d77 4e3b 8a0c 1ebb
000000a0: 9836 b4ba a3e6 1aba d37c fdba d565 a6ba
000000b0: 5e15 2cb8 76a4 83bb 83b6 0abc 9f23 1fbb
000000c0: 3304 813b b761 0e38 28ef 9ebc 49ee 3c3b
000000d0: 53a7 203a a879 0cb9 6536 10bc b412 1bbb
000000e0: 66c1 cbba 5c2d c1ba 21a8 a6bb 0d2a 853a
000000f0: 7555 c6b9 4bce 7fbb 0c31 173a 6492 82ba
00000100: e34c 88b8 bbd0 2bbc beac be3a 55ab caba
00000110: fcba 733a 50f7 bcbb dfca 9aba 73da d93a
00000120: 422a 973a abbe c139 a64e aabb eb16 c8ba
00000130: 838b 8f3b 948c 77bb 231f 1fbb ed88 67bb
00000140: f4b2 e6ba 4ba1 75bb d952 b13b 2727 d2bb
00000150: c215 8b3b 04a8 b63b d452 ebb9 58c9 54bb
00000160: 94d8 1bbb ec5f 793c c3e8 9fba d0f6 21bb
00000170: f10c 8d3b ef72 24bb 06f1 02bb 8d28 ceb9
00000180: fe8d e33a 2962 5d39 6ae9 6f39 8e47 8aba
00000190: 7935 843c 5a96 bab9 f0a7 14bb 0e3c 6d39
000001a0: e89f 81b9 a502 a93b 564f 34ba 8b35 3439
000001b0: a2a2 df3a 2012 953b a710 a6bb 4b43 05bc
000001c0: b6ed a93b 3d4b 19ba 91f4 ba39 ecf0 433b
000001d0: 61ed edb9 df80 0d3b 2c24 cf3a c137 313b
000001e0: 4035 ebb8 48c9 1e3a 650f d73a 7ca2 93bb
000001f0: 5945 01bc c6b9 6ebb 5677 aebb dce1 babb

action_model._continuous_distribution.log_sigma f4 [1, 2]
0.026857827 -0.0036696685
00000000: f204 dc3c d27e 70bb

action_model._continuous_distribution.mu.weight f4 [2, 128]
0.0017203891 -0.018315144 -0.010114044 -0.03237944 0.01786737 0.029741023 0.01613632 -0.0067414013
-0.004937801 -0.0034477815 -0.0025854418 -0.013391201 -0.0016471336 -0.009334647 0.036623612 0.040247187
0.022720505 -0.010140527 -0.0016310881 -0.025366899 0.0025749095 0.011647717 -0.047482166 -0.010070714
-0.009276381 0.032996226 -0.021043817 0.009058127 -0.014011249 -0.0017784496 -0.020239891 0.019025967
0.023689063 -0.0021782408 0.02386711 -0.0027360155 -0.00023618266 -0.044420637 0.031186722 0.020062795
0.012216002 0.01059012 0.009855914 0.0014042212 -0.005729973 -0.0030216877 0.0004495688 0.0011775135
0.009010208 0.032649536 -0.006696252 -0.019530335 -0.008877177 0.00859513 0.02130912 0.015850477
-0.017235557 -0.012161547 -0.009907161 0.0074273907 0.018697184 -0.0006908517 0.0532755 -0.010529127
0.004887796 -0.035936143 -0.019723764 -0.02619773 -0.0024199258 0.0015435077 0.011289266 0.0026762183
0.010443022 -0.016481858 -0.046583723 -0.017159162 -0.0036636062 -0.011560948 0.00586056 -0.016577935
-0.008427037 -0.0006543008 8.96318e-05 0.0015238716 0.011404455 0.022492975 0.009150865 -0.048200645
0.0012306977 -0.0046990947 -0.051809885 0.017746452 -0.0159978 0.017748855 -0.021923935 0.0035297736
0.00019299056 -0.013729572 0.0071808356 0.021016525 -0.0049444837 -0.005816086 0.008852207 0.016457248
0.013477951 0.009569995 0.020482821 0.008766791 -0.004359756 -0.005671735 0.0011044543 -0.009552109
-0.019723084 -0.00062753743 0.004276442 -0.014887745 0.0048082587 0.00891183 0.007877406 0.023814408
0.018442143 -0.01443935 -0.021970062 -0.0028474072 -0.0034983745 -0.017500816 0.034883354 0.0071069477
-0.006610873 -0.0018897618 -0.009388543 -0.0051032444 -0.010683918 -0.015183788 0.0028922327 0.0059738127
-0.0063191764 -0.0075016725 0.016964503 0.0045857206 -0.006653917 0.030181205 0.0115268435 0.002957405
-0.008709652 -0.012879951 0.03262124 -0.0054341084 -0.014530592 0.006733476 0.0004076728 -0.016385984
-0.010984642 0.005609209 -0.0068686157 0.01049495 -0.024333721 -0.0035839116 0.020681543 -0.033474103
0.0052780965 0.007248147 -0.023669362 0.013613619 0.0006606055 -0.005868926 0.012161589 -0.013549138
-0.028623631 -0.011944444 0.0075138803 0.029515691 -0.0034032548 -0.002180842 -0.022641804 0.004728416
-0.026311135 -0.006354266 0.030423323 0.0060885046 -0.0023512808 -0.024549903 0.020316245 -0.016101005
0.028974736 0.0013993499 -0.004099447 0.0073837107 -0.02321831 -0.024121286 -0.000291165 0.00029166395
0.005415012 0.004519919 -0.012920585 -0.0035645948 0.035432 0.00424864 0.0018624025 -0.02698576
-0.02973979 0.018348828 -0.02761566 -0.0012459289 0.009742876 0.03509653 0.0020502124 -0.01724766
-0.0006399079 -0.023778666 0.02279089 -0.024597635 0.020433618 0.038356915 0.010832418 -0.004478076
-0.01430899 0.039948866 -0.016199699 0.008479026 -0.038125906 0.017779548 -0.0064227474 -0.009934297
0.018705793 0.008581433 0.0085642515 -0.008448162 0.044615723 0.0053585786 -0.014627329 0.012635443
-0.011710529 0.015274128 0.012233088 0.00782924 0.017575614 -0.050134603 -0.0021166613 -0.008777405
-0.023819996 0.00874369 -0.0288912 0.040577482 -0.004861598 -0.009861215 0.002663486 0.0013225599
-0.0026357332 0.005036399 -0.020190194 -0.0051070936 -0.0061267037 -0.014276673 0.021744035 -0.0015461992
00000000: ae7e e13a a409 96bc 60b5 25bc 4ea0 04bd
00000010: 975e 923c 72a3 f33c 5130 843c f9e6 dcbb
00000020: 47cd a1bb 2df4 61bb 8470 29bb c566 5bbc
00000030: a2e4 d7ba 59f0 18bc a402 163d 3cda 243d
00000040: 5a20 ba3c 7424 26bc 3cca d5ba 3ece cfbc
00000050: d0bf 283b 11d6 3e3c a97c 42bd a3ff 24bc
00000060: f6fb 17bc 0d27 073d 1564 acbc 8a68 143c
00000070: 708f 65bc de1a e9ba 21ce a5bc 58dc 9b3c
00000080: 910f c23c d1c0 0ebb f584 c33c b94e 33bb
00000090: cda7 77b9 6af2 35bd 4c7b ff3c bb5a a43c
000000a0: a025 483c 2f82 2d3c b37a 213c d80d b83a
000000b0: 7fc2 bbbb 8207 46bb 1ab4 eb39 cc56 9a3a
000000c0: 8d9f 133c 85bb 053d 3c6c dbbb 15fe 9fbc
000000d0: 9471 11bc 97d2 0c3c 7790 ae3c dcd8 813c
000000e0: 9531 8dbc 3a41 47bc a551 22bc 7861 f33b
000000f0: d62a 993c 461a 35ba 6937 5a3d 5c82 2cbc
00000100: ce29 a03b c731 13bd bb93 a1bc 9f9c d6bc
00000110: 9e97 1ebb 864f ca3a 9df6 383c 7e63 2f3b
00000120: 3519 2b3c f604 87bc 93ce 3ebd 5f91 8cbc
00000130: 1d19 70bb 216a 3dbc f109 c03b 73ce 87bc
00000140: 8e11 0abc 6285 2bba b5f8 bb38 a5bc c73a
00000150: c0d9 3a3c 3043 b83c 82ed 153c 0a6e 45bd
00000160: 5d4f a13a ddfa 99bb 9a36 54bd 0261 913c
00000170: d10d 83bc 0c66 913c d399 b3bc c653 673b
00000180: 825d 4a39 00f2 60bc 374d eb3b d92a ac3c
00000190: 5605 a2bb de94 bebb d908 113c 5ad1 863c
000001a0: a0d2 5c3c 78cb 1c3c 97cb a73c 96a2 0f3c
000001b0: 49dc 8ebb f6d9 b9bb 56c3 903a 7380 1cbc
000001c0: 4e92 a1bc 5381 24ba 6521 8c3b baeb 73bc
000001d0: 998e 9d3b ed02 123c 3c10 013c 6f16 c33c
000001e0: fa13 973c 0693 6cbc 8ffa b3bc 919b 3abb
000001f0: fc44 65bb df5d 8fbc d9e1 0e3d 66e1 e83b
00000200: 06a0 d8bb e2b1 f7ba 67d2 19bc 1e39 a7bb
00000210: 9a0b 2fbc 6cc5 78bc 9d8b 3d3b f9bf c33b
00000220: 1811 cfbb 97d0 f5bb 24f9 8a3c d043 963b
00000230: 1a09 dabb 933e f73c 16db 3c3c 06d1 413b
00000240: eeb2 0ebc 6e06 53bc d99d 053d 9b10 b2bb
00000250: b811 6ebc 7ea4 dc3b ebbc d539 e63b 86bc
00000260: eef8 33bc 75cd b73b 2012 e1bb 03f3 2b3c
00000270: 8357 c7bc 0fe0 6abb 576c a93c 241c 09bd
00000280: e2f3 ac3b dd81 ed3b 40e6 c1bc a80b 5f3c
00000290: 7c2c 2d3a 1f50 c0bb 6741 473c 34fd 5dbc
000002a0: 1b7c eabc a1b2 43bc ff36 f63b e4ca f13c
000002b0: 2409 5fbb 75ec 0ebb 4e7b b9bc d4f0 9a3b
000002c0: 738a d7bc 7237 d0bb 553a f93c 1482 c73b
000002d0: f217 1abb e11c c9bc 416e a63c 41e6 83bc
000002e0: 6d5c ed3c 646a b73a a754 86bb 0ef3 f13b
000002f0: 5334 bebc 019a c5bc 81a7 98b9 79ea 9839
00000300: 6a70 b13b d41b 943b ddb0 53bc fa9b 69bb
00000310: 2521 113d 2d38 8b3b dc1b f43a 3e11 ddbc
00000320: dca0 f3bc 4850 963c 3d3a e2bc 704e a3ba
00000330: 95a0 1f3c 61c1 0f3d db5c 063b f74a 8dbc
00000340: 7ebf 27ba 7acb c2bc f6b3 ba3c fb80 c9bc
00000350: 6764 a73c 241c 1d3d 747a 313c d3bc 92bb
00000360: 4170 6abc 6ca1 233d 3bb5 84bc 9deb 0a3c
00000370: e929 1cbd 6aa6 913c e975 d2bb 76c3 22bc
00000380: e43c 993c 2499 0c3c 1351 0c3c 296a 0abc
00000390: fabe 363d 0497 af3b 77a7 6fbc e404 4f3c
000003a0: 85dd 3fbc 5640 7a3c 4a6d 483c 3646 003c
000003b0: bcfa 8f3c f159 4dbd afb7 0abb 1bcf 0fbc
000003c0: 2722 c3bc b241 0f3c 3dad ecbc 9334 263d
000003d0: 0a4e 9fbb ef90 21bc e18d 2e3b bf59 ad3a
000003e0: 44bc 2cbb 6008 a53b e865 a5bc 6859 a7bb
000003f0: 84c2 c8bb b5e8 69bc 8c20 b23c d6a9 caba

action_model._continuous_distribution.mu.bias f4 [2]
0.000826836 0.0025225221
00000000: 06c0 583a e650 253b

action_model._discrete_distribution.branches.0.weight f4 [1, 128]
-0.0048170555 -0.010533936 0.008340783 -0.015284324 0.0023524133 -0.007484483 -0.009418267 -0.0066375146
-0.001718881 -0.006668181 0.0145514505 -0.005607126 0.00139319 -0.00631546 -0.019182218 0.0006584902
0.009045857 -0.0025676016 0.0051592872 0.00023289032 -0.0038542722 0.013013964 -0.018372532 -0.0023606592
0.0025339893 -0.0063978913 0.004986511 0.01379542 -0.011006083 0.0057710144 -0.015106723 0.0015276152
-0.0012716549 -0.010964832 0.0010456623 0.008151863 -0.0055897757 0.009624592 -0.007842676 0.010248325
0.019137753 0.015361599 -0.007684316 -0.010145366 0.0063095647 -0.0009336332 0.0034207383 -0.0058772354
0.008980689 -0.00061836437 -0.0101291565 0.009321397 -0.014174779 -0.007039198 0.007165365 -0.010649487
-0.0016042127 -0.013629024 0.012800458 0.00789906 -0.02158495 0.008646061 -0.00035954002 -0.003116059
-0.00076849497 -0.006544047 0.007460156 0.0110537335 -0.010068593 -0.010811984 0.0065032253 0.0025724298
0.00059761055 -0.0067435275 0.0034608175 0.009651145 -0.004218188 0.008259573 -0.0017289527 0.0042972076
0.0002059435 -0.0017696025 0.008175358 0.001877502 -0.009443549 -0.007558775 0.013987424 0.002085235
-0.015002687 0.006938142 -0.0034252305 -0.01911346 -0.01856568 0.013973504 0.0011772779 -0.0016397339
-0.011250449 0.002505697 -0.003436767 0.007876861 -0.010294965 -0.016701253 0.0023663782 -0.0094153015
-0.0002670945 -0.011588664 -0.010112323 0.0035486612 -0.017505473 -0.0043305755 0.008677004 0.009882996
-0.0073223202 0.006411875 -0.00582092 -0.0016426503 -0.008166445 0.0068101333 -0.0058353846 -0.015475904
-0.0056262617 0.013649953 -0.0010778663 -0.0028175134 0.0062309513 0.005522855 -0.0024159106 -0.0041096327
00000000: 64d8 9dbb 8896 2cbc c8a7 083c 1a6b 7abc
00000010: f22a 1a3b 6540 f5bb 134f 1abc 827f d9bb
00000020: 134c e1ba c280 dabb 3569 6e3c fbbb b7bb
00000030: b39b b63a ebf1 cebb 0724 9dbc 879e 2c3a
00000040: 1335 143c 3545 28bb 3d0f a93b 0534 7439
00000050: f597 7cbb 8538 553c fe81 96bc 4ab5 1abb
00000060: 4911 263b 67a5 d1bb e365 a33b 2f06 623c
00000070: dc52 34bc c71a bd3b 3082 77bc 433a c83a
00000080: a8ad a6ba d7a5 33bc 9b0e 893a 648f 053c
00000090: 702a b7bb 77b0 1d3c 917e 00bc 97e8 273c
000000a0: c7c6 9c3c 37af 7b3c b7cc fbbb c038 26bc
000000b0: 77c0 ce3b 10bf 74ba 772e 603b d395 c0bb
000000c0: bd23 133c bb19 22ba c3f4 25bc c6b8 183c
000000d0: 553d 68bc 13a9 e6bb 70cb ea3b 307b 2ebc
000000e0: 7244 d2ba 454c 5fbc 03b9 513c 0f6b 013c
000000f0: ecd2 b0bc 35a8 0d3c a580 bcb9 cb36 4cbb
00000100: d374 49ba 726f d6bb 5374 f43b b81a 353c
00000110: bdf6 24bc bf24 31bc 0219 d53b 3696 283b
00000120: f7a8 1c3a cff8 dcbb e2ce 623b d61f 1e3c
00000130: ba38 8abb 2953 073c 079e e2ba 97cf 8c3b
00000140: 8af2 5739 02f2 e7ba f0f1 053c 8316 f63a
00000150: 1eb9 1abc 9aaf f7bb 822b 653c 70a8 083b
00000160: d5cd 75bc 5a59 e33b d579 60bb d593 9cbc
00000170: 0e17 98bc 20f1 643c e44e 9a3a 57ec d6ba
00000180: ce53 38bc 9f36 243b 623b 61bb f30d 013c
00000190: 36ac 28bc 11d1 88bc 3d15 1b3b a342 1abc
000001a0: d108 8cb9 61de 3dbc 28ae 25bc a890 683b
000001b0: a367 8fbc 80e7 8dbb fe29 0e3c 4aec 213c
000001c0: 13f0 efbb b51a d23b 6bbd bebb 334e d7ba
000001d0: 8ecc 05bc 8a27 df3b c136 bfbb a58e 7dbc
000001e0: 815c b8bb 0da4 5f3c 3147 8dba 08a6 38bb
000001f0: 022d cc3b 11f9 b43b 4154 1ebb 19aa 86bb

exp_avg f4 [128, 78]
-7.978457e-07 -7.978457e-07 -7.978457e-07 -1.0604792e-05 1.2100009e-05 -2.0457766e-05 0.00019745961 8.774818e-06
0.00019264474 0.00014935013 1.0748987e-05 0.0001239857 0.00015282245 -2.8319794e-06 0.00012625493 -1.5637335e-05
8.954844e-06 3.5137065e-05 0.0 -1.9945984e-08 0.0 -3.989172e-06 -1.9945984e-08 3.989172e-06
-3.989172e-06 -1.9945984e-08 -3.989172e-06 3.989172e-06 -1.9945984e-08 -3.989172e-06 3.989172e-06 -1.9945984e-08
3.989172e-06 -1.1798467e-05 -1.8785153e-05 -9.709716e-06 -5.0720973e-06 -6.50694e-06 3.542013e-06 7.5659373e-06
7.5659373e-06 7.5659373e-06 4.5220968e-05 3.200094e-05 2.8270683e-06 0.00024216482 5.27446e-06 0.0002690981
0.00014498203 1.6609756e-05 0.0002020839 0.00027526528 1.3524541e-05 0.00015212075 5.606614e-05 -7.366935e-06
6.437818e-05 0.0 1.8914935e-07 0.0 3.7829886e-05 1.8914935e-07 -3.7829886e-05 3.7829886e-05
1.8914935e-07 3.7829886e-05 -3.7829886e-05 1.8914935e-07 3.7829886e-05 -3.7829886e-05 1.8914935e-07 -3.7829886e-05
-7.5836156e-06 -1.5449394e-05 -6.2871623e-06 -5.133225e-06 -4.9694677e-06 5.72315e-06 -4.4288854e-06 -4.4288854e-06
-4.4288854e-06 -2.790666e-05 5.1937684e-07 0.00015941107 3.076052e-05 -3.6651272e-05 0.00011590495 -0.00014246792
-4.5723976e-07 2.9044326e-05 -0.00010106704 1.3556467e-05 4.130103e-05 0.00017872847 -6.788647e-05 1.8587005e-05
0.0 -1.1072199e-07 0.0 -2.21443e-05 -1.1072199e-07 2.21443e-05 -2.21443e-05 -1.1072199e-07
-2.21443e-05 2.21443e-05 -1.1072199e-07 -2.21443e-05 2.21443e-05 -1.1072199e-07 2.21443e-05 7.2667162e-06
6.542233e-06 1.1014636e-05 -4.6943587e-06 1.670159e-05 3.2327782e-06 8.375184e-07 8.375184e-07 8.375184e-07
-6.788462e-05 -2.940878e-05 0.00016603548 -1.1094017e-05 -4.7470166e-07 8.860032e-05 -0.00017904695 7.5501525e-06
4.475662e-05 -0.00012012787 8.003105e-06 8.417958e-05 0.0001112085 -4.7874586e-05 1.0905825e-05 0.0
2.0938389e-08 0.0 4.1876597e-06 2.0938389e-08 -4.1876597e-06 4.1876597e-06 2.0938389e-08 4.1876597e-06
-4.1876597e-06 2.0938389e-08 4.1876597e-06 -4.1876597e-06 2.0938389e-08 -4.1876597e-06 1.3123462e-05 5.6120966e-06
7.717304e-06 -9.807927e-07 1.6371485e-05 9.209112e-06 -2.8730292e-06 -2.8730292e-06 -2.8730292e-06 -2.7592487e-05
-1.9527835e-07 7.8809215e-05 9.680714e-05 2.1651435e-05 6.2121595e-05 5.9124493e-05 -1.6463202e-05 -0.00036865723
-6.964286e-05 -6.982023e-06 5.8779475e-05 4.6095047e-05 2.7801781e-05 7.0164766e-05 0.0 -7.182522e-08
0.0 -1.43651005e-05 -7.182522e-08 1.43651005e-05 -1.43651005e-05 -7.182522e-08 -1.43651005e-05 1.43651005e-05
-7.182522e-08 -1.43651005e-05 1.43651005e-05 -7.182522e-08 1.43651005e-05 1.2481123e-05 -1.9325266e-06 -2.13715e-06
-1.3909605e-06 -2.569608e-06 -8.777185e-06 -7.3268393e-07 -7.3268393e-07 -7.3268393e-07 1.6833828e-06 2.1035812e-05
1.8882147e-05 9.6122545e-05 3.2517004e-05 2.5480926e-05 6.739844e-05 6.581671e-06 -0.0003387821 -2.3831142e-05
1.441364e-05 5.1721374e-05 5.182239e-05 2.9808625e-05 3.8928196e-05 0.0 -1.8316625e-08 0.0
-3.6633653e-06 -1.8316625e-08 3.6633653e-06 -3.6633653e-06 -1.8316625e-08 -3.6633653e-06 3.6633653e-06 -1.8316625e-08
-3.6633653e-06 3.6633653e-06 -1.8316625e-08 3.6633653e-06 8.674329e-06 -2.4794006e-06 -1.8984431e-06 -1.6326982e-06
-3.2791083e-06 -6.715892e-06 5.5637593e-05 5.5637593e-05 5.5637593e-05 0.00024804735 2.7587441e-06 0.00027708572
0.00045123248 2.8712704e-05 0.00039749919 0.0002789286 -2.3230947e-05 2.0772213e-05 0.00040712874 -1.8297601e-06
0.00027931188 0.00057142146 -4.277061e-05 0.00031155517 0.0 1.3909395e-06 0.0 0.00027818794
00000000: 8a2b 56b5 8a2b 56b5 8a2b 56b5 3ceb 31b7
00000010: 2501 4b37 b89c abb7 290d 4f39 8e37 1337
00000020: ae00 4a39 df9a 1c39 8c56 3437 2802 0239
00000030: f73e 2039 090d 3eb6 4d63 0439 ec2c 83b7
00000040: c33c 1637 2360 1338 0000 0000 af55 abb2
00000050: 0000 0000 bada 85b6 af55 abb2 bada 8536
00000060: bada 85b6 af55 abb2 bada 85b6 bada 8536
00000070: af55 abb2 bada 85b6 bada 8536 af55 abb2
00000080: bada 8536 08f2 45b7 cf94 9db7 eae6 22b7
00000090: fc30 aab6 3056 dab6 52b3 6d36 e8de fd36
000000a0: e8de fd36 e8de fd36 a5ab 3d38 bf38 0638
000000b0: aab8 3d36 a0ed 7d39 44fb b036 bc15 8d39
000000c0: 5106 1839 2e55 8b37 7ce6 5339 7b51 9039
000000d0: 76e7 6237 9a82 1f39 8f28 6b38 7d31 f7b6
000000e0: c602 8738 0000 0000 fa18 4b34 0000 0000
000000f0: 88ab 1e38 fa18 4b34 88ab 1eb8 88ab 1e38
00000100: fa18 4b34 88ab 1e38 88ab 1eb8 fa18 4b34
00000110: 88ab 1e38 88ab 1eb8 fa18 4b34 88ab 1eb8
00000120: c376 feb6 5299 81b7 50f6 d2b6 113e acb6
00000130: 67bf a6b6 7c09 c036 d69b 94b6 d69b 94b6
00000140: d69b 94b6 1919 eab7 4e6b 0b35 9527 2739
00000150: db04 0138 01ba 19b8 ff11 f338 7163 15b9
00000160: 8e7a f5b4 37a4 f337 f4f3 d3b8 9570 6337
00000170: a53a 2d38 0f69 3b39 455e 8eb8 4aeb 9b37
00000180: 0000 0000 0fc6 edb3 0000 0000 86c2 b9b7
00000190: 0fc6 edb3 86c2 b937 86c2 b9b7 0fc6 edb3
000001a0: 86c2 b9b7 86c2 b937 0fc6 edb3 86c2 b9b7
000001b0: 86c2 b937 0fc6 edb3 86c2 b937 9ed4 f336
000001c0: 5b85 db36 80cb 3837 3c84 9db6 641a 8c37
000001d0: b5f2 5836 d4d1 6035 d4d1 6035 d4d1 6035
000001e0: 475d 8eb8 e0b2 f6b7 cf19 2e39 7120 3ab7
000001f0: 80da feb4 efce b938 8dbe 3bb9 5157 fd36
00000200: 0eb9 3b38 29ed fbb8 1345 0637 9189 b038
00000210: 9c38 e938 f2cc 48b8 29f8 3637 0000 0000
00000220: 01dc b332 0000 0000 b983 8c36 01dc b332
00000230: b983 8cb6 b983 8c36 01dc b332 b983 8c36
00000240: b983 8cb6 01dc b332 b983 8c36 b983 8cb6
00000250: 01dc b332 b983 8cb6 d72c 5c37 8b4f bc36
00000260: 9179 0137 c8a3 83b5 7f55 8937 d680 1a37
00000270: 44ce 40b6 44ce 40b6 44ce 40b6 6a76 e7b7
00000280: b4ad 51b4 6046 a538 f004 cb38 1aa0 b537
00000290: 4747 8238 71fc 7738 751a 8ab7 5648 c1b9
000002a0: 3a0d 92b8 1f47 eab6 fb89 7638 2e56 4138
000002b0: df37 e937 6c25 9338 0000 0000 553e 9ab3
000002c0: 0000 0000 a301 71b7 553e 9ab3 a301 7137
000002d0: a301 71b7 553e 9ab3 a301 71b7 a301 7137
000002e0: 553e 9ab3 a301 71b7 a301 7137 553e 9ab3
000002f0: a301 7137 0466 5137 8eb0 01b6 f56b 0fb6
00000300: 0ab1 bab5 8771 2cb6 b941 13b7 a8ad 44b5
00000310: a8ad 44b5 a8ad 44b5 98f0 e135 1076 b037
00000320: 1a65 9e37 6695 c938 de62 0838 dfbf d537
00000330: 4358 8d38 20d8 dc36 909e b1b9 fde8 c7b7
00000340: 1dd2 7137 67ef 5838 de5b 5938 890d fa37
00000350: d546 2338 0000 0000 af56 9db2 0000 0000
00000360: 23d8 75b6 af56 9db2 23d8 7536 23d8 75b6
00000370: af56 9db2 23d8 75b6 23d8 7536 af56 9db2
00000380: 23d8 75b6 23d8 7536 af56 9db2 23d8 7536
00000390: f687 1137 c763 26b6 02ce feb5 1523 dbb5
000003a0: a70e 5cb6 1359 e1b6 695c 6938 695c 6938
000003b0: 695c 6938 5a0c 8239 dd22 3936 d145 9139
000003c0: 6693 ec39 10dc f037 7067 d039 2a3d 9239
000003d0: 14e0 c2b7 fd3f ae37 e573 d539 1496 f5b5
000003e0: 9b70 9239 72cb 153a 9864 33b8 3a58 a339
000003f0: 0000 0000 51b0 ba35 0000 0000 c1d9 9139

exp_avg_sq f4 [128, 78]
2.0017963e-09 2.0017963e-09 2.0017963e-09 1.07912925e-07 1.0993403e-09 7.575446e-08 1.01814216e-07 4.1249712e-10
8.7399634e-08 1.536582e-07 4.8389808e-09 3.3275313e-07 1.4763872e-07 1.0828693e-09 9.875446e-08 1.4355578e-07
1.4048175e-10 1.1250187e-07 0.0 1.2511227e-12 0.0 5.0044896e-08 1.2511227e-12 5.0044896e-08
5.0044896e-08 1.2511227e-12 5.0044896e-08 5.0044896e-08 1.2511227e-12 5.0044896e-08 5.0044896e-08 1.2511227e-12
5.0044896e-08 5.5958804e-10 4.6438337e-10 3.8015542e-11 1.3297417e-10 1.174381e-10 2.1272094e-10 2.0678737e-09
2.0678737e-09 2.0678737e-09 1.1298043e-07 5.2024314e-09 1.3760916e-07 1.07718165e-07 9.601048e-10 9.347485e-08
1.589847e-07 4.398532e-09 3.4815096e-07 1.771945e-07 3.5118886e-09 1.0391718e-07 1.5209186e-07 3.3699818e-10
1.1910427e-07 0.0 1.2924211e-12 0.0 5.169682e-08 1.2924211e-12 5.169682e-08 5.169682e-08
1.2924211e-12 5.169682e-08 5.169682e-08 1.2924211e-12 5.169682e-08 5.169682e-08 1.2924211e-12 5.169682e-08
5.7316724e-10 4.753243e-10 4.8988102e-11 1.3773786e-10 1.2165033e-10 2.4660213e-10 5.7839307e-09 5.7839307e-09
5.7839307e-09 2.420224e-07 1.37301015e-08 7.7072156e-07 2.7324973e-07 2.1530767e-08 2.7956702e-07 2.5813551e-07
2.8341829e-09 3.7021144e-07 3.272525e-07 1.5621472e-09 2.595405e-07 1.910995e-06 1.148093e-08 1.6655984e-07
0.0 3.6149597e-12 0.0 1.4459839e-07 3.6149597e-12 1.4459839e-07 1.4459839e-07 3.6149597e-12
1.4459839e-07 1.4459839e-07 3.6149597e-12 1.4459839e-07 1.4459839e-07 3.6149597e-12 1.4459839e-07 8.4110885e-10
5.9012445e-10 2.935979e-10 2.8675143e-10 1.3774922e-09 1.7115115e-09 5.7858816e-09 5.7858816e-09 5.7858816e-09
2.4849686e-07 1.3642999e-08 8.1496734e-07 2.755448e-07 1.8865121e-08 2.8835615e-07 2.6263731e-07 2.4579185e-09
3.886598e-07 3.2906954e-07 1.3753206e-09 2.5919317e-07 1.936962e-06 1.0781831e-08 1.6767645e-07 0.0
3.6161753e-12 0.0 1.4464709e-07 3.6161753e-12 1.4464709e-07 1.4464709e-07 3.6161753e-12 1.4464709e-07
1.4464709e-07 3.6161753e-12 1.4464709e-07 1.4464709e-07 3.6161753e-12 1.4464709e-07 8.8986646e-10 6.1371114e-10
3.0662106e-10 3.043776e-10 1.4308973e-09 1.6753385e-09 7.425498e-10 7.425498e-10 7.425498e-10 2.530536e-08
9.1944985e-10 5.0984667e-08 3.031966e-08 3.5294438e-09 2.5944434e-08 5.5461136e-08 1.338657e-08 6.1622393e-07
7.612615e-08 1.3242578e-09 3.1728266e-08 1.01081575e-07 1.3403407e-09 3.1148957e-08 0.0 4.640935e-13
0.0 1.8563753e-08 4.640935e-13 1.8563753e-08 1.8563753e-08 4.640935e-13 1.8563753e-08 1.8563753e-08
4.640935e-13 1.8563753e-08 1.8563753e-08 4.640935e-13 1.8563753e-08 2.2809915e-10 1.3054183e-10 4.4397826e-11
2.989187e-11 2.0995195e-11 2.876699e-10 8.1003526e-10 8.1003526e-10 8.1003526e-10 3.0525634e-08 4.159884e-09
7.793801e-08 3.4584012e-08 3.2741783e-09 2.847315e-08 5.849462e-08 1.1890771e-08 6.6032135e-07 1.2295033e-07
3.636797e-09 3.7509967e-08 1.0129494e-07 1.0114375e-09 3.212032e-08 0.0 5.062717e-13 0.0
2.0250905e-08 5.062717e-13 2.0250905e-08 2.0250905e-08 5.062717e-13 2.0250905e-08 2.0250905e-08 5.062717e-13
2.0250905e-08 2.0250905e-08 5.062717e-13 2.0250905e-08 2.2914579e-10 1.3495098e-10 7.303182e-11 3.1355245e-11
2.2268949e-11 3.2203853e-10 6.0906693e-09 6.0906693e-09 6.0906693e-09 2.7371956e-07 1.9989148e-10 1.9537056e-07
4.5062666e-07 2.2816554e-08 3.2945783e-07 2.8398816e-07 1.3427267e-09 4.2009188e-07 4.2299678e-07 7.4861434e-10
3.278973e-07 2.212482e-06 5.132159e-09 3.0172052e-07 0.0 3.8066703e-12 0.0 1.5226678e-07
00000000: f98f 0931 f98f 0931 f98f 0931 c2bd e733
00000010: 9917 9730 74ae a233 f5a4 da33 cfc5 e22f
00000020: 75b0 bb33 3ffd 2434 2044 a631 3ea5 b234
00000030: 9f86 1e34 14d4 9430 d712 d433 5024 1a34
00000040: 1976 1a2f 8f98 f133 0000 0000 7214 b02b
00000050: 0000 0000 f2f0 5633 7214 b02b f2f0 5633
00000060: f2f0 5633 7214 b02b f2f0 5633 f2f0 5633
00000070: 7214 b02b f2f0 5633 f2f0 5633 7214 b02b
00000080: f2f0 5633 82d1 1930 264c ff2f b231 272e
00000090: e734 122f e31f 012f 9fe3 692f 6b1a 0e31
000000a0: 6b1a 0e31 6b1a 0e31 a69f f233 12c1 b231
000000b0: b8c1 1334 b052 e733 aff4 8330 58bc c833
000000c0: 62b5 2a34 e621 9731 81e9 ba34 da42 3e34
000000d0: cc55 7131 1329 df33 b14e 2334 4744 b92f
000000e0: 44c6 ff33 0000 0000 61e4 b52b 0000 0000
000000f0: 4109 5e33 61e4 b52b 4109 5e33 4109 5e33
00000100: 61e4 b52b 4109 5e33 4109 5e33 61e4 b52b
00000110: 4109 5e33 4109 5e33 61e4 b52b 4109 5e33
00000120: 0f8d 1d30 f9a7 0230 b373 572e c371 172f
00000130: 86c1 052f 2a92 872f febb c631 febb c631
00000140: febb c631 4eef 8134 a0e1 6b32 95e3 4e35
00000150: 28b3 9234 a8f2 b832 6617 9634 e095 8a34
00000160: 79c3 4231 79c1 c634 3eb1 af34 2bb3 d630
00000170: fa56 8b34 a53e 0036 aa3d 4532 9fd7 3234
00000180: 0000 0000 5361 7e2c 0000 0000 e742 1b34
00000190: 5361 7e2c e742 1b34 e742 1b34 5361 7e2c
000001a0: e742 1b34 e742 1b34 5361 7e2c e742 1b34
000001b0: e742 1b34 5361 7e2c e742 1b34 c633 6730
000001c0: 5136 2230 3b68 a12f ada4 9d2f 3352 bd30
000001d0: 753a eb30 27cd c631 27cd c631 27cd c631
000001e0: 2669 8534 8b62 6a32 21c4 5a35 97ee 9334
000001f0: d70c a232 5ecf 9a34 9900 8d34 29e8 2831
00000200: ffa8 d034 f9aa b034 cb05 bd30 3d27 8b34
00000210: c1fc 0136 ff3a 3932 8d0a 3434 0000 0000
00000220: 3977 7e2c 0000 0000 4a50 1b34 3977 7e2c
00000230: 4a50 1b34 4a50 1b34 3977 7e2c 4a50 1b34
00000240: 4a50 1b34 3977 7e2c 4a50 1b34 4a50 1b34
00000250: 3977 7e2c 4a50 1b34 c99a 7430 15b2 2830
00000260: 1491 a82f 5755 a72f 39a9 c430 bc41 e630
00000270: 4c1c 4c30 4c1c 4c30 4c1c 4c30 135f d932
00000280: 88bc 7c30 3cfa 5a33 d238 0233 a28a 7231
00000290: 6adc de32 2a34 6e33 c2fa 6532 966a 2535
000002a0: cb7a a333 2e01 b630 9945 0833 2f12 d933
000002b0: 0c37 b830 a4c8 0533 0000 0000 76a1 022b
000002c0: 0000 0000 2076 9f32 76a1 022b 2076 9f32
000002d0: 2076 9f32 76a1 022b 2076 9f32 2076 9f32
000002e0: 76a1 022b 2076 9f32 2076 9f32 76a1 022b
000002f0: 2076 9f32 34cc 7a2f 4288 0f2f 8243 432e
00000300: 4177 032e faac b82d f025 9e2f 2aa9 5e30
00000310: 2aa9 5e30 2aa9 5e30 4a1b 0333 baee 8e31
00000320: e05e a733 8689 1433 f4ff 6031 1e95 f432
00000330: 843b 7b33 2a48 4c32 f040 3135 5404 0434
00000340: 36eb 7931 a51a 2133 7b87 d933 cb02 8b30
00000350: aaf4 0933 0000 0000 b880 0e2b 0000 0000
00000360: 36f4 ad32 b880 0e2b 36f4 ad32 36f4 ad32
00000370: b880 0e2b 36f4 ad32 36f4 ad32 b880 0e2b
00000380: 36f4 ad32 36f4 ad32 b880 0e2b 36f4 ad32
00000390: cef2 7b2f 5361 142f 4299 a02e dee6 092e
000003a0: 37e1 c32d e50a b12f 1846 d131 1846 d131
000003b0: 1846 d131 bbf3 9234 73c8 5b2f 0dc7 5134
000003c0: a8ed f134 22fe c332 57e0 b034 0977 9834
000003d0: ff8a b830 fd88 e134 3c18 e334 0dc7 4d30
000003e0: dd09 b034 277a 1436 f356 b031 27fc a134
000003f0: 0000 0000 70ef 852c 0000 0000 c67e 2334

exp_avg f4 [128]
7.5659696e-06 8.3752275e-07 -7.326735e-07 5.780509e-05 -2.6870892e-05 1.5803183e-05 3.6325084e-06 4.957284e-06
-1.47450655e-05 1.3183458e-05 4.062263e-05 -2.9785488e-05 -3.490155e-05 7.4827685e-06 1.468733e-05 -5.7465197e-05
-1.4111907e-05 4.8847655e-06 1.1992434e-05 -8.885394e-06 4.878669e-06 -3.179919e-05 -1.34300035e-05 1.711203e-05
-7.842914e-06 1.7079525e-05 3.794071e-05 2.496696e-06 1.755555e-05 -2.1489732e-05 2.0770642e-05 -3.0137271e-05
5.8962664e-06 1.6255737e-05 -1.3231705e-06 1.0840363e-05 2.5093446e-05 -1.6372713e-05 -1.7501148e-05 6.578786e-06
5.559869e-05 9.774923e-06 -1.5905043e-05 1.16122965e-05 -7.1060113e-06 4.006843e-06 1.4732907e-06 2.7814589e-05
3.5236385e-06 -2.5147961e-05 6.71289e-06 1.9680825e-05 1.5624281e-06 -1.9801757e-05 3.5007028e-07 -1.1335321e-05
2.641124e-05 4.4471767e-06 7.0954297e-06 -1.5768577e-06 4.14038e-06 3.0037198e-05 2.1818014e-05 -9.029831e-06
-6.9181806e-05 -1.713108e-05 3.1943222e-05 4.6428322e-05 4.5748577e-05 -1.16145475e-05 -1.2146187e-05 1.8993986e-05
-2.6060785e-05 1.350314e-05 -2.6186783e-05 -2.6862442e-06 -8.7581e-06 -3.0249257e-05 -2.1153126e-05 5.4335233e-05
-5.1095394e-05 3.0708274e-05 7.4724403e-07 -2.8666298e-05 5.742766e-05 1.0587518e-06 -3.0301571e-05 -3.0313602e-06
1.7493612e-05 -5.571108e-05 -8.759153e-06 -2.5830557e-05 1.9820702e-07 1.887704e-05 9.787324e-07 1.13723e-05
-1.7179853e-05 3.1969976e-06 1.6918291e-05 -9.114037e-06 -2.5615127e-06 3.5983325e-05 -2.7865328e-06 -2.8226978e-06
-1.7862452e-05 1.7278024e-05 -2.8180899e-05 -6.173789e-05 3.1581942e-06 1.2622023e-05 1.8264118e-05 2.20577e-06
-1.7428923e-05 1.5764266e-05 2.7906164e-05 -1.039574e-06 -4.9919217e-06 -4.472663e-06 1.4623775e-05 7.997487e-07
3.806447e-06 1.6330334e-05 -5.1598945e-05 5.879179e-05 -2.8445369e-05 -2.8839206e-05 -3.3010267e-06 -1.8911818e-05
00000000: 2fdf fd36 20d2 6035 f1ac 44b5 be73 7238
00000010: cd68 e1b7 1491 8437 05c6 7336 bf56 a636
00000020: 9361 77b7 852e 5d37 3862 2a38 d9db f9b7
00000030: 4163 12b8 7e14 fb36 9a69 7637 c906 71b8
00000040: 2ec2 6cb7 d1e7 a336 1d33 4937 7a12 15b7
00000050: 73b3 a336 1f60 05b8 6d51 61b7 ce8b 8f37
00000060: 0f95 03b7 0046 8f37 8722 1f38 e98c 2736
00000070: 4244 9337 d944 b4b7 9d3c ae37 4ccf fcb7
00000080: 8bd8 c536 ee5c 8837 cb97 b1b5 01df 3537
00000090: c47f d237 2258 89b7 6ecf 92b7 57bf dc36
000000a0: a432 6938 f9fe 2337 d26b 85b7 6fd2 4237
000000b0: 2c70 eeb6 8572 8636 e2bd c535 6053 e937
000000c0: a677 6c36 d6f4 d2b7 493f e136 4018 a537
000000d0: 9fb4 d135 f31b a6b7 4bf1 bb34 d52c 3eb7
000000e0: b58d dd37 f538 9536 4715 ee36 6ba4 d3b5
000000f0: 98ed 8a36 64f8 fb37 d405 b737 d47e 17b7
00000100: b315 91b8 b7b4 8fb7 c6fa 0538 08bc 4238
00000110: 29e2 3f38 1adc 42b7 7ac7 4bb7 4655 9f37
00000120: 1c9d dab7 8b8b 6237 b0ab dbb7 5345 34b6
00000130: c1ef 12b7 c9bf fdb7 fe71 b1b7 03e6 6338
00000140: 434f 56b8 c2cc 0038 3896 4835 6878 f0b7
00000150: 7bde 7038 6f1a 8e35 2130 feb7 5f6e 4bb6
00000160: 3fbf 9237 51ab 69b8 47f4 12b7 b3ae d8b7
00000170: bbd2 5434 225a 9e37 fd5c 8335 a8cb 3e37
00000180: 741d 90b7 008c 5636 c1eb 8d37 7ee8 18b7
00000190: 74e6 2bb6 cdec 1638 4500 3bb6 946d 3db6
000001a0: 53d7 95b7 46f0 9037 0566 ecb7 4779 81b8
000001b0: 5df1 5336 2dc3 5337 e535 9937 d706 1436
000001c0: 5434 92b7 813d 8437 0818 ea37 7e87 8bb5
000001d0: 4880 a7b6 e213 96b6 a358 7537 50ae 5635
000001e0: 4372 7f36 20fd 8837 f26b 58b8 3497 7638
000001f0: f79d eeb7 b9eb f1b7 3587 5db6 d2a4 9eb7

exp_avg_sq f4 [128]
2.0678728e-09 5.7858798e-09 8.100353e-10 6.2263634e-09 3.2713392e-09 1.5460387e-08 2.6089548e-09 3.2894534e-09
9.365671e-09 8.86608e-10 5.238096e-09 4.7635775e-09 5.6212097e-09 4.052488e-09 2.3842754e-08 1.7203304e-08
7.49279e-09 3.1821803e-09 1.7573808e-10 2.9552143e-09 3.5770413e-09 9.771199e-09 1.0877784e-09 2.2226831e-09
1.7145144e-09 6.827332e-09 2.9225096e-09 4.5670143e-09 2.7850393e-09 1.9268494e-08 2.3110622e-09 1.3221876e-09
7.6974827e-10 2.5734563e-09 2.5052986e-09 1.3126518e-09 6.9300152e-09 3.949395e-09 3.1401541e-09 3.0224894e-09
4.4236774e-09 4.9484403e-09 1.8381456e-09 3.119205e-09 4.6560857e-09 1.1723226e-09 1.3169382e-08 1.7929229e-09
1.8317022e-09 2.3970759e-09 5.18524e-09 4.5720934e-09 2.2130704e-09 6.6356534e-09 1.4177252e-09 1.1442057e-09
9.219555e-09 5.8782996e-09 3.955193e-09 1.591769e-10 2.7165705e-09 3.892328e-09 3.752167e-09 2.7079543e-09
5.9959584e-09 4.591928e-09 1.4308149e-08 1.3883129e-08 1.0374312e-08 1.8041213e-09 2.9961544e-08 6.053948e-09
4.0430823e-09 4.384004e-09 1.5413378e-09 5.867172e-09 9.936637e-10 8.596483e-09 4.1865555e-09 5.1395026e-09
3.3001444e-09 1.1112999e-08 4.76131e-09 9.717664e-09 3.2778544e-08 3.1638177e-09 7.726619e-09 7.121401e-09
1.2067256e-09 1.992048e-08 1.5353997e-09 1.5714036e-08 4.041551e-09 5.129717e-10 7.041033e-10 5.064699e-09
1.9738524e-08 1.0932976e-08 1.8864553e-08 1.7395386e-09 1.521699e-08 5.7881984e-09 3.9350376e-09 5.7206737e-09
4.7434066e-09 3.0071483e-09 1.6087435e-08 2.2392904e-08 4.55364e-09 4.8245945e-09 1.652478e-08 2.7723261e-09
3.5215642e-09 2.0366517e-09 9.052542e-09 1.0786292e-09 4.3260737e-09 2.811161e-09 4.1897206e-09 2.578214e-10
6.457373e-09 1.5527086e-09 7.90859e-09 9.282902e-09 3.751319e-09 2.5827604e-09 8.278673e-09 2.8137337e-09
00000000: 671a 0e31 23cd c631 2ba9 5e30 acef d531
00000010: 02ce 6031 c0cd 8432 3849 3331 ad0c 6231
00000020: a8e6 2032 7eb5 7330 c8fa b331 dfac a331
00000030: af24 c131 103e 8b31 c5ce cc32 77c6 9332
00000040: a4b9 0032 82ad 5a31 df39 412f ae14 4b31
00000050: facf 7531 30de 2732 cd80 9530 dbbd 1831
00000060: 1da4 eb30 d995 ea31 55d5 4831 e2eb 9c31
00000070: ee62 3f31 de83 a532 a3d0 1e31 57b8 b530
00000080: 3896 5330 b9d8 3031 ae29 2c31 d468 b430
00000090: 0f1d ee31 3fb3 8731 2dca 5731 32b4 4f31
000000a0: 14ff 9731 f106 aa31 00a2 fc30 a259 5631
000000b0: 5dfb 9f31 6f1f a130 8e3f 6232 de6a f630
000000c0: 4bbf fb30 ceb9 2431 da29 b231 8f18 9d31
000000d0: bf14 1831 d3ff e331 c5d9 c230 2942 9d30
000000e0: 0864 1e32 12fa c931 3fe6 8731 5004 2f2f
000000f0: 6aae 3a31 47bd 8531 69ec 8031 d616 3a31
00000100: 0205 ce31 07c7 9d31 e8cf 7532 a682 6e32
00000110: b53a 3232 e0f4 f730 11af 0033 1703 d031
00000120: 54eb 8a31 1ba2 9631 01d7 d330 3198 c931
00000130: 6f91 8830 bbaf 1332 55d9 8f31 8b97 b031
00000140: c1c8 6231 7deb 3e32 ed98 a331 bdf2 2632
00000150: 64c8 0c33 786a 5931 08be 0432 81b0 f431
00000160: e2d9 a530 991d ab32 1306 d330 88fb 8632
00000170: dcdd 8a31 2d01 0d30 dd8a 4130 9005 ae31
00000180: 798d a932 bdd3 3b32 970b a232 9314 ef30
00000190: 84b6 8232 88e1 c631 f534 8731 948f c431
000001a0: 72fb a231 50a6 4e31 a530 8a32 845a c032
000001b0: 3e76 9c31 95c5 a531 60f2 8d32 4783 3e31
000001c0: 0300 7231 28f5 0b31 8085 1b32 e43e 9430
000001d0: 8ca4 9431 782e 4131 2cf5 8f31 23bd 8d2f
000001e0: a7df dd31 1467 d530 59de 0732 a27a 1f32
000001f0: f3e4 8031 677c 3131 fd39 0e32 ba5b 4131
