results/ag04/PlatformRotate/PlatformRotate-299970.onnx (onnx, 106330 bytes, 8 tensors)

network_body._body_endoder.seq_layers.0.weight f4 [128, 66]
00000000: 3a6d 31be abf1 50bd 40dd b9bd 4030 b0bd
00000010: 3a39 19bc a8b9 543e beb7 86bd 2cd8 68be
00000020: 76ab 9e3d a0a5 a43d 4fa3 1bbd 4d00 993d
00000030: bdd9 c33d 4a08 70be 0b43 163e 770b f6bc
00000040: f9da 1abe 035e a8bd b227 cabd 9514 11be
00000050: a1d7 37be 45d1 6d3e 2717 bdbd 715c 26be
00000060: cc28 453d b35a d0bd 24bb 80bd 114e 383e
00000070: 1a12 403d 0efe 393d 590c 3f3d ece8 843e
00000080: 960e cfbd 3032 72bd 68fd 073d a12c a13d
00000090: b8d5 c9bd 2385 603e 51c2 90be aa20 093d
000000a0: 93ff c93c 798b 0fbe 91d0 383e a0ba 6f3d
000000b0: 07db e8bc 6728 0dbe 71c0 77be 9171 263e
000000c0: 8bbb 663d 9c7f 0f3c 9314 a13d 7af1 cabd
000000d0: b506 fd3d b63e bebb 1fbd 033e f876 8f3d
000000e0: 6389 06bd 63a1 293d acc2 77be c103 d23d
000000f0: c3ff 82be 91ad 583c f965 86ba 18ed d9bd
00000100: 58c2 cc3c b471 20bd 453b 35bd f0c9 a03d
00000110: ad88 513e 5ab7 28be fbf4 063e 1f07 883d
00000120: 0110 943d 96a0 a53d 45f3 073e 576b 243e
00000130: 93b9 113e ef2b db3d 1bc4 c4bd 05b5 983e
00000140: 69f6 c83d 51b9 903d 9f06 1cbe dbd2 f23d
00000150: db0a 693e a064 4bbe 4e8e 033e 7b70 d93d
00000160: 3418 9fbe 243b 27be a00d 08bd 8168 0e3c
00000170: 69d3 da3d e803 093d 6c08 a13d 3e74 b63b
00000180: b14b d73d ee44 38be d2c3 0fbd 4ace 8bbb
00000190: ddcb 41be 5208 9f3b 5676 523e 461f 87bc
000001a0: cae4 d3bd 9a59 81be b59d d33c 6f7e aebd
000001b0: cc4c 05bc dda8 b2bd 4396 593e fa4f 0a3c
000001c0: 900b e0bc cda5 553e 0a22 053c 343b 03bd
000001d0: e379 a23d 7dc5 3b3e e16c 673d 7b37 39be
000001e0: f72f 1c3d f1f5 083e a87a 05be 25bb 1dbe
000001f0: 9465 6f3b 6f21 32bd 2b96 703d 2dcc 6d3d
00000200: cced d4bd b701 40be 818e 07be ce9b b23c
00000210: a24b 19bd bdaa 913e ab5e 87bd 61ea 15be
00000220: e68a a5be a9e1 ac3d 0c4c 2fbd 9bd7 a53d
00000230: 1da2 e1bd b0b0 b93c 4a4e 2a3d 484c 64be
00000240: df27 f63a 195e ba3b 0654 fa3d 6810 87bc
00000250: f9c9 f8bd 03e4 063e cd4e d1bd bccd 013e
00000260: 0b35 043e 9392 a73d 5efa 143d cf8d 1f3e
00000270: c9c0 8a3e 6033 0cbd 5955 8a3d 9793 cc3d
00000280: 03e7 383d d8de a3bd e216 c73d 59ce ec3d
00000290: bff9 11be d910 673e d4ed e63d 4f96 f6bd
000002a0: c1b3 81bd be8e da3d f8c3 ffbc 476d bcbd
000002b0: 3ab0 7abd f224 b93e 442e 88bb 9a4e 353d
000002c0: 8014 24be 925d aa3c 7b2b a7bb 4205 233e
000002d0: 2493 1ebe b4c4 62bd 77d4 92bd 1b21 23be
000002e0: fd2a 283e 9218 d83d 2870 9fbd 92a3 6abd
000002f0: 7451 83be c509 8fbd 8491 f43c ff63 92bc
00000300: f0c6 44be eafa 653e 6615 86bc e25f aabd
00000310: bea1 a4bc 3190 fb3d 2250 d6bd a06f 053d
00000320: 4316 96bd daac 16be da33 ca3d eee6 6f3b
00000330: 51eb b8bd 77b1 9e3d 1938 8b3d 0d4c 42be
00000340: 0996 8e3e a70e c1bd c8fd 21bd 261e 50be
00000350: f55d 2abe a195 63be fd0a 82bc 3a52 9c3d
00000360: 13f4 523d 7b0e cdbc 44b5 20bd 8c26 4a3e
00000370: bd19 1ebd d710 38bc 6fd0 1fbd a035 1a3e
00000380: 5733 c93d 6510 a5bc 3e69 873e 49a4 cf3d
00000390: cf0a 203d 00b8 17bd 27c0 423d 21cb c1bd
000003a0: 3bf5 8b3e 2732 653d 3471 ce3d a1fc 07bd
000003b0: 9664 bc3d 4237 bbbd 1853 653e aeaa a2bd
000003c0: ba6f 333e 4e78 f5bd 835d d1bc 4ec5 2bbd
000003d0: 5aeb afbc e62d 103e ca0e 78bd 5975 c03c
000003e0: 4ce1 b53c 8660 023e 5d27 47be 8ec7 7a3d
000003f0: b063 e4bd b614 d03c 3a1f 9d3d 1ebc 01be
-0.17326823 -0.051011723 -0.09075403 -0.08602953 -0.009352023 0.20773947 -0.06578015 -0.22738713
0.07747547 0.08039403 -0.03799754 0.074707605 0.09563015 -0.23440662 0.14674012 -0.030034764
-0.15122594 -0.08221056 -0.098708525 -0.14168008 -0.1795335 0.23224361 -0.092329316 -0.16246201
0.04813461 -0.101735495 -0.06285694 0.1799853 0.046892263 0.0454083 0.046642635 0.25958955
-0.10110204 -0.059129894 0.03320065 0.078698404 -0.09855217 0.21925788 -0.28273252 0.033478417
0.024658 -0.14018048 0.18048312 0.05852759 -0.028424753 -0.13784944 -0.24194504 0.1625426
0.0563312 0.008758452 0.07865252 -0.09909339 0.12354795 -0.0058058156 0.12865113 0.07005113
-0.032845866 0.041413676 -0.24195355 0.10254622 -0.25585756 0.013224975 -0.0010253779 -0.10640925
0.024995014 -0.039170936 -0.044245977 0.078510165 0.20462294 -0.16476193 0.1317939 0.06641983
0.07229615 0.0808727 0.13276394 0.16056572 0.14230947 0.10701739 -0.09607717 0.29825607
0.09812624 0.07066596 -0.15236901 0.11856624 0.22758047 -0.19862604 0.12847254 0.10617157
-0.31073153 -0.16331154 -0.03321612 0.008691908 0.106848545 0.03345099 0.078629345 0.0055680564
0.10512484 -0.17995045 -0.03509886 -0.004266535 -0.18925424 0.004853287 0.20552954 -0.016494405
-0.103463724 -0.25263673 0.025832037 -0.08520209 -0.008135986 -0.08723614 0.21248727 0.008441919
-0.027349263 0.20864029 0.008125791 -0.032038882 0.07933404 0.18337055 0.05650032 -0.1808757
0.03813168 0.13375069 -0.13035071 -0.15403421 0.003652905 -0.043488916 0.05873696 0.058056045
-0.10396919 -0.18750654 -0.13237955 0.02180281 -0.037425645 0.28450575 -0.06609853 -0.1464019
-0.32332534 0.08441479 -0.042797133 0.08097764 -0.11017249 0.022667259 0.04157857 -0.22294724
0.0018780193 0.005687487 0.122230574 -0.016487315 -0.12147898 0.13172917 -0.10220108 0.12676138
0.1291086 0.08182254 0.03637158 0.1558144 0.27100208 -0.034228683 0.0675456 0.09989088
0.045142185 -0.080014884 0.097211614 0.11562795 -0.14255427 0.2256502 0.11275831 -0.12040388
-0.063331135 0.10671757 -0.031221375 -0.092005305 -0.06120322 0.36161 -0.004155906 0.044264413
-0.16023445 0.02079657 -0.005101619 0.15919974 -0.15485817 -0.055363372 -0.07169431 -0.15930597
0.16422649 0.105515614 -0.07785064 -0.0572849 -0.2564808 -0.06984285 0.029854544 -0.017869947
-0.19216514 0.22458997 -0.016367625 -0.083190694 -0.020096656 0.12283362 -0.10464503 0.032577157
-0.07328465 -0.14714375 0.09873171 0.003660615 -0.09029258 0.077486925 0.06797809 -0.18974324
0.27848843 -0.09426623 -0.039548665 -0.20324 -0.16637404 -0.22225048 -0.01587438 0.07632871
0.0515023 -0.025031319 -0.03923537 0.19741267 -0.038598765 -0.011234484 -0.039017137 0.15059519
0.098242454 -0.02014942 0.2644748 0.10138757 0.039072808 -0.03704071 0.047546532 -0.09462572
0.27335533 0.055956032 0.100801855 -0.03319991 0.09198873 -0.09141399 0.22394979 -0.07942711
0.17523089 -0.11985837 -0.025557285 -0.04193621 -0.021474529 0.14080009 -0.06056098 0.023493456
0.022202156 0.12732133 -0.1944861 0.061225466 -0.111518264 0.0254005 0.076719716 -0.12669417

network_body._body_endoder.seq_layers.0.bias f4 [128]
00000000: 2d70 80bb 5770 86bb 8c88 f33b 61d6 963b
00000010: 6c4f 1abc 7ebf 053d 4ca3 ae3c f015 663c
00000020: 0f10 e4bb 6c8e 60bc ba2e f138 dbf9 8d3c
00000030: a4e8 cc3b 891f 5bbc 648c 21bc a36b 0c3b
00000040: fac8 02bc ca2b a03b 9f7a e6ba 5551 54bc
00000050: 10c9 4bbc a2f1 aebb 8ba7 013c b974 2abc
00000060: 8671 e53b ff54 9cbc 5366 cbbb 2bf0 89ba
00000070: 5909 75b8 8e17 58bc 25f9 e9bb 37f8 743b
00000080: 4acc e2ba 8001 933c f07c c43b 4401 8fbb
00000090: d246 603c f3ec 9fba 5660 d1bb 100c 873c
000000a0: c653 273c e9c3 933b 4cf2 57bc 516c 1ebc
000000b0: d92c 4bbc ba34 403c 830b a3bb cb93 ccbb
000000c0: a3ef 303c 4950 7a3c d315 c8bb 166b 02bc
000000d0: 7af0 2a3c 411a b0bb 721d ae3b 880a 0dbc
000000e0: bdb3 ed39 9b6e cbbb c4c3 853c da77 9639
000000f0: a4a5 91bc c488 0dbc 1961 16bc 7aa1 15bc
00000100: 468f a53b ad0c b4ba f915 7dbb cabe c23b
00000110: 7000 093c 5f69 55bc 1db8 423c b1cf 683b
00000120: 0bfd c0bb 8543 b5bb e8a2 823b ffdb 22bc
00000130: 5b8a 8cbb 197d 553c 67cf 8e3b 25fe cabb
00000140: 833d 333c 3018 913b fc7a eabb 77ab 2bbc
00000150: 7542 45bc 43dd eb3b 3855 48bc 05c4 26ba
00000160: 496e 043b 01ab eabb f19b c1bb fac4 373c
00000170: c27b b0bb b57c ed3b d523 e43b 56e3 bb3b
00000180: 829d 243c 95e1 7cbc bece 87bc bbe7 87bb
00000190: 659a 643a 8b87 173b 1b4d 2bbc 4cab 95bb
000001a0: 3fd2 013c 953a 2f3c d63e 3ebb 5025 17bc
000001b0: 2b13 653c 1822 573c c0dc a73b a969 09bb
000001c0: a54e 0fbc 4ea5 19bc 0aa3 8dbb d92b e8bb
000001d0: 2923 b23b 2d5b 66bc 24e9 1f3c 5d4b fa3a
000001e0: 93d7 363c 5d18 e3bb 8d3a 233c d1ef 3cbb
000001f0: 7d33 883c 08be 83bc 3714 653c ba9c d4bb
-0.0039196224 -0.0041027474 0.007432049 0.0046031927 -0.00941835 0.032653324 0.0213181 0.014043316
-0.006959922 -0.013705831 0.00011500479 0.017331054 0.006253319 -0.013374218 -0.009860132 0.0021426461
-0.007982487 0.0048880326 -0.0017584151 -0.012958844 -0.012438074 -0.0053388635 0.0079134805 -0.010403805
0.0070020584 -0.019083498 -0.0062072664 -0.0010523846 -5.8421258e-05 -0.01318921 -0.007140296 0.0037379393
-0.0017303315 0.017945051 0.005996339 -0.0043641645 0.01368876 -0.0012201354 -0.006389658 0.016485244
0.010212844 0.0045094383 -0.013180327 -0.009669379 -0.012400829 0.011731321 -0.0049757375 -0.006243204
0.010799321 0.015277931 -0.0061061173 -0.007960102 0.010433311 -0.0053742235 0.0053135687 -0.008608468
0.00045338078 -0.0062082536 0.0163287 0.00028699526 -0.017779179 -0.0086385645 -0.009178423 -0.009132737
0.00505248 -0.0013736688 -0.0038617833 0.005943154 0.008361921 -0.013025611 0.011884716 0.0035524184
-0.00588954 -0.0055317306 0.003986705 -0.0099401465 -0.004288954 0.013030314 0.0043582204 -0.006194847
0.0109399585 0.004427932 -0.007155774 -0.010477892 -0.01203977 0.0071980073 -0.012227349 -0.00063616066
0.0020207337 -0.0071614985 -0.0059084822 0.0112163965 -0.005385847 0.0072475323 0.0069622793 0.0057338877
0.010047318 -0.015434642 -0.016578075 -0.0041474975 0.00087205163 0.0023121561 -0.010455395 -0.0045675393
0.007923662 0.010695119 -0.0029029152 -0.009225205 0.013981621 0.013130687 0.005122751 -0.002096752
-0.008746778 -0.009377791 -0.0043224143 -0.007085305 0.0054363203 -0.014059824 0.009760175 0.0019095946
0.011159795 -0.0069303946 0.00996269 -0.0028829465 0.016626114 -0.016081825 0.01398187 -0.00648841

network_body._body_endoder.seq_layers.2.weight f4 [128, 128]
00000000: c1b8 19bd 1c15 e0bd 45c8 1f3d d645 a0bc
00000010: 569d d83d ea91 23bd a052 7dbc 4b58 6f3d
00000020: cbc0 6dbd d597 343d 172b bd3c a2f2 533e
00000030: 639c abbc b69b e03d 4b74 8d3c 7021 083e
00000040: bab7 8dbd ab36 433e 9c4f ec3c f0a3 cabd
00000050: dcab 3b3d 616b 93bd 290e b93c ed3b 193d
00000060: e73e 703d 48d6 65bc 7c2f 63bd f899 06be
00000070: 84b9 bab9 8ef7 173e bae7 a9bd b5e8 4e3d
00000080: 973c 47be 3795 7e3d 0bc7 143e f3e5 343e
00000090: 949a debd 8c15 083e ffb7 633d 8cf9 543d
000000a0: a94b 2cbd 0a6c dabc 2fda 6bbd d0ac a6bd
000000b0: 9f65 283e fdf7 22be bdf1 38be 485c b03c
000000c0: 1204 883d 0a9d 06bd 3b34 98bd a68c b4bc
000000d0: b2b2 65bc b326 4dbe fcf8 eebc 837f 943d
000000e0: 0d35 f13c 2724 0ebd b7bf 5f3d db2d 123e
000000f0: b39f 283e cc5d 28bd c5ac 76bd 3ae5 2b3e
00000100: 337f fc3c 5f6f a4bd ffc4 37bd 0e44 773c
00000110: 0742 543c 4667 de3d bd3f 023c 3df8 173e
00000120: f4bc 083d 165e 3fbc fa3f 0ebe 9be0 d6bd
00000130: 7be4 6d3d 115d 9c3e dfd3 babd a1ff 043d
00000140: 3b50 debd d154 fb3c 9663 613c 10dc 0cbd
00000150: 5abc 363e 2ab3 083d da12 dabd 2a02 7fbd
00000160: 3452 e2bd f98b af3d c01f 74bd c4f0 403d
00000170: d113 0ebe 5d31 1dbd b36b 8bbd 7f92 333d
00000180: 6209 eabc ba4c fcbb 9b39 003d adbf 0b3e
00000190: 23ed 00be e547 383d be0a d83d c1e3 bbbd
000001a0: 5cbd a0bc 6c74 96bd 0473 f03d bc97 4d3d
000001b0: 93e3 793d 6f00 a83d 5f82 2b3d 7d9d d03d
000001c0: 06bd ce3c c595 51bd a0f5 173e f7a2 cf3d
000001d0: 72df 0fbd 85c5 09bd 405a 9c3d f5fc 123e
000001e0: 33e1 093d 11e2 15bc e2e2 1d3c 00c6 813c
000001f0: 7515 b1bd 4eb0 9d3d a3d3 f7bb 7972 eb3c
00000200: faa0 03bc 910b 703d 4832 4f3c fc81 d73d
00000210: 75cf 8fbd c288 153d 8bec 5bbd 7a58 9abd
00000220: 008b 523d e868 c33a b4fd c03d bb0c 0abd
00000230: 7b02 b3bd 165e 4cbd 62a8 c53c 067b 6abe
00000240: fe10 513d eb72 27be ac5c 2c3e e90f 933d
00000250: 1953 173b c85d e33c 80bf b8bd a632 38be
00000260: 4f04 1fbd 5158 72bd 4ab5 74bd 7123 d83d
00000270: bc88 d9bd e8f8 e63d 070f ac3c 6e83 b53d
00000280: 1244 9c3c 3adc 6c3c a566 a33d 36b9 9d3d
00000290: f197 313e 275d dd3d 0f66 ac3c a816 ffbd
000002a0: 2fbd 753c 9769 12bd c37e 9ebd ebea edbd
000002b0: 127a 643c 2cbc 073e 2c64 4ebb f738 5a3d
000002c0: 2ce9 3f3d f7ef 133e 1b76 933c a9b7 bfbd
000002d0: 4d3b e9bd 7806 09bd 6671 613c 2404 a03d
000002e0: f9cd 923d 83c3 bbbd b5a9 af3c 2ebd ec3d
000002f0: 7e3e e73c 3631 063e 5fbb 38bd d95d 4a3c
00000300: ece3 1e3d f5ca 213c 55ff d63d 1434 273c
00000310: e559 ac3c 2a14 123e 1c16 acbd c4ed d53c
00000320: 0854 4b3d d690 80bd 661d 4c3e 66b5 c4bc
00000330: 6ac2 2ebd b7d8 19be a10d f3bd 659d 763c
00000340: 2d25 a63d da21 9d3d 5c17 2bbd d252 a0bd
00000350: 19ec 99bd c974 163d 19c0 563c 18a9 813d
00000360: 21b6 4b3d 9042 193c 4a1b 2d3e 9763 fdbd
00000370: 37a6 10bc fbfc c4bc 9be8 3a3d 9095 f7bd
00000380: 8ca9 643d 9964 163d 29ea b63d 86e4 03bc
00000390: 0425 0ebd efc6 573d 2520 d5bd 7248 f4bd
000003a0: 4d3a ed3c 4fe8 5c3c eb90 2a3c 5788 0b3d
000003b0: eb82 113e 478c 0abc 0794 da3d e29f 28ba
000003c0: fca1 04be cfac 203c 574d f8bd 6ff4 9dbd
000003d0: c199 d3bb 84c2 5b3d 89ba e53d 2ac4 d13c
000003e0: 7d67 3bbd 7a86 ffbd 063d b73c c49b 2e3d
000003f0: bea5 51bc cb4b bfbd bcd8 2cbd ecca febc
-0.03752971 -0.10941526 0.03900935 -0.01956455 0.105768844 -0.039934076 -0.015461594 0.058433812
-0.05804519 0.04409011 0.023091836 0.20698026 -0.020948594 0.109671995 0.017267367 0.13294005
-0.06919809 0.19063823 0.028846554 -0.0989455 0.045818195 -0.07198215 0.02258976 0.037410665
0.05865374 -0.014028139 -0.055465207 -0.13144672 -0.00035614904 0.14840528 -0.082961515 0.050514895
-0.19456707 0.06215402 0.14529054 0.17665844 -0.10869327 0.1328947 0.055595394 0.0519958
-0.042064343 -0.026662845 -0.057581123 -0.0813843 0.16445015 -0.15914913 -0.18060966 0.021528378
0.06641401 -0.032864608 -0.07431837 -0.022039723 -0.014019655 -0.20034294 -0.02917146 0.072508834
0.029444242 -0.034702446 0.054626193 0.14275305 0.1646717 -0.041105077 -0.06022336 0.16786662
0.030822372 -0.08029055 -0.044865604 0.015091909 0.012955195 0.108595416 0.007949767 0.14840789
0.033383325 -0.011680147 -0.13891593 -0.10492059 0.058079224 0.30539754 -0.091224425 0.03247035
-0.108551465 0.030680092 0.013756653 -0.034389555 0.17845288 0.03337399 -0.10648127 -0.062257923
-0.11050835 0.085716195 -0.05960059 0.047104612 -0.13874747 -0.038377155 -0.06807651 0.04384088
-0.028568927 -0.007699576 0.031304937 0.13647337 -0.1259046 0.04499044 0.10548924 -0.091743
-0.019621544 -0.073464245 0.117406875 0.050193533 0.061008047 0.08203208 0.04187238 0.101862885
0.025236618 -0.051168222 0.14839792 0.10138505 -0.035125203 -0.033635635 0.07634401 0.14354308
0.033662032 -0.009148137 0.009636613 0.015841484 -0.08646671 0.07699643 -0.007563071 0.028741108
-0.008033985 0.05860478 0.012646265 0.105228394 -0.07021991 0.036507376 -0.05369238 -0.07536407
0.051402092 0.0014908584 0.0942339 -0.033703547 -0.087407075 -0.049894415 0.024128143 -0.22898492
0.051041596 -0.16352431 0.16832227 0.07180769 0.0023090302 0.02775468 -0.09020901 -0.17988071
-0.03882247 -0.059166256 -0.059743203 0.10553635 -0.10621783 0.11277944 0.02100326 0.08862959
0.019075427 0.014456803 0.07978562 0.07701342 0.17343117 0.10808783 0.02104476 -0.12455493
0.014998718 -0.03574523 -0.07739022 -0.11617073 0.013945119 0.13255376 -0.0031492813 0.053276982
0.04685323 0.14447008 0.018000653 -0.09361202 -0.11388264 -0.033453435 0.013759946 0.0781329
0.071681924 -0.0916815 0.021443227 0.11559521 0.02822804 0.1310471 -0.045100566 0.012351477
0.038791582 0.009875049 0.104979195 0.0102052875 0.021038959 0.14265504 -0.084026545 0.026114352
0.049640685 -0.06277625 0.1993309 -0.024012279 -0.042665876 -0.15024076 -0.11867834 0.015052174
0.081125595 0.07672472 -0.041770324 -0.07828297 -0.07515735 0.03673247 0.013107323 0.0633108
0.04973424 0.009354249 0.16904941 -0.12372511 -0.008828691 -0.024046412 0.045631986 -0.12089074
0.055825755 0.03671703 0.08931381 -0.00805009 -0.03470327 0.052679952 -0.10406522 -0.1192788
0.028958464 0.013483121 0.010410528 0.03406557 0.14210097 -0.008456296 0.10672765 -0.0006432516
-0.12952417 0.009806826 -0.121241264 -0.07712638 -0.006457538 0.0536523 0.112172194 0.025606234
-0.04575299 -0.12476821 0.022367965 0.04262902 -0.012795864 -0.09340628 -0.04219888 -0.03110262

network_body._body_endoder.seq_layers.2.bias f4 [128]
00000000: 8b2e 23bb cbe8 eb3b 2f9f 653a 956f 263c
00000010: 762b 3139 4947 47bc ec32 513c d3c9 ccbb
00000020: 1c2e a33b d72c 2abc 07a0 12bc ade0 4a3c
00000030: 94f4 46bb d122 b4bb 5564 1fbc 9142 423c
00000040: dbeb f0bb 6b21 263c f3cf 8cbb f982 26bc
00000050: 116c af3b c441 1e3c 0c6f 073c 5826 ddbb
00000060: 6960 ac3b 33ba 1abc 7911 683c 96ab 2f3c
00000070: 5193 dbbb df78 853b bec6 3dbc fbf7 443c
00000080: 76c5 ce3b 02c3 3cbc 79cc 66bc afe4 12b9
00000090: 1816 ff3b d76e 1e3c e1d4 bb3b d7e5 03bc
000000a0: c55d 5c3c 8e88 26bc 4752 94bb eb72 50bc
000000b0: 1f66 0bbb ae68 b03b b635 60bc 127a 573c
000000c0: 4018 1ebc 96f1 713c 16d3 1f3c 9df4 433c
000000d0: c78d b0bb f42d 153c a7e3 aabb 1f84 ca3a
000000e0: ce52 313c 67fc 19bc 5839 173c 2742 64bc
000000f0: ffd5 37bc 9306 613c 2e7f efba 27c9 52bc
00000100: c8d3 6e3c 401a 2b3c e0fb 40ba 1b53 5bbc
00000110: 18da 23bc 6013 bbba 64e2 51bc e141 2dba
00000120: f7b9 793b 1283 833b ca34 303c 803e c3bb
00000130: 9296 85bb 34bf 2e3c ff1f 933b 5206 d8bb
00000140: 5b50 143c 316f 2f3b c12c a0bb 4a0f da3b
00000150: 2fa8 093c 0ff2 4fbc 92f5 22bc 737f 94bb
00000160: 858a 593c 6b9b 4f3c b076 c4b9 ca0f 53bc
00000170: 7813 db3b 94a1 41bc 181d 843a 56a3 813c
00000180: 9950 213c d738 243c c0f9 363c 3315 efbb
00000190: a549 edbb ceea 0d3c 0b36 953b ff05 2a3a
000001a0: 253c 2bbc e452 76bc 248c 12bc cc80 4e3c
000001b0: 97b9 27bc 1d94 2dbc ba2e 44bc adde 6c3c
000001c0: c8f0 ca3b d2e9 12bc 4030 54ba fc95 36bc
000001d0: 3e29 bf3b ca20 dd39 7fe8 5bbc f6b1 16bc
000001e0: 784b 6a3b 6ab2 a139 f26f 0dbb 4a4b a4bb
000001f0: 8d60 42bc 4434 803c ad9b 03bc 4a89 80bb
-0.0024899568 0.007199382 0.0008759377 0.010158439 0.00016896226 -0.012162992 0.012768488 -0.0062496453
0.004979862 -0.010386667 -0.008949286 0.012382668 -0.0030358182 -0.0054973145 -0.009728511 0.011856691
-0.007352335 0.010139803 -0.0042972504 -0.010163062 0.0053534587 0.009659234 0.008266222 -0.0067489557
0.0052605164 -0.009443807 0.014164322 0.010722062 -0.006700911 0.004073247 -0.011583028 0.012022014
0.0063101603 -0.011521103 -0.014086836 -0.00014008836 0.007784616 0.009669981 0.0057321643 -0.008050404
0.013450091 -0.010164393 -0.00452641 -0.012722711 -0.0021270586 0.0053835725 -0.013684681 0.013151662
-0.009649336 0.014767071 0.009754917 0.011960176 -0.005387995 0.009105194 -0.0052151266 0.0015450752
0.010822965 -0.009398556 0.00922998 -0.013931788 -0.011220454 0.013734478 -0.0018272155 -0.012865341
0.01457686 0.01044327 -0.0007361751 -0.013386513 -0.010000728 -0.0014272742 -0.012810323 -0.0006609243
0.0038105228 0.0040134275 0.010754773 -0.0059583783 -0.0040767873 0.010665704 0.004489898 -0.0065925503
0.009052361 0.0026769156 -0.0048881476 0.0066546546 0.0084019145 -0.012691989 -0.009946244 -0.0045317947
0.013277655 0.012671332 -0.00037472462 -0.012882182 0.0066856705 -0.011818308 0.0010079471 0.015824955
0.009845876 0.010023317 0.0111679435 -0.0072962283 -0.007241445 0.008661939 0.0045535616 0.0006485879
-0.010451351 -0.015034411 -0.008944545 0.01260395 -0.010237119 -0.010594395 -0.011974031 0.014457387
0.006193254 -0.00896688 -0.0008094348 -0.0111441575 0.005833774 0.00042176835 -0.013422131 -0.009197703
0.003575055 0.00030841242 -0.0021581617 -0.005013858 -0.01186384 0.015649922 -0.0080327215 -0.003922616

action_model._continuous_distribution.log_sigma f4 [1, 2]
00000000: 7277 0a3d 251c 233c
0.03380532 0.009955441

action_model._continuous_distribution.mu.weight f4 [2, 128]
00000000: 252f f93b 9c5b 583c 4933 d93b 12c4 7b39
00000010: 0bcf 1b3d 44a6 cb3b 67a6 52bc 9477 d83c
00000020: abea df3c 7777 39bc 88b6 893c 3786 30bb
00000030: f347 be3a 6d8b a5bb a05b 0bbb c9c3 64bc
00000040: 8c09 463d 58bb 5b3c 140a 0cbd 308c 163c
00000050: 888b 313c 0d35 393c 1380 1d3d 3317 83bc
00000060: e399 89bb 0482 9abc 61a4 81bc 0d06 b5bc
00000070: 427c ea3c 9f0c 523c 93fa 3d3c 9384 193b
00000080: 1baf d4bc 0a1c 97bc 4baf 443b 10b6 28bc
00000090: a131 9b3c d71a 9a3c 5659 27bc 3533 883b
000000a0: be71 93bc 577f 1c3c 24ab c0bc 6e97 de3c
000000b0: 2137 82bc 198b bdbc 58cf 2cbb 0d2e 18bd
000000c0: 5bd1 9b3c 2d38 9ebc 3c5a c23b 64cf 15bc
000000d0: 200d 873b e62b 053c b1d4 1a3c ba38 c23b
000000e0: b6e5 663a ef95 06bc 9e87 f93b 51cc 5bbc
000000f0: 431a 6bbb c7da 483c 00a5 503c 75e9 2b3c
00000100: c450 91b9 e0a3 423c df2f 9a3c 13f5 6e3b
00000110: b12e c73b dcac 76bb 9673 c13b c3bb ecbc
00000120: f776 94ba 50e1 bd3c 108d 773b b145 ed3b
00000130: a40b 9f3b 5b9b b03b 270a ea3c 2b18 b13c
00000140: 6199 e93c 36c0 623c 220f df3c 2edd 083d
00000150: 7307 bd3a 20e5 813c 25d7 b83c 5ed7 743c
00000160: 3d99 57bc a7fb 6bbb a741 313c bf65 c33c
00000170: 6bcc 99ba f1f9 1dbb 367c 9bbc 8613 bcba
00000180: f0a6 dc3a 3a63 05bc c3d9 83bc 05be 333c
00000190: a336 8a3c 0f3c 50bc f7ad 6ebc cd83 f6ba
000001a0: 6e1c 383c 8781 3c3c c4ba bd3c a21e 813c
000001b0: 310d c93b b0d8 c53c 0f4f aaba c9ac 05bb
000001c0: bea7 2cbc ae76 09bc ee1d 893c 6796 f13a
000001d0: 3c4d c53b e31f 94bc f35f 433c 814a 0a3d
000001e0: 7a13 773c 81c3 97bc 51a1 a83b 3348 193d
000001f0: 01b7 c63c b5f0 1f3b 0e1d 223c a5e3 1ebd
00000200: b37d f0bb d57b be3c 5f99 d73a f4f0 f43c
00000210: 2d8c 37bb 98cc d6bc ff8b 363d 2b8f e0bc
00000220: 2839 b53b 9b41 73bc e369 38bc d6ba 943c
00000230: 1725 4ebc d056 48bc e1e6 c3ba 6bd5 0a3d
00000240: 0d04 d5bc 2509 da3c 9c36 03bc 1c1f 23bd
00000250: 11fd 9e3c 4953 d13c b1de 173d 6668 9bbc
00000260: a06b 913b f121 12bd 526a 053d 9a19 c03b
00000270: af3c a4bc 05fc 7d3c fd7f bdbc 4dff 6d3c
00000280: 7db9 783c 3c16 eabc a80a 98bd 30ca ca39
00000290: fc02 443c ed14 103b 6ad5 8b3c c87e 3abc
000002a0: a21e ac3c 3443 23bd dc13 c5bc 5f31 f5bc
000002b0: c238 4c3c fbd4 abbb 14bc 07bd e20a 653d
000002c0: 33be c8bc 644f c63c 2565 8d3c a3ba 023d
000002d0: fa7a bab9 d4e6 ad3b b60c 91bb 75a4 0d3b
000002e0: b9d0 f53c 403c 5ebc a334 dd3c f4a1 21bd
000002f0: 43ac 02bd 13cd 023d aaba 6bb8 93de 25bd
00000300: adc7 7a3c e73d fc3c 130b 173c 7e8a 62bc
00000310: d612 89bc 6182 febb fd41 c3bc 12ae 00ba
00000320: 9997 393c 80c6 603b ccab 893c 2764 ddba
00000330: 2a3e 52bc 8085 f33c 198f a53c c229 febb
00000340: 5e26 123c 4730 2bbc 6793 84bc 22aa 8b3c
00000350: c861 543c 3664 d9bc 986b dfbc aa5b e1ba
00000360: fc02 153d c852 df3c 706f 68bb 7c81 30bd
00000370: 642f b83c e06e 34bd 7cce 0b3c 8044 383c
00000380: cff6 153d a6ef 943c 0494 d53c d8cc bb3a
00000390: 3de2 f1bb d725 993c af76 0a3c 04f0 a73b
000003a0: 2a95 cebc ee47 e0bc a92c 4fbc 9ab9 083d
000003b0: 0db8 06bd 2bd2 a4bc 8572 f9bc 1a9c 4e3d
000003c0: 11cd 7ab9 e579 b0bc 3a85 39bc 4941 f4bb
000003d0: d531 8a3c 0e4b 5f3c 22f0 b7bc 4856 bfbc
000003e0: 7826 943c fd8c 45bc 2195 173b d4b3 b2bc
000003f0: e4f1 3fbd ff4f 963d 9200 ddbc 3ad8 a9bc
0.007604497 0.013205435 0.006628428 0.00024010267 0.03803925 0.0062148888 -0.012857056 0.026424207
0.027333578 -0.011319987 0.01681067 -0.0026935467 0.0014517292 -0.0050520212 -0.002126433 -0.013962694
0.04834895 0.013411365 -0.0341893 0.009188697 0.0108364895 0.011304152 0.03845222 -0.016002273
-0.004199253 -0.018860824 -0.015825452 -0.022097612 0.028623704 0.012820392 0.011595386 0.0023424968
-0.025962403 -0.018445987 0.003001171 -0.010297313 0.018944563 0.018811626 -0.01021417 0.004156495
-0.017998572 0.009551845 -0.023519106 0.027171817 -0.015895428 -0.023137616 -0.0026368704 -0.037153292
0.019020727 -0.019313896 0.005931167 -0.009143684 0.0041214377 0.008128142 0.009450124 0.0059271725
0.00088080333 -0.008214458 0.007615044 -0.013415412 -0.0035873808 0.012259192 0.012734652 0.010492672
-0.0002771673 0.011879891 0.018821655 0.0036461994 0.006078564 -0.0037639653 0.0059036715 -0.028898126
-0.0011326958 0.023178726 0.0037773289 0.007240974 0.0048536826 0.0053896136 0.028569294 0.02161797
0.02851552 0.013839772 0.027228896 0.03341406 0.0014421776 0.015856326 0.022563526 0.014943926
-0.013159093 -0.003600815 0.010818875 0.023852227 -0.0011733895 -0.0024105276 -0.018980127 -0.001434908
0.0016834419 -0.008141333 -0.016095048 0.010970597 0.016871756 -0.012709632 -0.014567844 -0.001880759
0.011237247 0.011505491 0.023160346 0.015761677 0.0061356057 0.024151176 -0.0012993532 -0.0020397177
-0.01053804 -0.008390112 0.016737904 0.0018431664 0.00602117 -0.018081611 0.011924732 0.03376246
0.015080327 -0.01852584 0.0051461835 0.03742237 0.024257185 0.0024404947 0.0098946225 -0.038791317
-0.0073392033 0.023252407 0.0016448906 0.029900052 -0.0028007135 -0.026220605 0.044567104 -0.027412018
0.005530495 -0.0148471845 -0.011255714 0.018155497 -0.012582085 -0.012227729 -0.0014946127 0.033894937
-0.026002908 0.026615689 -0.008008625 -0.03982459 0.01940778 0.025552409 0.03707761 -0.01897068
0.0044378787 -0.0356769 0.032572098 0.005862427 -0.020048467 0.015501981 -0.023132319 0.0145262005
0.015180943 -0.028575055 -0.074239075 0.00038679084 0.011963602 0.002198513 0.017069537 -0.011382766
0.0210107 -0.03985901 -0.024057321 -0.029930769 0.012464704 -0.005243895 -0.03313835 0.05591858
-0.024504757 0.024207778 0.017260144 0.031916272 -0.0003556831 0.005307058 -0.004426564 0.0021612917
0.030006753 -0.013564169 0.027002638 -0.03946109 -0.031902563 0.031933855 -5.620221e-05 -0.040495466
0.0153063955 0.030791236 0.009218949 -0.013826964 -0.016732614 -0.007767007 -0.023835177 -0.0004908751
0.011327648 0.0034298003 0.016805552 -0.001689081 -0.012832204 0.029726744 0.020209836 -0.0077564428
0.00892028 -0.010448522 -0.016183568 0.0170489 0.012962766 -0.026537042 -0.027272984 -0.0017193456
0.0363798 0.027261153 -0.0035466813 -0.043092236 0.022483535 -0.04405105 0.008533116 0.0112468
0.03661233 0.01818068 0.026071556 0.0014328016 -0.007381706 0.018694801 0.008451148 0.0051250476
-0.025217611 -0.027378049 -0.012644925 0.03338013 -0.03289037 -0.020119747 -0.030450115 0.05044184
-0.00023918251 -0.021542499 -0.011323268 -0.0074540717 0.016869465 0.013628734 -0.022453371 -0.023356572
0.01808475 -0.01205754 0.002312966 -0.021814264 -0.046861544 0.07339477 -0.026977811 -0.020732988

action_model._continuous_distribution.mu.bias f4 [2]
00000000: 9a34 fdba e68e 643c
-0.0019318045 0.013950085

action_model._discrete_distribution.branches.0.weight f4 [1, 128]
00000000: ace6 bdbb efa4 693b ab87 753c 5f3e 2b3c
00000010: a396 86bb a700 8abb 83c4 32bc 4a9e f6bb
00000020: 5be5 9c3b f524 e83b b2a9 acbb d1a6 2b3b
00000030: ab84 943b c74a 173a e589 3fbb a15c 03b9
00000040: 2f32 44bc 1c61 1dbc df5b f33a 039f a03c
00000050: 9528 1c3c a591 43bc 59a7 aa3b 0922 803b
00000060: 8376 1c3b 5d64 82ba 76fd bc3b 277c 9c39
00000070: e627 b6bb 901e cebb ed4d f0bb 6776 30bc
00000080: bbc7 783a 4575 3bbc f9cd ad3b 225d 7ab9
00000090: be42 953a 8d16 7c3c 69d4 91bb 3e6f ac3a
000000a0: 94e9 2d3b d3f9 0f3b 93fc e0ba 6134 823c
000000b0: 6a7f a5bb 2221 e03b 6f80 90bc f9b0 48ba
000000c0: d54e 4f3c 306e f33b dd5c 093c 3596 ba3b
000000d0: 0004 423b 326d 3b3c 50e5 583c cf4c 9b3c
000000e0: 4c9f 4a3b 482b 66ba 7071 833a 3814 b13a
000000f0: fac9 42bc 4bf1 05bc babd 82bb 7256 c539
00000100: b014 40bc 1021 dbba c709 16bc 13aa 253c
00000110: 83f5 feb9 4fa1 513a c3c9 ac3a 0bcc a93b
00000120: 8fe4 75bc 5b03 8cba c094 50bb 27a0 843c
00000130: 918c 393c 3d6c 543b cf9c 153c dd60 99bc
00000140: bb44 213a 2395 d1bb 51e5 173c 57ca 2fbb
00000150: 87bd 52bc c098 44ba 77d9 4e3b 0aa4 463a
00000160: 885f 6abc 1234 4d3c 539d debb 795f 87b9
00000170: d181 25bc a106 94bc 5b16 1f3b 2e9f cbbb
00000180: d598 e43a 27f1 5b3a 33dc edbb a25d 17bb
00000190: bfa8 c93b 2bf6 26bb a28d d7bb 8c47 1dbc
000001a0: 73c8 093c a265 cbbb 5f73 22ba a57b 173c
000001b0: b529 5cbb dadf 02bc df6c c33c 4dff d63a
000001c0: 52a5 10bb f080 b73b ebd1 5039 17d6 c4bb
000001d0: 1e2a b6bb d393 1e3b 64f9 92bc 93a3 c33a
000001e0: 13a1 883b a0aa d538 b299 e93a 458d d8bb
000001f0: 0adf 893c 8bac 383b f368 be3b 0c1e c53b
-0.0057953205 0.0035651287 0.014985959 0.010451882 -0.0041073128 -0.0042115035 -0.01091111 -0.0075261937
0.0047880835 0.0070844837 -0.0052692527 0.002619196 0.004532417 0.00057713356 -0.0029226479 -0.0001252764
-0.011974855 -0.009605672 0.0018566808 0.019607073 0.00953116 -0.01193658 0.0052079377 0.0039103073
0.002387435 -0.0009948123 0.0057675196 0.0002984714 -0.0055589555 -0.0062902644 -0.007333508 -0.010770417
0.00094902114 -0.011441533 0.005304095 -0.00023876553 0.0011387689 0.015386236 -0.00445037 0.0013155711
0.0026536928 0.0021968975 -0.0017165117 0.015894117 -0.0050505893 0.0068398872 -0.017639367 -0.00076557655
0.012653072 0.007428907 0.008383957 0.0056941756 0.0029604435 0.011439608 0.013238266 0.018957524
0.0030917702 -0.0008780253 0.0010028314 0.0013510054 -0.011888975 -0.0081752045 -0.0039899023 0.00037639175
-0.011723682 -0.0016718227 -0.009157605 0.01011135 -0.00048629576 0.0007996754 0.0013182688 0.0051817945
-0.015008106 -0.0010682152 -0.0031826943 0.016189648 0.011325018 0.0032413148 0.009131624 -0.018722946
0.0006151904 -0.0063959523 0.009270982 -0.0026823485 -0.01286257 -0.0007499568 0.0031562725 0.00075775443
-0.014305003 0.012524622 -0.006793657 -0.0002582034 -0.010101751 -0.018069567 0.00242748 -0.006214044
0.0017440567 0.00083901215 -0.007258916 -0.002309658 0.0061541493 -0.0025476317 -0.0065781632 -0.009599578
0.008409607 -0.006207184 -0.0006197001 0.009245788 -0.0033594195 -0.007987941 0.023855625 0.001640299
-0.0022071195 0.0056000873 0.00019914626 -0.006006967 -0.00555922 0.0024196997 -0.017941184 0.0014926068
0.004169592 0.00010188413 0.0017822294 -0.0066086375 0.016829986 0.0028179015 0.0058108508 0.0060155448
